results/CubeAgentZoneRay-5/CubeAgentZoneRay-5/CubeAgentZoneRay-5-100273.onnx (onnx, 80046 bytes, 8 tensors)

action_model._continuous_distribution.log_sigma f4 [1, 2]
00000000: 2535 afbd 583a 51bc
-0.085550584 -0.012770258

action_model._continuous_distribution.mu.bias f4 [2]
00000000: ac47 723c 0aaf 85bc
0.014787596 -0.016318817

action_model._continuous_distribution.mu.weight f4 [2, 128]
00000000: f1df 683c 40f5 1e3d cd83 08bb dd43 cebb
00000010: d560 1e3c 0a5d b33a 9a78 a9bb 19bc cbbc
00000020: bfb6 fb3a b4e4 16bd 4bf3 833c 7d6a 6c3c
00000030: c47e 083d 603d 093d 6327 37bc 2985 31bb
00000040: c71d 343d 32cc 13bc 1503 003d cf58 8fbb
00000050: 5712 1bbd f040 06b9 6d81 2c3d bfc4 2d3d
00000060: a1bd bf3c 7220 d3bc 6f78 42bb eb1b 81bc
00000070: bb17 02bd 5ed9 d4bc 6326 ab3d 8bce c2bb
00000080: d1b3 85bc eac7 143d 95c6 1ebc 987b 88bd
00000090: 1727 d13c 1ba1 0b3d 5ad7 f73a f617 bdbd
000000a0: 41b7 343d 22ba cd3b 6cd7 70bc 0bc6 4f3c
000000b0: 7840 3d3d 5041 a2bb 9727 e6bc 71e4 dc3b
000000c0: 7591 bcbc 344a 943c c64e 403d 3588 a0bc
000000d0: b6dd 3ebd 9775 b0bd 1417 163c d768 18bc
000000e0: e141 cc3c 2039 9cbc e091 363c 2222 ef3c
000000f0: 8860 003d 2440 063d 8819 e0bb 6f74 593c
00000100: aa0c 863c 8912 a33d 8938 043c 6386 0c3d
00000110: 7eb7 5d3d 0b76 14bc 5971 873c 0a7c a53d
00000120: ac0d 8b3c 1829 d2b9 38d6 b53c 4d05 133d
00000130: 4c96 b0bc f57c b7bc 6de8 8f3c db64 be3c
00000140: 37cb 163d 946b 643d 981b 5e3a 06b2 22bb
00000150: e56e a23c bd61 843d 7c1a a0bc 7046 d5bc
00000160: b0a5 c53c 1635 95bc 799e c8bc 024f 823d
00000170: 45d3 ebbc 85a8 873d c3ec 233c eae6 1c3c
00000180: 28b4 1f3d 0bb6 8b3c 601c 5a3c e2cf 673d
00000190: 0350 c33c 1461 23bd f257 23bd 4a24 263d
000001a0: f1cf 693a 07b9 1dbd 950d 0fbc 3479 bf3c
000001b0: e95a 303d 82bc 9e3c 6cbe 4fbc bb34 b63c
000001c0: afe5 353c 32ca 053d 99fb dc3c d6bd 22bc
000001d0: 3ad6 f33c cbfb 713c 43e9 3b3b b803 a73b
000001e0: 8215 753c a67a c2ba 0c8c 063d 6ef2 203d
000001f0: 474c aebb f40a 7ebd a01d fc3c 153b 393d
00000200: 61ef e0bb b856 493c 89f1 033d b9b8 4e3c
00000210: ab45 fb3c efe9 6e3c 2c92 0a3c ddfa 4abd
00000220: 15b6 d83c 50ef f9bc 0c29 24bc 03f5 843a
00000230: ca7f 27bb 5472 0abd 0e2f 8c3c de24 e43c
00000240: 5046 a93c 793f 1e3d 00cc 0dbd 524d b8bb
00000250: 6069 80bd 4950 fabb 7a89 5b3d 4c59 433d
00000260: e4dd 29bd b83c 34bc 250b 84bd 74c4 c4bb
00000270: c319 923c 4bdf c43c eb95 983c 8b15 bbbc
00000280: 7d10 263c ead6 4d3d 6840 38bd a819 1ebc
00000290: 1155 903b dd20 ee3c 55ee 8abc 8914 19bd
000002a0: 1040 abbc ff84 493c 80c9 c93c 26ff 2b3d
000002b0: ba88 1a3d 5ff8 073c 79f6 ebba 095b 37bd
000002c0: c0f0 563c c51c 773d 99e8 8d3c ea22 cc3c
000002d0: f1d4 a8bd 5567 4cbd 6d64 a4bc 9f37 4c3d
000002e0: 81b4 a3bc 6c18 b33c 7c5b 41bd 377a 44bd
000002f0: c874 4c3d fb67 293c f64f 3b3c 8e37 8f3c
00000300: 30ab 003d fe18 bb3d 7a1e cb3c d3c0 e6bc
00000310: b543 3b3c abaa a53c 2cf9 00bd 8c86 863d
00000320: 10dc b73c f148 46bc b180 e83c d85b 703d
00000330: c073 1abc 9e02 51bc acc7 fe3c 7331 01bd
00000340: f114 0f3d a7dc 053d 8b5a e33c 1b60 743c
00000350: 69c4 513c 8385 c53c dbbf 693c 8a84 0fbd
00000360: 1bea 173d 731b 9bbd d783 7a3c 1ba2 b03d
00000370: 93f2 04bd 4d75 8f3c 2068 af3c 01b7 a83d
00000380: 98be 933c ac16 b3bc f007 1cbd 25b7 123d
00000390: 1a1b 4d3c 985d 8abb 2395 35bd 9202 8a3d
000003a0: 0c8a 5cbd 2ecc e3bc 8b00 7e3c f624 16bd
000003b0: 039d 1b3d 84ff 2a3d ddf4 e43c 6063 393c
000003c0: a8f4 86bb b1bc e03b 4c80 163d 1574 323d
000003d0: 5305 66bd a706 f6bc c02a 313d 022c 34bc
000003e0: 2fe0 6a3b 2d6b 13bd 6865 8e3c 356a 603b
000003f0: 3611 3fbc c7dc 683c a6b2 03bc 0f5b c5bc
0.014213548 0.038808107 -0.0020830513 -0.006294711 0.009666641 0.0013684344 -0.0051718475 -0.024869965
0.0019204243 -0.036839202 0.016107222 0.014429686 0.033324018 0.033505797 -0.011178824 -0.0027087426
0.04397371 -0.009020852 0.03125294 -0.0043746005 -0.037859287 -0.00012803427 0.042115618 0.04242396
0.023405852 -0.025772307 -0.0029673835 -0.015760383 -0.031760912 -0.025982555 0.08356931 -0.005945032
-0.016321095 0.036323465 -0.0096909 -0.06664199 0.025531335 0.03408919 0.0018908784 -0.09233086
0.044120077 0.0062782923 -0.014699798 0.0126814945 0.04620406 -0.0049516335 -0.02809505 0.0067410995
-0.023018578 0.018101789 0.046950124 -0.019596199 -0.04659816 -0.086161785 0.009160776 -0.0093023395
0.024933757 -0.019070208 0.011143178 0.02919108 0.03134206 0.032776013 -0.006838981 0.013272389
0.01636346 0.0796252 0.00807012 0.03430785 0.05413007 -0.009061347 0.01653354 0.08080299
0.016974293 -0.00040084939 0.022196874 0.035893727 -0.021556042 -0.022398451 0.017566884 0.023241451
0.036814895 0.055766657 0.000847274 -0.0024825349 0.01982827 0.064639546 -0.019543879 -0.026034564
0.024126858 -0.01821379 -0.024489628 0.06362726 -0.028787265 0.066239394 0.010005179 0.009576539
0.03899017 0.017054578 0.013312429 0.056594737 0.023841863 -0.039887503 -0.039878793 0.04056195
0.00089192303 -0.038506534 -0.008731266 0.023373224 0.04305545 0.019376997 -0.012679677 0.02224194
0.011102124 0.03266353 0.02697544 -0.009932956 0.029765237 0.014769505 0.002867297 0.005096879
0.014958741 -0.0014837577 0.032848403 0.0392937 -0.0053191516 -0.062022164 0.030775845 0.04522236
-0.0068644737 0.012288742 0.032212768 0.0126172835 0.030672869 0.014582141 0.008457702 -0.049555648
0.026454011 -0.03050962 -0.010019552 0.001014382 -0.0025558346 -0.033800438 0.017112281 0.02784961
0.02066341 0.03863475 -0.034618378 -0.0056244517 -0.06270099 -0.0076389653 0.053597905 0.047692582
-0.041471377 -0.011000805 -0.06447438 -0.0060048643 0.01783455 0.024032256 0.018626174 -0.02283742
0.010135767 0.050253786 -0.044983298 -0.009649672 0.004404672 0.029068405 -0.016959349 -0.0373731
-0.02090457 0.012299775 0.024632215 0.041991375 0.03772805 0.008298962 -0.0018002532 -0.044764552
0.013118923 0.06033017 0.017322825 0.024918992 -0.0824374 -0.049903233 -0.020067418 0.049857732
-0.019983532 0.021862231 -0.047206387 -0.047968116 0.04991606 0.010339732 0.011432638 0.017482545
0.031413257 0.09135626 0.024794806 -0.028168118 0.011429717 0.020222982 -0.03148763 0.065686315
0.022443801 -0.0121023515 0.028381677 0.05868134 -0.009427011 -0.012756972 0.03110107 -0.0315413
0.03493208 0.032681134 0.027753135 0.014915491 0.0128031755 0.024111515 0.014266933 -0.03503851
0.037088495 -0.07573595 0.015290222 0.08624669 -0.0324579 0.017511988 0.021411955 0.0823803
0.018035218 -0.021861397 -0.038093507 0.03581919 0.012518669 -0.004222583 -0.04433168 0.067387715
-0.05384259 -0.027807321 0.015503059 -0.036656342 0.037991535 0.041747585 0.027948791 0.011315197
-0.0041185208 0.0068584313 0.036743447 0.043567736 -0.05615742 -0.030032469 0.04325366 -0.01099682
0.003583919 -0.035990883 0.017382339 0.0034242992 -0.011661818 0.014212794 -0.008038199 -0.024091272

action_model._discrete_distribution.branches.0.weight f4 [1, 128]
00000000: b558 53bc 377b 3c3b c81a 7c3b e583 fdbb
00000010: 3b12 13ba c95f 183b e8ec deba 67a3 89bb
00000020: 7c5f 053c a63c 343c f3a3 ef3b 025f 5abb
00000030: 4fc8 453c 7f00 35bc 83a1 a33a f6ac 3e3c
00000040: 0eb5 873b 7188 af3b 653b 843b 3b9c 62bc
00000050: 83bd d5bb e1eb 9e3a 6fff 393c 231e 17bc
00000060: 1f0c 54bc e2e6 7bbc 243a 833b d52a 0a3c
00000070: 7b6a 6a3c 641f 393c 1551 813c 820c 963b
00000080: e827 203b 3daf e1bb 9bac 5d3c 4c2e a6bc
00000090: 2329 303b 37d6 c23b 2d07 e23b 6236 623b
000000a0: 6bec c13c ad56 783a b022 5b3a d007 513b
000000b0: 1848 633c b5cb 0b3a fd99 643c eff4 a73a
000000c0: 25c8 19bc 3afb febb 4fa0 29bc 8767 933b
000000d0: 0f07 9d3b e261 b4ba b2d0 6cbc 6df4 ccbb
000000e0: d94d 05b9 c364 44bb ada7 1bbb e47e 9ebb
000000f0: 1720 0b3b ab98 223c 44df 83bc ea9e 7e3b
00000100: 77b5 733a 2852 553c 6d23 e03a 2b0e 213c
00000110: c84d e1bb 03a5 adba 6816 a1bc c807 adbb
00000120: 07c9 793a ae5a 233b 1d85 59bb b4f9 093c
00000130: f52c e1b8 e0da d4ba 3d19 ff3b 960a 113c
00000140: 30f9 02bc f74c e4ba 360b 22bc efc7 6f3c
00000150: 31fd 173c 2c25 893c a5c3 a438 28cd 413b
00000160: bafd 89bb 7f0f 58bb d56b 64bb 9a96 e33b
00000170: fb0e 1cba f016 10bc 7a40 57bc e6b1 83bc
00000180: a210 f1bc 6dde 63bc 3a68 b8b9 bb4b a43a
00000190: 64d9 853c d7f0 163b 6d82 5dbb 9885 e83a
000001a0: a21f 8b3c fa78 e13b a123 bfbb 3b0a 63bb
000001b0: ace8 48ba e0c8 ecba 1857 2d3c 69b4 8f3c
000001c0: 4189 0a3c b394 47bc 8bf1 f9bb fa1f ff3a
000001d0: d312 65bb bf48 a4bc c1c1 213b 0a14 403c
000001e0: 1f6a 243b 7b53 0bbc 3f6c cbbb 66eb bdbb
000001f0: 04f7 0b3c 3b85 96ba 9716 d8bb 0216 18bc
-0.012899567 0.0028759965 0.0038468111 -0.0077366703 -0.00056103215 0.0023250452 -0.001700786 -0.0042003873
0.008140441 0.011000788 0.0073132454 -0.003332079 0.012071683 -0.011047482 0.0012484047 0.011637917
0.0041414564 0.0053568413 0.0040354007 -0.013831194 -0.0065228357 0.0012124741 0.011352404 -0.009223494
-0.012942343 -0.015374871 0.0040047336 0.0084330635 0.0143076135 0.011298988 0.015785733 0.0045791278
0.0024437848 -0.006887345 0.013529922 -0.020285748 0.0026879988 0.0059459466 0.006897828 0.0034517278
0.023672303 0.0009473365 0.0008359356 0.0031895526 0.013872169 0.0005332784 0.013952729 0.0012814085
-0.009386097 -0.0077814134 -0.010353162 0.0044984254 0.004792101 -0.0013762082 -0.014454054 -0.0062547238
-0.00012712869 -0.0029967285 -0.0023751066 -0.004836904 0.0021228844 0.009924094 -0.016097672 0.0038852044
0.0009296755 0.013020076 0.0017100401 0.009830038 -0.0068757273 -0.001324803 -0.019664004 -0.0052804686
0.00095285516 0.0024925875 -0.0033190914 0.00842135 -0.0001073721 -0.0016239546 0.007784991 0.008852622
-0.007993981 -0.0017417957 -0.009890368 0.01463507 0.009276674 0.016741358 7.856571e-05 0.0029571746
-0.0042111548 -0.003296822 -0.0034854312 0.0069454433 -0.000595316 -0.008794531 -0.013137931 -0.01607604
-0.029426876 -0.013908011 -0.0003517287 0.0012534776 0.016339011 0.0023031735 -0.0033799664 0.0017740009
0.016982857 0.0068808766 -0.0058331047 -0.003464355 -0.00076640653 -0.0018065237 0.010579847 0.017542081
0.008455575 -0.012181449 -0.007627671 0.0019464486 -0.0034953847 -0.02005422 0.0024682137 0.011723528
0.0025087667 -0.00850379 -0.0062079723 -0.005795884 0.00854278 -0.0011483798 -0.00659449 -0.009282591

network_body._body_endoder.seq_layers.0.bias f4 [128]
00000000: 77bd 96bc 9a65 61bc 5bbd d33c cf5e b63c
00000010: a161 fc3a 295b 333c 347f 333b 7453 48bd
00000020: c616 e2bb f18a e9bc 6f32 a7bc b43b 963c
00000030: b26f e1bb 2b09 fe3c b827 c9ba 7266 bfbb
00000040: 6453 383c daf4 c13c 4a4a 383c 7692 92bc
00000050: 685a b13c 6d18 96bb 20ba b43d 9497 683c
00000060: 5d8b a23b 9fcb 26bb f30e 183c 8cf7 2f3c
00000070: 081c ae3d ac8d fa3b 4ac6 6c3c 86cd 45bc
00000080: 1c78 3c3c cbf6 ce3c d9d7 c93a cb02 933c
00000090: 0815 babc e13c 0f3c 41f2 d0bc d6aa 133b
000000a0: 5530 103d 833e d3bc 337a eb3b fd2e cf3b
000000b0: 0b37 52bd 21e5 8fbd a25c dabc f2df e6bb
000000c0: e9a6 16bc 8cab 053d f349 853d c83d 323d
000000d0: 0bb3 97bc 482e ce3c 2a3f 223d 3f44 f93c
000000e0: 5dea 49bc c4b9 cd3c e53c 5e3c 7bb5 4b3c
000000f0: ea10 813c a3af eabb 2f69 48bc d3a0 273d
00000100: 854d 6b3c 3e35 be3c 5b2e cbbc 0583 5ebc
00000110: 4526 8dbd 036b 45bb fbf0 d83b 45e1 363d
00000120: 889a 77bc fa2f ccbc cbd0 acbb 681c 27bc
00000130: 51cd 2f3d 0232 e13c d43c d03c f307 623b
00000140: c657 26bd eec1 15bd 98e8 e6bc cf34 1d3b
00000150: 6458 f3bc 6b0e 4e3c 5ac7 8fbc 7105 0cbc
00000160: 1bca 91bc 4f6b 9e3c 6379 bb3b c1d7 233d
00000170: a658 bf3c 50eb 433c 92d4 97bc f358 cf3c
00000180: e6b5 013b dce4 153b 4032 a03b b71d 263d
00000190: 0d22 6a3d 8338 b3bc 2456 b73c 6105 26bc
000001a0: b8ae dabb c7ef 5f3c 2d37 b7bc 738f b73a
000001b0: 3962 133b b1fb 6cbc 9d80 343d 8aaf 12bd
000001c0: 3821 a1bd 0529 93ba 65a7 a23c 9c71 23bd
000001d0: a7ad 47bd 673f b9bb 0951 67bd a07d bb3a
000001e0: 4c14 5f3d 4595 963a ad08 45bc 204c eab9
000001f0: 2b4f 25bd e87b c8ba 1c62 ed39 0d40 50bb
-0.01840089 -0.013757134 0.025847128 0.022262005 0.001925517 0.010947027 0.0027389051 -0.048907712
-0.0068996875 -0.028508635 -0.02040979 0.018339016 -0.00687977 0.031010231 -0.001534692 -0.00584107
0.011250351 0.023676325 0.011248181 -0.017892104 0.021649554 -0.0045805485 0.08824563 0.014196295
0.004960461 -0.0025450957 0.009280908 0.010740172 0.0850144 0.007646283 0.014451573 -0.012072926
0.011503246 0.025264164 0.0015399411 0.017945668 -0.022715107 0.008742542 -0.02550614 0.0022532246
0.035202343 -0.025786644 0.007186198 0.00632274 -0.051322024 -0.07026125 -0.026655499 -0.0070457393
-0.009195068 0.032634303 0.06508245 0.04351595 -0.018517992 0.025168553 0.03961102 0.03042805
-0.012323943 0.025112994 0.013564323 0.012433405 0.015755136 -0.007162051 -0.012232109 0.04092486
0.014361744 0.023218747 -0.024802377 -0.013581042 -0.06892065 -0.0030123598 0.006620524 0.044648428
-0.015112527 -0.02492522 -0.0052739135 -0.010199644 0.042920414 0.027489666 0.02541963 0.0034489601
-0.04061105 -0.0365619 -0.028187081 0.0023987775 -0.029705234 0.01257668 -0.017551113 -0.008546219
-0.017796567 0.019338278 0.0057212575 0.04000068 0.0233577 0.011957958 -0.018533979 0.025310969
0.0019792258 0.0022872007 0.0048888028 0.040555682 0.05716138 -0.021877533 0.022379942 -0.010133118
-0.00667366 0.013668007 -0.022365177 0.0014004543 0.0022488965 -0.014464305 0.044067968 -0.03581194
-0.07867664 -0.0011227435 0.01985521 -0.03990327 -0.048749592 -0.00565331 -0.056473766 0.0014304407
0.054462716 0.0011488578 -0.012025994 -0.00044688676 -0.040358704 -0.0015295716 0.0004527726 -0.0031776458

network_body._body_endoder.seq_layers.0.weight f4 [128, 17]
00000000: 6509 ec3e 15c6 6fbc 5577 0d3e 13ea 4d3d
00000010: eb17 c6be e2be 0e3e ca97 87be 8c41 25bd
00000020: 1f68 9abd 0b00 343e 6d22 19bd c736 5f3d
00000030: eb36 da3d 4435 783e 2c09 f63d 98e8 d0bd
00000040: 5b50 723e 7880 8c3e ab53 9ebc c103 523e
00000050: d457 b03e 6bfe d63c 90dc bfbe aa54 4a3b
00000060: 72d2 083e 8380 9dbe 1ebf e73d 72de 583d
00000070: 208f 12bd c67d 86be c74a 0fbe 5bd1 c33e
00000080: 3073 0a3f 0c7a 90be 4443 f23d df24 b73e
00000090: 357f 71bd 9b59 f8bd 3f6e 60be b0e7 48be
000000a0: ce9b cfbd aab0 f0bd 5094 01bf b5bc 83bd
000000b0: 55a8 503d a1b0 99be 171a 64bf 4d07 903e
000000c0: 4c16 a93d a3db 8fbe 55fc 073e 84b2 d13e
000000d0: eab0 71bb 882f febd 5935 0fbc 1721 bb3c
000000e0: 7d48 6fbe efc2 bdbd 8d93 66bc cabb c63d
000000f0: 972e d33d 8982 4ebc 7d83 26be 3a72 5cbc
00000100: 6523 79be 91dc b9be 55c1 07be fd3c f6bc
00000110: 25e0 84be 978b 263c e599 c6bd c264 75be
00000120: 6ec5 b3be 0352 0a3d 199c 2b3e 8f19 7bbe
00000130: 911d a03c 783d 63be 4b63 fc3d bd86 28bf
00000140: 4c66 09bf 7842 b8be 825e 68be 6ed6 6abd
00000150: 2348 c53d ddac 503e 198f 20be d182 2ebe
00000160: 077e 3b3b 9a3e 403e 0fa6 313d 8528 21bf
00000170: d1ef a0bc 091d 813d 348a 213e 1ab5 623d
00000180: 5cb6 1a3d 89a4 8a3e ca55 07bc f5ac 1b3e
00000190: aa64 f43d 21bc 483c a15e 22bf b774 8f3e
000001a0: b91c 523d b7cf 613d 2586 533e 3937 e9bd
000001b0: 87d7 86be 89d4 cebe 3071 57be 66bc d43c
000001c0: 7b95 86be f874 e33e 3665 b93e d3a5 b1be
000001d0: 2e6d b7be 7ba8 13be ed73 f83e a7af 323e
000001e0: 24e0 5d3c 8b2b eabe 34eb 9c3e 5029 fabe
000001f0: 04b0 ec3e c14a 07bd 1bd4 5e3d de14 753d
00000200: 1d66 a2bc 8acb b73d 6895 a43d ebaa dcbd
00000210: 495d b3be d71e 003e 5918 803e f3c9 373e
00000220: 7036 dbbe 4f50 793c 71ad c03e 4917 b0be
00000230: 6630 2abe f364 98bd b5e7 afbd 3224 323e
00000240: 25f9 39be 4101 9abe 6504 463e 36d3 b5bd
00000250: a1b1 e1bd 32d8 0e3e 6a27 113e 0ea1 8fbd
00000260: cb4b d8bd 9b63 473e fc3e 38be 5361 c53e
00000270: 7096 7f3e be1e e63d f72d 85bd 5fd4 8cbe
00000280: a2f7 7e3e dcb0 5f3d 61da 603e 1f27 c83d
00000290: 208a a93e 3ee1 8dbe 74a3 8cbe 4be1 9c3e
000002a0: 7f1f 593d f014 003d 9691 20bd 0274 7f3e
000002b0: 1262 9e3d fbb0 b1be d8ee 983e e3e9 313d
000002c0: 31c2 53be 86fb 2c3e f826 9bbc 63e6 173e
000002d0: 9261 6fbe fc57 383e 4f6c e6be 6693 18bf
000002e0: 5a5d 13be c62c d73b 8acd f5bd a90c 8cbe
000002f0: cb37 3fbe 198f 013f 0bd6 a73d 07c9 12bf
00000300: c528 06be 2116 54bd b90c b8bd 2d2e edbd
00000310: d93a 90bd 89fc c33e 5556 373e 5332 01bf
00000320: 20f3 583e 85c9 e3be 7333 dabe 23c4 f13e
00000330: 23fe fdbd 68ae 233e 6ad2 92be 0808 75be
00000340: 0ffe 783e e9ea e8bd 18b1 4a3e e9bc 94be
00000350: 6cf5 873e 19bf 513e 265d 423e ac7d 8f3e
00000360: cc55 5b3e 2182 c3bd 7015 213e 7693 423e
00000370: 3a44 223e 18bd a7be de38 afbd 0d4a 013f
00000380: b64a c2be a089 a8be fdb9 20be 372a babd
00000390: 9e42 0a3f 8bb1 663e db69 133e e695 ca3d
000003a0: 51b2 0bbe 3748 afbd 1ec7 333e bb66 123f
000003b0: f7ff 883c 90e8 a8bd eaf4 ce3e 6fe2 9fbc
000003c0: 2186 3f3d a215 c53d a81c a83e c421 f23c
000003d0: fef4 40bd 9ec2 983d a8bd 02be 50a2 a63d
000003e0: 09f8 923e 4d50 4ebe 5237 3a3e 77e6 80bc
000003f0: 1e5f 8b3d 7704 273f e01b a8bd 40b3 f73e
0.46100917 -0.014634629 0.13815053 0.05027206 -0.38690123 0.13940004 -0.26482993 -0.040345713
-0.07539391 0.17578141 -0.037386347 0.0544956 0.10655006 0.24239069 0.12013468 -0.10200614
0.23663466 0.27441764 -0.019327005 0.20509245 0.34442008 0.026244363 -0.37472963 0.0030873218
0.13361529 -0.3076211 0.113157496 0.052946515 -0.035781026 -0.26267833 -0.13993369 0.38245663
0.5408201 -0.28218114 0.11829236 0.35770318 -0.058959205 -0.12126466 -0.21917056 -0.19619632
-0.10137139 -0.11752446 -0.5061693 -0.064324774 0.050941784 -0.3001757 -0.8910231 0.2813057
0.08256206 -0.28097257 0.13279851 0.4095651 -0.003687913 -0.124114096 -0.008740746 0.022842927
-0.23367496 -0.09265696 -0.014073265 0.09703787 0.10311621 -0.012604364 -0.16261096 -0.013454968
-0.24329908 -0.3630109 -0.13257344 -0.030058378 -0.2595226 0.010165117 -0.09697322 -0.23964217
-0.35111564 0.03376962 0.16758765 -0.24521469 0.019545348 -0.22191417 0.12323626 -0.65830594
-0.5367172 -0.35988212 -0.22692302 -0.057333402 0.096328996 0.20378442 -0.15679587 -0.1704209
0.0028609054 0.1877388 0.043371256 -0.6295245 -0.019645603 0.06304366 0.15775377 0.055348493
0.037771568 0.27078655 -0.0082602 0.15202697 0.11933263 0.012251885 -0.6342564 0.28018734
0.051296923 0.055129733 0.20656641 -0.11387486 -0.2633631 -0.40396526 -0.21039271 0.025968742
-0.2628592 0.44425178 0.3621003 -0.34696826 -0.35825485 -0.14419739 0.48525944 0.17449819
0.013542209 -0.45736346 0.30648196 -0.48859644 0.4622804 -0.033030275 0.0544015 0.059834354
-0.019824082 0.08974369 0.080363095 -0.107747875 -0.35032108 0.12511764 0.25018576 0.17948131
-0.4281497 0.015216901 0.37632325 -0.34392765 -0.16620025 -0.074411295 -0.085891165 0.1739662
-0.18161447 -0.30079082 0.19337614 -0.08878176 -0.11020208 0.1394966 0.14175192 -0.070131406
-0.10561331 0.1947159 -0.17992777 0.38550815 0.24959731 0.11236332 -0.06502908 -0.27505776
0.24899152 0.054612026 0.21958305 0.09773087 0.33113194 -0.2771091 -0.27468455 0.30640635
0.053008553 0.031269968 -0.03920134 0.24946597 0.07733549 -0.34705338 0.29869723 0.043435942
-0.20679547 0.16892824 -0.01893948 0.1483398 -0.23377064 0.18002313 -0.45004508 -0.5959991
-0.1439108 0.0065666167 -0.12002094 -0.2735341 -0.18673627 0.50608975 0.08195122 -0.57337993
-0.1310149 -0.051778916 -0.08986802 -0.11581073 -0.07042474 0.38278607 0.17904027 -0.50467414
0.21186495 -0.44489685 -0.42617378 0.47219953 -0.12401988 0.159845 -0.28676158 -0.23928845
0.24315666 -0.113729306 0.19794118 -0.29050377 0.2655443 0.20483054 0.18980846 0.28025568
0.21419448 -0.095463045 0.15730834 0.19001564 0.15846339 -0.32761455 -0.085557684 0.5050362
-0.37947625 -0.329175 -0.15695949 -0.09090083 0.540079 0.22528665 0.1439585 0.09891872
-0.13642241 -0.08558696 0.17556426 0.57188004 0.016723616 -0.08247483 0.4042123 -0.019517152
0.046758775 0.09623267 0.32834363 0.029557116 -0.047108643 0.07458995 -0.1276766 0.081364274
0.2870486 -0.2014782 0.18185166 -0.015734894 0.068052515 0.6524119 -0.08208442 0.48378944

network_body._body_endoder.seq_layers.2.bias f4 [128]
00000000: c20f 63bc 597c 38bd 9df8 92bc c40a 56bc
00000010: 0188 703c 9389 703b 83c4 8abb f99a f3b8
00000020: 4c8d babc df6b 303c 828f d9bb 8558 90bc
00000030: 8908 1abc 2280 3d3c f4fa 043c 5d4b c33c
00000040: e251 c7ba ec1b 75bc 0da6 0e3c c414 2ebd
00000050: 5fb8 483d 9b13 bbbc 628d ad3c 93a3 d8b8
00000060: 67f3 993c 291b a0bc 462f b93c 3634 293d
00000070: 6eeb 023c 5d3a 02bc 7268 e13c 1997 cdbb
00000080: 2e48 22bb 25e2 9937 efc9 ed3c 15b4 43bc
00000090: 2fc3 32bd 04f9 fa3a 38f5 a0bb 9def ed3c
000000a0: 3146 e73b 4d49 9c3c 91c5 edb9 da85 e33c
000000b0: 5694 b73c e3b9 a1bb e3e0 36bd 7e70 593c
000000c0: 5323 82bd a985 bf3c 4970 42bb 9453 81bc
000000d0: 35d7 d93c 1205 183d fdc1 cebc 0a2c 453d
000000e0: 4147 9d3b 6490 3039 5314 30bd af00 223c
000000f0: ae19 07bc 5fc1 82bc 5f1a 8dbb 5db7 86bb
00000100: 942a 033c cd62 383d 2b36 243c 077a 9a3b
00000110: 79d2 d33b c613 0bbc af48 7f3c 36b1 643c
00000120: 113f 2dba 0d08 e9bb 1332 4e3b 26cc 213c
00000130: b71b f03c 7b5e 39bc 7e29 e5bb b0cf 4d3c
00000140: 4af1 dbbc 0588 ce3c fc1d bb3c e44c bc3c
00000150: 238e 963c a410 6b3b dbd8 97ba 7eda 7dbc
00000160: 5bcf acbb bdaf 093d 6a97 86bc 657f 353d
00000170: 51a2 153b 900d ce3b eb65 203b 36e0 243d
00000180: b9b6 b7bc 7952 1dbd ed76 c53b 51dc 2e3c
00000190: 9782 b4bb 9246 39bd a52a aa3b 6a38 a83c
000001a0: 013d 783c a6fe 953b 9e5e 40bc d3fb 41bd
000001b0: 2bc7 2f3c e907 e13c 2c5e 10bc 832d f1bc
000001c0: 14ad 56bd 37e7 eabb 2232 493c 1b7b b93b
000001d0: a565 ca3c feb8 b43b c598 ba3c 7a2b 2abd
000001e0: d84b edbc 6e84 a53b 43e8 11bd 1ac3 ab3b
000001f0: 3dcc afbc fd43 29bb bb80 03bd 07cd 223c
-0.013858737 -0.045040462 -0.017940814 -0.01306409 0.014680863 0.0036703094 -0.004234852 -0.00011616009
-0.022772454 0.010767906 -0.006639422 -0.017620334 -0.009401449 0.011566194 0.0081164725 0.023839647
-0.0015206898 -0.01496027 0.008706582 -0.042500272 0.049003955 -0.022836497 0.02118558 -0.00010330151
0.018792821 -0.019544201 0.02260555 0.041309558 0.007990701 -0.007948485 0.027515624 -0.0062741158
-0.002476226 1.8344328e-05 0.029026954 -0.01194479 -0.043643173 0.0019147699 -0.004912045 0.02904492
0.007057928 0.019077921 -0.0004535136 0.027773786 0.0224096 -0.0049354895 -0.044648062 0.013271449
-0.06354394 0.023379164 -0.0029668978 -0.015786923 0.026591877 0.03711421 -0.025238985 0.048137702
0.004799754 0.00016838458 -0.042988133 0.009887858 -0.008245869 -0.015961347 -0.004306122 -0.004111214
0.008005757 0.0450161 0.01002268 0.004714254 0.0064642993 -0.008488601 0.015581294 0.013958266
-0.0006608824 -0.0071115554 0.0031462952 0.009875333 0.02931009 -0.01131403 -0.0069934716 0.012561724
-0.026848454 0.025211344 0.022841446 0.022985883 0.018378323 0.0035868073 -0.0011585014 -0.015493987
-0.005273742 0.033614863 -0.016429622 0.044310946 0.0022832344 0.006288238 0.002447481 0.040252887
-0.022425996 -0.03840873 0.00602614 0.010672645 -0.0055087316 -0.045233317 0.005193072 0.020534713
0.015151263 0.0045774756 -0.0117413085 -0.0473593 0.010728638 0.027469592 -0.008811515 -0.029440647
-0.052411154 -0.0071686762 0.012280019 0.0056604273 0.024706671 0.005515217 0.022777924 -0.04154537
-0.02896683 0.0050511872 -0.035621893 0.005241764 -0.021459693 -0.0025827878 -0.03210519 0.009936578

network_body._body_endoder.seq_layers.2.weight f4 [128, 128]
00000000: 3c6f bb3b 8408 96bd bc70 643e 0911 713d
00000010: 9827 e23c 5f4b ad3d 8f44 59bc eed0 84bd
00000020: 9990 c7bd 195e e53b 6e3f a13d e979 b939
00000030: 9c7b b6bc 64ee d93d ba7a ce3d 8da7 a63d
00000040: 3990 b1bd c705 da3c f119 50bd a754 523d
00000050: c567 3abe 1977 fc3d 9611 95bd 1033 12be
00000060: 75f0 083e afb0 8a3d e219 fcbc b4e7 0b3d
00000070: d316 e43d 3453 7ebd b590 f3bd 4754 3dbc
00000080: 8967 14bd fe62 b6bc 621d 29bd cee9 1ebb
00000090: 819b 8cbd a268 ad3d 1bea 7abd 4f85 ef3d
000000a0: de1d 39bd 3c07 e1bd 08a4 ff3a 075e 033d
000000b0: e869 3bbd 7792 e1bc 2403 633e 217a 69bb
000000c0: e063 c1bc d68e 66bd 4ed2 88be 2175 253c
000000d0: ff1c f5bd 3466 0dbe 341e a03d b3a7 22b9
000000e0: fd66 c23d f477 24be 5e9a adbd f1a8 363e
000000f0: eab9 493d f31b 51bd 3592 d33d 4a3f 8e3d
00000100: 68a4 dfbc 357a aebd f4b8 253d 6a7b ed3d
00000110: 2945 723e 8bdc adbd 0592 85bd 0569 1abd
00000120: d07c d63d c6c7 1fbc 7139 68bd 5d00 c23b
00000130: 7839 1abe bb93 cfbd 8e49 a5bc 560a 863e
00000140: 47c1 a03d a717 283e 9fb1 293d a1db 9c3d
00000150: 79c3 b23d 2ecf 51be ac76 153c 7dd2 b4bc
00000160: 18b7 913c e57d 453d 70d0 963c e779 f5bd
00000170: 3213 603c 1c60 813c 660f c83d ec51 ed3c
00000180: de27 aebc bffc b2bd f5ad 56bd b21e c83d
00000190: d2c3 383d f613 ed3b 2e0b 093d 2b8a b5b9
000001a0: 65af 283c 6d74 20bd 5d4f 813d f9f5 ad3d
000001b0: d3e8 763d 57a6 23bd 39f4 4ebd 7a8d 9a3c
000001c0: 2b83 c93d 6610 cbbd 61a2 93bc bba4 563e
000001d0: 4d13 463d 4759 e6bd ad73 303d b450 09bd
000001e0: ab89 a43d 734e a8bc 94be e53b 72f6 86bc
000001f0: 3b0e 113d bf41 f5bd c97a fc3d 166c 87bd
00000200: 8dd3 85bc 7254 81bd cdc0 08bd 1f20 47bd
00000210: 8da1 0c3b 59f8 2dbc c247 713d 0346 9cbe
00000220: 1d1c 4bbd 802a e3bb 4e05 3abc b099 08bd
00000230: 7102 c63c dbf6 d1bd c274 08be 7d6f 493c
00000240: 2ebe 923d 9428 1f3d fe48 0a3e ff07 283c
00000250: b5b5 6d3d ffdf e6bd 47ac 4c3e 2099 393d
00000260: 9e42 c8bc 1e56 4abc 8990 a4bd dc27 a83c
00000270: c10b 9e3c c40a 31be 266f bbbd 817b b4bd
00000280: a0cf fcbd 8cde e43c 1836 5fbc ddd0 e53c
00000290: 524d e43c b79b 59be 740e 043e ce2f 9bbd
000002a0: 8f91 b13b 4cf7 d73d 1973 d4bd 2010 aebd
000002b0: 8756 323e 18f8 cd3d ec4e 1b3d ea7d 993b
000002c0: 1d71 ad3d f317 f13d 1d0c e23d d621 243d
000002d0: 25f3 053a e933 203e 2457 ea3d c313 213e
000002e0: f710 933d 4ff4 b13d 3755 a5bb cb74 683e
000002f0: aab6 3abb 5170 19bd 8c9e 20be 238c 56be
00000300: 61bf 073e c928 6e3d b11a 11bd 30c9 7f3c
00000310: ad90 b43d 6bd8 d7bd 231e f83d 8270 ca3d
00000320: f856 06bd bd72 cc3d addc 8cbd c618 02be
00000330: ff80 053e 640b 75be 6364 ac3d 8c6e e5bd
00000340: f80d 10bd 4c9b 3a3e f654 9fbd 114b 413d
00000350: edb0 49be a7a6 fe3d 57f1 e73c da02 04be
00000360: d489 933d bcc6 8fbc 2c8b aa3d bfe1 b03d
00000370: d64d d73a 1eff b43c b744 13be 6077 bb3d
00000380: a690 9c3a acc0 043c 9b6e c6bd de8a 923d
00000390: 9c67 5a3d 6922 a13d 7f00 0dbd f4f9 12bd
000003a0: 872f c9bd a55e b9bb 6cc8 063e 4a6c 57bd
000003b0: 3ea0 35bd 1dfb 47bd eb3a 6cbc acbf 6dbd
000003c0: 58a1 af3c 97be 43bb 6837 a4bc ced1 99bd
000003d0: becf 0cbe 6240 0dbe 0abf 803d 47e3 81bd
000003e0: 8ebc 143c 2d72 25be d069 363d 587b 28bc
000003f0: b985 96bd 3a23 763c c449 653d f524 d6bd
0.0057200473 -0.07325843 0.2230863 0.058854137 0.02760677 0.084616415 -0.013260975 -0.06485163
-0.09744377 0.0069997427 0.078734264 0.0003537678 -0.022275738 0.106411725 0.10082002 0.081374265
-0.086700864 0.026614083 -0.05080599 0.051350262 -0.18203647 0.123274036 -0.07278745 -0.14277291
0.13372977 0.06771981 -0.03077406 0.034156516 0.11137166 -0.062091067 -0.11892835 -0.011555738
-0.03623155 -0.022264 -0.041287787 -0.0024248245 -0.068655975 0.08467223 -0.061258417 0.116953485
-0.0451945 -0.10987708 0.0019503841 0.032072093 -0.045755297 -0.02753566 0.22169167 -0.0035625773
-0.023607194 -0.056288563 -0.2672295 0.0100987265 -0.11968421 -0.13808519 0.07818261 -0.00015511997
0.094923 -0.16061383 -0.08476709 0.17837884 0.049249567 -0.051052045 0.10330621 0.06945665
-0.027300075 -0.08519403 0.04045959 0.11595805 0.23659195 -0.08489331 -0.06521992 -0.03769781
0.10473025 -0.00975222 -0.056695405 0.0059204535 -0.15060985 -0.10135599 -0.020176675 0.2617976
0.07849365 0.16415273 0.04142916 0.076590784 0.0872869 -0.20489189 0.009122532 -0.022073025
0.017787501 0.048215766 0.018409938 -0.11986142 0.0136764515 0.015792899 0.09768562 0.028969727
-0.021259245 -0.08739614 -0.052411992 0.0977148 0.045108624 0.0072350455 0.033457927 -0.00034625953
0.010295724 -0.039173532 0.063139655 0.08494181 0.060280632 -0.039953556 -0.050525878 0.01886629
0.098394714 -0.09915237 -0.018021764 0.20961277 0.04835825 -0.11247497 0.043079067 -0.03352423
0.080340706 -0.02054522 0.007011244 -0.016474936 0.03541396 -0.11975431 0.12328107 -0.06612413
-0.016336227 -0.06314935 -0.033386994 -0.048614617 0.0021458596 -0.010618293 0.058906324 -0.30522165
-0.049587358 -0.0069325566 -0.011353804 -0.033349693 0.024171086 -0.10252162 -0.1332579 0.012294647
0.0716518 0.038857058 0.13504407 0.010255813 0.058034617 -0.112731926 0.19987594 0.045312047
-0.024445828 -0.0123496335 -0.080353804 0.020526819 0.019292714 -0.17289263 -0.09152059 -0.08812619
-0.12344289 0.02793815 -0.013623737 0.028053695 0.0278689 -0.21250807 0.12896138 -0.075774774
0.0054189633 0.10545215 -0.10373516 -0.08499169 0.1741582 0.10057086 0.037917063 0.0046841996
0.0846884 0.11772146 0.11037467 0.04007133 0.0005109779 0.15644802 0.11442402 0.15730195
0.0718097 0.08689176 -0.005045559 0.22700803 -0.0028490224 -0.03746063 -0.15685481 -0.20951895
0.13256599 0.058144365 -0.035425846 0.015611932 0.08816657 -0.10539325 0.12115123 0.098847404
-0.032797784 0.09982822 -0.06878028 -0.12704763 0.1303749 -0.23930126 0.08417585 -0.11202726
-0.03516957 0.18223304 -0.07779877 0.04719073 -0.19696398 0.1243413 0.028313322 -0.12891713
0.07204023 -0.017550819 0.08327326 0.08636808 0.0016426395 0.022094306 -0.14381681 0.09153628
0.0011944964 0.008102577 -0.09689065 0.07155393 0.053321466 0.07867891 -0.0344243 -0.035882905
-0.09823518 -0.0056570345 0.13162392 -0.052593507 -0.044342272 -0.048823465 -0.014418344 -0.05804412
0.02143924 -0.002986824 -0.020045951 -0.0751072 -0.13751122 -0.13794091 0.06286438 -0.06342178
0.009078158 -0.16156836 0.044534504 -0.010283314 -0.07349724 0.015023047 0.05597855 -0.10456268
