results/CubeAgentZoneRay/CubeAgentZoneRay/CubeAgentZoneRay-100025.onnx (onnx, 80046 bytes, 8 tensors)

action_model._continuous_distribution.log_sigma f4 [1, 2]
-0.10746053 -0.03438571
00000000: 4414 dcbd 08d8 0cbd

action_model._continuous_distribution.mu.bias f4 [2]
-0.03534467 -0.018584294
00000000: 93c5 10bd 173e 98bc

action_model._continuous_distribution.mu.weight f4 [2, 128]
0.014226777 -0.054496318 -0.06418395 -0.055736884 -0.06216877 -0.06417923 -0.008189386 -0.03537712
0.017794067 -0.06415151 0.076754026 -0.006971791 -0.0513421 -0.10416148 -0.045708798 0.063561045
-0.014406982 -0.0073810904 0.071940735 -0.040715657 -0.026614886 -0.065810375 -0.097270094 0.09952672
0.005978511 -0.07476713 0.10230955 -0.011133484 -0.13571261 -0.04941338 -0.024008198 0.023310505
-0.08996408 -0.046771396 0.0687237 0.061307766 -0.1354551 -0.07043845 0.03829268 0.052046966
-0.04539013 0.068797536 -0.036737286 -0.043997064 0.069124706 -0.054340307 -0.0014146973 -0.026684891
0.0016791607 -0.08073453 0.009441998 -0.050840825 -0.011740864 0.044176437 -0.008669764 0.077329256
0.016636817 -0.050527386 0.029698662 0.011942053 -0.022587245 -0.09988591 0.08425343 -0.054463137
0.016887592 -0.044609368 -0.04668373 0.020661578 0.081055105 -0.047230482 -0.08563413 -0.06945062
-0.06211569 0.02315175 0.07469131 -0.037051268 0.045234896 0.005839772 -0.044640046 -0.035723902
-0.057488237 0.049820308 0.07413231 0.035779368 -0.057906542 -0.060613524 -0.047214847 -0.03948606
0.036580678 -0.0053019407 -0.013949855 -0.07161874 0.06408033 0.08064739 -0.011602788 0.058860194
-0.0548164 -0.007931817 0.030941047 -0.004131524 -0.04725602 -0.09274728 0.05718371 -0.01546858
-0.12426437 -0.04628668 -0.004831272 0.055770908 0.05052984 0.04215596 0.060236987 -0.057378422
0.03452172 0.011347815 0.06362858 -0.117656246 0.06945429 0.015637884 0.0704979 0.05492683
-0.014893225 -0.010143163 0.049200673 -0.043287586 -0.07123511 0.00062436465 0.0936215 0.022624228
0.02105331 0.039262906 0.013973344 0.080248885 -0.012686336 0.02229678 0.0037035022 0.047056053
-0.064934224 0.022395864 0.0019855006 -0.05743715 0.11440359 0.039716154 -0.01966511 -0.067877926
0.08605307 -0.03701222 -0.008399121 0.024174664 -0.0051208325 0.07395632 -0.001742454 -0.0837822
-0.051604327 -0.006271348 0.0031488906 0.07839337 0.08632822 0.0048734606 0.0856308 -0.018021734
0.054852236 0.053865094 -0.038631465 -0.062294334 0.11058926 0.019321283 -0.08820977 0.036808692
0.049024202 -0.0728319 -0.0077378363 0.01591194 -0.018105015 0.05641731 -0.060939908 0.0970091
-0.008948838 0.05092607 -0.044386324 0.014330181 -0.012519264 0.020213049 0.00806574 -0.059895832
0.007651429 0.014647058 -0.07464317 0.09028515 0.06976265 0.072385155 -0.08372222 -0.003702116
-0.010426812 -0.0046959436 -0.0062955823 -0.06297647 -0.019976724 0.042180303 0.04025595 0.0013780048
-0.0058490396 -0.004759416 -0.028084768 -0.019228967 -0.062395297 -0.042618442 0.10418626 -0.00169745
8.83031e-05 0.032009095 -0.07375909 0.038913 -0.0034409633 0.02452928 0.030429047 0.030848663
-0.053455684 0.12540086 -0.052588247 0.01111204 -0.052815966 0.00641403 0.09777801 -0.05375374
0.018393936 -0.051188253 -0.06865757 -0.04466045 0.018637106 0.0061034737 -0.029843386 0.10572944
-0.02342272 0.036022056 0.06875516 -0.07910002 0.081737585 -0.08642112 -0.069732174 0.06028443
0.058887623 -0.07262884 -0.0671294 0.07249592 0.087268546 0.007585297 -0.019529127 -0.0489423
0.0013889137 0.03146294 -0.019334877 -0.011174988 -0.017380035 0.06313933 0.0028107937 -0.0275154
00000000: 6d17 693c 8837 5fbd e072 83bd 5c4c 64bd
00000010: aea4 7ebd 6670 83bd c62c 06bc 99e7 10bd
00000020: ddc4 913c de61 83bd 3731 9d3d 9f73 e4bb
00000030: 184c 52bd 9d52 d5bd 2639 3bbd 4b2c 823d
00000040: 430b 6cbc 13dd f1bb aa55 933d 76c5 26bd
00000050: 7607 dabc 97c7 86bd 8b35 c7bd aad4 cb3d
00000060: 63e7 c33b 821f 99bd ab87 d13d 3769 36bc
00000070: 3ff8 0abe af65 4abd d7ac c4bc acf5 be3c
00000080: 163f b8bd 5d93 3fbd 03bf 8c3d da1d 7b3d
00000090: beb4 0abe 0942 90bd c9d8 1c3d 332f 553d
000000a0: 00eb 39bd b9e5 8c3d d679 16bd 4436 34bd
000000b0: 4191 8d3d f193 5ebd 5d6d b9ba 469a dabc
000000c0: 4917 dc3a 2558 a5bd 9cb2 1a3c 783e 50bd
000000d0: c15c 40bc 5af2 343d a00b 0ebc cd5e 9e3d
000000e0: ef49 883c cef5 4ebd 9c4a f33c 9aa8 433c
000000f0: e308 b9bc fc90 ccbd 108d ac3d bd14 5fbd
00000100: d957 8a3c 50b8 36bd 7037 3fbd 7842 a93c
00000110: 3800 a63d c074 41bd f260 afbd 203c 8ebd
00000120: 066d 7ebd bda8 bd3c c2f7 983d 12c3 17bd
00000130: 3a48 393d 8f5b bf3b 7bd8 36bd 3a53 12bd
00000140: c978 6bbd 6110 4c3d aed2 973d 638d 123d
00000150: 692f 6dbd e345 78bd 5b64 41bd 23bc 21bd
00000160: 9fd5 153d e7bb adbb ef8d 64bc d9ac 92bd
00000170: 8c3c 833d 752a a53d 9f19 3ebc 6317 713d
00000180: 2987 60bd 74f4 01bc 1478 fd3c bc61 87bb
00000190: 878f 41bd 49f2 bdbd 7739 6a3d ed6f 7dbc
000001a0: 517e febd 1a97 3dbd a64f 9ebb 0970 643d
000001b0: 61f8 4e3d baab 2c3d 0fbb 763d a305 6bbd
000001c0: a666 0d3d 30ec 393c b34f 823d c2f5 f0bd
000001d0: 0d3e 8e3d 051b 803c 3461 903d f5fa 603d
000001e0: b702 74bc 822f 26bc a586 493d 534e 31bd
000001f0: b7e3 91bd 67ac 233a a1bc bf3d 7256 b93c
00000200: fe77 ac3c 24d2 203d 74f0 643c 8759 a43d
00000210: 5ada 4fbc bda7 b63c 75b6 723b d9bd 403d
00000220: 3cfc 84bd 8877 b73c 2c1f 023b 3843 6bbd
00000230: 6e4c ea3d 68ad 223d ba18 a1bc 9503 8bbd
00000240: 983c b03d 209a 17bd 789c 09bc f209 c63c
00000250: a8cc a7bb 6976 973d 0e63 e4ba 0196 abbd
00000260: 0f5f 53bd e17f cdbb 9e5d 4e3b b48c a03d
00000270: dacc b03d 8db1 9f3b 335f af3d 51a2 93bc
00000280: bdac 603d a5a1 5c3d 073c 1ebd 5828 7fbd
00000290: 9f7c e23d ab47 9e3c 53a7 b4bd b6c4 163d
000002a0: 9acd 483d e428 95bd ad8d fdbb c259 823c
000002b0: f850 94bc d615 673d 209c 79bd b5ac c63d
000002c0: 269e 12bc db97 503d 6fce 35bd 23c9 6a3c
000002d0: 991d 4dbc d695 a53c 2a26 043c 5555 75bd
000002e0: d7b8 fa3b 37fa 6f3c 85de 98bd 6ce7 b83d
000002f0: b8df 8e3d ab3e 943d 8e76 abbd 339f 72bb
00000300: 38d5 2abc 6ee0 99bb 2c4b cebb cff9 80bd
00000310: 3aa6 a3bc 41c5 2c3d 6ce3 243d 2b9e b43a
00000320: 4da9 bfbb e0f4 9bbb 0712 e6bc 1186 9dbc
00000330: 3692 7fbd ad90 2ebd 9b5f d53d f87c deba
00000340: 5e2f b938 f81b 033d 010f 97bd 3d63 1f3d
00000350: c981 61bb a1f1 c83c 5646 f93c 56b6 fc3c
00000360: 59f4 5abd 1569 003e c666 57bd 460f 363c
00000370: 8e55 58bd c92c d23b d63f c83d e22c 5cbd
00000380: e1ae 963c c6aa 51bd 579c 8cbd e0ed 36bd
00000390: d8ac 983c a6ff c73b 1e7a f4bc ad88 d83d
000003a0: 01e1 bfbc dd8b 133d 81cf 8c3d 31ff a1bd
000003b0: 0966 a73d 8efd b0bd becf 8ebd ceec 763d
000003c0: 2634 713d 6ebe 94bd 247b 89bd be78 943d
000003d0: dab9 b23d 158e f83b 8cfb 9fbc b977 48bd
000003e0: 360c b63a 49df 003d 2d64 9ebc 4c17 37bc
000003f0: 9360 8ebc 314f 813d 4b35 383b fa67 e1bc

action_model._discrete_distribution.branches.0.weight f4 [1, 128]
0.015650408 -0.011550362 -0.006416318 0.0038483725 0.0023262193 0.0010877047 -0.0038285374 -0.0029282975
0.0067732236 0.0031154861 0.0048982115 -0.0021112093 -0.005370406 -0.0007057459 -0.010572399 -0.0043928064
0.014221467 -0.0074989856 -0.009800106 0.0035766647 -0.005610497 0.007875387 -0.012179702 -0.009183432
0.010481572 -0.0058854898 -0.003233837 0.011686591 -0.014538235 -0.0109798815 -0.010887792 0.012103175
-0.009600763 0.004136215 -0.0012626614 0.001311827 0.0026292887 0.0027500868 -0.0059981868 0.003137334
-0.005910822 0.0030178993 0.011119061 -0.009052459 0.0005420929 -0.007943131 -0.009840329 -0.0068171374
-0.008969784 -0.003838459 -0.0014942182 -0.0040429602 -0.009071789 0.011165039 -0.01358593 -0.0010897086
0.007110142 0.0128653 0.009714084 0.00093696546 0.0053646895 0.009105904 0.024779564 -0.0035149888
0.00018341519 0.002213458 0.006000143 -0.011325072 -0.012133325 0.0016687121 0.0022608656 -0.002219451
-0.013738907 -0.010588251 0.00021415218 -0.008072899 0.000437673 -0.0106371585 -0.012803555 0.009603185
-0.0050974577 -0.0046598725 0.004769487 0.003952679 0.007410402 -0.008474729 0.0016461334 -0.0077397474
0.012244928 0.005280029 -0.0035438277 0.006662226 -0.0070231943 -0.0022756532 0.016749216 -0.0007422971
0.0025991292 -0.0034994825 -0.006005587 0.0028569482 0.017693447 0.012853815 0.010309684 -0.0035337862
0.0033232037 -0.00565963 -0.00925118 0.0028902867 0.0018733529 0.006265194 0.016378881 0.0070042545
-0.00027393745 0.007630517 0.01160151 -0.006748014 0.010948553 0.00030312457 -0.005574049 0.013760245
0.01242909 0.010498854 0.011672158 0.0055536693 0.0028070875 -0.011341515 0.002865908 0.011091077
00000000: 4935 803c bb3d 3dbc fa3f d2bb fa34 7c3b
00000010: 7c73 183b 5091 8e3a 33e8 7abb aee8 3fbb
00000020: ebf1 dd3b 2f2d 4c3b 2d81 a03b 375c 0abb
00000030: 3bfa afbb ce01 39ba db37 2dbc 88f1 8fbb
00000040: 2801 693c 0dba f5bb a090 20bc 7a66 6a3b
00000050: 43d8 b7bb c407 013c 5f8d 47bc 1b76 16bc
00000060: e6ba 2b3c 11db c0bb c8ee 53bb 1e79 3f3c
00000070: c731 6ebc f6e4 33bc b662 32bc 654c 463c
00000080: 854c 1dbc 1689 873b e37f a5ba 9cf1 ab3a
00000090: 2550 2c3b cd3a 343b 708c c4bb bb9b 4d3b
000000a0: 92af c1bb f3c7 453b b92c 363c c450 14bc
000000b0: 3d1b 0e3a e823 02bc 5539 21bc 4b62 dfbb
000000c0: 00f6 12bc a88e 7bbb a5d9 c3ba cf7a 84bb
000000d0: d7a1 14bc 91ed 363c 8597 5ebc 8ed4 8eba
000000e0: 32fc e83b fbc8 523c d227 1f3c b09e 753a
000000f0: 47ca af3b ee30 153c 83fe ca3c ba5b 66bb
00000100: 2453 4039 aa0f 113b d99c c43b cb8c 39bc
00000110: dbca 46bc b0b8 da3a 082b 143b 3574 11bb
00000120: 2719 61bc 587a 2dbc 0a8e 6039 3144 04bc
00000130: 7a77 e539 7a47 2ebc 00c6 51bc ad56 1d3c
00000140: 9308 a7bb d8b1 98bb 5b49 9c3b 7a85 813b
00000150: f5d2 f23b 97d9 0abc 12c3 d73a b59d fdbb
00000160: f39e 483c 1804 ad3b 903f 68bb cd4e da3b
00000170: d322 e6bb 2023 15bb a735 893c b796 42ba
00000180: 2756 2a3b 9357 65bb 84ca c4bb a33b 3b3b
00000190: d9f1 903c cf98 523c f3e9 283c 1897 67bb
000001a0: 1bca 593b 6b74 b9bb 4392 17bc f76a 3d3b
000001b0: 4b8b f53a 424c cd3b 012d 863c f283 e53b
000001c0: 439f 8fb9 6a09 fa3b 4314 3e3c 721e ddbb
000001d0: 8f61 333c b1ec 9e39 83a6 b6bb a772 613c
000001e0: 62a3 4b3c 6303 2c3c 943c 3f3c 8efb b53b
000001f0: 1df7 373b c3d1 39bc f5d1 3b3b 59b7 353c

network_body._body_endoder.seq_layers.0.bias f4 [128]
0.020111628 -0.049236316 0.011461394 0.021451201 0.050304078 -0.06266186 0.03841638 0.04981778
0.012716676 -0.009884572 0.039201282 0.044776596 0.023173003 -0.027518706 -0.021024961 0.008977935
-0.018256854 0.015197492 0.01681987 0.025733327 -0.025616154 -0.01262756 -0.06477568 0.043945916
0.038259063 -0.026065208 0.0485794 -0.034191053 0.04732521 0.06394388 -0.08625272 -0.02425772
-0.0015582166 -0.018840926 0.016047735 -0.046413306 -0.021882828 -0.023614427 -0.053798374 0.06606126
-0.09379574 0.016828394 0.028556881 -0.06923734 -0.038295623 0.036959387 0.039063025 0.025997289
-0.014445804 0.02151824 0.04043273 0.030089537 -0.06393283 0.033245 -0.030985473 0.001914822
-0.0007481537 0.034695912 -0.00030682827 0.037295826 -0.013751617 0.052123077 -0.00390073 -0.07181993
0.04285664 -0.013763804 0.02627867 0.01873309 0.037444565 0.004828951 0.008145226 0.013223665
-0.0019464811 -0.081652045 0.0012874368 0.09807191 0.046911612 0.011193261 -0.023997843 0.013806031
0.01247773 -0.0111687705 0.0057698092 0.03232077 0.007021103 0.03718101 0.008791158 0.0073563224
-0.04414222 -0.06886823 0.03196461 0.04598089 -0.00063901045 0.05928827 0.060973093 0.0712504
0.002562319 -0.08287525 0.07460425 -0.07350469 0.027920583 -0.07216558 -0.003917441 -0.030885976
-0.08885662 0.048992973 0.043904074 0.03133739 0.044933863 -0.012302322 -0.013188662 -0.044622418
0.024404906 -0.040456053 0.014572886 0.032676186 -0.013893168 0.032098785 -0.009423545 -0.01446307
0.01782501 0.02200708 -0.10917246 -0.03708263 0.010797629 0.042159367 0.049003806 -0.083832264
00000000: 24c1 a43c 05ac 49bd 92c8 3b3c 6eba af3c
00000010: a60b 4e3d dc54 80bd 7e5a 1d3d ba0d 4c3d
00000020: 9b59 503c e6f2 21bc 8691 203d aa67 373d
00000030: 4fd5 bd3c e96e e1bc 8a3c acbc 3018 133c
00000040: 668f 95bc e7fe 783c d3c9 893c b3ce d23c
00000050: f8d8 d1bc d3e3 4ebc 1da9 84bd a200 343d
00000060: 89b5 1c3d b486 d5bc 31fb 463d eb0b 0cbd
00000070: 14d8 413d 02f5 823d 44a5 b0bd 20b8 c6bc
00000080: 133d ccba 4958 9abc 8a76 833c e11b 3ebd
00000090: 9e43 b3bc 0b73 c1bc af5b 5cbd 204b 873d
000000a0: fb17 c0bd b3db 893c 1ff0 e93c 4ecc 8dbd
000000b0: dfdb 1cbd ba62 173d 8d00 203d 44f8 d43c
000000c0: 18ae 6cbc 0547 b03c ca9c 253d 557e f63c
000000d0: 37ef 82bd e92b 083d 3fd5 fdbc c4fa fa3a
000000e0: bf1f 44ba 4d1d 0e3d cbdd a0b9 82c3 183d
000000f0: 764e 61bc 027f 553d 64a3 7fbb 5416 93bd
00000100: 728a 2f3d 9481 61bc 5e46 d73c 2376 993c
00000110: 795f 193d 2d3c 9e3b 8e73 053c 12a8 583c
00000120: 1121 ffba 3039 a7bd 36bf a83a edd9 c83d
00000130: 6426 403d f063 373c 2097 c4bc b132 623c
00000140: 656f 4c3c 38fd 36bc ab10 bd3b c962 043d
00000150: 4811 e63b 1d4b 183d ca08 103c 4e0d f13b
00000160: 79ce 34bd c90a 8dbd 53ed 023d 7556 3c3d
00000170: 4483 27ba 42d8 723d ecbe 793d bbeb 913d
00000180: 94ec 273b 80ba a9bd 1dca 983d a089 96bd
00000190: b5b9 e43c 8ccb 93bd e05d 80bb 9604 fdbc
000001a0: 76fa b5bd dbac 483d c2d4 333d a35b 003d
000001b0: 920c 383d ae8f 49bc 4215 58bc ffc5 36bd
000001c0: ccec c73c 3fb5 25bd 1dc3 6e3c 77d7 053d
000001d0: 2ca0 63bc 047a 033d 3665 1abc 83f6 6cbc
000001e0: c105 923c 3148 b43c d095 dfbd f5e3 17bd
000001f0: 8ae8 303c 4daf 2c3d 37b8 483d 40b0 abbd

network_body._body_endoder.seq_layers.0.weight f4 [128, 17]
-0.22859395 -0.3421891 0.101288065 -0.04758716 -0.20795178 -0.38251573 0.33243737 0.22823021
-0.4143164 -0.111797795 0.3236924 0.2762444 0.16442908 0.018842062 -0.08550259 0.29908648
-0.10469016 0.4287481 -0.29436845 -0.66003156 -0.08628912 0.3071784 -0.23488094 -0.07167075
0.08505581 -0.038292423 -0.015991941 -0.22251165 -0.18600693 -0.025612997 0.19865222 0.0660101
-0.018669046 -0.56511545 -0.051892735 -0.5915904 0.24143839 -0.20746551 -0.118490785 0.57669026
-0.007480356 0.29984677 0.17254682 -0.08654128 0.3160502 0.06439128 -0.11566084 -0.3059734
7.121995e-05 0.10400945 -0.22180502 0.4471912 0.1706479 -0.34399414 0.38289568 -0.023649119
-0.13891973 -0.058839064 0.3150438 -0.26160195 -0.16437425 -0.10408264 0.033717215 0.059736483
-0.24571422 0.04715058 0.13439028 -0.020449746 -0.04256864 -0.12832628 0.044847433 0.05712358
-0.07466559 0.021603253 0.1507989 0.39063916 -0.18197095 0.08461672 0.2220446 0.267736
-0.561884 -0.0027827665 -0.10570524 -0.041330125 0.048260085 -0.01611835 -0.6620634 -0.22632244
0.09633004 -0.08204992 -0.042550106 0.110011406 0.014892099 0.09639978 -0.15243581 0.3536102
-0.28163603 0.18794267 -0.02017874 -0.13791683 0.13068478 -0.12692483 0.2906285 0.15933712
-0.34611666 -0.101783805 -0.1269002 -0.009142288 -0.12156801 -0.20780909 0.45892352 0.23213917
-0.31915 0.2843868 0.3316913 0.12972733 0.09324341 0.24736758 0.5646416 0.09925125
0.26027116 -0.34251502 -0.29307088 -0.18330711 -0.17316829 0.045673527 0.039438777 0.0551481
0.19505237 0.57317007 0.3767356 0.040940426 -0.23600902 0.1320374 0.52707493 -0.086394
0.19325636 0.18314882 0.07959616 0.13578707 -0.18621646 -0.0035715753 -0.262277 0.02167733
-0.41333047 -0.44797483 -0.21934016 -0.09180028 0.41346955 -0.10030271 -0.27121907 -0.069885135
0.33055994 -0.20278907 0.11433791 0.360287 -0.32513657 -0.06214933 -0.14472702 0.07911541
-0.16946846 -0.16598049 -0.30381975 -0.23089314 -0.25409374 -0.04203106 -0.17013639 -0.39235407
-0.03545625 0.4704048 -0.02786608 0.016709397 -0.025488315 0.15139769 -0.028287116 -0.024136083
0.28440088 0.638044 -0.095908344 0.16704613 0.006807529 0.11558242 -0.5674425 -0.350943
-0.35595062 0.10268438 -0.11097192 -0.26917937 0.10786948 0.15372977 0.31148148 -0.3149194
-0.32320246 0.18696044 0.098120116 -0.33261833 0.19199184 0.085052535 0.17565516 -0.013697959
-0.17763765 -0.15961346 0.006012264 0.19866201 0.17011899 0.41215372 0.34044415 -0.11367574
-0.21991795 -0.20452072 -0.04329186 0.29819182 0.36889076 0.21101975 -0.36183938 -0.24075812
0.17128058 0.37394455 -0.19564697 0.26820156 0.32757857 -0.0135070095 -0.07357918 0.12126287
0.092785574 -0.48177034 0.005455875 -0.010651476 -0.16512355 0.24911228 0.18011504 0.73071295
-0.21306998 0.09330814 0.14852259 0.061352544 0.6352141 -0.2876672 0.26480252 -0.14466877
-0.19649881 -0.088151895 -0.022480352 -0.72295284 -0.14826131 -0.23350854 0.08978197 -0.04808467
-0.10527085 -0.31164348 0.1541441 -0.40168875 -0.080905855 -0.1040252 0.072654225 0.42966807
00000000: 8814 6abe 6933 afbe 1e70 cf3d c1ea 42bd
00000010: 50f1 54be 1ad9 c3be 3b35 aa3e 2eb5 693e
00000020: 4721 d4be 3ef6 e4bd 03bb a53e e86f 8d3e
00000030: 1960 283e ab5a 9a3c fb1b afbd dd21 993e
00000040: cb67 d6bd df84 db3e 76b7 96be d4f7 28bf
00000050: 5ab8 b0bd 7d46 9d3e a184 70be 1dc8 92bd
00000060: be31 ae3d 84d8 1cbd 8801 83bc 18da 63be
00000070: 9a78 3ebe 59d2 d1bc 7d6b 4b3e 4e30 873d
00000080: d4ef 98bc 68ab 10bf 7a8d 54bd 7872 17bf
00000090: a03b 773e d771 54be 4cab f2bd f9a1 133f
000000a0: c61d f5bb 8485 993e 1db0 303e 8e3c b1bd
000000b0: 55d1 a13e 93df 833d 97df ecbd 8ca8 9cbe
000000c0: eb5b 9538 e802 d53d db20 63be 3ff6 e43e
000000d0: 53be 2e3e 0020 b0be e70a c43e ccbb c1bc
000000e0: f940 0ebe 3b01 71bd 6c4d a13e b1f0 85be
000000f0: b951 28be 4729 d5bd 101b 0a3d 3eae 743d
00000100: 829c 7bbe f720 413d 9b9d 093e 3a86 a7bc
00000110: 745c 2ebd f767 03be f1b1 373d 6afa 693d
00000120: 46ea 98bd 4ef9 b03c 076b 1a3e db01 c83e
00000130: 9856 3abe 884b ad3d a95f 633e b114 893e
00000140: a1d7 0fbf 135f 36bb fd7b d8bd c749 29bd
00000150: 5eac 453d a10a 84bc fd7c 29bf 12c1 67be
00000160: af48 c53d ca09 a8bd 0549 2ebd a94d e13d
00000170: fefd 733c 3f6d c53d 2218 1cbe 650c b53e
00000180: 9932 90be 0b74 403e e34d a5bc 123a 0dbe
00000190: 3bd2 053e 95f8 01be 42cd 943e 4529 233e
000001a0: 3436 b1be 0774 d0bd 20f2 01be 89c9 15bc
000001b0: a6f8 f8bd e8cb 54be 06f8 ea3e e4b5 6d3e
000001c0: a167 a3be 269b 913e 71d3 a93e 3ed7 043e
000001d0: 67f6 be3d ed4d 7d3e 5a8c 103f 3d44 cb3d
000001e0: 4342 853e 215e afbe 630d 96be dcb4 3bbe
000001f0: 0753 31be 2a14 3b3d 8e8a 213d f9e2 613d
00000200: cfbb 473e 46bb 123f 7de3 c03e 26b1 273d
00000210: 59ac 71be d034 073e 62ee 063f 56ef b0bd
00000220: ffe4 453e 5d8b 3b3e 5003 a33d c40b 0b3e
00000230: 87af 3ebe 1711 6abb 2c49 86be a894 b13c
00000240: 0da0 d3be f55c e5be b59a 60be c901 bcbd
00000250: 48b2 d33e 826b cdbd 3add 8abe f01f 8fbd
00000260: 273f a93e f0a7 4fbe ff29 ea3d 8a77 b83e
00000270: 4d78 a6be 4c90 7ebd 5233 14be 4307 a23d
00000280: 2489 2dbe caf6 29be 438e 9bbe 406f 6cbe
00000290: 9318 82be c328 2cbd 3c38 2ebe a2e2 c8be
000002a0: 933a 11bd e6d8 f03e 6847 e4bc 25e2 883c
000002b0: dfcc d0bc ff07 1b3e 62ba e7bc 09b9 c5bc
000002c0: fe9c 913e da56 233f 986b c4bd 240e 2b3e
000002d0: b111 df3b 7ab6 ec3d e943 11bf cdae b3be
000002e0: 293f b6be 304c d23d 3f45 e3bd e1d1 89be
000002f0: adea dc3d 566b 1d3e 807a 9f3e 1e3d a1be
00000300: cb7a a5be 8f72 3f3e 33f3 c83d f34c aabe
00000310: 8299 443e 0630 ae3d f2de 333e 676d 60bc
00000320: a5e6 35be b671 23be 8702 c53b 0e6e 4b3e
00000330: ac33 2e3e d005 d33e b24e ae3e d4ce e8bd
00000340: 2c32 61be e16d 51be ce52 31bd 99ac 983e
00000350: 40df bc3e 9015 583e 0343 b9be 4c89 76be
00000360: 2d64 2f3e a975 bf3e ae57 48be b751 893e
00000370: 61b8 a73e 814c 5dbc aeb0 96bd ab58 f83d
00000380: 5d06 be3d 9aaa f6be 32c7 b23b 8783 2ebc
00000390: 2616 29be 4a17 7f3e 1470 383e 0110 3b3f
000003a0: 042f 5abe 5718 bf3d 4e16 183e ce4c 7b3d
000003b0: 649d 223f 1e49 93be 3294 873e 0d24 14be
000003c0: fc36 49be fb88 b4bd b728 b8bc 7013 39bf
000003d0: d0d1 17be dd1c 6fbe 9cdf b73d 6ef4 44bd
000003e0: 3e98 d7bd bc8f 9fbe f3d7 1d3e 26aa cdbe
000003f0: f8b1 a5bd 2a0b d5bd bdcb 943d 74fd db3e

network_body._body_endoder.seq_layers.2.bias f4 [128]
-0.04305992 0.026898166 0.02666789 0.023383128 0.035017576 0.030646387 0.00068409595 0.034393318
0.045739174 0.024933657 0.030372474 0.04434377 0.039301705 0.03800466 0.01345462 0.018382672
0.013863165 0.022434233 -0.057847872 0.017517878 -0.009344944 0.037762824 0.052096408 0.03984553
0.03676644 0.020870004 0.0024139453 0.0017210152 0.08706704 0.011628059 0.021821199 -0.0009787452
0.05734532 0.015297333 0.013924567 0.029700654 0.07369626 0.039787114 0.0119175045 -0.041697834
0.010927903 0.0076596146 0.013536024 0.008709446 0.016899327 0.03711048 0.035716336 0.03693885
-0.009705245 0.044974066 0.018606009 0.019873152 0.00010196745 -0.028489467 0.002018397 0.007165984
-0.0561653 0.017338116 0.031920634 -0.010621952 0.020642322 0.057183605 0.036677316 0.030881746
-0.020128386 0.005092315 0.024202546 0.02611193 0.002794638 0.032328285 0.037745703 0.027727399
0.034458946 -0.028847577 0.0105332695 0.023535803 0.028067525 -0.0029243568 0.030423759 0.011087979
0.027949255 -0.036922187 0.036791738 -0.022790236 0.015111465 0.033012863 0.02373756 0.031139614
0.011005994 0.014662555 0.029084273 0.025566377 0.007604042 -0.038228635 0.026395015 0.007839634
0.012599903 0.022690808 0.02897952 0.02376568 0.028313437 0.10214275 -0.0143084545 0.054327395
0.075355135 0.010961152 0.012678242 0.028607564 -0.006886345 0.037417244 0.007144009 0.011748816
-0.031114252 0.03040309 0.029294144 0.09672057 -0.003692861 -0.040249452 -0.04783269 -0.0070474036
-0.0061743464 -0.028566634 0.010021277 0.028056296 0.029234666 -0.022579826 -0.019068018 0.00073457335
00000000: 995f 30bd 8b59 dc3c 9e76 da3c f98d bf3c
00000010: 976e 0f3d 220e fb3c e754 333a 02e0 0c3d
00000020: 0059 3b3d ab41 cc3c b2cf f83c d0a1 353d
00000030: d3fa 203d c6aa 1b3d c470 5c3c 4297 963c
00000040: 5422 633c ffc7 b73c e4f1 6cbd a781 8f3c
00000050: 891b 19bc 31ad 1a3d 0b63 553d 1135 233d
00000060: 6898 163d 92f7 aa3c 4833 1e3b b093 e13a
00000070: 3450 b23d 9d83 3e3c 5fc2 b23c 3d49 80ba
00000080: ede2 6a3d aaa1 7a3c de23 643c c94e f33c
00000090: 11ee 963d d0f7 223d a341 433c 59cb 2abd
000000a0: f20a 333c 81fd fa3b 33c6 5d3c 10b2 0e3c
000000b0: 7570 8a3c 2901 183d 4b4b 123d 314d 173d
000000c0: bf02 1fbc ba36 383d a16b 983c 05cd a23c
000000d0: 5cd7 d538 be62 e9bc 1547 043b a1d0 ea3b
000000e0: 960d 66bd aa08 8e3c 36bf 023d b207 2ebc
000000f0: 161a a93c 5b39 6a3d f43a 163d b7fb fc3c
00000100: 49e4 a4bc 6fdd a63b 6b44 c63c b0e8 d53c
00000110: 3f26 373b aa6a 043d 3d9b 1a3d 9224 e33c
00000120: d324 0d3d c151 ecbc bc93 2c3c 28ce c03c
00000130: deed e53c 91a6 3fbb 3f3b f93c 5baa 353c
00000140: d6f5 e43c b83b 17bd efb2 163d 97b2 babc
00000150: 1496 773c 7f38 073d 4575 c23c 8118 ff3c
00000160: 7c52 343c 373b 703c 2442 ee3c 9470 d13c
00000170: 542b f93b a195 1cbd 5c3a d83c cf71 003c
00000180: d36f 4e3c 13e2 b93c 7566 ed3c 3eb0 c23c
00000190: 95f1 e73c 3830 d13d 026e 6abc 6786 5e3d
000001a0: cb53 9a3d 6796 333c 67b8 4f3c 695a ea3c
000001b0: d9a6 e1bb d342 193d 4b18 ea3b 1b7e 403c
000001c0: 51e3 febc e70f f93c 46fa ef3c 6f15 c63d
000001d0: ed03 72bb 9cdc 24bd 36ec 43bd e8ed e6bb
000001e0: 2c52 cabb 9304 eabc 4830 243c 51d6 e53c
000001f0: 8a7d ef3c 54f9 b8bc 8834 9cbc 6290 403a

network_body._body_endoder.seq_layers.2.weight f4 [128, 128]
-0.049229797 0.096698135 0.16106366 0.1779578 -0.07099996 -0.00094056665 -0.011330439 -0.0588307
0.01803757 -0.028104004 0.008436818 -0.14683123 -0.02914102 0.08339588 0.07924671 -0.039363608
0.0022183906 0.055119872 0.035121582 -0.0124826925 0.10856726 0.048639722 -0.09682319 -0.10511361
-0.12796895 0.09930672 -0.018985698 -0.11518327 0.001159059 -0.0612791 0.096144214 0.10812201
-0.13256668 -0.09053977 0.15228224 0.1346998 0.073489666 -0.11749437 0.13004376 -0.024143433
0.032732576 -0.1373192 -0.0665406 0.092437096 -0.16467316 -0.07502963 -0.12716687 -0.080351956
0.042141527 -0.046364367 -0.2680668 0.06558371 0.11717455 0.0414265 -0.03520567 0.03960091
0.059618816 0.055814184 0.04706528 0.033500724 0.05476066 0.07380151 0.0598496 -0.0778477
0.07692819 -0.11830856 0.17730485 -0.12456945 -0.026145723 -0.13262367 -0.012443903 -0.030834371
0.1162176 0.043640796 -0.017487522 -0.14046033 -0.14234355 -0.03905359 0.008663519 -0.026889512
-0.0029389658 0.0065588416 -0.023029165 0.050652638 0.077109925 -0.043135367 0.105063885 0.09167297
0.075319014 -0.049278438 -0.05499128 -0.102127254 -0.040011358 -0.010303528 -0.1738402 -0.12517954
-0.11323007 -0.014197518 -0.044730064 0.057872303 -0.14151137 -0.1115675 -0.09966473 0.21577387
0.11660749 -0.1833891 0.028454846 0.074458994 -0.027525095 -0.029655376 -0.043621894 -0.015382562
0.0015475291 0.11827995 0.20144509 -0.10696857 0.041203696 -0.007833944 -0.12883836 0.10633282
0.024969606 -0.036348473 -0.073726326 -0.03131406 0.20142609 0.002734331 -0.004338058 -0.0056191823
0.11453574 0.042278565 0.124450974 -0.06278513 0.005079725 -0.08790572 -0.06322332 0.10817531
-0.12047237 0.13296635 0.06882853 0.022779161 -0.07618986 0.01629093 -0.059200216 -0.08626777
0.012327847 0.02563084 0.021295972 0.13706447 0.04249241 -0.032800417 0.18403688 0.0055543645
0.09287909 0.12588383 0.12160844 -0.03258937 -0.019840453 -0.006964564 -0.21029724 0.076289706
-0.017288102 0.11115775 0.029375616 0.023774428 -0.17770681 -0.053793114 -0.12928906 0.0763388
-0.036911957 0.021444062 0.08894983 -0.01512216 -0.09986596 0.029440327 0.10115235 0.19242679
0.069322124 -0.014922492 0.22625808 -0.01019387 -0.06288963 0.08230722 -0.11152063 -0.08302089
0.15855868 -0.120000176 -0.029316973 -0.05000672 -0.108834974 0.1699704 -0.0036846753 0.09570595
-0.11646307 0.11694915 -0.11344216 -0.18807077 0.05467088 0.023054417 0.033585627 -0.23474665
0.026770242 0.0054628123 0.17384033 0.030998126 -0.10198455 0.07880557 -0.07262957 -0.017552435
0.074484 -0.15416078 0.2795423 -0.016819164 0.049313504 0.11548453 -0.07396721 0.043786816
-0.0076690638 -0.020286921 0.12661763 -0.010251356 -0.1851634 -0.14838584 -0.11878459 -0.10329821
0.23408979 0.06608824 0.06782015 -0.05655715 0.034531128 0.11922028 -0.12600134 0.1464633
0.103201516 0.11671588 0.15165499 -0.084373616 0.07857972 0.07598493 0.04443334 -0.20801929
0.09921829 0.10584384 -0.117747895 0.105008334 -0.14301667 -0.10936762 -0.15207715 -0.028656475
-0.01813222 -0.12092009 0.071984425 0.0006210898 0.025431298 -0.12171436 0.12726434 -0.019926084
00000000: 2fa5 49bd ac09 c63d dfed 243e 923a 363e
00000010: 6d68 91bd 5c90 76ba 4ea3 39bc 76f8 70bd
00000020: 87c3 933c 5e3a e6bc 943a 0a3c ed5a 16be
00000030: 26b9 eebc 76cb aa3d 194c a23d bc3b 21bd
00000040: 6b62 113b 60c5 613d a6db 0f3d 3584 4cbc
00000050: 8358 de3d 723a 473d 3d4b c6bd ce45 d7bd
00000060: 4b0a 03be 5261 cb3d e587 9bbc 35e5 ebbd
00000070: 91eb 973a cbff 7abd 42e7 c43d 136f dd3d
00000080: 8fbf 07be ea6c b9bd e0ef 1b3e bfee 093e
00000090: c081 963d e3a0 f0bd 312a 053e 73c8 c5bc
000000a0: 9812 063d 689d 0cbe 7046 88bd a94f bd3d
000000b0: 15a0 28be 22a9 99bd 0838 02be 918f a4bd
000000c0: 989c 2c3d 90e8 3dbd 0d40 89be c150 863d
000000d0: 36f9 ef3d d5ae 293d d233 10bd 9034 223d
000000e0: dc32 743d 6a9d 643d 86c7 403d 0e38 093d
000000f0: b74c 603d 3f25 973d db24 753d 9d6e 9fbd
00000100: 878c 9d3d c24b f2bd 678f 353e 451e ffbd
00000110: 8e2f d6bc 80ce 07be 83e1 4bbc 5d98 fcbc
00000120: 7e03 ee3d b1c0 323d fe41 8fbc d5d4 0fbe
00000130: 82c2 11be a8f6 1fbd 6ff1 0d3c 6547 dcbc
00000140: aa9b 40bb 8deb d63b a9a7 bcbc 2479 4f3d
00000150: cfeb 9d3d b6ae 30bd bc2b d73d 0abf bb3d
00000160: db40 9a3d 30d8 49bd 893e 61bd 1828 d1bd
00000170: f3e2 23bd 21d0 28bc 2a03 32be 112f 00be
00000180: 2be5 e7bd b59c 68bc df36 37bd 820b 6d3d
00000190: 5be8 10be 807d e4bd 061d ccbd d3f3 5c3e
000001a0: e8cf ee3d 5aca 3bbe 231a e93c f57d 983d
000001b0: 4f7c e1bc d5ef f2bc dfac 32bd 2407 7cbc
000001c0: 76d6 ca3a c23c f23d 9f47 4e3e 5612 dbbd
000001d0: 35c5 283d f159 00bc 34ee 03be 06c5 d93d
000001e0: 0f8d cc3c 23e2 14bd d4fd 96bd 2c43 00bd
000001f0: a442 4e3e 7632 333b 4526 8ebb 1e21 b8bb
00000200: b791 ea3d 4a2c 2d3d 27e0 fe3d 7e95 80bd
00000210: d273 a63b ea07 b4bd 3a7b 81bd 048b dd3d
00000220: 38ba f6bd 5528 083e f9f5 8c3d 5d9b ba3c
00000230: 6e09 9cbd 8e74 853c ed7b 72bd 28ad b0bd
00000240: bdfa 493c c4f7 d13c e474 ae3c a15a 0c3e
00000250: 850c 2e3d bb59 06bd 2a74 3c3e 6301 b63b
00000260: 6437 be3d b1e7 003e d90d f93d 6e7c 05bd
00000270: 7288 a2bc ff36 e4bb 2958 57be c73d 9c3d
00000280: c79f 8dbc ada6 e33d 22a5 f03c 97c2 c23c
00000290: c6f8 35be 2b56 5cbd 5a64 04be 8457 9c3d
000002a0: fe30 17bd 75ab af3c 542b b63d f0c2 77bc
000002b0: 8686 ccbd d72c f13c f728 cf3d 870b 453e
000002c0: c2f8 8d3d 787d 74bc 33b0 673e 3104 27bc
000002d0: 47cc 80bd b090 a83d ee64 e4bd db06 aabd
000002e0: 355d 223e a7c2 f5bd 262a f0bc d9d3 4cbd
000002f0: dfe4 debd b80c 2e3e 987a 71bb 7b01 c43d
00000300: 3184 eebd 0983 ef3d 5d54 e8bd a095 40be
00000310: 93ee 5f3d 9edc bc3c 1591 093d 6d61 70be
00000320: 444d db3c 6401 b33b 3303 323e c8ef fd3c
00000330: 47dd d0bd d164 a13d d0be 94bd 20ca 8fbc
00000340: 118b 983d 53dc 1dbe 2b20 8f3e 58c8 89bc
00000350: f5fc 493d 2783 ec3d 1f7c 97bd ce59 333d
00000360: c54c fbbb c230 a6bc 0da8 013e 4ef5 27bc
00000370: 799b 3dbe 75f2 17be 5645 f3bd 038e d3bd
00000380: 3cb5 6f3e 4559 873d 4ae5 8a3d 78a8 67bd
00000390: 8370 0d3d c329 f43d 7f06 01be 7afa 153e
000003a0: 515b d33d bc08 ef3d 724b 1b3e 13cc acbd
000003b0: 67ee a03d fd9d 9b3d bcff 353d 0203 55be
000003c0: f532 cb3d a8c4 d83d cf25 f1bd 9c0e d73d
000003d0: f672 12be 21fc dfbd 1dba 1bbe fcc0 eabc
000003e0: 058a 94bc f4a4 f7bd 926c 933d a2d0 223a
000003f0: 4c55 d03c 6145 f9bd 9551 023e 073c a3bc
