results/CubeAgentZoneRay/CubeAgentZoneRay/CubeAgentZoneRay-21612.pt (torch, 476943 bytes, 39 tensors)

network_body._body_endoder.seq_layers.0.weight f4 [128, 17]
00000000: be21 ccbd b898 afbe 4eb4 01bf a386 a2bd
00000010: fbb2 b83e 1939 823c 8c32 aa3d 7e34 0a3e
00000020: d302 c0be 65f3 723d 570a 913e 5ab0 9f3e
00000030: d585 b3bc 95e3 293c b7dc df3d 55e7 f9bd
00000040: f17e b63a f900 933d 8499 8cbe 1e16 a33e
00000050: bbee 1b3e 38d1 203e 0fe0 67bd b107 663c
00000060: 17c9 463e b1f9 a9be e6ad fbbd 28f6 6dbf
00000070: cf3a 44bd 6b6c 273e 91f6 dfbd bb35 5a3d
00000080: 666c f53e 1211 98be 972f fd3a 3c76 743e
00000090: b563 c5bd 0c2a 92be eb98 0c3f 1c64 03be
000000a0: 6033 23be 3e09 763e 0611 103f d5c6 cdbd
000000b0: 566f 40be f606 76bc 0798 75be 1354 71bb
000000c0: 71c9 05be 2738 2dbd 10ac ecbd 396e 113e
000000d0: ab37 083f d4fe 48bf 302d 963e 817a b53d
000000e0: 9f07 203e be41 a5be 2feb 963e 2a4a 1c3e
000000f0: a134 473e 2cdd e7be 9a7f 3d3e d89a c5bc
00000100: 64cf 79bc b5bd 82be 5388 f93d 7662 82be
00000110: df9b 513e 242c a63d 534a 9abe 4954 f43e
00000120: b0a7 28be 094b c8bc 3635 c2bd f409 ffbd
00000130: 1a28 a0bc 009c 72bd 81de 8abe ede9 a1be
00000140: d38e 923e 3528 bf3e 420b f23d ae8e 553d
00000150: 8aff f7bd 09d4 8cbe a617 1fbd 023a 33be
00000160: 9f24 093e 2dcf 943e 3e1f 1e3e 259f 31bf
00000170: dbff 95bc e511 c13e a107 b1be ad2c 19be
00000180: 4410 5a3e 750e ed3e 3b63 8c3e e0d8 c2be
00000190: 0fd8 c3bd 6e52 11be 898e d3bd 86b7 a63d
000001a0: af55 523d 239c 27be 7039 93be 73cb 19be
000001b0: 225e 7d3e f25f b13b 9437 18be 064b 88be
000001c0: 5dbf 27be fdb6 20be 78ac 1c3e 30e4 993d
000001d0: b2e9 2b3b 08d1 85bd efb5 b9bb 052c 063e
000001e0: 9d33 6cbd e354 923c d414 e83e c67a 45be
000001f0: 5b04 573e 7594 143d 7b89 233d 56cc fd3d
00000200: 74cb 3cbe ec7b f43e 641e bbbd be84 b63e
00000210: fe19 b8be 097c b13e 65ff 9d3d 7b2c 9c3e
00000220: 0549 54be fd2e 7b3e 407c 4d3e e8fd 23be
00000230: f146 8bbe ef51 87be 6a3e 5dbe e3c0 c63d
00000240: d00f 92be f029 61be c898 473e 8d78 b53d
00000250: 5b76 223c 58f5 243e 2e0b 1cbd c924 e7bc
00000260: 00f5 42be a87c bfbe 3905 033b 4bd6 0fbe
00000270: 23fc 5a3d cccc eb3c 48fe 183d 933b 24be
00000280: b0e1 a9be 8638 2dbd 6319 a8bd 7c97 75be
00000290: 3665 bebc 1b20 ab3c a237 1e3d c8d7 a2be
000002a0: a145 3dbe d760 2f3e 971c b4bb 25bc 9dbd
000002b0: 2547 163e 22ff f73c bb28 e8bd 6d62 e0be
000002c0: a76f e6bd 6851 48bd 85df 973e c31c 4c3e
000002d0: 7dbe 1bbf 0fec ed3d b617 7c3e ea94 7bbd
000002e0: ae59 2d3d b7ad 3c3f f22e 8bbc a00b bd3e
000002f0: ee2d 3ebe 5052 1f3e dde2 cabe 1bed 44be
00000300: 4bd8 7b3e 232b d2bc e9f8 62bd 7406 513e
00000310: 5fa7 54bd cbc1 04be 4125 31be 7ba2 93be
00000320: 843b 703d 2308 6f3e d2b3 8cbc 6395 0fbf
00000330: c772 f43e 92d9 d2bd 849e b9bd 887a 4cbe
00000340: 1b7b d3be 0a1b b73e a567 02be c8cc 95be
00000350: 188a 113c fa68 b83d 5d2e 113e 81f3 d0be
00000360: 4a72 153e 42af afbd ee93 9ebe a5fe 84be
00000370: a940 f5bb ee0d 1dbc 1bb5 87be 3495 b43c
00000380: 7664 22be 77b2 86be f47a 2abe 2512 993e
00000390: 245e 35bc 58ca b9be 4388 2a3f 8a52 b23e
000003a0: 2e3f 913d be0c 9bbd e0d5 b03e cf4a 93bc
000003b0: da8b 1ebe 5d41 523d 7d4f a0bd a1f1 65be
000003c0: de4d f43e fae1 be3a 8ee6 dcbe 776a 38bf
000003d0: 279d 453e 8aa9 40be 7204 7bbe 9824 d63d
000003e0: c059 2a3e 41a4 bebe e67f b13c 0e71 82be
000003f0: c576 d6be 4a18 8e3e 399f 013f f9a2 173e
-0.09967373 -0.34296203 -0.5066575 -0.07935836 0.3607405 0.015896367 0.08310422 0.13496587
-0.37502155 0.05931415 0.283282 0.31189233 -0.021914402 0.010369201 0.1093077 -0.12202326
0.001392333 0.0717792 -0.27460873 0.31852812 0.15227787 0.1570481 -0.056610163 0.01403992
0.19412647 -0.33198312 -0.12289028 -0.9295373 -0.047907647 0.16349952 -0.10935701 0.053273898
0.47934264 -0.29700524 0.0019316551 0.23873228 -0.09638158 -0.28547704 0.54920834 -0.12831157
-0.15937567 0.24026963 0.56275976 -0.1004769 -0.18792471 -0.015016308 -0.23983775 -0.0036823794
-0.13065125 -0.04228988 -0.11556256 0.14202203 0.5320994 -0.78513837 0.2933135 0.088612564
0.15627907 -0.3227672 0.29476306 0.15262666 0.1945367 -0.45285928 0.18505707 -0.024121687
-0.0152472 -0.2553536 0.12184205 -0.25465745 0.20469616 0.08113888 -0.3013483 0.47720554
-0.16470218 -0.024449842 -0.094828054 -0.1245307 -0.019550372 -0.059230804 -0.27122882 -0.31623784
0.2862459 0.37335363 0.118185535 0.052138023 -0.12109287 -0.2750552 -0.038840912 -0.17502597
0.13392876 0.29064313 0.15441605 -0.6938346 -0.018310478 0.37708965 -0.34576133 -0.14958449
0.21295267 0.46300092 0.27419457 -0.38056087 -0.09562694 -0.141916 -0.10329921 0.08140473
0.051351245 -0.16368155 -0.2875476 -0.15019016 0.2474294 0.005413049 -0.14864951 -0.26619738
-0.16381593 -0.15694804 0.15300167 0.075142264 0.0026231823 -0.0653401 -0.00566744 0.1310273
-0.05766641 0.017862743 0.4532839 -0.19285116 0.20997755 0.036274392 0.039926033 0.123924896
-0.18436986 0.47750795 -0.09136656 0.3564815 -0.3595733 0.34664944 0.07714728 0.30502686
-0.2073098 0.24529643 0.20066929 -0.16014826 -0.27202561 -0.26429698 -0.2160584 0.09704759
-0.2852769 -0.21988654 0.19491875 0.08860884 0.009915913 0.16109216 -0.0380966 -0.028215783
-0.19038773 -0.37399793 0.0019992127 -0.1404659 0.053463113 0.028784178 0.037351876 -0.16038351
-0.33179998 -0.042290233 -0.08207967 -0.23983568 -0.02324162 0.020889333 0.038627274 -0.31805253
-0.18483593 0.17126785 -0.0054965722 -0.07701901 0.14675577 0.030273024 -0.11335894 -0.43825093
-0.11251765 -0.04890576 0.2966272 0.19932847 -0.6083754 0.1161729 0.2461842 -0.061421312
0.042321853 0.7370257 -0.016990159 0.36922932 -0.18572208 0.15558743 -0.39626208 -0.19231074
0.24594228 -0.025655335 -0.05541316 0.20412618 -0.05191743 -0.12964551 -0.17299367 -0.288349
0.05865051 0.23342948 -0.017175589 -0.5608732 0.47743818 -0.102954045 -0.090634376 -0.19968617
-0.4130486 0.35762817 -0.1273485 -0.29257798 0.008883022 0.09004398 0.14177842 -0.4081078
0.14594379 -0.0857835 -0.30972236 -0.25975528 -0.0074845147 -0.009585841 -0.2650536 0.022043802
-0.15858635 -0.26308033 -0.16648465 0.29896656 -0.011069808 -0.3628719 0.6661417 0.34828597
0.07092129 -0.0757079 0.34538174 -0.017980007 -0.15483037 0.051331867 -0.07827661 -0.22455455
0.47715658 0.0014563196 -0.4314465 -0.7203745 0.1929823 -0.18814674 -0.24513415 0.104561985
0.166358 -0.3723469 0.021667432 -0.2547688 -0.4188749 0.27752906 0.5063358 0.14808263

network_body._body_endoder.seq_layers.0.bias f4 [128]
00000000: 0372 17b9 fc1a 2c3d 3b9b eebb c956 ff3c
00000010: fe46 a03d 47e3 f23c 9f28 a8bc 0112 98bc
00000020: f488 113c 1ceb 8bbb a3ef 3b3d 86c1 b3bc
00000030: 57d0 1dbc 2b32 b3bc 18bc 8dbc 5e18 f3bc
00000040: 4e0a ca3b 863e 2abd 439f bb3c 7555 27ba
00000050: 4722 84bc a8fc 92bc f976 fe3b f900 15bd
00000060: 120b c23c 3f7f e63b 1cae 993b 82ae 5fbc
00000070: 170e 13bd cdde eebc d3e8 aabc 9b72 bebc
00000080: 72ae 18bd b02d 213d 1856 29bc 698a 9dbc
00000090: 4575 efbc fc90 a43c 5e32 1ebd 47e5 823c
000000a0: e77b 183c 25e8 cfbc 8e7f f6bc b026 d33b
000000b0: 302d 033d a981 b63c f9eb db3c 3e8f 0cbd
000000c0: b40d 23bc 64cc d9bc 84c3 febc 9e4d 71bc
000000d0: fd95 93bc b234 033d d801 c03c 7cc4 02bd
000000e0: 8395 77bb b3d9 093c 8e9c 58bb 7381 a03c
000000f0: b725 183d 186a e8bc 178a 343b d2c2 d93b
00000100: 39f7 c7bb 6da4 f33c 3eac ef3b 631e 7d3c
00000110: c531 793d 3c2e 5abc 30b4 95bc 6f36 b83c
00000120: 83c3 4e3c b8c8 2fbd a974 4f3c 660f a93d
00000130: b93a 393d 7107 013d d005 233c a813 3abb
00000140: bc05 df3b c9fb 49bc 77e3 eebc 5370 a0ba
00000150: 449e 453c 109f 263d f3ed 8c3c a95a ac3c
00000160: a5cc 003d bfee d2bc b94d b9ba 635e 75bb
00000170: f947 83bd 3b85 e5bc 77d8 09bc 1819 44bd
00000180: 8079 e8bb f1eb 3b3c f1aa 10bc d407 7dbc
00000190: 41a9 883b b532 23bc 4845 66bc cd09 f1bc
000001a0: 3687 85bb 8b98 d43a 6436 bfbb 4eb3 81bc
000001b0: 9a7f a5bc e2d2 ec3c 996d d7bb 5b3d 77bb
000001c0: 81ca d03b c65d cb3a fab0 58bc 3b6b 25bc
000001d0: c140 c5bc dfca 2ebd fb1b d63b 1a0a 3fbc
000001e0: 5790 bb3b f403 8eb8 c92e 9ebc 452d 653b
000001f0: 24c5 fa3c c46d a0bc 082d 04bd 3f76 b9bb
-0.00014442955 0.04201792 -0.0072816885 0.031169312 0.07826041 0.02964939 -0.020527182 -0.018563272
0.00888275 -0.0042699706 0.045882832 -0.021942865 -0.009632192 -0.021874508 -0.017301604 -0.029674705
0.006165779 -0.041563533 0.02290309 -0.00063832785 -0.016129626 -0.017942742 0.0077656475 -0.03637788
0.02368692 0.007034212 0.004689945 -0.013652446 -0.03590211 -0.029158974 -0.020862972 -0.023248008
-0.03727574 0.03935021 -0.010335468 -0.019231038 -0.029230723 0.020088665 -0.038622253 0.015978469
0.009306884 -0.02537925 -0.03009012 0.006443821 0.032025516 0.022278624 0.026845919 -0.034316294
-0.009951998 -0.026586719 -0.031099088 -0.014727978 -0.018015856 0.032032676 0.02343838 -0.031925663
-0.0037778325 0.00841372 -0.0033052298 0.019592976 0.037145343 -0.028370902 0.0027548128 0.006645539
-0.0061024693 0.02974149 0.007314234 0.015449139 0.06083848 -0.013316687 -0.018274397 0.022486893
0.012619856 -0.04291603 0.012662091 0.0825489 0.045222018 0.031501237 0.009950116 -0.0028393064
0.0068061035 -0.012328097 -0.029161198 -0.0012240506 0.012061659 0.040679038 0.017203307 0.021039324
0.031445164 -0.025748609 -0.0014137543 -0.0037440292 -0.06410212 -0.02801763 -0.008413426 -0.047875494
-0.007094562 0.011469827 -0.008829818 -0.015443761 0.0041705673 -0.00996082 -0.014054604 -0.029423619
-0.0040749563 0.0016219778 -0.0058353413 -0.01583257 -0.020202447 0.02890915 -0.0065743444 -0.003772578
0.0063717966 0.0015515618 -0.013225788 -0.0100963665 -0.024078729 -0.04267394 0.0065340973 -0.011660123
0.0057239938 -6.771824e-05 -0.019309418 0.003496961 0.030611582 -0.01958359 -0.032269508 -0.005659848

network_body._body_endoder.seq_layers.2.weight f4 [128, 128]
00000000: fc1d 0fbe f1a5 c8bd ed4c a6bc 97e4 863d
00000010: d7a2 b8bd 65e5 453e 4fdf af3d 8a19 a7bc
00000020: ef05 273d 6f25 f2bb 0bbc 8abc a0cc 43be
00000030: 5862 bebd 5fbb febd ab01 b83d 8813 8abd
00000040: bb46 d3bc 0d82 713d 6b77 ddbc 29c4 0b3d
00000050: 4458 16bc 2591 503d 8220 82bd e619 f13d
00000060: f8fe 403d 1210 e9bc 87e8 083d 2a73 203d
00000070: 04c5 493d 842d ab3d 9a33 9ebd 2e08 7abd
00000080: 0bd7 72bc 396e 77be d11d 6ebe 6ec9 e2bd
00000090: 746f 88bd 5eff f33c ce17 7fbe 5f39 113e
000000a0: d578 363d 5e69 b3bd 15fd e93d c119 5bbd
000000b0: 67c2 81bd 9403 27bd 9d30 2abd 2c91 e13d
000000c0: 84f6 b0bc 7d8a 2cbe 890c fd3d 59e9 2bbd
000000d0: 2643 67bc 5d2d a8bd d124 a73d 9be5 d8bd
000000e0: 104d 04be 3893 5f3c 04b1 50be f8d7 803c
000000f0: 5290 123d e0d1 9abd 79ad 03bc 211f 87bd
00000100: ff30 8b3d a88a 10bb 4ef3 bebd 57ea 073e
00000110: 5c63 faba 7033 02be 7505 b63d 6d72 673d
00000120: 6dfe 8abd eaae 40bd 0137 363c a7f7 a0bd
00000130: d805 d83d f53f 0ebc 05eb 3a3d 7116 88bd
00000140: c086 35bd 9afb cebd 96a1 03bd bc0b e0bd
00000150: cc77 5d3d 8f38 90bd 060e 0f3d ac41 07bb
00000160: e442 b53d 9554 053d 6cf3 053e 1dfd 69be
00000170: 251a f43d aa69 303d ecaf 02be ee5f dabd
00000180: 8c8e 0bbe 03c2 13bc a024 9cbd b2cc 1cbe
00000190: f0d6 463e 572d 483e 4c75 c6bd a181 873d
000001a0: 7b60 f0bd fc4f 183d 78a6 c73c 201e a53d
000001b0: 7a95 ab3d 0782 8e3d 8fcf 1cbd 7ec7 0d3d
000001c0: 73f6 473d 552c 813d f382 9dbd 8e50 54bc
000001d0: 4c0a b33c 8460 c23d c345 a9bd 4389 3fbe
000001e0: 3394 68be c3d1 8c3b 8068 9e3d ba1b 873d
000001f0: 6a30 6bbc 4fed febd 274b 25be e500 ff3b
00000200: f306 6e3c ec30 583c 16f7 4d3d dfd6 71bc
00000210: 1cf8 113d dd76 8c3d 03a8 123c 09c0 ebbb
00000220: a120 203e 87ac 023e c36d 56bd 3f84 aa3c
00000230: fc6f e63b 2795 65bd f8b7 78bd 54ee 0b3e
00000240: 889e c5bb 2d3b 0e3d 9ae1 053e 9c91 bbbd
00000250: ac96 b7bd bac1 fcbd 30ab 0abe 8020 103d
00000260: 18ae 183e 52ee 03bd 5a4d 8b3b 20c9 333e
00000270: 2003 88bc 435c b23d 6b19 97bd c4e5 b1bd
00000280: eb7e b13c 2000 6fbd da6b 9b3d 60fe 94bd
00000290: bf97 393d 0619 233c 9de2 cb3d 60ca 30bc
000002a0: c236 1bbd d2f6 a6bc 040a ff3d fc1c 02be
000002b0: c330 403e 7ba6 033d 2e21 96bc db0d ea3d
000002c0: b06f 38bd ca3b e7bd 71f6 94bb 1f2c 0fbe
000002d0: b89b af3d b332 133c a67c af3d 5193 e8bc
000002e0: 480b 533d 87d2 953d b37b 22be 357d efbd
000002f0: 5c81 b3bd e836 10be 302d aabd f963 763d
00000300: 3367 3bbe c357 963b 1c11 debd 643b c7bc
00000310: e362 0fbe e0ad 6ebd abfd 28bc 1c85 833c
00000320: 3460 0e3e 3fd2 bebd cc9b 09bd 5311 343d
00000330: faed babd 8f0f a83d 662b 4abc bcc7 313e
00000340: dd82 6c3b e4cc 1cbe de63 ed3d fd2a f33d
00000350: f85c a4bc 874c 0dbd d249 903c 9918 a9bd
00000360: 00d5 11be e94a 4dbe b22e 89bd 592a afbc
00000370: 2ec9 3fbd d1a5 a43c 6334 6c3d a42a 353d
00000380: 6da6 7c3d 6c35 513d f768 f4bd b5cc e0bd
00000390: 3bdb 30be 94fc 4b3d 232d 893d ae13 d4bd
000003a0: 1ff2 23be f1cb 1d3d 4b9b bbbd 519b bcbd
000003b0: 1db7 7abd c252 d2bc ccfc 613e ef7c 093c
000003c0: e5b3 32be e5c1 4abd 75dc 973e e4a4 923c
000003d0: 80b4 ecbc 9b52 d23d 1311 02bd bf0e 8f3d
000003e0: 7308 06bd 70c5 283d eb41 c2bd 72f5 1f3d
000003f0: 969b d63d 2ab6 9fbd 67c2 9a3d 7406 ebbd
-0.13976282 -0.09797276 -0.020300353 0.06586569 -0.09015434 0.19325788 0.085875146 -0.02039792
0.040777143 -0.0073897163 -0.016935369 -0.19121027 -0.09296101 -0.12438082 0.08984693 -0.067420065
-0.025790563 0.058961917 -0.027034482 0.03412262 -0.009176318 0.05091967 -0.063538566 0.11772518
0.047118157 -0.028450046 0.03342488 0.03917233 0.049260154 0.08358291 -0.07724686 -0.061042957
-0.014821778 -0.2416314 -0.23253562 -0.11073576 -0.06661883 0.029784855 -0.24911425 0.14182042
0.04454883 -0.087603316 0.11425225 -0.053491358 -0.063359074 -0.040774897 -0.041550267 0.110140175
-0.021601923 -0.16849704 0.123559065 -0.041970585 -0.0141151305 -0.08211777 0.08161319 -0.10590669
-0.12920022 0.0136459395 -0.20380026 0.015727982 0.035782166 -0.07559562 -0.008036965 -0.06597734
0.06796455 -0.0022055302 -0.093237504 0.13272987 -0.0019103098 -0.12714934 0.088877596 0.05650561
-0.06786809 -0.04704181 0.011121512 -0.07859736 0.105479896 -0.008682241 0.04563429 -0.06644905
-0.04431796 -0.10106583 -0.032136522 -0.10939738 0.054069325 -0.07042038 0.034925483 -0.0020638509
0.08850649 0.032551367 0.1308114 -0.22850461 0.11919049 0.04306952 -0.12762421 -0.106628284
-0.13628596 -0.009018424 -0.07624173 -0.1531246 0.1941793 0.19548546 -0.09690341 0.066165216
-0.11737152 0.037185654 0.02437137 0.080623865 0.0837812 0.069583945 -0.03828388 0.03461408
0.048819017 0.06307284 -0.07690992 -0.012958659 0.021855496 0.09491065 -0.08265259 -0.18704705
-0.22712784 0.0042974665 0.077347755 0.06597085 -0.0143548045 -0.12447607 -0.1614195 0.007782089
0.014528024 0.013195258 0.050284468 -0.014760702 0.035637006 0.06858609 0.00895119 -0.0071945232
0.15637447 0.12761126 -0.05235077 0.020815013 0.0070323925 -0.056050446 -0.06072232 0.13665134
-0.0060308613 0.034724403 0.13074341 -0.09158632 -0.08964285 -0.12341638 -0.13541865 0.035187244
0.14910161 -0.0322097 0.0042511644 0.17557192 -0.016603053 0.08709004 -0.07377895 -0.086864024
0.021666965 -0.05834973 0.075889304 -0.07275081 0.045310732 0.0099546965 0.099553324 -0.010790437
-0.037894018 -0.020381365 0.12453082 -0.12706369 0.18768601 0.03214119 -0.018326368 0.11428424
-0.04502839 -0.11290701 -0.0045459797 -0.13981675 0.08574623 0.008984256 0.08568697 -0.028390558
0.05152443 0.073155455 -0.158675 -0.11693803 -0.08764908 -0.14083445 -0.083094 0.060153935
-0.18301086 0.0045880987 -0.10843107 -0.024320312 -0.14002566 -0.05827129 -0.010314385 0.016054682
0.13903886 -0.09317445 -0.033595845 0.043961834 -0.09127422 0.082060926 -0.012339449 0.17361349
0.0036088743 -0.15312535 0.11591314 0.11873434 -0.020063862 -0.03449681 0.017613325 -0.08256645
-0.1424141 -0.20048107 -0.066983595 -0.021382498 -0.04682272 0.020098599 0.057667147 0.04423012
0.061682153 0.051076338 -0.11934083 -0.10976545 -0.1727113 0.049801424 0.06698062 -0.10355316
-0.1601033 0.03852457 -0.09160479 -0.09209312 -0.061209787 -0.025674228 0.2206909 0.008391603
-0.17451437 -0.04950132 0.29660383 0.017900892 -0.028894663 0.10269662 -0.031754564 0.069852345
-0.0327229 0.041203916 -0.09485229 0.039052434 0.104788944 -0.07798417 0.075566106 -0.1147584

network_body._body_endoder.seq_layers.2.bias f4 [128]
00000000: 4f4c 1d3d 9a8d c1bc fbd2 b83c 3ca4 b7bc
00000010: 6d00 f73b 21a1 3f3c 8fc0 b83c 9dfe e4bc
00000020: 9403 d73c e20d 383c b132 fcbc 3700 cf3c
00000030: 4f1e 0a3c 6fd0 00bd a1e2 f73b 94dc 8ebc
00000040: ede1 38bb 2650 a2bc ab25 16bd e1bd 433d
00000050: a7f4 8dbc 2ac2 a5bc 268f c6bc 2903 693a
00000060: ab09 1fbc e2fb 4c3c 2722 bcb8 70e2 fd3b
00000070: 64f3 2a3c d6c0 a9bb a53d d8bc a84f 93ba
00000080: ded1 c0bc 0969 babc 5c7b 2a3d ad47 033d
00000090: 6263 69bc c860 723c d92b e13c 05e4 edbc
000000a0: 6dc6 5a3c ed0e dbbb e0c3 cabc a025 d33b
000000b0: e307 d93c 1d30 c2ba 8f18 ffbc 9c8f 7c3c
000000c0: e5d8 81bc 8ecd 643b 4bcc 19bd 5bda b2bc
000000d0: 450c d4bc 0e1b e63a 424d 57bc 1f9e 9d3c
000000e0: 3ed7 d23b 5138 6b3d 1171 80bc b02d 893a
000000f0: 24fb c33b 8e89 bf3b b4cb babc f83e c6bc
00000100: 85ec 6ebc 063c d6bb 16f6 6abc 9440 26bc
00000110: 750d cfbc 4583 debc e74f 3bbb 28af 9cbc
00000120: 8473 e5bc ecaa 06bc 6aa8 b03c c71a 9cbb
00000130: 3e9e bc3b 8d2b 12bc ab02 323c 6e33 ebbc
00000140: 4a0f 063d dd51 09bc 5656 8bbc 531a b6bc
00000150: efbf d13c 0cba a8bb f928 c83c a538 083c
00000160: b8dd 31bc 3f65 0a3d e21f 8cbc 4d16 9fbc
00000170: 3198 8e3c df98 003d 83d2 fcbc 6595 0d3c
00000180: 83af 05bd 3d4b 423c 8374 08bd 0703 0fbd
00000190: 295e abbb f15f 8bbc e036 dabb 37e1 71bc
000001a0: 2e20 35bc 90b0 e13c dc66 98bc a997 c4bc
000001b0: 6724 53bd 3850 263d c011 edbc b716 58bb
000001c0: 999e a2bb 571d 023c b117 b53c b39e 873b
000001d0: 9501 673c d02f 60bc f268 453c 4559 d7bb
000001e0: d4e3 51bc 73e9 303c 0d13 fdb9 08d1 a6bc
000001f0: 8a16 b13c 85f7 afbc 83ef 4e3c 68b2 aebc
0.03840285 -0.023627091 0.02256154 -0.02241718 0.0075378926 0.011696131 0.022552757 -0.02795344
0.026246823 0.011233779 -0.03078589 0.025268657 0.008430078 -0.031448778 0.007564858 -0.017439164
-0.0028210834 -0.019813608 -0.036657017 0.047788505 -0.017328573 -0.020234186 -0.02423818 0.00088887155
-0.009706895 0.012511225 -8.9709e-05 0.0077479407 0.010434005 -0.0051804585 -0.026396582 -0.0011238949
-0.023537572 -0.022755163 0.04162155 0.032050777 -0.014244886 0.014793582 0.027486729 -0.029039392
0.013352972 -0.006685129 -0.024751604 0.0064436942 0.026493018 -0.0014815364 -0.03113964 0.0154150985
-0.015850494 0.003491256 -0.037548345 -0.021832636 -0.025884757 0.001755567 -0.013140978 0.019240437
0.0064343503 0.057426754 -0.015678914 0.0010465886 0.005980866 0.005845255 -0.022802211 -0.024199948
-0.014582758 -0.006537917 -0.014340898 -0.010147233 -0.025274972 -0.027162204 -0.002858156 -0.01912649
-0.028009184 -0.008219462 0.021564681 -0.0047639343 0.0057561686 -0.008921516 0.010864894 -0.028711047
0.032729425 -0.008381334 -0.017008942 -0.02222935 0.025604216 -0.0051491316 0.0244336 0.008314286
-0.0108560845 0.033787962 -0.017105047 -0.019419814 0.017406555 0.03139579 -0.030862099 0.008641575
-0.032638084 0.0118587585 -0.03331424 -0.034914996 -0.0052297306 -0.017013522 -0.0066593736 -0.014763168
-0.0110550355 0.027550012 -0.018603735 -0.023998098 -0.051548388 0.040603846 -0.028939128 -0.0032972523
-0.004962754 0.0079415655 0.022106024 0.0041387915 0.014099498 -0.013683274 0.012048947 -0.006571921
-0.012810666 0.010797846 -0.00048270114 -0.020363346 0.021617193 -0.021480331 0.012630346 -0.021325305

action_model._continuous_distribution.log_sigma f4 [1, 2]
00000000: a711 cfbd 807d 65bc
-0.10110789 -0.014006972

action_model._continuous_distribution.mu.weight f4 [2, 128]
00000000: c844 e93c 19e4 f63b eca7 ea3b a3dc 88bc
00000010: d434 253d 1aba a33c 7474 f63c 84dd 17bc
00000020: 05a3 a63c ef9b 2e3c 37aa 73bc 9dc5 323d
00000030: 4640 893c 7f5b 5d3c 5094 873c 1047 533c
00000040: de53 adbc cfdf d53b 3016 99bc 20d7 113d
00000050: 49c3 1d3b 1243 1ebb 1690 4abc fca3 a53d
00000060: 3ca8 cf3c c567 61bc 874b d5ba cf5a 96bb
00000070: 8f31 8cbd de15 e4bb 13c9 c0bc 8bc4 f5bb
00000080: f2b3 123c cb5a 143d 3905 2f3d 60f4 8a3c
00000090: 552a cfbc f94b 9c3c 9276 ab3c 7899 113c
000000a0: 1e8d 093d 684b 1ebd 85c7 8abc fa3b ee3b
000000b0: 8810 1a3d f731 38bb 5f32 0c3c 21f8 633c
000000c0: 6ccc 013c 5450 9f38 b281 473c 9fc3 03bc
000000d0: 7a35 6fbb 46ee 02bb 1a74 e0bb dc1a 6b3c
000000e0: 4568 703c 181e 0d3d 7972 37bd eec0 393c
000000f0: ad25 50bd c106 373c 7865 1f3d 4143 103c
00000100: f723 be3c c4fa 6bbd 7f99 f7bc 8c88 c33c
00000110: 6c15 033c 5e82 8fbc 208a 25bc 4e27 09bd
00000120: 8f71 58bc d979 edbb 24fb 5f3d 182f 013b
00000130: 4fca 9d3b cd37 7f38 51f3 21bd a699 97bb
00000140: 5de5 133d 2230 0cbb 797c 05bd 14d4 bd3c
00000150: 2535 793c 9361 a4bc 7eb3 813c 1dac b23c
00000160: 0f45 79b8 87ef f43b a74d 5dbb 93c8 003c
00000170: 3bc9 b93c 6d55 ef3c 677c 7dbc 4297 463b
00000180: 8960 e8bc d104 303c 0e66 ea3a 4bcf d7bb
00000190: 9db7 a6bc 924d 96bc 1f69 0dbd 9859 273c
000001a0: 3713 d039 ff43 af3c c0a9 073c 2061 1f3c
000001b0: 75c4 003b e3f8 0d3d 80ea 88bc 978d fe3c
000001c0: 1611 1abd 7274 773b 3d12 153c f063 89bc
000001d0: bc24 423c 1095 a8bc 1b92 ffbc a5d7 2fbd
000001e0: d611 ffbc a239 f63c d9ee 353c d2ec 0c3d
000001f0: 8787 d63c e092 98ba e079 af3c 06b3 5d3c
00000200: 05d4 49bd f8e9 cb3c 92a1 9abc c10f 173c
00000210: a043 8337 2a3b 15bd 251a 60bd e3e5 afbb
00000220: a498 1fbd 05b6 d33b b598 c63c a5c6 18bd
00000230: 8683 e4bc ecbb 7f3c d1a8 03bd d472 a2b9
00000240: 3793 cb3c 8236 cc3c 58ac 5ebb 027f 1cbc
00000250: ab9b d63b a7d7 8abc 577e 023c bd9c 50bb
00000260: ef54 4a3b f5cd 19bd 8f26 31bc 4db2 5ebd
00000270: a5d8 1b3d e81c 99bb 52e5 d93b 2202 e0bc
00000280: 0c9f 4c3c bf25 2e3c f5bf 2ebd f6b1 23bd
00000290: 607d f43c b813 cdbc 246a 1fbd ae64 8b3b
000002a0: d515 d0bc ad8b ce3c 3c32 d1ba e103 a8bc
000002b0: 5140 47bd 02a5 bdbc f7d3 dc3a eccb 3cbd
000002c0: 8333 4abc 7d55 a7bc 07b6 1e3d b82a 843c
000002d0: 2984 6a3c 0981 02bd 82c7 3ebc 8154 c33b
000002e0: df41 08bd fa4d a9bd f92d 9a3d a7c4 d5bc
000002f0: ed28 90bb 0c82 1ebc 85ae 503c 4849 743c
00000300: f615 f83c 0796 2d3d 4004 8b3c 06be 68bc
00000310: 5a76 053c 3eed 003d 87f1 d83a 742f b53c
00000320: e95c db3c 794c 4abc 3084 15bd 267d 09bc
00000330: 3b5b 74bc b3a0 4abc 77de a73c 345d 1fbb
00000340: aae9 ebbc 235c 57bc 797d 163d ea7b 163d
00000350: 8585 39bd b110 a73b 587c 67bd 67a7 17bc
00000360: a623 cfba ad7f 043c 6579 863b 6d1e 9f3c
00000370: a6c3 35bd 89b5 80bd 8639 503c d6cf aebc
00000380: f4e7 413c 13ad 14bc b051 333b 55c4 e83c
00000390: 3709 e63c 5137 d83c 5799 013d 4229 643c
000003a0: ab80 8cbc 8238 95bd c378 4b3c a15e 0a3d
000003b0: 046f ed3c 15c9 043c 7354 493c a62a 87bc
000003c0: 9cd3 0f3d 69fd cbbc 5432 5ebd 9bfd 9a3c
000003d0: 3db5 00bc b8be b63c b084 d1bc a0a3 873c
000003e0: 630c fa3c 62ee a5bc c083 abbc c1d4 b83c
000003f0: 025d 33bd 6879 eb3c e2fc 4f3c 8d75 473c
0.02847518 0.0075345156 0.007161131 -0.01670677 0.040333584 0.019986201 0.030084826 -0.009269122
0.020341406 0.010657295 -0.014872125 0.04364549 0.01675428 0.013510584 0.016550213 0.012895361
-0.021158155 0.006526924 -0.018687338 0.03560555 0.0024072698 -0.0024148864 -0.012363454 0.08087918
0.025348775 -0.013757651 -0.0016273119 -0.004588462 -0.0684539 -0.0069606146 -0.02353338 -0.0075002364
0.008954035 0.0362194 0.04272959 0.01696223 -0.02528874 0.019079195 0.020930562 0.008886687
0.033581845 -0.03864613 -0.016940841 0.0072703334 0.03761342 -0.0028105953 0.008556931 0.013914139
0.007922273 7.596673e-05 0.012176918 -0.008042245 -0.003650038 -0.0019978448 -0.006849778 0.0143496655
0.014673297 0.034452528 -0.044786904 0.011337502 -0.05081718 0.011171044 0.038915128 0.008805097
0.023210509 -0.057612196 -0.03022456 0.023868822 0.008000713 -0.017518219 -0.010103732 -0.03348475
-0.013210668 -0.0072471914 0.054682866 0.0019711908 0.004815377 6.0848706e-05 -0.039538685 -0.0046264706
0.03610741 -0.0021390994 -0.03258941 0.023172416 0.015210425 -0.020066058 0.015832659 0.021810586
-5.9430542e-05 0.007474843 -0.0033768208 0.007860321 0.022678962 0.029215539 -0.015471554 0.003030256
-0.028366344 0.010743336 0.0017883198 -0.0065859905 -0.020351226 -0.018347535 -0.03452408 0.010214232
0.00039687168 0.021394728 0.008280218 0.009727746 0.0019648348 0.034661185 -0.01671338 0.031073375
-0.03761395 0.0037758616 0.009098587 -0.016771287 0.0118495785 -0.020578891 -0.031197598 -0.042930264
-0.031136435 0.030056778 0.011104309 0.034405537 0.026187671 -0.0011640452 0.02142042 0.013531452
-0.049274463 0.024891838 -0.01887587 0.009220065 1.5647907e-05 -0.036433376 -0.054712433 -0.005367981
-0.03896393 0.0064609074 0.024242738 -0.037298817 -0.027894747 0.015608769 -0.032143418 -0.00030984601
0.024850471 0.024928335 -0.0033977237 -0.009551765 0.006549319 -0.016948534 0.007964692 -0.0031831705
0.0030873378 -0.03754993 -0.010812416 -0.05436926 0.038048405 -0.0046726353 0.0066496516 -0.027344767
0.012489092 0.010629117 -0.042663533 -0.03996464 0.02984494 -0.025033817 -0.038919583 0.0042539453
-0.025401035 0.025213087 -0.0015960406 -0.020509662 -0.04864532 -0.02314997 0.0016847838 -0.046092913
-0.012341383 -0.020426506 0.038747814 0.016133651 0.014313736 -0.03186134 -0.011644246 0.0059610014
-0.033265945 -0.08266826 0.075283 -0.026094748 -0.00439941 -0.00967456 0.012736921 0.01491005
0.03028391 0.042379405 0.0169698 -0.014205461 0.008145893 0.03147625 0.0016551473 0.022117354
0.026777701 -0.012347334 -0.036503017 -0.008391654 -0.014914329 -0.012367415 0.020491822 -0.0024317028
-0.028797943 -0.013144526 0.036740754 0.036739267 -0.04529335 0.0050984253 -0.056515068 -0.00925622
-0.0015803471 0.008087081 0.004103827 0.019423688 -0.044376038 -0.06284625 0.012709027 -0.021339338
0.011835087 -0.009074467 0.0027361922 0.02841393 0.028080566 0.026393564 0.031640377 0.013925852
-0.017151197 -0.07286169 0.012418929 0.03378165 0.0289836 0.008104582 0.012288201 -0.016499829
0.035113916 -0.024901109 -0.054247215 0.018919757 -0.007855711 0.022307739 -0.025575966 0.016557515
0.030523485 -0.020255271 -0.020936847 0.022562386 -0.04378987 0.028744414 0.012694569 0.012174022

action_model._continuous_distribution.mu.bias f4 [2]
00000000: 2656 e03b 2194 cdbc
0.006846207 -0.025095047

action_model._discrete_distribution.branches.0.weight f4 [1, 128]
00000000: ab17 833c 5778 30bc 75f2 2c3c 79a3 033c
00000010: 2b02 0bbc 6887 66bb 95bb 1a3c 042d 49bc
00000020: 8d80 debb 0781 c03b c3f6 4c3c 3776 903b
00000030: bdd8 7abc 177b 9dba 47a8 343c d291 963b
00000040: dbb3 f23b 7207 ee3b b581 6dbb 92ea 583b
00000050: b158 ad3b 572a 3a3c 3592 edb7 dfe0 0cbb
00000060: 54ce 3cba 7f73 393c a835 74bb 3816 1ebc
00000070: 07a1 813b bda6 ed3b 6093 14bc 1887 6b3b
00000080: 8fe5 73bb a8fe 43bc c312 0c3b 602f 593c
00000090: 42cb babb a5e3 2fbc 804b edbb 52ef 40bc
000000a0: 832d 55bc 1393 40bb 7cd3 b6bb 172e a63c
000000b0: eefa 163b c13d 183b 0363 a73b e0e4 463c
000000c0: beb7 313b ba25 01bc 7ae1 fd3b 6dfd eabb
000000d0: 62c9 8fbb a2e0 6fbc 336d 233a 63a8 8638
000000e0: 58ca 733a 4879 533c 6f00 973b 588e 113b
000000f0: 6bf4 a6bb 9dea 723b 1f63 a53b 4b78 533b
00000100: 5e0e c73b b2ed f73b 2803 5a3a fb03 163c
00000110: d681 c33c 2012 3c3b 48f2 483c 8df1 7f3a
00000120: 733f 2b39 153d 083c c857 733b 677c dc3b
00000130: 11f9 40bc 2241 62bb 93ed 1d3c 4c50 25bb
00000140: 695a 1e3c 609e d0bb a66d 9a3c d294 1cba
00000150: 1a2f 42bc fe8b beba 2fc5 10bc 79fd 9dba
00000160: 450a cf3a 8092 503c 3ab4 c2bb df5c 833b
00000170: 23a2 e23b f0fb 213a 5b82 2a3b ca4e 153c
00000180: b8c0 1fbb 2227 343c 0f65 13bc d86a e03b
00000190: d3c5 f23b f33a 0cbb 1e1c 14bc f3e2 5cbb
000001a0: 7d10 2cbb 9544 783c 0a11 20bc c3c8 91bb
000001b0: edf5 233c 7210 453a f02f e4b9 81c8 1cbb
000001c0: e7d4 42bc 0f1b 863c 0baa 9ebc 8203 5bbc
000001d0: 6b36 0d3c 589a 8e3a 321b bf3b a85a 39bc
000001e0: 7a60 75bc c3ca b23c c16d bfbb 322e 4b3c
000001f0: 4f39 903a 5e2b 863b 87fa 3fba b00e 143c
0.016002497 -0.010770879 0.010555853 0.00803458 -0.008484404 -0.0035175923 0.009444137 -0.012278799
-0.006790227 0.0058747563 0.012510004 0.0044086236 -0.0153104635 -0.0012014833 0.011026449 0.00459502
0.0074066943 0.007264071 -0.0036240641 0.00330988 0.005290114 0.011362634 -2.8320685e-05 -0.0021496338
-0.0007202376 0.01131904 -0.0037263427 -0.009648852 0.0039559635 0.007252543 -0.00906834 0.0035938676
-0.0037215685 -0.01196257 0.0021373488 0.013255924 -0.0057004998 -0.010735427 -0.0072416663 -0.011775808
-0.013011339 -0.0029384538 -0.00557941 0.02028565 0.002303775 0.0023230168 0.0051082387 0.012139529
0.0027117576 -0.00788253 0.007747826 -0.007171324 -0.0043880204 -0.014640959 0.00062342285 6.4209824e-05
0.0009299866 0.012907334 0.004608206 0.0022210088 -0.005095055 0.003706611 0.0050472165 0.0032267745
0.0060747107 0.0075661773 0.00083165104 0.009156222 0.023865622 0.0028697327 0.012264796 0.0009763472
0.00016331467 0.008315344 0.003713118 0.006728697 -0.011778132 -0.0034523685 0.009639162 -0.0025224863
0.00966511 -0.006366536 0.018851113 -0.00059731037 -0.01185205 -0.001453757 -0.008836075 -0.001205369
0.0015795907 0.012730241 -0.005941895 0.004008874 0.006916301 0.0006179204 0.002601764 0.009113023
-0.0024376344 0.010995658 -0.008996262 0.0068486743 0.0074088364 -0.002139744 -0.009039907 -0.0033704608
-0.0026254945 0.01515307 -0.009769687 -0.0044489815 0.010007364 0.0007517404 -0.00043523265 -0.002392322
-0.01189158 0.016370324 -0.019368192 -0.013367536 0.008618931 0.0010879738 0.0058320994 -0.011313118
-0.014976615 0.0218252 -0.005841941 0.012401151 0.0011003407 0.0040945252 -0.0007323403 0.009036705

exp_avg f4 [128, 17]
00000000: deca dbb8 18b8 16b9 bb05 3cb9 f02b 5db9
00000010: 95d1 7fb8 9b40 c9b8 c681 21b9 4890 11b9
00000020: 0243 bab8 c771 f0b8 0a63 c5b7 b604 a437
00000030: c0e6 1ab9 adb8 00b9 bc9c 14ba 4fe7 90b8
00000040: c640 97ba 1e2c 94b8 059c b8b8 697d 87b8
00000050: db15 adb8 8fca cbb8 a699 e9b8 d3e6 b5b8
00000060: 9b82 b9b8 6753 12b9 332b 05b9 a29a 8bb8
00000070: 843f 9fb8 23a1 1fb9 b549 19b9 b36b 90b9
00000080: d0dc a7b8 ab74 03b9 1052 20b8 e797 4d38
00000090: ec66 8538 acfb 1539 5549 6f39 51fe 9739
000000a0: a89b 4ab8 a475 c9b7 437c be39 d705 bd39
000000b0: 2e06 10b9 620b 01b9 d884 293a 5f1a f339
000000c0: fbc9 c03a 47e1 6639 f7e2 54b9 3d63 b936
000000d0: 209c f938 65a0 0939 72b2 9a39 1632 8c38
000000e0: f6dd 5239 6abb 48b9 516c 0eb9 d7f5 5b39
000000f0: 7719 8f39 15e0 dab9 d71c d5b9 1ee3 1c3a
00000100: 48b4 c639 6547 9b3a 072c 4539 fd92 9ab9
00000110: cf4e 0039 6d24 6239 bf05 1839 70dc b139
00000120: d900 f538 87b4 7839 5023 b2b8 2224 e0b7
00000130: 3450 a639 2e30 bb39 9177 c338 8348 d2b8
00000140: e8e9 a939 300d 9f39 09ee 713a 1ed3 2139
00000150: ac33 883a 111f fd37 57d0 1939 451c b539
00000160: f599 e239 abdf d0b7 2f12 d138 3bba 3237
00000170: 7777 4238 387e a138 5668 2239 6f80 8cb9
00000180: 8b86 89b9 8800 d839 c925 8f39 5c70 7539
00000190: 47e7 0039 f791 0239 c506 bbb7 c659 1db8
000001a0: 6f5b a8b7 2cde 12b8 429f 22b8 7054 69b8
000001b0: bdd2 27b7 4108 64b7 73cb 87b8 74f9 89b8
000001c0: d7f7 a737 3bbc 2237 abd2 94b8 3f6c 8eb8
000001d0: 6032 1bb8 6f6d 36b8 f58b b238 1717 efb7
000001e0: 9fd2 bdb8 8847 10b9 704d 4cb9 63c3 ceb8
000001f0: 0738 13b9 f79b 9db8 0468 c0b8 40b3 4bb9
00000200: 1ca1 58b9 8ba8 18b9 a9d7 96b8 35fb 42b9
00000210: eabb 37b9 3401 bcb9 7142 a3b8 06ce 40ba
00000220: 6107 65b7 3009 3fb8 076d 81b8 a7dd aab8
00000230: 6fcf a1b6 3825 46b8 2ed1 d6b7 9ac2 05b8
00000240: 0430 97b8 d14b a0b8 2ff8 6c37 969b 0137
00000250: 7ca7 12b9 1685 e2b8 1f69 b2b8 7c5e 5cb8
00000260: 1687 1c38 de33 80b7 e162 8d37 4341 d838
00000270: 35e2 e138 5f2b 9f37 2038 2a38 8ab9 a038
00000280: e2e2 a238 3251 1938 d4be 6238 604b 9038
00000290: 79cd 7838 a732 fb38 fdbb b238 5eac 9c38
000002a0: 98ef c337 6b64 8d38 37d6 0fb9 1dc4 d0b8
000002b0: 644f 5a38 ba61 8c38 6853 74b9 3966 4db9
000002c0: 87ff 3737 94be 5c37 5c35 31b9 2397 1ab9
000002d0: 707e 5539 310e 1738 301b 61b9 ddaf 55b9
000002e0: d493 7f38 08dc 25b9 6f64 753a 7873 acb8
000002f0: 2a75 bdb8 4484 0bb8 5ce4 89b8 d101 f2b7
00000300: 380f 7db8 adf8 2738 c745 0a38 ec6b c8b8
00000310: 0dba bcb8 2f7e 1e39 6054 0e39 f5c8 89b8
00000320: 3238 8fb8 8b06 b4b8 aa27 3ab8 a0a1 17b9
00000330: db3f a1b8 706a 58b8 04d5 2036 b333 9037
00000340: 4a2d 2eb8 f9c2 8eb7 2e5d 06b8 32ec dfb7
00000350: bf6a aab7 7acc c2b6 614d 69b8 2bc2 68b8
00000360: b69e cc38 72e4 1538 456c 9839 a433 f2b5
00000370: a53a ceb7 f192 9db8 8cbc 5ab9 d5ad e5b9
00000380: 4fb1 f8b9 0a1c 0cb9 a80c 71b9 ed72 b4b9
00000390: 8d83 b6b9 bc5e 7bb9 5b10 a2b9 0765 dfb9
000003a0: 9315 94b9 c291 c9b9 49e1 a9b9 a4d1 fbb9
000003b0: 9f2e 96b8 821a 18bb 0388 4bb8 677b c0b8
000003c0: 4200 43b9 65cc 40b9 91e8 dcb8 e420 0ab9
000003d0: c20e 2db9 98d5 2fb9 9a78 11b9 b0b7 26b9
000003e0: 6485 7cb9 36f5 54b9 b2d2 76b9 cbb9 4ab9
000003f0: b6af b136 ef97 76b8 8bbd 1bba ae9c 8a38
-0.00010480521 -0.00014373695 -0.00017931212 -0.0002109257 -6.0991926e-05 -9.5964606e-05 -0.00015402501 -0.00013882027
-8.881652e-05 -0.000114652845 -2.3530349e-05 1.9552517e-05 -0.00014772546 -0.00012275828 -0.0005669107 -6.90954e-05
-0.001153969 -7.0654074e-05 -8.8028646e-05 -6.460661e-05 -8.253354e-05 -9.717524e-05 -0.00011138925 -8.673747e-05
-8.8458146e-05 -0.00013954715 -0.00012699961 -6.656839e-05 -7.5935415e-05 -0.0001522345 -0.00014618675 -0.00027546062
-8.00431e-05 -0.00012536596 -3.82234e-05 4.901728e-05 6.361105e-05 0.00014303502 0.00022820134 0.00028990445
-4.830552e-05 -2.4015848e-05 0.00036332206 0.0003605324 -0.00013735212 -0.00012306639 0.00064666336 0.0004636822
0.0014708632 0.00022018432 -0.00020302447 5.5249825e-06 0.00011902326 0.0001312509 0.0002950612 6.6850494e-05
0.00020109848 -0.00019143304 -0.00013582526 0.0002097705 0.00027294058 -0.00041747154 -0.00040648013 0.0005984771
0.00037899823 0.0011846839 0.00018803785 -0.00029482684 0.0001223639 0.00021566609 0.0001449799 0.0003392431
0.00011682668 0.00023718375 -8.494279e-05 -2.6719707e-05 0.00031721743 0.00035703316 9.3205956e-05 -0.00010027087
0.00032408466 0.0003033667 0.00092288904 0.00015432804 0.0010391376 3.0174417e-05 0.0001466883 0.00034544073
0.00043220786 -2.4899686e-05 9.9692836e-05 1.0652987e-05 4.6364465e-05 7.700588e-05 0.00015488392 -0.0002679857
-0.0002623092 0.00041199126 0.00027303238 0.00023406878 0.00012293189 0.00012452142 -2.229529e-05 -3.7515325e-05
-2.0069738e-05 -3.5016026e-05 -3.877213e-05 -5.5630167e-05 -1.0003042e-05 -1.3591781e-05 -6.475197e-05 -6.579133e-05
2.002336e-05 9.699778e-06 -7.09643e-05 -6.79125e-05 -3.7001795e-05 -4.34941e-05 8.5137704e-05 -2.8501772e-05
-9.0514535e-05 -0.00013759558 -0.00019483804 -9.859239e-05 -0.00014039884 -7.515394e-05 -9.174648e-05 -0.00019426364
-0.00020659383 -0.00014558637 -7.192727e-05 -0.00018594864 -0.00017522243 -0.0003585905 -7.784821e-05 -0.00073549186
-1.3651182e-05 -4.5546505e-05 -6.171507e-05 -8.147518e-05 -4.8223224e-06 -4.724154e-05 -2.5608195e-05 -3.1890908e-05
-7.209185e-05 -7.6435164e-05 1.4124481e-05 7.725224e-06 -0.00013986038 -0.00010801309 -8.507282e-05 -5.2540083e-05
3.7319107e-05 -1.5282942e-05 1.6854554e-05 0.000103118386 0.000107709704 1.8974473e-05 4.058343e-05 7.663954e-05
7.767022e-05 3.655366e-05 5.406032e-05 6.880495e-05 5.931917e-05 0.000119780474 8.522717e-05 7.4707656e-05
2.3357381e-05 6.742108e-05 -0.00013717344 -9.954742e-05 5.204919e-05 6.693923e-05 -0.00023300725 -0.00019588404
1.0967145e-05 1.3157394e-05 -0.00016899913 -0.00014742887 0.00020360365 3.6014422e-05 -0.000214678 -0.00020378777
6.0934413e-05 -0.00015817594 0.0009360974 -8.223107e-05 -9.034046e-05 -3.3263364e-05 -6.575204e-05 -2.8849494e-05
-6.0334074e-05 4.00475e-05 3.296675e-05 -9.556845e-05 -8.999193e-05 0.00015115061 0.00013573607 -6.5701e-05
-6.8292386e-05 -8.5842876e-05 -4.4382796e-05 -0.00014460692 -7.688972e-05 -5.159754e-05 2.396585e-06 1.7190212e-05
-4.152701e-05 -1.701851e-05 -3.203487e-05 -2.6693659e-05 -2.0315287e-05 -5.8054547e-06 -5.5623594e-05 -5.5493943e-05
9.75704e-05 3.5737125e-05 0.00029072366 -1.8045434e-06 -2.4584422e-05 -7.513713e-05 -0.0002086034 -0.000438078
-0.0004743435 -0.00013361886 -0.00022988266 -0.00034417902 -0.00034811758 -0.00023972517 -0.00030911234 -0.00042609146
-0.00028244834 -0.00038446306 -0.00032402042 -0.00048030645 -7.161241e-05 -0.002320916 -4.8525642e-05 -9.178259e-05
-0.00018596745 -0.0001838669 -0.00010533736 -0.00013172958 -0.00016504063 -0.0001676887 -0.00013873205 -0.00015899423
-0.00024082285 -0.00020309244 -0.00023538878 -0.00019333434 5.2954665e-06 -5.879247e-05 -0.0005941025 6.609537e-05

exp_avg_sq f4 [128, 17]
00000000: 96c3 3b36 11dd 4436 9efd 2636 cf90 3036
00000010: b66f 6736 e9b3 6836 0cb7 5236 4e3e 5836
00000020: dbdf 5936 7de9 6136 3de2 8736 8222 8836
00000030: c65c 6936 5d00 6b36 4cd0 2238 5e15 c035
00000040: e999 4438 b908 3235 606a 3b35 1af2 5235
00000050: ba72 5535 0ef7 2035 8caf 2635 300a 3535
00000060: f7a6 3835 2854 0b35 2e28 1335 9d68 3335
00000070: 8d9b 3935 a9b7 0e35 b961 1435 0b0f df36
00000080: 00ec b634 7436 7c37 0c20 9436 4bd7 9536
00000090: 10bd 8236 17ea 8336 f963 9336 fca5 9936
000000a0: e235 5536 ee55 5a36 8a66 9936 6c62 9a36
000000b0: df51 5536 691c 6036 b1d9 9136 26bf 9236
000000c0: 83c8 6e38 f28d b935 c25a 6b38 777c ba37
000000d0: 4e91 bc37 9487 9a37 4a0e 9d37 f59b b637
000000e0: 5701 be37 4325 8137 0463 8537 21b8 bc37
000000f0: d76e c037 e4e2 8d37 4f9c 9237 fcac bd37
00000100: 6f6a bb37 bc1e ba39 97a9 f236 9f36 8039
00000110: c925 8a37 c965 8c37 f261 7337 6b6b 7837
00000120: a0ee 8537 43c5 8837 3fc6 4237 1021 4c37
00000130: e67d 8c37 c9cd 8d37 1f85 5937 8f87 5e37
00000140: 4576 9437 401f 9537 ba70 3439 880a d636
00000150: fdc0 7139 a60c 9737 a4c1 9937 34e3 8037
00000160: 3815 8337 9808 a137 9511 a537 732b 5437
00000170: 178d 5c37 ab57 a437 06e5 a837 dc30 8337
00000180: bf28 8637 936a ad37 5a3e ab37 d71a a739
00000190: a836 d836 502f 6e39 11ad e433 4f8a ef33
000001a0: b4f8 f433 e454 fa33 3e29 bd33 db37 cb33
000001b0: 5f12 0934 35b4 0934 2646 e233 c202 ea33
000001c0: eea7 f133 be26 fa33 e924 2134 58c6 2234
000001d0: 3e26 d335 28b8 8c33 3179 e735 53db 1c36
000001e0: 9df1 1f36 be3b 2236 a86c 2436 8073 1636
000001f0: 3796 1836 fc93 1736 02cc 1b36 abb3 1436
00000200: 8f6a 1736 fbac 2336 31f7 2436 e86e 1136
00000210: a07b 1636 2d94 a537 7cd8 af35 e291 f637
00000220: c381 9735 f38e 9b35 a61b 9435 88ef 9435
00000230: cf70 8435 daa0 9635 a075 3a35 7738 4a35
00000240: 8c3b 9e35 a8c6 a035 9d89 9235 7c77 9835
00000250: 4800 b235 52aa b035 674c 8c37 5f30 f034
00000260: b197 ea37 671a 5c35 7b33 5f35 6d47 6335
00000270: 2af8 6135 b67a 5435 59d4 5b35 2200 5135
00000280: 32b2 5435 07c1 5835 3624 6335 da28 7835
00000290: f17f 7935 e66d 7035 6dcc 6c35 5246 be37
000002a0: 04cb c334 f8a0 2f37 a20b d936 fef7 dd36
000002b0: fdfd f336 80ce f536 03da c036 69ec c636
000002c0: 47ec dc36 9848 e436 c9fe d436 b8ec d736
000002d0: 865e f636 b822 fa36 26af d736 dc15 dc36
000002e0: a86b 9f38 e528 cf36 037c fc38 7dee 0136
000002f0: 5a1f 0736 0194 ea35 53ab f235 b32d 0d36
00000300: c5f3 0e36 59f9 c035 6356 cd35 acd7 1136
00000310: 0b01 1336 3122 ee35 3c00 f735 4cde 0b36
00000320: 1393 0e36 966c b837 e4bf 3d35 1958 3b38
00000330: 5088 4d35 42b7 4d35 aab7 3335 b41a 3335
00000340: 9ce7 2d35 f5e1 3635 0029 2935 dc83 2b35
00000350: c82e 2f35 7ab0 3835 569c 4335 8d6e 4535
00000360: 6044 3735 215b 3535 189c 7d37 c081 9534
00000370: b7d7 1437 8ec2 5837 a875 5b37 b530 7037
00000380: afc6 7037 7b47 4537 d6af 4a37 9718 7b37
00000390: c53f 7d37 7784 4d37 ced6 5437 cdfc 8737
000003a0: 3419 8837 fe8e 5a37 4422 5e37 a782 5839
000003b0: d799 ea36 2c10 2939 8647 4136 fe15 4236
000003c0: 0f55 5836 4340 5836 53de 2736 02f0 2a36
000003d0: 5aea 5536 c831 5736 4acc 2536 b302 2b36
000003e0: a8d9 4c36 856b 4f36 9f0f 2836 e5d2 2d36
000003f0: 0db0 a938 e33e b335 e777 f337 c64e ac34
2.7979017e-06 2.9334954e-06 2.4883552e-06 2.6310333e-06 3.4486707e-06 3.4675415e-06 3.1398986e-06 3.2222774e-06
3.246582e-06 3.366352e-06 4.049651e-06 4.057133e-06 3.4773707e-06 3.501794e-06 3.88178e-05 1.4311333e-06
4.687338e-05 6.632286e-07 6.9817725e-07 7.85834e-07 7.951563e-07 5.9964157e-07 6.2095273e-07 6.744258e-07
6.878831e-07 5.1904e-07 5.4820237e-07 6.683493e-07 6.9144227e-07 5.3166383e-07 5.52765e-07 6.647669e-06
3.4071854e-07 1.5033049e-05 4.4144745e-06 4.4656094e-06 3.8963117e-06 3.931356e-06 4.3925797e-06 4.5790784e-06
3.1770837e-06 3.253455e-06 4.5716924e-06 4.6010155e-06 3.1787129e-06 3.3395138e-06 4.3466794e-06 4.3733917e-06
5.6930363e-05 1.3824886e-06 5.611289e-05 2.2230886e-05 2.247901e-05 1.8421364e-05 1.8722512e-05 2.1768714e-05
2.2650389e-05 1.539535e-05 1.5900943e-05 2.2497088e-05 2.2939797e-05 1.6914164e-05 1.7477343e-05 2.2611108e-05
2.23417e-05 0.00035499583 7.231905e-06 0.00024454758 1.6468477e-05 1.6736698e-05 1.4506733e-05 1.4806962e-05
1.5965954e-05 1.630432e-05 1.1609459e-05 1.21670455e-05 1.6747927e-05 1.6904336e-05 1.2965203e-05 1.3263793e-05
1.7698048e-05 1.7776736e-05 0.00017208132 6.378923e-06 0.00023055445 1.8006493e-05 1.8329192e-05 1.5364589e-05
1.5626298e-05 1.9196697e-05 1.967772e-05 1.2646301e-05 1.3145872e-05 1.9591147e-05 2.0133808e-05 1.5639169e-05
1.5993019e-05 2.0672835e-05 2.0413823e-05 0.0003187272 6.4436645e-06 0.00022715074 1.0648558e-07 1.1154463e-07
1.1407374e-07 1.1656974e-07 8.8085e-08 9.463084e-08 1.2765803e-07 1.2824678e-07 1.0536705e-07 1.0896976e-07
1.1252983e-07 1.1648579e-07 1.5007721e-07 1.5159583e-07 1.5731855e-06 6.552756e-08 1.7246113e-06 2.3373475e-06
2.3833484e-06 2.4174656e-06 2.450115e-06 2.2418972e-06 2.2737202e-06 2.2586892e-06 2.3215548e-06 2.21583e-06
2.2562779e-06 2.438958e-06 2.4581789e-06 2.167124e-06 2.24237e-06 1.9738533e-05 1.3101521e-06 2.9393417e-05
1.1288142e-06 1.1590004e-06 1.1034906e-06 1.1096572e-06 9.867598e-07 1.1222685e-06 6.9461566e-07 7.533303e-07
1.1789248e-06 1.1978746e-06 1.0917898e-06 1.1359657e-06 1.3262115e-06 1.3162592e-06 1.6724878e-05 4.4738678e-07
2.796561e-05 8.1994807e-07 8.314889e-07 8.466803e-07 8.418016e-07 7.915472e-07 8.1892864e-07 7.785876e-07
7.923546e-07 8.074716e-07 8.4616784e-07 9.2446646e-07 9.294591e-07 8.956689e-07 8.821433e-07 2.268251e-05
3.6469294e-07 1.0468291e-05 6.468458e-06 6.6151833e-06 7.2715325e-06 7.3256087e-06 5.747426e-06 5.9283816e-06
6.5840172e-06 6.8033805e-06 6.3477532e-06 6.435057e-06 7.3423753e-06 7.4546224e-06 6.4278893e-06 6.5590557e-06
7.601763e-05 6.1738415e-06 0.000120393954 1.9361316e-06 2.0134817e-06 1.7477433e-06 1.8080267e-06 2.1037238e-06
2.1301541e-06 1.4377684e-06 1.5298832e-06 2.1732221e-06 2.1905314e-06 1.7742333e-06 1.8403002e-06 2.0842008e-06
2.1245257e-06 2.1985074e-05 7.0687224e-07 4.466632e-05 7.656681e-07 7.6635126e-07 6.694996e-07 6.6721555e-07
6.478456e-07 6.8129094e-07 6.301707e-07 6.3894345e-07 6.5260656e-07 6.880215e-07 7.287066e-07 7.354909e-07
6.827231e-07 6.7560364e-07 1.51163185e-05 2.7847818e-07 8.871712e-06 1.2919902e-05 1.3080811e-05 1.4316455e-05
1.4351374e-05 1.1758758e-05 1.2081078e-05 1.4966491e-05 1.5094823e-05 1.2249794e-05 1.2686198e-05 1.6210974e-05
1.62242e-05 1.30271055e-05 1.3240209e-05 0.00020648037 6.9916528e-06 0.0001612312 2.8800873e-06 2.8921054e-06
3.2236019e-06 3.2223913e-06 2.501435e-06 2.5471677e-06 3.1875884e-06 3.2066473e-06 2.4705828e-06 2.5482557e-06
3.0525061e-06 3.0907988e-06 2.5043043e-06 2.5901766e-06 8.09134e-05 1.3354842e-06 2.9023691e-05 3.2094812e-07

exp_avg f4 [128]
00000000: de54 f9b8 df2d 19b9 39db b339 bfdd 8f39
00000010: c831 a339 eec0 5639 757b 96b8 58ac 4db9
00000020: b03c d5b8 1b87 9138 cee9 2db9 8c09 8eb8
00000030: b433 1636 d4f5 a4b9 c3dc 3ab9 623d 0738
00000040: 7e36 f7b8 0cf3 dfb8 c629 c538 07c4 c639
00000050: c4a9 0bb8 e628 d0b9 dec7 0e37 0aa8 9939
00000060: b3a9 d439 541b 3f3a 5c5b f5b9 5153 19ba
00000070: 96cf e2b9 da91 34b9 1813 90b8 0361 31b8
00000080: fb6f e4b8 4667 7339 9506 3536 789c d4b7
00000090: fe65 c7b7 2b80 c837 f9ff 29b6 e904 563a
000000a0: c6c5 51ba b7d2 0eb9 23bd 23b8 9b35 5f39
000000b0: 689f d237 50a7 1d3a 4695 213a 4224 00b8
000000c0: 54fd 0938 4138 66b9 7ad8 53b9 e23a 8aba
000000d0: 5d43 a9b9 db3e c739 a3f6 4c38 0786 beb9
000000e0: f9e3 1eba e619 5b39 6da7 dbb9 a58a f439
000000f0: cac1 d839 bb01 37b9 121f 1e3a 4e5c 95b9
00000100: 656c 3239 c4ee 8bb8 3b90 2d3a 51fc 2539
00000110: 7d7c cf3a abee beb8 4fee c6b9 64e1 2d3a
00000120: aaad 12ba ceba 75b8 6773 b7b7 75a9 8337
00000130: 1e62 0039 d95d 8939 d596 2db9 3b3e e238
00000140: 7b4a 34b9 2131 cdb9 9e35 0a37 fec9 79b9
00000150: f165 c839 4a84 94b9 87f3 603a 3e09 6d3a
00000160: c734 253a 3e72 84b7 2b0e 1e38 a145 acb9
00000170: fb09 9839 9b5f 61b9 8b84 e5b8 44ad e0b6
00000180: 33c0 2a38 0051 24ba 9459 b839 7051 8eb9
00000190: b2de 223a cad8 2cb9 3f53 afb9 92da a0b8
000001a0: a623 0fba fc33 1739 d86a 70b9 ec2d adb9
000001b0: a111 8538 1387 2537 1a3f 9538 730c 8e38
000001c0: 2ceb 9439 e574 9439 f9e0 f5b8 ec2b 0bb9
000001d0: 80a0 44b9 03ed b738 30fe 763a 274d 3e39
000001e0: ffdd 1e39 2c7e e9b9 385a 5239 6e66 1a3a
000001f0: b7c9 ef39 58f9 b0b7 d463 5db8 be31 4c38
-0.00011889053 -0.00014608305 0.00034304874 0.000274403 0.00031126873 0.00020480502 -7.175553e-05 -0.00019614527
-0.000101679354 6.939304e-05 -0.00016585665 -6.772866e-05 2.2381837e-06 -0.00031463674 -0.00017820582 3.2243675e-05
-0.00011788028 -0.0001067874 9.401473e-05 0.00037911555 -3.329829e-05 -0.00039703323 8.510395e-06 0.00029307633
0.00040562227 0.0007290144 -0.0004679811 -0.0005848902 -0.00043260743 -0.00017220472 -6.8700116e-05 -4.2290438e-05
-0.00010892745 0.00023212758 2.6974933e-06 -2.534523e-05 -2.3770142e-05 2.390154e-05 -2.5331958e-06 0.0008164184
-0.0008002188 -0.00013620673 -3.9038376e-05 0.00021286907 2.510818e-05 0.0006014006 0.0006163906 -3.0551346e-05
3.2899276e-05 -0.00021955465 -0.00020203172 -0.0010546113 -0.0003228438 0.0003800307 4.886709e-05 -0.00036339482
-0.0006061192 0.00020895115 -0.00041895677 0.00046642605 0.00041343115 -0.00017452885 0.00060318515 -0.00028488267
0.00017015783 -6.67251e-05 0.0006620918 0.00015829621 0.0015829947 -9.1043614e-05 -0.00037943057 0.0006633012
-0.0005595336 -5.8586527e-05 -2.1869038e-05 1.5695327e-05 0.00012243583 0.00026200598 -0.00016554755 0.00010788111
-0.00017193884 -0.0003913725 8.237925e-06 -0.00023821738 0.00038222925 -0.00028327323 0.000858121 0.000904221
0.0006302115 -1.5788824e-05 3.768333e-05 -0.00032858274 0.00028999135 -0.00021493288 -0.00010944259 -6.695891e-06
4.0710158e-05 -0.00062681735 0.00035161956 -0.00027145026 0.0006212994 -0.00016483958 -0.00033440624 -7.6701064e-05
-0.0005460329 0.00014419848 -0.00022927986 -0.00033031346 6.345218e-05 9.866216e-06 7.116627e-05 6.7734065e-05
0.00028403976 0.00028315853 -0.00011724415 -0.00013272435 -0.00018751808 8.770267e-05 0.0009422032 0.00018148553
0.00015150754 -0.00044535229 0.0002006077 0.0005889897 0.00045735922 -2.1096945e-05 -5.2783478e-05 4.8683716e-05

exp_avg_sq f4 [128]
00000000: f616 9536 d8c2 8935 7c9e a636 a218 d637
00000010: 7a46 a837 3ed6 bc37 9f6f 5034 a045 4436
00000020: a7b6 de35 3354 9135 37de 1f37 d939 2f36
00000030: acde 6835 e1c6 9337 798b 7736 e779 0935
00000040: d309 f035 afef 1736 2141 ff34 2106 9636
00000050: 15d0 5934 462b 9335 c729 e734 3f23 ce35
00000060: 526e 8936 a989 ec37 565c 4f38 4444 4638
00000070: 688e 9335 e849 5835 59b0 7236 3083 4935
00000080: 4ae7 dc35 512c d336 5d0a 9c37 3a12 3436
00000090: d937 8335 0c02 a235 2dd3 b435 7c42 c738
000000a0: 71c2 8838 2a2e 6435 a129 6535 1aac 8f35
000000b0: 90e9 ea34 860c 2438 4c28 7a37 b49b c536
000000c0: 42a2 3536 3a79 6336 0bae 9435 7fba 6637
000000d0: 8e79 e637 d506 6d36 1ba1 0036 5740 9f37
000000e0: ddca 8137 7350 0436 6af4 0f38 d479 5337
000000f0: 451a 9436 2785 5e36 9ff6 0038 9272 5236
00000100: 62fe 6236 b0f1 ee36 2914 6437 2586 5336
00000110: 57b7 1738 162d 3337 ab8c cd35 5982 ad36
00000120: 28b6 d637 c01e 3835 4ce5 ae34 9af5 9534
00000130: a9fd 0937 ad31 f835 82b1 7d37 d1ac 9837
00000140: a0f2 ad35 74c3 c137 7b04 3335 5dac 6036
00000150: 4f75 d236 3841 da35 b33e b637 fc56 a937
00000160: faac fa37 fac3 b036 d573 2d35 e15f 3a36
00000170: 3707 3337 b13e 5136 37d4 0737 c90c f436
00000180: 01b0 0936 98aa 6438 0312 1b37 b1c9 c236
00000190: da1b 9136 b748 e835 3fb6 f836 cbbd 9234
000001a0: 8a50 8b37 f3c5 1535 894f 5135 1982 ce35
000001b0: bc7c bd35 dd48 c934 40b0 3636 f45d a036
000001c0: 8320 2337 9cd5 3037 e655 4135 8ea2 0137
000001d0: 5a7a 7936 25bb c235 6441 5838 8e18 aa36
000001e0: 3e11 9b35 f216 9c37 f035 0538 3589 1138
000001f0: 5254 9437 699c 9836 257c b936 7c44 3936
4.443219e-06 1.0264002e-06 4.9656355e-06 2.5522259e-05 2.0059979e-05 2.251111e-05 1.9412117e-07 2.9246803e-06
1.6593448e-06 1.0827847e-06 9.528877e-06 2.6110704e-06 8.6750765e-07 1.7616376e-05 3.6887052e-06 5.121387e-07
1.7884253e-06 2.2640268e-06 4.754484e-07 4.471062e-06 2.02854e-07 1.0964948e-06 4.30575e-07 1.5358454e-06
4.095761e-06 2.8197495e-05 4.943864e-05 4.7270456e-05 1.0993799e-06 8.057382e-07 3.6163458e-06 7.506924e-07
1.6458591e-06 6.293449e-06 1.8601475e-05 2.68327e-06 9.776514e-07 1.2070536e-06 1.3472505e-06 9.501443e-05
6.521203e-05 8.5003796e-07 8.5369726e-07 1.0704418e-06 4.3755836e-07 3.911231e-05 1.49105435e-05 5.8891837e-06
2.7065548e-06 3.38962e-06 1.1077512e-06 1.375249e-05 2.747474e-05 3.5319729e-06 1.9167262e-06 1.8984238e-05
1.5472464e-05 1.971636e-06 3.4321485e-05 1.2604945e-05 4.413802e-06 3.3158083e-06 3.0747262e-05 3.1359127e-06
3.3824695e-06 7.121089e-06 1.3594553e-05 3.1519533e-06 3.6171954e-05 1.0679729e-05 1.531463e-06 5.1709762e-06
2.5595611e-05 6.859009e-07 3.257686e-07 2.793211e-07 8.224896e-06 1.8491897e-06 1.5121304e-05 1.8200286e-05
1.2960118e-06 2.3098408e-05 6.6689216e-07 3.347893e-06 6.272144e-06 1.6261247e-06 2.1725287e-05 2.0186875e-05
2.988287e-05 5.2680234e-06 6.461608e-07 2.7771969e-06 1.0670911e-05 3.1179918e-06 8.096037e-06 7.273255e-06
2.0517039e-06 5.4518314e-05 9.242914e-06 5.8051305e-06 4.324579e-06 1.730651e-06 7.412192e-06 2.7332712e-07
1.6607595e-05 5.579488e-07 7.7974306e-07 1.5386059e-06 1.41179e-06 3.7492183e-07 2.7222704e-06 4.779309e-06
9.723127e-06 1.0540152e-05 7.20231e-07 7.726847e-06 3.717511e-06 1.4508593e-06 5.1559313e-05 5.0692533e-06
1.1553418e-06 1.8607334e-05 3.1759904e-05 3.4698478e-05 1.768224e-05 4.5481615e-06 5.527882e-06 2.7607011e-06
