results/CubeAgentZoneRay/CubeAgentZoneRay/CubeAgentZoneRay-1300.onnx (onnx, 80046 bytes, 8 tensors)

action_model._continuous_distribution.log_sigma f4 [1, 2]
00000000: b7e8 4dbc bb0d 0bbc
-0.012567691 -0.00848716

action_model._continuous_distribution.mu.bias f4 [2]
00000000: dc47 b93b bd5a 03bc
0.0056543183 -0.008017239

action_model._continuous_distribution.mu.weight f4 [2, 128]
00000000: 650d 083d 2e55 20bd 9163 133c 690b c23c
00000010: ee03 eb38 2ece d5bc 8115 a3bb ccf3 b6bc
00000020: d69e 2f3c b31c 1f3b 58a6 ea3b 7d1a 03bb
00000030: 750d c23a 8ff6 083d b34c 053c 5855 0abd
00000040: 0051 823b 5df3 a93a deb4 913c ec55 6d3c
00000050: fd8a b63c c8e4 50bb 8796 4f3b b08a 76bc
00000060: eaca 1b3c 1342 41bb 38e4 863a c1b9 d9ba
00000070: 0c32 c43b 0b97 3fbc f70d 33bc cfc1 a8bc
00000080: b7b2 b9bc 7fb8 c6bc d912 11bd 6b3c 8b3a
00000090: 6f31 8839 dd7f 76bc c7a8 6dbc 9a38 043d
000000a0: ff0f 623c be9d 05bc b50b 1d3c 5ebf f8b9
000000b0: d7f4 6a3c 5dc9 fb3b 20f1 83bb b921 3a3a
000000c0: e153 5bbb fb41 cb3c dd66 cabc 455f ca3c
000000d0: 957e cdbb 93fb 18bb ad3c 393b 5d97 d2bc
000000e0: 80c4 153c aa5b 6f3c 4b49 fa3b f6ee c33c
000000f0: a4d1 71bc ab9e b43c b938 3a3a a612 b13b
00000100: bdce 983c fd2d 243c a8e5 fd3b 10dd f83b
00000110: de4f 6dbd 482d 043c 4e5b 833c ef5d 72bb
00000120: 0be5 db3b 7e8f 6e3c a25b 4b3c 4230 f5bb
00000130: 0dc8 8cbc 4c54 65bc 33be d4ba 77cc c8bb
00000140: 6b47 c83c 31f8 353b 1d3c 30bc 374e a83c
00000150: 319d febc d65a 443c 5b47 aa3b 3009 8ebb
00000160: 49a6 a93a d88f 16bc ce7f 85bc db72 e93c
00000170: 5cbb ec3a e04d ac3a 2b09 bebb 84db 103d
00000180: 899d 203d 43ff c63b 9e28 7c3b a4d9 a1bc
00000190: 7ae1 6fbc 3740 b5bc 537a e93c f82e 023d
000001a0: ebb7 873c 9ba7 53bc 73b0 b2bc 9605 913b
000001b0: 3237 32bc 6c7a b33c e0c9 bebb 4aa9 043c
000001c0: 8226 983c 9566 44bb 60bc 36bb 992d 893b
000001d0: 3647 2f3c aa52 863c 8f92 3d3a 1104 a23c
000001e0: 564e d63c b782 35bc 1308 f9bb a19b a5bc
000001f0: ae54 2cbb 91b1 55bb c0f0 063a b515 0c3c
00000200: 7aa5 e9bb 9b8d ffbc 3279 3ebb e140 09bc
00000210: 651b bb3c 6fc9 98bc c067 3abc 70ba 2c3c
00000220: 478e a5bb 4267 593b 03ee 99b8 5345 23bc
00000230: 307a cc3b 2be6 c83b a409 4aba d591 a939
00000240: e17a fcbb 66b7 3f3c dfed 2e3c 6186 8b3c
00000250: 907b 9fbc 7748 1f3c 8e71 22bc 4434 3b3b
00000260: 0622 aa3c f2f9 c63c 1236 f0bb e6e0 833c
00000270: 4a7a a63c d31c 753c 3466 c9bc f420 c73c
00000280: 5faf 93bb e677 f8b9 3f9c 803c 6659 db3b
00000290: dc90 e0ba cee3 ecbb c5fa 01bd 931c 82bc
000002a0: cb34 ca3c 350c 93bb b311 93bb 567d c03c
000002b0: ca84 91bb 9dbb 473c 2cc1 b2bc 06ff e6ba
000002c0: b563 e9bc cf40 18bc 8132 803c c942 ea3c
000002d0: 62dd 883b 3e65 643b e868 cdbc a17f d53b
000002e0: 6c5a 85bc e8ca 41bc e880 cdbc ff9c 9a3c
000002f0: 7b13 3a3d 90d7 103b 49d9 11bc 86d2 e7bc
00000300: 2631 003c f749 913c f56b 8bbc b01a a7bc
00000310: 8a7c 0a3d a5f1 9abc 1a97 c63b c524 ef3a
00000320: bc7f a83c 66af 97bc ad13 433c d5e0 283d
00000330: ff77 60bc 6491 5dbc 1171 58bc a0e6 96bc
00000340: ebe2 213b ff33 ec3b bd46 2b3c 55bf 0bbd
00000350: 5795 2e3d 24a1 21bc 81e9 753b 7321 363a
00000360: 3c34 95bc da9c a73c b6f0 493c 923f 523c
00000370: 5baf 9bbb de90 b43b 0a0d e73b 689c d2ba
00000380: 1e0a 81bc 81be 343c 68c4 eb3c 2fea 08bd
00000390: 868d 823c 5dd3 9ebb 2b98 993c ca34 233c
000003a0: ff7f 2c3c f7db b4bc ab17 0abd 50c3 92bb
000003b0: 3c5d 5ebb 6ada 5b3b 98a5 4cbc cdf0 01ba
000003c0: 7578 3ebc 20ee 083b 26d2 083b cb71 1dbc
000003d0: bb42 63bd c8dc c73c 5a78 94bc 816e 0abd
000003e0: 518b debc 66a2 133d 47bd 833c 0b75 6e3c
000003f0: b20c 76bc c528 a83b bcd2 feba e387 45bc
0.0332159 -0.039143734 0.008995906 0.023687081 0.00011206405 -0.02609929 -0.0049769287 -0.022333048
0.010719022 0.002427858 0.007160943 -0.0020004802 0.0014805036 0.03343826 0.008135962 -0.033772796
0.003976941 0.0012966205 0.01778644 0.014485817 0.022283072 -0.0031874646 0.0031675415 -0.015047714
0.009508828 -0.0029488846 0.0010291403 -0.0016611145 0.0059874114 -0.011693726 -0.010928622 -0.020600228
-0.022668226 -0.024257896 -0.035418365 0.0010622864 0.00025976772 -0.015045133 -0.014505572 0.032280542
0.013797759 -0.008155284 0.009585311 -0.00047444826 0.014340601 0.0076839165 -0.004026547 0.0007100362
-0.0033466744 0.024811735 -0.024707252 0.024703631 -0.0062711933 -0.002334331 0.0028264925 -0.025706941
0.0091410875 0.014609257 0.0076381317 0.023917656 -0.014759455 0.022048315 0.0007103789 0.0054038344
0.018653268 0.01002073 0.0077483244 0.007594712 -0.057937495 0.0080674365 0.016034748 -0.0036982258
0.0067106537 0.014560578 0.012411984 -0.0074825594 -0.017185235 -0.013997149 -0.0016231 -0.0061278897
0.024448117 0.0027766342 -0.01075652 0.020545108 -0.031080814 0.011984548 0.0051964945 -0.0043345913
0.0012943234 -0.009189568 -0.016296294 0.02849715 0.0018061209 0.0013145767 -0.0057994328 0.035365596
0.039212737 0.00607291 0.0038476358 -0.0197571 -0.01464116 -0.022125347 0.028500712 0.031783074
0.016567191 -0.012918378 -0.021812653 0.0044257147 -0.010877417 0.021908961 -0.005822405 0.008097002
0.01857305 -0.002996837 -0.0027883276 0.004186344 0.01069813 0.01639684 0.0007231617 0.01977733
0.0261604 -0.011078528 -0.0075998395 -0.020215811 -0.002629559 -0.0032607059 0.0005147569 0.008550097
-0.007130322 -0.031195452 -0.0029063937 -0.008377285 0.022840211 -0.018650739 -0.011377275 0.010542497
-0.005052361 0.0033173119 -7.339942e-05 -0.009965259 0.006240152 0.006130954 -0.0007707125 0.00032342845
-0.007705078 0.01170144 0.01067683 0.01703185 -0.019468099 0.009721867 -0.009914769 0.0028565088
0.020768177 0.024289105 -0.0073306644 0.01609845 0.020321984 0.0149604855 -0.024584867 0.024307705
-0.00450699 -0.00047391577 0.015699504 0.0066940067 -0.0017133015 -0.007229305 -0.031733293 -0.015882766
0.024683377 -0.004487539 -0.004488194 0.023497265 -0.0044408785 0.012190727 -0.021820627 -0.001762361
-0.028489927 -0.009292795 0.015649082 0.028596299 0.0041767815 0.0034850384 -0.025074437 0.0065154587
-0.016278468 -0.011828162 -0.025085881 0.01887369 0.045428734 0.0022101142 -0.0089019025 -0.028298628
0.007824218 0.017735464 -0.017019251 -0.020398468 0.033810176 -0.018914053 0.006060493 0.0018245211
0.020568721 -0.018516254 0.011906547 0.04123004 -0.013700484 -0.013523433 -0.013210551 -0.018420517
0.0024701904 0.007208347 0.010453877 -0.034118015 0.04262289 -0.009865079 0.0037523212 0.00069477333
-0.018213384 0.020460535 0.012325456 0.012832539 -0.0047511286 0.0055104336 0.007051115 -0.0016068341
-0.015751895 0.011031748 0.028780177 -0.03342646 0.015936624 -0.004846974 0.018749317 0.009961316
0.0105285635 -0.022077544 -0.033713978 -0.0044788495 -0.0033930084 0.0033546933 -0.0124906525 -0.00049568416
-0.011625399 0.0020893887 0.0020877211 -0.00960965 -0.05548356 0.024397269 -0.018123794 -0.03379679
-0.02716604 0.036043547 0.016081465 0.014554272 -0.015017675 0.005131813 -0.0019441466 -0.012056324

action_model._discrete_distribution.branches.0.weight f4 [1, 128]
00000000: 35d1 013c b986 a43b ef1c f43b afa5 583c
00000010: b3a6 523c c781 b13a b528 943b 6738 45bc
00000020: 0523 4f3c 1381 17bc 7d55 a53b cb4b 063a
00000030: cfb5 f13a bdf3 e53c f5ba 6a3c bd2c 20bb
00000040: f111 a3bc 3774 4f38 8361 b1bb efee 0fbd
00000050: aaf8 773c 61df 82bc a9be 2fbc efec d8ba
00000060: e076 b83b 2f58 bfbb 777c 8a3a f399 acbc
00000070: c166 8abc 7b1d 183c ac0a b5bb 57e8 1dbc
00000080: fd64 59bb ede4 c9ba 6c81 263c 28fa 623c
00000090: 1556 f13b 5503 323b b5db f7ba 9077 8ebb
000000a0: 24bf 1a3c b050 c6bb adfb 88bc 7375 c1bc
000000b0: 463c 0e3b 0e98 a63b 6738 363a 8bb1 273b
000000c0: c60a 073b c6a6 18bb ad9d f63a b89b e5ba
000000d0: 3009 eb3b 38da 04bb c6c1 9d3b fba6 4d3c
000000e0: 6e3b 383c bf95 b63c 3611 aebc 6200 0e3b
000000f0: 0bda 143b 6bff 693b 8349 1a3c 2022 793c
00000100: 574d 2e3c c86c 603b a3a3 b9bb 3290 773c
00000110: 922e 23bc b257 7c3b 1ec0 b73b 12a2 c4bb
00000120: e500 013c a350 393c f0d9 e43b 13c4 e73b
00000130: 152e 013c d066 d13b db0a 4abb 7cf7 293a
00000140: bf6a 043b 2c52 993b f93d 85bc c7cc 413c
00000150: 3211 f93a 227f fbbb 6f76 59bb 7afc 423c
00000160: 41b4 9dbb c46f 85bb 1d0a 93bc 34d6 80bc
00000170: 50c6 e7ba 13bb 1dbb c529 98bc c906 85bc
00000180: 2d68 883b 2088 3c3b e0c1 ef3a 9894 57bb
00000190: 3032 7bbc d73b e43a 6bf1 863b 1f0e 873b
000001a0: 381c 953c 3d89 0abc fa9b c4bb 0220 053c
000001b0: 890c a83a 0ccf 483b 10ca ab3b 6308 e43b
000001c0: 5382 91bb b1fb 0b39 0639 173c 4a42 8039
000001d0: d493 823b 0bee 6cbc fc28 0dbb a106 493c
000001e0: a057 75bb 9487 113c 0e4a 0cbc f1da b7b9
000001f0: cce7 8a3b 6f66 5ebc c891 3bbb 321b dbbb
0.007923414 0.005020943 0.007449738 0.013223096 0.012857127 0.0013542705 0.004521454 -0.012037373
0.012642627 -0.009247082 0.0050455914 0.00051229884 0.0018441024 0.028070325 0.014326801 -0.0024440729
-0.019906016 4.946088e-05 -0.0054132356 -0.035139974 0.01513497 -0.015975656 -0.010726609 -0.0016550104
0.0056294054 -0.0058393697 0.0010565658 -0.021069502 -0.0168947 0.009284372 -0.005524954 -0.009637914
-0.0033171766 -0.0015403308 0.0101626925 0.013853587 0.007364998 0.002716263 -0.0018910082 -0.004347749
0.009444986 -0.006052099 -0.01672157 -0.023615574 0.0021703406 0.0050840443 0.00069511536 0.0025588002
0.0020605787 -0.0023292764 0.0018815302 -0.0017517721 0.007172726 -0.002027167 0.0048143594 0.012552018
0.011244638 0.022288201 -0.021248441 0.0021667709 0.0022712972 0.003570522 0.009416941 0.01520589
0.010638556 0.0034244526 -0.005665259 0.015110062 -0.009959834 0.003850442 0.005607619 -0.0060007656
0.007873748 0.011310729 0.006983988 0.0070729344 0.007884522 0.00639043 -0.0030829224 0.00064837164
0.0020205227 0.004678985 -0.016264902 0.011828608 0.0019002317 -0.0076750675 -0.0033182164 0.011901015
-0.0048127477 -0.0040721614 -0.017949158 -0.01572714 -0.0017683003 -0.0024067804 -0.018574605 -0.016238587
0.0041628093 0.002876766 0.0018292032 -0.0032894965 -0.01533179 0.0017412853 0.0041181347 0.0041215564
0.018201932 -0.008455572 -0.006000039 0.008125307 0.0012821119 0.0030640988 0.0052425936 0.0069590076
-0.0044405847 0.00013349835 0.009229904 0.00024463452 0.0039849076 -0.014461051 -0.0021539321 0.012269647
-0.0037436262 0.008882422 -0.008562578 -0.00035067604 0.004239058 -0.013574227 -0.0028620828 -0.0066865915

network_body._body_endoder.seq_layers.0.bias f4 [128]
00000000: 47b2 9a3b 233a 5eb9 bcfa 6e3b 2445 e5bb
00000010: 1290 ceb9 af60 563b 6bcd c53b 23d2 8fbb
00000020: ac34 92bb 4505 823b 2106 1e3b be6d 26bc
00000030: 3440 143c bf89 f1bb 75f0 e03b 264d 41bc
00000040: e921 17bc b889 b5bb cf1c 8eba 3feb beba
00000050: edc8 7cbb 8e80 1fbc c2dc ae3b ddfe 273b
00000060: e844 0abc e037 233c e666 32bc 4fe9 be3b
00000070: f4f2 f4ba f1d9 dbbb a34b 2cbb 142e 42bc
00000080: ac5f 92bb 0978 b2bb fa56 8d3b dabf 883a
00000090: 761b b33b 1cbe e3bb af22 ac3a 6a8e 0d3c
000000a0: c765 813b 6303 95bc 6775 27bb 8e51 34bb
000000b0: 1597 0bbb a4d4 d43b f9d4 02bc 56c0 94bb
000000c0: 1ed6 9ebb 4994 0c3b 1cf0 e63b fc52 17bc
000000d0: a30e 783b c714 acbb 4d2d 2fbb e0d8 32bb
000000e0: 96c2 5eba df58 efbb b5c5 7dbb 2065 dcbb
000000f0: 9f08 d7b9 c033 47bb 2fcf ab3a 933e 74bb
00000100: d313 843b b6a3 d2bb 3a08 00bc 219b 43bb
00000110: 20a8 aabb 5306 963a d4cc c43b 84e7 a9bb
00000120: 00c2 343a 15d7 4a3b e572 c43a 4d5e aa3b
00000130: cac5 ae3b 85ca 6cbb bfc5 db3b 8637 debb
00000140: 6c79 93b9 51fe d23b 0f6a a6bb 2970 93bb
00000150: 9fed 8b3a 3352 3a3b 9127 3c3b 59f0 5ab8
00000160: 5b5e ab3b 4c34 2d3b 606d 493b 9b4f 02bc
00000170: 0ddb 0e3b c7e6 cabb db95 55bc 1a2e 7abb
00000180: 4ee7 433b bb4e 19bc 9267 883a dd1e 17bc
00000190: 529a b4bb 1d6f 763a 75a9 72bb 1a3f ef3b
000001a0: 2422 a2bb 2e07 8c3a ae7c 2bbc 68d5 49ba
000001b0: 159c 62bb 5839 9fbb df75 d73a 758d 5dbb
000001c0: 6bd2 133b 1f7a bab9 5e76 06bc df7e a33b
000001d0: 6744 c23b e189 443c 2cc0 823a 214e c53a
000001e0: ac15 b63b b07e 3eba 0cbb 3aba 5f05 43bb
000001f0: 4376 8a3b fab0 df39 dd71 36bc 8376 8b3b
0.0047209593 -0.00021193227 0.0036465367 -0.0069967676 -0.00039398723 0.0032711437 0.0060364506 -0.004389064
-0.0044618454 0.0039679133 0.002411254 -0.0101580005 0.00904851 -0.007371157 0.006864602 -0.011798179
-0.009224393 -0.005540099 -0.0010842326 -0.0014565958 -0.003857191 -0.00973524 0.005336375 0.0025634088
-0.00843928 0.009962052 -0.010888791 0.0058261524 -0.0018688128 -0.0067093302 -0.00262902 -0.011851806
-0.0044669714 -0.005446438 0.004313347 0.0010433153 0.00546592 -0.006950153 0.0013132895 0.008639911
0.0039489004 -0.018190091 -0.0025552155 -0.002751443 -0.0021299769 0.0064950753 -0.007985347 -0.00453953
-0.004847302 0.002145069 0.0070476662 -0.009236094 0.003785052 -0.0052515003 -0.0026729882 -0.0027289912
-0.00084976235 -0.0073042954 -0.003872258 -0.006725922 -0.0004101442 -0.0030395836 0.001310801 -0.0037268742
0.0040306835 -0.0064282073 -0.007814461 -0.0029847103 -0.0052080303 0.0011445977 0.0060058627 -0.0051850695
0.00068953633 0.0030950953 0.0014987855 0.00519923 0.005333637 -0.0036131453 0.006706923 -0.0067815213
-0.0002812849 0.0064390083 -0.005078561 -0.0044994545 0.0010675675 0.0028430342 0.0028710107 -5.219909e-05
0.005229754 0.0026428876 0.0030735359 -0.00795355 0.0021798045 -0.0061920616 -0.013036217 -0.0038174451
0.0029892507 -0.00935715 0.0010406843 -0.009223667 -0.0055115605 0.00094007124 -0.0037027274 0.0073012235
-0.0049479175 0.0010683292 -0.010466738 -0.00076993415 -0.0034577895 -0.004859131 0.0016438327 -0.0033806239
0.0022555839 -0.00035567672 -0.008206932 0.0049894894 0.0059285644 0.0119957635 0.0009975485 0.0015053191
0.0055567827 -0.0007266803 -0.0007123209 -0.002975784 0.0042255237 0.00042665732 -0.011135546 0.004256071

network_body._body_endoder.seq_layers.0.weight f4 [128, 17]
00000000: 9329 873b 8958 2ebe e9ea b6bb 0e6e 053f
00000010: 4842 d0bd 9c6b 653e 094f 9abe 79df 113d
00000020: 9afe 81bd 66da cebc 7641 1a3d 9480 313e
00000030: 992c 94be 5c7e 053d 6a7e b5be 00f7 703e
00000040: 51c6 a8be f95f be3d 46b9 85be a386 e03d
00000050: bb64 213e 1322 a23d 257e 5ebc fb40 db3d
00000060: 79f5 8cbe 8b8f da3c 508c c9be 8237 373d
00000070: e43d d93e 7f7e 82be 640a 543e 661e c9bd
00000080: 85fc adbe 9bd8 dc3d 8e42 ae3c 569f e63b
00000090: fa58 75be fdea de3c 5ffc 8c3d 607a a73e
000000a0: 3be2 043e 534f 273e 400e e3bd d570 9cbe
000000b0: 1db6 11bf f8d3 9b3e eb78 993e e6bf f73d
000000c0: 435d 98be ec84 183e 43d3 8ebd 2874 68bd
000000d0: 5573 52bd 791b 01bf b370 de3d 382e 133d
000000e0: cfa4 babd 6de1 a5bb 96ab 6ebe 24d3 6e3e
000000f0: 67ad c03e f20e c33c 2481 b23e 1320 04be
00000100: e950 1a3d 5f36 b0bd 4fa5 b23e 2d78 383e
00000110: 4054 8f3e a674 87be cf6c d0bd db91 08bf
00000120: 32eb 97bd f155 963d 0a7c 2fbe 14ea d3be
00000130: 08ce 8f3e 963b 94be da73 1fbd 6665 683e
00000140: 7221 3ebe be15 27be b28e e7bc 11ee d23a
00000150: 0e02 783e 352d 313e a407 b9bd 0822 913e
00000160: e4bc 5ebe 2a2d d1bd 8d16 263f 6baf 24be
00000170: 773c cc3d bb72 97be cf16 e73d 2e8a 843d
00000180: 1548 10bf 1c18 8abe 5d6e b7bd f4ca c33e
00000190: dbbd ebbd 5a11 cbbd 085d 9abe acee f43d
000001a0: 7a51 563d c6a0 83be da7a ad3e 16ac cebe
000001b0: a3eb 6c3e 531c 2a3f 3915 0b3f 2021 a43e
000001c0: b564 343e 6b35 4abe 8cf1 66bc 45cc 683d
000001d0: f19e bebd 85c2 8d3d 5754 c43e f395 bdbe
000001e0: 21fa 94be 84d7 a0bd 23eb 563c 0d2f 993d
000001f0: eb71 003e dd76 f83d 3fe6 b5bd d31f 7b3e
00000200: f318 0cbf 99e4 833e e11b 153e ae4b 70bd
00000210: ff38 edbd a456 a13d 6520 b63e f488 a3bc
00000220: d8b7 dfbd 4d8a 553e 5ad7 243d e3e0 fabd
00000230: 3595 4ebd 0aa0 2ebe 9ec0 12bf dd4c 943e
00000240: db14 76be a84a 28bf 6212 783e a348 d93d
00000250: 239a 0ebd 0f41 27bd 2290 083e a6cc b63e
00000260: 1d5c d33e 513f 893e eb7f eb3e 3725 2dbd
00000270: 9101 26be 39eb 51bd b234 d43d dca7 e43c
00000280: ec85 2ebb 7bbb 0cbd f7bb aebd d33d 863e
00000290: e2bb 9c3e 164b c3be 5737 2b3e ad1a ecbd
000002a0: 1858 d1bd 9bfd 90be 8ab7 bf3e 111f a4be
000002b0: 5326 96bd e168 5dbe fbef 233e e126 293d
000002c0: 8766 1c3e 2bf9 8ebb af77 a93d d681 49bb
000002d0: d606 643c 3aa7 87be 32e4 d7bd d94f 763e
000002e0: 49dc 58be bb7c 25be 7ecc 843e 1fec 2dbe
000002f0: 1914 e83e ae47 03be 33c2 a23e d744 e8bd
00000300: 6786 313e d663 a33e a737 883e fdef 58bc
00000310: 622b 3abe 293e debc ea29 dd3e 5db1 acbc
00000320: f819 b03e 2eba 54bd 69ec c03c 9d6f fc3d
00000330: 5ccc 353e 4807 803e b4c5 e1bd de8d 8fbd
00000340: 4888 9ebe a775 f53e c9d2 22be 6df5 373c
00000350: 50ba 013e 4aad da3d 82b6 1a3d 11fa 8fbc
00000360: 30a2 61bd 1b85 be3e 8740 0fbe 596c 813e
00000370: 070e c63e 2790 793e 0c79 653e ec3a 593e
00000380: e1d9 fa3d ed44 0fbe 5b1d 17be 2235 353d
00000390: f3b3 e3bc bd5e 83bd e9e9 1f3c f081 9ebe
000003a0: 1854 93bd 267c 86be 8f69 14be 8b38 5bbe
000003b0: 264f 203f 0e31 903e 3fc3 9c3d 2a45 0d3e
000003c0: 7241 00bd 4ef2 103d 52fc a8be 27b1 6f3d
000003d0: cea7 a9be c503 933e dff5 883e 99c4 0dbf
000003e0: 4a88 b33c 59d7 85be e57d d73d 6049 9a3e
000003f0: 2197 e7bc 65fc 94be ba1e e3bd c570 8a3e
0.004124829 -0.17025961 -0.0055822027 0.52121055 -0.10168892 0.22404331 -0.30138424 0.03561351
-0.063473895 -0.025250625 0.037660085 0.17334205 -0.28940275 0.03259121 -0.3544801 0.23531723
-0.32963803 0.09295649 -0.26117915 0.1096318 0.15761082 0.079166554 -0.01357988 0.107057534
-0.2753103 0.026679775 -0.39364862 0.04473067 0.4243003 -0.25487134 0.20707089 -0.09820251
-0.3398172 0.10783502 0.02127197 0.0070380373 -0.23959723 0.02721166 0.068840735 0.32710552
0.12976925 0.16338854 -0.11086702 -0.30554834 -0.5691851 0.30435157 0.29975066 0.120971486
-0.29758653 0.14894456 -0.06973889 -0.0567514 -0.05137952 -0.50432545 0.108613394 0.03593275
-0.09113466 -0.0050622732 -0.23307642 0.23322731 0.37632295 0.023810837 0.3486415 -0.1290286
0.03767482 -0.086041205 0.34891745 0.18014593 0.27993965 -0.26456183 -0.101770036 -0.5334756
-0.07417907 0.07340611 -0.17137161 -0.41389525 0.28086877 -0.2895171 -0.038928844 0.2269493
-0.18567446 -0.16316888 -0.028266285 0.0016092678 0.24219534 0.17302401 -0.090346605 0.28346276
-0.21751744 -0.102136925 0.6487816 -0.16082542 0.0997247 -0.2957972 0.11283647 0.06471668
-0.5635999 -0.2697152 -0.08956597 0.38240778 -0.115108214 -0.09915419 -0.30149102 0.119595855
0.052323796 -0.25708598 0.3388279 -0.40365666 0.23136763 0.6644947 0.5432926 0.32056522
0.17616542 -0.1974694 -0.014095675 0.05683543 -0.093076594 0.06921867 0.38345596 -0.37028465
-0.29097083 -0.07853606 0.013117584 0.07479677 0.12543456 0.12132046 -0.088818066 0.24523859
-0.5472557 0.25760344 0.14561416 -0.058665924 -0.11583137 0.078778535 0.3557159 -0.019962765
-0.10923737 0.20853539 0.040244438 -0.12249925 -0.050435264 -0.17053238 -0.5732516 0.28964892
-0.24031393 -0.65738916 0.24225762 0.106095575 -0.034814965 -0.04083353 0.13336232 0.3570301
0.41281214 0.2680612 0.4599603 -0.04227182 -0.16211535 -0.051249716 0.10361613 0.027912073
-0.0026630117 -0.034358483 -0.08531945 0.26219043 0.30612093 -0.38143224 0.16720329 -0.115285255
-0.10221881 -0.28318486 0.37444717 -0.32054952 -0.073315285 -0.2162204 0.16009514 0.041296843
0.15273486 -0.004363199 0.08274781 -0.0030747554 0.013917645 -0.2649477 -0.10541572 0.24053897
-0.21177782 -0.16160862 0.25937265 -0.16984604 0.45327833 -0.12820312 0.31788787 -0.11341255
0.17336427 0.31912106 0.2660496 -0.013240811 -0.18180612 -0.02712925 0.4319604 -0.021080667
0.34394813 -0.051935367 0.02355023 0.12325976 0.17753738 0.25005555 -0.11024037 -0.07009481
-0.3096335 0.47941324 -0.1590072 0.011227948 0.12668729 0.106775835 0.03777171 -0.017575296
-0.055086315 0.37210926 -0.13989459 0.25277975 0.38682577 0.24371396 0.22409457 0.21213883
0.12248588 -0.13991137 -0.14757292 0.044240125 -0.027795767 -0.06414554 0.009760358 -0.3095851
-0.07193774 -0.26266593 -0.14493392 -0.21408288 0.6262077 0.28162426 0.07654428 0.13795915
-0.031312414 0.03538733 -0.33005005 0.058518555 -0.33135837 0.28713813 0.26750085 -0.5537811
0.021915574 -0.2614086 0.10522059 0.30134106 -0.028270306 -0.29098812 -0.11089845 0.2703916

network_body._body_endoder.seq_layers.2.bias f4 [128]
00000000: b1ec a63b f351 1cbb 3009 293b 62f2 b83b
00000010: b2f8 d1bb a031 7239 90e0 9d37 31a2 11bc
00000020: 2b77 a73b 1961 a0bb e4ee 1f3b fd3c fb3b
00000030: 3f72 afbb 508c 313b f315 bbba 038a b1bb
00000040: 6fcb f93a 9938 42bc 7ef5 baba fdcd e8ba
00000050: d4ba e03b a03f 32bc 72b3 a13b fb09 e6bb
00000060: 1ad1 95bb b561 13bc 3599 e93a dd2a f7bb
00000070: ee03 13bc 9851 0bbc da67 eb3a b0ea 21bc
00000080: 4171 96bb 864c edbb b1b8 40bc 9766 dbbb
00000090: 2232 083c 0bfe bab9 3b61 de3a b378 fe3b
000000a0: 71e3 35bb dde8 393a f04c 8e3b 1626 40bc
000000b0: 92f3 b43b ffec 99bb 774d 6a3b 51d6 07ba
000000c0: 9d19 993b 122d cc3b d9b8 10bc a489 5fbb
000000d0: 85a6 10bc 6a6c 22bc dc0f af3b a3d3 cabb
000000e0: 961d f63b 74f7 d53b 95d3 d33b 7e27 d7ba
000000f0: 85d8 2ebc 9079 893b e666 293b 750a e03b
00000100: 8f6b ff3a 55cc 5ebb c593 163c dd3c f43b
00000110: beb8 f1bb f28d f43b 04db e63a c711 61bb
00000120: ff8d b5bb 8bd2 d13b dff3 caba 75dd 0cbc
00000130: 4358 dd3b 0572 7eba 6039 213b 0199 263b
00000140: 1a72 763b 64be ccbb a506 08bc 83a9 ea3b
00000150: 926e fcbb e901 c33b 524f 3ebc 1bf7 1cbc
00000160: b46b ba3b ea3d 16bc 968b 05bc 2e4d cfb8
00000170: 82bd d5b9 986c 8fba edfa efbb 367a 8c3b
00000180: 3a80 4f3c 5c0b fdbb cf7a cbbb fd0a 3e3b
00000190: 9e21 33bc 5185 7abb 1d85 f1ba f0cb 1e3b
000001a0: 50ae f0b9 5667 823b 3951 af3a 7e18 ae3b
000001b0: 1697 ceba a519 073b 49fe d639 5dd8 dc3b
000001c0: ff66 eb3b 64d4 c6ba c52f 37bc 0395 943b
000001d0: a93d ce3b 9ba4 81bb ad30 0a3c 35f3 133c
000001e0: 1b4d f53b 9572 44bc 200f e4bb f14d 02bc
000001f0: fd0c bd3b 6804 1fbc fec5 8cb8 47e8 c13b
0.005094134 -0.0023852556 0.002579283 0.0056441287 -0.0064078206 0.00023097405 1.8820429e-05 -0.008888767
0.0051106415 -0.0048943874 0.0024403865 0.0076671825 -0.0053541954 0.002709169 -0.0014273509 -0.0054180636
0.001905782 -0.011854314 -0.0014263836 -0.0017761585 0.006858209 -0.010879427 0.0049347216 -0.0070202327
-0.004572046 -0.008995463 0.0017822149 -0.0075429515 -0.008973105 -0.00850334 0.0017960027 -0.009882614
-0.0045911376 -0.0072417883 -0.011762784 -0.0066955793 0.008312734 -0.0003566596 0.0016966233 0.0077658533
-0.0027753974 0.0007091889 0.0043426678 -0.01172783 0.0055222 -0.0046974416 0.003575174 -0.0005181777
0.004672243 0.0062309587 -0.008833134 -0.003410914 -0.008828764 -0.009913543 0.0053424668 -0.00618978
0.007510851 0.006529743 0.0064644315 -0.0016414968 -0.0106717395 0.0041953996 0.0025848686 0.006837184
0.0019487011 -0.0033996303 0.009190504 0.0074535445 -0.0073767593 0.0074632103 0.0017612879 -0.0034342872
-0.005540609 0.0064032725 -0.0015484056 -0.008597721 0.0067549064 -0.0009706321 0.0024600849 0.0025420787
0.003760463 -0.0062482823 -0.008302365 0.0071613207 -0.0077036107 0.0059511554 -0.011615591 -0.009580399
0.0056891087 -0.009170035 -0.008150956 -9.884905e-05 -0.0004076772 -0.0010942398 -0.007323614 0.0042870296
0.012664849 -0.0077223014 -0.0062097083 0.0028998249 -0.010933308 -0.0038226435 -0.0018426512 0.0024230443
-0.0004590624 0.0039796038 0.0013375647 0.0053129783 -0.001576158 0.002061465 0.00041006718 0.0067396597
0.007183909 -0.0015169499 -0.011180823 0.004534365 0.0062939716 -0.00395639 0.008434457 0.009030153
0.0074859983 -0.011990209 -0.006959811 -0.007953153 0.0057693706 -0.00970564 -6.712599e-05 0.005917582

network_body._body_endoder.seq_layers.2.weight f4 [128, 128]
00000000: 2f90 9d3d edfa 213e a2af 503d 0709 5e3d
00000010: 2cdb 89bd 5395 803d 05fa 3d3d a505 4ebd
00000020: 7afb 42bc 9723 303e abc9 ea3d d389 373e
00000030: f40b 8b3d 0d78 093d 7cc0 08bd 080d 033e
00000040: 7485 cd3d d103 cc3d c91a 7a3d 9bf6 2f3d
00000050: b9d1 2a3d d749 cabb fd77 e73d ab23 6fbc
00000060: 817b acbb 157f aabc 7216 ccbc 659b e8bd
00000070: 2bfb 0abd 2578 de3d 3be6 f8bd 6cd4 873c
00000080: 2956 49bd 4343 28be 85c9 fb3d 4619 80bc
00000090: a9f5 0b3e ee83 19be 191c 0fbb dd5b 2a3d
000000a0: 2997 7ebd 9ef1 57bc 4f4c 25be 0d29 38bc
000000b0: c955 76bd 9a1f 0ebd fc4c 2b3d 6627 163d
000000c0: dedf 963d f8a5 aabc 70a4 c83d 2ccd 58bd
000000d0: d7ec 3fbe e541 4b3d f501 bd3c f056 0ebe
000000e0: cd9e 843d 0892 55bd 69c5 933c 8181 d7bd
000000f0: 136e 18bd 0966 7c3d e473 093d dfec 433e
00000100: d848 4abd 79c0 89bd ccec a13c 2455 373d
00000110: 308b e8bc 0aef 073e 63be 073d 4653 fa3c
00000120: 2ea5 613d 66ef 243e 7e15 f83c 3a29 f73a
00000130: 7d6d c3bd a5eb 723d f37e 533d 8683 843d
00000140: d11a 783d c13a 7a3d 85e0 d1bd 18d1 313e
00000150: 6482 4fbc e327 34be f638 e83c cfdf a13c
00000160: f89d 3cbd ba0e c2bd b8ab c93d f35b eb3c
00000170: 4a11 2a3e ce8b 223e e866 3cbe ed20 1b3d
00000180: 0914 c63d 49c5 33bc 088e 2a3e a23c bf3d
00000190: e7c3 893d 9388 473e d794 17bd 5aba 0bbd
000001a0: c97d 2abe b170 00bd 8549 09bc de94 f8bc
000001b0: 1b70 c03d 229f c2bb b7d3 423c 8a7c e5bc
000001c0: bcd5 e1bd 693f 0a3d e4fc ccbc 30c3 373e
000001d0: 97c8 173e 2cff cd3d ecb5 c2bd 6937 e7bb
000001e0: 6c09 90bd f7e3 56bd 8ef9 d53d 9404 c9bd
000001f0: 5108 3c3e a738 46bd 8ed2 83bd ccd7 41bc
00000200: 1f7f ec3c 7117 023d 156c 22bd e019 a5bd
00000210: 940b b03c b61d 233d 72c3 afbc 06ac b73d
00000220: 4f14 1dbe 0162 40bd b148 f63c 24d8 823d
00000230: 5ad2 8ebc d239 8c3d 0a23 cb3b cb02 033d
00000240: fcdb a7bc 638a a63b b950 02bc 3076 1dbd
00000250: 56ba 543e 98fa d13d c576 c53d 23e2 a43d
00000260: d992 05be 0bea c0bd 14c3 91bd fee3 7239
00000270: 6ae1 f53d 137c b83d 577e cd3c 1a1a edbd
00000280: 7213 59be 0e3d 87bd 6c6c 7ebd 1d6c a73c
00000290: bd37 273d f3d5 463b 4bac a3bd b50c 493d
000002a0: 56d0 fc3c c532 4ebe 3d83 eebd 9a2c d43b
000002b0: 0309 83bd 5c0e 93bd cf35 89bb b476 16bb
000002c0: 7bfd 203d d49d 493d c89b 3c3b 0501 cc3c
000002d0: d79b 10bd 59a8 5c3c dc86 e63d a945 dfbc
000002e0: eeea 213e 686b a83d ce42 9ebd 9a24 5abd
000002f0: b2d6 c1bd 8c1e e6bd 590b 9ebd b46b 1bbd
00000300: 98df a93d 1547 633c c8d5 883d 64dc 593d
00000310: 4e67 a7bd 233d ccbd c1f7 49be 44a2 05be
00000320: e8e7 0e3e 763d 2ebd f21b 9bbd 6e39 02bc
00000330: cde4 12be 0fa2 013e 2a35 473d 2d7b 08be
00000340: 6d71 7cbc c072 11bd feaf 1d3d 0a3f cdbb
00000350: 29e3 09bd 4ae6 273d 3382 17be 2597 d13c
00000360: 9cb8 1bbd 119a c53d e835 63bd 8ef0 35bd
00000370: 5d30 05be 0e00 8ebd 0445 b03c 3f92 fb3c
00000380: 6725 edbc cba8 8a3d 8269 013e 81f3 97bd
00000390: 6195 32be 3aa0 7a3d 6aba efbd 9161 353d
000003a0: 39fe fc3d 7e23 0bbd cf78 023e d293 e639
000003b0: f720 d4bd 9882 073d df89 ae3c a749 c13d
000003c0: 1aa2 96bc ea58 bb3d 0659 ab3d f432 bebc
000003d0: b593 4cbd bdf1 f1bc 6ec9 efbd 8029 ce3d
000003e0: 5d91 a6bd df24 633d 30c6 ac3d 676b 3cbd
000003f0: e716 c7bc 8816 12be 12ee 6b3d c68e b6bc
0.076935165 0.15818377 0.050948747 0.054207828 -0.06731257 0.06278481 0.046381015 -0.05029835
-0.011900777 0.17201076 0.11464246 0.1792367 0.06789389 0.033561755 -0.033386692 0.1279794
0.1003522 0.099616654 0.0610607 0.04295979 0.041703913 -0.006173353 0.11302183 -0.014595906
-0.0052637463 -0.02081255 -0.024913047 -0.11357764 -0.03393094 0.108627595 -0.12153288 0.016580783
-0.049154434 -0.16431908 0.12294296 -0.015637051 0.1366793 -0.14991733 -0.0021836816 0.041591514
-0.062155876 -0.013180165 -0.1614239 -0.011240256 -0.060140405 -0.034698106 0.041821465 0.036658667
0.07366918 -0.020831093 0.09796989 -0.052930042 -0.18742691 0.04962339 0.023072222 -0.13900352
0.06475601 -0.05214122 0.018038468 -0.10522748 -0.03721435 0.061620746 0.033557788 0.19133328
-0.049385875 -0.06726164 0.019766234 0.04475893 -0.028386682 0.1327478 0.03314055 0.030557286
0.05508917 0.16106948 0.030283686 0.0018856891 -0.095423676 0.05930676 0.05163474 0.064703986
0.06057245 0.06109119 -0.10247902 0.17364919 -0.012665365 -0.1759334 0.028347474 0.01976004
-0.04604909 -0.09475465 0.09847206 0.028730368 0.16608158 0.15873644 -0.1839863 0.037873197
0.0967179 -0.010972329 0.16655743 0.09337737 0.067268185 0.19485693 -0.03700718 -0.034113266
-0.16649546 -0.03135747 -0.008379345 -0.030344423 0.093963824 -0.0059393803 0.011891297 -0.028013486
-0.11027095 0.03375188 -0.025022931 0.17945552 0.14822613 0.10058436 -0.09507355 -0.007056166
-0.07033047 -0.052463498 0.104479894 -0.09815326 0.18362547 -0.04839387 -0.064366445 -0.011831235
0.02886921 0.031760637 -0.039653856 -0.08061576 0.021489896 0.039823256 -0.0214555 0.08968358
-0.15339778 -0.046968464 0.030063959 0.06388882 -0.017434288 0.06846966 0.0061992453 0.031985085
-0.020490639 0.005082415 -0.007953816 -0.03844279 0.20774207 0.10252875 0.09641794 0.08050945
-0.13044299 -0.0941964 -0.07117286 0.00023163852 0.12005885 0.0900804 0.025084658 -0.11577244
-0.21198824 -0.06603442 -0.062115118 0.020437295 0.04082464 0.0030339926 -0.07991847 0.049084384
0.030861061 -0.20136555 -0.116461255 0.0064750435 -0.06398203 -0.07180473 -0.0041873227 -0.0022958936
0.039304238 0.049222782 0.0028779376 0.02490283 -0.03530487 0.013467872 0.11256191 -0.027254896
0.15812275 0.08223611 -0.07727586 -0.053257562 -0.09464778 -0.11236295 -0.07717008 -0.03794451
0.082946 0.013871928 0.066814005 0.053188697 -0.08174001 -0.099725984 -0.19723417 -0.1305018
0.13955653 -0.042539082 -0.075736895 -0.007948263 -0.14345093 0.12659477 0.048634686 -0.13328238
-0.015407902 -0.035509825 0.038497917 -0.0062636184 -0.033663902 0.040991105 -0.14795761 0.025584767
-0.038017854 0.096485265 -0.05547133 -0.044418864 -0.1300673 -0.06933604 0.021517284 0.030709384
-0.028948499 0.06770476 0.12637904 -0.074194916 -0.17439796 0.06118796 -0.117054775 0.0442825
0.123531766 -0.033969395 0.12741397 0.00043979153 -0.1035785 0.03308353 0.021305976 0.09437876
-0.018387843 0.091478184 0.08366589 -0.023217656 -0.049945552 -0.029534215 -0.117083415 0.10066509
-0.081331946 0.055455085 0.08436239 -0.046000864 -0.024302913 -0.14266407 0.05760009 -0.022284877
