results/CubeAgentZoneRay/CubeAgentZoneRay/CubeAgentZoneRay-18077.onnx (onnx, 80046 bytes, 8 tensors)

action_model._continuous_distribution.log_sigma f4 [1, 2]
0	0xbddff975	-0.10936252
1	0xbc955bf3	-0.018232321

action_model._continuous_distribution.mu.bias f4 [2]
0	0x3b52480d	0.0032086403
1	0x3d0f7a50	0.035028756

action_model._continuous_distribution.mu.weight f4 [2, 128]
0	0xbc6a39df	-0.014296024
1	0x3b099ba8	0.002099732
2	0xbc5aad97	-0.013347051
3	0x3c6c5c10	0.014426246
4	0xbb9abac7	-0.0047219726
5	0xbc15f163	-0.009151789
6	0x3ab3afb9	0.0013708986
7	0xbcb12e1f	-0.021628438
8	0x3cbce749	0.023059504
9	0xb9180a73	-0.00014499742
10	0xbaf32a39	-0.0018552012
11	0xbba6ba10	-0.0050880983
12	0xba83901e	-0.0010037457
13	0xbc92ef2f	-0.017936317
14	0xbcb54069	-0.02212544
15	0xbc36df90	-0.0111617
16	0x3b0dc8ad	0.0021634505
17	0xb8265b8f	-3.9662755e-05
18	0xbbb4b734	-0.0055150036
19	0xbbe65b99	-0.0070299623
20	0x3b991cc1	0.004672617
21	0x3b8d1799	0.0043057916
22	0xbbc9550a	-0.0061441706
23	0xbc8d35b7	-0.017237527
24	0xbcdf0ee5	-0.027228782
25	0x3bc36204	0.005962612
26	0xbb62e82f	-0.0034623255
27	0x3bbbb2e2	0.0057281116
28	0x3c65eb8f	0.014033212
29	0xbc776cea	-0.015101651
30	0x3bd730f3	0.0065671145
31	0x3be71ab8	0.0070527457
32	0xbb79564b	-0.003804582
33	0x3cf4fff6	0.029907208
34	0x3b42458a	0.00296435
35	0x3b419792	0.0029539806
36	0xbbef3536	-0.0073000444
37	0xbb3db417	-0.0028946453
38	0x3c49ba19	0.012312436
39	0x3c8b5dd6	0.017012518
40	0x3afebc83	0.0019434843
41	0xba50d449	-0.0007966203
42	0xbc746e2f	-0.014918848
43	0xbd1e5dcb	-0.038663667
44	0xba93ac0f	-0.0011266487
45	0xbc50ace1	-0.01273653
46	0xbb91a370	-0.004444532
47	0xbc45a61c	-0.012063529
48	0xbcb4e546	-0.022081982
49	0xb91bed09	-0.00014870254
50	0xbb72741d	-0.0036995478
51	0xbaba73d4	-0.0014225193
52	0x3b1410a0	0.0022592917
53	0xbd016550	-0.03159076
54	0xbc3e4b08	-0.0116145685
55	0xbc0290d7	-0.007969103
56	0xbbf32e9a	-0.007421327
57	0x3c5b8515	0.013398428
58	0x3ae034e0	0.0017105602
59	0x3c60d18c	0.013721835
60	0xbbb96f86	-0.0056590466
61	0xbbfbc22b	-0.0076830587
62	0x388177cc	6.173513e-05
63	0x3b13d32c	0.0022556288
64	0xbb481a80	-0.0030533373
65	0x3c2cde6b	0.010551075
66	0xbb290275	-0.0025788818
67	0x3c8e8b6e	0.01740047
68	0xbabefedc	-0.0014571804
69	0x3a9ee7e3	0.0012123551
70	0x3b736874	0.0037141116
71	0x3c0a3105	0.008434539
72	0x3c889210	0.01667121
73	0xbb9263c9	-0.0044674617
74	0xb9fb7067	-0.00047958197
75	0xbc2c17f0	-0.010503754
76	0x3b4f20c5	0.0031605226
77	0xbbc3641b	-0.0059628612
78	0xbaa82a21	-0.0012829938
79	0xbbdf4f8a	-0.0068149017
80	0xbcd0e992	-0.025502
81	0xbbc76420	-0.006084934
82	0x3cff3047	0.03115095
83	0x3b58a86b	0.003305937
84	0x3c1df7f2	0.009641634
85	0xbc98137c	-0.018563978
86	0x3b82dfce	0.0039939648
87	0xbc11b3bc	-0.00889295
88	0xbb923846	-0.0044622747
89	0xbb795989	-0.0038047752
90	0xbcd8bc49	-0.026456969
91	0xbc2701ca	-0.010193298
92	0xbb5e5cff	-0.0033929942
93	0xbb540179	-0.003234951
94	0x3b5a115c	0.0033274507
95	0x3c2f9f47	0.010719127
96	0x3bb1d830	0.005427383
97	0x3aaa0dec	0.001297412
98	0xbbf52ff7	-0.0074825245
99	0x3b02422b	0.0019875865
100	0xbb959282	-0.0045645842
101	0xbca879cb	-0.020565888
102	0xbaa63c1e	-0.0012682711
103	0xbb734523	-0.0037120066
104	0x3c29404b	0.01033027
105	0x3cd9ef29	0.026603298
106	0xba591dbd	-0.00082823244
107	0x3aba596d	0.0014217325
108	0x3cae1115	0.02124838
109	0xbcc5abb5	-0.024129728
110	0x3b33c238	0.0027428996
111	0xbbb0b195	-0.005392263
112	0xbb30435b	-0.0026895616
113	0x3bd4bbcf	0.006492115
114	0x3b3bd418	0.0028660353
115	0x3be5e272	0.00701552
116	0xbcaa1889	-0.020763652
117	0xbb1f87bf	-0.0024342386
118	0xbbe72c3d	-0.007054834
119	0x3bc98a73	0.0061505376
120	0xba9c075d	-0.001190405
121	0xbc540b96	-0.012942215
122	0xbc509ef2	-0.012733208
123	0x3ccb4dbd	0.024817342
124	0xbc652663	-0.013986203
125	0x3c82a9d2	0.015950117
126	0xbb15d4bd	-0.0022862398
127	0x3c2a044f	0.010377004
128	0xbd34ea8a	-0.044168986
129	0x3ce4ec34	0.027944662
130	0xbc88369d	-0.016627604
131	0xbceab382	-0.02865005
132	0x3ced3567	0.028956128
133	0x3cd36307	0.025804056
134	0xbd7265e9	-0.05917922
135	0xbd507144	-0.05088927
136	0xbcfbe061	-0.03074664
137	0xbd13224a	-0.035921372
138	0x3cc13bb1	0.023588033
139	0xbcb59a57	-0.022168322
140	0xbc371734	-0.011174966
141	0x3c7af151	0.015316323
142	0x3c7c47c0	0.015397966
143	0xbc361ac5	-0.011114781
144	0x3caf7354	0.021417297
145	0x3c6d3d55	0.014479955
146	0xbd2abb17	-0.04168233
147	0xbc96dc37	-0.018415553
148	0x3cf87564	0.030329414
149	0xbb0243df	-0.001987688
150	0x3d090787	0.033454444
151	0x3c8d543b	0.017252078
152	0x3d1c4e6b	0.038160723
153	0xbd120e02	-0.03565789
154	0x3c9c5189	0.019081848
155	0x3c88b834	0.016689397
156	0xbbc44a7d	-0.005990325
157	0xbd9f70f1	-0.07785214
158	0x3c37b74f	0.011213138
159	0xbd5686f5	-0.0523748
160	0x3c3f1d4e	0.011664702
161	0x3d6b0de9	0.057386313
162	0xbc25e3f1	-0.010125146
163	0xbc051fd7	-0.008125267
164	0x3d231e14	0.039823607
165	0x3d4eafba	0.050460555
166	0x3bcda704	0.0062760133
167	0xbcc0c738	-0.023532495
168	0xbccf3004	-0.02529145
169	0x3bbad2bd	0.0057013915
170	0x3cea1af1	0.0285773
171	0xbcfd9443	-0.030954486
172	0x3d33e18f	0.04391628
173	0xbd7c7c0f	-0.06164175
174	0x3c7cef9d	0.015437988
175	0x3d1d69ba	0.038430907
176	0xbc31fb23	-0.010863098
177	0x3d11a2f0	0.03555578
178	0xbc24d44c	-0.010060381
179	0xbcc97ac4	-0.024594672
180	0xbc90f724	-0.01769597
181	0x3d08f36d	0.033435274
182	0xbd0fb472	-0.035084195
183	0xbd4df35f	-0.050280925
184	0x3d0e688f	0.034767684
185	0x3d2e4613	0.042547297
186	0x3bd9e34c	0.0066494104
187	0xbd26fd8a	-0.040769137
188	0xbbe2d2cd	-0.006922102
189	0x3d26dc6f	0.040737566
190	0x3d7c4a60	0.061594367
191	0x3d3b38a8	0.04570833
192	0xbcf71862	-0.030162994
193	0xbd63909d	-0.055557836
194	0xbcbb5a36	-0.022870164
195	0x3be5cbf0	0.0070128366
196	0x3cf2aeb0	0.029624313
197	0xbccd066b	-0.025027474
198	0x3c9f5a66	0.019452285
199	0xbc270ee1	-0.0101964185
200	0x3d3dfd69	0.04638425
201	0xbce46e41	-0.027884604
202	0x3d410f34	0.04713364
203	0xbd1528b9	-0.03641579
204	0xbcbb6f21	-0.022880139
205	0x3cd325a0	0.025774777
206	0xbca3ee74	-0.020011164
207	0xbd46b190	-0.04850918
208	0x3c29eeca	0.010371873
209	0xbc887b24	-0.01666028
210	0xbd2b72d4	-0.041857556
211	0xbd13a80b	-0.03604893
212	0x3d028123	0.031861436
213	0xbd0ca314	-0.03433521
214	0x3c0923df	0.008370369
215	0xbcfb6a89	-0.030690448
216	0xbd25dc86	-0.04049351
217	0xbc82a6fc	-0.015948765
218	0xbcce5cdd	-0.025190765
219	0xbd4b5ec9	-0.04965094
220	0x3c922ba1	0.01784307
221	0x3d123709	0.035697017
222	0x3d2af142	0.041733988
223	0xbcdaa52c	-0.026690088
224	0xbd28ce42	-0.041212328
225	0xbc45644a	-0.012047837
226	0x3c3bf3cc	0.0114717
227	0x3c142902	0.00904298
228	0xbd261a50	-0.040552437
229	0x3d2234ae	0.03960102
230	0x3bce4c47	0.006295714
231	0xbd05b63e	-0.032644503
232	0xbd12adf5	-0.03581043
233	0xbd2b3410	-0.041797698
234	0x3cfe89d5	0.031071583
235	0x3d1b500d	0.03791814
236	0xbc5b6aed	-0.013392192
237	0xbd27595e	-0.04085671
238	0xbd502cd0	-0.050823987
239	0x3cfadc62	0.030622665
240	0x3d1015a9	0.035176907
241	0xbd4ad3be	-0.04951834
242	0xbd00f275	-0.031481225
243	0x3c011938	0.007879548
244	0xbd269f18	-0.040679067
245	0x3b72b448	0.0037033726
246	0xbd71a606	-0.058996223
247	0xbc753031	-0.014965103
248	0xbb4fa4e0	-0.0031683967
249	0x3d00d585	0.031453628
250	0x3cd24b7c	0.02567076
251	0x3d30e146	0.043183587
252	0x3d4f32f0	0.050585687
253	0x3ca49287	0.020089401
254	0x3d2db9ae	0.042413406
255	0x3d2691b3	0.040666293

action_model._discrete_distribution.branches.0.weight f4 [1, 128]
0	0xbb48ca5b	-0.0030638191
1	0xbb8b2d84	-0.0042473692
2	0x3c2958bd	0.010336098
3	0xbc0b23ac	-0.008492392
4	0xbb69d1fd	-0.0035678141
5	0x3bc141bb	0.0058977283
6	0x3b81fff3	0.003967279
7	0x3a890d07	0.0010456153
8	0x3c538b3d	0.012911615
9	0x3c1742fa	0.009232277
10	0xbc94cc3b	-0.01816379
11	0xbc120fd7	-0.008914909
12	0xbc8f4d93	-0.017493045
13	0xbc36118b	-0.011112581
14	0x3b63cd83	0.0034759946
15	0xbc4541ca	-0.012039611
16	0xbc273c02	-0.010207178
17	0xbbdfe365	-0.0068325275
18	0x3b5670b8	0.0032720994
19	0xbb994006	-0.0046768216
20	0x3b91c138	0.0044480823
21	0x3c299474	0.010350335
22	0xbbf86395	-0.0075802305
23	0x3756249b	1.2763917e-05
24	0x3b59bfd0	0.0033225901
25	0xbc801acc	-0.015637778
26	0x3c4e2905	0.012583022
27	0xbb4cc0dd	-0.0031242885
28	0xbc9b0c51	-0.018926771
29	0xbb158d05	-0.002281965
30	0x3b9fcd80	0.0048767924
31	0xbb5245d2	-0.0032085073
32	0x3b73b3a8	0.003718594
33	0xbbcaa156	-0.0061837835
34	0xbbdf34af	-0.0068117003
35	0xbb66c55a	-0.0035212846
36	0x3a83f799	0.0010068297
37	0xbb5c98f2	-0.0033660498
38	0x3aba3a5e	0.0014208069
39	0xbbaa2cef	-0.005193345
40	0x3ba8ce7c	0.005151568
41	0xbc79a8f8	-0.015238039
42	0xbb86fa74	-0.004119212
43	0x3c244cb7	0.010028056
44	0x3a83ba4f	0.0010050031
45	0x3c03e2db	0.008049692
46	0xbb09a8d8	-0.002100518
47	0x3c044a19	0.008074307
48	0x3b48772a	0.0030588605
49	0xbb37ee62	-0.0028065671
50	0xbbd6f96d	-0.0065604956
51	0xbb8c547c	-0.0042825323
52	0xbbc1e133	-0.0059167384
53	0xbb643720	-0.0034822896
54	0x3c4efe42	0.012633862
55	0x3c04aa58	0.008097254
56	0x3bdfeb05	0.0068334364
57	0xbc3628ef	-0.011118158
58	0xbb1a91ca	-0.0023585432
59	0x3bcfc797	0.0063409316
60	0xbbc3b9f7	-0.0059730965
61	0x3b44c1de	0.003002278
62	0xbbdd1175	-0.006746466
63	0x3b853e5e	0.0040662726
64	0xbaa3d17d	-0.0012498345
65	0xbc09df77	-0.008415095
66	0x3c1146c1	0.008866967
67	0x3c9c210f	0.019058732
68	0xbad5790d	-0.0016286686
69	0x3c2b966c	0.010472875
70	0x3c01951b	0.007909085
71	0xba1fe327	-0.0006099217
72	0xbcc2d544	-0.023783334
73	0xbc32b687	-0.010907776
74	0xbca08b15	-0.01959757
75	0x3c900ab7	0.017583234
76	0x3a7e675a	0.00097047316
77	0xba941ef6	-0.0011300731
78	0xba938899	-0.0011255919
79	0x3c171a8e	0.00922264
80	0xbc2f4823	-0.010698351
81	0xbc6d6768	-0.014489986
82	0x3c8337e6	0.016017865
83	0xbae72c10	-0.0017637033
84	0x3ace2dcf	0.0015730205
85	0xbc513443	-0.012768808
86	0x3c4315ab	0.0119070215
87	0xbc1ebbee	-0.009688361
88	0x3c01d5e3	0.00792453
89	0x3bfc6d6d	0.0077034743
90	0xbb0f2004	-0.002183915
91	0x3b6e0a60	0.0036322102
92	0xbba74dd2	-0.0051057125
93	0x3b0c3fbf	0.00214003
94	0x3ad12260	0.0015955679
95	0x3ae09580	0.0017134398
96	0xbb9b36d5	-0.004736761
97	0x3b9fe90d	0.0048800767
98	0x3b988791	0.0046548326
99	0xbb66dd4d	-0.003522712
100	0xbc145de6	-0.00905559
101	0x3b077349	0.002066808
102	0xbbd9a25f	-0.0066416706
103	0x3b2bca57	0.0026213133
104	0x3b4c1eb4	0.003114623
105	0x3bdbfc10	0.006713398
106	0x3c4c653c	0.012475308
107	0x3c114581	0.008866669
108	0xbbd62347	-0.006534967
109	0x3bfdb00f	0.007741935
110	0xbb90141e	-0.0043969294
111	0xbb955cae	-0.0045581674
112	0x3cc2074c	0.02368512
113	0x3b78d41a	0.003796822
114	0xbacb7a2b	-0.001552408
115	0xbb3a9c24	-0.0028474415
116	0x3ac610b9	0.0015111185
117	0x3a85d2a3	0.0010209869
118	0x3c1eecd9	0.009700024
119	0xbb760fca	-0.0037546032
120	0xbaad048f	-0.0013200211
121	0x3b61c9d5	0.0034452577
122	0x3b40059b	0.0029300216
123	0x3c3d0bc6	0.011538452
124	0xbc12ec34	-0.008967448
125	0xbc2c9773	-0.010534155
126	0xbc5a0848	-0.0133076385
127	0xbab465d2	-0.0013763255

network_body._body_endoder.seq_layers.0.bias f4 [128]
0	0x3c9ca1c3	0.019120103
1	0x3b193324	0.002337643
2	0xbc3fd085	-0.01170743
3	0xbd02c8eb	-0.03192989
4	0x3ba44d07	0.005014065
5	0xbc0833f5	-0.008313169
6	0xbc2da4a1	-0.010598333
7	0xbc4f308a	-0.01264585
8	0xbc11ddee	-0.00890301
9	0x3c2fc35b	0.010727729
10	0x3bcf8001	0.006332398
11	0xbc3fa850	-0.011697844
12	0x3cc58cbc	0.024114959
13	0x3c9d84fe	0.019228455
14	0x3bf4b11a	0.007467401
15	0xbc7e6d30	-0.015528962
16	0xbc6ecf66	-0.014575815
17	0xbcd11032	-0.025520418
18	0x3ca4a66d	0.02009889
19	0xbb93cc71	-0.0045104553
20	0x3c0bea50	0.008539751
21	0xbc2aba26	-0.010420358
22	0x3c29595e	0.010336248
23	0xbb3bc01f	-0.0028648449
24	0x3b15550e	0.0022786292
25	0x3ce22f77	0.027610524
26	0x3b8affb4	0.004241908
27	0xbc834114	-0.016022243
28	0xbcab52cf	-0.02091351
29	0x3b85bad9	0.004081112
30	0x3bf7d163	0.0075628026
31	0x3bfe7d1e	0.00776638
32	0xbcc16797	-0.023608966
33	0xbcb9a3fb	-0.0226612
34	0xbc4d992a	-0.012548724
35	0x3c045c33	0.008078623
36	0xbd06ad0b	-0.03287987
37	0x3be454e8	0.0069681294
38	0xbc81a83c	-0.01582729
39	0x3c4df4d2	0.012570577
40	0xbcb35be1	-0.021894397
41	0xbd01f6e0	-0.03172958
42	0x3cd4aaf3	0.025960421
43	0xbcfedfb6	-0.031112533
44	0x3cb2e054	0.021835484
45	0x3c42c18f	0.011886968
46	0xbc88ab2b	-0.016683182
47	0xbc88b9b6	-0.016690116
48	0xbc8a7711	-0.016902478
49	0xbcf59123	-0.029976433
50	0xbc94ba96	-0.018155377
51	0x3b248933	0.0025106191
52	0xbbbc2b52	-0.005742469
53	0x3cdaecfe	0.026724335
54	0xbc9098c8	-0.017650977
55	0xb96dc1c1	-0.0002267426
56	0x3befd48c	0.0073190387
57	0x3c1dab4f	0.009623363
58	0xbd235f62	-0.039885886
59	0xbbdcba4f	-0.006736077
60	0xbbe5e42b	-0.007015725
61	0x3c82b176	0.01595376
62	0x3c9c23fd	0.01906013
63	0x3af59de5	0.0018739073
64	0xbcaf529a	-0.021401692
65	0xbbced680	-0.0063121915
66	0xbbec1f97	-0.0072059142
67	0xbc85ab42	-0.016317014
68	0xbc672e94	-0.014110226
69	0xbc7cfbe0	-0.015440911
70	0x3a53108b	0.00080514763
71	0xbb08cedc	-0.002087525
72	0xbbb6583f	-0.005564719
73	0x3c8f821e	0.0175181
74	0xb993d56a	-0.0002819703
75	0x3ba7ace7	0.005117047
76	0xbcc1e0b8	-0.023666725
77	0xbb95813e	-0.004562526
78	0xbcd66c50	-0.026174694
79	0x3b932ad7	0.004491191
80	0xbc98a29e	-0.01863223
81	0xbc36de1c	-0.011161353
82	0xbce94f33	-0.028480148
83	0x3ae8cf90	0.0017762054
84	0x3b8f3c98	0.004371237
85	0xbc978cf5	-0.01849983
86	0xbbd99b45	-0.006640824
87	0x3b8d7802	0.0043172846
88	0x3c527071	0.012844191
89	0x3c882a42	0.016621713
90	0x3b268e15	0.0025414277
91	0xbc55e4e9	-0.013055065
92	0x3c2f10d7	0.010685167
93	0xbc8b02e6	-0.016969156
94	0xbd214bbc	-0.039378867
95	0xbba3eaee	-0.005002371
96	0xba71d339	-0.0009224895
97	0xbc1af605	-0.00945807
98	0xbb3d9b1c	-0.0028931564
99	0xbb380616	-0.00280798
100	0xbca89d4a	-0.020582814
101	0x3aa2e30e	0.0012427287
102	0x3ad0b127	0.0015921936
103	0x3b870930	0.0041209683
104	0x3ccac7c1	0.024753453
105	0xb986851e	-0.00025657652
106	0x3aa87360	0.0012851767
107	0x3bb1d281	0.0054267053
108	0x3ca8c030	0.020599455
109	0x3becf7b2	0.007231676
110	0xbcb81772	-0.022472117
111	0xbba4ec08	-0.00503302
112	0xbcabec80	-0.020986795
113	0xbc527829	-0.012846031
114	0x3be4215f	0.006961986
115	0x3b380578	0.0028079432
116	0xbc6356b7	-0.013875655
117	0x3bb53db3	0.0055310368
118	0x3bd1dc63	0.006404446
119	0xba9b64dd	-0.0011855621
120	0xba8109fd	-0.0009844896
121	0x3c8db8bc	0.017300002
122	0xbca4dc0b	-0.020124456
123	0x3b9fcb74	0.0048765484
124	0x3c8f9c84	0.017530687
125	0xbc6e7e44	-0.014556471
126	0xbc9a64e5	-0.018846938
127	0x3c12610c	0.008934271

network_body._body_endoder.seq_layers.0.weight f4 [128, 17]
0	0xbddd5f32	-0.10809173
1	0xbe3b5ae3	-0.1829639
2	0x3ee287d7	0.44244263
3	0x3e1ebe6c	0.15502328
4	0x3d632c78	0.05546233
5	0xbe4d6129	-0.20056595
6	0xbab37c19	-0.00136936
7	0xbdc539ac	-0.09630141
8	0xbd3d2a3d	-0.04618286
9	0xbe4293b2	-0.19001654
10	0xbdeb00da	-0.11474772
11	0x3e991e9d	0.2990617
12	0xbece497d	-0.40290442
13	0x3edc4b88	0.43026376
14	0xbd284b1b	-0.04108725
15	0x3e94ddbb	0.29075417
16	0x3e785535	0.24251254
17	0x3e84e491	0.25955632
18	0xbe69adcb	-0.22820203
19	0xbd17993d	-0.037011374
20	0xbe824bca	-0.25448447
21	0xbe43c6b6	-0.19118771
22	0x3e6127ad	0.21987791
23	0x3ef5c437	0.48001263
24	0x3df49a66	0.11943512
25	0x3d1496a9	0.036276493
26	0x3dee8822	0.11647059
27	0x3dfede43	0.12444737
28	0xbd18c61e	-0.037298314
29	0x3c16eb09	0.00921131
30	0xbdf23b65	-0.11827735
31	0x3dbf1833	0.093307875
32	0xbed6470e	-0.41851085
33	0x3e4d5e8f	0.20055602
34	0x3e27dc53	0.16392641
35	0xbdd06fcb	-0.10177573
36	0xbe80a630	-0.2512679
37	0xbd6e899b	-0.0582367
38	0xbcc431f3	-0.023949599
39	0xbe478e93	-0.19487981
40	0xbec77a14	-0.38960326
41	0x3dd9ed0d	0.10640917
42	0x3b892902	0.0041857967
43	0xbe4f9c71	-0.20274521
44	0xbdf7f4ff	-0.12107276
45	0x3e7d1425	0.24714716
46	0x3c4bb8dd	0.012434212
47	0xbdf8df78	-0.12151998
48	0xbe1ebb6a	-0.1550118
49	0x3c9ed472	0.019388411
50	0xbe179291	-0.14802004
51	0xbe6abe81	-0.22924234
52	0xbdb9527a	-0.09048934
53	0xbd24c229	-0.040224228
54	0xbe219e8f	-0.15783142
55	0xbed2040a	-0.41018707
56	0x3d8a717d	0.067599274
57	0x3e945475	0.28970686
58	0xbe28c4a9	-0.1648127
59	0xbe241aca	-0.16025844
60	0xbef8878e	-0.4854092
61	0x3d5bd5c6	0.053670667
62	0x3c62e580	0.013848662
63	0x3eaca03d	0.33716002
64	0x3ea89da7	0.3293278
65	0xbebf2423	-0.37332258
66	0xbc697e7c	-0.014251348
67	0x3e5430aa	0.20721689
68	0xbd1a8012	-0.037719794
69	0x3e5a9dd1	0.21349265
70	0xbdce7324	-0.10080555
71	0xbce508e7	-0.027958347
72	0x3eb453c4	0.35220158
73	0xbd6b59d2	-0.057458706
74	0xbe98b1e9	-0.29823235
75	0x3e19a119	0.1500286
76	0x3e201f8f	0.15637039
77	0xbc859e6a	-0.01631089
78	0x3e3271f6	0.17426285
79	0xbe97a0ff	-0.29615018
80	0x3df83d99	0.12121124
81	0x3e669e76	0.22521386
82	0x3ec94c0e	0.39315838
83	0xbdef7ab7	-0.11693328
84	0xbf0e3fc4	-0.5556605
85	0x3d25b2af	0.04045361
86	0xbe7f315f	-0.24921177
87	0xbdec0809	-0.1152497
88	0x3d482b66	0.048869513
89	0x3cf083db	0.029359749
90	0xbed241b3	-0.4106575
91	0xbe0c1060	-0.13678122
92	0x3e654945	0.22391231
93	0x3e2de29a	0.16980973
94	0x3c4a7c88	0.012358792
95	0xbec0df75	-0.37670484
96	0x3eeed147	0.4664404
97	0x3ef33db7	0.47508022
98	0x3e554b34	0.20829469
99	0x3dd22065	0.10260085
100	0xbe243e84	-0.16039473
101	0xbd9bc09f	-0.07605099
102	0x3d9d7f6c	0.076903194
103	0x3e2e8232	0.17041853
104	0xbe038bbf	-0.12846278
105	0xbe6f2edc	-0.23357719
106	0x3da1d27f	0.07901477
107	0xbe988254	-0.29786932
108	0xbec56a0b	-0.38557467
109	0xbdfe0df2	-0.124050036
110	0xbeb099b1	-0.34492257
111	0x3c740fb7	0.014896325
112	0xbde59c09	-0.11211402
113	0xbd3f8a3d	-0.046762694
114	0xbeab9704	-0.33513653
115	0xbe7dc788	-0.24783146
116	0x3d791902	0.060814865
117	0xbe749185	-0.23883636
118	0x3e838a77	0.25691578
119	0xbd98aed1	-0.074552186
120	0x3cb855c9	0.022501843
121	0xbe7899e7	-0.24277459
122	0x3e30f156	0.17279562
123	0xbf046196	-0.51711404
124	0x3e470267	0.1943451
125	0x3c2d29eb	0.010569076
126	0x3dee1706	0.11625485
127	0x3d66525c	0.056230888
128	0x3ddf8cd4	0.10915533
129	0x3e4993fe	0.19685361
130	0xbe813b80	-0.25240707
131	0xbd742bda	-0.059612133
132	0x3eb29504	0.34879315
133	0xbd3e269a	-0.046423532
134	0x3eb95c43	0.36203203
135	0x3e9fe2bf	0.3122768
136	0xbe890e10	-0.2676854
137	0xbd51d567	-0.051228907
138	0xbe2ded90	-0.16985154
139	0x3da6cf88	0.08145052
140	0x3b7cfb6f	0.0038602015
141	0x3e2f187c	0.17099184
142	0xbe26e6b7	-0.16298948
143	0x3ee963be	0.4558391
144	0xbde43dc8	-0.11144596
145	0x3d500b42	0.050791986
146	0x3e8cfc28	0.2753613
147	0xbe9b8e1e	-0.30381864
148	0x3e9464f1	0.28983262
149	0x3daeaf36	0.085295126
150	0x3e2d3cc5	0.16917713
151	0x3ee4ba75	0.44673505
152	0x3e391f2a	0.18078294
153	0xbb77c7ca	-0.0037808293
154	0x3e793e4c	0.2434017
155	0x3e92907c	0.28625858
156	0xbe3a7b58	-0.18211114
157	0xbd479172	-0.04872269
158	0x3dac769b	0.0842106
159	0xbe173a9b	-0.1476845
160	0xbc7d9c18	-0.01547911
161	0x3e9b3deb	0.30320677
162	0x3e3f3782	0.18673518
163	0xbeb38fa9	-0.35070542
164	0xbe862728	-0.2620175
165	0xbe9d4c03	-0.30722055
166	0x3d59c00b	0.053161662
167	0xbd8d6e5e	-0.069058165
168	0xbdd87ccb	-0.10570677
169	0x3efdadcc	0.4954666
170	0xbe49353b	-0.19649212
171	0xbf1bed0a	-0.6090857
172	0xbe872a67	-0.26399538
173	0x3df62df2	0.12020482
174	0x3cb0b9b5	0.021572927
175	0x3e5b3f07	0.21410762
176	0xbd879c5a	-0.066216186
177	0x3e4f2e89	0.20232596
178	0xbd3a7750	-0.04552394
179	0xb992f27d	-0.00028027958
180	0xbd626819	-0.055275057
181	0xbeac1d5a	-0.33616143
182	0x3ecefa00	0.4042511
183	0x3e6ebf65	0.23315199
184	0x3c9f32dd	0.019433433
185	0xbd3101bd	-0.04321455
186	0xbe010ebb	-0.12603275
187	0x3eb52e1e	0.35386747
188	0xbe13c44a	-0.14430347
189	0xbe20ea78	-0.15714443
190	0xbd8e243f	-0.06940507
191	0xbef43d0d	-0.47702828
192	0x3f040f2e	0.5158566
193	0x3e269800	0.16268921
194	0xbe656f7f	-0.22405814
195	0x3e54e9e3	0.20792346
196	0xbe241b5b	-0.1602606
197	0xbed773e4	-0.42080605
198	0xbdd80b60	-0.105490446
199	0xbd6af1b8	-0.057359427
200	0x3dfbfafc	0.12303731
201	0xbdf2bbb4	-0.11852208
202	0x3b7764f5	0.0037749384
203	0x3d9e607a	0.07733245
204	0xbd76a4b8	-0.06021568
205	0xbe8fadc1	-0.2806225
206	0xbc8012eb	-0.01563402
207	0x3de1fc1d	0.11034415
208	0x3e27be52	0.16381195
209	0x3e841663	0.2579833
210	0x3e22f57d	0.15913959
211	0x3d4136df	0.04717147
212	0x3e32a10f	0.17444251
213	0xbcd24fa9	-0.02567275
214	0xbe95bfd7	-0.29247925
215	0x3e6eceff	0.2332115
216	0x3e9f8035	0.31152502
217	0x3eaf05de	0.34184164
218	0xbd160442	-0.036625154
219	0x3ed8ed22	0.42368418
220	0xbdb47cef	-0.08812892
221	0x3f09a35f	0.5376491
222	0xbe17b385	-0.14814575
223	0x3e776f14	0.24163467
224	0x3e871db3	0.26389846
225	0xbe6debf6	-0.23234543
226	0x3d799ddb	0.06094156
227	0x3d9a2e8b	0.075284086
228	0x3dabd3da	0.08390017
229	0xbea9e20e	-0.3318028
230	0x3d60b09b	0.054855924
231	0x3ce7fb05	0.028317938
232	0xbd8c5a0d	-0.06853113
233	0xbe6be212	-0.23035458
234	0x3f0e0669	0.5547853
235	0x3d2eb282	0.042650707
236	0xbec9b499	-0.39395598
237	0x3da2b106	0.07943921
238	0xbdd0080a	-0.10157783
239	0x3e720c89	0.23637594
240	0xbd8d3649	-0.0689512
241	0x3eeb16a1	0.45915702
242	0x3d12eb73	0.035869073
243	0xbeab9892	-0.3351484
244	0xbef7161f	-0.48259065
245	0xbbb887c5	-0.0056314194
246	0x3e146f1b	0.14495508
247	0xbe9edd4f	-0.3102822
248	0x3c1a3d7d	0.009414074
249	0xbedfe672	-0.43730503
250	0xbe9e3c84	-0.30905545
251	0xbea75a1c	-0.32685935
252	0x3efbacdb	0.49155316
253	0xbcbdf102	-0.02318621
254	0xbc32d733	-0.010915565
255	0xbd9fa94d	-0.077959634

network_body._body_endoder.seq_layers.2.bias f4 [128]
0	0xbcac3b66	-0.021024417
1	0x3bd4d4e9	0.0064951074
2	0xbc66c528	-0.014085092
3	0xbcb49f23	-0.022048539
4	0x3b866b95	0.0041021802
5	0x3c878f12	0.016547713
6	0xbc06cd7b	-0.008227701
7	0xbc04a89d	-0.008096841
8	0xbc865e1f	-0.016402302
9	0x3be6f0c0	0.0070477426
10	0x3c24d985	0.010061626
11	0xbcd9d663	-0.026591485
12	0xbcee6d85	-0.029104957
13	0x3b5eecdd	0.0034015693
14	0xbc636f59	-0.013881528
15	0xbc61a6e4	-0.0137727
16	0x3b93b9d0	0.0045082346
17	0x3ad7ba86	0.0016458787
18	0xbc6702ed	-0.014099819
19	0xbc32dcce	-0.010916902
20	0x3c1bb8c9	0.009504505
21	0xbbff073d	-0.0077828453
22	0x3cd22bf2	0.02565572
23	0xbb5d1d92	-0.003373955
24	0x3c4f3098	0.012645863
25	0xbbea9753	-0.0071591525
26	0xbbeed465	-0.007288503
27	0xbbca6834	-0.0061769728
28	0xbc001199	-0.007816696
29	0xbb6b8a1b	-0.0035940472
30	0x3bb19d0e	0.0054203337
31	0xbb8b5d3c	-0.0042530578
32	0xbc403433	-0.011731195
33	0x3c94f78c	0.018184446
34	0xbc2d4a34	-0.010576773
35	0x3acec645	0.0015775642
36	0x3cad827e	0.021180388
37	0x3cef0f3c	0.029182069
38	0x3aa22139	0.001236952
39	0xbbf459e9	-0.007457007
40	0xbc601554	-0.01367696
41	0xbc514737	-0.012773327
42	0x3c0c8e45	0.008578842
43	0x3ae187db	0.0017206626
44	0x3cbb7428	0.022882536
45	0xbb470bbb	-0.0030371982
46	0xbbc9164d	-0.0061366917
47	0x3c8a65dc	0.016894273
48	0xbc98d1ed	-0.018654788
49	0x3c669916	0.0140745845
50	0xbbb4f28b	-0.0055220774
51	0xbb6a9ebc	-0.003580018
52	0xbc684a4c	-0.01417787
53	0xbaaf6808	-0.0013382444
54	0xbc070724	-0.008241449
55	0xbbd75ee4	-0.006572591
56	0x3c407383	0.01174629
57	0x3c932cbe	0.01796567
58	0xbb3f6348	-0.0029203463
59	0xba7324e8	-0.0009275214
60	0xbc7aa838	-0.015298896
61	0x3d0cddd3	0.034391236
62	0x3d043bab	0.032283466
63	0x3cbb4beb	0.022863349
64	0xbcb5dc6e	-0.022199836
65	0xbc25ee5a	-0.010127628
66	0xbc6f96bb	-0.014623339
67	0xba7c7859	-0.00096309703
68	0x3c3de15d	0.011589375
69	0xbccf28f0	-0.025288075
70	0x3b0cc88a	0.0021481835
71	0xbca3b1eb	-0.019982299
72	0x3cb618e5	0.022228668
73	0xbcba298b	-0.022724887
74	0x3cdaca92	0.026707921
75	0xbc920bbc	-0.017827861
76	0xbc1facc1	-0.009745778
77	0x3c58ea8d	0.013239515
78	0xbb94e92e	-0.0045443987
79	0x3c81647a	0.015794981
80	0xbc8a1788	-0.016856924
81	0xbc980772	-0.018558238
82	0x3c05d36b	0.008168082
83	0xbcb3af77	-0.021934254
84	0x3c5fb531	0.013654039
85	0xbc85be67	-0.016326142
86	0xbc84570e	-0.016154792
87	0xbcab59ed	-0.020916903
88	0xbc3596f6	-0.011083355
89	0xbc8bb7ab	-0.017055353
90	0xbcc39a3a	-0.023877252
91	0xbcade805	-0.0212288
92	0x3c8cbaff	0.01717901
93	0x3c9b6ef7	0.01897381
94	0x3cff499d	0.031163031
95	0xbcb2af30	-0.021812052
96	0xbca4ede4	-0.020132966
97	0xbbb4aa73	-0.005513483
98	0xbc4611d9	-0.012089216
99	0xbbfb7b66	-0.0076746223
100	0xbcbdaa5f	-0.023152528
101	0x3c9e9dd8	0.019362375
102	0x3bff952d	0.0077997656
103	0xbcf63f21	-0.0300594
104	0xbc2e12ab	-0.010624568
105	0xbc42e04f	-0.0118943
106	0x3c5355e4	0.012898896
107	0x3c7d2187	0.015449888
108	0xbb277ec5	-0.0025557738
109	0xbce2aefa	-0.027671326
110	0x3b974040	0.0046158135
111	0x3ca4695a	0.020069767
112	0x3cdc1e9f	0.02687007
113	0xbc8bf915	-0.017086545
114	0xbcad80f7	-0.02117966
115	0xbc8012db	-0.015633991
116	0xba2e94e1	-0.0006659758
117	0xbbe8ff2b	-0.0071104965
118	0xbbeae6dd	-0.0071686343
119	0xbc925c8d	-0.017866397
120	0xbcc086e0	-0.023501813
121	0x3b84dc71	0.004054599
122	0x3c3fdd7c	0.011710521
123	0x3c83636a	0.016038615
124	0x3cb72b55	0.02235953
125	0xbc1b7d06	-0.009490257
126	0x3cc51066	0.024055671
127	0x3c5418d6	0.0129453745

network_body._body_endoder.seq_layers.2.weight f4 [128, 128]
0	0x3c32a6a8	0.010903992
1	0xbd9ddcc3	-0.077081226
2	0xbdd75e8c	-0.1051608
3	0xbc0d107f	-0.00860989
4	0xbc53aa27	-0.012918985
5	0x3cf9651d	0.030443722
6	0xbd9b9610	-0.075969815
7	0x3da6c32c	0.08142695
8	0xbca4f583	-0.0201366
9	0x3cb71a73	0.02235148
10	0xbd8177ec	-0.063217014
11	0x3dcbe01d	0.099548556
12	0xbd532458	-0.051548332
13	0xbda382b9	-0.07983918
14	0x3e7963b2	0.24354437
15	0xbd7440ea	-0.05963222
16	0x3d8baca3	0.06820037
17	0xbd6d0543	-0.057866346
18	0xbdc83dc3	-0.09777405
19	0xbc00612e	-0.007835669
20	0xbd6226e8	-0.055212885
21	0xbdbe9127	-0.09305029
22	0xbca0aff1	-0.019615145
23	0x3e3d0ddd	0.1846232
24	0x3bd48f48	0.006486807
25	0xbded7a50	-0.11595595
26	0xbb941482	-0.0045190463
27	0x3e38e45f	0.18055867
28	0xbc87b503	-0.016565805
29	0xbd8df92e	-0.06932293
30	0x3d6e089b	0.058113676
31	0xbd456466	-0.04819145
32	0xbce3b6ec	-0.027797185
33	0xbe243722	-0.16036656
34	0x3dbd8ba1	0.09255148
35	0x3df986bf	0.12183904
36	0x3daca01f	0.08428978
37	0x3d2c42d4	0.04205592
38	0x3d5fef0c	0.054671332
39	0xbd91b7d0	-0.071151376
40	0xbd81cafb	-0.063375436
41	0xbd9262e4	-0.07147768
42	0xbd938a22	-0.07204081
43	0x3e271fb7	0.16320692
44	0x3d724b83	0.059154045
45	0xbd26149a	-0.04054699
46	0xbc67053a	-0.014100367
47	0xbd92b7e8	-0.071639836
48	0xbcc8e54d	-0.024523402
49	0xbdd963f8	-0.10614771
50	0xbddca4b9	-0.10773606
51	0xbbc17227	-0.0059035006
52	0x3e0d96ab	0.13827007
53	0xbaf5f5a4	-0.0018765223
54	0x3e0fd189	0.14044775
55	0xbdd506e7	-0.10401707
56	0x3cac2654	0.02101437
57	0xbd58c213	-0.05291946
58	0xbc1be2f6	-0.009514561
59	0xbd02edd9	-0.03196511
60	0xbe2d9142	-0.16949943
61	0xbd1af917	-0.037835207
62	0xbda1ab5d	-0.07894013
63	0xbdad236f	-0.08454024
64	0xbc976580	-0.018481016
65	0xbdaee8be	-0.08540486
66	0x3e16046c	0.14650124
67	0x3d97e2c6	0.074163005
68	0x3d115849	0.035484586
69	0x3e47af11	0.19500376
70	0x3d1c9ab3	0.03823347
71	0x3d546162	0.051850684
72	0xbd1f6460	-0.038914084
73	0xbe11377f	-0.14181326
74	0xbe1889bb	-0.1489629
75	0x3dbacd62	0.09121205
76	0xbd9e3bb8	-0.07726234
77	0x3cab05e1	0.020876827
78	0x3ca70596	0.020388406
79	0xbe0dcd2b	-0.13847797
80	0xbbe80461	-0.0070806
81	0xbdf541c3	-0.11975434
82	0x3e155f5f	0.14587162
83	0x3d26b412	0.040699072
84	0xbd8e6601	-0.069530495
85	0x3cc38a33	0.02386961
86	0xbb878450	-0.004135646
87	0x3d86783c	0.06565902
88	0xbd8b587f	-0.06803989
89	0x3c3d8add	0.011568752
90	0x3de9db73	0.1141881
91	0x3d8d85b8	0.069102705
92	0x3d77fc6a	0.060543455
93	0xbe134f2c	-0.1438567
94	0xbd91c579	-0.07117743
95	0x3dda4e95	0.106595196
96	0x3c9b6335	0.018968204
97	0xbdec30be	-0.11532734
98	0xbc505cfe	-0.012717484
99	0xbe5d0867	-0.21585236
100	0xbda25fc2	-0.079284206
101	0xbc1db0a7	-0.009624637
102	0xbd736f3d	-0.059432257
103	0xbb8fd2cb	-0.004389142
104	0x3c045774	0.008077491
105	0x3d9c014d	0.076174356
106	0x3c4294e4	0.011876319
107	0xbd3d6cd8	-0.04624638
108	0x3dff7ba1	0.12474752
109	0xbdaedc30	-0.08538091
110	0xbc3a109c	-0.011356499
111	0xbd319494	-0.043354586
112	0xbcc5e400	-0.02415657
113	0xbc51683f	-0.012781202
114	0x3e11585e	0.14193866
115	0x3c232488	0.00995744
116	0x3dc500b6	0.09619276
117	0xbd8d6b07	-0.069051795
118	0x3d15ccec	0.03657238
119	0xbc821f3a	-0.01588403
120	0x3db73fd5	0.08947722
121	0x3cb7724f	0.022393374
122	0xbd01d62b	-0.031698387
123	0xbc8849a8	-0.016636685
124	0xbab3ccd0	-0.0013717655
125	0xbd8bc4ae	-0.06824623
126	0xbd221c08	-0.039577514
127	0x3d808c6d	0.06276784
128	0x3d7acb57	0.061229076
129	0x3b9f2c15	0.00485755
130	0x3d4c4433	0.049869727
131	0x3d363845	0.044487257
132	0xbe2ffcd6	-0.17186293
133	0x3c93ee4d	0.018057967
134	0xbdddc438	-0.108284414
135	0x3c6d8e5c	0.014499273
136	0x3e491640	0.19637394
137	0x3c90119e	0.017586526
138	0x3e155252	0.14582184
139	0x3e6b352a	0.22969499
140	0x3d4a0196	0.04931792
141	0xbd2d999b	-0.042382818
142	0xbd9550c6	-0.07290797
143	0xbd27fdf0	-0.041013658
144	0xbdc333ca	-0.09531362
145	0xbc3d53f4	-0.0115556605
146	0xbddc5dc5	-0.107600726
147	0x3c916c46	0.017751824
148	0xbd9c333d	-0.076269604
149	0x39fa28b4	0.00047714042
150	0x3bb0ba45	0.005393299
151	0x3d1ccf6b	0.038283747
152	0x3e1003cf	0.14063953
153	0x3db06e40	0.086147785
154	0x3df2cd7a	0.11855598
155	0x3e644afc	0.2229423
156	0xbd8e51a4	-0.069491655
157	0x3d4a2186	0.049348377
158	0x3d10133e	0.0351746
159	0x3b290f3c	0.0025796434
160	0x3d8366f9	0.06416125
161	0xbbd0d78c	-0.0063733514
162	0x3daf575d	0.08561585
163	0xbb873bb2	-0.0041269893
164	0xbe13cde5	-0.14434011
165	0x3deec20b	0.116581045
166	0xbd93abd8	-0.07210511
167	0x3d9ffb8b	0.0781165
168	0xbd6355b3	-0.05550165
169	0xbd5c16d7	-0.05373272
170	0x3c9df621	0.019282402
171	0xb9ad75d8	-0.00033084932
172	0xbdb45972	-0.08806123
173	0xbb3a0039	-0.002838148
174	0xbd248723	-0.04016794
175	0x3e2a9c94	0.16661292
176	0xbc6b9a1a	-0.014380002
177	0x3e0810ea	0.13287702
178	0xbd92dafd	-0.07170675
179	0x3e0d1b51	0.13779952
180	0xbdbbecde	-0.09176038
181	0x3db5cff4	0.088775545
182	0xbd3e6da5	-0.046491284
183	0xbd01186e	-0.03151744
184	0x3d442222	0.047884114
185	0xbdaff067	-0.08590775
186	0x3c8b11b4	0.016976215
187	0x3cfc656f	0.030810086
188	0xbc850766	-0.01623888
189	0xbd0737d8	-0.03301224
190	0x3e2bddca	0.16783825
191	0xbd3bea07	-0.045877483
192	0x3d1b18d9	0.037865493
193	0xbd97b0c0	-0.07406759
194	0x3ca9857f	0.020693539
195	0xbd0e44bf	-0.03473353
196	0xbb66595d	-0.003514848
197	0xbbd7ac77	-0.0065818387
198	0xbd598bdb	-0.053111892
199	0xbdd22561	-0.10261036
200	0x3b2b757c	0.0026162555
201	0xbd549bd8	-0.051906437
202	0x3de49a7a	0.111622766
203	0xbd941617	-0.07230776
204	0x3d62cea7	0.05537286
205	0xbe10f18d	-0.14154644
206	0xbc85be8d	-0.016326213
207	0x3dc110dd	0.094270445
208	0xbda0d2a6	-0.07852678
209	0xbd2cc5a1	-0.04218066
210	0xbd916c4d	-0.07100735
211	0x3de26db5	0.11056081
212	0xbccf1b06	-0.02528144
213	0x3d9d9a4d	0.07695446
214	0xbdedbb23	-0.11607959
215	0x3e3d0e06	0.18462381
216	0xbd07b90b	-0.033135455
217	0xbbe0b83a	-0.006857899
218	0x3d9f0ac5	0.07765726
219	0x3da3ee05	0.08004383
220	0x3e19d0d4	0.15021068
221	0xbd6c73ca	-0.057727613
222	0x3dcd78e5	0.100328244
223	0xbca89d2b	-0.020582756
224	0xbd4b12d2	-0.049578495
225	0xbc8535bb	-0.016260972
226	0x3c019e9f	0.007911353
227	0xbe82ec89	-0.25571087
228	0xbdef2460	-0.1167686
229	0xbdf7aed2	-0.12093891
230	0x3de481b3	0.11157551
231	0x3cebb9e0	0.028775156
232	0x3d83d778	0.06437582
233	0x3dc3d4cd	0.09562073
234	0x3dceffe9	0.10107405
235	0x3d77eca9	0.06052843
236	0x3b10e8ce	0.0022111419
237	0xbd66f9c5	-0.056390543
238	0x3dd65873	0.10466089
239	0xbde96669	-0.11396486
240	0x3cdffb2f	0.027341453
241	0xbd4f8285	-0.050661582
242	0xbbbd8cf3	-0.0057846247
243	0x3e0641b1	0.13110997
244	0xbcbe0893	-0.023197448
245	0xbd94d5f3	-0.0726737
246	0xbd032520	-0.032017827
247	0xbd6147f1	-0.05500025
248	0x3d7a4810	0.06110388
249	0x3dbabbf6	0.09117882
250	0xb96386b9	-0.00021698595
251	0xbd4bf3c4	-0.04979302
252	0x3d8511a2	0.06497504
253	0x3d103d7c	0.035214886
254	0x3de26a1f	0.11055397
255	0x3d99f725	0.07517842
