results/CubeAgentZoneRay/CubeAgentZoneRay/CubeAgentZoneRay-97939.onnx (onnx, 80046 bytes, 8 tensors)

action_model._continuous_distribution.log_sigma f4 [1, 2]
0	0xbd630b33	-0.055430602
1	0x3cdd3efc	0.027007572

action_model._continuous_distribution.mu.bias f4 [2]
0	0x3c6918c4	0.014227096
1	0x3cf00f5b	0.029304197

action_model._continuous_distribution.mu.weight f4 [2, 128]
0	0xbcec3648	-0.028834477
1	0xbcccb91c	-0.02499061
2	0xbd23d114	-0.039994314
3	0x3c0b1bb8	0.008490495
4	0xbd5d5d1e	-0.05404388
5	0x3d999eec	0.07501015
6	0x3d6b3b3b	0.057429533
7	0xbcf35585	-0.029703865
8	0xbdd6946d	-0.10477529
9	0x3d00e540	0.03146863
10	0x3ddb4c3d	0.10707901
11	0xbd6f9ca2	-0.058498986
12	0x3db81b81	0.08989621
13	0x3e05807d	0.13037296
14	0x3d8a6d2e	0.067591056
15	0x3d9cd844	0.07658437
16	0x3d4d2267	0.050081637
17	0x3d8fa4aa	0.07013829
18	0x3caa1a9c	0.020764641
19	0xbd7f0d19	-0.06226835
20	0x3cb07f55	0.021545092
21	0xbd3fc700	-0.04682064
22	0x3d22cbf1	0.039745275
23	0xbcfcab7d	-0.03084349
24	0xbd828e0b	-0.06374749
25	0xbcebcfa9	-0.028785544
26	0x3c0f435f	0.00874409
27	0x3d808a36	0.06276362
28	0xbd3cdd25	-0.046109337
29	0x3dcd52b7	0.10025542
30	0xbd8d976c	-0.06913647
31	0x3d9d0528	0.07666999
32	0xbc3e331e	-0.011608867
33	0x3cf08c41	0.029363753
34	0xbdab4a2e	-0.08363758
35	0x3d68f1f1	0.05687136
36	0x3d90a795	0.07063214
37	0xbc4c5581	-0.012471558
38	0xbce69e44	-0.028151639
39	0xbcece248	-0.028916493
40	0xbd09950c	-0.033589408
41	0xbd0f6ebc	-0.035017714
42	0x3dbfa591	0.09357751
43	0xbdd36ebf	-0.103238575
44	0x3d6e5bde	0.05819308
45	0x3d39ec51	0.045391385
46	0x3bd76fd0	0.0065746084
47	0xbcf98b6a	-0.030461986
48	0x3d7ad935	0.0612423
49	0x3cd5681a	0.026050616
50	0xbd39920f	-0.045305308
51	0xbd13795f	-0.03600442
52	0xbc4a721f	-0.01235631
53	0x3a53485b	0.0008059793
54	0x3da47383	0.080298446
55	0x3caf1318	0.02137141
56	0xbbe1143d	-0.0068688677
57	0xbbcaa648	-0.006184373
58	0x3c7ee62f	0.01555781
59	0x3bef8052	0.007308998
60	0xbcaff99a	-0.021481324
61	0xbddb91ad	-0.10721145
62	0x3cd18604	0.025576599
63	0x3ddb2912	0.10701193
64	0x3d30ab9d	0.043132413
65	0x3d89598c	0.06706533
66	0xbd427498	-0.047474474
67	0x3d513374	0.05107446
68	0xbd8e5986	-0.06950669
69	0xbcfed84a	-0.031108994
70	0xbc007830	-0.007841155
71	0x3c1d1bf6	0.009589186
72	0x3c73c560	0.014878601
73	0xbd688420	-0.05676663
74	0x3da7d1d2	0.08194317
75	0xbc4184ff	-0.011811494
76	0x3db59b98	0.08867568
77	0x3d7d2e09	0.06181148
78	0xbbcbedb2	-0.006223404
79	0x3c876803	0.016529089
80	0x3d590091	0.052979056
81	0xbd738ef4	-0.059462503
82	0x3d6ac763	0.057319056
83	0x3cdf5758	0.027263328
84	0x3d60cd5d	0.05488335
85	0xbe09fec5	-0.13476093
86	0xbb2cfcb2	-0.0026395735
87	0xbd9cd26e	-0.07657324
88	0xbd66e486	-0.05637028
89	0xbc0439a5	-0.008070384
90	0xbd8f3153	-0.0699183
91	0xbc583776	-0.013196817
92	0xbce9d8a2	-0.028545681
93	0x3c242467	0.010018445
94	0xbd6a73b0	-0.057239234
95	0xbd8a3e8f	-0.06750213
96	0xbcf198b7	-0.029491765
97	0x3d04b6fc	0.03240107
98	0x3d9942d0	0.074834466
99	0xbda7e6bc	-0.08198306
100	0xbd282cfa	-0.041058518
101	0xbd13a379	-0.03604457
102	0x3d1017a8	0.03517881
103	0xbc076634	-0.008264113
104	0xbdbc0a9b	-0.0918171
105	0xbd47bbee	-0.048763208
106	0x3d008cee	0.0313844
107	0xbc2d8bf5	-0.01059245
108	0x3b0c57b0	0.002141457
109	0xbc2d821c	-0.0105901025
110	0xbd0029ea	-0.031289972
111	0xbb625326	-0.0034534424
112	0xbd4c581c	-0.049888715
113	0xbdb3ffe0	-0.08789039
114	0x3d18d33a	0.037310816
115	0xbcf0c894	-0.029392518
116	0xbd11e958	-0.035622925
117	0xbc880f1d	-0.01660877
118	0x3cd62fe0	0.026145875
119	0xbd2c1513	-0.042012285
120	0xbd32a28b	-0.043612044
121	0x3d20372b	0.039115112
122	0xbcf0d5d8	-0.029398844
123	0x3d084fb9	0.033279154
124	0xbda942ad	-0.082646705
125	0xbdad41ad	-0.08459792
126	0xbded9a0e	-0.11601649
127	0xbd12320b	-0.035692256
128	0xbb2c3c84	-0.0026281187
129	0xbd2beb49	-0.041972432
130	0x3dccbe4d	0.099972345
131	0xbd56d44e	-0.052448563
132	0xbd8d64bd	-0.0690398
133	0xbe03cbff	-0.12870787
134	0x3c6e00be	0.014526544
135	0x3d506adb	0.050883155
136	0xbc20b695	-0.009809156
137	0x3d8051ff	0.062656395
138	0xbd49b5c1	-0.0492456
139	0x3af9f7f2	0.0019071086
140	0xbd78ba62	-0.060724624
141	0xbbb46a03	-0.0055058016
142	0xbdc12b10	-0.09432042
143	0x3b78e68b	0.0037979211
144	0xbd5a64ea	-0.053318895
145	0xbcd9b46b	-0.026575288
146	0xbd4fbbef	-0.050716337
147	0x3c8322cc	0.016007803
148	0xbd036314	-0.03207691
149	0xbd655b7a	-0.055995442
150	0x3d403fcc	0.04693584
151	0x3c0a1319	0.008427405
152	0x3ced590e	0.028973129
153	0x3d5970ba	0.05308602
154	0xbdc0f085	-0.094208755
155	0xbd6bf034	-0.057602122
156	0x3cc43695	0.023951808
157	0xbd7d924c	-0.061907098
158	0xbac52381	-0.0015040488
159	0x3bdb3c5a	0.006690544
160	0xbca3bf80	-0.019988775
161	0xbd889d47	-0.06670623
162	0x3d357467	0.044300463
163	0xbda61dde	-0.081111655
164	0xbda168d2	-0.07881321
165	0xbc41d040	-0.011829436
166	0xbd661880	-0.05617571
167	0x3da22dc5	0.07918886
168	0xbb893f3c	-0.0041884463
169	0xbbb0c7aa	-0.0053948956
170	0xbd124fb7	-0.035720553
171	0x3c257989	0.010099777
172	0xbcb4792f	-0.022030441
173	0x3cefb64a	0.029261727
174	0xbd4fd251	-0.050737683
175	0xbc9babee	-0.01900288
176	0xbdeb1a97	-0.11479681
177	0xbda5f9ef	-0.08104312
178	0xbc7387da	-0.0148639325
179	0x3d8cc21e	0.068729624
180	0x3d1cb1a7	0.03825536
181	0xbd458b34	-0.048228458
182	0xbc954bc1	-0.018224599
183	0xbda60749	-0.08106858
184	0xbcf5974b	-0.029979369
185	0x3d4bf176	0.049790822
186	0xbbeafb9e	-0.0071711084
187	0x3da33c3d	0.07970474
188	0x3d9c4631	0.076305754
189	0x3c0b6d2b	0.008509914
190	0x3d96061e	0.073253855
191	0xbd859596	-0.06522672
192	0x3d76fbb4	0.060298637
193	0xbd943059	-0.07235784
194	0xbd655ba9	-0.055995617
195	0xbd71bf40	-0.05902028
196	0x3d3aa98c	0.04557185
197	0x3d8c77ae	0.068587646
198	0xbcd2c38e	-0.025728013
199	0x3c921bdd	0.017835552
200	0x3d165ab7	0.036707606
201	0xbd262889	-0.040566
202	0xbc904ae2	-0.017613832
203	0x3d83d5e5	0.064372815
204	0x3d17565b	0.03694759
205	0x3d29e150	0.04147464
206	0x3aa67d5c	0.0012702155
207	0x3da2fb6f	0.079581134
208	0xbd868d68	-0.0656994
209	0xbd4e646c	-0.05038874
210	0xbd1d5896	-0.03841456
211	0x3d00060c	0.031255767
212	0xbc54c225	-0.012985741
213	0x3d609d1e	0.05483734
214	0xbd6b82d8	-0.05749783
215	0xbc8a3f93	-0.016876018
216	0x3ca9443a	0.020662416
217	0x3d21a6a6	0.03946557
218	0xbd5b96a1	-0.053610448
219	0x3dbb296d	0.09138761
220	0x3dc7cbf5	0.097556986
221	0xbbd890cd	-0.0066090585
222	0xbc889d62	-0.016676608
223	0xbc80863a	-0.015689004
224	0xbbd68984	-0.006547155
225	0xbd48ef07	-0.04905608
226	0xbca5759c	-0.020197682
227	0x3c2c15a9	0.010503211
228	0x3d77873a	0.060431696
229	0x3c976b0c	0.018483661
230	0xbd5ff43d	-0.054676283
231	0x3d6eeeb7	0.058333125
232	0x3ae96215	0.001780572
233	0x3d990c65	0.07473067
234	0x3d3d3144	0.04618956
235	0xbd461e01	-0.048368458
236	0x3d34050f	0.043950137
237	0xbd147285	-0.036242027
238	0x3cb4f1a7	0.022087885
239	0xbd691eb5	-0.05691405
240	0xbda67ac2	-0.08128883
241	0xbc25326c	-0.010082822
242	0xbd97de0a	-0.074153975
243	0xbcdf1da8	-0.02723582
244	0x3aef46be	0.0018255336
245	0x3c761bd8	0.015021287
246	0x3d7cc0fe	0.06170749
247	0xbce03b16	-0.027371924
248	0x3cca1766	0.02466936
249	0x3cb4cc81	0.022070171
250	0x3cda4aae	0.026646938
251	0xbdafe10c	-0.08587846
252	0xbd8949cb	-0.06703528
253	0x3c0ee85b	0.00872239
254	0x3c9b609a	0.018966962
255	0xbcfc808f	-0.03082302

action_model._discrete_distribution.branches.0.weight f4 [1, 128]
0	0xbba7620f	-0.005108125
1	0x3a25f3da	0.0006330587
2	0x3be2deca	0.006923531
3	0xbbb6a050	-0.00557331
4	0xbbdc8bf3	-0.0067305504
5	0xbca210cf	-0.019783406
6	0xbc21484f	-0.0098439
7	0x3ad9cd2b	0.0016616931
8	0x39be8537	0.00036338877
9	0x3bc74e19	0.006082308
10	0x3952e1ca	0.00020111274
11	0xbbe77f50	-0.0070647374
12	0x3bc74ee3	0.006082402
13	0xbc43af67	-0.011943675
14	0xbb157b23	-0.002280899
15	0x3c6500dd	0.013977257
16	0x3b24c20f	0.0025140082
17	0x3bbbb167	0.005727935
18	0x3c34dbff	0.011038779
19	0xbb9805a2	-0.0046393434
20	0x3b0872f5	0.0020820473
21	0x38b2b800	8.521974e-05
22	0xbc29d3dd	-0.010365454
23	0x3b8e1de7	0.0043370607
24	0xbba1a8b3	-0.0049334406
25	0xbc9a25c8	-0.018816844
26	0x3baf2e77	0.005346115
27	0xbc409c47	-0.011756009
28	0x3ba5bfaf	0.005058251
29	0xb9664b6f	-0.0002196261
30	0xbc054a17	-0.00813534
31	0xbbb8c48b	-0.005638664
32	0xbabe240b	-0.0014506591
33	0x3c2258a3	0.009908828
34	0xb832f4cc	-4.2666492e-05
35	0xba8819d6	-0.0010383676
36	0x3c0d90ef	0.008640512
37	0xbc778a7d	-0.015108702
38	0xbbbaa456	-0.00569586
39	0xbbecb352	-0.007223525
40	0x3b3b0b7c	0.002854078
41	0x3ae7ab55	0.0017674962
42	0x3b30cf87	0.0026979165
43	0x3bddc65b	0.0067680306
44	0x3bfda538	0.007740643
45	0xbc3782bb	-0.011200602
46	0x3b174ee7	0.00230878
47	0xbc08e377	-0.008355013
48	0x3c360aed	0.011111003
49	0x3b4f4c62	0.003163122
50	0xbae82cd0	-0.001771355
51	0xb9704eb5	-0.00022917504
52	0xbbff0eb3	-0.0077837347
53	0xbba146a0	-0.0049217492
54	0xbc91569b	-0.017741492
55	0x3be2098d	0.006898111
56	0xbc17135d	-0.009220925
57	0xbaaa7d3e	-0.0013007296
58	0x3b4f11f7	0.0031596401
59	0x3bb8d7af	0.005640946
60	0x3b1cb035	0.0023908739
61	0xbb5130a2	-0.0031919857
62	0x3c0d06df	0.008607595
63	0x390cda7b	0.00013432831
64	0xb85db15a	-5.2855677e-05
65	0x3b04a74f	0.0020241325
66	0xbc3a47d3	-0.011369663
67	0x3a92fbbe	0.0011213941
68	0x3b3f6c3e	0.0029208804
69	0xbbe40d6d	-0.0069596083
70	0xbc01a933	-0.007913875
71	0xba8cbb46	-0.0010736964
72	0xbba61cc0	-0.0050693452
73	0x3c67861a	0.014131093
74	0x3bd0fd17	0.006377827
75	0xbc1b3abb	-0.009474452
76	0x3b9b2823	0.0047350093
77	0x3b283139	0.0025664105
78	0xbb4fb64b	-0.0031694348
79	0x3b956fb6	0.004560436
80	0x3be3c15b	0.00695054
81	0xb99d9a3e	-0.00030060293
82	0xbb1d4f48	-0.0024003554
83	0x3c9bac4d	0.019003058
84	0x3b0629e9	0.0020471758
85	0x3a096808	0.0005241637
86	0xb991ec06	-0.00027832406
87	0x3b9cbd3f	0.004783302
88	0xbc22eb97	-0.009943864
89	0x3bd94787	0.006630841
90	0xbb39598f	-0.002828214
91	0x3bbb30a3	0.005712585
92	0x3bbc676a	0.0057496326
93	0xbc00a704	-0.00785232
94	0x3be0aa22	0.006856219
95	0x3bb6c8a3	0.005578117
96	0xbb3a8d02	-0.0028465395
97	0xbc83a433	-0.016069507
98	0xbc3bcdd1	-0.011462645
99	0xbbc7deda	-0.006099564
100	0x3b92a96b	0.0044757626
101	0x3bff4918	0.007790696
102	0xba1dfeff	-0.0006027072
103	0xbb34d887	-0.002759488
104	0xbbbfc7ab	-0.0058526597
105	0xbb8378e5	-0.0040122145
106	0xbbe2b5dd	-0.0069186524
107	0xbc1ff547	-0.0097630685
108	0x3b8ed8c8	0.0043593384
109	0xbbd914c8	-0.006624792
110	0x3b84be9f	0.004051044
111	0x3b5ae878	0.0033402722
112	0xbb8482f5	-0.0040439316
113	0xbc5ed2a3	-0.013600024
114	0xb903a2e3	-0.00012553814
115	0xbca38b9e	-0.019964036
116	0x36aca8d7	5.145655e-06
117	0x3c23337e	0.009961007
118	0x3a4fdc75	0.0007929274
119	0x3c100c93	0.00879206
120	0x3ab0eb04	0.0013497774
121	0xbc1ff31c	-0.009762552
122	0xbc9c1a36	-0.019055467
123	0xb887ca80	-6.47502e-05
124	0xbc24d633	-0.010060835
125	0xbbda407b	-0.0066605187
126	0xbbce1fab	-0.006290396
127	0x3c377533	0.011197376

network_body._body_endoder.seq_layers.0.bias f4 [128]
0	0x3ca02e74	0.0195534
1	0xbd585d4c	-0.05282335
2	0x3d3b92b2	0.045794196
3	0x3cd2784f	0.025692133
4	0xbbd62952	-0.0065356875
5	0xbd311c60	-0.04323995
6	0xbd81744b	-0.06321009
7	0x3d7fb64f	0.062429722
8	0xbb411358	-0.0029460993
9	0x3d22c3e6	0.039737605
10	0xbd8fb1a9	-0.07016308
11	0xbcd8d0b6	-0.026466709
12	0xbc237e5f	-0.00997886
13	0xbd53e3c8	-0.0517309
14	0x3c4f5af8	0.012655966
15	0xbcb80fd6	-0.022468489
16	0x3ccca432	0.024980638
17	0x3a86f2f8	0.0010295799
18	0xbd623c3b	-0.05523322
19	0xba28eda3	-0.0006444102
20	0xbd4f63c6	-0.05063226
21	0xbc11d895	-0.008901735
22	0x3c7a0e47	0.015262193
23	0xbd19d4b4	-0.037556365
24	0x3ba23be0	0.0049509853
25	0xbcc7a2c6	-0.024369609
26	0xbc5da362	-0.013527723
27	0x3c822890	0.015888482
28	0xbd43c0fe	-0.047791474
29	0x3d3b62ed	0.04574864
30	0x3c55b336	0.0130432155
31	0xbcb4eb03	-0.022084719
32	0x3cc3d613	0.02390579
33	0x3ce70686	0.028201353
34	0x3c689184	0.01419485
35	0x3cf1b080	0.029503107
36	0x3d0ae1d5	0.033906776
37	0x3c54e1f7	0.012993327
38	0xbd4b7dd9	-0.049680565
39	0xbc825346	-0.015908848
40	0x3d6ec217	0.058290567
41	0x3c0b15eb	0.008489112
42	0xbd2fe0ca	-0.042938985
43	0x3da52841	0.080643184
44	0x3d2a39db	0.04155908
45	0x3c8b4bc0	0.017003894
46	0xbb850727	-0.0040596905
47	0x3bea8cbd	0.0071578906
48	0x3c15fda3	0.00915471
49	0xbc6707b3	-0.014100957
50	0xbdbe87c4	-0.09303239
51	0xbd2ce4df	-0.042210456
52	0x3c3c20f7	0.011482469
53	0x3ce18906	0.027531158
54	0x3c760553	0.015015918
55	0xbd0a6687	-0.033789184
56	0x3cc2a653	0.02376095
57	0xbba9258f	-0.005161948
58	0x3c1676cb	0.009183596
59	0x3c39faf8	0.0113513395
60	0x3cb7a8bf	0.022419332
61	0x3c89953a	0.01679479
62	0x3bba1cea	0.0056797164
63	0x3c5ef7ad	0.013608855
64	0x3b825226	0.003977078
65	0xbd01d40f	-0.031696375
66	0x3c35bd80	0.011092544
67	0xbb26900b	-0.0025415446
68	0xbbe5e219	-0.0070154783
69	0xbd472cc4	-0.048626676
70	0x3b123a5e	0.0022312622
71	0x3db07ce3	0.0861757
72	0xbc5cb8b8	-0.013471775
73	0x3d216707	0.039404895
74	0x3ce49b9c	0.027906232
75	0x3c5225a7	0.01282636
76	0x3cc0ce86	0.023535978
77	0x3d0f4fa7	0.03498807
78	0xbd4475d5	-0.047963936
79	0x3cc68b8f	0.024236469
80	0x3ab78054	0.0014000037
81	0xbd2429b0	-0.04007882
82	0xbba54fec	-0.005044928
83	0xbc227aba	-0.009916956
84	0xbc2c0740	-0.010499775
85	0x3b9614c8	0.004580114
86	0xbcbbe780	-0.022937536
87	0x3cb3ccb2	0.021948192
88	0xbd371014	-0.044693068
89	0x3d161a06	0.03664591
90	0x3c1bae48	0.009502001
91	0xbc9a2a65	-0.018819043
92	0x3d9c6052	0.07635559
93	0x3cb4aff9	0.022056567
94	0xbcb57b6d	-0.02215358
95	0xbc953a28	-0.018216208
96	0xbcabd045	-0.020973334
97	0xbb523144	-0.0032072822
98	0x3bec7084	0.0072155613
99	0xbc089c7d	-0.008338091
100	0xbc4238ad	-0.011854333
101	0x3ce0d07b	0.027443161
102	0xbcb958fa	-0.022625435
103	0xbd3405c6	-0.04395082
104	0x3c1e232a	0.009651938
105	0xbc1600b6	-0.009155443
106	0xbcbeccee	-0.023291077
107	0x3b307931	0.0026927704
108	0xbc2cdb1a	-0.010550285
109	0x3d3066fd	0.043066967
110	0x3cfe51d9	0.031044887
111	0x3bcdb03a	0.0062771114
112	0x3d10a7de	0.03531634
113	0x3d302407	0.04300311
114	0xbc48d721	-0.012258322
115	0xbd2507c1	-0.040290598
116	0xbc4860ce	-0.012230111
117	0xbc166bb0	-0.009180948
118	0xbc876b64	-0.0165307
119	0x3d0d1f10	0.03445345
120	0x3d99c0e8	0.07507497
121	0x3c90107e	0.01758599
122	0x3c8e3cfd	0.017363066
123	0xbcef057b	-0.029177418
124	0xbc2e3aad	-0.010634107
125	0xbcfdd589	-0.03098561
126	0x3d0a8aa8	0.03382364
127	0x3ce3e057	0.027816935

network_body._body_endoder.seq_layers.0.weight f4 [128, 17]
0	0xbeb5492f	-0.35407397
1	0x3f00d94a	0.50331557
2	0x3e6f6e1e	0.2338185
3	0x3e5f3353	0.21796922
4	0x3e55a722	0.20864537
5	0xbdbf11ef	-0.093295924
6	0x3e9f922e	0.31166214
7	0xbe8a7f52	-0.27050263
8	0x3e6b7922	0.22995427
9	0x3e033014	0.12811309
10	0xbe56f37a	-0.20991316
11	0xbf3f93cf	-0.74834913
12	0x3e786936	0.24258885
13	0xbe05b565	-0.13057478
14	0xbd01ad02	-0.031659134
15	0xbbff7a8c	-0.007796591
16	0xbf04d06a	-0.51880515
17	0x3ef375da	0.4755085
18	0xbecb17ad	-0.396665
19	0xbe3f6ea6	-0.18694553
20	0x3e5e78c9	0.21725763
21	0xbd9ec687	-0.0775271
22	0x3e5c47c1	0.21511747
23	0xbe5010bc	-0.20318884
24	0x3d7fd621	0.06246007
25	0xbd9c30d2	-0.07626499
26	0xbdac3f0d	-0.084104635
27	0x3e147437	0.14497457
28	0x3d70fac8	0.058832914
29	0x3ee42ddd	0.4456624
30	0xbf15a01f	-0.5844745
31	0x3e1c0097	0.152346
32	0xbe85793e	-0.26069063
33	0xbe491f88	-0.19640934
34	0x3e90f9b7	0.28315517
35	0xbe3d18bd	-0.18466468
36	0x3d76bd2f	0.060239013
37	0xbb4ea000	-0.0031528473
38	0x3edee1e6	0.43531722
39	0x3e94401a	0.28955156
40	0xbf23d3d0	-0.63995075
41	0xbeaed960	-0.3415022
42	0x3ebcd945	0.36884513
43	0xbea70945	-0.3262426
44	0xbe361390	-0.177809
45	0x3ea40c4d	0.32040635
46	0x3d5be685	0.053686637
47	0xbe1895bc	-0.14900869
48	0x3c93c647	0.018038882
49	0x3e4be88d	0.1991293
50	0xbe3a8ea6	-0.18218479
51	0x3e6cf697	0.23140942
52	0xbe3b3350	-0.18281293
53	0x3ef454e7	0.47721025
54	0xbe350c03	-0.17680363
55	0xbe164be7	-0.14677392
56	0x3e05f6bb	0.13082401
57	0xbc39cda2	-0.011340531
58	0xbd9d89e0	-0.07692313
59	0xbe803ea7	-0.250478
60	0xbf169b33	-0.58830565
61	0xbd833aa0	-0.06407666
62	0x3db98824	0.0905917
63	0xbe440933	-0.19144134
64	0x3ce0dca0	0.027448952
65	0xbb1c4c04	-0.002384902
66	0x3e86cefe	0.26329798
67	0xbe914674	-0.28374064
68	0x3e3e9938	0.18613136
69	0xbd38e465	-0.04513969
70	0xbd8246c6	-0.06361155
71	0x3e1ad635	0.15120776
72	0xbe919bae	-0.28439087
73	0x3e6a0efd	0.2285728
74	0x3e4227f2	0.1896055
75	0x3e1dd711	0.15414073
76	0x3f1d08e5	0.61341697
77	0xbe7ad2c7	-0.24494468
78	0x3da7b3b0	0.081885695
79	0x3e4548f5	0.19266112
80	0xbe6266d6	-0.22109541
81	0xbe745dab	-0.23863856
82	0x3dabab68	0.083823025
83	0xbe06b1eb	-0.13153808
84	0xbe322f2a	-0.17400804
85	0x3dc740f4	0.09729186
86	0x3f207f0e	0.6269387
87	0xbe8c876c	-0.2744707
88	0x3e416d42	0.18889335
89	0xbed6c022	-0.4194346
90	0xbee325c3	-0.44364747
91	0xbeedc59e	-0.46439832
92	0x3ee11197	0.43958732
93	0xbe015787	-0.12631045
94	0x3d6ca75d	0.057776798
95	0xbd2d6481	-0.042332176
96	0xbb144293	-0.002262269
97	0xbf1e8cd8	-0.6193366
98	0x3e68c9ef	0.22733282
99	0xbe877f3d	-0.26464263
100	0xbef748fe	-0.48297876
101	0xbe7032c5	-0.23456867
102	0xbeda5603	-0.42643747
103	0xbe0a781c	-0.1352238
104	0xbf1869a8	-0.5953622
105	0x3db2fb2d	0.08739314
106	0xbeaf9e4f	-0.34300467
107	0x3e004bf3	0.12528972
108	0x3e850258	0.2597835
109	0x3d80b5e7	0.06284695
110	0x3e722987	0.23648654
111	0x3d267615	0.040639956
112	0xbe484e19	-0.19561042
113	0xbdde5d79	-0.10857672
114	0x3d71192a	0.05886189
115	0xbd8a6e3a	-0.06759305
116	0x3e46c3f4	0.19410688
117	0x3e61df1f	0.2205777
118	0xbe31ea60	-0.17374563
119	0xbe944bdd	-0.2896413
120	0x3e3ddec6	0.18542013
121	0xbee10656	-0.43950146
122	0x3d7ca496	0.0616804
123	0x3e82adbf	0.25523183
124	0x3e908568	0.2822678
125	0xbeda4d74	-0.42637217
126	0xbd55ec82	-0.052227505
127	0x3eb0e2eb	0.34548125
128	0x3da8e1a9	0.08246166
129	0x3e58dddc	0.21178383
130	0xbee3cee5	-0.44493786
131	0xbf260f16	-0.6486677
132	0x3e6f2309	0.23353209
133	0x3e9f02a7	0.3105671
134	0x3e8b9f88	0.2727015
135	0xbd962eb6	-0.07333128
136	0x3e77b19d	0.24188848
137	0x3d2ab765	0.041678805
138	0x3ebff9cb	0.37495264
139	0x3e867b79	0.26266077
140	0x3dc22437	0.09479564
141	0x3e7359ca	0.2376472
142	0x3d955dd2	0.072932854
143	0xbee7109d	-0.45129862
144	0x3d52ab9f	0.051433202
145	0x3ea01da4	0.31272614
146	0xbf09461c	-0.53622603
147	0xbdc555dd	-0.09635518
148	0xbe5543e9	-0.20826687
149	0x3e8159f4	0.2526394
150	0xbda3e99e	-0.08003543
151	0xbe6569ea	-0.22403684
152	0xbdac2532	-0.08405532
153	0x3c863392	0.016382013
154	0xbdb7cb90	-0.08974373
155	0x3ebcc1f6	0.3686673
156	0x3e867a82	0.2626534
157	0x3de4d6fd	0.11173818
158	0x3ec1f9c9	0.37885883
159	0xbed9efd9	-0.42565802
160	0xbea894b6	-0.32925957
161	0x3d5e2169	0.05423108
162	0x3d8b91ba	0.068149045
163	0x3c79dc28	0.015250243
164	0xbe193c9e	-0.1496453
165	0xbec5a3ca	-0.38601524
166	0xbe2fbb1f	-0.17161225
167	0x3e12977c	0.14315599
168	0x3e7da8f7	0.24771486
169	0x3e094cd8	0.1340822
170	0x3d9dbdb3	0.07702198
171	0xbe206f84	-0.1566754
172	0x3eb07ba6	0.34469336
173	0xbe482e62	-0.19548944
174	0xbee365c4	-0.4441358
175	0xbe86df0a	-0.2634204
176	0xbdbaf9c1	-0.09129668
177	0x3e15f0f0	0.14642692
178	0xbdba8381	-0.09107114
179	0xbdc08cb5	-0.09401838
180	0x3ecba7d6	0.39776486
181	0xbe8e61d9	-0.27809027
182	0xbdccf2f5	-0.10007278
183	0x3e4580af	0.1928737
184	0xbda62542	-0.08112575
185	0xbc1e4af6	-0.009661427
186	0xbf28dd0d	-0.65962297
187	0x3ed3c3b0	0.41360235
188	0x3e495abc	0.19663519
189	0x3e497395	0.19672997
190	0xbde92618	-0.11384219
191	0xbe1e84a3	-0.15480284
192	0xbe53ca5f	-0.20682667
193	0x3d021022	0.031753667
194	0x3e20e589	0.1571256
195	0xbe8066a0	-0.25078297
196	0xbd771075	-0.06031843
197	0xbe8b86ba	-0.27251226
198	0xbe649f9b	-0.2232651
199	0x3e2f6d78	0.17131603
200	0xbe53beff	-0.20678328
201	0x3e4f70ad	0.20257826
202	0xbe2b0242	-0.1670008
203	0x3e5514fe	0.20808789
204	0x3f0a1643	0.5394022
205	0xbd3f0d97	-0.04664382
206	0x3e0d6c0a	0.13810745
207	0x3e057b04	0.13035208
208	0xbd128603	-0.035772335
209	0x3eb3b796	0.35101002
210	0xbed1bd1b	-0.4096459
211	0xbd57e19f	-0.052705403
212	0x3eb4f974	0.35346568
213	0x3e9b0355	0.3027598
214	0xbea0e8d8	-0.31427646
215	0xbe754e6c	-0.23955697
216	0x3e807598	0.25089717
217	0xbeb78c72	-0.3584934
218	0x3df58869	0.11988909
219	0xbe2849dc	-0.16434425
220	0xbecafd73	-0.3964649
221	0x3dfd0fe1	0.12356544
222	0x3e36d907	0.17856227
223	0xbe551da5	-0.2081209
224	0xbcbd3ca2	-0.023100201
225	0xbe07d914	-0.13266402
226	0x3e14c4d0	0.14528203
227	0xbc02fe97	-0.007995269
228	0xbe630434	-0.22169572
229	0xbe08a2ac	-0.13343304
230	0x3e679925	0.22617014
231	0x3c86c631	0.016451927
232	0xbe39a726	-0.18130168
233	0xbe961c7d	-0.2931861
234	0xbdf01c78	-0.1172418
235	0x3ec974b6	0.39346856
236	0xbe95fb2d	-0.29293194
237	0xbe9e0ae0	-0.30867672
238	0xbe2622f7	-0.16224276
239	0x3ec23df5	0.37937894
240	0xbd8acf1e	-0.06777786
241	0xbdda13cb	-0.106483065
242	0x3ec30346	0.38088435
243	0xbeb878a0	-0.3602953
244	0xbdc36575	-0.09540836
245	0x3db0893a	0.08619924
246	0xbe5b03d1	-0.21388175
247	0xbe2941c6	-0.16528997
248	0xbcf7a87e	-0.03023171
249	0x3c422cdb	0.011851515
250	0x3f426c9b	0.7594697
251	0x3de90f73	0.113799
252	0xbeaef0aa	-0.34167987
253	0x3dee3e55	0.11632983
254	0xbe15c99d	-0.1462769
255	0xbcd84f3c	-0.02640497

network_body._body_endoder.seq_layers.2.bias f4 [128]
0	0xbcb280a6	-0.02178986
1	0xbc1d2561	-0.009591431
2	0x3d330ae9	0.043711577
3	0xbbbd8e8d	-0.0057848156
4	0x3c51fb09	0.012816199
5	0x3d1d5188	0.038407832
6	0x3cf05fe6	0.029342603
7	0x3be558b6	0.0069991006
8	0x3cdf250b	0.027239343
9	0x3d059cb1	0.032620136
10	0x3c9f2132	0.019425008
11	0x3cc0ac3f	0.023519633
12	0x3cf12d7d	0.029440636
13	0x3d3aa6fa	0.045569398
14	0x3d0f9f2f	0.03506392
15	0x3ca0d79d	0.019634062
16	0x3c3f77c6	0.011686271
17	0xbadb4917	-0.0016730156
18	0xbca40c64	-0.02002544
19	0xbc021d02	-0.007941486
20	0x3b0aadcb	0.0021160718
21	0xbb906a15	-0.004407177
22	0x3ccbdac8	0.024884596
23	0xbc0f2081	-0.008735777
24	0x3c9c37a3	0.019069498
25	0x3c86ce5e	0.016455825
26	0x3bf3c913	0.0074397414
27	0x3d42d4be	0.047566168
28	0x3c40e372	0.011772977
29	0x3d0beb72	0.034160085
30	0xbc171272	-0.009220706
31	0x3ce12932	0.027485464
32	0xbc5e64e9	-0.013573864
33	0x3cbf8285	0.023377666
34	0x3d3ac72b	0.045600098
35	0x3d17ffa0	0.037109017
36	0x3b29f7db	0.0025935087
37	0xbc8c1c59	-0.017103361
38	0xbbc28571	-0.0059363176
39	0x3d03aac5	0.03214528
40	0xbcd081aa	-0.025452454
41	0xbc450303	-0.012024644
42	0x3cf75b2c	0.030194841
43	0x3d194fa1	0.037429456
44	0x3c9d1080	0.019172907
45	0x3b84c230	0.0040514693
46	0xbc4eafc9	-0.012615153
47	0xbd1cb1c6	-0.038255475
48	0x3c3d0c8b	0.011538635
49	0x3cc67321	0.02422482
50	0xbc1b67df	-0.009485214
51	0x3d161a8e	0.03664642
52	0xbaca8cec	-0.0015453375
53	0x3c09f74e	0.008420778
54	0x3d3e8ce9	0.0465211
55	0x3cd541a0	0.026032269
56	0xbccc6f6f	-0.02495548
57	0x3ce317f2	0.027721379
58	0xbc851eb6	-0.016249996
59	0x3cc7e1cd	0.024399662
60	0x3cf6f0db	0.030144146
61	0x3a451612	0.00075182423
62	0x3d23e943	0.040017378
63	0x3acd5c7b	0.001566782
64	0x3d348412	0.044071265
65	0x3cef01e8	0.029175714
66	0xbcbda99d	-0.023152167
67	0x3aa1e2f7	0.0012350966
68	0x3d3e8376	0.04651209
69	0x3c2b1c13	0.010443705
70	0xbc82c137	-0.015961273
71	0x3c80c867	0.01572056
72	0x3c55f67b	0.013059254
73	0xbc8a7c6d	-0.016905034
74	0x3d5409e0	0.05176723
75	0x3c8971b7	0.016777856
76	0x3d502f2c	0.050826237
77	0x3d00c553	0.031438183
78	0xbc92d975	-0.017925957
79	0x3d0587b9	0.03260014
80	0xb86ed7b0	-5.6944496e-05
81	0xbc8fe37b	-0.017564526
82	0x3cc863aa	0.024461586
83	0x3c916a37	0.017750842
84	0x3c28c8ec	0.01030181
85	0x3cbcfe13	0.02307037
86	0x3c3c373b	0.011487777
87	0x3cc2b73c	0.023769014
88	0xba5f398d	-0.00085153506
89	0xbc2921aa	-0.010322968
90	0x3a116c1d	0.0005547421
91	0x3d43ca07	0.04780009
92	0x3c7631aa	0.015026489
93	0xbcaa743d	-0.02080738
94	0xbb2c9785	-0.002633543
95	0xbc31e572	-0.010857927
96	0xbcb6fb54	-0.02233664
97	0x3d033098	0.032028764
98	0x3cb2e110	0.021835834
99	0x3c832f0b	0.016013643
100	0x3d22da18	0.03975877
101	0xbba48b96	-0.0050215228
102	0xbba343a9	-0.004982431
103	0x3c8ef73f	0.01745188
104	0x3bae5ffe	0.0053215018
105	0x3c189bdc	0.0093145035
106	0x3cc8af05	0.024497518
107	0xba900d76	-0.001099034
108	0x3ccd9d4b	0.025099417
109	0xbc9d8fd9	-0.019233631
110	0x3b4415f0	0.0029920302
111	0x3c5fab2b	0.0136516495
112	0xbb803776	-0.0039128615
113	0xbcb7e607	-0.022448553
114	0x3b5ad40b	0.0033390548
115	0xbc81c022	-0.015838686
116	0xbcdf5905	-0.027264128
117	0x3c86d74f	0.016460089
118	0x3cdb58a2	0.026775662
119	0xbcb8b4e7	-0.022547198
120	0xbb878f09	-0.004136924
121	0x3b2b41dc	0.0026131785
122	0x3bf88b3f	0.007584959
123	0x3c8a0bd7	0.016851349
124	0xbc6c7c85	-0.014433985
125	0x3c171c8a	0.009223113
126	0x3cd07c33	0.025449848
127	0x3bc564a5	0.0060239607

network_body._body_endoder.seq_layers.2.weight f4 [128, 128]
0	0xbd4f42ad	-0.050600696
1	0xbab2b3e6	-0.0013633936
2	0xbdad9923	-0.08476474
3	0x3d543ada	0.051813938
4	0x3dd258f2	0.10270871
5	0x3c78a3e1	0.0151757905
6	0xbcd2d046	-0.025734078
7	0x3dabe887	0.083939604
8	0x3e517214	0.20453674
9	0xbd994ad7	-0.07484978
10	0x3d7884f0	0.060673654
11	0x3dd56f5f	0.10421633
12	0xbdacda51	-0.08440078
13	0xbdab2453	-0.08356538
14	0x3d040a3a	0.032236315
15	0x3c60894d	0.01370461
16	0x3c8e7787	0.01739098
17	0xbd4e4cd6	-0.050366245
18	0x3b9cd1c2	0.0047857473
19	0xbd850136	-0.064943716
20	0xbe240f10	-0.16021371
21	0x3d86399f	0.06553959
22	0x3d885239	0.06656308
23	0xbd42668d	-0.04746108
24	0xbdd8cd0c	-0.105859846
25	0x3da8c32e	0.082403526
26	0x3d4c105a	0.04982028
27	0x3dc21b46	0.09477858
28	0xbdaefe62	-0.085446134
29	0xbd13c769	-0.036078844
30	0xbd6e3b78	-0.058162183
31	0x3bf33c70	0.007422976
32	0x3bb4f532	0.0055223936
33	0x3da761b2	0.08172931
34	0x3e5af7cb	0.21383588
35	0x3dd00524	0.101572305
36	0x3cac4abf	0.021031735
37	0xbe96626a	-0.2937196
38	0xbcdecac4	-0.027196296
39	0xbc2ddc0c	-0.010611545
40	0xbda37c12	-0.07982649
41	0x3d32be33	0.04363842
42	0x3dc1a7e8	0.09455854
43	0xbda68f51	-0.08132804
44	0xbdb2ec48	-0.08736473
45	0xbe2922b3	-0.16517143
46	0x3d9f3c54	0.077751786
47	0xbd886659	-0.06660146
48	0xbdac9542	-0.08426906
49	0xbe2961bb	-0.16541187
50	0x3dc6a157	0.09698742
51	0x3dd7dbda	0.1053998
52	0x3e49e0ed	0.19714709
53	0x3ccc0258	0.024903461
54	0x3c8719a5	0.01649172
55	0x3cda15e6	0.02662177
56	0xba830215	-0.0009995127
57	0x3dc748b2	0.097306624
58	0xbdb1b09b	-0.08676263
59	0xbbcd69de	-0.006268724
60	0xbdf26852	-0.11836304
61	0x3cb10c08	0.021612182
62	0x3dc98745	0.09840254
63	0x3d580504	0.05273916
64	0xbdf1609f	-0.11786007
65	0xbdd0142e	-0.10160099
66	0x3cb6c371	0.02230999
67	0xbd6e9ccd	-0.058255006
68	0x3e22ef58	0.15911615
69	0x3cdfbbdc	0.027311258
70	0x3bc0a58d	0.00587911
71	0x3d305722	0.043051846
72	0x3e17b2a7	0.14814244
73	0x3d46f416	0.048572622
74	0xbc71403a	-0.014724785
75	0x3d6a8cca	0.057263173
76	0xbda58e92	-0.08083834
77	0x3dd601f7	0.104495935
78	0xbd846b2d	-0.06465755
79	0xbcebc334	-0.028779604
80	0xbdfe74b7	-0.12424605
81	0x3c1f33d8	0.00971695
82	0xbddb4cbf	-0.107079975
83	0xbd14d62f	-0.036337074
84	0xbdcdfeb8	-0.10058349
85	0xbdebcf9c	-0.11514208
86	0xbc2a2e1d	-0.010386971
87	0xbe00323b	-0.12519161
88	0x3d1e59be	0.038659804
89	0x3ce2c0df	0.027679859
90	0x3bbd77b0	0.00578209
91	0x3e14672d	0.14492483
92	0x3b0be717	0.0021347457
93	0xbd0de17f	-0.034638878
94	0xbd207d49	-0.03918198
95	0x3ae5f1c4	0.0017543365
96	0xbe40282f	-0.18765329
97	0x3df50704	0.11964229
98	0x3e1606cc	0.1465103
99	0xbe09b786	-0.13448915
100	0xbd893f87	-0.0670157
101	0x3d1cbeba	0.03826783
102	0xbc115b5c	-0.008871879
103	0x3de3278e	0.11091529
104	0xbda5dd32	-0.0809883
105	0x3de6c186	0.112673804
106	0xb983d783	-0.00025146836
107	0xbde676da	-0.11253138
108	0x3e066d57	0.13127647
109	0xbb0f78be	-0.0021892036
110	0xbd80ee4c	-0.062954515
111	0xbd5534f6	-0.05205246
112	0x3da6aaef	0.08138072
113	0x3d92b6b4	0.07163754
114	0xbd5e3146	-0.05424621
115	0x3cb76ed4	0.022391714
116	0x3ce57a80	0.028012514
117	0x3c074f76	0.008258691
118	0x3e31e692	0.17373112
119	0x3d235659	0.03987727
120	0xbdc72db8	-0.09725517
121	0xbe4bc858	-0.19900644
122	0x3d829c52	0.06377472
123	0x3c801547	0.015635146
124	0xbdd0375a	-0.101668075
125	0xbd567a8b	-0.05236296
126	0xbd256b25	-0.040385384
127	0xbe042b35	-0.12907107
128	0x3e380e8d	0.179743
129	0xbd19a5f0	-0.037511766
130	0xbd89ad4b	-0.06722506
131	0xbdbd1d8c	-0.09234151
132	0x3d4f2250	0.050569832
133	0x3d2f783f	0.042839285
134	0x3e95952e	0.29215378
135	0x3e720526	0.23634776
136	0xbc548c14	-0.01297285
137	0xbdbbfbbd	-0.09178875
138	0xbd70a1b3	-0.05874796
139	0x3dce44c3	0.10071709
140	0xbba45628	-0.0050151534
141	0x3d579647	0.05263355
142	0xbd9eec59	-0.077599235
143	0x3d454323	0.04815973
144	0xbc10a7c2	-0.008829059
145	0xbe0caaac	-0.13736981
146	0xbd869fcc	-0.065734476
147	0x3c7c0b8e	0.015383614
148	0x3dbdaaa7	0.09261065
149	0xbdab4d45	-0.08364347
150	0xbb792a7c	-0.0038019707
151	0x3b69936f	0.0035640856
152	0x3d89c28d	0.06726561
153	0x3db4acea	0.08822043
154	0x3c9c2741	0.019061686
155	0x3df80acb	0.121114336
156	0xbd3cf503	-0.0461321
157	0x3b458f99	0.0030145405
158	0xbd8239bc	-0.06358668
159	0xbd7d4e47	-0.06184223
160	0x3d4497f0	0.04799646
161	0x3bda4b04	0.0066617746
162	0x3dc8a4f2	0.09797086
163	0x3d0c9375	0.034320313
164	0x3e03561f	0.12825821
165	0xbe624c7c	-0.22099489
166	0x3dc0d513	0.09415641
167	0xbd3d50a9	-0.0462195
168	0x3d7b37c2	0.06133247
169	0x3dc2c295	0.0950977
170	0x3d46d894	0.04854639
171	0xbe25c0e2	-0.1618686
172	0x3d8b623b	0.06805845
173	0x3e083214	0.13300353
174	0x3e486294	0.19568855
175	0x3cc436bb	0.023951879
176	0xbc929c78	-0.017896876
177	0xbdb4a585	-0.08820633
178	0x3dc2bf89	0.09509189
179	0x3e87903f	0.2647724
180	0xbdb26dc9	-0.08712346
181	0x3d3a3717	0.045462694
182	0xbc71e5a9	-0.014764228
183	0x3dc0b566	0.09409599
184	0xbd635ce5	-0.055508513
185	0xbe192611	-0.14955927
186	0xbd6aeb4e	-0.05735331
187	0x3e84ceaf	0.25938937
188	0x3cb38d8d	0.021918083
189	0x3ce94a37	0.028477771
190	0xbde199bd	-0.110156514
191	0xbe28270c	-0.16421145
192	0xbe22a6d7	-0.15883957
193	0x3d4c6908	0.049904853
194	0xbc56ad91	-0.013102905
195	0xbd4c9aae	-0.0499522
196	0xbd0cfdf9	-0.034421895
197	0xbdc61a95	-0.09673039
198	0x3d4ced32	0.050030895
199	0xbbdbbd34	-0.0067059044
200	0xbd64280c	-0.055702254
201	0xbda0af16	-0.07845895
202	0x3dc45334	0.09586182
203	0x3db4aec5	0.08822397
204	0x3cb57f65	0.022155473
205	0x3df919b8	0.121631086
206	0x3e1687fd	0.14700313
207	0x3d1532a8	0.036425263
208	0xbd84d375	-0.06485645
209	0xbaee9b47	-0.0018204235
210	0x3d4afe5c	0.049558982
211	0x3da68d8c	0.08132467
212	0x3d9b7265	0.075901784
213	0xbe168ca4	-0.14702088
214	0x3d0e1bec	0.034694597
215	0xbdf1ec9b	-0.11812707
216	0x3db3f25a	0.08786459
217	0xbc26ef8c	-0.010188948
218	0x3c9889a6	0.018620323
219	0xbd4deb44	-0.050273195
220	0xbd9b11ba	-0.075717404
221	0x3d4cfbed	0.050044943
222	0x3d96e6e4	0.07368258
223	0x3d23f0b6	0.04002448
224	0x3cf3b920	0.02975136
225	0x3d264740	0.040595293
226	0x3d658a64	0.056040183
227	0x3d1680b5	0.03674384
228	0x3cd85d22	0.026411597
229	0x3e32ea2c	0.17472142
230	0x3e12a9c4	0.14322573
231	0x3d9be20c	0.076114744
232	0xbd514746	-0.051093362
233	0x3cec0681	0.028811695
234	0xbcc25f3a	-0.023727048
235	0x3d0e5365	0.0347475
236	0x3e0a7950	0.1352284
237	0x3d6ce25e	0.057833068
238	0xbdd02b89	-0.10164554
239	0xbde8bdbf	-0.11364316
240	0x3d5b87ba	0.053596236
241	0x3db195fc	0.086711854
242	0xbd66059d	-0.056157697
243	0x3c84da50	0.01621738
244	0xbe037e4e	-0.1284115
245	0x3d8248e1	0.06361557
246	0x3d36aa97	0.04459628
247	0x3d024abd	0.031809557
248	0x3d146add	0.036234725
249	0x3def736b	0.11691936
250	0xbd8145aa	-0.063121155
251	0xbe0bff4a	-0.13671604
252	0xbabd98fe	-0.0014465151
253	0xbc006fed	-0.007839185
254	0xbdf82032	-0.12115516
255	0xbbdf752b	-0.0068193874
