results/CubeAgentZoneRay/CubeAgentZoneRay/CubeAgentZoneRay-100006.pt (torch, 476943 bytes, 39 tensors)

network_body._body_endoder.seq_layers.0.weight f4 [128, 17]
0	0x3e33667d	0.17519565
1	0x3dd29795	0.10282818
2	0x3dbe4211	0.09289945
3	0xbe309502	-0.17244342
4	0x3e41a570	0.18910766
5	0xbded72e7	-0.115941815
6	0xbe847598	-0.25870967
7	0xbe757ce4	-0.23973423
8	0x3e426ee9	0.18987621
9	0x3f2e8e19	0.68185574
10	0xbcfcc1dc	-0.030854158
11	0xbea0e1c7	-0.31422254
12	0xbd83dbf7	-0.06438439
13	0x3dd00fd1	0.10159267
14	0x3b1cb373	0.002391067
15	0xbe9e8b0e	-0.30965465
16	0x3c50c0bc	0.012741264
17	0xbe1fd9ce	-0.1561043
18	0xbeca0258	-0.39454913
19	0x3e366951	0.17813613
20	0xbe526f5b	-0.20550291
21	0x3cff7850	0.0311853
22	0x3e0c540f	0.13703941
23	0x3e06017c	0.13086504
24	0xbdc60ab3	-0.096700095
25	0x3e37af43	0.17937951
26	0xbda1eb90	-0.07906258
27	0x3e952f20	0.29137516
28	0x3e4d2802	0.20034793
29	0x3f02dfaa	0.51122534
30	0xbc65634e	-0.014000727
31	0xbed4cec2	-0.41563994
32	0xbec76741	-0.38945964
33	0xbf154d12	-0.58320725
34	0x3e1dd255	0.15412267
35	0x3ea4ea7a	0.3221014
36	0x3eebb210	0.46034288
37	0x3cfb7fbf	0.030700563
38	0xbe878699	-0.26469877
39	0xbf177c99	-0.59174496
40	0xbebe9af3	-0.37227592
41	0x3d00ae27	0.031416085
42	0x3d0a88bb	0.033821803
43	0xbe801b23	-0.25020704
44	0xbe12ffc8	-0.14355385
45	0xbe41ee47	-0.18938552
46	0xbdf93d80	-0.12169933
47	0x3ea40e27	0.32042047
48	0x3e2a24dc	0.16615623
49	0x3e904ac4	0.28182042
50	0x3e9af453	0.3026453
51	0xbc2c4b54	-0.0105160065
52	0xbbf054f6	-0.007334347
53	0xbdb22423	-0.08698299
54	0xbd3d1c11	-0.046169344
55	0x3d4ef63a	0.05052779
56	0xbe150ae3	-0.14554934
57	0x3b9a20e8	0.0047036298
58	0x3ea6d8bb	0.32587227
59	0x3e2b981a	0.16757241
60	0x3e6b7773	0.22994785
61	0x3e37b33d	0.17939468
62	0xbde0f037	-0.10983317
63	0xbdb63abc	-0.088979214
64	0x3e3b90e2	0.18316987
65	0xbe806942	-0.25080305
66	0xbd3bde27	-0.045866158
67	0xbe5ad596	-0.21370539
68	0x3c3327b9	0.010934764
69	0xbd82896d	-0.06373868
70	0x3f3d8b99	0.74041134
71	0xbdc25ed5	-0.09490744
72	0xbe0f21fd	-0.13977809
73	0xbc866978	-0.016407713
74	0x3e250c13	0.16117887
75	0xbdd9ef07	-0.10641294
76	0x3e84dbcc	0.25948942
77	0xbe0cd6af	-0.1375377
78	0xbf13246d	-0.57477456
79	0x3d380a31	0.044931594
80	0x3eede7f1	0.4646602
81	0xbda47b77	-0.080313616
82	0x3e5aeee1	0.21380188
83	0xbd85185f	-0.06498789
84	0xbecfaba8	-0.4056065
85	0x3d4f7754	0.05065091
86	0x3e478c1c	0.19487041
87	0x3e2ac42f	0.166764
88	0x3dd54808	0.104141295
89	0x3e85ff4f	0.26171347
90	0x3e99c152	0.30030304
91	0xbdcc206d	-0.09967122
92	0xbdf1f820	-0.11814904
93	0x3e45537f	0.19270132
94	0x3efb3792	0.49065834
95	0xbe9480da	-0.29004556
96	0xbe6d6ec0	-0.23186779
97	0xbe286215	-0.16443665
98	0x3dad4dcc	0.08462104
99	0x3d7b5579	0.06136081
100	0xbc9fb3ae	-0.019494858
101	0x3ef4ad9e	0.4778871
102	0xbe71a30b	-0.23597352
103	0xbe11e419	-0.14247169
104	0x3ec23fd3	0.3793932
105	0xbe1275c5	-0.14302738
106	0x3dff8591	0.12476648
107	0x3ea13868	0.31488347
108	0x3f02119c	0.5080812
109	0xbd56e75e	-0.052466743
110	0x3ea45602	0.3209687
111	0xbf04d599	-0.51888424
112	0x3eb67012	0.35632378
113	0xbded444d	-0.11585293
114	0xbe850aad	-0.25984707
115	0xbdee5edf	-0.11639189
116	0x3d5a2156	0.053254448
117	0xbd8ef8e5	-0.069810666
118	0x3de893bd	0.11356304
119	0xbe0cfe04	-0.13768774
120	0xbd4fccad	-0.050732303
121	0xbda52672	-0.080639735
122	0x3e74ee56	0.23919043
123	0x3e36cccf	0.17851566
124	0xbee395d3	-0.44450244
125	0x3e3ee650	0.18642545
126	0xbef86998	-0.48518062
127	0xbee0d722	-0.43914133
128	0xbe87c5d5	-0.2651812
129	0xbec1ce39	-0.37852648
130	0x3db3b2d7	0.08774345
131	0x3de7309a	0.11288567
132	0xbdab7fe3	-0.08374002
133	0x3db8df48	0.090269625
134	0x3e57cb90	0.21073747
135	0xbdd06a56	-0.10176532
136	0xbdcce0d9	-0.10003824
137	0x3ec042d8	0.37550998
138	0x3c23cd1c	0.009997632
139	0xbc1b112b	-0.009464542
140	0x3d8479af	0.06468522
141	0xbce4d1d7	-0.02793209
142	0xbe3fcda5	-0.18730791
143	0xbda486c8	-0.0803352
144	0x3e4cf2e8	0.20014536
145	0x3eb876a6	0.36028022
146	0xbebc63c2	-0.3679486
147	0xbe85718e	-0.26063198
148	0x3e50d1ec	0.20392579
149	0x3db96932	0.090532675
150	0x3e99b9be	0.30024523
151	0xbe2e8fb7	-0.1704701
152	0xbed498ae	-0.41522735
153	0xbd9a0557	-0.0752055
154	0xbebb8f67	-0.36632845
155	0xbd8e07e6	-0.069351
156	0x3d184163	0.037171733
157	0x3dcdb55e	0.10044359
158	0xbec4dc2f	-0.38449237
159	0xbd603bf5	-0.05474468
160	0x3dbaa85a	0.09114142
161	0x3e2bd056	0.16778693
162	0x3e8c308c	0.27380788
163	0xbcdc2127	-0.026871277
164	0x3e3b4039	0.18286218
165	0xbe9739b3	-0.2953621
166	0x3eab50b2	0.33460003
167	0x3f1f7756	0.6229147
168	0x3e054d0e	0.13017675
169	0x3df2ab81	0.11849118
170	0x3cec03d6	0.028810423
171	0x3e06a20c	0.13147753
172	0xbd802b9a	-0.06258316
173	0xbe4e562f	-0.20150064
174	0x3da0a353	0.078436516
175	0xbe88040f	-0.26565596
176	0x3f299284	0.6623919
177	0x3e0df1dd	0.13861795
178	0x3dd96dd1	0.10616649
179	0xbecbc79b	-0.39800724
180	0x3f03923b	0.51395005
181	0x3e93f054	0.28894293
182	0x3e74b48a	0.23896995
183	0xbe02d312	-0.1277583
184	0x3ca456ef	0.020060984
185	0x3f043da3	0.5165655
186	0x3ca362d9	0.019944595
187	0x3e90185a	0.2814358
188	0x3cace35f	0.021104513
189	0x3cb44662	0.022006217
190	0x3e2f1e21	0.17101337
191	0xbf053e16	-0.5204786
192	0xbf0360c7	-0.51319546
193	0x3da9005b	0.08252021
194	0x3e0f72fd	0.14008708
195	0xbe4fc230	-0.2028892
196	0xbddedd2a	-0.108820274
197	0xbd2ba262	-0.041902907
198	0xbe4fd7c9	-0.20297159
199	0xbd361f2f	-0.044463333
200	0xbea79645	-0.32731834
201	0xbeb198b3	-0.34686813
202	0xbf07a191	-0.52980906
203	0xbe3e0f8f	-0.18560623
204	0xbd77c70e	-0.060492568
205	0xbe924988	-0.28571725
206	0xbe7b2249	-0.24524797
207	0x3ea08768	0.31353307
208	0x3d802671	0.06257332
209	0x3d8111b9	0.063022085
210	0xbe01bab1	-0.12668873
211	0xbd5d4e8c	-0.054029986
212	0xbdc942e6	-0.09827213
213	0xbc507cfd	-0.012725112
214	0xbe6e80bf	-0.232913
215	0x3e0576a1	0.13033535
216	0x3e36d0ae	0.17853042
217	0x3d179b1a	0.03701315
218	0xbdbaae33	-0.09115257
219	0xbefb6367	-0.49099275
220	0x3ea92633	0.33036956
221	0x3ec94f7c	0.39318454
222	0xbc52b156	-0.012859663
223	0x3dd41d9a	0.103572085
224	0xbe803b84	-0.25045407
225	0x3e2322e7	0.15931283
226	0x3e06e990	0.13175035
227	0x3c72cf98	0.014820002
228	0x3d54d547	0.05196121
229	0xbec4db38	-0.384485
230	0xbdeb5575	-0.11490909
231	0x3d392136	0.045197688
232	0x3f0b7fdf	0.5449199
233	0xbea8c604	-0.32963574
234	0xbe381f85	-0.17980774
235	0xbea2e931	-0.31818536
236	0x3e570abe	0.21000192
237	0xbe96c06f	-0.2944369
238	0xbef25906	-0.47333544
239	0xbf401556	-0.75032556
240	0xbe09bdef	-0.1345136
241	0x3e017694	0.1264289
242	0xbdc45381	-0.095862396
243	0x3ec03bf6	0.37545747
244	0x3d7ee481	0.062229637
245	0xbd5df69c	-0.054190263
246	0x3ea90127	0.33008692
247	0xbe225c39	-0.15855493
248	0x3ddecbd1	0.10878719
249	0x3e4595e0	0.19295454
250	0x3c6eec10	0.014582649
251	0xbecf8df6	-0.40537995
252	0xbe8b9fd2	-0.2727037
253	0x3c248655	0.010041793
254	0x3efc6b26	0.49300498
255	0x3e96f15b	0.29481015

network_body._body_endoder.seq_layers.0.bias f4 [128]
0	0x3d109695	0.035299856
1	0xbd242228	-0.040071636
2	0xbc21ad1c	-0.009867933
3	0x3d0eb4c7	0.03484037
4	0x3a1a9152	0.0005896288
5	0xbcb04b2f	-0.021520225
6	0x3c9a920d	0.01886847
7	0xbd9b96b9	-0.075971074
8	0x3d4fb2b7	0.050707545
9	0x3b960183	0.004577817
10	0x3d0e3043	0.034713995
11	0xbd1508f6	-0.0363855
12	0xbc6251f6	-0.013813486
13	0x3d82cd09	0.063867636
14	0x3bc1e727	0.005917448
15	0x3d02c56a	0.03192655
16	0xb985c796	-0.0002551644
17	0xbd282e7b	-0.041059952
18	0xbc5aded1	-0.013358788
19	0x3b83906a	0.004015018
20	0x3d0ad455	0.0338939
21	0xbbefdd5a	-0.0073200883
22	0xbd6b6b6b	-0.05747549
23	0x3d35516a	0.044267096
24	0x3c95313b	0.018211951
25	0x3db20ae2	0.08693482
26	0x3c03c2d1	0.008042053
27	0x3d34b645	0.04411914
28	0x3c09dddc	0.008414712
29	0x3bfee7e5	0.007779109
30	0xbd4f8cde	-0.05067145
31	0x3ccba32c	0.02485808
32	0x3d0b80dd	0.03405844
33	0xbd028bb3	-0.03187151
34	0xbc2b85d9	-0.0104689235
35	0xbcb8cf1f	-0.0225597
36	0xbcff307d	-0.03115105
37	0x3d04b117	0.03239545
38	0x3d329cbb	0.0436065
39	0xbbd39fac	-0.0064582434
40	0x3b56f94a	0.0032802396
41	0x3c1770f6	0.009243241
42	0x3d105ccf	0.03524476
43	0xbb7caa90	-0.0038553812
44	0xbc812ba6	-0.015767884
45	0xbd4440e0	-0.047913432
46	0xbc3a2247	-0.011360711
47	0x3d04a97e	0.032388203
48	0x3d351154	0.04420598
49	0xbc790572	-0.015199052
50	0x3c810e34	0.015753843
51	0xbc92aa96	-0.017903607
52	0x3ca80c7a	0.020513762
53	0x3cf72b7b	0.0301721
54	0xbd0891c3	-0.033342134
55	0x3cf48289	0.0298474
56	0xbd44913a	-0.04799006
57	0xbce60a64	-0.028081127
58	0x3b7fa689	0.0039009175
59	0xbce417d2	-0.02784339
60	0x3c9edbe3	0.01939196
61	0xbbaf7865	-0.0053549283
62	0xbcaef344	-0.021356232
63	0x3d4c1e23	0.049833428
64	0xbd086901	-0.033303265
65	0x3d0c2034	0.0342104
66	0x3d246d42	0.04014326
67	0xbbbf4280	-0.005836785
68	0x3d2662dc	0.040621623
69	0xbd1f3438	-0.03886816
70	0x3ccb5025	0.02481849
71	0xbca879b4	-0.020565845
72	0x3c04cac5	0.008104985
73	0x3be01832	0.006838822
74	0xbd41a17f	-0.047273155
75	0x3c2f7cf7	0.010710946
76	0x3d169f2d	0.036772896
77	0x3d540585	0.051763076
78	0x3da3d988	0.08000475
79	0x3c4610d2	0.012088971
80	0x3d1d9571	0.038472597
81	0x3d5c08ce	0.053719334
82	0xbbc957a8	-0.0061444826
83	0x3c956609	0.01823713
84	0xbc804c64	-0.015661426
85	0x3c155c36	0.009116223
86	0x3c2b4387	0.0104531115
87	0x3d9a0f81	0.075224884
88	0xbb23ad0c	-0.002497497
89	0x3d742e4a	0.059614457
90	0x3cb0f223	0.021599835
91	0xbd1adc62	-0.03780783
92	0x3d1e40fb	0.03863619
93	0x3ce18bc9	0.027532475
94	0x3d25090b	0.040291827
95	0x3c280171	0.01025425
96	0xbd23e592	-0.040013857
97	0x3c8d83b6	0.017274719
98	0x3b96e0aa	0.0046044188
99	0xbb9f0831	-0.0048532714
100	0xbbf076db	-0.0073383874
101	0x3c3ba4d1	0.0114528695
102	0xbd0798bf	-0.033104654
103	0x3c518577	0.012788168
104	0x3c8e6ae1	0.017384948
105	0x3d065e01	0.032804493
106	0x3cf9c5e5	0.030489871
107	0xbccd5ea7	-0.025069548
108	0x3bb9173f	0.005648523
109	0x3cb7c388	0.022432104
110	0xbd2c2deb	-0.04203598
111	0xbce23717	-0.02761416
112	0x3c9543f1	0.018220874
113	0x3d11ae7f	0.035566803
114	0x3d93dca0	0.07219815
115	0x3d437330	0.047717273
116	0xbd3ce0b3	-0.046112727
117	0x3d05ffbb	0.032714587
118	0xbc45b86f	-0.012067898
119	0x3dc9d375	0.09854785
120	0x3c4a5cad	0.012351197
121	0x3d223e4e	0.0396102
122	0xbc42bc9b	-0.011885787
123	0x3ba6a6aa	0.005085786
124	0x3cb9035e	0.022584613
125	0xbd65cdf4	-0.056104615
126	0xbcef5b28	-0.029218271
127	0xbd07b0e1	-0.03312767

network_body._body_endoder.seq_layers.2.weight f4 [128, 128]
0	0x3e3a3712	0.1818507
1	0xbc919b63	-0.01777429
2	0xbc90bc0b	-0.01766779
3	0xbd86dc73	-0.06585016
4	0xbce61a11	-0.028088601
5	0x3de15936	0.11003344
6	0xbdb90079	-0.09033293
7	0x3dcae8dd	0.099076964
8	0x3e996854	0.2996241
9	0xbc2fd136	-0.010731032
10	0x3cd0a11e	0.025467452
11	0xbe457b03	-0.19285206
12	0xbe088377	-0.133314
13	0xbd8f79f1	-0.0700568
14	0x3e1d11a8	0.15338767
15	0x3d5f4c28	0.054515988
16	0xbde567aa	-0.11201413
17	0x3dad115d	0.084505774
18	0x3dccc931	0.09999312
19	0xbd396c7f	-0.045269486
20	0x3d294526	0.04132571
21	0x3b36a001	0.0027866366
22	0x3e336dd3	0.17522363
23	0xbc88aa4e	-0.01668277
24	0x3de83d08	0.11339766
25	0xbe47495e	-0.19461581
26	0x3debf8b7	0.11522048
27	0xbbadc634	-0.0053031687
28	0x3cbbdf5a	0.02293365
29	0x3bc83567	0.0061098817
30	0x3cbc5beb	0.022993049
31	0x3a9aaba5	0.0011800422
32	0x3d4a09de	0.049325816
33	0xbc9234b8	-0.017847404
34	0x3d8e952f	0.06962048
35	0x3e12386f	0.1427934
36	0xbd83b66b	-0.06431278
37	0x3e19c536	0.15016636
38	0xbe0e01d0	-0.13867879
39	0xbd13d04d	-0.036087323
40	0xbb19a592	-0.0023444635
41	0xbde3aeda	-0.11117335
42	0x3da7689a	0.08174248
43	0xbcda1ad5	-0.026624123
44	0x3d16fb1c	0.03686057
45	0xbd4ca087	-0.04995778
46	0x3dc446c1	0.09583808
47	0x3e0ffae8	0.14060557
48	0x3bcfc344	0.006340416
49	0x3bc83ca1	0.006110743
50	0x3de74681	0.112927444
51	0x3d8f4ab5	0.06996671
52	0xbdb1e7c0	-0.08686781
53	0xbd80f401	-0.0629654
54	0xbe21e4ee	-0.15809986
55	0x3db5a656	0.08869617
56	0x3de69eaf	0.11260735
57	0x3dae3088	0.0850535
58	0x3d18d85b	0.037315708
59	0xbd9e237d	-0.077216126
60	0x3b6f4b9b	0.003651357
61	0xbd2b3caa	-0.0418059
62	0x3d1c8074	0.03820844
63	0x3d3488c7	0.044075754
64	0x3d062d66	0.03275814
65	0x3e11e69e	0.1424813
66	0x3e2e2f0b	0.17010133
67	0x3d9456fb	0.07243153
68	0x3d6a8be0	0.0572623
69	0x3ba0f4cd	0.004911995
70	0x3c90bc20	0.01766783
71	0x3e1410c3	0.14459519
72	0x3ce25e7a	0.02763294
73	0xbd8daf74	-0.06918231
74	0x3d4328b1	0.04764623
75	0x3e11aeb0	0.14226794
76	0x3c0e1b3a	0.0086734835
77	0xbe755245	-0.23957165
78	0xbd8bf81c	-0.068344325
79	0x3e33aefe	0.17547223
80	0xbc75af6a	-0.014995435
81	0x3d17f4e3	0.037098777
82	0x3ddb2838	0.107010305
83	0xbe19d079	-0.15020932
84	0x3e07069b	0.13186114
85	0x3da543cf	0.08069574
86	0x3cad2044	0.02113355
87	0xbd08472b	-0.033270996
88	0xbc348303	-0.011017564
89	0xbddc3837	-0.1075291
90	0xbd02c39b	-0.031924825
91	0xbe3abcc8	-0.18236077
92	0xbcd12953	-0.0255324
93	0xbe09c2fc	-0.13453287
94	0x3c9ed969	0.019390779
95	0xbd5e52bc	-0.05427812
96	0xbcad662e	-0.021166887
97	0xbccfbde1	-0.025359096
98	0xbd0ff0f5	-0.035141904
99	0xbc86caff	-0.016454218
100	0xbd9fbdfa	-0.07799907
101	0x3e53c1a7	0.20679341
102	0x3d90eccc	0.070764154
103	0x3e3af726	0.18258342
104	0x3ca008df	0.01953548
105	0x3cc3980d	0.023876214
106	0xbc2612ec	-0.010136347
107	0x3db3dbfb	0.08782192
108	0xbbe1d0ea	-0.0068913596
109	0x3dd1b9a3	0.102404855
110	0xbda0fbb7	-0.07860511
111	0x3df7ca53	0.12099137
112	0x3da34519	0.07972164
113	0x3c14bb90	0.0090779215
114	0x3e1575e2	0.1459575
115	0xbd070cf2	-0.03297133
116	0xbd56b866	-0.05242195
117	0xbd7b31a6	-0.061326645
118	0xbe1bfa66	-0.15232238
119	0x3e1477cf	0.14498828
120	0x3cc666f6	0.024219017
121	0xbd40ec2a	-0.047100224
122	0x3da24f20	0.07925248
123	0x3e48596a	0.19565359
124	0xbdca2905	-0.09871105
125	0xbdd8415a	-0.1055934
126	0xbe0b454f	-0.13600658
127	0x3e07cb33	0.13261108
128	0x3e3bf8c2	0.18356612
129	0xbd0ffd76	-0.03515383
130	0xbd9c4481	-0.076302536
131	0xbe13ce4f	-0.14434169
132	0x3daf387c	0.085556954
133	0x3dab4687	0.083630614
134	0xbdb02cc6	-0.0860229
135	0x3d90113e	0.07034539
136	0x3e297def	0.16551946
137	0xbdb1d922	-0.08683993
138	0xbe08168c	-0.13289851
139	0x3cd02142	0.025406484
140	0xbdffa4ba	-0.12482591
141	0xbe1c7462	-0.15278772
142	0x3cf56a49	0.029957907
143	0x3e328087	0.17431842
144	0xbce3b4af	-0.027796118
145	0xbe5830d8	-0.21112382
146	0xbdb110ee	-0.08645807
147	0x3dbf94bf	0.09354543
148	0x3e403775	0.18771155
149	0xbe1a4efa	-0.1506919
150	0xbea13343	-0.31484422
151	0x3946fe38	0.00018977455
152	0xbd9f855c	-0.07789108
153	0xbd90554b	-0.07047518
154	0x3d01a5aa	0.03165213
155	0xbd60f460	-0.054920554
156	0xbcfbed9f	-0.030752955
157	0xbe02f4b5	-0.12788661
158	0xbe09f816	-0.13473544
159	0xbd67ae94	-0.056562975
160	0xbe0adc71	-0.13560654
161	0x3e3c4ee6	0.18389472
162	0x3d2aa0f0	0.04165739
163	0xbd5bb29b	-0.05363713
164	0x3dfe0d38	0.12404865
165	0xbd862dcc	-0.06551704
166	0xbdd0be98	-0.10192603
167	0xbe5a30de	-0.21307704
168	0x3e05088a	0.12991539
169	0x3d8c1071	0.068390734
170	0x3e16f9ab	0.14743678
171	0x3d8c5e0e	0.06853877
172	0xbd3630b9	-0.04448006
173	0xbd04bf1f	-0.03240883
174	0xbc718744	-0.0147417225
175	0x3d83c1b2	0.06433429
176	0xbd8c1df0	-0.068416476
177	0x3c8f7c19	0.017515229
178	0x3e0b2959	0.13589992
179	0xbccf5527	-0.025309158
180	0xbc793ed5	-0.015212734
181	0x3c887928	0.016659334
182	0xbda3fc2c	-0.08007082
183	0xbdab0c98	-0.083520114
184	0xb9d86682	-0.00041275105
185	0x3d9d39d2	0.07677044
186	0xbce7bba8	-0.028287724
187	0xbe1fe15b	-0.1561331
188	0xbc8a513d	-0.01688444
189	0x3d2935aa	0.041310944
190	0xbd89bfae	-0.06726013
191	0x3dfcd248	0.123447955
192	0x3d4c8ffb	0.049941998
193	0x3c157151	0.009121255
194	0x3d55de8d	0.052214194
195	0xbe1c2672	-0.1524904
196	0xbdb96d12	-0.09054007
197	0xbe0082d4	-0.12549907
198	0xbcd29264	-0.02570457
199	0xbddac70a	-0.10682495
200	0x3d81a658	0.06330556
201	0xbc5831f4	-0.0131955035
202	0xbe04e419	-0.12977637
203	0xbda4034c	-0.08008441
204	0x3cda90c8	0.026680365
205	0x3c5d6a7f	0.01351416
206	0x3e186594	0.14882499
207	0xbda1ae40	-0.07894564
208	0xbd906814	-0.07051101
209	0x3e840c85	0.25790802
210	0xbd8d0426	-0.06885557
211	0x3cbded0a	0.023184318
212	0x3c8aaef5	0.01692913
213	0x3cccb61a	0.024989177
214	0x3e3b47ab	0.18289058
215	0x3e1157d2	0.14193657
216	0xbc2dbe63	-0.010604474
217	0xbdaf30b6	-0.08554213
218	0x3da8ddc7	0.08245426
219	0x3dbcee77	0.09225171
220	0xbe3bac41	-0.18327428
221	0x3e2f72fd	0.17133708
222	0xbde6be58	-0.11266774
223	0x3c807c5c	0.0156843
224	0xbb97628f	-0.0046199034
225	0x3e208a39	0.15677728
226	0xbd5e6db5	-0.054303844
227	0x3e4ec599	0.20192565
228	0x3d7ed9ff	0.062219616
229	0x3c30c0dd	0.01078817
230	0xbdcbbdf5	-0.09948341
231	0xbd111a89	-0.035425697
232	0x3bd59cdb	0.006518943
233	0xbb90e0e9	-0.0044213426
234	0x3d927279	0.0715074
235	0xbd968c90	-0.07351029
236	0xbc3da908	-0.011575945
237	0x3db8043d	0.089851834
238	0xbd9f722b	-0.07785448
239	0x3c58c25a	0.013229931
240	0xbd0f4b5a	-0.03498397
241	0x3d24d798	0.04024467
242	0x3e398d95	0.18120416
243	0xbdaf422c	-0.08557543
244	0xbe5f1b71	-0.21787812
245	0x3b6e6fb8	0.0036382508
246	0xbbe197e4	-0.006884562
247	0x3d56c720	0.052435994
248	0x3cdb1ac9	0.02674617
249	0xbc696034	-0.014244128
250	0x3d5bac0c	0.053630874
251	0x3dc15e35	0.09441797
252	0xbd994698	-0.07484168
253	0xbe10a618	-0.1412586
254	0xbda76a53	-0.081745766
255	0xbd8c53ca	-0.06851919

network_body._body_endoder.seq_layers.2.bias f4 [128]
0	0x3ac1106e	0.0014729628
1	0x3d1d6923	0.038430344
2	0xba7c44ff	-0.00096233183
3	0x3db28a46	0.0871778
4	0x3d86079f	0.06544422
5	0x3ca2e2c5	0.019883523
6	0x3ccfc903	0.025364405
7	0xbc7b4446	-0.015336102
8	0x3cde4844	0.027134068
9	0xbc21c03c	-0.009872492
10	0x3d29e33f	0.041476484
11	0x3c80e40a	0.015733737
12	0xbd2cd84a	-0.042198457
13	0xbce5fc0c	-0.028074287
14	0x3c2c1750	0.010503605
15	0x3d0a0c31	0.033703033
16	0x3cc82408	0.024431244
17	0x3ca3fd0a	0.02001812
18	0xbc95847a	-0.018251646
19	0xbcd80fd9	-0.026374744
20	0xbd984080	-0.074341774
21	0x3d8c7be5	0.068595685
22	0x3ca22353	0.019792235
23	0x3ccd4fad	0.025062406
24	0xbb13465c	-0.0022472357
25	0x3d40c7b5	0.047065455
26	0x3c9e5945	0.019329676
27	0xbc89f6cf	-0.01684132
28	0x3ce0b23c	0.027428739
29	0xbd314881	-0.043282036
30	0x3cb142c8	0.02163829
31	0xbd09328a	-0.033495463
32	0xbd0fc649	-0.03510121
33	0x3cc5dcf8	0.024153218
34	0x3d55238c	0.052035853
35	0x3cc07864	0.023494907
36	0x3d3261c6	0.043550275
37	0xbc11a82f	-0.008890196
38	0x3c83d3ba	0.01609217
39	0x3c54afd6	0.012981376
40	0x3cd58e5c	0.026068859
41	0x3d09c957	0.03363928
42	0xbc8b76d8	-0.017024443
43	0xbccc7852	-0.024959717
44	0x3da04935	0.07826463
45	0x3dca2940	0.09871149
46	0x3d76fb02	0.060297973
47	0x3cd52353	0.02601782
48	0x3cd715dc	0.02625554
49	0x3d35ccf6	0.04438492
50	0x3cc76c7b	0.02434372
51	0xbd0b7791	-0.034049574
52	0x3d9f1f7f	0.07769679
53	0x3cfc9dbf	0.030836938
54	0xbd33c050	-0.043884575
55	0xbd605170	-0.054765165
56	0xbc74a7d4	-0.0149325915
57	0x3c0d9558	0.008641563
58	0x3d956b94	0.072959095
59	0xbc8ba1bc	-0.017044894
60	0x3cfa0e3f	0.030524371
61	0xb9ad3b24	-0.00033041195
62	0x3cd5f061	0.026115598
63	0x3d6fed08	0.05857566
64	0x3ce70eaf	0.028205244
65	0x3db714cd	0.08939514
66	0x3d207d8b	0.039182227
67	0xbcab6f9c	-0.020927243
68	0x3d3ceb70	0.04612297
69	0x3c8a0892	0.01684979
70	0x3d7cb6bf	0.061697718
71	0xbbf11386	-0.0073570637
72	0xbc612ea3	-0.013744029
73	0x3c7b39c0	0.015333593
74	0xbb1e5bf5	-0.0024163697
75	0x3d1f8f96	0.038955294
76	0x3bd9f94f	0.0066520344
77	0x3cade3fd	0.021226877
78	0x3ccbb8dd	0.024868423
79	0x3d3ef666	0.046621703
80	0xbd7bcfb4	-0.061477378
81	0x3d5b1abe	0.0534923
82	0xbb14eb4b	-0.0022723253
83	0x3c7758c8	0.015096851
84	0x3d04cb8b	0.032420676
85	0x3d0c9764	0.034324065
86	0x3b464870	0.0030255578
87	0xbcd68cbb	-0.026190152
88	0x3c6746c3	0.014115992
89	0x3d0b8b60	0.034068465
90	0x3c766ba3	0.015040311
91	0x3dd9cb6d	0.106345035
92	0xbcb8b9c0	-0.02254951
93	0x3b062992	0.0020471555
94	0x3d2490e0	0.040177226
95	0x3c829c93	0.015943801
96	0x3d1474fe	0.036244385
97	0x3d4e88c8	0.050423414
98	0x3d35c31f	0.044375535
99	0x3cc8d158	0.024513885
100	0xbcc49319	-0.023995923
101	0x3d173a73	0.036920976
102	0x3c41fd5e	0.011840193
103	0xbb8e2d8b	-0.0043389252
104	0xbd36f210	-0.044664443
105	0x3ce7053b	0.028200736
106	0xbd89d792	-0.0673057
107	0xbca0d4ef	-0.019632785
108	0x3d184ea3	0.03718437
109	0xbca608db	-0.020267894
110	0x3cdc8a96	0.026921552
111	0x3d0362fd	0.032076824
112	0x3c47e12d	0.012199682
113	0xba4ea7dc	-0.00078832894
114	0x3d11c55b	0.035588603
115	0x3d21756d	0.039418627
116	0xbd1e2f97	-0.038619604
117	0x3cc76864	0.02434177
118	0xbb6ee952	-0.0036454988
119	0x3c288fb4	0.010288168
120	0x3d3da3d8	0.04629883
121	0xbd6fff5a	-0.05859313
122	0x3c2bafd9	0.010478937
123	0x3ba22787	0.0049485597
124	0xbcd45e0c	-0.025923751
125	0x3b32a067	0.0027256252
126	0x3d50d4c4	0.05098416
127	0x3cd97210	0.026543647

action_model._continuous_distribution.log_sigma f4 [1, 2]
0	0x3d0e6ff6	0.034774743
1	0xbd289559	-0.041158054

action_model._continuous_distribution.mu.weight f4 [2, 128]
0	0x3db4d02f	0.0882877
1	0x3dc6cc20	0.097069025
2	0x3da51714	0.080610424
3	0xbdedd6c4	-0.11613229
4	0xbdb9077d	-0.090346314
5	0x3d93da24	0.072193414
6	0x3e046cef	0.1293218
7	0x3c821c25	0.015882561
8	0x3d81610e	0.0631734
9	0x3c9e88d1	0.019352349
10	0x3d2c86b0	0.042120636
11	0x3db6b5aa	0.089213684
12	0x3d3aba8e	0.04558807
13	0x3d1fd365	0.03901996
14	0x3da12126	0.07867651
15	0xbd710c3f	-0.05884957
16	0x3dfeadd6	0.124355
17	0xbd802144	-0.06256345
18	0xba8a378c	-0.0010545119
19	0x3d6a872b	0.057257812
20	0x3c1ddcf0	0.009635195
21	0xbde0283c	-0.10945174
22	0x3d673ce3	0.05645455
23	0x3ba32992	0.004979321
24	0xbc8386df	-0.016055522
25	0xbd1399b2	-0.036035247
26	0xbd5efc60	-0.054439902
27	0x3d111e4f	0.035429295
28	0x3ca36301	0.01994467
29	0x3cc6d1c6	0.02426995
30	0xbc74d9f8	-0.014944546
31	0x3d5719b1	0.052514736
32	0x3cf7851a	0.030214835
33	0x3d8d3858	0.06895512
34	0xbc0a7aad	-0.0084521
35	0x3c9b2971	0.01894066
36	0x3df8bf1c	0.12145826
37	0xbbb5e50e	-0.005550987
38	0x3e23dbd5	0.16001828
39	0xbcc81dcc	-0.02442827
40	0x3d95b9d9	0.07310838
41	0x3d604f0d	0.05476289
42	0x3d083a2b	0.0332586
43	0x3d7d95e6	0.061910532
44	0xbdc45415	-0.0958635
45	0xbe00fa4e	-0.12595484
46	0x3d19ddea	0.03756515
47	0x3e08fded	0.13378115
48	0xbd818a65	-0.06325225
49	0xbd1444a5	-0.036198277
50	0x3ce9ccf0	0.028540105
51	0x3cfcdd3c	0.030867212
52	0xbdbda78d	-0.092604734
53	0xbd0c9e99	-0.034330938
54	0x3cb9cd72	0.022680972
55	0x3d24f723	0.04027475
56	0x3bfae729	0.007656951
57	0x3d867e54	0.06567064
58	0xbd53ce28	-0.051710278
59	0x3d032b8c	0.03202395
60	0x3d8cc159	0.06872816
61	0xbd08eb27	-0.033427384
62	0x3df89882	0.121384636
63	0xbd53db1c	-0.05172263
64	0xbdb46205	-0.08807758
65	0xbdbead38	-0.093103826
66	0x3da6d461	0.08145977
67	0x3c383d16	0.011245033
68	0xbd89efdc	-0.06735203
69	0x3d9b867f	0.075940125
70	0xbd700c5d	-0.05860554
71	0x3b5dfc65	0.0033872363
72	0xbbba151e	-0.005678787
73	0xbcb68e83	-0.022284752
74	0x3dc4ce46	0.09609656
75	0xbb8be76e	-0.004269532
76	0x3d9e0eeb	0.07717689
77	0xbcf45c18	-0.02982907
78	0xbce0d1a6	-0.027443718
79	0x3d8dcbdc	0.06923649
80	0x3c051d3d	0.008124647
81	0xbdb91fa5	-0.09039239
82	0x3cddc505	0.027071485
83	0x3d44c985	0.048043747
84	0x3d3b5283	0.045732986
85	0x3dde365a	0.108502105
86	0xbd26a7b1	-0.040687267
87	0x3d2c5d1e	0.04208099
88	0x3d28c74d	0.041205693
89	0x3d92fd69	0.071772404
90	0x3dd1f4c9	0.10251767
91	0xbdf2a965	-0.11848716
92	0xbbaa6c12	-0.0052008713
93	0xbd133af1	-0.035944883
94	0x3dc02df5	0.093837656
95	0x3d6c4e19	0.057691667
96	0x3d98e0e6	0.07464771
97	0xbc8f0941	-0.017460467
98	0x3dddc655	0.108288445
99	0x3de1fc5b	0.11034461
100	0xbd1ee2eb	-0.038790625
101	0xbd19fc24	-0.037593976
102	0x3d2f5020	0.042801023
103	0xbd509b01	-0.050929073
104	0x3d3dd2a3	0.046343457
105	0xbd68de59	-0.056852672
106	0x3c1a2769	0.00940881
107	0x3b74a958	0.0037332382
108	0xbd90d050	-0.070709825
109	0x3cdf1613	0.027232205
110	0xbd06b261	-0.03288496
111	0xbd5798c7	-0.052635934
112	0xbd838a69	-0.06422884
113	0x3cf1e6f9	0.029529082
114	0x3c0673f3	0.008206355
115	0xbd6d227e	-0.057894222
116	0x3d2f6620	0.042822003
117	0x3d739288	0.059465915
118	0x3d52cf21	0.051467065
119	0xbd5b6a3a	-0.053568102
120	0x3d4533f2	0.048145242
121	0x3a3903db	0.00070577645
122	0xbd7a28c9	-0.061074052
123	0x3d4ab1e7	0.049486067
124	0x3d014cd6	0.031567417
125	0xbd045f7f	-0.032317635
126	0xbd83538a	-0.06412418
127	0xbc5fcfc1	-0.013660372
128	0x3c348b05	0.011019473
129	0xbd8b251f	-0.0679419
130	0xbbd0ed04	-0.0063759107
131	0xbd608b71	-0.05482048
132	0xbc34ac1f	-0.011027365
133	0xbd57687a	-0.05258987
134	0xbcf7b9e5	-0.030240009
135	0x3d58306c	0.052780554
136	0xbd86a6b1	-0.065747626
137	0x3d823265	0.06357268
138	0xbd96e876	-0.07368557
139	0xbd2d46c6	-0.042303823
140	0x3d5d1ac2	0.053980596
141	0x3d535ca6	0.05160203
142	0xbc789ff8	-0.015174858
143	0x3d5c9406	0.053852104
144	0x3c3717f0	0.011175141
145	0x3d3e64aa	0.04648272
146	0x3d0a9811	0.033836428
147	0x3cd033b6	0.025415283
148	0x3d452234	0.04812832
149	0x3be2e900	0.0069247484
150	0xbcd1f723	-0.02563054
151	0xbd4eb606	-0.05046656
152	0x3d51cbaf	0.05121964
153	0xbd221439	-0.039570067
154	0xbd15c9e4	-0.03656949
155	0x3d2d69d0	0.04233724
156	0xbd272e3b	-0.040815573
157	0x3cf661ab	0.030075869
158	0xbca0d9bb	-0.019635072
159	0x3cc9f4e0	0.024652898
160	0x3cec59db	0.02885144
161	0xbc9c25bf	-0.019060967
162	0xbd49c5ff	-0.04926109
163	0xbc6a4e5b	-0.014300908
164	0xbd35d7af	-0.044395145
165	0x3d90bc4f	0.07067167
166	0xbb848026	-0.004043597
167	0xbc93afb4	-0.018028118
168	0xbd0121d1	-0.03152639
169	0xbd728975	-0.05921312
170	0x3c2fcb41	0.010729612
171	0x3ce8843e	0.02838337
172	0xbd603354	-0.05473645
173	0xbd72cecd	-0.05927925
174	0xbd4e8107	-0.05041602
175	0xbcd5345a	-0.02602594
176	0xbbcace82	-0.0061891684
177	0xbd81ad44	-0.06331876
178	0xbcbac1e0	-0.022797525
179	0x3d2e28d9	0.042519424
180	0xbbcb035d	-0.0061954693
181	0xbd3bf518	-0.045888036
182	0x3cf762f0	0.030198544
183	0x3d3bceb3	0.04585142
184	0x3d43dc4d	0.047817517
185	0xbcaee60d	-0.021349931
186	0xbd5f04ea	-0.054448046
187	0x3cff43d7	0.031160278
188	0xbd6d9ef0	-0.058012903
189	0x3bc19dd1	0.0059087058
190	0xbd63ce58	-0.055616707
191	0xbd8a288e	-0.067460164
192	0x3bdbbc4c	0.0067057963
193	0xbdb4594a	-0.08806093
194	0xbd84cc31	-0.06484259
195	0x3d908f97	0.070586376
196	0xbd666a08	-0.056253463
197	0xbd93835f	-0.072027914
198	0xbdaa285e	-0.08308481
199	0x3d79a94f	0.06095248
200	0x3d50142f	0.0508005
201	0xbc003f06	-0.007827526
202	0x3d03369a	0.032034494
203	0xbd82b2d7	-0.06381767
204	0x3cae23cc	0.021257304
205	0x3d699711	0.057028834
206	0xbd033fef	-0.032043394
207	0xbd7776ff	-0.060416218
208	0x3cca16cc	0.024669074
209	0x3d0db6b1	0.034598056
210	0xbbe8ca21	-0.007104174
211	0xbc16799c	-0.009184267
212	0xbd64bc6e	-0.055843763
213	0xbc144795	-0.00905027
214	0x3d18b510	0.03728205
215	0x3cc29417	0.023752255
216	0x3cc9e839	0.024646865
217	0xbd91e3fe	-0.07123564
218	0xbcaaa2ef	-0.020829646
219	0xbd296f84	-0.041366115
220	0x3d511377	0.051043954
221	0x3d376abe	0.04477953
222	0xbd427fbd	-0.047485102
223	0xbcad4794	-0.021152295
224	0xbd804e4f	-0.06264936
225	0xbd827045	-0.0636907
226	0xbd494c08	-0.049144775
227	0xbd395ef3	-0.045256566
228	0x3d424719	0.047431085
229	0xbcf67c63	-0.03008861
230	0xbce14e5c	-0.027503185
231	0x3d0c9298	0.03431949
232	0x3c77771d	0.015104082
233	0x3d4cacd2	0.0499695
234	0x3cc83b39	0.024442302
235	0x3d892df7	0.0669822
236	0xba64d301	-0.0008728952
237	0x3d25b4ae	0.040455513
238	0xbd161af0	-0.036646783
239	0xbd16fed5	-0.03686412
240	0x3d5646d3	0.052313637
241	0x3d4e9c88	0.05044225
242	0xbd06d4ca	-0.032917775
243	0x3ce3007c	0.027710192
244	0x3caba454	0.020952381
245	0xbd700a54	-0.0586036
246	0x3c6de42d	0.014519733
247	0x3d7bebea	0.061504282
248	0xbdaa26bd	-0.0830817
249	0x3cd7321a	0.026269007
250	0x3c991f21	0.018691601
251	0xbd217670	-0.03941959
252	0x3bb7430c	0.0055927094
253	0x3d94ce04	0.07265857
254	0x3d10ade2	0.035322078
255	0xbd3ab253	-0.04558022

action_model._continuous_distribution.mu.bias f4 [2]
0	0xbca676ec	-0.020320378
1	0xbd240d23	-0.04005159

action_model._discrete_distribution.branches.0.weight f4 [1, 128]
0	0xbc5da9e2	-0.013529273
1	0xbacc665b	-0.0015594469
2	0xbb460e60	-0.003022097
3	0x3c0dd1bc	0.008655962
4	0x3b45646a	0.0030119666
5	0xbc7dc14a	-0.015487978
6	0xbc25bf46	-0.010116404
7	0x3b10d09c	0.0022096997
8	0xbc01a353	-0.007912475
9	0x3bb24548	0.005440388
10	0xbc6df41d	-0.014523533
11	0x3c03c6f2	0.008043038
12	0xbc7d5458	-0.015462004
13	0xbc245912	-0.010031002
14	0x3b0f5d1c	0.0021875566
15	0xbc1c4419	-0.00953772
16	0xbb64aefa	-0.0034894333
17	0x3bc09240	0.0058768094
18	0x3c18f014	0.009334583
19	0x3b079727	0.002068946
20	0x3b6ce7b2	0.0036148843
21	0x3c45c22b	0.012070219
22	0xbc6b87ab	-0.0143756075
23	0x3c135bd4	0.0089940615
24	0xba66247b	-0.000877924
25	0x3c3a9154	0.011387188
26	0xbc19c8ee	-0.009386284
27	0xbb6ee6b3	-0.0036453425
28	0x3c4fe3a7	0.012688554
29	0xbb6db167	-0.003626907
30	0x3c05cbaa	0.008166233
31	0xbc832e6f	-0.016013352
32	0xbba2b519	-0.004965436
33	0xbb6779f5	-0.0035320495
34	0xbc4551f9	-0.01204347
35	0xbaeff24a	-0.0018306461
36	0x3a5e9f95	0.00084924075
37	0x3ae9f28f	0.0017848777
38	0x3b155db3	0.0022791445
39	0xbc1763d7	-0.009240112
40	0x3a352730	0.00069104414
41	0x3b0c1ee7	0.0021380724
42	0xbc12410f	-0.008926644
43	0x3bc9de55	0.0061605372
44	0xbbec914d	-0.0072194696
45	0x3ba23d7f	0.0049511786
46	0x3c7585bf	0.014985501
47	0x3c0a3604	0.00843573
48	0x3a82c015	0.0009975458
49	0xbc069887	-0.008215076
50	0x39994b79	0.00029238666
51	0xbafb6c3d	-0.0019182038
52	0x3c53db45	0.012930696
53	0x3807007c	3.218696e-05
54	0x3c590048	0.013244696
55	0x3c064959	0.008196198
56	0x3c048f1a	0.008090759
57	0xbc593123	-0.013256344
58	0x3c163bc0	0.009169519
59	0xbaf6286a	-0.0018780355
60	0x3b84d0a6	0.004053193
61	0x3afd5c0a	0.0019329798
62	0x3c54c5e7	0.012986637
63	0x3bb1279d	0.0054063336
64	0x3a9cbf20	0.0011958815
65	0xbc079797	-0.008275888
66	0x3c3a3c7f	0.011366962
67	0xbbd68bca	-0.006547426
68	0x3b3ddc15	0.002897029
69	0xbb46cab6	-0.0030333227
70	0x3c10b53c	0.008832272
71	0xbb626f72	-0.003455129
72	0xbc139290	-0.009007111
73	0xbb2b3481	-0.0026123824
74	0xbc0626ad	-0.008187932
75	0x3a6fcc6f	0.00091475894
76	0xbb1cfca6	-0.00239543
77	0xbc072ae9	-0.008249977
78	0x3c4d486d	0.012529475
79	0xbbbcdcdf	-0.0057636346
80	0x3c00608e	0.00783552
81	0x3bff1cfa	0.0077854367
82	0xbbd54af3	-0.006509179
83	0xbc753ff8	-0.014968865
84	0x3b43da49	0.0029884747
85	0xbb4aab80	-0.0030924976
86	0xbb73a25f	-0.0037175638
87	0x3c4e1b2f	0.012579723
88	0xbb65cf75	-0.003506628
89	0xbc97b9af	-0.018521158
90	0x3824fa09	3.933351e-05
91	0xbbb82234	-0.0056193117
92	0xbb81a62f	-0.003956578
93	0xbb3e3486	-0.0029023006
94	0xbc82ad0a	-0.015951652
95	0xbbfdc27b	-0.007744131
96	0xbc26798f	-0.010160818
97	0x3bb5679d	0.0055360333
98	0xbb427c7b	-0.0029676247
99	0xbc62c1a0	-0.013840109
100	0x3b8bbf5b	0.0042647547
101	0x3becfef5	0.0072325417
102	0xbbaf14ed	-0.0053430707
103	0x3acac6a7	0.001547058
104	0x3ad97b4d	0.0016592533
105	0x3c3f4471	0.011674033
106	0xbacc0b45	-0.0015567323
107	0xbc8974a7	-0.016779257
108	0x3c021a82	0.00794089
109	0x3c443068	0.011974432
110	0xb93abe53	-0.00017809244
111	0x3c70626f	0.014671906
112	0x3c3837d7	0.011243782
113	0xbb94db0b	-0.0045427135
114	0xbbd33297	-0.0064452398
115	0xba2524fb	-0.0006299761
116	0x3c14920b	0.0090680225
117	0x3bbcf3b3	0.005766356
118	0x3a179997	0.00057830795
119	0x3b37e6a3	0.0028061054
120	0x3c9da57d	0.01924395
121	0xbbed7068	-0.007246066
122	0x38296547	4.038706e-05
123	0x3aa42994	0.0012524598
124	0x3c2fcdcb	0.010730217
125	0xbc4fda27	-0.012686289
126	0xbaae6b0b	-0.0013307048
127	0x3c4dff77	0.012573115

exp_avg f4 [128, 17]
0	0xbca6bb95	-0.020353118
1	0xbca76e33	-0.02043829
2	0xbca711ad	-0.02039417
3	0xbca6de42	-0.020369653
4	0xbca74db3	-0.020422792
5	0xbca7d4ed	-0.020487273
6	0xbcb0184d	-0.021495963
7	0xbcae27d2	-0.021259222
8	0xbcaa3144	-0.020775445
9	0xbcaa0ad5	-0.020757118
10	0xbcaf4931	-0.021397205
11	0xbcae1222	-0.02124888
12	0xbca889be	-0.020573493
13	0xbca8dcd0	-0.020613104
14	0x3ac8be8f	0.001531558
15	0xbc2591ba	-0.010105545
16	0xbbbaa573	-0.0056959926
17	0x3b839e61	0.004016683
18	0x3b841673	0.0040309965
19	0x3b62dd2b	0.003461669
20	0x3b6778eb	0.0035319875
21	0x3b8dce4b	0.0043275706
22	0x3b8c329a	0.004278493
23	0x3b670a1d	0.003525383
24	0x3b6bddd8	0.0035990383
25	0x3b8b85d4	0.004257897
26	0x3b8a59a0	0.00422211
27	0x3b7e4f0f	0.0038804447
28	0x3b7dac20	0.003870733
29	0x3b7db581	0.003871292
30	0x3b7cacdc	0.003855518
31	0x39470573	0.00018980149
32	0x3afd1e93	0.001931148
33	0xbae40d1f	-0.001739893
34	0xbbd6d353	-0.0065559535
35	0xbbd4b607	-0.006491426
36	0xbbc5b727	-0.0060337964
37	0xbbc57cbd	-0.006026833
38	0xbbd69dff	-0.0065495963
39	0xbbd4e9aa	-0.0064975815
40	0xbb99a542	-0.0046888897
41	0xbba5483c	-0.0050440114
42	0xbbd2ec9d	-0.006436898
43	0xbbd211d5	-0.006410817
44	0xbb9b2e1d	-0.0047357217
45	0xbba5164b	-0.005038058
46	0xbbc228bc	-0.005925266
47	0xbbc33dce	-0.0059582954
48	0xbba4041a	-0.0050053718
49	0xbb46364f	-0.0030244773
50	0xbbc969a5	-0.006146627
51	0x3ac5958f	0.0015074479
52	0x3ac2b5e7	0.0014855237
53	0x3a7ffcc2	0.0009765142
54	0x3a88320d	0.0010390893
55	0x3ae04fae	0.001711359
56	0x3ad82f46	0.0016493581
57	0x3a319296	0.0006773857
58	0x3a5560a0	0.00081397034
59	0x3ab96d54	0.0014146962
60	0x3abb0f02	0.001427144
61	0x3a7e7ac3	0.0009707624
62	0x3a85e815	0.001021626
63	0x3a9ee9ba	0.0012124099
64	0x3a9ea390	0.0012103189
65	0x3b34401b	0.002750403
66	0x3a346767	0.0006881863
67	0x3a717fdd	0.00092124735
68	0xbc750b9a	-0.014956379
69	0xbc74d474	-0.014943231
70	0xbc6c2433	-0.014412927
71	0xbc6c6b03	-0.01442981
72	0xbc77ed21	-0.0151322195
73	0xbc775a31	-0.015097187
74	0xbc66c01b	-0.014083887
75	0xbc68c229	-0.014206448
76	0xbc7b154f	-0.015324905
77	0xbc79a9dd	-0.0152382525
78	0xbc65b70f	-0.014020695
79	0xbc68052d	-0.01416139
80	0xbc6dea02	-0.014521124
81	0xbc6e1de6	-0.0145334955
82	0xbbe971d2	-0.007124164
83	0xbbef787d	-0.0073080645
84	0xb90d2f75	-0.00013464487
85	0xbc77b021	-0.015117676
86	0xbc788e54	-0.015170652
87	0xbc795fde	-0.01522061
88	0xbc7999f8	-0.015234463
89	0xbc78b6ab	-0.01518027
90	0xbc79485d	-0.015215007
91	0xbc70bff7	-0.0146942055
92	0xbc734a7b	-0.0148493005
93	0xbc78bfe6	-0.015182471
94	0xbc797ec9	-0.015227982
95	0xbc6faf25	-0.01462916
96	0xbc727ecf	-0.014800741
97	0xbc79a6ac	-0.015237492
98	0xbc7a0a43	-0.015261236
99	0xbb9bba15	-0.0047524073
100	0xbbfa002a	-0.007629414
101	0xbc19826c	-0.009369474
102	0x3cd5813b	0.026062598
103	0x3cd5da94	0.026105203
104	0x3cd4af84	0.025962599
105	0x3cd4a709	0.025958555
106	0x3cd5a780	0.026080847
107	0x3cd5fd08	0.026121631
108	0x3cd5139b	0.026010325
109	0x3cd4d6b9	0.025981294
110	0x3cd88902	0.026432518
111	0x3cd83734	0.02639351
112	0x3cd2f035	0.025749305
113	0x3cd37be7	0.025815917
114	0x3cd2c8bb	0.025730481
115	0x3cd3649f	0.025804816
116	0x3beb9b1d	0.007190122
117	0x3c54115b	0.012943591
118	0x3c41a450	0.01181896
119	0xb9acb481	-0.00032940882
120	0xb9a05d2e	-0.00030587002
121	0xb9025d2e	-0.00012432478
122	0xb907ce86	-0.00012951539
123	0xb9a22247	-0.00030924586
124	0xb999733c	-0.0002926829
125	0x379c7785	1.8652305e-05
126	0xb7cd4181	-2.4468407e-05
127	0xb994c4c9	-0.00028375376
128	0xb98e023a	-0.0002708601
129	0x37356572	1.081206e-05
130	0xb7edf664	-2.8367336e-05
131	0xb8e4904a	-0.00010898763
132	0xb9013600	-0.00012322515
133	0x37fdd83d	3.0260644e-05
134	0xb888fe93	-6.5324035e-05
135	0xb759443c	-1.2950095e-05
136	0xbc919a68	-0.017773822
137	0xbc91f4c1	-0.017816903
138	0xbc90654e	-0.01762643
139	0xbc905d10	-0.0176225
140	0xbc933ff4	-0.017974831
141	0xbc934e51	-0.01798168
142	0xbc92e61c	-0.01793199
143	0xbc928a61	-0.01788825
144	0xbc955853	-0.018230593
145	0xbc94e3e9	-0.018175082
146	0xbc9170e6	-0.01775403
147	0xbc91abd4	-0.01778213
148	0xbc918cfd	-0.017767424
149	0xbc91a102	-0.01777697
150	0xbbcb7c0f	-0.0062098573
151	0xbc11570a	-0.008870849
152	0x3a03e346	0.000503112
153	0x3aa01160	0.0012212209
154	0x3a9f35f5	0.0012146818
155	0x3a98fc9e	0.0011671965
156	0x3a98db8b	0.0011662109
157	0x3a9f81f7	0.001216947
158	0x3a9ee287	0.0012121954
159	0x3a980bc8	0.0011600191
160	0x3a97f3e4	0.0011593071
161	0x3a9ded0b	0.0012048794
162	0x3a9dac12	0.001202943
163	0x3a965a0b	0.0011470927
164	0x3a96b944	0.0011499305
165	0x3a977a7e	0.0011556891
166	0x3a97c23a	0.001157827
167	0x3a1a8364	0.00058942125
168	0x3a1663a8	0.0005736896
169	0x371c7de1	9.327633e-06
170	0x3cdac46b	0.026704988
171	0x3cdad3b7	0.026712282
172	0x3cd3cf93	0.025855815
173	0x3cd41c86	0.025892507
174	0x3cdd7362	0.027032558
175	0x3cdd023d	0.026978606
176	0x3cd0e3da	0.025499273
177	0x3cd238fb	0.025661936
178	0x3cdcfd8a	0.026976366
179	0x3cdcc10f	0.026947526
180	0x3cd2b8e7	0.025722934
181	0x3cd3aff3	0.025840735
182	0x3cd49ead	0.025954569
183	0x3cd54718	0.026034877
184	0x3bdf7c1d	0.0068202154
185	0x3c55c8b1	0.013048337
186	0x3c1204ef	0.008912309
187	0xb71484c5	-8.8524e-06
188	0xb68eff52	-4.261653e-06
189	0xb8604c44	-5.347679e-05
190	0xb86139d0	-5.3698022e-05
191	0x3788e668	1.6319755e-05
192	0x3784125b	1.5744174e-05
193	0xb8c30fcf	-9.301269e-05
194	0xb8899db2	-6.562042e-05
195	0x3813ed78	3.526869e-05
196	0x37fdf893	3.0275702e-05
197	0xb6a383f2	-4.873139e-06
198	0x3384ff8a	6.193211e-08
199	0x37cbcdad	2.4295261e-05
200	0x37bd9aa2	2.2602562e-05
201	0xbb04e8d5	-0.002028038
202	0xb8529c9b	-5.0213752e-05
203	0xba7e253c	-0.00096948794
204	0xbb543d17	-0.0032385045
205	0xbb5554a2	-0.0032551666
206	0xbb47d7b5	-0.0030493562
207	0xbb4993d4	-0.0030758278
208	0xbb5f4f0d	-0.0034074218
209	0xbb5dfd91	-0.0033873061
210	0xbb295179	-0.0025835915
211	0xbb33ed08	-0.0027454514
212	0xbb598693	-0.0033191785
213	0xbb59ba8d	-0.0033222765
214	0xbb3a4546	-0.0028422638
215	0xbb3f8981	-0.0029226246
216	0xbb4eee2b	-0.0031575065
217	0xbb500a56	-0.0031744442
218	0xba54dc6f	-0.00081200054
219	0xbad26573	-0.0016051963
220	0xbb959bcc	-0.0045656916
221	0x3c7cd20d	0.015430939
222	0x3c7d2ae9	0.015452125
223	0x3c6e2544	0.014535252
224	0x3c6f78b5	0.014616181
225	0x3c8281b5	0.01593099
226	0x3c81cf0a	0.015845794
227	0x3c6d923c	0.014500197
228	0x3c6feca1	0.014643819
229	0x3c7d6e6e	0.015468223
230	0x3c7e3bfc	0.015517231
231	0x3c76934d	0.015049768
232	0x3c76e3af	0.015068932
233	0x3c736e60	0.014857858
234	0x3c74fcac	0.01495282
235	0xba043ddc	-0.0005044618
236	0x3bf56e80	0.0074899793
237	0xb9d530f2	-0.00040662993
238	0x3a8f2cb4	0.0010923357
239	0x3a8fe59d	0.0010978464
240	0x3a9f79c1	0.0012167023
241	0x3a9d28b9	0.0011990286
242	0x3a7704ff	0.0009423047
243	0x3a800ec1	0.0009770022
244	0x3a870f95	0.0010304326
245	0x3a8a0704	0.0010530655
246	0x3a8fa4a6	0.0010959103
247	0x3a8f57ac	0.0010936162
248	0x3a7ee87d	0.00097239745
249	0x3a845440	0.0010095909
250	0x3a8d4db2	0.0010780601
251	0x3a8f0fe7	0.0010914773
252	0xb9dd519c	-0.00042213209
253	0x3a0292e6	0.0004980996
254	0xba11f9b5	-0.000556852
255	0xbca28c2a	-0.019842226

exp_avg_sq f4 [128, 17]
0	0x3a4b2328	0.0007749074
1	0x3a4c08a1	0.0007783268
2	0x3a2f8500	0.0006695539
3	0x3a3240b2	0.00067998015
4	0x3a4f5f16	0.0007910592
5	0x3a4ff4aa	0.0007932881
6	0x3a1503ff	0.00056844944
7	0x3a1c2a6a	0.0005957248
8	0x3a500a9f	0.0007936153
9	0x3a511a8c	0.0007976673
10	0x3a1bc185	0.00059416174
11	0x3a20bfb0	0.0006132079
12	0x3a4aadd0	0.00077315886
13	0x3a4c2931	0.00077881204
14	0x3b08d3b9	0.002087815
15	0x395e48ea	0.00021198732
16	0x3b55bf65	0.00326153
17	0x390f074f	0.00013640265
18	0x390f76be	0.00013681778
19	0x3905aaed	0.00012747543
20	0x39079e77	0.00012933636
21	0x3910ed61	0.0001382134
22	0x391138a2	0.00013849375
23	0x38ecf47a	0.00011298894
24	0x38f776ad	0.00011799983
25	0x3911e92d	0.00013915142
26	0x39125809	0.0001395644
27	0x390039ec	0.00012228609
28	0x39042bec	0.00012604863
29	0x3913dabe	0.000141005
30	0x391477e1	0.00014159038
31	0x3a077311	0.00051669875
32	0x381a50c5	3.6791684e-05
33	0x3a1b5a35	0.00059262227
34	0x38d1ceba	0.000100044024
35	0x38d27280	0.000100349076
36	0x38d141be	9.978142e-05
37	0x38d253e9	0.0001002921
38	0x38c8b245	9.5699485e-05
39	0x38ca2858	9.639625e-05
40	0x38c7a2c5	9.5193776e-05
41	0x38cb0693	9.681019e-05
42	0x38d127bc	9.973298e-05
43	0x38d2f0e8	0.000100584526
44	0x38c75830	9.505486e-05
45	0x38c99b75	9.613383e-05
46	0x38d24a7c	0.00010027454
47	0x38d27714	0.0001003576
48	0x39d033b1	0.00039711365
49	0x37e4d9e2	2.7281178e-05
50	0x3a1bf940	0.0005949922
51	0x38b9db53	8.86234e-05
52	0x38ba4070	8.8811736e-05
53	0x38ae524c	8.3122955e-05
54	0x38b11ddb	8.445579e-05
55	0x38bc7da8	8.987944e-05
56	0x38bcd0cb	9.003429e-05
57	0x38a8773b	8.033073e-05
58	0x38ac81d9	8.225785e-05
59	0x38bcea82	9.008219e-05
60	0x38bd4766	9.025521e-05
61	0x38b22bd9	8.495869e-05
62	0x38b529bc	8.638526e-05
63	0x38bb189e	8.92144e-05
64	0x38bd1151	9.015448e-05
65	0x398445e5	0.00025229077
66	0x37c7ad14	2.3803244e-05
67	0x39bb5f60	0.0003573848
68	0x39b25a12	0.00034017913
69	0x39b2f948	0.00034136535
70	0x39afe061	0.00033545776
71	0x39b0781b	0.00033658821
72	0x39b00bc3	0.000335781
73	0x39b0d288	0.00033726194
74	0x399dda52	0.00030108035
75	0x39a242a8	0.0003094871
76	0x39b1fc89	0.00033948224
77	0x39b29f08	0.00034069293
78	0x399eabfe	0.00030264253
79	0x39a26156	0.0003097157
80	0x39b63649	0.0003475419
81	0x39b66ee7	0.00034796374
82	0x3a83cd7e	0.0010055748
83	0x38bded77	9.0564536e-05
84	0x3adf7ead	0.0017051302
85	0x39aec266	0.00033332704
86	0x39af0e4f	0.00033389262
87	0x399e31fd	0.00030173353
88	0x39a01bd1	0.00030538303
89	0x39b08a72	0.00033672486
90	0x39b0ce27	0.0003372293
91	0x398d5b32	0.00026961562
92	0x3992ca19	0.00027997865
93	0x39af357b	0.00033418447
94	0x39b0db39	0.0003373267
95	0x398fc00b	0.0002741817
96	0x39933636	0.00028078415
97	0x39aa45a0	0.000324768
98	0x39ab4475	0.00032666666
99	0x3a4592f8	0.00075368537
100	0x38bd2750	9.019545e-05
101	0x3a8cdac4	0.001074635
102	0x3a5091c0	0.0007956289
103	0x3a51d82e	0.00080049306
104	0x3a511757	0.0007976195
105	0x3a5215a4	0.0008014089
106	0x3a52c065	0.0008039533
107	0x3a535e85	0.0008063096
108	0x3a4efda7	0.00078960735
109	0x3a51312c	0.00079800445
110	0x3a52d5d0	0.0008042725
111	0x3a53d261	0.000808036
112	0x3a4e0305	0.00078587263
113	0x3a4f266f	0.00079021504
114	0x3a4f6007	0.00079107325
115	0x3a501578	0.00079377694
116	0x3ad3140c	0.0016103997
117	0x395f3c5c	0.00021289423
118	0x3b51187e	0.0031905468
119	0x35311bb5	6.597796e-07
120	0x353366f9	6.683254e-07
121	0x351a82b5	5.7559674e-07
122	0x3520a358	5.984234e-07
123	0x351cf458	5.8470096e-07
124	0x35217ab7	6.015575e-07
125	0x350ee916	5.3238307e-07
126	0x35133cb6	5.4850113e-07
127	0x3515dd86	5.5829184e-07
128	0x351c21e2	5.8163835e-07
129	0x35097ee3	5.122112e-07
130	0x3511467c	5.411928e-07
131	0x353d7d65	7.059046e-07
132	0x353fb783	7.142009e-07
133	0x36bf9b19	5.7102993e-06
134	0x346255a3	2.1079045e-07
135	0x37042d71	7.878393e-06
136	0x3a08406f	0.00051975896
137	0x3a08e711	0.000522242
138	0x39f7f55d	0.0004729432
139	0x39faec63	0.00047859838
140	0x3a094289	0.000523605
141	0x3a09a35f	0.00052504794
142	0x39dcf403	0.00042143473
143	0x39e4e876	0.00043660746
144	0x3a0a36d1	0.00052724505
145	0x3a0a7342	0.0005281457
146	0x39e7dc71	0.00044223995
147	0x39ecbda1	0.00045154712
148	0x3a09ed5b	0.0005261504
149	0x3a0a6c1b	0.0005280391
150	0x3add70fa	0.0016894632
151	0x39120bd3	0.0001392805
152	0x3b29bffe	0.002590179
153	0x36f26f2d	7.2251046e-06
154	0x36f60a06	7.332538e-06
155	0x36f20ec1	7.2138796e-06
156	0x36f534b7	7.307706e-06
157	0x36f15e07	7.193306e-06
158	0x36f5499e	7.310139e-06
159	0x36f1699a	7.1946533e-06
160	0x36f5d7ee	7.3267065e-06
161	0x37060daa	7.990204e-06
162	0x3706ec4f	8.042042e-06
163	0x36e307b1	6.7660226e-06
164	0x36eb4391	7.0114115e-06
165	0x370741a5	8.061911e-06
166	0x37082a3e	8.116067e-06
167	0x38718c7a	5.7589707e-05
168	0x3614e79e	2.2188538e-06
169	0x389dab0a	7.518202e-05
170	0x3a7bc48d	0.00096041785
171	0x3a7d6c2a	0.0009667302
172	0x3a78213e	0.00094654027
173	0x3a79eaca	0.00095335825
174	0x3a7affeb	0.0009574878
175	0x3a7c0beb	0.0009614813
176	0x3a732183	0.0009274708
177	0x3a77bb3d	0.0009450203
178	0x3a7d141d	0.0009654181
179	0x3a7e61c2	0.0009703898
180	0x3a7bc6e0	0.0009604525
181	0x3a7d649c	0.0009666176
182	0x3a7d43f7	0.00096613116
183	0x3a7dde2b	0.00096842897
184	0x3b105b2f	0.0022027006
185	0x3986ed2a	0.00025735173
186	0x3b7d2aec	0.003863032
187	0x35c4b812	1.465671e-06
188	0x35c63463	1.4767396e-06
189	0x35aadd44	1.2730384e-06
190	0x35b00245	1.3113682e-06
191	0x35a6ec19	1.2436677e-06
192	0x35ab3466	1.2755743e-06
193	0x359e3d4f	1.178976e-06
194	0x35a3df68	1.2209466e-06
195	0x35af6a3d	1.3069435e-06
196	0x35b38a2a	1.337675e-06
197	0x359e3c17	1.1789406e-06
198	0x35a5ec10	1.2362161e-06
199	0x35d0233a	1.550746e-06
200	0x35d073f5	1.5530956e-06
201	0x37db2617	2.6124571e-05
202	0x34cf1064	3.856868e-07
203	0x379e7e89	1.889399e-05
204	0x38831bb5	6.2517276e-05
205	0x3883ab13	6.278432e-05
206	0x387e5af9	6.0643044e-05
207	0x3880d71a	6.1435814e-05
208	0x38859503	6.36969e-05
209	0x38862fdb	6.398532e-05
210	0x38787b83	5.9242837e-05
211	0x387f01a9	6.0798284e-05
212	0x3886375c	6.3999294e-05
213	0x38878fc3	6.464079e-05
214	0x388555ae	6.357893e-05
215	0x38860308	6.3901825e-05
216	0x388164e1	6.1699895e-05
217	0x3882f307	6.2441504e-05
218	0x3960e1b3	0.00021446384
219	0x3790a57c	1.7243197e-05
220	0x39b079a1	0.00033659957
221	0x3a3d7952	0.0007227856
222	0x3a3ee93d	0.000728268
223	0x3a33f54b	0.00068648596
224	0x3a3646ab	0.00069532794
225	0x3a3c69a8	0.0007187375
226	0x3a3d5a62	0.0007223246
227	0x3a2662c6	0.0006347116
228	0x3a2c35fb	0.0006569323
229	0x3a37e605	0.00070151716
230	0x3a39cbb4	0.0007087544
231	0x3a315ef6	0.00067661644
232	0x3a34b65b	0.0006893628
233	0x3a36c4a4	0.0006972051
234	0x3a38e78d	0.0007053547
235	0x3b0b168a	0.002122315
236	0x394a65d5	0.00019302157
237	0x3b48b587	0.0030625777
238	0x380a1522	3.2921445e-05
239	0x380c0f46	3.3392826e-05
240	0x3806f4e1	3.217615e-05
241	0x3808f84f	3.2656182e-05
242	0x38187cfc	3.6356025e-05
243	0x38198227	3.6599256e-05
244	0x380a7df3	3.3019063e-05
245	0x380d07e0	3.3624354e-05
246	0x381c1606	3.721381e-05
247	0x381c363e	3.7243815e-05
248	0x380b91a3	3.3275817e-05
249	0x380ed3ef	3.4052817e-05
250	0x380f07ff	3.4101304e-05
251	0x3812130e	3.482686e-05
252	0x3922083a	0.00015452589
253	0x37343005	1.07400165e-05
254	0x39ab02aa	0.00032617647
255	0x3a39fcdd	0.00070948695

exp_avg f4 [128]
0	0xbca96989	-0.020680206
1	0x3b7b6910	0.0038362183
2	0xbbc4acd0	-0.006002046
3	0x3a9ddd25	0.0012044056
4	0xbc6e7a7e	-0.014555572
5	0xbc7a85c1	-0.0152906785
6	0x3cd45c97	0.025923057
7	0xb919e297	-0.00014675628
8	0xbc91c5f8	-0.017794594
9	0x3a97ff4e	0.0011596472
10	0x3cd64941	0.026157977
11	0x379e632c	1.8881248e-05
12	0xbb516953	-0.0031953647
13	0x3c777b5b	0.015105094
14	0x3a928f4f	0.0011181625
15	0xbca4853e	-0.020083066
16	0x3b179839	0.0023131503
17	0xbb853816	-0.004065524
18	0xba934658	-0.0011236174
19	0xbc0e4b31	-0.008684919
20	0xbc1f7dff	-0.00973463
21	0x3caacbdf	0.020849166
22	0xba11ca6b	-0.00055614737
23	0x3b8712ad	0.0041220994
24	0xbd085368	-0.033282667
25	0x3d363329	0.044482384
26	0xbd0050cd	-0.031327058
27	0x3bc0d0e0	0.005884275
28	0x3b65ee95	0.0035084833
29	0x39cb5f19	0.0003879003
30	0x39df63f3	0.00042608342
31	0xb98c645f	-0.00026777663
32	0x3b25b328	0.0025283787
33	0xbbdb61bd	-0.006695001
34	0xbb87f283	-0.0041487827
35	0xb9bad152	-0.0003563264
36	0xbad09463	-0.0015913363
37	0xbc0d9c73	-0.008643257
38	0x3caedf18	0.021346614
39	0x3c386a80	0.01125586
40	0xbcd29306	-0.025704872
41	0xbc60cf96	-0.013721367
42	0xbcb062f1	-0.021531554
43	0x385c5980	5.253544e-05
44	0x3b9c7765	0.004774975
45	0x3be98c9b	0.007127357
46	0xbc4bf81a	-0.012449289
47	0xbc34396c	-0.011000019
48	0x3d1c6b35	0.038188178
49	0xba50ae0d	-0.0007960506
50	0xbccfde72	-0.025374625
51	0xbb51a3a4	-0.0031988407
52	0xbb9f9d38	-0.004871037
53	0xbc5c47c1	-0.013444842
54	0x3a26db0f	0.000636504
55	0xbc24cc3e	-0.010058461
56	0xbb35c902	-0.0027738218
57	0xbbe83ba5	-0.0070871883
58	0xbaeaf143	-0.0017924685
59	0xb9ba0fb2	-0.00035488378
60	0x3c540f41	0.01294309
61	0x39ba0a88	0.0003548453
62	0x3b83b991	0.004019924
63	0xba136627	-0.0005622827
64	0xbb5673e3	-0.0032722882
65	0xbc978da5	-0.018500159
66	0xbd0baab9	-0.03409836
67	0x3c103111	0.008800761
68	0x3c93bf27	0.018035484
69	0x3b62a4f0	0.0034583174
70	0x3c698200	0.014252186
71	0xba6f2081	-0.000912197
72	0xbafb9acf	-0.0019195917
73	0xba962423	-0.0011454861
74	0x3b13159f	0.0022443307
75	0x3cb0e1ce	0.021592047
76	0xbbdd5535	-0.0067545422
77	0x3c77765f	0.015103905
78	0xbca86fa6	-0.02056105
79	0xba2f0c0c	-0.00066775153
80	0xbb39d540	-0.0028355867
81	0xbd0844a9	-0.033268604
82	0x3c0bf242	0.0085416455
83	0x3abce123	0.0014410358
84	0xba23e3e0	-0.00062519126
85	0x3b00f4e2	0.0019677212
86	0xbb8354ca	-0.0040079104
87	0xbc11bc3a	-0.008894974
88	0xbc73c781	-0.014879108
89	0xbb138c43	-0.0022514022
90	0x3c772683	0.0150848655
91	0xbb00c266	-0.001964712
92	0x3bc3148f	0.0059533785
93	0xbc4545fe	-0.012040613
94	0x3bbcb7d6	0.0057592196
95	0x3aef6f6b	0.0018267458
96	0x3c02cd2e	0.007983489
97	0xbb4830b7	-0.0030546614
98	0x3c41df77	0.011833063
99	0xbc16eef7	-0.009212247
100	0x3ae04be5	0.0017112462
101	0xbb280229	-0.0025636053
102	0xb9a8fd35	-0.0003223211
103	0x3b81a6ba	0.003956643
104	0xbc388f94	-0.0112647
105	0xbd2d8610	-0.04236418
106	0x3c0c3bd7	0.008559189
107	0x3987dd5f	0.0002591414
108	0x3b51113f	0.0031901149
109	0xba4da1d1	-0.0007844242
110	0xba26084e	-0.0006333635
111	0x3bde1d1d	0.006778373
112	0xbcc4b5e4	-0.024012513
113	0x3bab3079	0.0052242843
114	0xbd282170	-0.041047513
115	0x3c204e1c	0.009784248
116	0x3a125716	0.0005582435
117	0xbbe89b61	-0.0070986007
118	0x3ac07de7	0.0014685959
119	0xbd421641	-0.047384504
120	0x3c655432	0.0139971245
121	0xbc686166	-0.014183378
122	0xbbbe2007	-0.005802158
123	0xbd06b06a	-0.032883085
124	0xbc27b0b7	-0.010235003
125	0x3a64b482	0.00087244075
126	0x3bba9019	0.0056934473
127	0xbaf0027b	-0.0018311286
