results/CubeAgentZoneRay-View-120/CubeAgentZoneRay/CubeAgentZoneRay-400042.onnx (onnx, 80046 bytes, 8 tensors)

action_model._continuous_distribution.log_sigma f4 [1, 2]
00000000: f3e7 43be 1e37 11be
-0.1913145 -0.14181182

action_model._continuous_distribution.mu.bias f4 [2]
00000000: be5c 71bb 692a a5bd
-0.003682896 -0.0806473

action_model._continuous_distribution.mu.weight f4 [2, 128]
00000000: b729 edbd 0c22 913d 18d1 3a3d 77da 5ebd
00000010: ffe1 b7bb 5628 f7bd a02a e6bd 1b1e b3bd
00000020: b869 debb 657b fdbd 5d02 cabb 11d9 05bd
00000030: 7d59 60bd 6a13 7bbd c3c6 d3bd 87c9 0e3d
00000040: e09b fb3a b655 973b 301e 25be 345b 5ebd
00000050: d37b 113e eaf6 cdbd 9e6e 70bb 550c 20bd
00000060: c7a1 a73d 794f 0bbe 0f5d 6a3b fdb4 233d
00000070: be7a 533d 79c8 18be 86b3 95bd 7d73 d0bd
00000080: bbea 473d a6ee ebbd d366 143c 2f4f 20be
00000090: 09da 1ebe 0f3c 0a3e 6651 e3bd c8dc af3d
000000a0: c094 41bd 4ef6 90bd 2057 05be 39d4 47bd
000000b0: 710e fb3c 11f3 72bd 457b 09bd 41fb f8ba
000000c0: 257e 03bc dfc2 a83d d7a4 a1bd dec8 ba3d
000000d0: 4731 3fbe 4bce 50ba 85ab 02be 15bc b83b
000000e0: 9c3d c13b 574f 9e3d 177f 80bb e9fa be3d
000000f0: fdc1 4abc d80d 22bc aed1 79bc 8f07 22bd
00000100: c0ff 4bbd 63e7 cdbd 1a9f 0c3d 8411 ef3c
00000110: 2b49 773d f8a2 15be a4ac 2ebe d861 5abd
00000120: 362d 843d d400 483a fc8c 01be 9ddb 9fbd
00000130: cfd9 ac3d e98d 38bc b646 dcbc e737 74bd
00000140: 3a66 ce3b a59d af3c 69a4 c1bc 15d2 dabd
00000150: 9f2c e9bd 3de1 d1bd c015 fe3d d8a0 053e
00000160: 3a51 1c3e d337 503d e86d abbd a1b1 873c
00000170: ea05 afbd 1a17 873b d4e9 debc e5a1 413e
00000180: eb23 103e f56c d7bd 43cd d53d 4570 3c3e
00000190: e861 feba b46b 003e 8d43 333d 58ef ec3d
000001a0: 8935 a93d d079 d1bd d3a2 e1bd 5e9c 12be
000001b0: d28d 923c 050c 3abd e652 443d 05fc 563e
000001c0: e390 e13d 9d89 fc3b 6985 743e 9088 b3bd
000001d0: 02fa e7bd 1551 3abe 981a 3b3c 2385 963c
000001e0: fff1 d33b 06c9 0fbe b781 2fbd 6b15 b23c
000001f0: ad27 e2ba bfb3 4f3e 1c27 aa3d 7e0f c03d
00000200: fb00 a7bd 433f 22bd a1f3 463c f555 ea3b
00000210: fce2 edbd b634 843d 3616 c8bc f088 15ba
00000220: 8302 103a 0e17 efbd 846a 07bc 6d9b d83d
00000230: 5a85 0cbe f6b9 2c3c e57c 8cbc 2dc3 3dbc
00000240: 75c4 893b d312 213c 967d dd3d 267a b5bc
00000250: e7e3 88bd fa79 3ebd d136 d4bb c773 0f3e
00000260: 8243 803d 636a 1bbd 802d 8cbd 4758 e3bc
00000270: 8453 a33d 55b9 7c3d 655c eb3d d621 b3bd
00000280: 9781 cd3c 2cfa 1d3e 1aff d03c b8b8 68bd
00000290: b0e4 2f3e 7346 bb3d 034e d53d 6ff3 193c
000002a0: aa85 2bba c910 b8bc 94b7 0f3e 43a4 afba
000002b0: d696 6cbd 8683 5abd 4add 54bd d9ef 1cbb
000002c0: ff18 c9bd fada 4bbd 02b9 323e 9ec9 90bd
000002d0: c37a 5cbd 3132 093e 4dde 62bd 9028 713c
000002e0: 6962 d63d fde8 81bd 6325 2bbc c73b 8dbc
000002f0: a70e 02bd af51 ba3d 350b df3c 9cbe 493c
00000300: 0f73 9dbb 5438 a4bc 7f90 e63d a939 77bd
00000310: e482 68bd 4c62 a0bc f270 c2bb d8a7 5a3d
00000320: aad9 d73d a32b 48bc 6341 023e f738 b7bd
00000330: 43a8 7bbd 7e36 823a 3b05 95bb 19b3 a6bd
00000340: 48d4 eebd 8d21 e1bc 1286 d5bd da8e 903d
00000350: e484 063e 0a3d d8bd fd70 923c ef36 37bc
00000360: e4fb c2bd fa59 883d 2a2e ee3d 1c3b 3d3d
00000370: f3c0 bcbd 82f3 d83d f281 983d 3c65 e73d
00000380: 8b9b 8dbc 6149 b0bc 1015 bfbd eb51 3abc
00000390: 74bd cb3b b46f 753d b6ef 6bbd 07d4 1fbd
000003a0: cd6f 593d 4a29 9dbd fd5f c93d a18d cb3c
000003b0: 7697 8b3d ce20 cdbc d8e4 2cbd ad6f 91bd
000003c0: 841a e73d 0255 abbd 2515 98bd 0efa b4bc
000003d0: 6204 833d fc3b 0f3d 17e0 5e3d 4e51 5bbd
000003e0: a1f5 04bd fdb1 a83d 3c2b 303c 9e9d 0b3c
000003f0: 52db 77bd 4756 48bd 0350 793d c897 bbbd
-0.11580222 0.07086572 0.045609564 -0.054407563 -0.0056116576 -0.1206824 -0.11238599 -0.087459765
-0.006787505 -0.12377051 -0.0061648325 -0.032677714 -0.054772843 -0.06129781 -0.10340645 0.03486016
0.0019196235 0.004618372 -0.16124797 -0.054286197 0.14207391 -0.10056861 -0.0036687027 -0.03907426
0.081851535 -0.13604535 0.0035761034 0.039967526 0.051630728 -0.14920224 -0.07309632 -0.10178278
0.04880784 -0.11520128 0.009057718 -0.15655206 -0.15512861 0.13499473 -0.1109951 0.085870326
-0.047261 -0.07078229 -0.13021517 -0.048786376 0.030646535 -0.059313837 -0.033564825 -0.0018995778
-0.008025681 0.08240294 -0.07892769 0.091203436 -0.18671142 -0.00079653104 -0.12760742 0.0056376555
0.005897237 0.077299766 -0.0039214003 0.09325201 -0.012375352 -0.009890996 -0.015247745 -0.03955799
-0.04980445 -0.10053899 0.03433142 0.029183157 0.060372513 -0.14612949 -0.17058045 -0.053315967
0.06453936 0.0007629518 -0.12651438 -0.0780556 0.08439981 -0.011264303 -0.026889186 -0.059623625
0.0062988074 0.021437475 -0.023637967 -0.10684601 -0.11385464 -0.10248039 0.12406492 0.13049638
0.1526536 0.050834488 -0.08370572 0.016564192 -0.0854605 0.004122627 -0.027211107 0.18909414
0.14076202 -0.10518829 0.10439541 0.18402202 -0.001940784 0.12541085 0.043765593 0.11569089
0.08262164 -0.10228312 -0.110173844 -0.14317462 0.01788989 -0.04542162 0.04793062 0.20994575
0.11013963 0.0077068345 0.23879017 -0.087662816 -0.11326982 -0.18194993 0.011419915 0.018374031
0.006468057 -0.14041528 -0.042848315 0.021738729 -0.0017254256 0.20283411 0.08308241 0.09377955
-0.08154484 -0.039611112 0.012143047 0.00715136 -0.116155595 0.06455366 -0.024424654 -0.0005704304
0.00054935383 -0.11674319 -0.008265141 0.1057652 -0.13722745 0.010542383 -0.017149398 -0.011582178
0.0042043277 0.009831148 0.10814969 -0.022152971 -0.06684094 -0.046503045 -0.006476261 0.1400901
0.06262876 -0.037943255 -0.06844616 -0.027752055 0.07974914 0.061700184 0.11492232 -0.08746688
0.025086207 0.15427464 0.025512267 -0.056816787 0.17177081 0.091442965 0.1041527 0.009396418
-0.000654305 -0.022468941 0.14034873 -0.0013400394 -0.057761036 -0.053348087 -0.05196885 -0.0023946671
-0.09819221 -0.04976938 0.17453387 -0.070697054 -0.053828012 0.13398053 -0.055387784 0.0147191435
0.10467989 -0.06343267 -0.010445925 -0.017240418 -0.031752255 0.09097611 0.027227024 0.012313511
-0.004804976 -0.02004639 0.11258029 -0.060357723 -0.056765452 -0.019578122 -0.0059338743 0.053382725
0.10539563 -0.012217435 0.12720256 -0.08946412 -0.061439764 0.0009934453 -0.0045477427 -0.08139629
-0.11661583 -0.027481819 -0.104259625 0.07058497 0.13136631 -0.10558517 0.017876143 -0.011182531
-0.095207006 0.06657787 0.11629899 0.04619895 -0.0921649 0.105933204 0.0744666 0.11298606
-0.017286083 -0.021519365 -0.09330189 -0.01137207 0.006217653 0.05992098 -0.057601653 -0.039020564
0.053085137 -0.07673891 0.098327614 0.024847807 0.06815998 -0.025040057 -0.04221043 -0.071013786
0.11284354 -0.08365823 -0.07425908 -0.022091892 0.0639732 0.034969315 0.054412927 -0.053544335
-0.032460812 0.082370736 0.010752495 0.008521466 -0.060511895 -0.048910405 0.06086732 -0.09159809

action_model._discrete_distribution.branches.0.weight f4 [1, 128]
00000000: 36ce 1fbc f48a 013c 97c8 46bc 68b6 d5ba
00000010: 5f75 a3bb 0cfd 3a3b d2b7 fab9 e9a7 183a
00000020: 7f41 803b 171f ccb9 3275 e13b c1ce 8eba
00000030: 48e2 5eb8 d418 823b d2d1 3b3c a372 4bbc
00000040: 9ba4 3c3c 6881 d338 6047 2dbc 1b8e ee3a
00000050: fb65 3c3c a51c 87bc 63af 3bbc 8fb4 b4ba
00000060: c625 0f3c 84be a2bb 2301 25bc 496d c43b
00000070: 6751 4bbc b2e6 233c c896 04bc 81f2 0fbb
00000080: eafd 683b d604 25bb e0db 2abc 15ac adbb
00000090: 6a33 06bc 4af4 8cbc 174e 97b9 cb76 a3bb
000000a0: 6063 1f3c c02c 5abc eaa6 433c e17a a03b
000000b0: f1f5 353c dff1 de3b ff06 bfbc cf54 d0bb
000000c0: aeb4 1c3c 25b2 cfbb 2c8e 163c a0c6 2f3c
000000d0: 08db 303b a6b4 2fba 913e 39bc 6743 9ebb
000000e0: 1842 29bc 3af8 583c 67ca 143c bb1d 55bc
000000f0: 9d65 7dbc e500 583c ad6e 6ebc dfcc 4dbc
00000100: 90f7 863b b547 6e3b af59 aabc 75d0 443c
00000110: 7f24 9f3b b664 143c 1b7e c53b e3c4 79bc
00000120: 6219 a9bc 95c7 713b 5107 913b 1b7d f3bb
00000130: 254e 78bb 1387 d8bb bd54 dd3a ed4f 673a
00000140: 416c 94bb fc51 3a3c 8806 39bc f7e8 03bc
00000150: c85f 2bbb 9244 47bc b732 16bc 23f8 1f3b
00000160: 0717 d1bb a2a0 25bc da8d f4bb bf70 d8b9
00000170: 2fb2 bb3a 97bf 3cbc e0ec 9f3a d9b0 203a
00000180: 5a2d f4bb 99be 853c 4727 a93b 3104 23bc
00000190: b8ba f43a 57ce b03b 33d9 f6bb 6d7a 89bb
000001a0: 8a5a 92bc 686b 93bb cfae 4f3a b863 2a3b
000001b0: cd5c d43b 1b58 223b 57ed 19bc 3bb6 d23b
000001c0: bec6 90bb f79d 363b 115c 3a3b 3de9 f2ba
000001d0: 91dd b2bb fdde 3dbb bfcc 41ba 82e1 cf3b
000001e0: be0a 3fbb 0516 733c 43c6 1bbb 4d1e e6bb
000001f0: 5369 aebc 7da9 65bc 686a 0e3c 2c68 b9bb
-0.009753754 0.007906664 -0.012132785 -0.0016304972 -0.004988357 0.0028532175 -0.00047820673 0.00058233604
0.0039140577 -0.00038933076 0.006880426 -0.0010895358 -5.3139665e-05 0.003970245 0.011463599 -0.012417468
0.011513854 0.00010085368 -0.010576099 0.001820031 0.011498923 -0.016493151 -0.01145539 -0.0013786721
0.008737033 -0.004966559 -0.010071072 0.005994473 -0.012409545 0.0100037325 -0.00809259 -0.0021964612
0.0035551735 -0.0025179884 -0.010428399 -0.005300055 -0.008190969 -0.01720633 -0.00028859146 -0.0049885265
0.009728283 -0.013316333 0.011941651 0.004897461 0.011106 0.0068037356 -0.023318766 -0.006357766
0.009564562 -0.006338375 0.00918917 0.010728508 0.0026986022 -0.0006702639 -0.011306421 -0.0048298123
-0.010330699 0.013242776 0.00908146 -0.013007577 -0.015466121 0.013183807 -0.014552754 -0.012561052
0.004118867 0.0036358659 -0.020794718 0.012012591 0.0048566456 0.0090572145 0.006026996 -0.015244695
-0.020641986 0.0036892642 0.004425921 -0.007430685 -0.0037888375 -0.006607899 0.0016886216 0.00088238606
-0.0045295064 0.011372086 -0.011293061 -0.008051149 -0.002614962 -0.0121623445 -0.009167365 0.0024409376
-0.006380919 -0.010109099 -0.007463199 -0.00041282733 0.0014320071 -0.011520288 0.0012201332 0.0006129868
-0.0074516954 0.016326236 0.005162153 -0.00994973 0.0018671369 0.0053956914 -0.0075332164 -0.0041955025
-0.017865438 -0.004498888 0.0007922472 0.0025999378 0.0064807893 0.0024771753 -0.009394965 0.006430415
-0.004418223 0.002786515 0.0028436224 -0.0018532645 -0.0054585417 -0.0028972023 -0.0007392875 0.0063440213
-0.002915069 0.014836793 -0.0023769296 -0.007022655 -0.021290457 -0.01401746 0.008692361 -0.00565817

network_body._body_endoder.seq_layers.0.bias f4 [128]
00000000: 43c7 2fbc d469 7fbd fe5f 57bd 3033 46bd
00000010: 2d91 273d 1b7c 64bc 777d 363c ced7 2b3d
00000020: ab8e f9bc b351 0a3d 4e09 c1bc 93d8 a6bd
00000030: 67ae 82bd 00d1 843c c239 b9bd d55c 99bb
00000040: f271 3cbc 0bfb ab3d 064f edbb 5592 32bd
00000050: e794 41bb 781b 86bc f7f8 393d d67b 503b
00000060: f64c 6cbd 3260 f33c 95ae 3d3d a50d e6bc
00000070: 801e 5cbd ae1d 01bd 756b 173d cff9 9ebc
00000080: 035d 083d 9e37 a53d 1f59 ef3c b4cd 54bd
00000090: 75d9 59bd 2549 3fbd 4adc 093e 1f69 0f3d
000000a0: 21f0 733c 3332 88bd 9aac e1bc b730 0b3d
000000b0: 131a 7bbc db1d 373d 5d04 8e3d 875e c2bc
000000c0: 354b 97bd 26e4 0b3d 5871 2a3d 86e3 423c
000000d0: 258d 72bc ffb7 01be 4b4c 05bc 4882 803d
000000e0: b4a1 a83d 5247 87bc 258d a0bc 9797 b13d
000000f0: e25d 0cbd 705a afbc 5640 023d cda4 aebc
00000100: c7e5 553c 05d7 873c 741c 28bc 1c6a 713c
00000110: c881 1bbd 7f08 4c3d 48a2 bbbc 18dd 263c
00000120: 8a92 67bc 1c0a a43c 1cd7 ca3c f340 dfbc
00000130: c4a0 babd 1e8b 5e3d 9664 00bd 57b1 ea3b
00000140: bad1 a53b c6b7 973d 82a2 113c 9b26 24bd
00000150: 0d0f d7bd 17f1 f5bc 30c4 863d 2673 e43c
00000160: 290e 9abd 56f8 33bd c5df b73d af67 cbbc
00000170: 02c3 973d 5ea1 62bc ea45 2dbd 0743 523d
00000180: e282 fd3c f7fc baba 0615 92bc 423e 49bd
00000190: 4224 b23c 6fed 37bd c2e5 c9bb 70fc 0fbd
000001a0: 493f 2d3c 6d24 bf3c e352 78bd 352c 813d
000001b0: 7a37 ffbc 4de9 4bbd de74 27bc abb2 c1bc
000001c0: 9fb4 33bd 3bf7 0c3d a5ce d8bc 798a 323d
000001d0: 0cee e5bc 77c2 723c ca1c 97bc 09dd a5ba
000001e0: 433d 69bb 2470 5b3c 10a2 d7bd 451f dcbd
000001f0: 58f3 283c 8fff c5bc a792 973d 4c04 b63c
-0.01072866 -0.062356785 -0.05258178 -0.04838866 0.040909935 -0.013945605 0.011138312 0.041953854
-0.030463537 0.03376932 -0.023564007 -0.08146777 -0.06380921 0.01621294 -0.090442196 -0.004680256
-0.011501776 0.08397492 -0.0072420863 -0.043596584 -0.0029538216 -0.01637052 0.045403447 0.0031812093
-0.057690583 0.029708955 0.046309073 -0.028082678 -0.053740025 -0.031522445 0.036967713 -0.019406227
0.033291828 0.08067249 0.029217301 -0.051953986 -0.0531859 -0.046700615 0.1346294 0.03501236
0.014888794 -0.066502 -0.027548123 0.033982005 -0.015326041 0.044706207 0.06934426 -0.023726715
-0.073873915 0.034153126 0.041612 0.011895066 -0.014804159 -0.12667845 -0.008135865 0.06274849
0.082339674 -0.0165135 -0.019598553 0.086714916 -0.03426922 -0.021405429 0.031799637 -0.021318818
0.0130552715 0.016582021 -0.01026069 0.014734771 -0.037965566 0.04981279 -0.02290453 0.010184549
-0.014134059 0.020024352 0.024760775 -0.02725265 -0.09112695 0.05433189 -0.031345926 0.007162254
0.0050604017 0.07408099 0.008888843 -0.04007588 -0.105009176 -0.030022187 0.065803885 0.027886938
-0.07522232 -0.043938003 0.089782275 -0.024829714 0.07410242 -0.013832418 -0.042303003 0.051333454
0.030946199 -0.0014266063 -0.01783229 -0.04913164 0.021745805 -0.04490417 -0.0061614225 -0.035152853
0.01057417 0.023332799 -0.060625922 0.0630726 -0.031154383 -0.04978304 -0.010220734 -0.023644766
-0.043873426 0.034415465 -0.026465723 0.04358909 -0.028067611 0.014816872 -0.018446345 -0.0012654375
-0.0035589493 0.013393436 -0.10528958 -0.10748152 0.010311924 -0.024169711 0.074010186 0.022218846

network_body._body_endoder.seq_layers.0.weight f4 [128, 17]
00000000: f69d 72bd caa0 d13d 86be 203e 41f9 123e
00000010: 30d1 d4bd b045 a1be ebb2 7b3e a939 013d
00000020: de48 c9be 7fc2 a8be e5b1 813e 6b20 96bd
00000030: 8f1e 20bd f1fc 013e 4209 303e da93 913b
00000040: 79c8 0e3e 0a47 ca3d a8ba 91bc fd90 b8bd
00000050: 122e 423e 34eb b73e 4cdc 273e ed72 11bf
00000060: 336d a63e 719b af3d 37a2 0abf d5fa 3cbe
00000070: 7704 1abe 6c12 5c3e 2ad8 1e3f a8a7 cbbd
00000080: 6619 debe 1426 8c3e c6c2 483b 2c58 e13e
00000090: 2e12 9ebe c552 b6be fc82 7b3d 30cd 733e
000000a0: a32f 773e 1a70 f6bd 19a8 8c3c 1b02 bb3c
000000b0: fba5 153d 4365 41bd 3641 c93e da43 f1bd
000000c0: eaf1 4c3b dd53 68be 913a cbbe bc41 84be
000000d0: 9227 3fbe 6617 0a3e bdd3 2bbe 31c9 c8bd
000000e0: b5c9 ac3e 4fc0 1f3e da0d 24be c142 203e
000000f0: 6b5c 783d 56f9 223e a1c7 b53e 5066 23be
00000100: ac9b 013e e85c 873c c35d 5abb 4739 97bd
00000110: c23d b43d 687f 8d3e 421f 243e 0d6a babe
00000120: 036d 27bd 38ef 9c3e 99f9 593d 45d2 323e
00000130: dbf5 45bf a8c1 00be 06fb 83be 07c4 2a3e
00000140: c39d aa3c 3a0d 7b3e 3732 bbbd a76e f23d
00000150: eb0e f33d eb79 98be 3025 8f3e 68c2 84be
00000160: 5c40 13be d553 30bf 16fe 8f3e 1700 c33d
00000170: d2ed 153e 127d 72be 992c 293f 2f51 d4be
00000180: 7f89 f83d 8936 94bc 2b9b 713d e295 06be
00000190: a34c bb3e 6780 833d 2d2e 80be 2687 8b3d
000001a0: 8838 ebbe 82bb e5bb f7a1 26be ac7d 0b3e
000001b0: 2a77 eabd 7e7c b8be 2367 b6be 9478 b93e
000001c0: 855c 67be 0717 49be bf2c e5bc 5999 983e
000001d0: 03de a33d 6d1b 813e 6c55 89be 9717 cebd
000001e0: da31 7a3e 592e 343e 71ef b3be bd64 893d
000001f0: 6a73 3fbe 5127 153f aae3 8c3e dd39 abbd
00000200: 3ced 9e3e e851 533e 0dd3 4ebe 0bab d2be
00000210: 58d1 afbe 2edb 94be 3414 5f3c a06f a0bd
00000220: 85e2 903d f5a4 32bd 380d a73e 5221 3ebd
00000230: 4bc8 f6bd f890 1fbe 3099 993e aa80 c2bc
00000240: 678d 83be 9056 a03e b00d b7bd 1f7f 493e
00000250: ab5e 1fbe c2fc f3be e40a e63e ee5b 1b3e
00000260: e5e6 f9be 6178 c1bc d3c5 913e e0cc e63e
00000270: c42e 883e 2959 15be 55c0 c4bd 1a52 533e
00000280: 383f f3be 30ae 78be 764c c4be 5a82 04bf
00000290: c378 05bc 47f8 f73d 80d0 993e 0bcd fe3d
000002a0: 5f27 b8bc a609 413e f566 f4bc 88fe 79be
000002b0: ca08 7bbe c3d8 993d 7158 463c 7597 1e3e
000002c0: 0718 8b3d 3511 603c 3a30 b9be e931 cabd
000002d0: b4a6 32be d3fc 64bd aa3c 603e ab0d 243e
000002e0: 86b3 043f 2f04 a5bc d125 90be ca53 be3e
000002f0: 9adf 3c3b 1db6 263e b80a 363e 56ab 63bd
00000300: 28d1 0f3e cf5b 8dbe 3ef5 fc3e 3c6a 813e
00000310: 27ca aabd cb8d a1be 19ec 7fbe 7f44 18be
00000320: e7ba ca3c a192 a03c 1cbe 7cbe 9aef 45bd
00000330: 79c0 833e b2ca 323c a916 993e 55f3 fd3e
00000340: 4389 943e e26b 0ebe c1a3 bcbe 77ea a63e
00000350: 9494 563e 7077 d1bd 62b7 a43c 73a4 dbbe
00000360: f881 be3b 9af0 5e3e 6b52 9b3d 42de 11bd
00000370: 86c5 793e 2730 2e3e 7204 aabd 6db9 f6be
00000380: 4029 0ebe 1e79 d5bd facf 32be 09b5 f2be
00000390: 0bbe 61bf 34f0 6f3d 42f9 9abd 32c5 0fbf
000003a0: 0188 2cbe d0cb 8dbd e463 0c3f de82 443e
000003b0: b8d5 1d3f b7e0 9d3d 2a07 c03d 1568 0dbe
000003c0: eb65 8ebe f8a5 443e 8884 0dbf 8a61 633e
000003d0: 870e 8fbe 6082 12be fde2 4ebd 22f6 9dbd
000003e0: adb8 2a3d 0812 6e3e a45c b3be 8d14 983e
000003f0: cc36 a8be 9b93 9bbe 1c88 c63e 2d3f c4be
-0.059232675 0.10235746 0.15697679 0.14352895 -0.10391462 -0.3149848 0.2457997 0.03154913
-0.39313406 -0.3296089 0.25331035 -0.07330402 -0.039091643 0.12694146 0.17191032 0.004442674
0.13943662 0.09876831 -0.0177892 -0.09012029 0.18962887 0.35921633 0.1639263 -0.5681599
0.32505187 0.0857457 -0.5415377 -0.1845506 -0.15040766 0.21491402 0.6204859 -0.09944087
-0.43378752 0.273728 0.0030633672 0.44012582 -0.30873245 -0.35610023 0.061404213 0.23808742
0.24139266 -0.120331004 0.017169999 0.022828152 0.036535244 -0.04721571 0.39307564 -0.1178052
0.0031272122 -0.22688241 -0.3969312 -0.258314 -0.18667439 0.13485488 -0.1677999 -0.09803999
0.3374764 0.15600704 -0.16020909 0.15650465 0.06063501 0.15915427 0.35503867 -0.15956998
0.1265704 0.016523793 -0.0033320046 -0.07383972 0.08800842 0.27636266 0.16027549 -0.36409035
-0.040875446 0.3065126 0.05321655 0.17463024 -0.7732827 -0.12573874 -0.25777453 0.16676341
0.02082718 0.24516764 -0.09140437 0.118375115 0.1186808 -0.29780516 0.2795806 -0.2592957
-0.1438002 -0.6887792 0.2812354 0.095215015 0.14641502 -0.23680523 0.66083676 -0.41468188
0.121356 -0.01809241 0.05898587 -0.13143113 0.36581907 0.06420975 -0.2503523 0.06812887
-0.45941567 -0.007010878 -0.16272722 0.13622159 -0.1144851 -0.3603248 -0.35625562 0.36224806
-0.22593887 -0.1963769 -0.027975438 0.29804495 0.0800133 0.25216237 -0.26822984 -0.10063093
0.2443308 0.17595805 -0.35143617 0.067086674 -0.1869637 0.5826312 0.27517444 -0.08360646
0.3104037 0.20636714 -0.20197697 -0.4114612 -0.34339404 -0.2907347 0.013615657 -0.07833791
0.07074455 -0.043614347 0.32627273 -0.046418495 -0.120499216 -0.15582645 0.29999685 -0.023742992
-0.2569382 0.31316042 -0.089381576 0.19677399 -0.15563457 -0.47653776 0.44930184 0.15171787
-0.4880897 -0.023616971 0.2847124 0.45078182 0.2659818 -0.14584793 -0.09606997 0.20636788
-0.4750917 -0.24285197 -0.38339585 -0.517614 -0.008146468 0.12107902 0.30041885 0.124414526
-0.022479711 0.18851337 -0.02983425 -0.24413502 -0.24515072 0.07512047 0.012106047 0.15487464
0.06791692 0.0136759775 -0.36169606 -0.09872801 -0.17446405 -0.055905174 0.21898142 0.16020839
0.5183643 -0.020143596 -0.28153852 0.371733 0.00288198 0.16280408 0.17777526 -0.05558332
0.1404463 -0.27609107 0.49405855 0.25276363 -0.08339339 -0.31553492 -0.24992408 -0.14869879
0.024747325 0.019601168 -0.24681896 -0.048324205 0.25732782 0.010912584 0.299001 0.4959971
0.29010972 -0.13908342 -0.36843684 0.32600757 0.20955116 -0.10227859 0.020106975 -0.42898902
0.0058138333 0.2177147 0.07584079 -0.035612352 0.24391755 0.17010556 -0.08301629 -0.48188344
-0.13882923 -0.10423492 -0.1746215 -0.47403744 -0.8818061 0.058578685 -0.075670734 -0.5616027
-0.16848756 -0.0692364 0.5483992 0.19190547 0.61654234 0.077088766 0.093763664 -0.13809235
-0.27812132 0.19203937 -0.5528035 0.22205177 -0.2794077 -0.14307547 -0.05050944 -0.07712962
0.041680027 0.23249066 -0.35031617 0.2970318 -0.32854307 -0.30386052 0.38775718 -0.3832945

network_body._body_endoder.seq_layers.2.bias f4 [128]
00000000: 4521 1b3d 790b b33b d52d 05bd 0b3e 96bd
00000010: 6473 5a3d 7910 123d 1f9f 873c 109e d2bb
00000020: 48df 4ab9 bc8c 533d 3327 113d 02f4 a3bc
00000030: 2d49 333d 79f1 abbb 3758 f23c f2fe 87bc
00000040: ffde 1abd a832 83bc f834 133d 2892 9fbc
00000050: 04a2 c3bb a2a1 483d ce2f 99b9 f684 923b
00000060: ba81 d0bb 8592 043d 8e27 893c 12ea 78bc
00000070: d8e2 30bc 0b0a 033c 07d3 9c3c 8066 213d
00000080: 255b f1bc 7e2a 423d c509 29bd e587 133d
00000090: 95ab 1c3d 0cc3 ae3b 7179 203d a8b9 41bd
000000a0: 2823 54bd e4c6 d3bb ff10 0c3d 1589 0ebd
000000b0: a8d0 78bc d4e3 6f3c f66d a83c 78fa e2bc
000000c0: 2972 4d3d c1f2 823b bdf4 943c 5015 9b3c
000000d0: e9b2 643d eb41 59bc 5a2a ba3c 5ac6 d3bc
000000e0: ce04 1fbd 799d 9dbb 65f9 f63b b3b0 f83b
000000f0: c203 c7bc 6ba6 91bc f57f 0fbd fff3 453c
00000100: 72f9 1e3b 61d7 643c fe09 f5bc ba32 0ebd
00000110: 8bdc e8bc 07fc 4a3d fd5f 133d 739b eebb
00000120: 1d3d 6abc 6411 6bbb cff0 e0bb 29b3 1f3d
00000130: 39ec 0e3c fcf6 ab39 8f33 94ba b4b2 263d
00000140: ff13 323d d33a b0bc 2cbd 583d 4c0d 123c
00000150: de70 da3c 5aad 9e3d ecdc a33c 6073 7b3c
00000160: f947 df3c 59fa eabb b385 95bb c40b 9fbc
00000170: 4520 063d 856b 9f3c 22c9 0fbd b02f c83c
00000180: 1059 79bd 9c53 7fbc 492b 3f3c 604e 133c
00000190: 1ca8 38bd 48e3 54bc 661c 103d f71b f53c
000001a0: d087 98bc 343d 0e3d 80fb 1b3d 846a bd3c
000001b0: cd75 b9bb fb34 39bc 1ee9 0fbb c185 113d
000001c0: 0b2a 603b e6ac a23c 6155 543d 3a06 7ebb
000001d0: 9074 653c 0f72 1a3d 8fa0 35bd df9b b8ba
000001e0: e984 8cbc 7577 973c 170c 8f3b eef4 bebc
000001f0: 2913 173b 3429 1b3d 1fe8 77bb 30c6 0b3d
0.037873525 0.005464014 -0.032514412 -0.073360525 0.0533327 0.03566024 0.016555367 -0.006427534
-0.000193474 0.051647887 0.035437774 -0.020013813 0.043770958 -0.0052472916 0.02958308 -0.01660106
-0.037810322 -0.016015366 0.035939187 -0.019478872 -0.0059702415 0.04898227 -0.0002921805 0.0044714166
-0.006363121 0.032366294 0.016742494 -0.015192525 -0.010796271 0.007998 0.019143594 0.039404392
-0.029462406 0.047403805 -0.041269083 0.03601827 0.03824957 0.00533331 0.039178316 -0.047296196
-0.05179134 -0.0064629186 0.034195896 -0.0347987 -0.015186466 0.014641721 0.020560246 -0.027707323
0.0501577 0.0039962237 0.018183107 0.018931061 0.055834685 -0.013260345 0.022725273 -0.025851417
-0.03882294 -0.004810032 0.0075370544 0.0075894236 -0.024293784 -0.01777955 -0.03503414 0.012082099
0.0024257568 0.013967366 -0.029911991 -0.034716345 -0.028425476 0.04955676 0.035980213 -0.0072817146
-0.014296797 -0.003586852 -0.006864644 0.03898922 0.008723312 0.0003279968 -0.001130687 0.04069777
0.0434761 -0.021512425 0.052914783 0.008914303 0.026665147 0.07747908 0.020002805 0.015347332
0.027255999 -0.007170957 -0.0045630573 -0.01941479 0.03274562 0.019460449 -0.035103925 0.024436802
-0.060875952 -0.015583899 0.011668035 0.008990854 -0.045082197 -0.012993641 0.035183333 0.029920561
-0.018619448 0.034726337 0.038081646 0.02312208 -0.005659795 -0.011304135 -0.0021959017 0.03552795
0.0034204747 0.019857835 0.051839236 -0.0038761036 0.014004841 0.03770643 -0.044342574 -0.0014084539
-0.01715322 0.018489579 0.004365455 -0.023310151 0.0023052192 0.03788109 -0.0037827564 0.034124553

network_body._body_endoder.seq_layers.2.weight f4 [128, 128]
00000000: 10fb 013e 07af 3ebd e5d0 793d 4d5e 183d
00000010: d32d 18be cdc8 293e 565e e9bd 078a 2fbc
00000020: d89b 0dbd 9a01 f1bd 7f32 2dbe 07fa b5bc
00000030: fe5f d13d 881f 9a3c 3f2c 2fbc b8e3 323d
00000040: e82b c13d 0369 0bbe 37fd 7ebd f89a 8fbd
00000050: 9e12 563e 55c9 46be 430e 763e 8d08 d6bd
00000060: 72f4 11be 11a7 8e3d a331 153e 1935 51ba
00000070: d71a 05be 47d5 bc3d d3d5 263e 16cb dcbd
00000080: 05cb 2e3d 65a6 2dbe a1bd 4cbe 3dec cbbc
00000090: ca13 b53c 8e84 a8bd 6f9c cd3d 03fd f03d
000000a0: fb78 19be 7423 c83d a59b 54bc 7f4d 1a3e
000000b0: 4c45 453e a115 403e 7e4c 9e3e ca1f d7bb
000000c0: ecc8 493c da08 12be 153d 50be eb19 2d3e
000000d0: c575 e7bc bd96 cdbc efd7 0c3e e832 2dbe
000000e0: 56d9 85be 2b35 a1bd b80d 6d3d eb3d 5c3e
000000f0: b04c ab3c 294a 423c 83b8 47be de35 943e
00000100: ca5f a0bd 2629 223e 4f93 ecba 57b9 0dbd
00000110: 761b a3be 3cb8 d43d ce1d b83a a9b0 cdbd
00000120: 97ac 9cbd fcb7 70bd 43f7 543c a6f4 9a3d
00000130: c446 173e c4e4 fbbd 3b19 49be d70d ad3b
00000140: bb9e 8ebc 2f5f d63d 348f edbd b0b2 66bd
00000150: 3a58 d4bd 7c62 7ebe e9d0 e93c 6d74 c83d
00000160: 3115 b7bd dc0c e63c 8859 6d3e c85e 593d
00000170: ef4c 9d3e e31b 06bd fabe 07be 8671 71be
00000180: 391e 703d b560 de3d 539b 11bd 04e3 9cbd
00000190: 5bf1 1f3e 26a6 17bd a268 7b3d a803 583c
000001a0: 3162 433d e97b cdbe c4eb cbbd 837b 50bd
000001b0: ce78 f3bc 580c 423e 144e d93c 79a9 1e3d
000001c0: 6f9f 7dbd 7f02 3f3e 7982 683d 8dee 5c3e
000001d0: 3503 d63d 3111 94bd 65c3 e73c 1cd1 00be
000001e0: 7b5c 11be cbd3 76bd d391 6d3d 1fe7 993d
000001f0: e0ba f33d 22f3 63be 2718 44bd 38d7 c4bd
00000200: 8ae6 46be e3c0 49bd 23a5 afbd e1d7 ec3c
00000210: 2da6 0dbe 056e fc3d 4d5b 1f3c 92d1 af3c
00000220: 09f7 6cbe 0b6e 453c 3e7a 48be 2331 b8bb
00000230: a783 7dbc 12d2 3dbd 73e7 93be 2a85 28bd
00000240: 0ccc 39be ded4 783d 64d1 37bd 018d e03d
00000250: 6b33 673d c69c 06be 7d08 3dbd 3952 e8bd
00000260: b32f d6bd 7c98 853e f3ee 11be 0021 76bd
00000270: ca71 763e 67ae 57bd 341b bfbc bc49 343c
00000280: cc05 043d 3e19 56bd 9bdf f8bc 7553 4abe
00000290: 0772 86be cc34 163c 832a bdbc 85fe dabd
000002a0: 8ed6 223b 665a 153e ca10 37be e815 07be
000002b0: c2a8 083d 5909 f6bd d486 99be aa68 73be
000002c0: 0adb 16be 7aad 2e3e 1b16 eb3d 3d10 2e3d
000002d0: 4218 4dbe c883 1cbd 010e 18be 172f b5bd
000002e0: 5a2a eabd 16d2 bb3d d838 093d ee8d 153c
000002f0: 7da7 9ebd 68a7 b4bc b8e3 b83d b3e8 8fbd
00000300: d0fa 54be afd6 b3bd 46af e9bd ee5e 25bd
00000310: f69a 053c fb75 b7be e70f aabd 0ab5 8bbd
00000320: 730e b8be 51a8 6f3d e350 143e a12c 053d
00000330: 8f29 dc3d f444 a83d 3326 cabd f93b abbe
00000340: e0a1 6dbd 7159 9fbc 4404 0abe 6e2b 873c
00000350: 10a7 b0bd d913 0bbe ad87 83bd 8831 a73d
00000360: 5f5a f6bc 4b4e 7e3a a2a8 f1bd aa1b 703b
00000370: fc7d 2f3d 4b45 5f3d 4363 6cbe dc0f 1d3d
00000380: bf83 fabc e480 d4bd fe7d 6cbd 13b3 24bd
00000390: 1dba 38bd 1384 1bbe 27b7 fdbb 97e9 b53d
000003a0: c6a3 dbbd 95d3 033e 21b4 b6bd 0a00 383e
000003b0: c809 ddbd 962a 1abe b82d e3bd baf9 29be
000003c0: fbf5 b23d 2c97 403e cfe8 783c 8ed6 d43d
000003d0: 2448 63bd 20ed bfbd ade9 383b 837f 4dbe
000003e0: 741d b9bc 5ede 92be 3160 af3a 6559 45bd
000003f0: 52ee d83d ae8c 293e cbc2 61bd e581 22bc
0.12693429 -0.046553638 0.060990233 0.037199307 -0.1486123 0.16580506 -0.11394946 -0.010714061
-0.034572452 -0.117678836 -0.16913794 -0.022213949 0.10223387 0.018813863 -0.010691701 0.0436742
0.094322026 -0.13614278 -0.062253203 -0.0701198 0.2090554 -0.1941274 0.24028878 -0.1045085
-0.14253405 0.06965459 0.14569716 -0.00079806295 -0.1299852 0.09220367 0.16292505 -0.10780923
0.042674083 -0.16958006 -0.19994213 -0.02489292 0.022104163 -0.08228408 0.10039603 0.11767008
-0.14987557 0.09772387 -0.012976562 0.15068625 0.19264716 0.18758251 0.30917734 -0.006565069
0.01231597 -0.14261189 -0.20335801 0.16904418 -0.0282544 -0.025096292 0.13754247 -0.1691395
-0.26142377 -0.07871469 0.05787441 0.21507995 0.02091059 0.0118585015 -0.1950398 0.28947347
-0.0783077 0.1583601 -0.0018049272 -0.034600582 -0.3185689 0.103867024 0.0014046968 -0.10043461
-0.076501064 -0.05876921 0.012998405 0.07566194 0.14773089 -0.12299493 -0.19638531 0.005281191
-0.017409673 0.104673736 -0.115995795 -0.056322753 -0.103683904 -0.24842256 0.028541999 0.097878315
-0.08939589 0.028082304 0.23178685 0.053068906 0.30722758 -0.03274144 -0.13256446 -0.23578462
0.058622573 0.10858289 -0.03554852 -0.07660487 0.15619414 -0.037023686 0.061379083 0.0131844655
0.047701064 -0.40133598 -0.09957078 -0.05089904 -0.02972069 0.18950021 0.026526488 0.03873584
-0.061919626 0.18653296 0.056765053 0.21575375 0.104498304 -0.072298415 0.028291414 -0.12579769
-0.14195435 -0.060260575 0.058000397 0.07514786 0.11900878 -0.22260717 -0.047874596 -0.09611362
-0.19423881 -0.049256217 -0.08576419 0.028911533 -0.13832922 0.12325672 0.009726358 0.021462236
-0.23141111 0.012050162 -0.19577882 -0.005621092 -0.015473283 -0.046342917 -0.2888752 -0.04114262
-0.18144244 0.06074988 -0.044877425 0.10964394 0.05644552 -0.13145742 -0.046150673 -0.11343808
-0.10458317 0.260929 -0.14251308 -0.060090065 0.24066845 -0.052656557 -0.023328401 0.011003908
0.03223209 -0.052270167 -0.03038006 -0.19758399 -0.2625887 0.009167861 -0.02309156 -0.10693077
0.0024847123 0.14585266 -0.17877498 -0.1319195 0.033364065 -0.12013502 -0.29985678 -0.23770395
-0.14731994 0.17058364 0.11478826 0.042495955 -0.20028785 -0.038211614 -0.14849092 -0.08846872
-0.11433859 0.0917093 0.033501476 0.009128077 -0.077467896 -0.022052482 0.09027809 -0.07026806
-0.20798802 -0.08781182 -0.11410384 -0.040373735 0.008154621 -0.358322 -0.083038144 -0.0682164
-0.35948524 0.05851013 0.14483981 0.032513265 0.10750114 0.08216277 -0.09870567 -0.33444193
-0.058015704 -0.019451829 -0.1347819 0.016500201 -0.08625615 -0.1358179 -0.064223625 0.08163744
-0.03007239 0.00097009976 -0.11799742 0.0036637583 0.042844757 0.054509442 -0.2308474 0.038345203
-0.0305804 -0.103761464 -0.057737343 -0.04020984 -0.045099366 -0.15187101 -0.0077427807 0.08882444
-0.10724597 0.12873681 -0.089210756 0.17968765 -0.10792881 -0.15055308 -0.110927045 -0.1659917
0.08738323 0.18807667 0.015192225 0.103924856 -0.05548872 -0.093714 0.0028215453 -0.20068173
-0.022597052 -0.28685278 0.0013380108 -0.048180956 0.10592331 0.16557571 -0.05511741 -0.009918665
