results/CubeAgentRay/CubeAgentRay/CubeAgentRay-16777.pt (torch, 476943 bytes, 39 tensors)

network_body._body_endoder.seq_layers.0.weight f4 [128, 17]
0	0x3e80389f	0.25043198
1	0xbd84865d	-0.0647094
2	0x3d2c0ef0	0.042006433
3	0xbe73f14b	-0.23822515
4	0xbe5cae14	-0.2155078
5	0xbd7293a8	-0.059222847
6	0x3dc8fd4f	0.0981394
7	0xbec231ce	-0.37928623
8	0x3ea723e8	0.32644582
9	0x3f230667	0.63681644
10	0xbeeb660e	-0.459763
11	0xbeb7ae6f	-0.3587527
12	0x3eb89e73	0.36058387
13	0x3f094075	0.5361398
14	0x3ec64006	0.3872072
15	0x3d23ce96	0.039991938
16	0x3ea68d96	0.32529896
17	0xbe98b547	-0.29825804
18	0x3d38c3f8	0.045108765
19	0xbe24f439	-0.16108789
20	0x3e80ae82	0.2513314
21	0x3d299139	0.04139826
22	0xbd896fe4	-0.067107946
23	0x3de45792	0.11149515
24	0x3e55b768	0.20870745
25	0x3eb1295e	0.34601873
26	0xbe62d372	-0.22150972
27	0x3d0fac8f	0.035076674
28	0xbeb054d7	-0.34439728
29	0x3e89e8b4	0.2693535
30	0xbe075781	-0.13216974
31	0xbdfce16e	-0.12347685
32	0x3e9a837e	0.30178446
33	0x3ed17176	0.40906876
34	0xbbdbb495	-0.0067048767
35	0xbe633ae6	-0.22190437
36	0x3db68120	0.089113474
37	0x3da3d04d	0.079987146
38	0x3da8583b	0.082199536
39	0xbeb97d5a	-0.36228448
40	0xbdc05899	-0.09391899
41	0x3c5c6d3b	0.013453777
42	0x3d4fb4c1	0.05070949
43	0x3e16cc97	0.14726482
44	0x3d38edff	0.045148846
45	0x3ec19033	0.37805328
46	0xbeffb714	-0.49944365
47	0x3db1eefc	0.08688161
48	0xbd5ae468	-0.05344048
49	0x3eee378b	0.4652675
50	0xbdddfd53	-0.108393334
51	0x3e9c6065	0.30542293
52	0xbe5f14b5	-0.21785243
53	0xbd4bbb5f	-0.049739238
54	0xbcc4ad50	-0.024008423
55	0xbe909f17	-0.28246376
56	0x3e5173fb	0.204544
57	0x3e3a7152	0.18207291
58	0x3e4db366	0.20087966
59	0xbeaa9b20	-0.33321476
60	0x3c950b52	0.018193875
61	0xbe17f1e4	-0.14838368
62	0x3dab1b81	0.08354855
63	0xbead89cb	-0.3389419
64	0x3e897c2d	0.2685255
65	0x3b669a17	0.003518706
66	0x3e6a8de0	0.22905684
67	0x3e7d469d	0.24733968
68	0xbc9d572d	-0.019206608
69	0xbecfe468	-0.40603948
70	0x3f19b6b6	0.6004442
71	0xbec37a5e	-0.38179296
72	0x3d7b8440	0.06140542
73	0xbddc7901	-0.10765267
74	0xbe6496df	-0.22323178
75	0xbe8854b3	-0.2662712
76	0x3f0b8cfc	0.54512
77	0x3e4cb6a8	0.19991553
78	0xbdc45739	-0.09586949
79	0xbea7b3f7	-0.3275449
80	0xbe305c97	-0.1722282
81	0x3f12a095	0.5727628
82	0xbeca053c	-0.3945712
83	0xbd0fbc6b	-0.0350918
84	0xbd669837	-0.056297507
85	0xbdc86880	-0.09785557
86	0x3d42fa9b	0.047602277
87	0xbe43f222	-0.19135335
88	0x3df95f06	0.121763274
89	0xbdb036e9	-0.08604223
90	0x3e1ebf32	0.15502623
91	0x3e4e8560	0.20168066
92	0xbd9acf6b	-0.07559093
93	0xbd82c935	-0.063860334
94	0x3e679cc8	0.22618401
95	0x3ed9ee93	0.4256483
96	0xbe45c6db	-0.19314139
97	0xbe8ca90f	-0.2747273
98	0xbca88df4	-0.020575501
99	0xbe490620	-0.19631243
100	0xbdac69e1	-0.08418632
101	0xbe1caae4	-0.15299565
102	0xbe6d6701	-0.23183824
103	0x3dcaf30b	0.09909638
104	0x3baefb2c	0.0053400006
105	0xbe23496e	-0.1594598
106	0xbe7e8568	-0.24855578
107	0xbe40019c	-0.18750614
108	0xbe337f3b	-0.17529003
109	0x3e6b6555	0.22987874
110	0xbeced5ea	-0.40397578
111	0x3dc21e44	0.09478429
112	0xbebbbd42	-0.3666783
113	0x3e0aef01	0.13567735
114	0x3e4d4ef9	0.20049657
115	0xbe848c34	-0.25888216
116	0xbd9fd86f	-0.07804953
117	0x3ef758fb	0.48310074
118	0x3e689939	0.227147
119	0xbd1417df	-0.036155578
120	0xbeb385af	-0.3506293
121	0xbcc4f00e	-0.024040248
122	0x3e393830	0.1808784
123	0x3ed88066	0.4228546
124	0x3ec318ad	0.38104764
125	0xbe0e86ce	-0.13918611
126	0x3db20b33	0.08693542
127	0xbcb0e4a2	-0.021593396
128	0x3d9261af	0.07147538
129	0x3ea12be8	0.3147881
130	0x3e4d416b	0.20044486
131	0xbdbfab6f	-0.0935887
132	0x3e8b5fa7	0.27221414
133	0xbcc2cb89	-0.023778694
134	0x3e529bc8	0.20567238
135	0x3e287613	0.16451292
136	0xbe77acec	-0.24187058
137	0xbf2ae897	-0.66761154
138	0x3cf08574	0.02936051
139	0x3f12a372	0.5728065
140	0x3e59d8b5	0.21274073
141	0x3e7a75ff	0.24459074
142	0x3e87706e	0.26452965
143	0xbda7d8cd	-0.08195648
144	0xbe525cbf	-0.20543192
145	0xbe4bbed6	-0.19897017
146	0x3ece1857	0.40252945
147	0xbf199aa7	-0.60001606
148	0xbe2cf243	-0.1688929
149	0x3d042236	0.03225919
150	0x3e8df18f	0.27723357
151	0xbe1a27e5	-0.15054281
152	0xbe8830d6	-0.2659976
153	0xbe1410c6	-0.14459524
154	0xbe3af8aa	-0.1825892
155	0x3e831e87	0.25609228
156	0x3d5fa235	0.054598052
157	0x3ecc044e	0.39847034
158	0xbeb0a6fb	-0.34502396
159	0x3e8431ec	0.25819337
160	0x3e7958c8	0.24350274
161	0xbed54174	-0.416515
162	0xbcced538	-0.025248155
163	0x3e89353c	0.26798427
164	0x3d98250d	0.07428942
165	0xbe90263f	-0.2815418
166	0x3dc43eeb	0.09582313
167	0x3e348b79	0.1763133
168	0x3dba8c52	0.09108795
169	0x3e49c9cd	0.19705887
170	0x3e976af9	0.295738
171	0xbe678e47	-0.22612868
172	0xbe75eb03	-0.24015431
173	0xbbbf1bc6	-0.0058321683
174	0x3c82a0ce	0.015945818
175	0x3dad07c4	0.08448747
176	0x3cd63fac	0.026153408
177	0xbe23e6df	-0.16006039
178	0x3ed55755	0.41668192
179	0x3d403c9f	0.046932813
180	0xbf012dac	-0.50460315
181	0xbe6f6aab	-0.23380534
182	0xbec08923	-0.37604627
183	0xbba68703	-0.0050820126
184	0x3ea1d349	0.3160651
185	0xbdbf0538	-0.09327167
186	0x3e493051	0.19647337
187	0xbe4b7afe	-0.19871137
188	0x3d80dd12	0.06292166
189	0xbef2c083	-0.474125
190	0xbd817e67	-0.063229375
191	0xbecf4e3b	-0.40489373
192	0x3e8a868d	0.2705578
193	0x3e8536e0	0.2601843
194	0xbd522153	-0.05130131
195	0xbe8a92bf	-0.27065083
196	0xbe6201dd	-0.22071023
197	0x3ee4bc62	0.44674975
198	0xbe5cdef8	-0.21569431
199	0xbe3fe1cc	-0.18738478
200	0xbe878975	-0.2647206
201	0xbe60f389	-0.21967901
202	0xbe045768	-0.12923968
203	0x3cfc3077	0.030784829
204	0x3da16f65	0.07882575
205	0xbd92d1c5	-0.071689166
206	0xbd9e8571	-0.07740296
207	0x3dda3b6e	0.106558666
208	0x3e258e86	0.1616765
209	0xbec00a74	-0.37507975
210	0xbdf01b68	-0.11723977
211	0x3d938522	0.072031274
212	0x3e4c565c	0.19954818
213	0xbe8d8243	-0.27638444
214	0x3e6a20b9	0.22864045
215	0x3ebd35fc	0.3695525
216	0xbeb95921	-0.36200812
217	0x3da09881	0.07841588
218	0xbe2fc21e	-0.17163894
219	0x3c51cba2	0.0128048975
220	0xbe1cc971	-0.15311219
221	0xbd2a0f27	-0.041518357
222	0x3cb1ca0e	0.021702792
223	0xbf0d968c	-0.5530784
224	0x3d85f322	0.065405145
225	0x3e9211fe	0.28529352
226	0xbdc0191c	-0.09379789
227	0x3dea183d	0.11430404
228	0xbe88e727	-0.26738855
229	0x3dbb3b3e	0.09142159
230	0x3e98eb23	0.29866895
231	0xbdc8d904	-0.098070174
232	0x3d76c020	0.06024182
233	0x3c832f50	0.016013771
234	0x3db8c73e	0.090223774
235	0xbf06ddb0	-0.5268202
236	0xbe9b6e3d	-0.30357543
237	0x3e6191d2	0.22028282
238	0x3e193ce6	0.14964637
239	0x3eefc898	0.46832728
240	0xbee1b08b	-0.44080004
241	0x3ef1968e	0.47185177
242	0x3b0dfe56	0.0021666489
243	0x3eaadecb	0.33373103
244	0x3e79f317	0.24409138
245	0xbd798133	-0.06091423
246	0xbe3dfe43	-0.18554024
247	0xbe9778f7	-0.29584476
248	0xbe32df10	-0.17467904
249	0xbd4de5d1	-0.050267998
250	0x3e3c1113	0.18365888
251	0x3b8b4f30	0.0042513832
252	0xbdd267e4	-0.10273722
253	0xbd536e8f	-0.05161911
254	0xbe9ac363	-0.30227193
255	0x3dfc941e	0.123329386

network_body._body_endoder.seq_layers.0.bias f4 [128]
0	0xbce5518d	-0.027992988
1	0xbb8e3fd7	-0.0043411064
2	0x3c3dfc13	0.011595744
3	0x3c0cb958	0.008589111
4	0xbd26258e	-0.04056316
5	0xbc84c0d9	-0.016205238
6	0x3ce91a1f	0.028454838
7	0xbbeef9a3	-0.0072929426
8	0x3cde1237	0.027108295
9	0xbc7e38f7	-0.015516511
10	0x3bba76c8	0.0056904294
11	0xbcc525e5	-0.024065921
12	0xbb9857d6	-0.0046491427
13	0xbbb8480a	-0.005623822
14	0x3beab4fc	0.0071626883
15	0x3b5c762b	0.003363977
16	0xbc13aed7	-0.009013853
17	0xbcda4c28	-0.026647642
18	0xbb6d6659	-0.0036224334
19	0x3c1e3505	0.0096561955
20	0xb9752739	-0.00023379632
21	0xbc37ce92	-0.011218684
22	0xbc3a8c48	-0.011385985
23	0x3b17cd06	0.0023162975
24	0x3c38b528	0.01127366
25	0x3d19f30b	0.0375853
26	0xbce857a1	-0.028362097
27	0xbc645800	-0.013936996
28	0xbb951842	-0.004550011
29	0x3d25dfd7	0.040496673
30	0x3c5b5788	0.013387568
31	0xbb3e0319	-0.0028993546
32	0xbd161e61	-0.036650065
33	0x3c2c9a49	0.010534831
34	0xbb9a7830	-0.0047140345
35	0x3d01d178	0.031693906
36	0x3a099679	0.00052485574
37	0xbc6b031a	-0.014344001
38	0x3c73f8b0	0.014890835
39	0xbd0898f0	-0.033348978
40	0xbbc56d7f	-0.006025016
41	0xbcc77c50	-0.024351269
42	0xbd66b969	-0.056329165
43	0xbc97df8e	-0.018539216
44	0x3b639bba	0.0034730271
45	0x3a02312e	0.0004966435
46	0x3cc2193e	0.023693677
47	0x3d03e099	0.032196615
48	0xbd04dcfa	-0.032437302
49	0xbcc9cc3b	-0.024633517
50	0x3c9949f3	0.01871202
51	0x3cd35aaa	0.025800068
52	0xbc8e60f4	-0.017380215
53	0xbc747b8e	-0.014922036
54	0xbc49930d	-0.012303126
55	0xbc90f478	-0.017694697
56	0xba77789c	-0.00094402744
57	0x3c8c5aa5	0.017133066
58	0xbca61146	-0.020271908
59	0x3c001409	0.007817277
60	0xbb176b5c	-0.0023104763
61	0xbca1fec6	-0.019774806
62	0x3cc48014	0.023986854
63	0x3c6f1b1d	0.014593867
64	0xbc88242f	-0.016618816
65	0xbca70a83	-0.020390755
66	0x3c901271	0.017586919
67	0xbad73a3e	-0.0016420556
68	0xbd1cabb9	-0.038249705
69	0x3c5451b7	0.012958935
70	0x3c1282a9	0.008942285
71	0x3a0e64a4	0.0005431867
72	0x3cb06103	0.021530634
73	0xbcf3a1e5	-0.029740283
74	0xbcccfac2	-0.025021914
75	0xbd00a671	-0.03140873
76	0xbc1ec293	-0.009689945
77	0xbbecb5ea	-0.0072238343
78	0xbc966631	-0.018359276
79	0x3b0cfb80	0.002151221
80	0x3cf9c006	0.030487072
81	0x3d0ed2bc	0.03486894
82	0xbcea3eae	-0.028594341
83	0x3cb4cd82	0.02207065
84	0x3b27e0dc	0.0025616204
85	0xbbf117ef	-0.0073575894
86	0x3b9da2d0	0.0048106685
87	0xbc73eae6	-0.014887547
88	0xbc29c4e5	-0.010361885
89	0x3b350691	0.0027622322
90	0xbd4071d4	-0.046983555
91	0xbb304326	-0.0026895492
92	0x3cfd5f22	0.030929152
93	0xbb96113a	-0.0045796903
94	0xbabe9d3d	-0.001454271
95	0x3bfb5d98	0.0076710694
96	0xbc98ea88	-0.01866652
97	0x3b322ac7	0.0027186142
98	0x3d06a174	0.032868817
99	0xbcc8eb1e	-0.024526175
100	0xbc8212f9	-0.015878187
101	0xbccdcb47	-0.025121344
102	0x3bc2cf6d	0.0059451372
103	0xbc834ba4	-0.01602728
104	0xbc507eb6	-0.012725523
105	0x3c326ba9	0.010889926
106	0x3d376d5c	0.044782028
107	0x3cc15bd5	0.02360336
108	0x3c8e3796	0.01736049
109	0x3d0fe14d	0.035126973
110	0x3c21c99d	0.0098747285
111	0x3cedb08e	0.029014852
112	0x3c074b5e	0.008257715
113	0xbcec495b	-0.028843572
114	0xbd20c563	-0.039250743
115	0xba45d5a5	-0.0007546789
116	0xbbcfed84	-0.0063454527
117	0x3ce205cc	0.027590655
118	0x3d16df84	0.036834255
119	0x3d427824	0.047477856
120	0xbc01df9b	-0.007926847
121	0xbc460206	-0.012085443
122	0xbc7845ba	-0.015153343
123	0x3d425f42	0.047454126
124	0x3d02beca	0.031920232
125	0xbcc31ab1	-0.023816438
126	0xbc7c3c6e	-0.015395267
127	0xb9b897ff	-0.0003520846

network_body._body_endoder.seq_layers.2.weight f4 [128, 128]
0	0xbcc46f7b	-0.02397894
1	0x3d8c3352	0.06845726
2	0x3e036e72	0.128351
3	0x3e192f5a	0.1495947
4	0xbcdfcdce	-0.027319815
5	0x3d2cd91f	0.04219925
6	0x3d7783cf	0.060428437
7	0x3d12c603	0.03583337
8	0x3d7abf61	0.06121767
9	0x3da1a283	0.07892325
10	0x3e20de93	0.15709905
11	0xbdb8846f	-0.09009635
12	0x3dd9c8bd	0.10633991
13	0x3ced91f9	0.02900027
14	0x3e5d09f7	0.21585833
15	0x3d62e6f4	0.055396035
16	0x3dab1e3e	0.083553776
17	0x3d38089b	0.04493008
18	0x3c6e52df	0.014546125
19	0x3e04d2b5	0.12971003
20	0x3d19be39	0.037534926
21	0x3bb31e0b	0.005466228
22	0x3c539fd6	0.012916526
23	0x3d155260	0.036455512
24	0x3d1a0aee	0.03760808
25	0xbd879779	-0.06620688
26	0x3dc647ad	0.0968164
27	0xbd4044cf	-0.04694062
28	0x3d2f34f2	0.042775102
29	0x3d6244bc	0.05524133
30	0xbd41ebd1	-0.047344033
31	0xbd6d0a1d	-0.057870973
32	0x3dd2d1b3	0.10293903
33	0xbdc9ecde	-0.09859632
34	0x3cf4d84f	0.0298883
35	0x3e06e997	0.13175045
36	0xbdf35e1a	-0.11883183
37	0x3e09e0bb	0.13464634
38	0x3bb8fa84	0.005645098
39	0x3e1233e6	0.1427761
40	0x3dafe2be	0.085881695
41	0xbd101d44	-0.03518416
42	0x3cd7fb75	0.026365021
43	0xbdfc1676	-0.123089716
44	0x3da96886	0.082718894
45	0x3e4aecdd	0.19816919
46	0xbe139e0e	-0.14415762
47	0x3d33ffea	0.04394523
48	0xbdbc9a71	-0.09209145
49	0x3d0a3f02	0.033751495
50	0xbcec531e	-0.028848227
51	0xbe1281c9	-0.14307322
52	0xbe54c376	-0.20777687
53	0xbd10c1a7	-0.03534093
54	0xbc906391	-0.017625602
55	0xbab17f4b	-0.0013541965
56	0x3cde8a33	0.027165508
57	0xbd613faf	-0.054992374
58	0x3c70c669	0.014695742
59	0xbd89891e	-0.06715606
60	0x3dbdd03c	0.09268233
61	0x3d089633	0.033346366
62	0xbdbbc655	-0.09168688
63	0xbdd73b43	-0.1050935
64	0x3d6c2aa7	0.057657864
65	0xbbcdb739	-0.0062779454
66	0xbd97de4a	-0.07415445
67	0xbd56497e	-0.05231618
68	0x3c89bc12	0.016813312
69	0x3baf0f4f	0.005342401
70	0xbbf1b0f4	-0.007375831
71	0x3cdd9aa3	0.027051276
72	0xbd0e6805	-0.03476717
73	0xbe3b80e5	-0.18310888
74	0x3e042927	0.12906323
75	0x3caf8be8	0.021429017
76	0xbc2e7cd3	-0.010649878
77	0x3d834ad2	0.06410755
78	0x3d7ca22e	0.061678104
79	0x3e1c2f4d	0.15252419
80	0xbda0f7ae	-0.07859741
81	0x3d7bfc15	0.0615197
82	0x3cd19341	0.025582911
83	0xbdd49df6	-0.10381691
84	0x3e0e897a	0.1391963
85	0xbe01f34d	-0.12690468
86	0xbd4dc44f	-0.050236043
87	0x3d66568b	0.056234878
88	0xbd521921	-0.051293496
89	0x3dc7db1d	0.097585894
90	0xbc146fda	-0.009059871
91	0x3da686db	0.081311904
92	0xbdd1160d	-0.10209284
93	0xbd1aee01	-0.037824634
94	0xbdeebd9a	-0.116572574
95	0xbd126a9c	-0.035746202
96	0xbd7486b3	-0.05969877
97	0x3c16096f	0.009157523
98	0x3e2541c1	0.16138364
99	0xbe3beb23	-0.18351416
100	0xbe650cdf	-0.22368191
101	0x3d588cf7	0.05286881
102	0xb6228126	-2.4215055e-06
103	0x3d3c498d	0.04596858
104	0x3da51569	0.08060724
105	0x3b9fc1f3	0.0048754155
106	0xbddcaab9	-0.1077475
107	0xbdfd4ada	-0.123677924
108	0xbd46badd	-0.04851805
109	0x3db7d4f7	0.08976167
110	0x3e07d116	0.13263354
111	0x3e19ed0d	0.15031834
112	0x3d2de2ad	0.042452503
113	0xbdbcdcd4	-0.09221807
114	0x3db34205	0.087528266
115	0xbbfc1617	-0.007693063
116	0x3c14a47d	0.00907242
117	0x3d3a01e1	0.045411948
118	0xbb3ba31a	-0.0028631152
119	0xbd9d17b8	-0.076705396
120	0xbd6621a1	-0.056184415
121	0xbd7b87bb	-0.06140874
122	0xbb751268	-0.0037395004
123	0xbdc93395	-0.098242916
124	0xbd2a572e	-0.041587047
125	0xbe4744a0	-0.19459772
126	0x3a567cb7	0.0008182036
127	0x3d5552e7	0.052081015
128	0xbc97c911	-0.018528493
129	0x3d8f143d	0.06986282
130	0xbd8afa68	-0.067860425
131	0x3e8a534b	0.27016672
132	0x3e2b8769	0.16750874
133	0x3de452a7	0.11148577
134	0x3e3c4f98	0.18389738
135	0xbd84747f	-0.06467532
136	0xbe17b3a8	-0.14814627
137	0xbd27f441	-0.041004423
138	0x3d73e548	0.05954483
139	0xbdb39160	-0.087679625
140	0xbd369a54	-0.044580773
141	0x3b829261	0.003984735
142	0x3bea0e8d	0.007142848
143	0xbdf22eab	-0.118253075
144	0x3e1221ca	0.14270702
145	0x3d46642f	0.048435386
146	0x3ddfb6de	0.10923551
147	0xbca72593	-0.020403659
148	0x3d0db778	0.034598798
149	0x3d4a5040	0.04939294
150	0x3e77efc0	0.24212551
151	0x3d74a113	0.059723925
152	0xbd391ed2	-0.04519541
153	0xbd0f0673	-0.03491826
154	0x3a8f58cd	0.0010936499
155	0x3e5aa5ba	0.21352282
156	0xbc8cee4e	-0.017203476
157	0xbde53ac6	-0.11192851
158	0x3bdf28d0	0.006810285
159	0xbd938004	-0.072021514
160	0x3dbf78c1	0.09349204
161	0x3d059c6d	0.032619882
162	0x3cc43952	0.023953114
163	0xbbecba13	-0.00722433
164	0xbe0d9c19	-0.13829078
165	0xbd0fa7de	-0.0350722
166	0xbd82c7b8	-0.063857496
167	0x3e23a764	0.15981823
168	0x3e1bf8dd	0.15231653
169	0xbb86f2f7	-0.004118319
170	0xbe073871	-0.13205124
171	0xbcd1ebc8	-0.025625125
172	0x3d60934c	0.054827973
173	0x3cbc0588	0.022951856
174	0xbda2f8db	-0.07957622
175	0xbd7681d6	-0.060182415
176	0x3be6df9a	0.0070456984
177	0xbd60e6cb	-0.0549076
178	0xbe95ce07	-0.2925875
179	0xbe92cbbc	-0.28671062
180	0xbe4ec313	-0.20191602
181	0x3da62124	0.0811179
182	0xbc116bed	-0.008875829
183	0xbc09db80	-0.008414149
184	0xbdc0063b	-0.09376188
185	0xbe013f83	-0.12621884
186	0x3e2c2664	0.1681152
187	0x3c8cd153	0.017189657
188	0xbbc8e0dd	-0.0061303214
189	0xbdee3bd9	-0.11632509
190	0x3e2b36b7	0.16720091
191	0x3dfac781	0.122450836
192	0x3ded5127	0.11587744
193	0xbc9f5625	-0.019450257
194	0xbe4511cd	-0.19245072
195	0xbc53963b	-0.012914236
196	0xbd4b88c2	-0.04969097
197	0xbd3df092	-0.046372004
198	0xbd178710	-0.03699404
199	0xbcb1a223	-0.021683758
200	0x3e1c9ac7	0.15293418
201	0xbd0aedff	-0.033918377
202	0x3db1eace	0.086873636
203	0x3db4e042	0.08831836
204	0x3e4bb536	0.19893345
205	0x3d2fc75b	0.04291473
206	0x3df4e3ae	0.11957489
207	0xbe758699	-0.23977126
208	0xbda1d3a2	-0.07901694
209	0xbd9bc623	-0.07606151
210	0xbe1c0627	-0.15236722
211	0x3c667472	0.014065849
212	0x3e2f4805	0.17117317
213	0x3d813e3b	0.06310698
214	0x3d3e1ab6	0.046412192
215	0xbd376c36	-0.044780932
216	0x3d42f772	0.047599263
217	0x3ce33638	0.027735814
218	0x3d5e1aa2	0.054224618
219	0xbdf16694	-0.11787143
220	0x3da6c6c0	0.08143377
221	0x3e1c1bf5	0.1524504
222	0x3d847e1a	0.064693645
223	0xbda54706	-0.08070187
224	0x3dfcd505	0.12345318
225	0x3c9e113a	0.019295324
226	0xbd50d92c	-0.05098836
227	0xbce63af3	-0.028104281
228	0x3e56eecd	0.20989533
229	0xbb984205	-0.004646542
230	0xbe2ab754	-0.16671497
231	0x3d38ad78	0.045087308
232	0x3c3538fb	0.0110609485
233	0x3cf2315c	0.029564552
234	0xbe3f8a55	-0.18705113
235	0x3ca9b1b5	0.02071462
236	0x3cda371d	0.026637608
237	0x396d6348	0.00022639066
238	0x3ce58b81	0.028020622
239	0xbdf94191	-0.12170709
240	0xbe4c6b7b	-0.19962876
241	0x3e002d6c	0.12517327
242	0x3e0b4ad5	0.13602765
243	0xbd4fee3b	-0.050764304
244	0x3d6ffda1	0.05859149
245	0xbc9abf31	-0.018889995
246	0xbd0ceb54	-0.034404114
247	0x3c75ef46	0.0150106605
248	0x3dc1cb3a	0.094625905
249	0xbc7e73ed	-0.015530569
250	0x3d69f8db	0.057122093
251	0xbdf0d660	-0.11759639
252	0x3e1ae5bf	0.15126704
253	0xbd9b4fd6	-0.07583587
254	0xbbd817da	-0.00659464
255	0xbc99f7a8	-0.01879485

network_body._body_endoder.seq_layers.2.bias f4 [128]
0	0xbc8f3af1	-0.01748416
1	0xbbb9a57f	-0.0056654806
2	0xbb86aead	-0.0041101784
3	0xbc95ebff	-0.018301008
4	0x3d1aeaea	0.037821688
5	0x3c2fec90	0.010737553
6	0x3c966f56	0.018363636
7	0x3c58c589	0.01323069
8	0x3ca70e53	0.020392573
9	0x3c0fb35b	0.008770789
10	0x3ab6b700	0.0013940036
11	0x3c59249d	0.013253358
12	0x3c331489	0.010930189
13	0x3cd72082	0.026260618
14	0xbd157473	-0.036488008
15	0xbb7477bd	-0.0037302815
16	0x3c6f96c9	0.014623352
17	0xbc2e9480	-0.010655522
18	0xbc25f63d	-0.010129509
19	0xbc93efa7	-0.018058611
20	0xbc2a8be3	-0.010409328
21	0x3c03c9c3	0.008043709
22	0xbc087b05	-0.008330111
23	0xba77de12	-0.00094553933
24	0xbcc51ced	-0.024061644
25	0x3c3d4487	0.011551983
26	0x3bbb40bf	0.0057145054
27	0xbc1dcd23	-0.009631428
28	0x3b8773a7	0.00413366
29	0xbc1f1d25	-0.009711538
30	0xbc3b4d14	-0.011431951
31	0x3c26b642	0.01017529
32	0xba815f25	-0.0009870274
33	0xbae5afeb	-0.0017523741
34	0x3cc0f033	0.023552036
35	0xbad1002d	-0.0015945487
36	0x3d83a201	0.06427384
37	0xbb62cae8	-0.0034605805
38	0xbbba999a	-0.0056945803
39	0x3bab0e87	0.0052202377
40	0x3cb05225	0.021523545
41	0x3cac4b19	0.021031903
42	0x3c5d50ef	0.013508066
43	0xbc1c9c13	-0.009558695
44	0x3c950727	0.018191887
45	0x3b62bfcb	0.003459918
46	0x3bf7fdef	0.007568113
47	0x3c981fd2	0.01856986
48	0x3bf7b58a	0.007559483
49	0x3d007e3a	0.03137038
50	0x3b40ea50	0.0029436536
51	0x3c9ba4d8	0.018999502
52	0x3d0662bb	0.032809
53	0x3bbaaa48	0.0056965686
54	0xbc574449	-0.013138839
55	0xbca26705	-0.019824514
56	0x3c14473f	0.0090501895
57	0x3c49e001	0.012321473
58	0x3b352187	0.0027638392
59	0xbcb13f19	-0.021636533
60	0xbc5c8de2	-0.013461562
61	0x3c5de0f4	0.013542403
62	0xbc5cc3a5	-0.01347438
63	0x3c027b31	0.007963941
64	0xbc8934d6	-0.016748827
65	0x3c24c249	0.010056087
66	0x3c74cd91	0.014941589
67	0xbbda7647	-0.006666932
68	0x3b8e768a	0.004347627
69	0xbaf7ed93	-0.0018915407
70	0xba56386e	-0.0008171861
71	0x3bbab742	0.0056981156
72	0xbbc22076	-0.00592428
73	0x3c1f9d45	0.009742086
74	0xbb8a542e	-0.004221461
75	0x3cfef2c1	0.031121613
76	0x3b8be9d7	0.0042698192
77	0x3c281013	0.010257739
78	0xbc59b4e3	-0.013287756
79	0x3b83c38a	0.004021113
80	0xbb1981f2	-0.00234234
81	0xbd0185c6	-0.031621717
82	0xbbee971c	-0.0072811972
83	0xbc2cee7b	-0.010554905
84	0x3c1e897b	0.009676333
85	0x3cc90297	0.024537368
86	0x3cf01694	0.029307641
87	0x3c21e02e	0.009880109
88	0xbbe8280d	-0.0070848526
89	0x3cb0dcf1	0.021589728
90	0xbc2b6c91	-0.010462896
91	0xbb3a3775	-0.0028414403
92	0x3b8d0556	0.0043036146
93	0xbc0c905d	-0.008579341
94	0xbc98232f	-0.018571464
95	0x3c52e3ed	0.012871725
96	0x3c65e320	0.014031202
97	0x3c136d5f	0.008998244
98	0x3c75b73e	0.014997302
99	0x3d4eda0f	0.050500926
100	0x3c7dfc78	0.015502088
101	0x3b339c1c	0.002740628
102	0x3c04d9fc	0.008108612
103	0xbcd395fe	-0.025828358
104	0x3d11cd4a	0.03559617
105	0xbd04eae5	-0.032450575
106	0x3cc49a3d	0.023999328
107	0x3cb9b313	0.022668397
108	0x3d0df645	0.03465869
109	0x3bf2374f	0.007391847
110	0x3b8556e6	0.004069197
111	0xbc5b71eb	-0.013393859
112	0xbb90ba41	-0.0044167344
113	0x3c812348	0.015763894
114	0xbc227cd7	-0.009917459
115	0xba51cd16	-0.00080032775
116	0x3cb54c0c	0.022130989
117	0x3ccd676c	0.02507373
118	0x3ccc0933	0.02490673
119	0xbc0659cd	-0.008200121
120	0xbc599a18	-0.013281368
121	0x3bc51a14	0.0060150716
122	0xbc0469ab	-0.008081834
123	0xbd1b325a	-0.037889816
124	0x3ac0992c	0.0014694086
125	0xbcbb57f8	-0.022869095
126	0x3cb33c00	0.021879196
127	0xbcc72e29	-0.024314003

action_model._continuous_distribution.log_sigma f4 [1, 2]
0	0x3d4539e9	0.04815093
1	0x3d1a2025	0.03762831

action_model._continuous_distribution.mu.weight f4 [2, 128]
0	0x3cf079de	0.029354986
1	0xbca373d3	-0.01995269
2	0x3c76f1fb	0.015072341
3	0x3d210a4b	0.039316457
4	0xbd073e18	-0.0330182
5	0xbb67723b	-0.003531589
6	0xbcccc616	-0.024996798
7	0xbca049c8	-0.019566432
8	0xbd39b4da	-0.04533849
9	0x3b6010a4	0.0034189606
10	0x3ba672d7	0.005079608
11	0xbcb4f3c7	-0.022088898
12	0xbc99300d	-0.01869967
13	0xbc93c313	-0.018037355
14	0xbc5e7713	-0.013578194
15	0xbc214624	-0.009843383
16	0xbba5b019	-0.005056393
17	0x3a5b41fe	0.00083640206
18	0xbbf77250	-0.007551469
19	0x3d2e8f74	0.042617276
20	0x3c661205	0.014042382
21	0x3cd9a1a4	0.026566334
22	0x3d0263f9	0.031833623
23	0xbcdf6ab9	-0.027272569
24	0x3c204e63	0.009784314
25	0xbc564e7e	-0.013080237
26	0xbc17617d	-0.009239552
27	0xbc6623b8	-0.014046602
28	0xbb0c4185	-0.0021401357
29	0x3d643c2b	0.055721443
30	0x3d299c7b	0.041408997
31	0xbab4a26c	-0.0013781316
32	0x3c4107f0	0.011781678
33	0x3d295020	0.04133618
34	0xbd49026c	-0.049074575
35	0x3c774741	0.015092672
36	0xbd3e5550	-0.04646808
37	0x3d76d740	0.060263872
38	0x3d2ff956	0.042962395
39	0xbd0b1718	-0.03395757
40	0x3c27e639	0.01024776
41	0xbc3f4e85	-0.011676435
42	0x3ad08e7a	0.0015911602
43	0x3d10bf92	0.035338946
44	0xbc12085d	-0.008913127
45	0x3ca69f7d	0.020339722
46	0x39c910af	0.00038350138
47	0xbbe85007	-0.007089618
48	0xbd30156c	-0.04298918
49	0xbd40932e	-0.04701536
50	0x3c7c0419	0.015381836
51	0xbc53aaed	-0.01291917
52	0xbd70175c	-0.058616027
53	0x3a971179	0.0011525593
54	0x3c3a9dc9	0.011390158
55	0x3c925d39	0.017866718
56	0xbcf47130	-0.029839128
57	0xbc1e8382	-0.009674909
58	0xbd0aaf22	-0.033858426
59	0xbbd0fccf	-0.0063777934
60	0x3cdb274f	0.026752142
61	0xbab841b3	-0.0014057666
62	0x3c322eef	0.010875448
63	0xbc9f30f9	-0.019432532
64	0x3d0cddad	0.034391094
65	0xbcac0988	-0.021000639
66	0xbcc33e5e	-0.02383345
67	0x3cfc8e99	0.030829715
68	0x3ae17149	0.0017199899
69	0xbc8e4491	-0.01736668
70	0x3b4ba119	0.0031071363
71	0x39f02379	0.00045802796
72	0x3a8d6acd	0.0010789275
73	0xbba56301	-0.0050472026
74	0x3c2ccfaa	0.010547558
75	0xbd940699	-0.07227821
76	0xbc05a18b	-0.008156191
77	0xbc3cc6c4	-0.011521999
78	0x3a13ad7a	0.0005633455
79	0x3c134c3c	0.008990344
80	0x3c1a9f3f	0.009437381
81	0x3c242afc	0.010020014
82	0xbbee8fe3	-0.007280336
83	0x3d500906	0.050789855
84	0xbc97cf84	-0.018531568
85	0xbd14f5a6	-0.03636708
86	0xbd393ef0	-0.045226038
87	0xbbc4569c	-0.00599177
88	0xbcbd8829	-0.023136215
89	0xbd7ac7af	-0.06122559
90	0x3a25cc29	0.0006324673
91	0x3c652978	0.013986938
92	0xbcb3025e	-0.021851715
93	0x3d185382	0.037189014
94	0x3cdbb51a	0.026819754
95	0xbc94d53b	-0.018168082
96	0x3b825741	0.0039776866
97	0xbbeeac74	-0.0072837416
98	0xbd074348	-0.03302315
99	0xbd58c0d3	-0.052918267
100	0xbb8ef9fd	-0.004363297
101	0x3a5373bd	0.00080662576
102	0x3af01969	0.001831812
103	0x3c8a501f	0.016883908
104	0xbd0ef192	-0.03489835
105	0x3d1cd726	0.03829112
106	0xbb83c055	-0.0040207305
107	0x3a87afe1	0.0010352099
108	0xbbee89ab	-0.007279595
109	0x3d38c9f7	0.045114484
110	0xbc815174	-0.01578591
111	0x3c97714d	0.018486643
112	0x3c4ce29a	0.012505198
113	0x3b2713d2	0.0025493992
114	0x3d1f58d4	0.038903072
115	0x3c62edcc	0.0138506405
116	0xbd4f639c	-0.050632104
117	0xbd1032f5	-0.035204846
118	0xbd0d4c6c	-0.03449671
119	0x3c72a6bf	0.014810263
120	0xbbb0e86b	-0.0053988
121	0x397d8c2a	0.00024180175
122	0x3cebdde9	0.028792338
123	0x3cb44dc9	0.022009747
124	0x3cdf772a	0.027278502
125	0x3d96d33a	0.07364507
126	0xbd98bc7f	-0.07457828
127	0x3d2bffcd	0.041991998
128	0xbb9c4c55	-0.0047698417
129	0xbc944025	-0.018096993
130	0xbc4e1d05	-0.012580161
131	0xbc4bb776	-0.012433877
132	0xbb90632b	-0.004406353
133	0xbb9fbc78	-0.004874762
134	0xbd891298	-0.066929996
135	0xbd03f0f7	-0.032212224
136	0xbc8cdeb2	-0.017196033
137	0xbcaec9e5	-0.021336505
138	0xbd3a2a9b	-0.045450788
139	0xbcb920ca	-0.022598643
140	0xbc971dbd	-0.018446798
141	0xbca92335	-0.02064667
142	0x3cbe06f2	0.023196671
143	0x3cfc91d3	0.030831253
144	0xbc7da428	-0.015481032
145	0xbbc55f28	-0.0060233064
146	0x3b416f2c	0.0029515726
147	0xbd152ee4	-0.03642167
148	0x3c6b4d02	0.014361622
149	0xbcf29317	-0.029611154
150	0xbcc37ac3	-0.023862248
151	0x3c1ff7bd	0.009763655
152	0x3c701464	0.014653299
153	0xb9882be5	-0.00025972645
154	0xbc85caa4	-0.016331978
155	0x3cfd0b12	0.030889068
156	0xbbdfb02e	-0.006826422
157	0x3c938880	0.018009424
158	0xbc7459a5	-0.014913951
159	0xbcc0d1ca	-0.023537535
160	0xbc7f41b7	-0.0155796325
161	0xbd0310ae	-0.03199833
162	0xbd33e2df	-0.043917533
163	0xbcaf72e8	-0.021417096
164	0xbc81314b	-0.015770575
165	0x3c11b211	0.008892552
166	0x3bfb0944	0.0076610167
167	0xb9c419b8	-0.00037403195
168	0xbcfc5114	-0.03080038
169	0xbcbd7509	-0.023127096
170	0xbbfb7dbc	-0.007674901
171	0xbc238430	-0.009980246
172	0xbc84e4e6	-0.016222429
173	0xbd09a531	-0.033604804
174	0xbd1aa18e	-0.037751727
175	0x39f51691	0.00046746855
176	0xbb4802a0	-0.0030519143
177	0xbc34f6aa	-0.011045137
178	0xbca6871a	-0.020328093
179	0xbd9267cc	-0.07148704
180	0xbcd58184	-0.026062734
181	0xbb6a222c	-0.0035725934
182	0x3a80689a	0.0009796799
183	0x3d3d8baf	0.04627579
184	0xbce23d3f	-0.027617095
185	0xbd3cd3d1	-0.04610044
186	0x3d170606	0.03687098
187	0x3cce327a	0.025170553
188	0xbc4d4aa4	-0.012530003
189	0xbc42537c	-0.011860725
190	0xbc8d514d	-0.017250681
191	0xbd183121	-0.037156228
192	0xbc8683c6	-0.016420256
193	0xbbe2a2f0	-0.0069163963
194	0xbc933d0c	-0.017973445
195	0xbc79ce72	-0.015246974
196	0xbb4127dc	-0.002947322
197	0x3b3c5e5e	0.002874277
198	0xbbe07f42	-0.006851108
199	0xbc0dc435	-0.008652736
200	0x3caf6b58	0.02141349
201	0xbc77819a	-0.015106583
202	0xbcc309c4	-0.023808368
203	0xbd00f4a8	-0.031483322
204	0xbc03e036	-0.0080490615
205	0xbce717a1	-0.02820951
206	0x3c0ad8d4	0.008474547
207	0xbcb5cdde	-0.022192892
208	0xbc3ced88	-0.011531241
209	0xbc008110	-0.007843271
210	0x3d476bec	0.048686907
211	0x3bf0bfd1	0.007347085
212	0xbce99d2c	-0.028517328
213	0x3ca5d36f	0.020242421
214	0xbd143527	-0.036183503
215	0xbc695222	-0.014240773
216	0x3d0ab642	0.03386522
217	0xbcc1aef7	-0.023643
218	0xbb7c608d	-0.0038509697
219	0xbc6f3d93	-0.014602083
220	0xbbb3224b	-0.0054667345
221	0x3c50e8f4	0.012750853
222	0xbce65a56	-0.028119247
223	0xbcfef355	-0.03112189
224	0xbcdab354	-0.026696838
225	0xbca9357f	-0.020655392
226	0xbbabaa4a	-0.005238806
227	0xbcc22251	-0.023698004
228	0xbd20c791	-0.03925282
229	0xbc5f889a	-0.013643408
230	0xbbc3db84	-0.005977096
231	0xbcc613da	-0.024179388
232	0xbc923c27	-0.017850948
233	0x3bd4bda3	0.006492333
234	0xbc2faf62	-0.010722967
235	0xbc9e7395	-0.019342223
236	0xba6d688a	-0.000905641
237	0xbd2164de	-0.039402835
238	0xbc9ded18	-0.019278094
239	0xbc3ec729	-0.011644163
240	0xbc8a1d60	-0.01685971
241	0xbc3e6ed0	-0.011623099
242	0xbc5aaee1	-0.013347358
243	0xbc6b5d89	-0.014365562
244	0xbd0dedb0	-0.034650505
245	0xbcd806d6	-0.026370447
246	0xbcba7a9b	-0.022763541
247	0xbc892d72	-0.016745303
248	0x3cb80b3e	0.022466298
249	0xbc7528ce	-0.014963342
250	0xbc071a0a	-0.008245954
251	0xbc5b8df4	-0.0134005435
252	0xbd149e30	-0.03628367
253	0xbccd3582	-0.025049929
254	0xbab43020	-0.0013747253
255	0xbcf6b83b	-0.030117145

action_model._continuous_distribution.mu.bias f4 [2]
0	0xbc2f29bf	-0.010691105
1	0xbc0e4656	-0.008683762

action_model._discrete_distribution.branches.0.weight f4 [1, 128]
0	0x3c554e3d	0.013019142
1	0x3c01bbd3	0.007918316
2	0x3bc3f97e	0.0059806695
3	0x3bff1bf7	0.007785316
4	0xbb419ecd	-0.0029544116
5	0xbc288713	-0.01028611
6	0x3c614dba	0.013751442
7	0x3c027aff	0.007963895
8	0xbbc1ba22	-0.0059120813
9	0xbbab26b6	-0.0052231206
10	0x3be712b7	0.0070517915
11	0x3c3f42a7	0.011673606
12	0x3ab8c07c	0.0014095451
13	0x3b925787	0.0044660005
14	0x3af343c2	0.0018559622
15	0xbc1d10a1	-0.009586484
16	0xb98a278b	-0.00026350873
17	0x3c0834a7	0.008313335
18	0x3b8abf7f	0.004234254
19	0x3a3c3cbf	0.0007180683
20	0xbb803df0	-0.0039136335
21	0x3c45046b	0.012024979
22	0xbc845d4b	-0.016157767
23	0xbbfb450d	-0.0076681436
24	0xbb84e674	-0.0040557925
25	0xbb594707	-0.0033153908
26	0xbc2248e6	-0.009905076
27	0x3be93d5f	0.0071179117
28	0xbbf96d2f	-0.0076118927
29	0xbb4536a6	-0.0030092387
30	0x3c008727	0.007844723
31	0xbc2a5639	-0.010396534
32	0xba38df85	-0.000705235
33	0x3a2ee9a8	0.0006672391
34	0x3bc4d26c	0.0060065296
35	0xbb94c45a	-0.0045400085
36	0x3b66aab3	0.003519696
37	0x3c2af018	0.010433219
38	0xbb60618f	-0.0034237837
39	0xbc7301b3	-0.014831948
40	0x3c672d7f	0.014109968
41	0x3a1f1fd4	0.00060701114
42	0xbc0af733	-0.008481788
43	0xbb77b4f2	-0.003779706
44	0xbb4567cf	-0.003012169
45	0xbbd0bf2a	-0.006370445
46	0xbb4039c3	-0.0029331304
47	0xbb8e8e0b	-0.004350429
48	0x3b079049	0.0020685366
49	0xbaced523	-0.0015780072
50	0xbb2f54e6	-0.0026753484
51	0xbbadb640	-0.005301267
52	0xbb5d90a3	-0.0033808134
53	0xbbc9bedf	-0.006156787
54	0xbc38184b	-0.011236261
55	0x3bf81e2d	0.0075719566
56	0x3b1fd00e	0.0024385485
57	0xbbb79da0	-0.005603507
58	0xba724733	-0.0009242177
59	0x3b2e66fb	0.0026611674
60	0x3b4cb58f	0.0031236147
61	0x3ba75ec7	0.005107734
62	0x39adf4ea	0.00033179607
63	0x3a49be75	0.0007695922
64	0x3b2af0bd	0.0026083433
65	0x3bbd99b7	0.0057861465
66	0xbaaee162	-0.0013342316
67	0xbc16e443	-0.009209695
68	0x3c30d70b	0.010793458
69	0xbc5a27c5	-0.013315146
70	0xba58970a	-0.00082622527
71	0x3c18db9b	0.009329702
72	0xbc832bd3	-0.016012108
73	0x3ba96f91	0.0051707705
74	0x3c6b99a0	0.014379889
75	0xbb29e34b	-0.002592283
76	0x3cabccf1	0.020971747
77	0x3abae975	0.001426025
78	0xbbda6078	-0.006664332
79	0x3c6d2405	0.01447392
80	0x3b296551	0.0025847743
81	0xbb445320	-0.0029956773
82	0xbc7b8248	-0.015350886
83	0x3a1b807c	0.00059319264
84	0xbad8f61f	-0.0016552842
85	0x3c2bfb7c	0.01049697
86	0x3bcf7f0a	0.006332283
87	0x3b6514e7	0.0034955086
88	0xbbda87eb	-0.0066690347
89	0xbc1a74da	-0.009427274
90	0x3c72244d	0.014779163
91	0x3c8011d8	0.015633509
92	0x3be2aa63	0.0069172843
93	0x3c38e707	0.01128555
94	0xbabe9ad2	-0.001454199
95	0xbc7fdb95	-0.015616317
96	0xb8a56bcb	-7.887891e-05
97	0x3a198294	0.00058559445
98	0xbc81df5a	-0.015853573
99	0xbc0df3dd	-0.008664099
100	0x3c0ab57d	0.008466122
101	0x3b9df3c8	0.0048203208
102	0x3b1c2dd5	0.002383103
103	0x3b8b4bc8	0.004250977
104	0x3b8f0a77	0.004365261
105	0x3a1f9397	0.0006087361
106	0x3c1ca033	0.009559679
107	0xbb49f6d3	-0.0030817285
108	0xbb98c64d	-0.004662311
109	0xbbb27073	-0.005445534
110	0x3c0b1093	0.008487838
111	0x3b882ef2	0.004155987
112	0x3bb18b38	0.0054182075
113	0xbb82ad96	-0.003987978
114	0x3a703872	0.00091636844
115	0x3c54c2bf	0.012985884
116	0x3ae5cd8b	0.001753257
117	0x3bb8be6d	0.005637935
118	0x3b91055a	0.004425687
119	0x3b703448	0.0036652256
120	0x3b88ec63	0.00417857
121	0x3bb82e8b	0.0056207827
122	0xbb8938b7	-0.004187669
123	0x3984e237	0.00025345545
124	0x3b855d3b	0.004069952
125	0xbb610e3d	-0.0034340762
126	0xbbf3990a	-0.007434015
127	0x3c9703db	0.018434456

exp_avg f4 [128, 17]
0	0x00000000	0.0
1	0x36872e31	4.028691e-06
2	0x00000000	0.0
3	0x366dc787	3.5431892e-06
4	0x00000000	0.0
5	0x366dc761	3.5431806e-06
6	0x00000000	0.0
7	0x3698406f	4.537454e-06
8	0x00000000	0.0
9	0x36984077	4.5374577e-06
10	0x00000000	0.0
11	0x3718bdd8	9.104107e-06
12	0x00000000	0.0
13	0x3718bde3	9.104117e-06
14	0x39bfad92	0.0003655968
15	0x38b0a81f	8.423649e-05
16	0xb9f062e7	-0.00045850055
17	0x00000000	0.0
18	0x35c6ab33	1.4801975e-06
19	0x00000000	0.0
20	0x35aeb9fa	1.3018137e-06
21	0x00000000	0.0
22	0x35aeba18	1.3018171e-06
23	0x00000000	0.0
24	0x35dfc1f4	1.6671243e-06
25	0x00000000	0.0
26	0x35dfc200	1.6671256e-06
27	0x00000000	0.0
28	0x36607a50	3.3449796e-06
29	0x00000000	0.0
30	0x36607a58	3.3449815e-06
31	0xb8d33fa0	-0.00010073115
32	0x37bda389	2.2606708e-05
33	0x37d4161d	2.5282667e-05
34	0x00000000	0.0
35	0xb6ab818f	-5.1112797e-06
36	0x00000000	0.0
37	0xb696d678	-4.495316e-06
38	0x00000000	0.0
39	0xb696d66f	-4.4953117e-06
40	0x00000000	0.0
41	0xb6c12a44	-5.7567686e-06
42	0x00000000	0.0
43	0xb6c12a40	-5.7567668e-06
44	0x00000000	0.0
45	0xb741c970	-1.1550597e-05
46	0x00000000	0.0
47	0xb741c954	-1.1550572e-05
48	0xba225375	-0.00061922456
49	0xb91d0df7	-0.00014977889
50	0x394a41fd	0.00019288804
51	0x00000000	0.0
52	0xb616176b	-2.2365373e-06
53	0x00000000	0.0
54	0xb6040105	-1.9670126e-06
55	0x00000000	0.0
56	0xb60400ec	-1.967007e-06
57	0x00000000	0.0
58	0xb6290bd1	-2.518984e-06
59	0x00000000	0.0
60	0xb6290bc8	-2.518982e-06
61	0x00000000	0.0
62	0xb6a9971e	-5.054185e-06
63	0x00000000	0.0
64	0xb6a996f8	-5.0541676e-06
65	0xb9c60198	-0.0003776669
66	0xb8621849	-5.3905216e-05
67	0x3933f7fa	0.00017163149
68	0x00000000	0.0
69	0xb58ecae7	-1.0638877e-06
70	0x00000000	0.0
71	0xb57b2aba	-9.356696e-07
72	0x00000000	0.0
73	0xb57b2b70	-9.3567996e-07
74	0x00000000	0.0
75	0xb5a0d308	-1.1982347e-06
76	0x00000000	0.0
77	0xb5a0d372	-1.1982468e-06
78	0x00000000	0.0
79	0xb621576c	-2.4041756e-06
80	0x00000000	0.0
81	0xb621580b	-2.4042117e-06
82	0x3a2b125d	0.00065258687
83	0xb798ecb6	-1.823004e-05
84	0xb91daa28	-0.00015036075
85	0x00000000	0.0
86	0x367e9f16	3.794155e-06
87	0x00000000	0.0
88	0x365fefbd	3.3369136e-06
89	0x00000000	0.0
90	0x365fefbe	3.3369138e-06
91	0x00000000	0.0
92	0x368f6369	4.273305e-06
93	0x00000000	0.0
94	0x368f6358	4.2732972e-06
95	0x00000000	0.0
96	0x370fd99c	8.57413e-06
97	0x00000000	0.0
98	0x370fd96c	8.574087e-06
99	0x3a240420	0.0006256718
100	0x392693d9	0.00015886071
101	0x39d3f577	0.00040427942
102	0x00000000	0.0
103	0xb58e00c1	-1.0580044e-06
104	0x00000000	0.0
105	0xb579c7dd	-9.305057e-07
106	0x00000000	0.0
107	0xb579c774	-9.304997e-07
108	0x00000000	0.0
109	0xb59fef9d	-1.191616e-06
110	0x00000000	0.0
111	0xb59fef95	-1.1916151e-06
112	0x00000000	0.0
113	0xb620735f	-2.3909013e-06
114	0x00000000	0.0
115	0xb6207354	-2.3908988e-06
116	0xb92afd88	-0.00016306911
117	0xb7ed74bb	-2.8306958e-05
118	0x38cf1edb	9.8762765e-05
119	0x00000000	0.0
120	0x3776d725	1.4712835e-05
121	0x00000000	0.0
122	0x375917da	1.2939761e-05
123	0x00000000	0.0
124	0x375917ed	1.2939779e-05
125	0x00000000	0.0
126	0x378b01ab	1.6570868e-05
127	0x00000000	0.0
128	0x378b01ad	1.6570872e-05
129	0x00000000	0.0
130	0x380b7436	3.3248412e-05
131	0x00000000	0.0
132	0x380b7429	3.3248365e-05
133	0x3aa04975	0.0012228923
134	0x39a1c81a	0.000308574
135	0xba65cc1c	-0.00087660714
136	0x00000000	0.0
137	0xb6dd342d	-6.5923873e-06
138	0x00000000	0.0
139	0xb6c28bb0	-5.7979123e-06
140	0x00000000	0.0
141	0xb6c28bed	-5.79794e-06
142	0x00000000	0.0
143	0xb6f92375	-7.424906e-06
144	0x00000000	0.0
145	0xb6f9237a	-7.4249083e-06
146	0x00000000	0.0
147	0xb779f0d8	-1.4897632e-05
148	0x00000000	0.0
149	0xb779f091	-1.4897568e-05
150	0xba7a99cc	-0.00095596607
151	0xb99a6631	-0.00029449307
152	0xba29a802	-0.00064718735
153	0x00000000	0.0
154	0x366ebaf7	3.5573592e-06
155	0x00000000	0.0
156	0x3651f5e2	3.128655e-06
157	0x00000000	0.0
158	0x3651f5ec	3.1286572e-06
159	0x00000000	0.0
160	0x36867078	4.0066043e-06
161	0x00000000	0.0
162	0x36867079	4.0066047e-06
163	0x00000000	0.0
164	0x3706df3b	8.038997e-06
165	0x00000000	0.0
166	0x3706df36	8.038993e-06
167	0x39e97032	0.00044524815
168	0x389e1f0d	7.539811e-05
169	0xb9c38292	-0.0003729058
170	0x00000000	0.0
171	0xb600a9ad	-1.917225e-06
172	0x00000000	0.0
173	0xb5e25076	-1.6861729e-06
174	0x00000000	0.0
175	0xb5e250e7	-1.6861858e-06
176	0x00000000	0.0
177	0xb610e95c	-2.1593505e-06
178	0x00000000	0.0
179	0xb610e946	-2.1593455e-06
180	0x00000000	0.0
181	0xb69160d8	-4.332611e-06
182	0x00000000	0.0
183	0xb6916090	-4.332578e-06
184	0xb9e0fd45	-0.0004291331
185	0xb86e6f66	-5.684737e-05
186	0xb7a28f6a	-1.9378687e-05
187	0x00000000	0.0
188	0xb638a02b	-2.7511367e-06
189	0x00000000	0.0
190	0xb622602a	-2.4195856e-06
191	0x00000000	0.0
192	0xb6226054	-2.4195951e-06
193	0x00000000	0.0
194	0xb64ff0e3	-3.0985618e-06
195	0x00000000	0.0
196	0xb64ff103	-3.098569e-06
197	0x00000000	0.0
198	0xb6d09c30	-6.2170657e-06
199	0x00000000	0.0
200	0xb6d09c55	-6.2170825e-06
201	0x3a0222e0	0.0004964303
202	0xb88cd073	-6.714547e-05
203	0xb947e334	-0.00019062759
204	0x00000000	0.0
205	0xb668194c	-3.4585419e-06
206	0x00000000	0.0
207	0xb64c20b5	-3.0417407e-06
208	0x00000000	0.0
209	0xb64c20e3	-3.0417511e-06
210	0x00000000	0.0
211	0xb682b463	-3.8953017e-06
212	0x00000000	0.0
213	0xb682b473	-3.895309e-06
214	0x00000000	0.0
215	0xb703201b	-7.815684e-06
216	0x00000000	0.0
217	0xb7032018	-7.815681e-06
218	0x39121279	0.00013930527
219	0xb927497e	-0.00015953739
220	0xba2bea58	-0.0006558052
221	0x00000000	0.0
222	0xb76df50a	-1.4183353e-05
223	0x00000000	0.0
224	0xb75147cd	-1.2474088e-05
225	0x00000000	0.0
226	0xb75147db	-1.2474101e-05
227	0x00000000	0.0
228	0xb7860102	-1.5974514e-05
229	0x00000000	0.0
230	0xb786010e	-1.5974536e-05
231	0x00000000	0.0
232	0xb8066f6a	-3.2051852e-05
233	0x00000000	0.0
234	0xb8066f6f	-3.205187e-05
235	0x39caafdd	0.0003865947
236	0xb99ec81f	-0.0003028521
237	0xb798b93a	-1.8206065e-05
238	0x00000000	0.0
239	0x35243fbf	6.1187524e-07
240	0x00000000	0.0
241	0x351074c8	5.381412e-07
242	0x00000000	0.0
243	0x35107431	5.381326e-07
244	0x00000000	0.0
245	0x3538fe3d	6.8915307e-07
246	0x00000000	0.0
247	0x3538fddf	6.891477e-07
248	0x00000000	0.0
249	0x35b99678	1.3827366e-06
250	0x00000000	0.0
251	0x35b99673	1.3827361e-06
252	0x3953ecca	0.00020210739
253	0xb8721a13	-5.772158e-05
254	0xba04a5a5	-0.00050600833
255	0x00000000	0.0

exp_avg_sq f4 [128, 17]
0	0x00000000	0.0
1	0x3105678c	1.9412907e-09
2	0x00000000	0.0
3	0x30ce6076	1.5015889e-09
4	0x00000000	0.0
5	0x30ce6071	1.5015883e-09
6	0x00000000	0.0
7	0x31293a09	2.4625726e-09
8	0x00000000	0.0
9	0x31293a0e	2.4625737e-09
10	0x00000000	0.0
11	0x322a32d4	9.906859e-09
12	0x00000000	0.0
13	0x322a514d	9.913788e-09
14	0x37a6fcda	1.9906485e-05
15	0x3557bf18	8.037182e-07
16	0x3765d6ca	1.3699473e-05
17	0x00000000	0.0
18	0x30bf9c0f	1.3941434e-09
19	0x00000000	0.0
20	0x309435cd	1.0783708e-09
21	0x00000000	0.0
22	0x309435c7	1.0783702e-09
23	0x00000000	0.0
24	0x30f30fb6	1.7685042e-09
25	0x00000000	0.0
26	0x30f30fb4	1.768504e-09
27	0x00000000	0.0
28	0x31f4500d	7.1104354e-09
29	0x00000000	0.0
30	0x31f4a0a8	7.119599e-09
31	0x3731f6e9	1.060751e-05
32	0x3532cb96	6.6606424e-07
33	0x36e8de63	6.940028e-06
34	0x00000000	0.0
35	0x31b5244e	5.2719207e-09
36	0x00000000	0.0
37	0x318c1d15	4.0778425e-09
38	0x00000000	0.0
39	0x318c1cff	4.0778327e-09
40	0x00000000	0.0
41	0x31e5c869	6.687561e-09
42	0x00000000	0.0
43	0x31e5c84f	6.6875496e-09
44	0x00000000	0.0
45	0x32e71e6b	2.6905772e-08
46	0x00000000	0.0
47	0x32e7438f	2.6922661e-08
48	0x37bddda8	2.2633772e-05
49	0x35cd168a	1.528025e-06
50	0x37e2fb9d	2.7058466e-05
51	0x00000000	0.0
52	0x311a73a2	2.247568e-09
53	0x00000000	0.0
54	0x30eeefc2	1.7384922e-09
55	0x00000000	0.0
56	0x30eeefc0	1.738492e-09
57	0x00000000	0.0
58	0x3143ecee	2.8510914e-09
59	0x00000000	0.0
60	0x3143ecf5	2.851093e-09
61	0x00000000	0.0
62	0x3244df69	1.1459499e-08
63	0x00000000	0.0
64	0x3245302c	1.1477862e-08
65	0x378b59b2	1.6611859e-05
66	0x35562d33	7.9786986e-07
67	0x37e393c9	2.7129327e-05
68	0x00000000	0.0
69	0x314d09ab	2.9836922e-09
70	0x00000000	0.0
71	0x311e98d0	2.307889e-09
72	0x00000000	0.0
73	0x311e98bf	2.3078852e-09
74	0x00000000	0.0
75	0x31820c3b	3.7848884e-09
76	0x00000000	0.0
77	0x31820c2e	3.7848826e-09
78	0x00000000	0.0
79	0x3282dfb3	1.5235718e-08
80	0x00000000	0.0
81	0x3282e2be	1.5237102e-08
82	0x379aec38	1.8468229e-05
83	0x357aca97	9.3427064e-07
84	0x3782f268	1.5610087e-05
85	0x00000000	0.0
86	0x3121b60f	2.3532072e-09
87	0x00000000	0.0
88	0x30fa2b1c	1.8202146e-09
89	0x00000000	0.0
90	0x30fa2ab6	1.8202033e-09
91	0x00000000	0.0
92	0x314d22d8	2.9851233e-09
93	0x00000000	0.0
94	0x314d2266	2.985098e-09
95	0x00000000	0.0
96	0x324e50d6	1.2009158e-08
97	0x00000000	0.0
98	0x324e74e3	1.2017355e-08
99	0x3725ee9c	9.890322e-06
100	0x35316d5f	6.6096794e-07
101	0x37557567	1.2723124e-05
102	0x00000000	0.0
103	0x30a5fad7	1.2076623e-09
104	0x00000000	0.0
105	0x308062be	9.34129e-10
106	0x00000000	0.0
107	0x308062b2	9.341277e-10
108	0x00000000	0.0
109	0x30d28cb4	1.5319501e-09
110	0x00000000	0.0
111	0x30d28ca4	1.5319483e-09
112	0x00000000	0.0
113	0x31d3d70d	6.1653567e-09
114	0x00000000	0.0
115	0x31d3e814	6.1672925e-09
116	0x37012df0	7.699695e-06
117	0x354a22a2	7.530126e-07
118	0x37102812	8.592398e-06
119	0x00000000	0.0
120	0x31e9faff	6.8097274e-09
121	0x00000000	0.0
122	0x31b4fbe6	5.267327e-09
123	0x00000000	0.0
124	0x31b4fbd0	5.2673172e-09
125	0x00000000	0.0
126	0x3214679f	8.6382945e-09
127	0x00000000	0.0
128	0x32146795	8.638286e-09
129	0x00000000	0.0
130	0x33155bcf	3.4775265e-08
131	0x00000000	0.0
132	0x33155c6c	3.4775823e-08
133	0x37ce9970	2.4628564e-05
134	0x361d3271	2.3424184e-06
135	0x379841b7	1.8150413e-05
136	0x00000000	0.0
137	0x3191e4bc	4.2460595e-09
138	0x00000000	0.0
139	0x3161b2b7	3.2843397e-09
140	0x00000000	0.0
141	0x3161b284	3.2843284e-09
142	0x00000000	0.0
143	0x31b911ca	5.386231e-09
144	0x00000000	0.0
145	0x31b911a3	5.3862137e-09
146	0x00000000	0.0
147	0x32ba433c	2.1683825e-08
148	0x00000000	0.0
149	0x32ba4308	2.1683732e-08
150	0x37c171e8	2.3060435e-05
151	0x35eb649a	1.7538143e-06
152	0x37b5c859	2.1670176e-05
153	0x00000000	0.0
154	0x2fe76a33	4.2094114e-10
155	0x00000000	0.0
156	0x2fb2ffdb	3.2559808e-10
157	0x00000000	0.0
158	0x2fb2ffdb	3.2559808e-10
159	0x00000000	0.0
160	0x3012c70b	5.339735e-10
161	0x00000000	0.0
162	0x3012c714	5.33974e-10
163	0x00000000	0.0
164	0x3113b716	2.1495388e-09
165	0x00000000	0.0
166	0x3113b946	2.1496631e-09
167	0x36e70e61	6.8860104e-06
168	0x343dbf93	1.7671691e-07
169	0x37089fa5	8.143402e-06
170	0x00000000	0.0
171	0x307eee19	9.274302e-10
172	0x00000000	0.0
173	0x30453067	7.1736966e-10
174	0x00000000	0.0
175	0x3045305f	7.173692e-10
176	0x00000000	0.0
177	0x30a1b153	1.176469e-09
178	0x00000000	0.0
179	0x30a1b14d	1.1764684e-09
180	0x00000000	0.0
181	0x31a2bc7e	4.7362496e-09
182	0x00000000	0.0
183	0x31a2bc19	4.7362048e-09
184	0x377ce775	1.5074261e-05
185	0x34efb4be	4.4648726e-07
186	0x36f066b6	7.1645145e-06
187	0x00000000	0.0
188	0x314c34a3	2.9715828e-09
189	0x00000000	0.0
190	0x311df407	2.298522e-09
191	0x00000000	0.0
192	0x311df401	2.2985207e-09
193	0x00000000	0.0
194	0x31818509	3.7695185e-09
195	0x00000000	0.0
196	0x3181850d	3.7695203e-09
197	0x00000000	0.0
198	0x32825512	1.5172677e-08
199	0x00000000	0.0
200	0x32825acc	1.5175281e-08
201	0x37b92e02	2.2075143e-05
202	0x35868f8b	1.0025555e-06
203	0x3785d32d	1.5953172e-05
204	0x00000000	0.0
205	0x31296b03	2.4653566e-09
206	0x00000000	0.0
207	0x31030baa	1.906964e-09
208	0x00000000	0.0
209	0x31030b83	1.9069553e-09
210	0x00000000	0.0
211	0x3156e961	3.127376e-09
212	0x00000000	0.0
213	0x3156e924	3.1273624e-09
214	0x00000000	0.0
215	0x3258333e	1.2584506e-08
216	0x00000000	0.0
217	0x32584baf	1.2590063e-08
218	0x377e2fc4	1.5150701e-05
219	0x35060978	4.993267e-07
220	0x374de911	1.2273217e-05
221	0x00000000	0.0
222	0x3276e66e	1.4371478e-08
223	0x00000000	0.0
224	0x323efa38	1.1116349e-08
225	0x00000000	0.0
226	0x323efa33	1.1116344e-08
227	0x00000000	0.0
228	0x329c996f	1.8230564e-08
229	0x00000000	0.0
230	0x329c996f	1.8230564e-08
231	0x00000000	0.0
232	0x339d9b3c	7.339119e-08
233	0x00000000	0.0
234	0x339d9bd0	7.339224e-08
235	0x38a918f6	8.063197e-05
236	0x369042a8	4.2992942e-06
237	0x389f6e06	7.602204e-05
238	0x00000000	0.0
239	0x30c9d9d0	1.4686581e-09
240	0x00000000	0.0
241	0x309c21ad	1.1360065e-09
242	0x00000000	0.0
243	0x309c21a3	1.1360054e-09
244	0x00000000	0.0
245	0x310006a2	1.8630222e-09
246	0x00000000	0.0
247	0x310006a7	1.8630233e-09
248	0x00000000	0.0
249	0x3200a83a	7.488831e-09
250	0x00000000	0.0
251	0x3200d9e9	7.500128e-09
252	0x36e906ee	6.944748e-06
253	0x349a53b6	2.8745643e-07
254	0x37010007	7.6890055e-06
255	0x00000000	0.0

exp_avg f4 [128]
0	0x392fcf39	0.00016766497
1	0x38813095	6.1602484e-05
2	0xb95f0d91	-0.00021271991
3	0xb8c333f1	-9.3079994e-05
4	0xb839b53f	-4.4276236e-05
5	0x3925932f	0.00015790456
6	0xb838aed0	-4.4031825e-05
7	0x3a2083d6	0.0006123161
8	0xb98fd833	-0.00027436166
9	0x391b3db5	0.0001480494
10	0xb8a75599	-7.979124e-05
11	0xb8f01d8b	-0.000114495946
12	0xb916edb9	-0.00014393673
13	0xba1abce9	-0.00059027836
14	0x37d59ce6	2.546464e-05
15	0x38679747	5.521558e-05
16	0xb96c449a	-0.0002253227
17	0xb7e1be8c	-2.691082e-05
18	0xb8cf19df	-9.875348e-05
19	0xb9b965f4	-0.0003536191
20	0x387a93eb	5.9742404e-05
21	0x39649d5b	0.00021802394
22	0x38cc2935	9.7351534e-05
23	0xb8e56d55	-0.000109399356
24	0xb9a16543	-0.0003078376
25	0xbaa673a0	-0.0012699254
26	0x3947c1ce	0.00019050317
27	0x3858d7d2	5.169941e-05
28	0xb894e5c4	-7.099987e-05
29	0xba6dfaeb	-0.0009078222
30	0xba0d2341	-0.00053839764
31	0xb910ab9b	-0.00013796838
32	0x3a60eb58	0.0008579991
33	0x3991ccd8	0.00027809176
34	0xb92d3400	-0.00016517937
35	0xb9d55f33	-0.00040697455
36	0x37e51cf4	2.731241e-05
37	0xb9000d4c	-0.00012211985
38	0xb9b64a1e	-0.00034768967
39	0xb96c9599	-0.00022562443
40	0xb8d13d9c	-9.977372e-05
41	0xb60ce1d9	-2.0993086e-06
42	0xb8f60f06	-0.000117329924
43	0x393f3c97	0.00018237751
44	0x39105408	0.00013764214
45	0xba0d5405	-0.0005391243
46	0xbaa449a1	-0.001253415
47	0xba0525d4	-0.0005079184
48	0xb9190412	-0.00014592733
49	0x39b7d2c2	0.00035061507
50	0xb9fc43d7	-0.0004811573
51	0xba1b221a	-0.0005917862
52	0x393f766a	0.00018259292
53	0x3990ba12	0.00027604453
54	0xb88112ae	-6.154679e-05
55	0x38dbc9e0	0.00010480336
56	0xb867322f	-5.512143e-05
57	0x377777f1	1.4750273e-05
58	0x39e2eda2	0.0004328313
59	0xb9586a18	-0.00020638888
60	0xb9c2a488	-0.0003712515
61	0xb906b644	-0.00012847135
62	0xba84f740	-0.0010144487
63	0xb981643b	-0.00024679475
64	0x394706e7	0.0001898069
65	0x38b67f7f	8.702184e-05
66	0xb9ea8a25	-0.00044734884
67	0x3921536d	0.00015385235
68	0xb9c3254f	-0.00037221095
69	0xb99b5ebf	-0.00029634495
70	0xb630fa06	-2.6371576e-06
71	0xb9cdd3ad	-0.00039258358
72	0xb9b92eae	-0.0003532073
73	0x38dba0bf	0.00010472675
74	0x3a05fd76	0.0005111316
75	0x37a052be	1.9112016e-05
76	0xb7d66ca1	-2.5561372e-05
77	0x398aa480	0.00026443973
78	0x399ce1bf	0.00029922833
79	0x395c2b03	0.00020996858
80	0xba3d3527	-0.0007217698
81	0xb9c31a10	-0.00037212716
82	0x39251ba9	0.0001574593
83	0xba864387	-0.0010243513
84	0xb89d2b90	-7.4944575e-05
85	0xb8c977ea	-9.6067626e-05
86	0xb9ee7b84	-0.00045486924
87	0x3914ae72	0.00014179366
88	0xb7186488	-9.083313e-06
89	0x3889da37	6.573315e-05
90	0x38cbdf1d	9.7213524e-05
91	0xb9600455	-0.00021363918
92	0xba094ab8	-0.0005237269
93	0x39049cab	0.00012646864
94	0xb9b50672	-0.00034527812
95	0xb81cc11b	-3.7373142e-05
96	0x398f3de1	0.0002732119
97	0xb918c1e0	-0.00014568074
98	0xba6fded4	-0.00091503304
99	0x38d4c811	0.00010146213
100	0xb904a740	-0.00012650806
101	0x38f56eb0	0.000117031275
102	0x3811248c	3.460473e-05
103	0x37e7b7b6	2.7622893e-05
104	0x390a2444	0.00013174216
105	0xb9d83cc8	-0.00041244016
106	0xba2da717	-0.00066243246
107	0xb89d01c5	-7.486673e-05
108	0xba1947fb	-0.0005847213
109	0xb9590ada	-0.00020698775
110	0xb9f05a73	-0.00045843757
111	0xb9ebee5f	-0.00045000293
112	0xb8d4bee9	-0.000101445075
113	0xb7c9e646	-2.4068297e-05
114	0xb93f54f5	-0.00018246828
115	0x38ce9030	9.8497025e-05
116	0x385687c1	5.1148007e-05
117	0xb9799c7a	-0.00023804783
118	0xbac55ab7	-0.0015056942
119	0xba00fa8e	-0.0004920148
120	0x3895e037	7.146637e-05
121	0x38d320b3	0.00010067355
122	0x3934f478	0.0001725721
123	0xba107aa0	-0.00055114366
124	0xb8d34b49	-0.00010075287
125	0x38086300	3.2517128e-05
126	0x3957339c	0.00020523224
127	0x382b6a31	4.0868475e-05
