results/CubeAgentRay/CubeAgentRay/CubeAgentRay-100002.pt (torch, 476943 bytes, 39 tensors)

network_body._body_endoder.seq_layers.0.weight f4 [128, 17]
0	0x3ea8b8d6	0.3295352
1	0x3c5955da	0.0132650975
2	0x3dbab2f5	0.091161646
3	0xbe31d2bb	-0.17365544
4	0xbe025fcb	-0.12731855
5	0x3cd35fd1	0.025802525
6	0x3ddacd78	0.10683721
7	0xbeae6567	-0.3406174
8	0x3ed107f1	0.4082637
9	0x3f3578f5	0.7088769
10	0xbf062cca	-0.5241209
11	0xbebcecf6	-0.36899537
12	0x3ef05198	0.4693725
13	0x3f1fbb22	0.62394917
14	0x3ebdebfa	0.37094098
15	0x3da21b06	0.079153106
16	0x3e88dd57	0.2673137
17	0xbe81a0e0	-0.2531805
18	0x3da40526	0.080087945
19	0xbdfa1ca3	-0.12212493
20	0x3e90e7b6	0.2830178
21	0x3d1968fb	0.037453633
22	0xbd5c35f2	-0.053762384
23	0x3e162a4e	0.14664575
24	0x3e6fc3e1	0.23414566
25	0x3eafd4c3	0.34342012
26	0xbe59c692	-0.21267155
27	0x3df09ce5	0.11748675
28	0xbe926c10	-0.2859807
29	0x3e8991ad	0.26868954
30	0xbdf1cc78	-0.118065774
31	0xbe1aa6ce	-0.15102693
32	0x3eaa9b2b	0.3332151
33	0x3ed3cbb0	0.4136634
34	0x3d42c22e	0.047548465
35	0xbe2ba110	-0.16760659
36	0x3e250378	0.16114604
37	0x3e125bb4	0.14292794
38	0x3de0c462	0.10974957
39	0xbea4a99b	-0.3216065
40	0x3cc36fa0	0.023856938
41	0x3dd49153	0.10379281
42	0x3dadb254	0.08481279
43	0x3e4796c7	0.1949111
44	0x3e64e666	0.22353515
45	0x3f02fb18	0.5116439
46	0xbf045d14	-0.51704526
47	0x3dda79ac	0.10667738
48	0xbd823724	-0.063581735
49	0x3f033f2f	0.51268286
50	0xbdad3eca	-0.08459242
51	0x3eafdea5	0.34349552
52	0xbe3a6743	-0.18203454
53	0x3c87d2ef	0.016580073
54	0x3cdec1f5	0.027192095
55	0xbe9248f8	-0.28571296
56	0x3e617b06	0.22019586
57	0x3e8a3b83	0.2699853
58	0x3e88dfa6	0.2673313
59	0xbeaddc6e	-0.33957237
60	0x3d0c0924	0.034188405
61	0xbbf169d5	-0.0073673525
62	0x3e3fce11	0.18730952
63	0xbebc16f7	-0.3673627
64	0x3e8c4b2d	0.27401105
65	0xbb1b9f49	-0.0023746064
66	0x3e8eab3a	0.2786501
67	0x3e77d0d8	0.24200761
68	0x3d3cbb03	0.046076786
69	0xbeaf2356	-0.34206647
70	0x3f2337c3	0.6375696
71	0xbea9f0a3	-0.33191404
72	0x3e1138a3	0.14181761
73	0xbd1bf5f1	-0.038076345
74	0xbe71a06c	-0.23596352
75	0xbe7a4f28	-0.24444258
76	0x3f1c52ab	0.6106364
77	0x3e830019	0.25586012
78	0xbe391397	-0.18073879
79	0xbeb85364	-0.36001122
80	0xbdafa87e	-0.08577059
81	0x3f23c7c8	0.63976717
82	0xbea44a74	-0.32088053
83	0xbb94a7c2	-0.0045366
84	0xbd996355	-0.07489649
85	0xbd91c635	-0.07117883
86	0x3d9161b2	0.07098712
87	0xbe1bcfb3	-0.1521595
88	0x3e13b19a	0.14423218
89	0xbdc077f4	-0.09397879
90	0x3e230c8b	0.15922754
91	0x3e688c97	0.22709881
92	0xbd85096d	-0.064959385
93	0xbd9d7643	-0.07688572
94	0x3e6b74f4	0.22993833
95	0x3ef00303	0.46877298
96	0xbe28a9e2	-0.16471055
97	0xbe96a6cc	-0.2942413
98	0xbc94b0d8	-0.018150732
99	0xbe6062b7	-0.21912657
100	0xbd912d1a	-0.070886806
101	0xbe13996c	-0.14413995
102	0xbe83a00e	-0.2570805
103	0x3d95c293	0.07312503
104	0x3c9414bb	0.018076291
105	0xbe27e79d	-0.16396947
106	0xbe95f9a2	-0.29292017
107	0xbe64a47e	-0.22328374
108	0xbe0c48f9	-0.13699712
109	0x3e7e8b49	0.2485782
110	0xbee2999d	-0.44257823
111	0x3d96f4f4	0.0737094
112	0xbe9c2497	-0.30496666
113	0x3e30b1d3	0.17255335
114	0x3e46cf66	0.19415054
115	0xbe87d000	-0.2652588
116	0xbda9b8b1	-0.0828718
117	0x3ef30781	0.47466663
118	0x3e6b48ee	0.22977039
119	0xbd2f60ef	-0.042817052
120	0xbebaca47	-0.3648245
121	0xbcb0f5a9	-0.021601515
122	0x3e2e0eed	0.16997881
123	0x3ec3f893	0.38275585
124	0x3eb24770	0.34820127
125	0xbe0c3534	-0.1369217
126	0x3d8f9a6a	0.07011874
127	0xbda082ac	-0.07837424
128	0x3d0141b4	0.0315568
129	0x3eac10f5	0.33606687
130	0x3e4d4945	0.20047481
131	0xbe2272c8	-0.15864098
132	0x3e6af1da	0.22943822
133	0xbd4b5b57	-0.049647655
134	0x3e51d3af	0.20490907
135	0x3e36b1af	0.17841218
136	0xbe88a4de	-0.26688284
137	0xbf2fdfcc	-0.6870086
138	0x3cb9ef7f	0.022697208
139	0x3f10b43f	0.56525034
140	0x3e3b42e0	0.1828723
141	0x3e66af08	0.22527707
142	0x3e9d9e1a	0.30784684
143	0xbd6c27c2	-0.057655104
144	0xbe5c69d6	-0.21524748
145	0xbe513bc5	-0.20432957
146	0x3efa7165	0.48914638
147	0xbf0c0417	-0.5469374
148	0xbe43e302	-0.19129565
149	0x3cadd979	0.021221863
150	0x3e92e127	0.28687403
151	0xbe07b706	-0.13253412
152	0xbe71ab5a	-0.23600522
153	0xbddd4096	-0.108033344
154	0xbe1840e4	-0.14868504
155	0x3e9e0ad8	0.30867648
156	0x3dc8dcbe	0.09807728
157	0x3eca9058	0.3956325
158	0xbea9abcb	-0.3313888
159	0x3eb09f00	0.34496307
160	0x3e9d6f24	0.30748856
161	0xbed97fca	-0.42480308
162	0xbc34c4a1	-0.011033208
163	0x3ed2d587	0.41178533
164	0x3e37e7e9	0.1795956
165	0xbea2710e	-0.3172688
166	0x3dc74f8f	0.097319715
167	0x3e31e2cb	0.17371671
168	0x3e0b1b1b	0.13584559
169	0x3e50a9b9	0.20377244
170	0x3ea8795e	0.32905096
171	0xbe44be61	-0.19213249
172	0xbe5f826a	-0.21827093
173	0x3cb66c2e	0.022268381
174	0x3d7170cc	0.058945462
175	0x3e00df92	0.12585285
176	0x3cacef78	0.021110281
177	0xbe14f0c0	-0.14544964
178	0x3eea2e63	0.45738515
179	0x3da6f6ed	0.08152566
180	0xbf12381a	-0.57116854
181	0xbe83f469	-0.25772408
182	0xbe8ece91	-0.27891973
183	0x3d7db36f	0.0619387
184	0x3e9b6e3a	0.30357534
185	0xbdb4030b	-0.08789643
186	0x3e371f24	0.17882973
187	0xbe889338	-0.2667482
188	0xbc120cbb	-0.008914168
189	0xbf0e5fdc	-0.5561502
190	0xbe17947d	-0.14802738
191	0xbef6f50f	-0.4823384
192	0x3e44a73a	0.19204417
193	0x3e605bbf	0.21909998
194	0xbdfc457c	-0.123179406
195	0xbeaa952d	-0.33316937
196	0xbe92c217	-0.28663704
197	0x3eda1688	0.42595315
198	0xbe89818d	-0.26856652
199	0xbe97fe37	-0.29686138
200	0xbeb7893d	-0.35846892
201	0xbe3a7af1	-0.18210961
202	0xbe2e3572	-0.17012575
203	0x3d1bb8f4	0.038018182
204	0x3e2bba43	0.16770272
205	0x3c8e7356	0.01738898
206	0x3bc7407c	0.006080685
207	0x3e4124a8	0.1886164
208	0x3e63797c	0.22214311
209	0xbe99591d	-0.299508
210	0x3c6cfb2d	0.014464182
211	0x3e3aa92e	0.182286
212	0x3e8d0dbf	0.2754955
213	0xbe42657a	-0.18984023
214	0x3ed524eb	0.4162973
215	0x3f04de31	0.5190154
216	0xbea68702	-0.32524878
217	0x3e1451dd	0.14484353
218	0xbe3bd97a	-0.1834468
219	0x3da060bf	0.07830953
220	0xbe054628	-0.13015044
221	0xbc828006	-0.015930187
222	0x3d3695cf	0.044576462
223	0xbf13124b	-0.5744979
224	0x3d933490	0.0718776
225	0x3ea1a75d	0.31573
226	0xbd87eb38	-0.06636661
227	0x3db7461c	0.08948919
228	0xbe8a32ff	-0.26992032
229	0x3e074421	0.13209583
230	0x3ea73835	0.3266007
231	0xbe15991b	-0.14609186
232	0x3cee9dea	0.029128034
233	0x3d8f9b37	0.07012027
234	0x3dfe66bb	0.12421938
235	0xbeeaf24f	-0.45887992
236	0xbe9d9031	-0.30774072
237	0x3e5b1a42	0.21396735
238	0x3e250ef3	0.16118984
239	0x3ef6feed	0.48241368
240	0xbee90fbf	-0.45519826
241	0x3ef23642	0.4730702
242	0x3d3a02ff	0.045413014
243	0x3eba74fc	0.36417377
244	0x3e5b1262	0.21393731
245	0xbd8795ee	-0.06620394
246	0xbe06c8dc	-0.1316256
247	0xbe85ee9a	-0.261586
248	0xbe8e44de	-0.27786916
249	0xbdd9f280	-0.10641956
250	0x3e80dbf2	0.25167805
251	0x3d2d5a72	0.042322583
252	0xbd869798	-0.06571883
253	0xbd123f0a	-0.03570465
254	0xbea1d113	-0.31604823
255	0x3e1a8fc8	0.1509391

network_body._body_endoder.seq_layers.0.bias f4 [128]
0	0x3ca02e95	0.019553462
1	0x3d3b2029	0.045684967
2	0x3da9adc7	0.082850985
3	0x3d91bdfd	0.071163155
4	0xbc303995	-0.010755916
5	0x3b8edde3	0.004359947
6	0x3d35dfda	0.044402935
7	0xbc05cb79	-0.008166187
8	0x3cb6357d	0.022242302
9	0x3d3b6c99	0.045757864
10	0x3cbc11ad	0.022957647
11	0xbd8d0e98	-0.06887549
12	0x3da5c99d	0.08095095
13	0xbc4b5c6c	-0.012412172
14	0xbc084211	-0.008316533
15	0x3d080016	0.033203207
16	0xbb532993	-0.0032220825
17	0xbd4c3961	-0.04985941
18	0x3c168197	0.00918617
19	0x3c641cfc	0.013922926
20	0x3b56ae45	0.0032757681
21	0xbca9a54c	-0.020708703
22	0xbd8edd59	-0.069758125
23	0xbd04eef0	-0.03245443
24	0x3cc9f7c0	0.02465427
25	0x3d306297	0.043062773
26	0xbd452bc4	-0.04813744
27	0xbc8038d7	-0.015652103
28	0x3ba69884	0.0050840992
29	0x3cb8f35d	0.022576982
30	0x3d89a3f0	0.06720722
31	0x3cd355f7	0.025797827
32	0xbcea440f	-0.028596906
33	0xbb92481b	-0.004464162
34	0xbc35ad4d	-0.011088681
35	0x3d91158a	0.070841864
36	0xbd23827e	-0.03991937
37	0xbd0b3159	-0.03398261
38	0x3d74f152	0.059800453
39	0xbd897eed	-0.06713662
40	0x3c77704b	0.015102456
41	0xbbb043d4	-0.0053791795
42	0xbce29ed3	-0.027663624
43	0x3ba836c0	0.00513348
44	0xbd16216d	-0.03665297
45	0xbbdb9a4f	-0.0067017446
46	0x3d17c91c	0.037057027
47	0x3d283727	0.041068222
48	0xbd88818d	-0.06665335
49	0xbcc99f48	-0.024612084
50	0x3cf813a1	0.030282797
51	0x3d24ed7c	0.040265545
52	0xbcf98e9f	-0.030463515
53	0xbd0755ca	-0.0330408
54	0xbc55bd8b	-0.013045679
55	0x3c58ab69	0.013224461
56	0x3baf8557	0.0053564715
57	0x3d4679d4	0.048456028
58	0xb8f9858d	-0.00011898121
59	0xbd16ecfb	-0.036847096
60	0xbd3e684c	-0.046486184
61	0xbd36fd6f	-0.044675287
62	0x3daf8bba	0.085715726
63	0xbbf33023	-0.00742151
64	0x3cb6e4a4	0.022325821
65	0xbd9e736c	-0.07736859
66	0x3d95909b	0.07302972
67	0x3d311bd4	0.04323943
68	0xbcd12006	-0.025527965
69	0x3cf8f8ce	0.030392077
70	0x3d40ee94	0.047102526
71	0x3d01a4c6	0.03165128
72	0x3d5600c2	0.052246816
73	0xbdb5fe9a	-0.08886452
74	0xbd34c48c	-0.044132754
75	0x3bbfbc6a	0.005851318
76	0x3d021ae3	0.031763922
77	0xbc609a06	-0.013708597
78	0x3c81cf2d	0.01584586
79	0x3c2087a2	0.009797962
80	0x3dbf8299	0.093510814
81	0x3b3d5e68	0.0028895382
82	0xbd32aaad	-0.0436198
83	0x3cffddde	0.031233724
84	0x3b679a90	0.003533993
85	0xbd25414e	-0.040345483
86	0x3ca0d024	0.0196305
87	0x3c2af494	0.0104342885
88	0xbc39432c	-0.011307519
89	0xbd062b99	-0.03275642
90	0xbdf1aeaf	-0.118008964
91	0xbd0e3409	-0.034717593
92	0x3d8be949	0.06831605
93	0x3c04ea06	0.008112436
94	0xbd469713	-0.04848392
95	0x3d46bb89	0.04851869
96	0xbd1515a5	-0.036397595
97	0x3d3653c0	0.044513464
98	0x3cf087d4	0.029361643
99	0xbd6af8b9	-0.057366107
100	0x3b910d29	0.0044266176
101	0xba48c4be	-0.00076587114
102	0xbbc17639	-0.005903986
103	0x3c0edc00	0.008719444
104	0x3d3966c8	0.045264035
105	0xbcdafc71	-0.026731702
106	0x3d97ec53	0.07418122
107	0xbc67f0fe	-0.014156578
108	0x3d1fc071	0.039001886
109	0x3ca03bb3	0.019559717
110	0x3d27ac27	0.04093566
111	0x3d2752aa	0.04085032
112	0x3d27c42d	0.040958572
113	0xbcbb9a76	-0.022900801
114	0xbcf58102	-0.029968742
115	0xbd072591	-0.03299481
116	0x3d143d66	0.036191367
117	0x3d85fe88	0.065426886
118	0x3d76604c	0.06015043
119	0x3dce501c	0.100738734
120	0xbd5c8d68	-0.053845793
121	0xbd20380b	-0.039115947
122	0xbd2f8b9b	-0.042857748
123	0x3b84bacb	0.004050588
124	0x3d4d226d	0.05008166
125	0x3d0ccf66	0.034377478
126	0xbcd6ea53	-0.026234781
127	0xbd2c0761	-0.041999225

network_body._body_endoder.seq_layers.2.weight f4 [128, 128]
0	0xbca27183	-0.019829517
1	0x3d624798	0.05524406
2	0x3d9c7a14	0.07640472
3	0x3df01670	0.117230296
4	0x3c00f040	0.00786978
5	0x3c57dd2e	0.013175292
6	0x3d7c960e	0.06166654
7	0xb7aea14a	-2.0817522e-05
8	0x3d86b40d	0.06577311
9	0x3cb9fd40	0.022703767
10	0x3e32428f	0.17408203
11	0xbd03e777	-0.032203164
12	0x3c994dfe	0.018713947
13	0x3d182265	0.037142176
14	0x3e79a7d8	0.24380434
15	0x3d72f14a	0.059312142
16	0x3d6fbeb0	0.058531463
17	0x3dab0792	0.08351053
18	0x3cd166a4	0.025561638
19	0x3ddcd00a	0.10781868
20	0x3ca30487	0.01989962
21	0x3d427dce	0.047483258
22	0x3d10a170	0.03531021
23	0x3d78fbf2	0.06078715
24	0x3d6cf602	0.0578518
25	0xbd3e77fe	-0.046501152
26	0x3e0316df	0.12801693
27	0xbd861409	-0.0654679
28	0x3c8658f9	0.016399847
29	0x3d85fb9e	0.06542133
30	0xbdb9ccbf	-0.09072255
31	0xbc2463c6	-0.0100335535
32	0x3ddb9da5	0.10723428
33	0xbda7e29e	-0.08197521
34	0x3d262493	0.040562224
35	0x3dd21993	0.10258784
36	0xbdc47772	-0.09593095
37	0x3e18004c	0.14843863
38	0xbb557e05	-0.0032576334
39	0x3e4a665c	0.1976561
40	0x3dfe8917	0.124284916
41	0xbb5e0e85	-0.0033883166
42	0x3d53ceb3	0.051710796
43	0xbd5ec4e2	-0.05438698
44	0x3da0ad1c	0.07845518
45	0x3e4d986b	0.20077674
46	0xbe017354	-0.1264165
47	0x3d940d33	0.0722908
48	0xbdb4e992	-0.088336125
49	0x3d0c771c	0.03429328
50	0xbd67023d	-0.05639862
51	0xbe15e6f3	-0.14638881
52	0xbe6aa744	-0.2291537
53	0xbd807258	-0.06271809
54	0x3c95609c	0.018234544
55	0xbd179d08	-0.03701499
56	0x3c1c664d	0.009545875
57	0xbd184f63	-0.037185084
58	0x3d80ca12	0.06288542
59	0xbd362a12	-0.044473715
60	0x3df09327	0.11746817
61	0x3c834e5e	0.01602858
62	0xbe0243f2	-0.12721232
63	0xbd889efd	-0.066709496
64	0x3dcaa91f	0.098955385
65	0x3cdd8253	0.027039682
66	0xbd86a899	-0.06575126
67	0xbd715357	-0.05891737
68	0xbc31059e	-0.010804562
69	0x3cd78830	0.026310056
70	0x3c8c7176	0.017143946
71	0xb8a07e1b	-7.6528835e-05
72	0xbcf57d82	-0.029967073
73	0xbe46ccdb	-0.19414084
74	0x3e02b948	0.12765992
75	0xbc86be39	-0.016448127
76	0xbbe59c7a	-0.007007179
77	0x3d2ea3fe	0.042636864
78	0x3c181b29	0.009283819
79	0x3e127430	0.14302135
80	0xbda2a32a	-0.07941277
81	0x3db2e6ca	0.08735426
82	0x3cd0bb0d	0.025479818
83	0xbdc67b2f	-0.09691464
84	0x3e0e578b	0.13900582
85	0xbdf10957	-0.117693596
86	0xbd5ec3dd	-0.05438601
87	0x3dfbfcc2	0.12304069
88	0xbd641796	-0.055686556
89	0x3d9cd837	0.07658427
90	0x3c9d2d00	0.019186497
91	0x3ddda23c	0.108219594
92	0xbdf1a2e9	-0.11798651
93	0x3c0dd91e	0.008657722
94	0xbdc46b05	-0.09590725
95	0xbd755f06	-0.059905075
96	0xbda76ff8	-0.08175653
97	0xbd239d97	-0.03994521
98	0x3e3e089d	0.18557973
99	0xbe057846	-0.13034162
100	0xbe374a12	-0.1789935
101	0x3dc0bbaa	0.09410794
102	0xbc742475	-0.01490127
103	0x3ddeaabb	0.10872408
104	0x3d384487	0.044987228
105	0x3c7c45af	0.015397473
106	0xbdef10b9	-0.116731115
107	0xbdc0a9eb	-0.09407409
108	0xbd05974a	-0.032614984
109	0x3e01ae8a	0.12664238
110	0x3dd05037	0.1017155
111	0x3e2b45d9	0.16725864
112	0x3d2e1421	0.042499665
113	0xbd761ded	-0.060087133
114	0x3dc898e7	0.09794789
115	0x3b197b8a	0.0023419582
116	0xbcaa6d19	-0.020803975
117	0x3cce5056	0.025184792
118	0xbcc77ccf	-0.024351506
119	0xbdb10871	-0.08644188
120	0xbcce72df	-0.02520126
121	0xbd72f769	-0.05931798
122	0xbbf41ed3	-0.0074499636
123	0xbd8e1242	-0.06937076
124	0xbd6e5790	-0.058188975
125	0xbe0c5a94	-0.13706428
126	0x3c2f69d2	0.010706382
127	0x3d898a18	0.067157924
128	0xbd421479	-0.047382805
129	0x3d8ed2c9	0.06973798
130	0xbc2840cf	-0.010269358
131	0x3e99ce89	0.30040386
132	0x3e2e05ab	0.1699435
133	0x3e16da0b	0.14731614
134	0x3e4706e3	0.19436221
135	0xbd672d48	-0.056439668
136	0xbe0478a7	-0.1293665
137	0x3c62d7b0	0.013845369
138	0x3cfcc9db	0.030857971
139	0xbdd8cc43	-0.10585835
140	0x3b550bd1	0.0032508264
141	0x3b56a6dc	0.0032753265
142	0x3d438aaa	0.047739662
143	0xbda47373	-0.08029833
144	0x3e213094	0.15741187
145	0x3d8175c7	0.06321292
146	0x3d92f447	0.071754985
147	0xbbef2080	-0.0072975755
148	0x3d126cdf	0.03574836
149	0x3d0ad6f2	0.033896394
150	0x3e6cc1d6	0.23120818
151	0x3d3ec2c3	0.046572458
152	0xbd0dac68	-0.034588248
153	0xbbaf3533	-0.005346918
154	0x3beb7ae8	0.0071862824
155	0x3e488cf7	0.19585024
156	0xbcf9e838	-0.030506238
157	0xbdad5629	-0.08463699
158	0x3c6c3c22	0.014418634
159	0xbdae5162	-0.08511616
160	0x3dd2ddac	0.10296187
161	0x3abf3829	0.0014588881
162	0x3dcb39a1	0.09923101
163	0x3d5e16e7	0.05422106
164	0xbe15bee4	-0.146236
165	0xbd326081	-0.043549065
166	0xbd53703c	-0.051620707
167	0x3e38dfe6	0.1805416
168	0x3e0a1d3d	0.13487716
169	0x3cdd87a7	0.027042223
170	0xbe14b8d4	-0.14523631
171	0xbd37400a	-0.044738807
172	0x3d853185	0.06503586
173	0x3c94f1e6	0.018181752
174	0xbda13c8f	-0.07872879
175	0xbd60fafe	-0.054926865
176	0x3c5b3b28	0.013380803
177	0xbd85f46d	-0.06540761
178	0xbe9264dc	-0.28592575
179	0xbe8ebb14	-0.27877104
180	0xbe27c5d2	-0.16384056
181	0x3dbad314	0.09122291
182	0xbc152413	-0.009102839
183	0x3c115b9d	0.00887194
184	0xbdcf6a0b	-0.10127648
185	0xbdd2ed3a	-0.102991536
186	0x3df4d87f	0.11955356
187	0xbbcb1737	-0.006197836
188	0xbc26963c	-0.010167655
189	0xbdee156e	-0.11625181
190	0x3e2ea9b5	0.17056926
191	0x3ddc226e	0.107487544
192	0x3d1d7268	0.038439184
193	0xbbd5995f	-0.0065185274
194	0xbe376e2a	-0.17913118
195	0xbd399a56	-0.0453132
196	0xbd039283	-0.032122146
197	0xbd89fdb0	-0.0673784
198	0xbdfafbba	-0.12255044
199	0xbc9dd2f4	-0.01926563
200	0x3e1d9c4f	0.15391658
201	0xbb826b85	-0.0039801025
202	0x3dbe8f4d	0.09304676
203	0x3dc9bfe7	0.098510556
204	0x3e2e91f7	0.17047869
205	0x3c19ad46	0.0093796905
206	0x3e221c20	0.15831041
207	0xbe399bde	-0.18125865
208	0xbd384e16	-0.044996344
209	0xbd561f35	-0.052275855
210	0xbe3717ff	-0.17880248
211	0x3a8aded8	0.0010594977
212	0x3e3c5de4	0.18395191
213	0x3daba4ba	0.083810285
214	0x3d4018e7	0.04689875
215	0xbd19ae7a	-0.03751991
216	0x3d0cbf44	0.034362093
217	0x3ca13f7c	0.019683592
218	0x3d97329e	0.07382701
219	0xbdcdc1dc	-0.10046741
220	0x3dfd9085	0.123810805
221	0x3e4431e4	0.19159657
222	0x3d85094a	0.064959124
223	0xbd8ba220	-0.06818032
224	0x3e08957b	0.13338272
225	0x3d961684	0.07328513
226	0xbd66e5c9	-0.056371484
227	0xbd41ed75	-0.047345597
228	0x3e6a43cd	0.22877426
229	0xbc9c49e4	-0.019078203
230	0xbe3d2a56	-0.18473181
231	0x3d5a0197	0.053224172
232	0x3cefcda2	0.029272858
233	0x3c32b830	0.010908172
234	0xbe204b55	-0.15653737
235	0x3ccc3e92	0.02493218
236	0x3cb880c9	0.022522347
237	0xbc86a71a	-0.016437102
238	0x3d66eade	0.05637633
239	0xbdbf4ee1	-0.09341217
240	0xbe2b73f1	-0.16743447
241	0x3dec0e02	0.11526109
242	0x3e13bc8a	0.1442739
243	0xbd67658f	-0.05649334
244	0x3d94375e	0.07237123
245	0xbc852a65	-0.016255567
246	0x3cfc30a0	0.030784905
247	0x3d2a62ee	0.041598253
248	0x3dbf72b7	0.09348052
249	0xbb2eaca5	-0.0026653197
250	0x3d6071c4	0.054795995
251	0xbdfd1dc2	-0.123591915
252	0x3e43f583	0.19136624
253	0xbd9e28f0	-0.07722652
254	0x3c2a7ed5	0.010406216
255	0xbc20e2c3	-0.009819689

network_body._body_endoder.seq_layers.2.bias f4 [128]
0	0xbd4d4abe	-0.050120108
1	0x3c78a321	0.015175612
2	0xbb6a1a4e	-0.0035721245
3	0x3be84d16	0.0070892675
4	0x3d67751b	0.056508165
5	0x3c891a91	0.0167363
6	0x3d262166	0.040559195
7	0x3d428322	0.04748834
8	0x3d8a6f24	0.0675948
9	0x3a3dd174	0.0007240989
10	0x3c9b7559	0.018976854
11	0x3d296783	0.041358482
12	0x3d08f53c	0.033437
13	0x3d8663dc	0.065620154
14	0xbc685d81	-0.014182449
15	0xbcf5a436	-0.029985528
16	0x3d4f34a4	0.05058731
17	0x3d009ba8	0.031398445
18	0x3d520708	0.051276237
19	0xbca05dcc	-0.019575976
20	0xbd35d60f	-0.044393595
21	0x3d02784c	0.031853005
22	0x3c487087	0.01223386
23	0xbc95c3b6	-0.018281799
24	0xbd1886ee	-0.037238054
25	0x3db10162	0.08642842
26	0x3d280ebb	0.041029673
27	0x3c3b6173	0.011436808
28	0x3d306845	0.04306819
29	0xbc601ba7	-0.013678468
30	0xbbf8f18d	-0.0075971545
31	0x3d08e228	0.033418804
32	0x3d333dd0	0.04376012
33	0x3a12ef1d	0.00056050887
34	0x3d6851bf	0.056718584
35	0x3c21763e	0.009854851
36	0x3dc6d67c	0.097088784
37	0x3cae01af	0.021241037
38	0x3bad3900	0.005286336
39	0x3d90af90	0.07064736
40	0x3d0ad302	0.03389264
41	0x3d4597b5	0.048240382
42	0x3adf197a	0.0017021142
43	0xbc651712	-0.013982551
44	0x3d11f995	0.03563841
45	0x3ca31940	0.019909501
46	0x3cbb50c6	0.022865664
47	0x3da481be	0.08032559
48	0x3ca97608	0.020686164
49	0x3d99ca43	0.075092815
50	0x3c3b467b	0.011430378
51	0x3ce8820e	0.028382327
52	0x3d8a1ec8	0.06744152
53	0xbbf78598	-0.0075537674
54	0x3ac62eba	0.0015120127
55	0x3aa8e88b	0.0012886686
56	0xb8efa2b6	-0.00011426715
57	0x3d46bf23	0.048522126
58	0x3d1539ee	0.0364322
59	0xbcf12b6c	-0.02943965
60	0x3bc3882b	0.00596716
61	0x3cac9ba5	0.02107031
62	0x3b81cde1	0.0039613103
63	0x3cfbd4bf	0.030741094
64	0xbb3eb8f8	-0.002910195
65	0x3d121d27	0.035672333
66	0x3d7270ae	0.05918949
67	0x3c1360bf	0.008995234
68	0x3c3d1c08	0.011542328
69	0xbc410431	-0.011780784
70	0x3c80e54a	0.015734334
71	0x3c58f0f8	0.013241045
72	0xbbb6a9f0	-0.0055744573
73	0x3c990fe1	0.01868433
74	0x3c336e11	0.010951535
75	0x3d6cdec3	0.05782963
76	0x3daad010	0.08340466
77	0x3cfb1eb9	0.030654298
78	0xbccd6a3f	-0.025075076
79	0x3c800774	0.015628554
80	0xbb29a202	-0.0025883918
81	0xbd050401	-0.03247452
82	0x3acea2e9	0.0015765104
83	0xbcb6f5bd	-0.022333974
84	0x3cceb87e	0.025234457
85	0x3da755ec	0.08170685
86	0x3d8ef94a	0.06981142
87	0x3d0c3e1f	0.03423893
88	0x3d68df48	0.056853563
89	0x3da39443	0.07987263
90	0xbc553435	-0.013012935
91	0xbb6e6658	-0.003637692
92	0x3d0b6445	0.03403117
93	0x3bbd2f93	0.0057734936
94	0xbb2ca83b	-0.002634539
95	0x3cd516c9	0.026011841
96	0x3cf853b1	0.030313345
97	0x3d09f943	0.03368498
98	0x3d4529bd	0.048135508
99	0x3da05d29	0.07830269
100	0x3cdb605c	0.026779346
101	0xbb52db56	-0.0032174191
102	0x3c36514e	0.011127783
103	0xbc9fa9cd	-0.019490147
104	0x3db81b97	0.08989637
105	0xbc119dfc	-0.008887764
106	0x3d13131a	0.03590689
107	0x3d3c45e5	0.045965094
108	0x3d9028af	0.0703901
109	0x3c507cfb	0.01272511
110	0x3cfd879e	0.030948456
111	0xbc825a70	-0.015912265
112	0xbb01903e	-0.0019769813
113	0x3d85d59b	0.06534883
114	0x3a494a40	0.00076786056
115	0x3c0df19f	0.008663564
116	0x3d64c632	0.055853076
117	0x3d97945f	0.074013464
118	0x3d42a49b	0.04752026
119	0xbc5fd6c1	-0.013662041
120	0x3c6114ed	0.013737899
121	0x3d981640	0.07426119
122	0xbc5432a0	-0.012951523
123	0xbd62e34e	-0.055392556
124	0x3c5f5975	0.013632168
125	0xbcf1b5a8	-0.029505566
126	0x3d94f60d	0.07273493
127	0xb9a28ca8	-0.00031003845

action_model._continuous_distribution.log_sigma f4 [1, 2]
0	0xbd6c1d1f	-0.05764496
1	0x3d38c51f	0.045109864

action_model._continuous_distribution.mu.weight f4 [2, 128]
0	0x3c6bc543	0.014390293
1	0xbcbfaacb	-0.02339687
2	0x3d37685a	0.04477725
3	0x3e2721c1	0.1632147
4	0xbd990752	-0.07472099
5	0xbd0c7f42	-0.03430105
6	0xbcfdacae	-0.03096613
7	0xbcac0f7d	-0.02100348
8	0xbda17ddd	-0.07885335
9	0x3c88cb3e	0.016698476
10	0x3caa31c6	0.020775687
11	0xbd58379d	-0.052787412
12	0xbc15ed1b	-0.009150769
13	0xbd7446e6	-0.059637927
14	0xbd7fcb0f	-0.06244951
15	0x3c89cb51	0.016820582
16	0xbce06c65	-0.027395437
17	0xbd2f2984	-0.0427642
18	0xbdb8a399	-0.09015579
19	0x3d51bddd	0.05120646
20	0xbc27ff54	-0.010253746
21	0x3d8bb135	0.06820909
22	0x3cdcd465	0.026956746
23	0x3cb13647	0.021632327
24	0x3bd0dcf1	0.0063739945
25	0xbdeda540	-0.116037846
26	0xbd0c7851	-0.03429443
27	0x3e0e865a	0.13918439
28	0xbd2d87e9	-0.042365942
29	0x3d88fb1f	0.066885225
30	0x3d8c45f9	0.06849284
31	0x3c799aa9	0.015234628
32	0xbd33ae8b	-0.04386763
33	0x3db1787a	0.08665557
34	0xbd4becab	-0.04978625
35	0x3d62e488	0.055393726
36	0xbd672e36	-0.056440555
37	0x3e1941e1	0.14966537
38	0x3d7913ba	0.06080983
39	0xbdce9b23	-0.10088184
40	0x3d429eeb	0.047514837
41	0xb9c623ca	-0.00037792168
42	0x3d1e44cf	0.03863984
43	0x3d27d0e1	0.040970687
44	0x3ce90cb9	0.02844845
45	0x3d71be80	0.059019566
46	0x3d0dc4af	0.0346114
47	0xbdb08e6c	-0.08620915
48	0xbd771ceb	-0.060330313
49	0xbdcaaccd	-0.098962404
50	0x3d2bd6a6	0.04195275
51	0xbbb6a144	-0.0055734236
52	0xbdc9e3de	-0.09857915
53	0x3d0979aa	0.033563294
54	0xbca54ae8	-0.02017732
55	0x3cb1c4b8	0.021700248
56	0xbc0cb15a	-0.008587206
57	0xbc93d1b4	-0.01804433
58	0xbe03ec33	-0.12883072
59	0xbc464460	-0.012101263
60	0x3dc6ddb5	0.09710256
61	0x3d87e0cb	0.06634673
62	0x3d1f688f	0.038918074
63	0xbca2afd1	-0.019859226
64	0x3db8c909	0.090227194
65	0xbd9e06d9	-0.0771615
66	0xbd817529	-0.06321175
67	0x3d7b8f75	0.06141611
68	0x3dac1218	0.084018886
69	0x3a935cb1	0.0011242834
70	0x3db390f1	0.0876788
71	0x3dc370d5	0.095430054
72	0x3d13eb9e	0.036113374
73	0xb99a1bb5	-0.00029393812
74	0x3c828c10	0.015935928
75	0xbdbc00cd	-0.0917984
76	0xbdad4582	-0.08460523
77	0xbccdabdc	-0.025106363
78	0x3d130c10	0.035900176
79	0x3d9a1824	0.07524136
80	0x3db2f605	0.08738331
81	0x3dc39ef3	0.095518015
82	0xbb974d3c	-0.0046173614
83	0x3d623429	0.055225525
84	0x3c4be242	0.012444081
85	0xbe1d5dfd	-0.15367885
86	0xbd9541fe	-0.07287978
87	0x3c09db17	0.0084140515
88	0xbe1f825f	-0.15577076
89	0xbe0b5614	-0.13607055
90	0x3d9771e9	0.073947735
91	0x3c2213e3	0.009892437
92	0xbc1c2d54	-0.009532291
93	0x3d11b195	0.035569746
94	0x3c8974d5	0.016779343
95	0x3b606c5f	0.0034244282
96	0x3c8bd582	0.017069582
97	0xbcc3fe49	-0.023924964
98	0xbdc2e1a7	-0.09515696
99	0xbd79a0eb	-0.06094448
100	0x397e1dfa	0.00024234495
101	0x3c62bf39	0.013839536
102	0x3d25e768	0.04050389
103	0x3ce84c7f	0.028356789
104	0xbd807ff6	-0.062744066
105	0x3de7ec4d	0.11324368
106	0xbcc77619	-0.024348306
107	0x3cc932c2	0.024560336
108	0xbdddafc7	-0.108245425
109	0x3d0c80ba	0.03430245
110	0xbd514413	-0.05109031
111	0x3c973fa8	0.01846297
112	0x3d7eac26	0.062175892
113	0xbd8a9e01	-0.06768418
114	0x3df3f92c	0.1191276
115	0x3d4d187c	0.05007218
116	0xbda66e90	-0.08126557
117	0xbd96bebc	-0.073605984
118	0xbdb6a513	-0.08918204
119	0x3d751434	0.05983372
120	0xbd846cfb	-0.06466099
121	0xbdb081ca	-0.08618505
122	0x3d052d48	0.032513887
123	0x3ced2f59	0.028953241
124	0x3d41ec57	0.047344532
125	0x3dd13426	0.10215025
126	0xbe31f804	-0.17379767
127	0x3d394118	0.045228094
128	0x3ca78ec5	0.02045382
129	0x3cb87ee0	0.022521436
130	0xbc953e4b	-0.01821818
131	0xbcfe0850	-0.031009823
132	0xbcc86352	-0.024461422
133	0x3d0e9830	0.034813106
134	0xbd8f874b	-0.07008227
135	0xbd5c0956	-0.05371984
136	0xbd35fef1	-0.044432584
137	0x3ab50269	0.0013809922
138	0xbd57017b	-0.052491646
139	0xbcc11f61	-0.023574533
140	0xbd14b6ca	-0.036307134
141	0xbd652d33	-0.05595131
142	0x3d0b94f3	0.034077596
143	0x3d5df8fe	0.054192536
144	0xbd621579	-0.05519626
145	0xbc8f5a35	-0.017499069
146	0xbc6a0a58	-0.014284693
147	0xbcd7a89b	-0.026325515
148	0x3c9fd67c	0.019511454
149	0xbd2971cd	-0.041368295
150	0xbd3852e9	-0.045000944
151	0x3d44304c	0.047897622
152	0x3d38a23f	0.045076605
153	0xbd5c48a3	-0.05378021
154	0xbd30d69f	-0.04317343
155	0x3d6069b0	0.05478829
156	0xba91d9ed	-0.0011127569
157	0x3da3874e	0.07984792
158	0xbcff64cf	-0.031175999
159	0xbd31fb9a	-0.043452837
160	0xbd3b5669	-0.045736704
161	0xbd481ec1	-0.048857454
162	0xbd521fdf	-0.051299926
163	0xbd38365e	-0.044973724
164	0xbd3bedcb	-0.045881074
165	0x3b7c1b86	0.0038468554
166	0x3d4136d8	0.047171444
167	0xbda7560d	-0.0817071
168	0xbd614173	-0.054994058
169	0xbd29ec6f	-0.041485246
170	0xbcace553	-0.021105444
171	0xbc76abfe	-0.015055655
172	0xbd4fba12	-0.05071456
173	0xbd1e9dcc	-0.038724706
174	0xbd34a44c	-0.044102
175	0xbd1bc05d	-0.03802525
176	0x3c6f112c	0.014591496
177	0xbd0f7895	-0.035027105
178	0xbce60bac	-0.028081737
179	0xbd87aa45	-0.06624273
180	0xbd36be08	-0.04461482
181	0xbcbe9d3a	-0.02326833
182	0xbca2799b	-0.019833377
183	0x3dd8fd38	0.10595173
184	0xbb922757	-0.004460256
185	0xbd9e4cb8	-0.07729477
186	0xbb10a6ab	-0.0022071998
187	0x3d4c653a	0.049901225
188	0xbd0cde3c	-0.034391627
189	0xbc528319	-0.012848639
190	0xbd234e07	-0.039869335
191	0xbd3c5ad1	-0.045985047
192	0xbd1e3a99	-0.0386301
193	0x3d117ee1	0.03552139
194	0x3be47dfc	0.0069730263
195	0xbd3154b2	-0.043293662
196	0xbd0e9b50	-0.034816086
197	0x3d354382	0.044253834
198	0xbc5ee584	-0.0136045255
199	0xbc2181e5	-0.009857629
200	0xbd294d10	-0.04133326
201	0xbc980745	-0.018558154
202	0xbd13d776	-0.03609415
203	0xbd30e90d	-0.043191005
204	0xbd4458ff	-0.047936436
205	0xbd1813f2	-0.037128396
206	0x3cec180c	0.02882006
207	0xbd30c6e4	-0.043158427
208	0xbc5b8d63	-0.013400408
209	0xbb20f658	-0.0024560895
210	0x3dd219d1	0.1025883
211	0x3c8eb9ec	0.017422639
212	0xbd06366f	-0.032766756
213	0xbc4b3c95	-0.012404581
214	0xbd9c3803	-0.07627871
215	0xbd346310	-0.044039786
216	0x3c71a740	0.014749348
217	0xbd6b73b1	-0.05748338
218	0xbc0c84c0	-0.008576572
219	0xbc2cee69	-0.010554888
220	0xbd51fd13	-0.05126674
221	0x3d898493	0.0671474
222	0xbd4be284	-0.04977657
223	0xbcd7881b	-0.026310017
224	0xbd30c66f	-0.04315799
225	0xbd3b305e	-0.045700423
226	0x3c846b44	0.01616443
227	0xbd36fe08	-0.044675857
228	0xbd25a5a2	-0.040441163
229	0xbc85d549	-0.016337054
230	0xbcadaea9	-0.021201449
231	0xbcca4fb9	-0.024696218
232	0xbd611e82	-0.054960735
233	0xbb312e2c	-0.0027035577
234	0xbca81a51	-0.020520361
235	0xbd292b5d	-0.04130112
236	0xbc5a7830	-0.013334319
237	0xbd31fefe	-0.04345607
238	0xbb12b63c	-0.0022386452
239	0x3d3e9b8e	0.046535067
240	0xbcb0a8d1	-0.021564873
241	0xbcd3fab6	-0.025876384
242	0xbcd04452	-0.025423203
243	0xbcd50f0c	-0.026008151
244	0xbd69f300	-0.05711651
245	0xbd3b5f15	-0.045744974
246	0x3b483ed9	0.0030555038
247	0xbc51fb3f	-0.012816249
248	0x3d50ee0a	0.05100826
249	0xbd2835ae	-0.041066818
250	0xbc4e23c8	-0.012581773
251	0x3bd2e61c	0.0064361226
252	0xbd4ab0d4	-0.049485043
253	0x3c99f578	0.018793806
254	0xbd383b4e	-0.044978432
255	0xbd975a66	-0.07390289

action_model._continuous_distribution.mu.bias f4 [2]
0	0xbcd39a0b	-0.02583029
1	0xbd15a070	-0.03652996

action_model._discrete_distribution.branches.0.weight f4 [1, 128]
0	0x3c554e3d	0.013019142
1	0x3c01bbd3	0.007918316
2	0x3bc3f97e	0.0059806695
3	0x3bff1bf7	0.007785316
4	0xbb419ecd	-0.0029544116
5	0xbc288713	-0.01028611
6	0x3c614dba	0.013751442
7	0x3c027aff	0.007963895
8	0xbbc1ba22	-0.0059120813
9	0xbbab26b6	-0.0052231206
10	0x3be712b7	0.0070517915
11	0x3c3f42a7	0.011673606
12	0x3ab8c07c	0.0014095451
13	0x3b925787	0.0044660005
14	0x3af343c2	0.0018559622
15	0xbc1d10a1	-0.009586484
16	0xb98a278b	-0.00026350873
17	0x3c0834a7	0.008313335
18	0x3b8abf7f	0.004234254
19	0x3a3c3cbf	0.0007180683
20	0xbb803df0	-0.0039136335
21	0x3c45046b	0.012024979
22	0xbc845d4b	-0.016157767
23	0xbbfb450d	-0.0076681436
24	0xbb84e674	-0.0040557925
25	0xbb594707	-0.0033153908
26	0xbc2248e6	-0.009905076
27	0x3be93d5f	0.0071179117
28	0xbbf96d2f	-0.0076118927
29	0xbb4536a6	-0.0030092387
30	0x3c008727	0.007844723
31	0xbc2a5639	-0.010396534
32	0xba38df85	-0.000705235
33	0x3a2ee9a8	0.0006672391
34	0x3bc4d26c	0.0060065296
35	0xbb94c45a	-0.0045400085
36	0x3b66aab3	0.003519696
37	0x3c2af018	0.010433219
38	0xbb60618f	-0.0034237837
39	0xbc7301b3	-0.014831948
40	0x3c672d7f	0.014109968
41	0x3a1f1fd4	0.00060701114
42	0xbc0af733	-0.008481788
43	0xbb77b4f2	-0.003779706
44	0xbb4567cf	-0.003012169
45	0xbbd0bf2a	-0.006370445
46	0xbb4039c3	-0.0029331304
47	0xbb8e8e0b	-0.004350429
48	0x3b079049	0.0020685366
49	0xbaced523	-0.0015780072
50	0xbb2f54e6	-0.0026753484
51	0xbbadb640	-0.005301267
52	0xbb5d90a3	-0.0033808134
53	0xbbc9bedf	-0.006156787
54	0xbc38184b	-0.011236261
55	0x3bf81e2d	0.0075719566
56	0x3b1fd00e	0.0024385485
57	0xbbb79da0	-0.005603507
58	0xba724733	-0.0009242177
59	0x3b2e66fb	0.0026611674
60	0x3b4cb58f	0.0031236147
61	0x3ba75ec7	0.005107734
62	0x39adf4ea	0.00033179607
63	0x3a49be75	0.0007695922
64	0x3b2af0bd	0.0026083433
65	0x3bbd99b7	0.0057861465
66	0xbaaee162	-0.0013342316
67	0xbc16e443	-0.009209695
68	0x3c30d70b	0.010793458
69	0xbc5a27c5	-0.013315146
70	0xba58970a	-0.00082622527
71	0x3c18db9b	0.009329702
72	0xbc832bd3	-0.016012108
73	0x3ba96f91	0.0051707705
74	0x3c6b99a0	0.014379889
75	0xbb29e34b	-0.002592283
76	0x3cabccf1	0.020971747
77	0x3abae975	0.001426025
78	0xbbda6078	-0.006664332
79	0x3c6d2405	0.01447392
80	0x3b296551	0.0025847743
81	0xbb445320	-0.0029956773
82	0xbc7b8248	-0.015350886
83	0x3a1b807c	0.00059319264
84	0xbad8f61f	-0.0016552842
85	0x3c2bfb7c	0.01049697
86	0x3bcf7f0a	0.006332283
87	0x3b6514e7	0.0034955086
88	0xbbda87eb	-0.0066690347
89	0xbc1a74da	-0.009427274
90	0x3c72244d	0.014779163
91	0x3c8011d8	0.015633509
92	0x3be2aa63	0.0069172843
93	0x3c38e707	0.01128555
94	0xbabe9ad2	-0.001454199
95	0xbc7fdb95	-0.015616317
96	0xb8a56bcb	-7.887891e-05
97	0x3a198294	0.00058559445
98	0xbc81df5a	-0.015853573
99	0xbc0df3dd	-0.008664099
100	0x3c0ab57d	0.008466122
101	0x3b9df3c8	0.0048203208
102	0x3b1c2dd5	0.002383103
103	0x3b8b4bc8	0.004250977
104	0x3b8f0a77	0.004365261
105	0x3a1f9397	0.0006087361
106	0x3c1ca033	0.009559679
107	0xbb49f6d3	-0.0030817285
108	0xbb98c64d	-0.004662311
109	0xbbb27073	-0.005445534
110	0x3c0b1093	0.008487838
111	0x3b882ef2	0.004155987
112	0x3bb18b38	0.0054182075
113	0xbb82ad96	-0.003987978
114	0x3a703872	0.00091636844
115	0x3c54c2bf	0.012985884
116	0x3ae5cd8b	0.001753257
117	0x3bb8be6d	0.005637935
118	0x3b91055a	0.004425687
119	0x3b703448	0.0036652256
120	0x3b88ec63	0.00417857
121	0x3bb82e8b	0.0056207827
122	0xbb8938b7	-0.004187669
123	0x3984e237	0.00025345545
124	0x3b855d3b	0.004069952
125	0xbb610e3d	-0.0034340762
126	0xbbf3990a	-0.007434015
127	0x3c9703db	0.018434456

exp_avg f4 [128, 17]
0	0xba26bec9	-0.00063608267
1	0xba5183c1	-0.000799235
2	0xbc53ddd9	-0.012931311
3	0xbc29ce5b	-0.01036414
4	0x3af77a70	0.0018881094
5	0x3a7821a2	0.0009465461
6	0xbc00a524	-0.007851873
7	0xbbfe991b	-0.0077697164
8	0xba550e83	-0.00081274676
9	0xb9fd75f6	-0.00048343808
10	0x3b90346a	0.0044007795
11	0x3b3fc059	0.0029258935
12	0xba1109a9	-0.00055327505
13	0xba42eaa5	-0.00074354775
14	0xbc9e7515	-0.019342938
15	0xbacca8ee	-0.001561431
16	0x3ccbce45	0.02487863
17	0x3a49f02e	0.0007703331
18	0x3a911681	0.0011069329
19	0x3ac83c18	0.0015276698
20	0x3acdc479	0.0015698812
21	0x3a9ebc26	0.0012110516
22	0x3aadb352	0.0013252294
23	0x3b13b6a0	0.0022539273
24	0x3b17ac73	0.002314356
25	0x3ad0ec54	0.0015939572
26	0x3ad06a3d	0.0015900802
27	0x3b1f6442	0.0024321233
28	0x3b19d911	0.002347533
29	0x3accf82f	0.0015637929
30	0x3ad03cc0	0.0015887246
31	0xbb268ff6	-0.0025415397
32	0x3a3321a6	0.0006833322
33	0xba1b6b35	-0.0005928756
34	0x3b9507d1	0.004548051
35	0x3bb436c5	0.005499693
36	0x3c54d9df	0.012991398
37	0x3c418ffb	0.011814113
38	0x3b06ddab	0.0020578902
39	0x3b62cef3	0.0034608215
40	0x3c36fd61	0.011168809
41	0x3c401ea5	0.011726056
42	0x3b8af40d	0.004240519
43	0x3b873b3c	0.0041269343
44	0x3b4f3cc3	0.003162191
45	0x3b82f969	0.003997017
46	0x3bc6230f	0.00604666
47	0x3bc566b6	0.006024207
48	0x3bffebb2	0.0078100795
49	0x3b7809f8	0.0037847739
50	0xbc8be02c	-0.017074667
51	0x3a371627	0.0006984197
52	0x3aa11878	0.0012290617
53	0x3be1a58f	0.006886191
54	0x3bbe0f82	0.0058001885
55	0x3907c883	0.000129493
56	0x3a5aebe7	0.0008351192
57	0x3bd8c411	0.00661517
58	0x3bcbc382	0.0062183747
59	0x3ae425a4	0.0017406237
60	0x3ac69db6	0.0015153203
61	0xba26f165	-0.0006368368
62	0x3937cdff	0.0001752898
63	0x3aef6893	0.0018265418
64	0x3b037b65	0.0020062563
65	0x3ba30f2f	0.0049761753
66	0x3adb1dc3	0.0016717244
67	0xbbfcab01	-0.007710815
68	0xbacb3b05	-0.001550526
69	0xbad5ccdc	-0.0016311663
70	0xbbd7351b	-0.00656761
71	0xbbb9c574	-0.00566929
72	0xb947bdfe	-0.00019048897
73	0xba3a2839	-0.00071013306
74	0xbb9f34f1	-0.004858606
75	0xbb9af6d2	-0.0047291303
76	0xbaea8f11	-0.001789542
77	0xbaeb33d0	-0.0017944518
78	0xb8e5ad6f	-0.000109518754
79	0xba1dee73	-0.00060246064
80	0xbb26e99f	-0.002546884
81	0xbb234dea	-0.0024918267
82	0xbc05f61e	-0.008176355
83	0xba96dcce	-0.0011509897
84	0x3c3d4c4e	0.011553837
85	0x39bcdd96	0.0003602325
86	0x3a0b0715	0.00053034845
87	0x3b98abf6	0.004659171
88	0x3b807540	0.0039202273
89	0xba363f95	-0.00069522235
90	0xb9388264	-0.00017596182
91	0x3b848e83	0.004045309
92	0x3b74398a	0.0037265741
93	0x398585c2	0.00025467394
94	0x399291db	0.0002795596
95	0x3a8e0ffa	0.0010838502
96	0x3a994939	0.0011694796
97	0x3aaa23c0	0.0012980625
98	0x3a9dfe03	0.0012053851
99	0x3b4f24a4	0.0031607533
100	0x39c87ece	0.0003824145
101	0xbc0d7927	-0.008634842
102	0xba06f52e	-0.0005148229
103	0xba024266	-0.00049690006
104	0x39377d8e	0.00017499013
105	0x382794a4	3.9954335e-05
106	0xba01b752	-0.00049482763
107	0xb9fecc7e	-0.00048599014
108	0x3990bf43	0.0002760832
109	0x38c9248c	9.591234e-05
110	0xb9e4c2ee	-0.00043632783
111	0xb9e91d5e	-0.00044463103
112	0xba1b0caf	-0.0005914671
113	0xba0e67e1	-0.0005432349
114	0xba00adf1	-0.0004908732
115	0xb9fc77c0	-0.00048154406
116	0x39f3adfb	0.00046478197
117	0xb987d1c7	-0.00025905503
118	0xb948885a	-0.00019124281
119	0x3a4a3b30	0.0007714508
120	0x3a88626a	0.0010405306
121	0x3b54c166	0.0032463907
122	0x3b3bb91c	0.002864427
123	0x39c68532	0.0003786474
124	0x3a20502b	0.00061154616
125	0x3b52ee68	0.0032185558
126	0x3b57374a	0.0032839351
127	0x3a543156	0.000809451
128	0x3a44e0e8	0.000751032
129	0x3a296b79	0.0006462853
130	0x3a68f038	0.0008885893
131	0x3a82dec9	0.0009984608
132	0x3a893e00	0.0010470748
133	0x3a5be85c	0.0008388811
134	0x3a36afff	0.00069689745
135	0xbb11f7c5	-0.0022272926
136	0x3b0d75a5	0.0021585014
137	0x3b14ac47	0.0022685693
138	0x3b06ff6b	0.0020599018
139	0x3b0ce3f4	0.0021498175
140	0x3aec8ff4	0.0018048272
141	0x3afea741	0.0019428508
142	0x3a97ad2f	0.0011571998
143	0x3ade38a4	0.0016954136
144	0x3b01321d	0.0019713708
145	0x3afaadf5	0.001912533
146	0x3a7427c6	0.0009313788
147	0x3a9b6c1b	0.001185778
148	0x3b132b4c	0.0022456227
149	0x3b10d5f6	0.0022100187
150	0x3b092854	0.0020928578
151	0x3ac59bbc	0.001507632
152	0xbb0ec8c3	-0.0021787144
153	0x3b875202	0.004129649
154	0x3b9ee65e	0.0048492393
155	0x3c31a293	0.010841983
156	0x3c1efd18	0.009703897
157	0x3b3263f1	0.0027220214
158	0x3b7518e8	0.0037398878
159	0x3c15e4b7	0.009148768
160	0x3c1d012e	0.009582801
161	0x3ba116fd	0.0049160705
162	0x3b961970	0.004580669
163	0xb9c19ac2	-0.00036927132
164	0x3a8ed9d5	0.0010898659
165	0x3bbb9d2a	0.0057255225
166	0x3bbe9e23	0.005817191
167	0x3bddc6d1	0.0067680855
168	0x3b8e9bec	0.0043520834
169	0xbc4b8c90	-0.012423649
170	0xb9b9ddf3	-0.00035451315
171	0xba0c0d4e	-0.0005342559
172	0xbb34f0ce	-0.002760935
173	0xbb166aef	-0.002295192
174	0xb93abf3b	-0.00017809581
175	0xb98fdf0f	-0.00027441277
176	0xbacbd331	-0.0015550611
177	0xbaf02f7b	-0.0018324697
178	0xb9e72805	-0.0004408957
179	0xb9a8544f	-0.00032106272
180	0x3aefab62	0.0018285329
181	0x3a9dc9da	0.0012038306
182	0xb9b0b0d1	-0.00033701074
183	0xb9d0e90b	-0.00039846482
184	0xbbbcb3e4	-0.0057587493
185	0xba413bda	-0.00073712843
186	0x3b1291b1	0.002236467
187	0x399be1e5	0.00029732208
188	0x39b60ad4	0.00034721813
189	0x3a3e0c67	0.0007249773
190	0x3a2a8e15	0.0006506157
191	0x38c608c2	9.443007e-05
192	0x393c655b	0.00017966835
193	0x3a2e3e77	0.0006646881
194	0x3a34fbe0	0.00069039874
195	0x39786e2f	0.0002369217
196	0x396463fb	0.0002178102
197	0x388039c0	6.1142724e-05
198	0x390c4238	0.00013376109
199	0x39b9ac92	0.00035414525
200	0x39b4bab8	0.00034471392
201	0x3a50c0ba	0.0007963289
202	0x3944cc4c	0.00018768123
203	0xba87409b	-0.0010318937
204	0x3b715df9	0.0036829694
205	0x3b93bd20	0.0045086294
206	0x3c2c38a6	0.010511553
207	0x3c1d6100	0.009605646
208	0x3ad4852a	0.0016214002
209	0x3b3774bb	0.002799316
210	0x3c1da27c	0.009621259
211	0x3c246ab3	0.010035205
212	0x3b4c417b	0.003116696
213	0x3b4b768a	0.0031045997
214	0x3b75c703	0.0037502653
215	0x3b8b8325	0.004257577
216	0x3b99d950	0.004695095
217	0x3b99c823	0.0046930476
218	0x3b8157a1	0.0039472138
219	0x3b3aaa29	0.002848277
220	0xbc41cf8e	-0.01182927
221	0x3b69460c	0.003559473
222	0x3b6156c9	0.0034384003
223	0xb991b4d7	-0.0002779129
224	0x39db8720	0.0004187161
225	0x3b611cb7	0.003434939
226	0x3b5e0425	0.0033876982
227	0xba45ce0f	-0.0007545659
228	0x39422227	0.00018514004
229	0x3b4ecea3	0.003155627
230	0x3b4e0100	0.0031433702
231	0x3b4e88e9	0.003151471
232	0x3b4a3562	0.0030854573
233	0x3b509b79	0.003183095
234	0x3b4d87b9	0.0031361415
235	0xb9ab49cb	-0.00032670642
236	0x3ad5184a	0.0016257849
237	0x3b7e66ec	0.003881867
238	0xbb146c34	-0.0022647502
239	0xbb218647	-0.0024646686
240	0xbbb5cf75	-0.0055484124
241	0xbba3b71c	-0.0049961936
242	0xbaa35285	-0.0012460506
243	0xbae28069	-0.0017280701
244	0xbb73ae9f	-0.003718294
245	0xbb8871e3	-0.004163967
246	0xbaf52e9f	-0.0018705911
247	0xbaeedb86	-0.0018223382
248	0xba9ab439	-0.0011802978
249	0xbad5ac81	-0.001630202
250	0xbb2c55df	-0.00262963
251	0xbb27b6f4	-0.0025591226
252	0xbbe3dd0d	-0.0069538415
253	0xbad32b84	-0.0016110991
254	0x3bf31439	0.007418182
255	0x3a4ad02e	0.00077367097

exp_avg_sq f4 [128, 17]
0	0x3b144c9b	0.0022628668
1	0x3b168b2c	0.0022971136
2	0x3b0daf55	0.0021619399
3	0x3b100bbf	0.0021979657
4	0x3b191bba	0.0023362474
5	0x3b19eaea	0.0023485967
6	0x3b00af02	0.0019635563
7	0x3b06494a	0.002049046
8	0x3b1b6224	0.002370962
9	0x3b1c5556	0.0023854575
10	0x3b05e8b3	0.002043289
11	0x3b0af203	0.002120138
12	0x3b173b23	0.002307602
13	0x3b199737	0.0023436078
14	0x3c36d343	0.011158767
15	0x3a2cc5db	0.0006590762
16	0x3c549eed	0.012977344
17	0x38921548	6.9657865e-05
18	0x3893c386	7.045925e-05
19	0x3892dfe7	7.0035276e-05
20	0x389650be	7.167597e-05
21	0x38932d3b	7.017931e-05
22	0x38953847	7.115356e-05
23	0x3894084f	7.0587375e-05
24	0x3897552c	7.2161056e-05
25	0x38954b67	7.1189184e-05
26	0x3896a387	7.183017e-05
27	0x3896436f	7.165118e-05
28	0x3898c31a	7.284265e-05
29	0x388fe2fa	6.861049e-05
30	0x389314de	7.013393e-05
31	0x39e13168	0.00042952155
32	0x37b9a845	2.2132075e-05
33	0x39b5fd10	0.00034711557
34	0x3b66d4c4	0.0035222033
35	0x3b6aaaa1	0.003580727
36	0x3b6a0e33	0.003571403
37	0x3b6d339d	0.0036194094
38	0x3b6a2ed4	0.0035733478
39	0x3b6c821c	0.0036088293
40	0x3b638224	0.003471502
41	0x3b69c4c7	0.0035670267
42	0x3b6a66d2	0.0035766852
43	0x3b6d4506	0.0036204471
44	0x3b6fc145	0.0036583703
45	0x3b729fab	0.003702144
46	0x3b591a5e	0.0033127288
47	0x3b5fdc9a	0.0034158588
48	0x3c948be5	0.018133113
49	0x3a8b7fec	0.0010642982
50	0x3cc0a851	0.02351776
51	0x3ab1d7dd	0.0013568361
52	0x3ab47ec4	0.0013770689
53	0x3ab213c2	0.001358621
54	0x3ab4db59	0.0013798281
55	0x3ab0ed1b	0.0013498397
56	0x3ab3472f	0.001367783
57	0x3ab1da38	0.0013569063
58	0x3ab501ce	0.0013809742
59	0x3aad3f7d	0.0013217774
60	0x3ab0291a	0.0013439984
61	0x3ab2935d	0.001362424
62	0x3ab6232a	0.0013895978
63	0x3aa22c46	0.0012372814
64	0x3aa889a9	0.0012858409
65	0x3c03c1d2	0.008041816
66	0x39d1570b	0.00039928438
67	0x3bebef8f	0.0072001885
68	0x3a2c002f	0.00065613067
69	0x3a2ee83b	0.0006672178
70	0x3a2db9e5	0.0006627127
71	0x3a2f1fba	0.0006680448
72	0x3a333124	0.00068356306
73	0x3a340792	0.0006867583
74	0x3a224f2c	0.0006191607
75	0x3a27039d	0.0006371083
76	0x3a362033	0.0006947547
77	0x3a3727ad	0.0006986808
78	0x3a288600	0.0006428659
79	0x3a2cbe95	0.0006589678
80	0x3a2dc00b	0.0006628043
81	0x3a30c00e	0.00067424856
82	0x3b4bb6c9	0.003108429
83	0x39591220	0.00020701485
84	0x3b9887c1	0.004654855
85	0x3a28f19f	0.0006444696
86	0x3a2bb30e	0.00065498136
87	0x3a285b6d	0.0006422315
88	0x3a2a979e	0.0006507578
89	0x3a2d06ec	0.0006600458
90	0x3a2e94b8	0.0006659734
91	0x3a26fe96	0.0006370334
92	0x3a2a2b2f	0.000649142
93	0x3a2cd76a	0.00065933785
94	0x3a2ea8a6	0.0006662704
95	0x3a2b73fc	0.00065404153
96	0x3a2dea40	0.0006634332
97	0x3a22d842	0.00062120345
98	0x3a261eaf	0.00063369697
99	0x3b6be12d	0.003599237
100	0x39542701	0.00020232426
101	0x3ba1548c	0.004923409
102	0x36f23323	7.218115e-06
103	0x36fa3bc5	7.4575387e-06
104	0x36e07ab3	6.6900043e-06
105	0x36e8e21b	6.940461e-06
106	0x36ffcf5e	7.623733e-06
107	0x3702b1b8	7.789982e-06
108	0x36de398c	6.622815e-06
109	0x36e6e1a2	6.8808013e-06
110	0x37020781	7.750351e-06
111	0x370462d2	7.8908215e-06
112	0x36d3a8e0	6.3079497e-06
113	0x36ea6525	6.985518e-06
114	0x3710871c	8.614526e-06
115	0x3712fe74	8.761523e-06
116	0x385cabb2	5.261199e-05
117	0x364ec35c	3.0810106e-06
118	0x38fcc723	0.000120533885
119	0x3985e7ce	0.00025540445
120	0x39881e39	0.0002596246
121	0x3985bf62	0.00025510328
122	0x39880089	0.0002594034
123	0x398af40f	0.0002650325
124	0x398bd063	0.00026667406
125	0x39802f9d	0.00024449537
126	0x39846253	0.0002525026
127	0x39882ef8	0.00025974936
128	0x3989e25f	0.00026299336
129	0x3987f040	0.00025928207
130	0x398a1133	0.00026334226
131	0x397d91ac	0.00024182227
132	0x39831242	0.0002499987
133	0x3ac03bc6	0.0014666251
134	0x389e1fd2	7.539954e-05
135	0x3ab136ca	0.0013520357
136	0x387af4ea	5.983274e-05
137	0x38802845	6.1110164e-05
138	0x38829ba9	6.227877e-05
139	0x3883bcea	6.281755e-05
140	0x3882b5ef	6.232771e-05
141	0x388382b6	6.2709136e-05
142	0x3871f47a	5.7686564e-05
143	0x387b24ae	5.9877224e-05
144	0x3883b19f	6.279651e-05
145	0x3884e982	6.337745e-05
146	0x387dd54d	6.0518552e-05
147	0x3880769e	6.12561e-05
148	0x38757d13	5.8529036e-05
149	0x387c35ed	6.0131704e-05
150	0x39e08d18	0.00042829732
151	0x379ed578	1.8934472e-05
152	0x3a116645	0.00055465504
153	0x3b48edb4	0.003065926
154	0x3b4cd12f	0.0031252613
155	0x3b4db542	0.0031388556
156	0x3b502e25	0.0031765786
157	0x3b4d124a	0.0031291419
158	0x3b4ec642	0.0031551276
159	0x3b496601	0.0030730965
160	0x3b4dceac	0.0031403704
161	0x3b4a6a8b	0.0030886258
162	0x3b4d3888	0.0031314213
163	0x3b4e064a	0.0031436854
164	0x3b5158a7	0.003194371
165	0x3b3d6cc6	0.0028903945
166	0x3b43cda8	0.002987722
167	0x3c8e6a49	0.017384665
168	0x3a66d100	0.0008804947
169	0x3c89fb99	0.016843604
170	0x391f4b7b	0.0001519154
171	0x392151e8	0.00015384669
172	0x39145015	0.00014144213
173	0x39174cdc	0.00014429115
174	0x39256496	0.00015773097
175	0x392653e8	0.00015862251
176	0x39052a64	0.0001269966
177	0x390aeea0	0.000132496
178	0x39250359	0.00015736873
179	0x3926c5b7	0.00015904648
180	0x39024051	0.00012421726
181	0x3909f80d	0.00013157744
182	0x39166932	0.00014344303
183	0x391cf73d	0.00014969423
184	0x3ab0c88f	0.0013487505
185	0x383aa57f	4.4499986e-05
186	0x3a7520dc	0.0009350905
187	0x37840375	1.5737236e-05
188	0x37886c9b	1.6263037e-05
189	0x3789a069	1.640637e-05
190	0x378c76a0	1.674454e-05
191	0x37848350	1.5796773e-05
192	0x3787a7b1	1.6171341e-05
193	0x379012cd	1.7174892e-05
194	0x3793c7d8	1.7616825e-05
195	0x37851baa	1.5867718e-05
196	0x37891670	1.6342121e-05
197	0x379d42e9	1.8747016e-05
198	0x379e9e25	1.890871e-05
199	0x3785f2a9	1.5967833e-05
200	0x378a5d8c	1.6494443e-05
201	0x38bef97f	9.106378e-05
202	0x36be7295	5.6757804e-06
203	0x38f2aca0	0.00011571613
204	0x3b2226ad	0.002474229
205	0x3b24be48	0.002513783
206	0x3b238e21	0.0024956542
207	0x3b25e829	0.002531538
208	0x3b245122	0.0025072773
209	0x3b25e289	0.0025312027
210	0x3b1ff8d1	0.002440978
211	0x3b244539	0.0025065674
212	0x3b23b4d8	0.0024979617
213	0x3b25bcdf	0.0025289578
214	0x3b286ab2	0.002569836
215	0x3b2a40b3	0.0025978505
216	0x3b192796	0.0023369542
217	0x3b1d5c39	0.0024011268
218	0x3c446b5f	0.01198849
219	0x3a419d5f	0.0007385816
220	0x3c8477f1	0.016170474
221	0x390ad530	0.00013240124
222	0x390d650f	0.00013484455
223	0x39014082	0.0001232643
224	0x3905034d	0.00012685098
225	0x39126935	0.00013962838
226	0x3913a592	0.00014080692
227	0x390371d6	0.00012535541
228	0x39062c6a	0.00012795781
229	0x3910891d	0.00013783989
230	0x39126961	0.00013962902
231	0x3907a9ab	0.0001293781
232	0x390c3962	0.00013372817
233	0x390cb42a	0.00013418557
234	0x390f6484	0.00013674988
235	0x3a4f59c9	0.00079098024
236	0x38274266	3.987774e-05
237	0x3a6a6343	0.0008941183
238	0x39fcbcf0	0.00048205955
239	0x3a0009af	0.00048842555
240	0x39f66028	0.00046992418
241	0x39fa1230	0.00047697267
242	0x39ff41cc	0.00048686413
243	0x3a009a1a	0.00049057754
244	0x39ebc412	0.00044968777
245	0x39f2d8cc	0.00046319363
246	0x39fbb7e5	0.00048011463
247	0x39fe9235	0.00048555588
248	0x39f278e4	0.00046247907
249	0x39f75f86	0.00047182682
250	0x39f0bceb	0.00045917122
251	0x39f55b8e	0.00046798255
252	0x3b1c90c7	0.0023890005
253	0x3916ced6	0.00014382167
254	0x3b4fb3ca	0.0031692856
255	0x38845621	6.310293e-05

exp_avg f4 [128]
0	0xb9984b10	-0.00029047625
1	0x3ae41546	0.001740136
2	0x3bc2e5af	0.0059477906
3	0x3b092d8f	0.0020931696
4	0xbae90655	-0.0017778376
5	0x3a55945a	0.0008147411
6	0xb9f18630	-0.0004606708
7	0x3a94d772	0.0011355712
8	0x3b0ad2fa	0.002118288
9	0x3bb1c3af	0.0054249386
10	0xb9ba0ebd	-0.00035487665
11	0x3990d9ad	0.00027628
12	0x3ba29da2	0.004962639
13	0x3b4e45b2	0.0031474647
14	0xbb1f768f	-0.002433214
15	0x3a91091d	0.0011065338
16	0x3a93078a	0.0011217457
17	0xba2e8fdd	-0.00066590105
18	0x39663d6a	0.00021957388
19	0xb9c1dabc	-0.00036974798
20	0x3a0209e3	0.00049605797
21	0xb9d07121	-0.0003975714
22	0x392ef1ec	0.00016684056
23	0x3899413c	7.3077594e-05
24	0x3acb0b94	0.0015491121
25	0xba36b227	-0.0006969296
26	0xbb31a81e	-0.0027108262
27	0x3aa0bdfa	0.0012263649
28	0x3ae117d9	0.0017173245
29	0xb8c42dae	-9.354517e-05
30	0x3bc0eff4	0.0058879796
31	0x396fefa6	0.00022882092
32	0x36826e85	3.887168e-06
33	0xbb1780d3	-0.0023117557
34	0x3a103184	0.00055005425
35	0x3b4ca169	0.0031224138
36	0x392f7ce8	0.00016735832
37	0x3a10151a	0.00054963084
38	0x3b3d0bbf	0.0028846113
39	0x398375cb	0.0002507403
40	0xbb9203ae	-0.004456005
41	0xba7f2843	-0.00097334775
42	0xbb2daf57	-0.0026502216
43	0xbb9399e4	-0.004504429
44	0xb7611490	-1.3415833e-05
45	0xb9d3d425	-0.00040403116
46	0x3a0f0103	0.0005455168
47	0xbb7d952d	-0.0038693652
48	0xba682145	-0.0008855055
49	0xba8fd94f	-0.0010974797
50	0x3ad8cefe	0.0016541181
51	0x3a93a65f	0.0011264792
52	0x39f524c0	0.00046757422
53	0xba1b139c	-0.0005915703
54	0x39af833d	0.0003347638
55	0xb9b8762f	-0.00035183268
56	0x3a34f160	0.0006902423
57	0xb956978c	-0.00020465086
58	0x3a8eea87	0.0010903635
59	0x38b9e3a4	8.863889e-05
60	0x388450f7	6.3093314e-05
61	0x3af73f26	0.0018863424
62	0x3b605d4a	0.0034235292
63	0x3941240a	0.0001841934
64	0x3a8bc948	0.0010664845
65	0xb98db010	-0.00027024793
66	0x3b57008e	0.0032806727
67	0xba353ca7	-0.000691364
68	0x3a91ed17	0.001113328
69	0xb7ebf3e9	-2.8127763e-05
70	0x3b17a6bd	0.0023140155
71	0x3b31f5b6	0.0027154512
72	0x39c9aaa1	0.00038464836
73	0xba0f6f90	-0.0005471641
74	0xbaad229d	-0.0013209168
75	0x3b3d856d	0.002891864
76	0x3a2d1181	0.00066020346
77	0x3b055257	0.0020343268
78	0x3b9356a2	0.0044964114
79	0x3adbc1a8	0.0016766088
80	0x3b37145a	0.0027935714
81	0xba599968	-0.00083007524
82	0xba0abf8a	-0.0005292824
83	0xb74bde83	-1.215155e-05
84	0x3aaac906	0.001302988
85	0xba99f44f	-0.0011745783
86	0x3ada957a	0.0016676628
87	0xbb8c4ec6	-0.0042818515
88	0xba738bcc	-0.0009290546
89	0x3a001303	0.00048856455
90	0xba27f4bb	-0.0006407012
91	0xba3d63cb	-0.0007224648
92	0x3baf47b4	0.005349124
93	0xbb8261f0	-0.00397896
94	0x381827c9	3.6276677e-05
95	0xb9679666	-0.00022085904
96	0xba99a707	-0.0011722752
97	0x3b9dcd05	0.0048157
98	0xbab06019	-0.0013456374
99	0x3986927c	0.0002566761
100	0xba83d428	-0.0010057734
101	0xbb3e3624	-0.002902397
102	0x3820a46b	3.83001e-05
103	0xbaf3c28c	-0.0018597408
104	0x3b7db7d8	0.0038714316
105	0xb93e74b8	-0.00018163293
106	0x3ba30ce5	0.0049759024
107	0x399fac64	0.00030455284
108	0xba59cfee	-0.0008308877
109	0xb9923b4d	-0.00027891473
110	0x3b70b7fa	0.0036730752
111	0x3a18e05b	0.00058317714
112	0x3a847cb4	0.0010107965
113	0xb9bd42d0	-0.00036098668
114	0x39e9108a	0.00044453546
115	0x398f3f51	0.0002732226
116	0xba5e0586	-0.0008469451
117	0x3b2d329d	0.0026427873
118	0x3bd6b174	0.006551916
119	0x3b543620	0.0032380894
120	0x39da69ae	0.00041658938
121	0x3a0015ff	0.000488609
122	0x388cc1a6	6.71179e-05
123	0xb92640e3	-0.00015855166
124	0x3b88a4c0	0.0041700304
125	0x390761a1	0.00012910973
126	0xbaa3a5cc	-0.0012485324
127	0x393b0393	0.00017835041
