results/CubeAgentRay/CubeAgentRay/CubeAgentRay-16777.onnx (onnx, 80046 bytes, 8 tensors)

action_model._continuous_distribution.log_sigma f4 [1, 2]
0.04815093 0.03762831
00000000: e939 453d 2520 1a3d

action_model._continuous_distribution.mu.bias f4 [2]
-0.010691105 -0.008683762
00000000: bf29 2fbc 5646 0ebc

action_model._continuous_distribution.mu.weight f4 [2, 128]
0.029354986 -0.01995269 0.015072341 0.039316457 -0.0330182 -0.003531589 -0.024996798 -0.019566432
-0.04533849 0.0034189606 0.005079608 -0.022088898 -0.01869967 -0.018037355 -0.013578194 -0.009843383
-0.005056393 0.00083640206 -0.007551469 0.042617276 0.014042382 0.026566334 0.031833623 -0.027272569
0.009784314 -0.013080237 -0.009239552 -0.014046602 -0.0021401357 0.055721443 0.041408997 -0.0013781316
0.011781678 0.04133618 -0.049074575 0.015092672 -0.04646808 0.060263872 0.042962395 -0.03395757
0.01024776 -0.011676435 0.0015911602 0.035338946 -0.008913127 0.020339722 0.00038350138 -0.007089618
-0.04298918 -0.04701536 0.015381836 -0.01291917 -0.058616027 0.0011525593 0.011390158 0.017866718
-0.029839128 -0.009674909 -0.033858426 -0.0063777934 0.026752142 -0.0014057666 0.010875448 -0.019432532
0.034391094 -0.021000639 -0.02383345 0.030829715 0.0017199899 -0.01736668 0.0031071363 0.00045802796
0.0010789275 -0.0050472026 0.010547558 -0.07227821 -0.008156191 -0.011521999 0.0005633455 0.008990344
0.009437381 0.010020014 -0.007280336 0.050789855 -0.018531568 -0.03636708 -0.045226038 -0.00599177
-0.023136215 -0.06122559 0.0006324673 0.013986938 -0.021851715 0.037189014 0.026819754 -0.018168082
0.0039776866 -0.0072837416 -0.03302315 -0.052918267 -0.004363297 0.00080662576 0.001831812 0.016883908
-0.03489835 0.03829112 -0.0040207305 0.0010352099 -0.007279595 0.045114484 -0.01578591 0.018486643
0.012505198 0.0025493992 0.038903072 0.0138506405 -0.050632104 -0.035204846 -0.03449671 0.014810263
-0.0053988 0.00024180175 0.028792338 0.022009747 0.027278502 0.07364507 -0.07457828 0.041991998
-0.0047698417 -0.018096993 -0.012580161 -0.012433877 -0.004406353 -0.004874762 -0.066929996 -0.032212224
-0.017196033 -0.021336505 -0.045450788 -0.022598643 -0.018446798 -0.02064667 0.023196671 0.030831253
-0.015481032 -0.0060233064 0.0029515726 -0.03642167 0.014361622 -0.029611154 -0.023862248 0.009763655
0.014653299 -0.00025972645 -0.016331978 0.030889068 -0.006826422 0.018009424 -0.014913951 -0.023537535
-0.0155796325 -0.03199833 -0.043917533 -0.021417096 -0.015770575 0.008892552 0.0076610167 -0.00037403195
-0.03080038 -0.023127096 -0.007674901 -0.009980246 -0.016222429 -0.033604804 -0.037751727 0.00046746855
-0.0030519143 -0.011045137 -0.020328093 -0.07148704 -0.026062734 -0.0035725934 0.0009796799 0.04627579
-0.027617095 -0.04610044 0.03687098 0.025170553 -0.012530003 -0.011860725 -0.017250681 -0.037156228
-0.016420256 -0.0069163963 -0.017973445 -0.015246974 -0.002947322 0.002874277 -0.006851108 -0.008652736
0.02141349 -0.015106583 -0.023808368 -0.031483322 -0.0080490615 -0.02820951 0.008474547 -0.022192892
-0.011531241 -0.007843271 0.048686907 0.007347085 -0.028517328 0.020242421 -0.036183503 -0.014240773
0.03386522 -0.023643 -0.0038509697 -0.014602083 -0.0054667345 0.012750853 -0.028119247 -0.03112189
-0.026696838 -0.020655392 -0.005238806 -0.023698004 -0.03925282 -0.013643408 -0.005977096 -0.024179388
-0.017850948 0.006492333 -0.010722967 -0.019342223 -0.000905641 -0.039402835 -0.019278094 -0.011644163
-0.01685971 -0.011623099 -0.013347358 -0.014365562 -0.034650505 -0.026370447 -0.022763541 -0.016745303
0.022466298 -0.014963342 -0.008245954 -0.0134005435 -0.03628367 -0.025049929 -0.0013747253 -0.030117145
00000000: de79 f03c d373 a3bc fbf1 763c 4b0a 213d
00000010: 183e 07bd 3b72 67bb 16c6 ccbc c849 a0bc
00000020: dab4 39bd a410 603b d772 a63b c7f3 b4bc
00000030: 0d30 99bc 13c3 93bc 1377 5ebc 2446 21bc
00000040: 19b0 a5bb fe41 5b3a 5072 f7bb 748f 2e3d
00000050: 0512 663c a4a1 d93c f963 023d b96a dfbc
00000060: 634e 203c 7e4e 56bc 7d61 17bc b823 66bc
00000070: 8541 0cbb 2b3c 643d 7b9c 293d 6ca2 b4ba
00000080: f007 413c 2050 293d 6c02 49bd 4147 773c
00000090: 5055 3ebd 40d7 763d 56f9 2f3d 1817 0bbd
000000a0: 39e6 273c 854e 3fbc 7a8e d03a 92bf 103d
000000b0: 5d08 12bc 7d9f a63c af10 c939 0750 e8bb
000000c0: 6c15 30bd 2e93 40bd 1904 7c3c edaa 53bc
000000d0: 5c17 70bd 7911 973a c99d 3a3c 395d 923c
000000e0: 3071 f4bc 8283 1ebc 22af 0abd cffc d0bb
000000f0: 4f27 db3c b341 b8ba ef2e 323c f930 9fbc
00000100: addd 0c3d 8809 acbc 5e3e c3bc 998e fc3c
00000110: 4971 e13a 9144 8ebc 19a1 4b3b 7923 f039
00000120: cd6a 8d3a 0163 a5bb aacf 2c3c 9906 94bd
00000130: 8ba1 05bc c4c6 3cbc 7aad 133a 3c4c 133c
00000140: 3f9f 1a3c fc2a 243c e38f eebb 0609 503d
00000150: 84cf 97bc a6f5 14bd f03e 39bd 9c56 c4bb
00000160: 2988 bdbc afc7 7abd 29cc 253a 7829 653c
00000170: 5e02 b3bc 8253 183d 1ab5 db3c 3bd5 94bc
00000180: 4157 823b 74ac eebb 4843 07bd d3c0 58bd
00000190: fdf9 8ebb bd73 533a 6919 f03a 1f50 8a3c
000001a0: 92f1 0ebd 26d7 1c3d 55c0 83bb e1af 873a
000001b0: ab89 eebb f7c9 383d 7451 81bc 4d71 973c
000001c0: 9ae2 4c3c d213 273b d458 1f3d cced 623c
000001d0: 9c63 4fbd f532 10bd 6c4c 0dbd bfa6 723c
000001e0: 6be8 b0bb 2a8c 7d39 e9dd eb3c c94d b43c
000001f0: 2a77 df3c 3ad3 963d 7fbc 98bd cdff 2b3d
00000200: 554c 9cbb 2540 94bc 051d 4ebc 76b7 4bbc
00000210: 2b63 90bb 78bc 9fbb 9812 89bd f7f0 03bd
00000220: b2de 8cbc e5c9 aebc 9b2a 3abd ca20 b9bc
00000230: bd1d 97bc 3523 a9bc f206 be3c d391 fc3c
00000240: 28a4 7dbc 285f c5bb 2c6f 413b e42e 15bd
00000250: 024d 6b3c 1793 f2bc c37a c3bc bdf7 1f3c
00000260: 6414 703c e52b 88b9 a4ca 85bc 120b fd3c
00000270: 2eb0 dfbb 8088 933c a559 74bc cad1 c0bc
00000280: b741 7fbc ae10 03bd dfe2 33bd e872 afbc
00000290: 4b31 81bc 11b2 113c 4409 fb3b b819 c4b9
000002a0: 1451 fcbc 0975 bdbc bc7d fbbb 3084 23bc
000002b0: e6e4 84bc 31a5 09bd 8ea1 1abd 9116 f539
000002c0: a002 48bb aaf6 34bc 1a87 a6bc cc67 92bd
000002d0: 8481 d5bc 2c22 6abb 9a68 803a af8b 3d3d
000002e0: 3f3d e2bc d1d3 3cbd 0606 173d 7a32 ce3c
000002f0: a44a 4dbc 7c53 42bc 4d51 8dbc 2131 18bd
00000300: c683 86bc f0a2 e2bb 0c3d 93bc 72ce 79bc
00000310: dc27 41bb 5e5e 3c3b 427f e0bb 35c4 0dbc
00000320: 586b af3c 9a81 77bc c409 c3bc a8f4 00bd
00000330: 36e0 03bc a117 e7bc d4d8 0a3c decd b5bc
00000340: 88ed 3cbc 1081 00bc ec6b 473d d1bf f03b
00000350: 2c9d e9bc 6fd3 a53c 2735 14bd 2252 69bc
00000360: 42b6 0a3d f7ae c1bc 8d60 7cbb 933d 6fbc
00000370: 4b22 b3bb f4e8 503c 565a e6bc 55f3 febc
00000380: 54b3 dabc 7f35 a9bc 4aaa abbb 5122 c2bc
00000390: 91c7 20bd 9a88 5fbc 84db c3bb da13 c6bc
000003a0: 273c 92bc a3bd d43b 62af 2fbc 9573 9ebc
000003b0: 8a68 6dba de64 21bd 18ed 9dbc 29c7 3ebc
000003c0: 601d 8abc d06e 3ebc e1ae 5abc 895d 6bbc
000003d0: b0ed 0dbd d606 d8bc 9b7a babc 722d 89bc
000003e0: 3e0b b83c ce28 75bc 0a1a 07bc f48d 5bbc
000003f0: 309e 14bd 8235 cdbc 2030 b4ba 3bb8 f6bc

action_model._discrete_distribution.branches.0.weight f4 [1, 128]
0.013019142 0.007918316 0.0059806695 0.007785316 -0.0029544116 -0.01028611 0.013751442 0.007963895
-0.0059120813 -0.0052231206 0.0070517915 0.011673606 0.0014095451 0.0044660005 0.0018559622 -0.009586484
-0.00026350873 0.008313335 0.004234254 0.0007180683 -0.0039136335 0.012024979 -0.016157767 -0.0076681436
-0.0040557925 -0.0033153908 -0.009905076 0.0071179117 -0.0076118927 -0.0030092387 0.007844723 -0.010396534
-0.000705235 0.0006672391 0.0060065296 -0.0045400085 0.003519696 0.010433219 -0.0034237837 -0.014831948
0.014109968 0.00060701114 -0.008481788 -0.003779706 -0.003012169 -0.006370445 -0.0029331304 -0.004350429
0.0020685366 -0.0015780072 -0.0026753484 -0.005301267 -0.0033808134 -0.006156787 -0.011236261 0.0075719566
0.0024385485 -0.005603507 -0.0009242177 0.0026611674 0.0031236147 0.005107734 0.00033179607 0.0007695922
0.0026083433 0.0057861465 -0.0013342316 -0.009209695 0.010793458 -0.013315146 -0.00082622527 0.009329702
-0.016012108 0.0051707705 0.014379889 -0.002592283 0.020971747 0.001426025 -0.006664332 0.01447392
0.0025847743 -0.0029956773 -0.015350886 0.00059319264 -0.0016552842 0.01049697 0.006332283 0.0034955086
-0.0066690347 -0.009427274 0.014779163 0.015633509 0.0069172843 0.01128555 -0.001454199 -0.015616317
-7.887891e-05 0.00058559445 -0.015853573 -0.008664099 0.008466122 0.0048203208 0.002383103 0.004250977
0.004365261 0.0006087361 0.009559679 -0.0030817285 -0.004662311 -0.005445534 0.008487838 0.004155987
0.0054182075 -0.003987978 0.00091636844 0.012985884 0.001753257 0.005637935 0.004425687 0.0036652256
0.00417857 0.0056207827 -0.004187669 0.00025345545 0.004069952 -0.0034340762 -0.007434015 0.018434456
00000000: 3d4e 553c d3bb 013c 7ef9 c33b f71b ff3b
00000010: cd9e 41bb 1387 28bc ba4d 613c ff7a 023c
00000020: 22ba c1bb b626 abbb b712 e73b a742 3f3c
00000030: 7cc0 b83a 8757 923b c243 f33a a110 1dbc
00000040: 8b27 8ab9 a734 083c 7fbf 8a3b bf3c 3c3a
00000050: f03d 80bb 6b04 453c 4b5d 84bc 0d45 fbbb
00000060: 74e6 84bb 0747 59bb e648 22bc 5f3d e93b
00000070: 2f6d f9bb a636 45bb 2787 003c 3956 2abc
00000080: 85df 38ba a8e9 2e3a 6cd2 c43b 5ac4 94bb
00000090: b3aa 663b 18f0 2a3c 8f61 60bb b301 73bc
000000a0: 7f2d 673c d41f 1f3a 33f7 0abc f2b4 77bb
000000b0: cf67 45bb 2abf d0bb c339 40bb 0b8e 8ebb
000000c0: 4990 073b 23d5 ceba e654 2fbb 40b6 adbb
000000d0: a390 5dbb dfbe c9bb 4b18 38bc 2d1e f83b
000000e0: 0ed0 1f3b a09d b7bb 3347 72ba fb66 2e3b
000000f0: 8fb5 4c3b c75e a73b eaf4 ad39 75be 493a
00000100: bdf0 2a3b b799 bd3b 62e1 aeba 43e4 16bc
00000110: 0bd7 303c c527 5abc 0a97 58ba 9bdb 183c
00000120: d32b 83bc 916f a93b a099 6b3c 4be3 29bb
00000130: f1cc ab3c 75e9 ba3a 7860 dabb 0524 6d3c
00000140: 5165 293b 2053 44bb 4882 7bbc 7c80 1b3a
00000150: 1ff6 d8ba 7cfb 2b3c 0a7f cf3b e714 653b
00000160: eb87 dabb da74 1abc 4d24 723c d811 803c
00000170: 63aa e23b 07e7 383c d29a beba 95db 7fbc
00000180: cb6b a5b8 9482 193a 5adf 81bc ddf3 0dbc
00000190: 7db5 0a3c c8f3 9d3b d52d 1c3b c84b 8b3b
000001a0: 770a 8f3b 9793 1f3a 33a0 1c3c d3f6 49bb
000001b0: 4dc6 98bb 7370 b2bb 9310 0b3c f22e 883b
000001c0: 388b b13b 96ad 82bb 7238 703a bfc2 543c
000001d0: 8bcd e53a 6dbe b83b 5a05 913b 4834 703b
000001e0: 63ec 883b 8b2e b83b b738 89bb 37e2 8439
000001f0: 3b5d 853b 3d0e 61bb 0a99 f3bb db03 973c

network_body._body_endoder.seq_layers.0.bias f4 [128]
-0.027992988 -0.0043411064 0.011595744 0.008589111 -0.04056316 -0.016205238 0.028454838 -0.0072929426
0.027108295 -0.015516511 0.0056904294 -0.024065921 -0.0046491427 -0.005623822 0.0071626883 0.003363977
-0.009013853 -0.026647642 -0.0036224334 0.0096561955 -0.00023379632 -0.011218684 -0.011385985 0.0023162975
0.01127366 0.0375853 -0.028362097 -0.013936996 -0.004550011 0.040496673 0.013387568 -0.0028993546
-0.036650065 0.010534831 -0.0047140345 0.031693906 0.00052485574 -0.014344001 0.014890835 -0.033348978
-0.006025016 -0.024351269 -0.056329165 -0.018539216 0.0034730271 0.0004966435 0.023693677 0.032196615
-0.032437302 -0.024633517 0.01871202 0.025800068 -0.017380215 -0.014922036 -0.012303126 -0.017694697
-0.00094402744 0.017133066 -0.020271908 0.007817277 -0.0023104763 -0.019774806 0.023986854 0.014593867
-0.016618816 -0.020390755 0.017586919 -0.0016420556 -0.038249705 0.012958935 0.008942285 0.0005431867
0.021530634 -0.029740283 -0.025021914 -0.03140873 -0.009689945 -0.0072238343 -0.018359276 0.002151221
0.030487072 0.03486894 -0.028594341 0.02207065 0.0025616204 -0.0073575894 0.0048106685 -0.014887547
-0.010361885 0.0027622322 -0.046983555 -0.0026895492 0.030929152 -0.0045796903 -0.001454271 0.0076710694
-0.01866652 0.0027186142 0.032868817 -0.024526175 -0.015878187 -0.025121344 0.0059451372 -0.01602728
-0.012725523 0.010889926 0.044782028 0.02360336 0.01736049 0.035126973 0.0098747285 0.029014852
0.008257715 -0.028843572 -0.039250743 -0.0007546789 -0.0063454527 0.027590655 0.036834255 0.047477856
-0.007926847 -0.012085443 -0.015153343 0.047454126 0.031920232 -0.023816438 -0.015395267 -0.0003520846
00000000: 8d51 e5bc d73f 8ebb 13fc 3d3c 58b9 0c3c
00000010: 8e25 26bd d9c0 84bc 1f1a e93c a3f9 eebb
00000020: 3712 de3c f738 7ebc c876 ba3b e525 c5bc
00000030: d657 98bb 0a48 b8bb fcb4 ea3b 2b76 5c3b
00000040: d7ae 13bc 284c dabc 5966 6dbb 0535 1e3c
00000050: 3927 75b9 92ce 37bc 488c 3abc 06cd 173b
00000060: 28b5 383c 0bf3 193d a157 e8bc 0058 64bc
00000070: 4218 95bb d7df 253d 8857 5b3c 1903 3ebb
00000080: 611e 16bd 499a 2c3c 3078 9abb 78d1 013d
00000090: 7996 093a 1a03 6bbc b0f8 733c f098 08bd
000000a0: 7f6d c5bb 507c c7bc 69b9 66bd 8edf 97bc
000000b0: ba9b 633b 2e31 023a 3e19 c23c 99e0 033d
000000c0: fadc 04bd 3bcc c9bc f349 993c aa5a d33c
000000d0: f460 8ebc 8e7b 74bc 0d93 49bc 78f4 90bc
000000e0: 9c78 77ba a55a 8c3c 4611 a6bc 0914 003c
000000f0: 5c6b 17bb c6fe a1bc 1480 c43c 1d1b 6f3c
00000100: 2f24 88bc 830a a7bc 7112 903c 3e3a d7ba
00000110: b9ab 1cbd b751 543c a982 123c a464 0e3a
00000120: 0361 b03c e5a1 f3bc c2fa ccbc 71a6 00bd
00000130: 93c2 1ebc eab5 ecbb 3166 96bc 80fb 0c3b
00000140: 06c0 f93c bcd2 0e3d ae3e eabc 82cd b43c
00000150: dce0 273b ef17 f1bb d0a2 9d3b e6ea 73bc
00000160: e5c4 29bc 9106 353b d471 40bd 2643 30bb
00000170: 225f fd3c 3a11 96bb 3d9d beba 985d fb3b
00000180: 88ea 98bc c72a 323b 74a1 063d 1eeb c8bc
00000190: f912 82bc 47cb cdbc 6dcf c23b a44b 83bc
000001a0: b67e 50bc a96b 323c 5c6d 373d d55b c13c
000001b0: 9637 8e3c 4de1 0f3d 9dc9 213c 8eb0 ed3c
000001c0: 5e4b 073c 5b49 ecbc 63c5 20bd a5d5 45ba
000001d0: 84ed cfbb cc05 e23c 84df 163d 2478 423d
000001e0: 9bdf 01bc 0602 46bc ba45 78bc 425f 423d
000001f0: cabe 023d b11a c3bc 6e3c 7cbc ff97 b8b9

network_body._body_endoder.seq_layers.0.weight f4 [128, 17]
0.25043198 -0.0647094 0.042006433 -0.23822515 -0.2155078 -0.059222847 0.0981394 -0.37928623
0.32644582 0.63681644 -0.459763 -0.3587527 0.36058387 0.5361398 0.3872072 0.039991938
0.32529896 -0.29825804 0.045108765 -0.16108789 0.2513314 0.04139826 -0.067107946 0.11149515
0.20870745 0.34601873 -0.22150972 0.035076674 -0.34439728 0.2693535 -0.13216974 -0.12347685
0.30178446 0.40906876 -0.0067048767 -0.22190437 0.089113474 0.079987146 0.082199536 -0.36228448
-0.09391899 0.013453777 0.05070949 0.14726482 0.045148846 0.37805328 -0.49944365 0.08688161
-0.05344048 0.4652675 -0.108393334 0.30542293 -0.21785243 -0.049739238 -0.024008423 -0.28246376
0.204544 0.18207291 0.20087966 -0.33321476 0.018193875 -0.14838368 0.08354855 -0.3389419
0.2685255 0.003518706 0.22905684 0.24733968 -0.019206608 -0.40603948 0.6004442 -0.38179296
0.06140542 -0.10765267 -0.22323178 -0.2662712 0.54512 0.19991553 -0.09586949 -0.3275449
-0.1722282 0.5727628 -0.3945712 -0.0350918 -0.056297507 -0.09785557 0.047602277 -0.19135335
0.121763274 -0.08604223 0.15502623 0.20168066 -0.07559093 -0.063860334 0.22618401 0.4256483
-0.19314139 -0.2747273 -0.020575501 -0.19631243 -0.08418632 -0.15299565 -0.23183824 0.09909638
0.0053400006 -0.1594598 -0.24855578 -0.18750614 -0.17529003 0.22987874 -0.40397578 0.09478429
-0.3666783 0.13567735 0.20049657 -0.25888216 -0.07804953 0.48310074 0.227147 -0.036155578
-0.3506293 -0.024040248 0.1808784 0.4228546 0.38104764 -0.13918611 0.08693542 -0.021593396
0.07147538 0.3147881 0.20044486 -0.0935887 0.27221414 -0.023778694 0.20567238 0.16451292
-0.24187058 -0.66761154 0.02936051 0.5728065 0.21274073 0.24459074 0.26452965 -0.08195648
-0.20543192 -0.19897017 0.40252945 -0.60001606 -0.1688929 0.03225919 0.27723357 -0.15054281
-0.2659976 -0.14459524 -0.1825892 0.25609228 0.054598052 0.39847034 -0.34502396 0.25819337
0.24350274 -0.416515 -0.025248155 0.26798427 0.07428942 -0.2815418 0.09582313 0.1763133
0.09108795 0.19705887 0.295738 -0.22612868 -0.24015431 -0.0058321683 0.015945818 0.08448747
0.026153408 -0.16006039 0.41668192 0.046932813 -0.50460315 -0.23380534 -0.37604627 -0.0050820126
0.3160651 -0.09327167 0.19647337 -0.19871137 0.06292166 -0.474125 -0.063229375 -0.40489373
0.2705578 0.2601843 -0.05130131 -0.27065083 -0.22071023 0.44674975 -0.21569431 -0.18738478
-0.2647206 -0.21967901 -0.12923968 0.030784829 0.07882575 -0.071689166 -0.07740296 0.106558666
0.1616765 -0.37507975 -0.11723977 0.072031274 0.19954818 -0.27638444 0.22864045 0.3695525
-0.36200812 0.07841588 -0.17163894 0.0128048975 -0.15311219 -0.041518357 0.021702792 -0.5530784
0.065405145 0.28529352 -0.09379789 0.11430404 -0.26738855 0.09142159 0.29866895 -0.098070174
0.06024182 0.016013771 0.090223774 -0.5268202 -0.30357543 0.22028282 0.14964637 0.46832728
-0.44080004 0.47185177 0.0021666489 0.33373103 0.24409138 -0.06091423 -0.18554024 -0.29584476
-0.17467904 -0.050267998 0.18365888 0.0042513832 -0.10273722 -0.05161911 -0.30227193 0.123329386
00000000: 9f38 803e 5d86 84bd f00e 2c3d 4bf1 73be
00000010: 14ae 5cbe a893 72bd 4ffd c83d ce31 c2be
00000020: e823 a73e 6706 233f 0e66 ebbe 6fae b7be
00000030: 739e b83e 7540 093f 0640 c63e 96ce 233d
00000040: 968d a63e 47b5 98be f8c3 383d 39f4 24be
00000050: 82ae 803e 3991 293d e46f 89bd 9257 e43d
00000060: 68b7 553e 5e29 b13e 72d3 62be 8fac 0f3d
00000070: d754 b0be b4e8 893e 8157 07be 6ee1 fcbd
00000080: 7e83 9a3e 7671 d13e 95b4 dbbb e63a 63be
00000090: 2081 b63d 4dd0 a33d 3b58 a83d 5a7d b9be
000000a0: 9958 c0bd 3b6d 5c3c c1b4 4f3d 97cc 163e
000000b0: ffed 383d 3390 c13e 14b7 ffbe fcee b13d
000000c0: 68e4 5abd 8b37 ee3e 53fd ddbd 6560 9c3e
000000d0: b514 5fbe 5fbb 4bbd 50ad c4bc 179f 90be
000000e0: fb73 513e 5271 3a3e 66b3 4d3e 209b aabe
000000f0: 520b 953c e4f1 17be 811b ab3d cb89 adbe
00000100: 2d7c 893e 179a 663b e08d 6a3e 9d46 7d3e
00000110: 2d57 9dbc 68e4 cfbe b6b6 193f 5e7a c3be
00000120: 4084 7b3d 0179 dcbd df96 64be b354 88be
00000130: fc8c 0b3f a8b6 4c3e 3957 c4bd f7b3 a7be
00000140: 975c 30be 95a0 123f 3c05 cabe 6bbc 0fbd
00000150: 3798 66bd 8068 c8bd 9bfa 423d 22f2 43be
00000160: 065f f93d e936 b0bd 32bf 1e3e 6085 4e3e
00000170: 6bcf 9abd 35c9 82bd c89c 673e 93ee d93e
00000180: dbc6 45be 0fa9 8cbe f48d a8bc 2006 49be
00000190: e169 acbd e4aa 1cbe 0167 6dbe 0bf3 ca3d
000001a0: 2cfb ae3b 6e49 23be 6885 7ebe 9c01 40be
000001b0: 3b7f 33be 5565 6b3e ead5 cebe 441e c23d
000001c0: 42bd bbbe 01ef 0a3e f94e 4d3e 348c 84be
000001d0: 6fd8 9fbd fb58 f73e 3999 683e df17 14bd
000001e0: af85 b3be 0ef0 c4bc 3038 393e 6680 d83e
000001f0: ad18 c33e ce86 0ebe 330b b23d a2e4 b0bc
00000200: af61 923d e82b a13e 6b41 4d3e 6fab bfbd
00000210: a75f 8b3e 89cb c2bc c89b 523e 1376 283e
00000220: ecac 77be 97e8 2abf 7485 f03c 72a3 123f
00000230: b5d8 593e ff75 7a3e 6e70 873e cdd8 a7bd
00000240: bf5c 52be d6be 4bbe 5718 ce3e a79a 19bf
00000250: 43f2 2cbe 3622 043d 8ff1 8d3e e527 1abe
00000260: d630 88be c610 14be aaf8 3abe 871e 833e
00000270: 35a2 5f3d 4e04 cc3e fba6 b0be ec31 843e
00000280: c858 793e 7441 d5be 38d5 cebc 3c35 893e
00000290: 0d25 983d 3f26 90be eb3e c43d 798b 343e
000002a0: 528c ba3d cdc9 493e f96a 973e 478e 67be
000002b0: 03eb 75be c61b bfbb cea0 823c c407 ad3d
000002c0: ac3f d63c dfe6 23be 5557 d53e 9f3c 403d
000002d0: ac2d 01bf ab6a 6fbe 2389 c0be 0387 a6bb
000002e0: 49d3 a13e 3805 bfbd 5130 493e fe7a 4bbe
000002f0: 12dd 803d 83c0 f2be 677e 81bd 3b4e cfbe
00000300: 8d86 8a3e e036 853e 5321 52bd bf92 8abe
00000310: dd01 62be 62bc e43e f8de 5cbe cce1 3fbe
00000320: 7589 87be 89f3 60be 6857 04be 7730 fc3c
00000330: 656f a13d c5d1 92bd 7185 9ebd 6e3b da3d
00000340: 868e 253e 740a c0be 681b f0bd 2285 933d
00000350: 5c56 4c3e 4382 8dbe b920 6a3e fc35 bd3e
00000360: 2159 b9be 8198 a03d 1ec2 2fbe a2cb 513c
00000370: 71c9 1cbe 270f 2abd 0eca b13c 8c96 0dbf
00000380: 22f3 853d fe11 923e 1c19 c0bd 3d18 ea3d
00000390: 27e7 88be 3e3b bb3d 23eb 983e 04d9 c8bd
000003a0: 20c0 763d 502f 833c 3ec7 b83d b0dd 06bf
000003b0: 3d6e 9bbe d291 613e e63c 193e 98c8 ef3e
000003c0: 8bb0 e1be 8e96 f13e 56fe 0d3b cbde aa3e
000003d0: 17f3 793e 3381 79bd 43fe 3dbe f778 97be
000003e0: 10df 32be d1e5 4dbd 1311 3c3e 304f 8b3b
000003f0: e467 d2bd 8f6e 53bd 63c3 9abe 1e94 fc3d

network_body._body_endoder.seq_layers.2.bias f4 [128]
-0.01748416 -0.0056654806 -0.0041101784 -0.018301008 0.037821688 0.010737553 0.018363636 0.01323069
0.020392573 0.008770789 0.0013940036 0.013253358 0.010930189 0.026260618 -0.036488008 -0.0037302815
0.014623352 -0.010655522 -0.010129509 -0.018058611 -0.010409328 0.008043709 -0.008330111 -0.00094553933
-0.024061644 0.011551983 0.0057145054 -0.009631428 0.00413366 -0.009711538 -0.011431951 0.01017529
-0.0009870274 -0.0017523741 0.023552036 -0.0015945487 0.06427384 -0.0034605805 -0.0056945803 0.0052202377
0.021523545 0.021031903 0.013508066 -0.009558695 0.018191887 0.003459918 0.007568113 0.01856986
0.007559483 0.03137038 0.0029436536 0.018999502 0.032809 0.0056965686 -0.013138839 -0.019824514
0.0090501895 0.012321473 0.0027638392 -0.021636533 -0.013461562 0.013542403 -0.01347438 0.007963941
-0.016748827 0.010056087 0.014941589 -0.006666932 0.004347627 -0.0018915407 -0.0008171861 0.0056981156
-0.00592428 0.009742086 -0.004221461 0.031121613 0.0042698192 0.010257739 -0.013287756 0.004021113
-0.00234234 -0.031621717 -0.0072811972 -0.010554905 0.009676333 0.024537368 0.029307641 0.009880109
-0.0070848526 0.021589728 -0.010462896 -0.0028414403 0.0043036146 -0.008579341 -0.018571464 0.012871725
0.014031202 0.008998244 0.014997302 0.050500926 0.015502088 0.002740628 0.008108612 -0.025828358
0.03559617 -0.032450575 0.023999328 0.022668397 0.03465869 0.007391847 0.004069197 -0.013393859
-0.0044167344 0.015763894 -0.009917459 -0.00080032775 0.022130989 0.02507373 0.02490673 -0.008200121
-0.013281368 0.0060150716 -0.008081834 -0.037889816 0.0014694086 -0.022869095 0.021879196 -0.024314003
00000000: f13a 8fbc 7fa5 b9bb adae 86bb ffeb 95bc
00000010: eaea 1a3d 90ec 2f3c 566f 963c 89c5 583c
00000020: 530e a73c 5bb3 0f3c 00b7 b63a 9d24 593c
00000030: 8914 333c 8220 d73c 7374 15bd bd77 74bb
00000040: c996 6f3c 8094 2ebc 3df6 25bc a7ef 93bc
00000050: e38b 2abc c3c9 033c 057b 08bc 12de 77ba
00000060: ed1c c5bc 8744 3d3c bf40 bb3b 23cd 1dbc
00000070: a773 873b 251d 1fbc 144d 3bbc 42b6 263c
00000080: 255f 81ba ebaf e5ba 33f0 c03c 2d00 d1ba
00000090: 01a2 833d e8ca 62bb 9a99 babb 870e ab3b
000000a0: 2552 b03c 194b ac3c ef50 5d3c 139c 1cbc
000000b0: 2707 953c cbbf 623b effd f73b d21f 983c
000000c0: 8ab5 f73b 3a7e 003d 50ea 403b d8a4 9b3c
000000d0: bb62 063d 48aa ba3b 4944 57bc 0567 a2bc
000000e0: 3f47 143c 01e0 493c 8721 353b 193f b1bc
000000f0: e28d 5cbc f4e0 5d3c a5c3 5cbc 317b 023c
00000100: d634 89bc 49c2 243c 91cd 743c 4776 dabb
00000110: 8a76 8e3b 93ed f7ba 6e38 56ba 42b7 ba3b
00000120: 7620 c2bb 459d 1f3c 2e54 8abb c1f2 fe3c
00000130: d7e9 8b3b 1310 283c e3b4 59bc 8ac3 833b
00000140: f281 19bb c685 01bd 1c97 eebb 7bee 2cbc
00000150: 7b89 1e3c 9702 c93c 9416 f03c 2ee0 213c
00000160: 0d28 e8bb f1dc b03c 916c 2bbc 7537 3abb
00000170: 5605 8d3b 5d90 0cbc 2f23 98bc ede3 523c
00000180: 20e3 653c 5f6d 133c 3eb7 753c 0fda 4e3d
00000190: 78fc 7d3c 1c9c 333b fcd9 043c fe95 d3bc
000001a0: 4acd 113d e5ea 04bd 3d9a c43c 13b3 b93c
000001b0: 45f6 0d3d 4f37 f23b e656 853b eb71 5bbc
000001c0: 41ba 90bb 4823 813c d77c 22bc 16cd 51ba
000001d0: 0c4c b53c 6c67 cd3c 3309 cc3c cd59 06bc
000001e0: 189a 59bc 141a c53b ab69 04bc 5a32 1bbd
000001f0: 2c99 c03a f857 bbbc 003c b33c 292e c7bc

network_body._body_endoder.seq_layers.2.weight f4 [128, 128]
-0.02397894 0.06845726 0.128351 0.1495947 -0.027319815 0.04219925 0.060428437 0.03583337
0.06121767 0.07892325 0.15709905 -0.09009635 0.10633991 0.02900027 0.21585833 0.055396035
0.083553776 0.04493008 0.014546125 0.12971003 0.037534926 0.005466228 0.012916526 0.036455512
0.03760808 -0.06620688 0.0968164 -0.04694062 0.042775102 0.05524133 -0.047344033 -0.057870973
0.10293903 -0.09859632 0.0298883 0.13175045 -0.11883183 0.13464634 0.005645098 0.1427761
0.085881695 -0.03518416 0.026365021 -0.123089716 0.082718894 0.19816919 -0.14415762 0.04394523
-0.09209145 0.033751495 -0.028848227 -0.14307322 -0.20777687 -0.03534093 -0.017625602 -0.0013541965
0.027165508 -0.054992374 0.014695742 -0.06715606 0.09268233 0.033346366 -0.09168688 -0.1050935
0.057657864 -0.0062779454 -0.07415445 -0.05231618 0.016813312 0.005342401 -0.007375831 0.027051276
-0.03476717 -0.18310888 0.12906323 0.021429017 -0.010649878 0.06410755 0.061678104 0.15252419
-0.07859741 0.0615197 0.025582911 -0.10381691 0.1391963 -0.12690468 -0.050236043 0.056234878
-0.051293496 0.097585894 -0.009059871 0.081311904 -0.10209284 -0.037824634 -0.116572574 -0.035746202
-0.05969877 0.009157523 0.16138364 -0.18351416 -0.22368191 0.05286881 -2.4215055e-06 0.04596858
0.08060724 0.0048754155 -0.1077475 -0.123677924 -0.04851805 0.08976167 0.13263354 0.15031834
0.042452503 -0.09221807 0.087528266 -0.007693063 0.00907242 0.045411948 -0.0028631152 -0.076705396
-0.056184415 -0.06140874 -0.0037395004 -0.098242916 -0.041587047 -0.19459772 0.0008182036 0.052081015
-0.018528493 0.06986282 -0.067860425 0.27016672 0.16750874 0.11148577 0.18389738 -0.06467532
-0.14814627 -0.041004423 0.05954483 -0.087679625 -0.044580773 0.003984735 0.007142848 -0.118253075
0.14270702 0.048435386 0.10923551 -0.020403659 0.034598798 0.04939294 0.24212551 0.059723925
-0.04519541 -0.03491826 0.0010936499 0.21352282 -0.017203476 -0.11192851 0.006810285 -0.072021514
0.09349204 0.032619882 0.023953114 -0.00722433 -0.13829078 -0.0350722 -0.063857496 0.15981823
0.15231653 -0.004118319 -0.13205124 -0.025625125 0.054827973 0.022951856 -0.07957622 -0.060182415
0.0070456984 -0.0549076 -0.2925875 -0.28671062 -0.20191602 0.0811179 -0.008875829 -0.008414149
-0.09376188 -0.12621884 0.1681152 0.017189657 -0.0061303214 -0.11632509 0.16720091 0.122450836
0.11587744 -0.019450257 -0.19245072 -0.012914236 -0.04969097 -0.046372004 -0.03699404 -0.021683758
0.15293418 -0.033918377 0.086873636 0.08831836 0.19893345 0.04291473 0.11957489 -0.23977126
-0.07901694 -0.07606151 -0.15236722 0.014065849 0.17117317 0.06310698 0.046412192 -0.044780932
0.047599263 0.027735814 0.054224618 -0.11787143 0.08143377 0.1524504 0.064693645 -0.08070187
0.12345318 0.019295324 -0.05098836 -0.028104281 0.20989533 -0.004646542 -0.16671497 0.045087308
0.0110609485 0.029564552 -0.18705113 0.02071462 0.026637608 0.00022639066 0.028020622 -0.12170709
-0.19962876 0.12517327 0.13602765 -0.050764304 0.05859149 -0.018889995 -0.034404114 0.0150106605
0.094625905 -0.015530569 0.057122093 -0.11759639 0.15126704 -0.07583587 -0.00659464 -0.01879485
00000000: 7b6f c4bc 5233 8c3d 726e 033e 5a2f 193e
00000010: cecd dfbc 1fd9 2c3d cf83 773d 03c6 123d
00000020: 61bf 7a3d 83a2 a13d 93de 203e 6f84 b8bd
00000030: bdc8 d93d f991 ed3c f709 5d3e f4e6 623d
00000040: 3e1e ab3d 9b08 383d df52 6e3c b5d2 043e
00000050: 39be 193d 0b1e b33b d69f 533c 6052 153d
00000060: ee0a 1a3d 7997 87bd ad47 c63d cf44 40bd
00000070: f234 2f3d bc44 623d d1eb 41bd 1d0a 6dbd
00000080: b3d1 d23d deec c9bd 4fd8 f43c 97e9 063e
00000090: 1a5e f3bd bbe0 093e 84fa b83b e633 123e
000000a0: bee2 af3d 441d 10bd 75fb d73c 7616 fcbd
000000b0: 8668 a93d ddec 4a3e 0e9e 13be eaff 333d
000000c0: 719a bcbd 023f 0a3d 1e53 ecbc c981 12be
000000d0: 76c3 54be a7c1 10bd 9163 90bc 4b7f b1ba
000000e0: 338a de3c af3f 61bd 69c6 703c 1e89 89bd
000000f0: 3cd0 bd3d 3396 083d 55c6 bbbd 433b d7bd
00000100: a72a 6c3d 39b7 cdbb 4ade 97bd 7e49 56bd
00000110: 12bc 893c 4f0f af3b f4b0 f1bb a39a dd3c
00000120: 0568 0ebd e580 3bbe 2729 043e e88b af3c
00000130: d37c 2ebc d24a 833d 2ea2 7c3d 4d2f 1c3e
00000140: aef7 a0bd 15fc 7b3d 4193 d13c f69d d4bd
00000150: 7a89 0e3e 4df3 01be 4fc4 4dbd 8b56 663d
00000160: 2119 52bd 1ddb c73d da6f 14bc db86 a63d
00000170: 0d16 d1bd 01ee 1abd 9abd eebd 9c6a 12bd
00000180: b386 74bd 6f09 163c c141 253e 23eb 3bbe
00000190: df0c 65be f78c 583d 2681 22b6 8d49 3c3d
000001a0: 6915 a53d f3c1 9f3b b9aa dcbd da4a fdbd
000001b0: ddba 46bd f7d4 b73d 16d1 073e 0ded 193e
000001c0: ade2 2d3d d4dc bcbd 0542 b33d 1716 fcbb
000001d0: 7da4 143c e101 3a3d 1aa3 3bbb b817 9dbd
000001e0: a121 66bd bb87 7bbd 6812 75bb 9533 c9bd
000001f0: 2e57 2abd a044 47be b77c 563a e752 553d
00000200: 11c9 97bc 3d14 8f3d 68fa 8abd 4b53 8a3e
00000210: 6987 2b3e a752 e43d 984f 3c3e 7f74 84bd
00000220: a8b3 17be 41f4 27bd 48e5 733d 6091 b3bd
00000230: 549a 36bd 6192 823b 8d0e ea3b ab2e f2bd
00000240: ca21 123e 2f64 463d deb6 df3d 9325 a7bc
00000250: 78b7 0d3d 4050 4a3d c0ef 773e 13a1 743d
00000260: d21e 39bd 7306 0fbd cd58 8f3a baa5 5a3e
00000270: 4eee 8cbc c63a e5bd d028 df3b 0480 93bd
00000280: c178 bf3d 6d9c 053d 5239 c43c 13ba ecbb
00000290: 199c 0dbe dea7 0fbd b8c7 82bd 64a7 233e
000002a0: ddf8 1b3e f7f2 86bb 7138 07be c8eb d1bc
000002b0: 4c93 603d 8805 bc3c dbf8 a2bd d681 76bd
000002c0: 9adf e63b cbe6 60bd 07ce 95be bccb 92be
000002d0: 13c3 4ebe 2421 a63d ed6b 11bc 80db 09bc
000002e0: 3b06 c0bd 833f 01be 6426 2c3e 53d1 8c3c
000002f0: dde0 c8bb d93b eebd b736 2b3e 81c7 fa3d
00000300: 2751 ed3d 2556 9fbc cd11 45be 3b96 53bc
00000310: c288 4bbd 92f0 3dbd 1087 17bd 23a2 b1bc
00000320: c79a 1c3e ffed 0abd ceea b13d 42e0 b43d
00000330: 36b5 4b3e 5bc7 2f3d aee3 f43d 9986 75be
00000340: a2d3 a1bd 23c6 9bbd 2706 1cbe 7274 663c
00000350: 0548 2f3e 3b3e 813d b61a 3e3d 366c 37bd
00000360: 72f7 423d 3836 e33c a21a 5e3d 9466 f1bd
00000370: c0c6 a63d f51b 1c3e 1a7e 843d 0647 a5bd
00000380: 05d5 fc3d 3a11 9e3c 2cd9 50bd f33a e6bc
00000390: cdee 563e 0542 98bb 54b7 2abe 78ad 383d
000003a0: fb38 353c 5c31 f23c 558a 3fbe b5b1 a93c
000003b0: 1d37 da3c 4863 6d39 818b e53c 9141 f9bd
000003c0: 7b6b 4cbe 6c2d 003e d54a 0b3e 3bee 4fbd
000003d0: a1fd 6f3d 31bf 9abc 54eb 0cbd 46ef 753c
000003e0: 3acb c13d ed73 7ebc dbf8 693d 60d6 f0bd
000003f0: bfe5 1a3e d64f 9bbd da17 d8bb a8f7 99bc
