results/CubeAgentRay/CubeAgentRay/CubeAgentRay-3141.onnx (onnx, 80046 bytes, 8 tensors)

action_model._continuous_distribution.log_sigma f4 [1, 2]
0	0xbcae33b4	-0.021264888
1	0xbb8442e0	-0.0040362924

action_model._continuous_distribution.mu.bias f4 [2]
0	0xbb79a2f0	-0.0038091503
1	0x3bcda420	0.0062756687

action_model._continuous_distribution.mu.weight f4 [2, 128]
0	0xbab825d5	-0.0014049361
1	0xbc1e0bd7	-0.0096463775
2	0xbc4f5a86	-0.01265586
3	0x3bf2324e	0.0073912507
4	0x3adda94e	0.0016911419
5	0x3c81f196	0.015862267
6	0x3bb0951f	0.0053888704
7	0x3cabe395	0.020982543
8	0xbca7cec6	-0.02048434
9	0xbbc31728	-0.005953688
10	0xbbac830e	-0.0052646464
11	0x3cd6c710	0.026217967
12	0xbd11a32d	-0.035556007
13	0xbce19251	-0.02753559
14	0x3cdb663e	0.026782151
15	0x3c98dce2	0.018660013
16	0x3c5cd5f7	0.013478748
17	0x3c07fcec	0.008300047
18	0xbbe6962d	-0.0070369453
19	0xbb935212	-0.0044958675
20	0x3cb88b01	0.02252722
21	0x3ca01df6	0.019545536
22	0xbc883bad	-0.016630018
23	0x3cb8a942	0.022541646
24	0x3bfeab8c	0.007771915
25	0x3b163770	0.0022921227
26	0xbc698d2a	-0.014254848
27	0x3cc96b80	0.024587393
28	0xbb84dd46	-0.004054698
29	0x3be24275	0.006904895
30	0xbc8571c3	-0.016289597
31	0xbbed31f7	-0.0072386223
32	0xbcb2db4a	-0.02183308
33	0xbcb666f2	-0.022265885
34	0xbc55d53c	-0.013051327
35	0x38fdbd47	0.00012099236
36	0x3ce3041f	0.027711926
37	0x3ab30ec3	0.0013661016
38	0x3c803209	0.015648859
39	0x3af48215	0.001865449
40	0xbcdb995e	-0.02680653
41	0xbc09d4a2	-0.008412512
42	0x3c528d69	0.012851098
43	0xbc8077b2	-0.015682075
44	0xbbf69521	-0.007525102
45	0xbb1ae6bf	-0.002363607
46	0xbc177fde	-0.0092467945
47	0xbc0a9ead	-0.008460683
48	0x3d2f409e	0.042786233
49	0xbca11c52	-0.019666824
50	0xbd07f82c	-0.03319566
51	0x3bd8c50c	0.0066152867
52	0xbca89450	-0.020578533
53	0x3b5b5cf1	0.0033472145
54	0x3bb8b5fa	0.0056369277
55	0x3acd709d	0.001567382
56	0x3bb06116	0.0053826673
57	0x3d352b82	0.044230945
58	0xbd28545a	-0.04109607
59	0x3ab5c3ba	0.0013867535
60	0x3c0d6dd6	0.008632144
61	0xbbc19d3c	-0.0059086364
62	0x3ca18d27	0.019720627
63	0xbc73602f	-0.014854475
64	0xbc232220	-0.0099568665
65	0xbcfe166b	-0.03101655
66	0xbae415de	-0.0017401536
67	0xbc3ea3df	-0.01163575
68	0x3c70907c	0.014682885
69	0x3c8ec07c	0.017425768
70	0x3cdbdff8	0.026840195
71	0x3b40073f	0.0029301194
72	0x3c2c554c	0.010518383
73	0xbb87196a	-0.0041229026
74	0xbc2ae608	-0.01043082
75	0x3d302b2a	0.043009914
76	0x3c84ed52	0.016226444
77	0xbc51cbf4	-0.012804974
78	0x3b7b9f24	0.0038394416
79	0xbc28eb12	-0.010309951
80	0x3cdc0e16	0.026862185
81	0x3c416c89	0.011805662
82	0xbbdb3097	-0.006689142
83	0xbcbf4b9e	-0.023351487
84	0xbb822439	-0.0039716032
85	0xbc0ccb26	-0.008593356
86	0x3c10113f	0.008793174
87	0x3bde0296	0.0067752106
88	0x3c19d9e6	0.00939033
89	0x3c8dd850	0.01731506
90	0x3c5fafa5	0.013652717
91	0x3ccc1c3d	0.024915809
92	0xbc3e9ccd	-0.011634064
93	0xbc283170	-0.010265693
94	0x3cbe7795	0.02325038
95	0x3c9eb5d5	0.019373814
96	0xbc26c0b4	-0.01017778
97	0x3ca14a58	0.01968877
98	0x3beb50bb	0.0071812547
99	0xbc742c06	-0.014903074
100	0xbd12ac57	-0.035808887
101	0xbd0ce2bc	-0.03439592
102	0xbb3e9033	-0.0029077649
103	0x3b479e86	0.0030459478
104	0x3c9deffe	0.019279476
105	0xbc98f400	-0.018671036
106	0x3b7b2805	0.0038323414
107	0xbc6c0000	-0.014404297
108	0x3af66609	0.0018798719
109	0x3c44bc88	0.01200784
110	0xbcb8e416	-0.022569697
111	0xbca1a10a	-0.01973011
112	0x3c8b6024	0.017013617
113	0xbcdbba3e	-0.026822206
114	0x3caacf82	0.0208509
115	0xbc5d1525	-0.013493811
116	0x3c84cd02	0.016211037
117	0xbc755b05	-0.014975314
118	0xbb1d84f2	-0.002403554
119	0x393e3daa	0.00018142784
120	0x399f80c8	0.00030422793
121	0x3c2767ba	0.010217601
122	0xbbdc54bd	-0.006723969
123	0x3bf70bd2	0.007539251
124	0xbc36e06e	-0.011161907
125	0x3a075d13	0.00051637104
126	0x3cfb0a03	0.030644422
127	0xbb79c761	-0.0038113224
128	0x3cab0d87	0.020880474
129	0xbcb9c085	-0.022674808
130	0x3c3cb4ef	0.011517747
131	0xbb1d4c76	-0.0024001873
132	0xbc29c47d	-0.010361788
133	0xbbb2560c	-0.0054423865
134	0x3c36e520	0.011163026
135	0xbb6683af	-0.0035173704
136	0x3c434f39	0.011920744
137	0x3c3875c8	0.01125855
138	0x3c276036	0.01021581
139	0xbd0529f3	-0.03251071
140	0xbca9a0ee	-0.02070662
141	0xbc03d723	-0.008046898
142	0x3c496f88	0.0122946575
143	0xbc8144aa	-0.015779812
144	0xbbb44cd3	-0.005502322
145	0x3d3e9e1a	0.046537496
146	0x3bdf4b37	0.006814386
147	0x3c2a1547	0.0103810495
148	0xbaa8b88b	-0.0012872381
149	0xbca96fe1	-0.02068323
150	0x3bc58278	0.006027516
151	0xbc573d8c	-0.0131372325
152	0xbbdf144d	-0.00680784
153	0x3ce7b49a	0.02828436
154	0xbcf8165a	-0.030284096
155	0xbc432644	-0.011910979
156	0x3c22a44e	0.009926869
157	0x3c07f596	0.008298298
158	0xbbc3dadd	-0.0059770183
159	0x3cc6df2d	0.02427634
160	0xba995401	-0.0011698009
161	0xbc361c98	-0.011115216
162	0x3bbad219	0.005701315
163	0xbd27ed6e	-0.040997915
164	0x3c84eb60	0.016225517
165	0xbcf67722	-0.030086104
166	0x3c3d0d1f	0.011538773
167	0xbc417ce9	-0.011809566
168	0xbc8adb33	-0.016950225
169	0x3c94bca1	0.018156352
170	0xbca52dec	-0.020163499
171	0x3b16cda4	0.0023010755
172	0x3d034649	0.03204945
173	0xbbc1ad2d	-0.0059105367
174	0xbc429df1	-0.0118784765
175	0x3c8489a7	0.016178919
176	0xbcbff98c	-0.023434423
177	0xbc8d0be9	-0.017217593
178	0xbc137a37	-0.009001306
179	0x3c905543	0.017618781
180	0xbc92e9a3	-0.017933672
181	0xbc3e3d7f	-0.0116113415
182	0x3b91e5c4	0.004452439
183	0x3cb88528	0.022524431
184	0x3c465e4e	0.012107445
185	0x3c978c5c	0.018499546
186	0x3996e8fe	0.00028783822
187	0xbce74909	-0.028233068
188	0x3c58c351	0.013230161
189	0x3d09163c	0.03346847
190	0x3c8e6dc3	0.017386323
191	0xbc1b0c9d	-0.009463456
192	0x3c444ad0	0.011980727
193	0x3c2af87a	0.010435218
194	0x3b7d2097	0.0038624161
195	0x3bfd531f	0.007730856
196	0xbb972978	-0.0046130978
197	0x3ab920a7	0.0014124111
198	0xb9bd4bcf	-0.0003610537
199	0xb9f9b4d3	-0.00047627705
200	0x3ba2cf1c	0.004968537
201	0xbb1945db	-0.0023387584
202	0xbc86f42a	-0.016473848
203	0xbbf7ebde	-0.0075659594
204	0xbcb955a6	-0.022623848
205	0x3c3d2d35	0.011546423
206	0xbc268acb	-0.010164927
207	0x38e5f2de	0.000109648085
208	0x3c9d352b	0.019190392
209	0x3ab27fc6	0.0013618402
210	0x3b993bcf	0.004676319
211	0xbc7ee55f	-0.015557616
212	0x3c0c35d5	0.008557756
213	0x3c8c339e	0.017114457
214	0x3b1a9d8b	0.0023592438
215	0x3c57cbfa	0.01317119
216	0x3c9d1915	0.019177
217	0xbd47f0ce	-0.048813634
218	0xbcfb54bb	-0.030680051
219	0xbc3a484f	-0.011369779
220	0x3c7ea1a5	0.015541469
221	0xbc91924d	-0.017769957
222	0xbbe412fb	-0.0069602705
223	0xbd812fc8	-0.06307942
224	0x3aeca140	0.0018053427
225	0x3a7f485a	0.0009738259
226	0xba513405	-0.0007980469
227	0xbc20db6c	-0.009817939
228	0xbbfbaaff	-0.0076802964
229	0xbb5026d5	-0.0031761427
230	0xbca0b83c	-0.0196191
231	0x3bca012f	0.006164692
232	0x3bb2b76b	0.005453994
233	0x3c687fac	0.014190596
234	0xbc118fb6	-0.008884361
235	0xbc228b37	-0.009920887
236	0xbbf16c4c	-0.0073676463
237	0xbb2d5cff	-0.0026453135
238	0x39e10fe9	0.00042927198
239	0xbc63189a	-0.013860846
240	0xbc8dfbca	-0.017331976
241	0x3ba7583d	0.0051069544
242	0xbc919cdb	-0.01777499
243	0xbc9ed670	-0.019389361
244	0xbd0a29c6	-0.033731245
245	0xbbe73306	-0.007055643
246	0x3c157251	0.009121493
247	0xbb4db925	-0.0031390872
248	0x3c1dd0cb	0.0096323
249	0x3c4b959e	0.012425808
250	0xbb6db671	-0.0036272074
251	0x3c5fedf2	0.01366757
252	0x3b12e92f	0.002241682
253	0xbc16fb67	-0.009215212
254	0x3bd50b57	0.006501596
255	0xbbe572b1	-0.0070021977

action_model._discrete_distribution.branches.0.weight f4 [1, 128]
0	0x3b906c28	0.0044074245
1	0xba73f337	-0.0009305956
2	0xbc3f2277	-0.011665932
3	0x3ac1adc7	0.0014776521
4	0xbc075f03	-0.008262399
5	0xbaaacbd4	-0.0013030716
6	0x3c116e59	0.008876407
7	0xbbb51335	-0.0055259713
8	0x3c2602f1	0.010132537
9	0x380cbd72	3.3555036e-05
10	0x3bbd9d21	0.0057865535
11	0x399efba9	0.0003032361
12	0x3bd59107	0.0065175327
13	0x3b19fb59	0.0023495762
14	0x3c001c33	0.007819223
15	0x394cb4a1	0.00019522246
16	0x3c13cc6d	0.009020907
17	0xbca1149e	-0.019663151
18	0x3c01c446	0.00792033
19	0xba5d6017	-0.00084447995
20	0xbb399369	-0.0028316623
21	0xbaf81abd	-0.0018928867
22	0x3b2c9946	0.0026336475
23	0x3baf849b	0.005356384
24	0xbbeef598	-0.0072924607
25	0x3bff1af8	0.0077851973
26	0xbc27eeea	-0.010249833
27	0xbc0cf368	-0.008602954
28	0x3b4232d3	0.0029632344
29	0x3b643d0a	0.0034826421
30	0xbc424750	-0.011857823
31	0x3c2103aa	0.009827534
32	0xbaff5cdd	-0.0019482631
33	0x3ba9c7c0	0.0051812828
34	0xbc75c00d	-0.014999402
35	0x3b8a078b	0.004212325
36	0x3b2fe423	0.002683886
37	0xb9a255ba	-0.0003096292
38	0xba63dacd	-0.00086919667
39	0x3bcbaf56	0.00621597
40	0x3a879e9e	0.0010346954
41	0x3be785d3	0.0070655136
42	0x3c736120	0.014854699
43	0xbc635262	-0.013874622
44	0xbb4755fb	-0.0030416239
45	0x3bc37511	0.005964883
46	0xbc118f96	-0.008884331
47	0xbc238183	-0.0099796085
48	0xbb599677	-0.0033201256
49	0xbb884048	-0.0041580535
50	0xbc1aa246	-0.009438103
51	0xbc985807	-0.018596662
52	0x3c908752	0.01764265
53	0x3bb9a35f	0.0056652273
54	0x3b0ffe6b	0.0021971713
55	0x3c265e65	0.010154341
56	0xb93f9231	-0.0001826964
57	0xbbbb2a37	-0.0057118195
58	0x3c023648	0.007947512
59	0xbb9f3a08	-0.004859213
60	0xbc8e0bcf	-0.017339615
61	0x3b8157eb	0.003947248
62	0x3b8b5fa4	0.0042533446
63	0x3c687eab	0.014190356
64	0xbbd2dc8a	-0.0064349817
65	0xbb948a8f	-0.004533119
66	0x38e61bd5	0.00010972439
67	0xbbb989d7	-0.0056621837
68	0xbb914ee4	-0.0044344533
69	0xbb50acd2	-0.003184129
70	0xbba2f0b6	-0.0049725426
71	0xbb62bdd7	-0.0034598017
72	0x3b8e8220	0.004349008
73	0xbba904d5	-0.0051580467
74	0x3c550523	0.013001713
75	0xbbd0c8ed	-0.0063716085
76	0x3b7e40bd	0.0038795911
77	0xbc3e57d3	-0.011617619
78	0xbcb53be7	-0.02212329
79	0xbca67762	-0.020320598
80	0xbc31bc9a	-0.010848189
81	0xbc026153	-0.007957774
82	0xbbc29dbf	-0.005939215
83	0x3b4f8627	0.0031665654
84	0x3c559403	0.013035777
85	0x3b64a657	0.0034889185
86	0xba6b85e3	-0.0008984489
87	0x3ae9ce80	0.0017838031
88	0xbac4c509	-0.0015012334
89	0xbb604f45	-0.0034226936
90	0x3c245852	0.010030823
91	0xbc540832	-0.012941407
92	0xbc569b40	-0.013098538
93	0xbc2bd0ae	-0.010486765
94	0xbabec03d	-0.0014553141
95	0xbbb97f1e	-0.0056609055
96	0xbc06552b	-0.008199017
97	0xbbc0abb7	-0.005879845
98	0x3c434ad5	0.011919697
99	0xbc561cad	-0.01306836
100	0x3b3e7088	0.0029058773
101	0x3be7ea12	0.007077464
102	0x38dd1103	0.0001054127
103	0xbc6d2638	-0.014474444
104	0x3b3e80b9	0.0029068424
105	0x3c536b43	0.012903991
106	0x3b62c645	0.003460304
107	0xbb0bded3	-0.002134253
108	0x3b46f572	0.00303587
109	0x3b92522b	0.0044653616
110	0x3b83436f	0.0040058414
111	0xbc91d2b5	-0.017800668
112	0x3a9fc469	0.0012189272
113	0x3be4514b	0.0069676987
114	0xbbf0fb12	-0.0073541487
115	0xbc36997e	-0.011144994
116	0xbc19eb2c	-0.009394448
117	0x3c402ebc	0.011729892
118	0x3c1e0b0b	0.009646188
119	0xbb7b51bb	-0.0038348276
120	0x3c6684ef	0.01406978
121	0xbbae8915	-0.0053264
122	0xbb8cba4c	-0.0042946693
123	0x3bb49a8f	0.005511589
124	0x3a933339	0.0011230476
125	0xbb5aab0b	-0.003336611
126	0xbbbd3c9c	-0.0057750475
127	0x3c7bb837	0.015363744

network_body._body_endoder.seq_layers.0.bias f4 [128]
0	0x3b96ddb2	0.004604065
1	0xbc021842	-0.007940354
2	0xba9cce4e	-0.0011963339
3	0xbb533192	-0.003222559
4	0x3b122c01	0.002230406
5	0x3b0797c6	0.002068983
6	0xbc17f97a	-0.009275788
7	0x3c0bb8ba	0.008527929
8	0xbc374575	-0.011185993
9	0xb94e8911	-0.00019696752
10	0x3c2c9e5c	0.010535803
11	0x3ba0dca4	0.004909115
12	0xbb9e7bef	-0.0048365514
13	0xba3a9543	-0.00071175786
14	0x3b51fd60	0.0032041892
15	0x3b21f2c3	0.0024711348
16	0x3b7e1be5	0.003877395
17	0xba14e0f3	-0.0005679272
18	0xbc424ed0	-0.011859611
19	0x3b85ed52	0.0040871287
20	0xbb137261	-0.0022498595
21	0xbc067a09	-0.008207806
22	0xbbedfdae	-0.007262907
23	0x39ce6511	0.00039366682
24	0xbb542cae	-0.0032375264
25	0xbb306628	-0.0026916359
26	0x3be7a521	0.0070692454
27	0xbc0429f6	-0.008066645
28	0xba3da919	-0.00072349753
29	0x3ad140c2	0.0015964734
30	0xb955dcaa	-0.00020395467
31	0xbb5fa905	-0.0034127843
32	0xbc097e7e	-0.0083919745
33	0xba6e9a7a	-0.00091019983
34	0xbb726384	-0.0036985585
35	0xbc1b1848	-0.009466238
36	0x3c51a350	0.012795284
37	0xba75cc43	-0.00093764457
38	0x3b9cd4a7	0.0047860923
39	0x3bcefb01	0.006316543
40	0xbaefa9d9	-0.0018284871
41	0xbbeac99d	-0.0071651475
42	0xbbcd08f2	-0.00625717
43	0xbb042b3e	-0.0020167376
44	0x3c2838a9	0.010267415
45	0x3b845831	0.0040388335
46	0xbace9946	-0.0015762232
47	0x3c29b69c	0.010358479
48	0xbbbab89a	-0.0056982758
49	0x3b855fbe	0.0040702512
50	0xbbba61b2	-0.0056879157
51	0xbbd8e5bc	-0.0066191833
52	0xbc0ca459	-0.008584105
53	0x3b6fcc50	0.0036590286
54	0xbba7accb	-0.005117034
55	0xbbfa91c4	-0.007646771
56	0xbb5fe113	-0.0034161254
57	0xbc1f6a40	-0.009729922
58	0xbbb86743	-0.005627544
59	0x38c99ea3	9.613975e-05
60	0x3bd4b5fd	0.0064914213
61	0xbb57bb84	-0.0032918165
62	0xbb731d3f	-0.003709629
63	0xbab25cf3	-0.0013608023
64	0xbae92431	-0.0017787275
65	0xbbcb58c9	-0.0062056524
66	0xbc14a522	-0.009072574
67	0xbb9c4e5b	-0.004770083
68	0xbbe0d4b1	-0.0068612923
69	0xbc3b2629	-0.011422672
70	0xbab68dcb	-0.0013927756
71	0xbb0794ad	-0.0020687983
72	0x3bf781e4	0.007553326
73	0x3c012d77	0.007884375
74	0x3993efc1	0.00028216655
75	0x3ba3cde3	0.004998909
76	0xbb1d5c53	-0.0024011328
77	0xbc1f9f7e	-0.009742616
78	0x3abfbaa0	0.0014627762
79	0xbb6bf4bc	-0.0036004027
80	0xbc91c24f	-0.017792849
81	0x38dec6dc	0.00010622825
82	0xbb89cdb4	-0.00420543
83	0x3ae40cf8	0.0017398885
84	0xbb3648ad	-0.0027814314
85	0xb9eb619e	-0.00044895423
86	0xbbb5ee72	-0.0055521065
87	0x3a1f9af1	0.0006088457
88	0x3bec5533	0.007212305
89	0x3c4aaf08	0.012370832
90	0xbc26a09c	-0.010170128
91	0x3a3d690e	0.0007225432
92	0xb9b25cff	-0.00034020093
93	0xbbc47e74	-0.0059965197
94	0x3b8703f4	0.0041203443
95	0x3ba5e062	0.005062149
96	0xbb810ff1	-0.003938668
97	0xbbba79c5	-0.0056907856
98	0x3b7928cc	0.0038018702
99	0xbb70d593	-0.0036748394
100	0x3c28d265	0.010304068
101	0xbbdd8bc0	-0.0067610443
102	0x3a4c06c8	0.0007782993
103	0x3c32f909	0.010923632
104	0xbc09ab4a	-0.008402655
105	0xbbd2e440	-0.006435901
106	0xbc4f460e	-0.01265098
107	0xbb2274bd	-0.002478882
108	0x3bc847ad	0.00611206
109	0xb8088709	-3.2550688e-05
110	0x3b826701	0.003979564
111	0xba6b5017	-0.0008976473
112	0x3ba43fc6	0.005012485
113	0xbabd7b04	-0.0014456217
114	0xbb71df83	-0.0036906905
115	0x3be00312	0.0068363035
116	0xbb8297e9	-0.0039853943
117	0xbc289b30	-0.010290906
118	0x3ac9832d	0.0015374176
119	0x3b69e6d8	0.0035690572
120	0xbb2cfca6	-0.0026395707
121	0xbb6ad66b	-0.003583337
122	0xbb128381	-0.0022356214
123	0x3bad1d70	0.0052830502
124	0xbc13075e	-0.008973924
125	0x3a81a60d	0.0009891406
126	0xbc611b1d	-0.0137393745
127	0xbc44ca55	-0.01201113

network_body._body_endoder.seq_layers.0.weight f4 [128, 17]
0	0xbc76a531	-0.015054033
1	0xbe738da7	-0.23784505
2	0xbdcb020f	-0.09912502
3	0xbea0b9b8	-0.31391692
4	0xbe259913	-0.16171674
5	0xbd874014	-0.06604019
6	0x3e091038	0.13385093
7	0x3e8178e7	0.25287554
8	0x3e0baf4d	0.1364109
9	0x3d41605b	0.047211032
10	0x3e28e319	0.16492881
11	0x3d8b6da8	0.06808025
12	0x3d9b4294	0.07581058
13	0xbdc8f405	-0.09812168
14	0xbeca5631	-0.39518884
15	0xbe0edcf5	-0.13951476
16	0x3e20fe9b	0.15722124
17	0xbd90ad0e	-0.070642576
18	0xbe9d1184	-0.30677426
19	0xbe650b2e	-0.22367546
20	0xbf2cd48f	-0.6751184
21	0x3e6dffdc	0.23242134
22	0x3d8f924e	0.07010327
23	0xbe25a4d6	-0.16176161
24	0xbdae6482	-0.08515264
25	0x3dfa902f	0.12234532
26	0xbe5b29f8	-0.21402729
27	0x3eaf92d7	0.34291717
28	0x3f2125bc	0.62948203
29	0xbebd1321	-0.36928657
30	0x3e8e949b	0.27847752
31	0xbedcbef7	-0.43114445
32	0x3e166443	0.14686684
33	0x39dd4542	0.00042204006
34	0xbea61dfe	-0.32444757
35	0x3edd2789	0.43194225
36	0xbeec8e2d	-0.46202222
37	0x3dd33a70	0.103138804
38	0x3e6ee36f	0.23328947
39	0x3ea3dc32	0.32003933
40	0xbdf3e0e3	-0.11908128
41	0xbec520a8	-0.38501477
42	0x3e07b8ed	0.13254137
43	0xbcfffed5	-0.031249443
44	0xbd39cf32	-0.045363612
45	0xbee2f3dc	-0.44326675
46	0x3db039bb	0.08604761
47	0x3e986f6e	0.29772514
48	0xbe6df792	-0.23238972
49	0x3eb3edf1	0.35142472
50	0xbc51abc7	-0.012797303
51	0x3e5ceb49	0.21574129
52	0xbdf587a5	-0.11988763
53	0xbcdf9893	-0.027294433
54	0xbea48318	-0.32131267
55	0x3e9e5e12	0.30931145
56	0x3c0242c7	0.007950491
57	0x3d8a5ae8	0.0675562
58	0xbd86fbec	-0.06591019
59	0x3f01bb7b	0.506767
60	0xbf0706e5	-0.52744895
61	0xbeaedc2e	-0.3415236
62	0xbe2feea8	-0.17180884
63	0xbdef1cd4	-0.116754204
64	0xbe412ebf	-0.18865488
65	0xbec4d5fc	-0.38444507
66	0xbec1bc67	-0.37839052
67	0x3e2a9ef2	0.16662195
68	0xbdaec4b7	-0.08533614
69	0xbd3a54e4	-0.045491114
70	0xbe54ddf9	-0.20787801
71	0x3de48c3a	0.111595586
72	0xbe0667b9	-0.13125505
73	0x3e6320f0	0.22180533
74	0xbda357f3	-0.07975759
75	0xbe418fcc	-0.1890251
76	0xbdc72427	-0.097236924
77	0xbeee0bea	-0.46493465
78	0x3ddc2287	0.10748773
79	0xbe7e1067	-0.24810944
80	0x3dcb09a7	0.099139504
81	0xbe014251	-0.12622954
82	0xbe569ae1	-0.20957519
83	0xbe7c4e36	-0.2463921
84	0xbe19efe6	-0.1503292
85	0xbd5489c2	-0.05188919
86	0xbe3032da	-0.17206898
87	0xbde7747f	-0.11301517
88	0x3db2116d	0.0869473
89	0x3e6fcbc1	0.2341757
90	0xbd913d4c	-0.070917696
91	0x3d66d1af	0.056352314
92	0x3e261afb	0.1622123
93	0x3e1b0cdc	0.15141624
94	0x3e08830c	0.1333124
95	0xbd583e00	-0.052793503
96	0xbe961062	-0.29309374
97	0x3dfcd053	0.12344422
98	0xbe3a763d	-0.18209167
99	0x3e5e5787	0.21713077
100	0xbde3a455	-0.11115328
101	0xbddc0b8a	-0.107443884
102	0x3f070bbf	0.527523
103	0x3c130570	0.008973464
104	0x3e9ed49e	0.3102159
105	0xbe8c3f11	-0.27391866
106	0x3ef5ae57	0.47984573
107	0x3d6499fc	0.055810913
108	0xbe86bf5f	-0.2631788
109	0x3ea75cbe	0.32687944
110	0xbe8babb6	-0.27279443
111	0x3eab804f	0.3349633
112	0x3e12fcec	0.14354295
113	0xbe33daac	-0.17563885
114	0xbdc69925	-0.09697179
115	0xbd452890	-0.048134387
116	0xbe4962ff	-0.1966667
117	0xbe6f4528	-0.23366225
118	0xbe0cdc7a	-0.1375598
119	0x3e8677d7	0.26263306
120	0x3df3b478	0.11899656
121	0xbec5c9e4	-0.38630593
122	0x3d0daeb0	0.034590423
123	0xbea20189	-0.31641796
124	0x3dd84d4b	0.105616175
125	0xbcb608d0	-0.022220999
126	0x3e6ca5cf	0.23110126
127	0xbdffacc6	-0.12484126
128	0x3c7cf9ef	0.015440448
129	0x3c65abf8	0.014018051
130	0x3eb21893	0.34784374
131	0xbebc2636	-0.36747903
132	0xbe436a55	-0.19083531
133	0x3e3f31bd	0.18671317
134	0x3ddd9a74	0.10820475
135	0xbe24f499	-0.16108932
136	0xbd722377	-0.059115853
137	0x3c6b3f5c	0.014358368
138	0x3e7384e8	0.23781168
139	0xbe020cc1	-0.12700178
140	0x3e976b18	0.29573894
141	0x3cb99905	0.022655973
142	0x3eabb9a7	0.3354008
143	0xbe1dee44	-0.15422922
144	0x3ea17603	0.31535348
145	0x3ca79a31	0.020459266
146	0xbe5afd71	-0.21385743
147	0xbed932b3	-0.42421493
148	0x3eaa47e6	0.3325798
149	0x3e0936e3	0.13399844
150	0xbd56a231	-0.05240077
151	0x3ebd7cb9	0.37009218
152	0x3e24255c	0.16029876
153	0x3de3f6f5	0.11131088
154	0xbf0513d0	-0.51983356
155	0xbcbec59b	-0.023287585
156	0x3d96269e	0.073315844
157	0x3e9c7281	0.3055611
158	0x3c60757d	0.013699886
159	0xbe833651	-0.25627378
160	0x3e17f1cf	0.14838336
161	0x3bd51404	0.00650263
162	0xbe4cd4a4	-0.20002991
163	0xbeb4d596	-0.35319203
164	0x3e140333	0.14454345
165	0xbde79ece	-0.113095865
166	0x3f685bb1	0.9076491
167	0xbd089d7c	-0.033353314
168	0x3d1a8571	0.037724916
169	0x3c2c406e	0.010513408
170	0x3e11db8a	0.14243904
171	0x3b226489	0.0024779162
172	0x3c4eae55	0.012614806
173	0x3d4f0fa5	0.05055203
174	0xbd697832	-0.056999393
175	0xbe014728	-0.126248
176	0x3ed7a760	0.42119884
177	0x3db30ed0	0.0874306
178	0xbec41197	-0.3829467
179	0xbd88491d	-0.0665457
180	0x3e66f78f	0.22555374
181	0xbd55d47f	-0.052204605
182	0x3d243f8e	0.040099673
183	0xbe7215e5	-0.23641165
184	0x3e284c13	0.1643527
185	0x3e324495	0.17408974
186	0xbec7ff00	-0.39061737
187	0xbdf039a6	-0.117297456
188	0xbe9eb9d8	-0.31001163
189	0x3d1e31ca	0.0386217
190	0xbd60f535	-0.054921348
191	0x3eb924e5	0.3616096
192	0x3e060018	0.13085973
193	0x3e307925	0.17233713
194	0xbe1edbb1	-0.15513493
195	0x3ded639c	0.115912646
196	0x3e8b2fc3	0.27184877
197	0x3f03d413	0.51495475
198	0xbef7a258	-0.48366046
199	0x3d3297e8	0.0436019
200	0xbd5de24c	-0.05417089
201	0xbd55fd59	-0.052243564
202	0xbea5a920	-0.32355595
203	0xbde818cd	-0.113328554
204	0x3ea31529	0.3185208
205	0xbe3e1f0e	-0.18566534
206	0xbd899889	-0.06718547
207	0xbecf7ff6	-0.40527314
208	0xbc03f432	-0.008053826
209	0x3e103019	0.14080848
210	0xbc991fd7	-0.01869194
211	0x3e821d59	0.25413015
212	0x3e098f72	0.13433626
213	0x3d4eb188	0.050462276
214	0xbed4cb37	-0.4156129
215	0x3da53cbe	0.08068226
216	0x3e8b7898	0.27240443
217	0xbe220cc4	-0.15825182
218	0xbc65c393	-0.014023679
219	0x3db073e4	0.086158544
220	0xbe7e7729	-0.24850143
221	0x3c9109e3	0.01770491
222	0xbeb6e31e	-0.35720152
223	0xbe6be627	-0.23037015
224	0x3eb35f1a	0.35033494
225	0x3dadd17d	0.08487222
226	0x3ec3ca7c	0.3824042
227	0x3ee8f4c8	0.45499253
228	0x3eab0649	0.33403233
229	0x3e9c0796	0.30474538
230	0xbdc0d04c	-0.094147295
231	0xbe8951a1	-0.2682009
232	0xbd8a822d	-0.0676311
233	0x3db75c20	0.08953118
234	0xbdf97128	-0.12179786
235	0x3d670400	0.0564003
236	0xbd44e9a9	-0.0480744
237	0xbd2243ed	-0.03961556
238	0x3e8afe33	0.27147064
239	0x3d1edee0	0.03878677
240	0x3d742c2b	0.059612434
241	0xbd6839f6	-0.0566959
242	0x3e7cb88b	0.24679773
243	0x3eaa67cf	0.33282325
244	0xbe7b3d99	-0.24535216
245	0xbdb66bd5	-0.08907286
246	0xbf10e2d8	-0.56596136
247	0xbe01fab9	-0.126933
248	0x3eee8e0e	0.46592754
249	0x3e28f014	0.16497833
250	0xbf025203	-0.5090639
251	0x3e296bcc	0.16545027
252	0xbd79ecd4	-0.061016873
253	0x3f067ae4	0.52531266
254	0xbca8ad00	-0.020590305
255	0x3da35854	0.07975832

network_body._body_endoder.seq_layers.2.bias f4 [128]
0	0x3a7f8e3c	0.00097486726
1	0xbbfb3eb0	-0.007667385
2	0x3b40ada7	0.002940038
3	0xbb97dabe	-0.0046342304
4	0xbbc58e08	-0.0060288943
5	0xbbda355a	-0.006659192
6	0xbb464987	-0.0030256228
7	0x3b342028	0.0027484987
8	0x3c9b9546	0.018992078
9	0x3abb09a4	0.0014269841
10	0x3b4478df	0.0029979271
11	0x3aa24a4b	0.001238176
12	0x3a0d9a0a	0.0005401677
13	0x3bc360e8	0.00596248
14	0x3b304c1c	0.0026900833
15	0xbb9908ae	-0.004670224
16	0xbbd3a414	-0.0064587686
17	0x3ba47f96	0.0050200922
18	0x3c0085c4	0.007844392
19	0xbb817e4a	-0.0039518224
20	0x3733caf8	1.0716489e-05
21	0xbaf54cb8	-0.001871488
22	0x3b3dce9f	0.0028962267
23	0x3651d947	3.12699e-06
24	0x3b73d421	0.0037205296
25	0x3b4edf90	0.003156636
26	0xbb996103	-0.004680754
27	0xbbed4855	-0.0072412887
28	0x3b124a99	0.0022322296
29	0x3ba3d074	0.004999215
30	0xbb331710	-0.0027326979
31	0x3bd889e9	0.006608237
32	0x3b08a2c3	0.0020848967
33	0xbb718d0e	-0.0036857757
34	0xbb116cff	-0.002219021
35	0xbb95adb6	-0.004567827
36	0xbabe0d72	-0.0014499857
37	0xbbf53400	-0.0074830055
38	0x3aaa6729	0.0013000715
39	0xbbf79d37	-0.0075565833
40	0xba9231ab	-0.0011153718
41	0xb944ad47	-0.00018756567
42	0xbc44acae	-0.012004061
43	0x3bad6dd8	0.0052926354
44	0x3b0d2b80	0.002154082
45	0x3a968198	0.0011482714
46	0xbc09e0c0	-0.008415401
47	0x3aea9c2d	0.0017899327
48	0xbc17ed56	-0.009272894
49	0xbbe1ccd2	-0.0068908716
50	0x3a176028	0.0005774521
51	0xbb0a50a5	-0.0021105197
52	0xbaedd4d1	-0.0018145089
53	0xbc93cdd6	-0.018042486
54	0x3aaa58f5	0.0012996482
55	0x3aaffad2	0.0013426191
56	0xbac21737	-0.0014807944
57	0xbb755a37	-0.0037437805
58	0x3b9eef0a	0.004850273
59	0xbbcce9dd	-0.0062534646
60	0x3b8a406e	0.0042191064
61	0x3aba6b32	0.001422262
62	0x3ae52ed9	0.0017485275
63	0xbb908b12	-0.0044111097
64	0x3b3a927f	0.0028468666
65	0x3bbc5df8	0.0057485066
66	0xbb404ffc	-0.002934455
67	0x3bac364c	0.005255496
68	0xbb6156d5	-0.0034384031
69	0xbb9870f5	-0.0046521374
70	0xbb572111	-0.0032826106
71	0xbb5388d8	-0.003227761
72	0x38d22a54	0.000100214645
73	0xbbc5ce43	-0.006036551
74	0xbbe649b7	-0.0070278305
75	0xbbf1f684	-0.0073841233
76	0xbb8fa3f2	-0.0043835575
77	0x3b0b4c74	0.0021255286
78	0xbc092a02	-0.008371832
79	0xbb7dee20	-0.003874667
80	0x3b12d145	0.0022402566
81	0xbbb3fef3	-0.005493039
82	0xbab3d76c	-0.0013720817
83	0x3bbfd3fa	0.005854127
84	0x3bb81e2a	0.00561883
85	0x3b36f267	0.002791548
86	0x3bc97189	0.0061475676
87	0xba198f03	-0.0005857797
88	0x3bdbfe29	0.006713648
89	0xbc379800	-0.011205673
90	0xbbc33c99	-0.0059581515
91	0x3b1fe2a1	0.0024396556
92	0x3bd86067	0.006603289
93	0xbbd95368	-0.0066322573
94	0xbb2acd7a	-0.0026062415
95	0xbbed3b55	-0.007239739
96	0xbaf1c493	-0.0018445425
97	0x3acbe4e8	0.001555589
98	0xbb0ce326	-0.0021497696
99	0xbb837d75	-0.0040127584
100	0xbb6a9a14	-0.0035797404
101	0x3b9d2b55	0.0047964253
102	0xbbd21556	-0.006411235
103	0x3af1b0cb	0.0018439529
104	0x3ac783d5	0.0015221784
105	0x3bfe495e	0.007760211
106	0xbbdaa6b0	-0.0066727027
107	0xba0ed3fc	-0.0005448458
108	0xbc1a24a8	-0.009408154
109	0xbb9773fb	-0.0046219802
110	0x39112146	0.00013840673
111	0xbb5e6102	-0.0033932333
112	0xbb592811	-0.0033135454
113	0x3ba05b3f	0.00489369
114	0x3a761552	0.0009387332
115	0xbba6a4ac	-0.0050855484
116	0xbb78008c	-0.0037842123
117	0xbbc57df7	-0.006026979
118	0xba33f0bc	-0.00068641803
119	0xbc2d99d4	-0.0105957575
120	0x3ac7ae12	0.0015234372
121	0x3babf18a	0.0052472996
122	0x3b7b876f	0.0038380285
123	0x3bdffac9	0.006835316
124	0x3bb9f9e8	0.005675543
125	0xbb7b27e0	-0.0038323328
126	0xbb396f5d	-0.0028295137
127	0xbc1f42a9	-0.009720483

network_body._body_endoder.seq_layers.2.weight f4 [128, 128]
0	0xbe0e492c	-0.138951
1	0xbde74b0a	-0.112936094
2	0xb95dd1db	-0.0002115438
3	0x37049fcd	7.90502e-06
4	0x3c5a79e6	0.013334727
5	0x3e0e3d37	0.13890539
6	0xbd06c765	-0.032905
7	0xbd48dceb	-0.04903881
8	0xbe10301b	-0.14080851
9	0x3d140a9f	0.03614294
10	0x3bf6f4d4	0.00753651
11	0x3c9e7502	0.019342903
12	0x3da14a56	0.078755066
13	0x3ca5c6c9	0.02023639
14	0x3c036062	0.008018585
15	0x3c4221da	0.011848891
16	0xba1355fb	-0.0005620417
17	0xbd219907	-0.03945258
18	0x3d810741	0.06300212
19	0x3d99c5ab	0.07508405
20	0xbe8770a5	-0.26453128
21	0x3d11a8bc	0.03556131
22	0x3d433646	0.04765918
23	0xbd34c4b4	-0.044132903
24	0x3d101fd4	0.035186604
25	0xbcccfeba	-0.025023807
26	0x3e09fd7a	0.134756
27	0x3b7fa14a	0.0039006048
28	0xbb948888	-0.0045328774
29	0xbdec1767	-0.11527901
30	0x3e1a32db	0.15058462
31	0x3dfc658a	0.123240545
32	0x3e2a2e4a	0.1661922
33	0xbd8ff573	-0.070292376
34	0x3c9354d5	0.017984787
35	0xbddc87b3	-0.1076807
36	0xbdaf9b43	-0.08574536
37	0xbd17dfa6	-0.037078522
38	0xbdfee852	-0.12446655
39	0xbd3e8115	-0.04650982
40	0xbd879e62	-0.06622006
41	0x3b623a8f	0.0034519767
42	0x3ddcf8e2	0.10789658
43	0xbd5576e5	-0.05211534
44	0xbe1a619e	-0.150763
45	0x3df7d50b	0.121011816
46	0xbdbbcaef	-0.09169566
47	0xbdcf618a	-0.10126026
48	0xbd3ce77c	-0.0461192
49	0xbd8e44a4	-0.06946686
50	0xbc4335f2	-0.011914717
51	0x3c57af8f	0.013164415
52	0xbdde1bf7	-0.108451776
53	0xbb5c413d	-0.003360822
54	0xbe5872dc	-0.21137565
55	0x3a017171	0.00049378636
56	0x3dd4c3d6	0.10388915
57	0xbc30829b	-0.010773326
58	0x3d6b9092	0.05751092
59	0xbb6433d8	-0.003482094
60	0xbd278c3a	-0.040905215
61	0x3d40de1f	0.04708683
62	0xbd7ae566	-0.061253928
63	0x3d45c254	0.04828103
64	0xbdb08daa	-0.0862077
65	0x3daffc67	0.08593064
66	0x3dc6d686	0.09708886
67	0xbd174b6e	-0.03693717
68	0x3d723114	0.059128836
69	0xbcac72a3	-0.021050757
70	0x3e3b3876	0.18283257
71	0x3ddbae9a	0.10726662
72	0x3c4e6412	0.012597101
73	0xbc998a00	-0.018742561
74	0xbcd6d334	-0.026223756
75	0xbdc712a7	-0.097203545
76	0x3dc9e892	0.098588124
77	0xbcca9ce1	-0.024733009
78	0xbc121ff6	-0.008918753
79	0xbdcbf90d	-0.09959612
80	0xbd97fc03	-0.07421114
81	0xbd1379bf	-0.036004778
82	0x3e26f885	0.1630574
83	0x3dbc8fee	0.0920714
84	0xbcae713e	-0.021294232
85	0x3d11e78f	0.035621222
86	0x3d78ddef	0.060758527
87	0xbd105d8d	-0.035245467
88	0x3d066028	0.032806545
89	0xbe5e6066	-0.2171646
90	0x3cd52efb	0.026023379
91	0xbd83e11b	-0.0643942
92	0xbd44ddab	-0.04806296
93	0xbd4c88f9	-0.049935315
94	0x3c3c0667	0.011476136
95	0x3d2e13ec	0.042499468
96	0x3d8bca75	0.06825725
97	0xbe11de2d	-0.1424491
98	0xbdb8b864	-0.09019545
99	0xbd83ee6a	-0.06441958
100	0x3d0ea961	0.0348295
101	0x3dc8bead	0.098019935
102	0xbc0fe046	-0.008781498
103	0xbd5ee51c	-0.054417714
104	0x3b93dac5	0.0045121633
105	0x3d0a8a53	0.033823323
106	0xbd94139f	-0.07230305
107	0xbdaf4efe	-0.085599884
108	0x3e436ecc	0.19085234
109	0xbd783138	-0.060593814
110	0x3d54bc4e	0.051937394
111	0x3dc4f292	0.09616579
112	0xbe1805a4	-0.14845902
113	0xbe242cd2	-0.16032723
114	0x3d8709ae	0.06593643
115	0x3d970587	0.07374101
116	0x3e054ec3	0.13018326
117	0xbcddb9a9	-0.027066069
118	0x3bf117f4	0.0073575918
119	0x3b7375a6	0.0037148981
120	0x3da610f2	0.08108701
121	0x3d1ccc56	0.038280807
122	0xbe0afcab	-0.13572948
123	0x3e499bbd	0.19688316
124	0x3d8017c1	0.06254531
125	0x3d104a73	0.03522725
126	0xbdf99d53	-0.1218821
127	0x3d20f8da	0.039299823
128	0x3e098688	0.13430226
129	0xbe535bab	-0.20640437
130	0xbcaec13d	-0.021332378
131	0x3da7861a	0.08179875
132	0x3cae88d1	0.021305474
133	0x3d983be8	0.07433301
134	0x3db78998	0.08961791
135	0x3e3d99d9	0.1851572
136	0xbccfe97b	-0.025379887
137	0xbdd1be32	-0.10241355
138	0xbc9b43d3	-0.01895324
139	0x3ccc2649	0.0249206
140	0xbd01a54e	-0.031651787
141	0xbb5cd31b	-0.0033695165
142	0x3de02290	0.10944092
143	0x3cbaf221	0.022820534
144	0xbdf106c0	-0.117688656
145	0x3c3a39e3	0.01136634
146	0x3d14ff4e	0.03637629
147	0xbdc8527a	-0.09781356
148	0xbd1f95a5	-0.03896107
149	0x3d73af94	0.059493616
150	0xbc0f76b1	-0.008756326
151	0xbe496ad0	-0.19669652
152	0xbdbff53a	-0.09372945
153	0xbd47e51f	-0.04880249
154	0x3c2af1d2	0.010433631
155	0x3d096d36	0.033551417
156	0xbcb5bfed	-0.022186244
157	0x3c56cf6d	0.013110978
158	0xbd8b7f50	-0.06811392
159	0xbc9a3969	-0.018826203
160	0xbcf63eb6	-0.0300592
161	0xbdb9f1ea	-0.090793446
162	0xbd0c0de4	-0.034192935
163	0xbdab760f	-0.08372127
164	0x3c21a266	0.009865379
165	0x3e3a3375	0.18183692
166	0xbdf9c6eb	-0.12196144
167	0x3e004f7b	0.1253032
168	0x3dcf0427	0.10108214
169	0xbd2a7cd5	-0.041622955
170	0x3d9f246d	0.077706195
171	0xbdad788b	-0.08470257
172	0xbd037b9e	-0.032100312
173	0xbdd2f832	-0.10301246
174	0x3d3f9811	0.04677588
175	0xbdbee39b	-0.09320756
176	0xbd60f5a4	-0.05492176
177	0xbccc6f66	-0.024955463
178	0x3d6755cb	0.056478303
179	0xbe08dee9	-0.13366283
180	0x3dedd8a6	0.11613588
181	0xbd0ad6ab	-0.03389613
182	0xbd0cd528	-0.03438297
183	0x3da5240d	0.08063517
184	0x3cd220b7	0.025650365
185	0x3e219a06	0.15781412
186	0xbca1f86a	-0.019771773
187	0x3b13a92d	0.0022531257
188	0x3d9be1bd	0.076114155
189	0x3a9c3c70	0.0011919867
190	0x3ddb07f8	0.10694879
191	0x3e116ff4	0.14202863
192	0x3d0156dd	0.03157698
193	0x3bbf0aab	0.005830129
194	0x3d7d2e4f	0.06181174
195	0x3dbd8cc7	0.09255367
196	0xbe061c67	-0.13096772
197	0x3d51e1f6	0.051240884
198	0x3cf23def	0.029570548
199	0xbdfc4f77	-0.12319844
200	0x3e23ce74	0.15996724
201	0x3dd854f6	0.1056308
202	0xbdd79f9f	-0.10528492
203	0xbdc2bc9b	-0.0950863
204	0x3b8cc151	0.004295506
205	0xbe8bb9e9	-0.27290276
206	0xbe7881dc	-0.24268287
207	0x3e30a5a4	0.17250687
208	0x3e0248f2	0.12723139
209	0x3c8d56ab	0.01725324
210	0x3d88d9b9	0.06682152
211	0xbcb52218	-0.022110984
212	0x3dab3a06	0.083606765
213	0xbdce1249	-0.10062081
214	0x3e2f5806	0.17123422
215	0x3d580b5b	0.052745204
216	0xbd971db1	-0.0737871
217	0xbd3e437b	-0.046451073
218	0x3cb7df03	0.022445207
219	0xbd7e3a60	-0.06206739
220	0xbdcfe83a	-0.101517156
221	0xbe0af84d	-0.13571282
222	0x3db72661	0.08942867
223	0xbd03e654	-0.03220208
224	0x3cade611	0.021227868
225	0xbe2d75fb	-0.16939537
226	0x3d56c3ec	0.05243294
227	0x3da49baf	0.08037507
228	0xbe33cb25	-0.17557962
229	0x3d41a2ed	0.04727452
230	0x3ce30788	0.027713552
231	0x3bbc0d70	0.0057389066
232	0x3dd01de6	0.10161953
233	0xbdd0f786	-0.10203461
234	0xbdaaaa5c	-0.08333275
235	0x3d9c3611	0.076275
236	0x3d45209c	0.0481268
237	0x3d849e17	0.06475466
238	0x3e000446	0.1250163
239	0x3a16845a	0.0005741768
240	0xbc2b4dbe	-0.010455547
241	0x3d45251f	0.048131105
242	0x3d92e9fa	0.07173534
243	0x3e0b3536	0.13594517
244	0x3e81ba49	0.25337437
245	0x3e0e51c4	0.13898379
246	0xbdf06b03	-0.11739161
247	0xbd689ac2	-0.056788214
248	0xbd42eeb5	-0.04759093
249	0x3d41dba6	0.047328614
250	0x3dd9f9ee	0.106433734
251	0x3e01c612	0.12673214
252	0x3e66cbdf	0.22538708
253	0xbdd12846	-0.1021276
254	0x3c4fc3e8	0.012680985
255	0xbc32b86e	-0.010908229
