results/CubeAgentRay/CubeAgentRay/CubeAgentRay-2891.onnx (onnx, 80046 bytes, 8 tensors)

action_model._continuous_distribution.log_sigma f4 [1, 2]
0	0xbd3576c8	-0.04430273
1	0x3d0b527e	0.034014218

action_model._continuous_distribution.mu.bias f4 [2]
0	0xb66c0f91	-3.5175801e-06
1	0x3b210ffb	0.0024576175

action_model._continuous_distribution.mu.weight f4 [2, 128]
0	0x3c0d8724	0.008638177
1	0xbd0df4c9	-0.034657273
2	0x3c80a157	0.015701933
3	0x3c1bc837	0.009508184
4	0x3ce11fb5	0.02748094
5	0xbc17b438	-0.009259276
6	0x3b346f82	0.0027532284
7	0xbb8333c7	-0.004003975
8	0x3baa7468	0.005201865
9	0x3c77eb1e	0.01513174
10	0x3c93b744	0.018031724
11	0xbb3f64aa	-0.0029204288
12	0x3b34b22c	0.002757202
13	0xbccc8034	-0.024963476
14	0x3bfa051b	0.007630003
15	0x3cabf25d	0.020989591
16	0xbbaf7500	-0.0053545237
17	0x3c7e2e82	0.015514018
18	0x3bce3f58	0.0062941723
19	0xbd08f26c	-0.033434317
20	0xbab152bb	-0.0013528684
21	0xbc98a8b4	-0.018635131
22	0xbc599078	-0.013279073
23	0x3d23fadc	0.04003416
24	0x3cdce3db	0.026964119
25	0xbbec2e57	-0.0072076726
26	0x3c96fd9b	0.018431475
27	0x3c8c7cea	0.017149407
28	0xbcc90a38	-0.024541005
29	0x3d2f098b	0.04273371
30	0x3b00c374	0.001964775
31	0x3cb966f2	0.022632096
32	0xbbf5e0aa	-0.0075035887
33	0x3c02caf3	0.007982957
34	0x3c264934	0.010149289
35	0xbc7e67f4	-0.015527714
36	0xbb2d776a	-0.0026468881
37	0xbc98bb67	-0.018644048
38	0x3c14af26	0.009074962
39	0xbbb59d2d	-0.0055424185
40	0x3cb09263	0.021554178
41	0x3b99a200	0.0046885014
42	0x3cacf49b	0.02111273
43	0x3c888671	0.01666567
44	0xbbb022f8	-0.0053752623
45	0x3be57614	0.0070026014
46	0x3c0c0d52	0.008548098
47	0xbb92d83b	-0.004481343
48	0xbc6877bd	-0.014188704
49	0xbcbc173e	-0.022960301
50	0x3cbe6036	0.023239236
51	0xbce9d43b	-0.028543582
52	0x3b1645be	0.0022929753
53	0xbc034303	-0.008011582
54	0xbcde76a0	-0.027156174
55	0x3b751501	0.0037396553
56	0x3bee8004	0.0072784442
57	0x3c810ca5	0.0157531
58	0x3bcadf3c	0.0061911624
59	0xb997b820	-0.00028938148
60	0x3b342116	0.002748554
61	0xbd1bc08d	-0.038025428
62	0x3c0256eb	0.007955293
63	0x3b8b8950	0.0042583123
64	0x3aaf7243	0.0013385493
65	0x3d20a0c2	0.03921581
66	0x3c72c69d	0.014817861
67	0x3bcdb271	0.0062773754
68	0x3cd9462f	0.026522724
69	0x3c4a45ef	0.012345775
70	0x3c055039	0.008136802
71	0xbab430c6	-0.0013747446
72	0x3c21bddd	0.009871927
73	0x3ccedffa	0.025253285
74	0xbc61680d	-0.013757718
75	0x3c7995d5	0.015233477
76	0xbb2ca1e1	-0.0026341605
77	0xbd06f966	-0.03295269
78	0xbc6a7645	-0.014310424
79	0xbcc1a43d	-0.023637885
80	0x3c0b7299	0.008511209
81	0xbc8c013d	-0.017090434
82	0x3ca2e580	0.019884825
83	0x3c3c8f04	0.011508707
84	0xbb45e74a	-0.0030197673
85	0x3c6e9a73	0.014563191
86	0xbcd0d861	-0.025493803
87	0xbc1bc1ff	-0.0095067015
88	0xbc00367a	-0.007825488
89	0x3c2aa595	0.010415454
90	0x3c8d32a1	0.017236056
91	0x3d0acf12	0.033888884
92	0x3c9f59a4	0.019451924
93	0xbc0374b5	-0.008023431
94	0xbbbcd304	-0.0057624597
95	0x3b0f3c20	0.0021855906
96	0xbc87909a	-0.016548444
97	0xbb29bd38	-0.0025900137
98	0xbbd6695b	-0.006543321
99	0x3d2ac2df	0.04168975
100	0xbc315393	-0.010823148
101	0xbca0d4c2	-0.0196327
102	0x3cbb571e	0.02286869
103	0xbc0a467f	-0.008439659
104	0xbd1008fc	-0.03516482
105	0xbbb99737	-0.005663778
106	0x3c83870b	0.016055604
107	0xbc06d124	-0.008228574
108	0xbba9f401	-0.0051865582
109	0xba8d62ef	-0.0010786931
110	0x3c7a641a	0.015282655
111	0xbcc28f2d	-0.023749912
112	0x3c9a7d8a	0.01885869
113	0xb9b20a31	-0.000339584
114	0xbb9dd4ba	-0.0048166187
115	0xbb9abb61	-0.0047220443
116	0xbcbea661	-0.023272695
117	0x3d00e852	0.031471558
118	0x3c7d95e3	0.01547763
119	0x3d09c411	0.03363425
120	0x3cf09de8	0.02937217
121	0x3bf6e87c	0.0075350385
122	0x3bb84f24	0.0056246687
123	0x3cc7c482	0.024385694
124	0xbbbf8123	-0.0058442517
125	0x3a89c8e0	0.0010512136
126	0xbc09c90d	-0.008409751
127	0xbca342fb	-0.0199294
128	0xbc1b17fc	-0.009466168
129	0xbc81a1b5	-0.015824178
130	0xbcca1a9d	-0.024670893
131	0x3c894000	0.01675415
132	0xbc39b2b4	-0.01133411
133	0x3c1bcfc1	0.009509982
134	0xbc43ed90	-0.011958495
135	0x3c0fe8b0	0.008783504
136	0x3cdc06a3	0.026858633
137	0x3c76adc3	0.015056076
138	0x3c349a88	0.011023171
139	0xbc5bebd3	-0.013422924
140	0xbc82f16f	-0.015984265
141	0x3b2dffbc	0.0026550135
142	0xba14db7a	-0.00056784565
143	0xbbc144f9	-0.0058981148
144	0x3c5256a2	0.012838038
145	0x3cc98b16	0.024602454
146	0xbcd909f5	-0.026494006
147	0xb74fc64d	-1.2384332e-05
148	0xbb85be82	-0.004081548
149	0xbd24bf84	-0.040221706
150	0xbb7bee97	-0.0038441771
151	0x3c2d4f3e	0.010577975
152	0x3d2a1ece	0.041533284
153	0x3c00513d	0.007831869
154	0x3cae8694	0.021304406
155	0xbb8609ac	-0.0040905084
156	0x3c4a591b	0.012350346
157	0xbca51314	-0.020150699
158	0xbc278d7d	-0.0102266045
159	0x3bfd7d22	0.0077358643
160	0x3cb434af	0.021997778
161	0x3b9a181a	0.00470258
162	0xbc2c7afc	-0.010527369
163	0xbc541ac3	-0.012945834
164	0xbc38ee18	-0.011287235
165	0xbc3c7d0c	-0.011504423
166	0x3ca19fdb	0.019729545
167	0x3d425fd9	0.04745469
168	0xbb716996	-0.0036836616
169	0x3d2bd47c	0.041950688
170	0xbc84b2ed	-0.0161986
171	0xbc6d212e	-0.014473243
172	0xbbac9b5b	-0.0052675433
173	0x3c84ef0e	0.016227271
174	0xbc0dbec3	-0.008651438
175	0xbceaf5bf	-0.028681634
176	0x3c72b4a7	0.014813579
177	0xbca288b4	-0.019840576
178	0xbac1664b	-0.0014755217
179	0xbbb2b7c2	-0.0054540345
180	0xbbbefd42	-0.0058285305
181	0xba44c540	-0.0007506199
182	0xbc50072e	-0.012697024
183	0xbc538b8e	-0.01291169
184	0x3c89548a	0.016763944
185	0xbca05183	-0.019570118
186	0xbcb3fd5b	-0.021971395
187	0x3bc92a1e	0.006139054
188	0xbc47c2b0	-0.012192413
189	0xbc3a414c	-0.011368107
190	0xbc58a2d9	-0.01322242
191	0xbba5a845	-0.0050554597
192	0x3ca392e5	0.019967506
193	0xbcc81d1c	-0.024427943
194	0xbc85f7d2	-0.016353521
195	0xbc3ddd7d	-0.011588451
196	0xbc6e4578	-0.01454293
197	0x3b8218e2	0.0039702514
198	0x3b99c6a9	0.0046928716
199	0x3be70328	0.007049937
200	0x3d04c8ac	0.032417938
201	0xbccc5fa9	-0.024947958
202	0xbbfb0e08	-0.0076615848
203	0x3d42dc0d	0.047573138
204	0xbc7da827	-0.015481985
205	0xbc958db5	-0.018256048
206	0xbc55f348	-0.013058491
207	0x3cb7db5b	0.022443464
208	0xbc0e42e8	-0.008682944
209	0xbc2e0614	-0.010621566
210	0xbafe4c37	-0.0019401376
211	0xbccda742	-0.025104169
212	0xbc8f1841	-0.01746762
213	0x3c1f1d1e	0.009711532
214	0x3a8f40a1	0.0010929295
215	0x3cd2702c	0.025688253
216	0x3ca95b5d	0.020673448
217	0xbc74a95a	-0.014932955
218	0x3c7ac617	0.015306017
219	0xba792067	-0.00095034245
220	0xbbeac190	-0.0071641877
221	0xbb0d048e	-0.0021517607
222	0x3b3fd439	0.0029270782
223	0x3c966ea5	0.018363306
224	0x3d14a1b2	0.036287017
225	0x3c5370f9	0.012905353
226	0x3d6d8755	0.05799039
227	0x3b20ecf8	0.0024555307
228	0x3c04389a	0.0080701355
229	0xbb279e87	-0.0025576667
230	0x3c48406d	0.012222392
231	0x3b89c80d	0.004204756
232	0x3cbca9be	0.023030158
233	0xbbb0db5b	-0.005397243
234	0x3d39dd0e	0.04537683
235	0xbc9bef96	-0.019035142
236	0x3bf572b9	0.0074904826
237	0x3c92f8a1	0.017940821
238	0x3c899c10	0.01679805
239	0x3c1d1624	0.009587798
240	0xbc2a3ba9	-0.010390201
241	0xbc449828	-0.0119991675
242	0x3bc5c575	0.0060355016
243	0xbcebb362	-0.02877206
244	0x3cbe2fb9	0.023216115
245	0xbcdf98c9	-0.027294533
246	0xba75545e	-0.000935858
247	0xbc915ca1	-0.017744364
248	0xbbbac5c5	-0.0056998455
249	0xbc5a5e18	-0.013328098
250	0xbcc7e838	-0.024402723
251	0x3d438f1f	0.047743913
252	0x3d08634d	0.033297826
253	0x3d1042d1	0.03521997
254	0xbc949a57	-0.018140001
255	0xbb17e95b	-0.0023179862

action_model._discrete_distribution.branches.0.weight f4 [1, 128]
0	0x3bbf4d5b	0.005838079
1	0x3c37bcd6	0.011214456
2	0xbc5cf3a8	-0.013485827
3	0xbafc0b18	-0.001922938
4	0xbb6a59df	-0.0035759134
5	0x3bf64763	0.007515834
6	0xbc40e078	-0.0117722675
7	0x3bb4f837	0.0055227536
8	0x3c1e9f09	0.009681472
9	0x3c15efea	0.009151438
10	0xbc370451	-0.011170463
11	0xbc21118f	-0.009830846
12	0x3c7260fd	0.014793632
13	0xb98b1bda	-0.00026532897
14	0xbb07cd0f	-0.002072159
15	0x3c9ad2cc	0.018899344
16	0x3bdbfc12	0.0067133987
17	0xbbe47e30	-0.0069730505
18	0x38ad72bf	8.270656e-05
19	0xbb6afcf0	-0.003585633
20	0x3c5379e3	0.012907478
21	0x3b3674fb	0.0027840722
22	0xbc0efdf6	-0.008727541
23	0x3c185f03	0.009299996
24	0x3c607ba5	0.013701354
25	0xbbd940c5	-0.0066300356
26	0xbc9a1a01	-0.018811228
27	0xbb8bf9fb	-0.0042717434
28	0x3c973a36	0.018460374
29	0x3c2fb2a4	0.010723744
30	0x3b25f4d8	0.002532294
31	0xbbf78995	-0.007554243
32	0xbc45c0cf	-0.012069895
33	0x3c38b00b	0.011272441
34	0x3bded458	0.0068002157
35	0x3bfd9f05	0.007739904
36	0xbc876c37	-0.016531093
37	0xbaa9543e	-0.0012918783
38	0x3bd889cd	0.006608224
39	0x3bd83e58	0.006599229
40	0xbc1cfe58	-0.009582125
41	0xbba9608e	-0.005168981
42	0x3c43b9b3	0.01194613
43	0xbb76d2c2	-0.0037662243
44	0x3c30c00b	0.010787974
45	0xbc4020fe	-0.011726616
46	0xbbdd090d	-0.0067454637
47	0xbc84b556	-0.016199749
48	0x3c1d4f21	0.009601385
49	0xbbbcbb83	-0.005759658
50	0xbc10e589	-0.008843788
51	0x3b8c989b	0.004290653
52	0xbb9742b7	-0.0046161073
53	0xb99845b3	-0.0002904363
54	0x3bc1bf44	0.005912693
55	0xbb06526a	-0.00204959
56	0xb8460a9f	-4.721677e-05
57	0xbb31d54d	-0.0027135194
58	0x3c361851	0.011114196
59	0xbbd6d6db	-0.0065563745
60	0x3cbbd65d	0.022929365
61	0x3c19489e	0.009355692
62	0x3c554802	0.013017656
63	0xba8f77c4	-0.0010945727
64	0xbaeda7f0	-0.0018131714
65	0xbc696155	-0.014244397
66	0xbbdbe150	-0.006710209
67	0x3bef415a	0.0073014917
68	0x3bacd863	0.0052748187
69	0xba5ead63	-0.00084944646
70	0xba1b3dd0	-0.00059219915
71	0xbae0c5e0	-0.0017148815
72	0xbb96b3d0	-0.004599072
73	0xbb8cd3ec	-0.004297724
74	0x3b769c1f	0.0037629677
75	0x3aa3cfc4	0.0012497832
76	0xbaa4369b	-0.0012528481
77	0x3b693485	0.0035584283
78	0xbad9d75f	-0.0016619972
79	0x3c06c52c	0.00822572
80	0xbbb685ca	-0.005570148
81	0x3c36696d	0.011133534
82	0xbc8644e6	-0.016390275
83	0x3c04a906	0.008096939
84	0x3a5c8347	0.0008411896
85	0x3c1e64db	0.0096676005
86	0xbaa2f9ef	-0.0012434105
87	0xbb208dfe	-0.0024498696
88	0x3abdf21c	0.001449171
89	0xbc6f0fbf	-0.0145911565
90	0x3c983961	0.018582048
91	0x3bf0c508	0.0073477067
92	0xbaa24aaa	-0.0012381871
93	0x3c1c9b78	0.009558551
94	0x3cc795a4	0.024363346
95	0xbc7305cf	-0.014832928
96	0x3b52b8fa	0.0032153712
97	0xbb08bdbd	-0.0020865046
98	0xba3779a6	-0.0006999023
99	0x3ab356e1	0.0013682508
100	0x3c5394c7	0.012913889
101	0x3c21c108	0.009872682
102	0xbcaf9b2b	-0.021436295
103	0x3ae40da0	0.001739908
104	0x3bf33367	0.007421899
105	0x3bd7a1f7	0.006580587
106	0x3c692670	0.014230356
107	0x3c13d04a	0.009021828
108	0x3b7eb0b5	0.003886265
109	0xbb8a78fc	-0.0042258482
110	0x3b82faad	0.003997168
111	0xbb21c4ff	-0.002468407
112	0xba00f7ac	-0.00049197185
113	0x3bd04f8d	0.0063571394
114	0x3bcc136c	0.006227901
115	0xbaf03952	-0.001832763
116	0x3abbe8af	0.0014336313
117	0x3c09c0c8	0.008407779
118	0xbb0e4bcd	-0.0021712661
119	0x3c158239	0.009125286
120	0xbbb81eab	-0.0056188903
121	0x3addec35	0.0016931357
122	0x3b9d8acb	0.004807805
123	0xbb195423	-0.0023396097
124	0x3c3aca8f	0.011400833
125	0xbbfd25d3	-0.0077254563
126	0xb9ff773f	-0.00048726235
127	0xbb7b6f2d	-0.0038365826

network_body._body_endoder.seq_layers.0.bias f4 [128]
0	0xbc015352	-0.0078934
1	0xbb9ef892	-0.0048514092
2	0xbc42428d	-0.011856687
3	0xbab39b46	-0.0013702891
4	0xbc37c189	-0.011215576
5	0xbc1daf12	-0.00962426
6	0xbc00236f	-0.007820948
7	0xbc575800	-0.013143539
8	0xbc7f2aee	-0.0155742
9	0x3bb947e2	0.005654321
10	0xbaed813d	-0.0018120181
11	0xbc65f2c7	-0.014034933
12	0xbc81371c	-0.015773349
13	0xbc2b46dd	-0.010453907
14	0xbbb53b0f	-0.005530722
15	0xbbd0523e	-0.0063574603
16	0x3b2e93c0	0.0026638359
17	0xbbfdbbd2	-0.007743337
18	0xbb852120	-0.0040627867
19	0xbbf6dbd6	-0.0075335307
20	0xbc828f5d	-0.015937502
21	0xbc04eebb	-0.008113558
22	0xbc3b1e4b	-0.011420797
23	0xbc5510ab	-0.013004462
24	0x3b884b3b	0.004159359
25	0xbc283400	-0.010266304
26	0x3bea74f6	0.007155056
27	0x3bbfebd8	0.005856972
28	0xbc4d3d36	-0.012526801
29	0x3bdd6432	0.006756329
30	0xbb8ac733	-0.004235172
31	0x383db52c	4.522984e-05
32	0x3b21142d	0.0024578676
33	0xbc62a6ae	-0.013833685
34	0xbaaa5884	-0.001299635
35	0x3b9f059d	0.004852964
36	0xba32c6d0	-0.00068197865
37	0xbbb20b87	-0.005433503
38	0xb977b988	-0.00023624871
39	0xbb19d112	-0.0023470563
40	0x3a637fb9	0.0008678395
41	0xbb0f0989	-0.0021825752
42	0xbb367dc6	-0.0027845963
43	0x3ad220df	0.0016031525
44	0xbb754c0f	-0.0037429368
45	0x3ab80ad7	0.0014041316
46	0xbc16dbd8	-0.009207688
47	0xbb92d13e	-0.00448051
48	0xbb32fbdf	-0.0027310771
49	0xbbbb0062	-0.0057068327
50	0xbbc5c865	-0.006035852
51	0xbb9877b0	-0.0046529397
52	0xbc57091f	-0.013124733
53	0xbb3cff10	-0.0028838553
54	0x3c3a0f8d	0.011356247
55	0xbabdc7c7	-0.0014479094
56	0x3c1c3246	0.0095334705
57	0xbb5a0472	-0.003326681
58	0xbc8ee196	-0.017441552
59	0xbb41ad0b	-0.0029552605
60	0x3a68ab17	0.0008875592
61	0xbb85c3c4	-0.004082175
62	0xbbbdb61b	-0.005789531
63	0xbc9a4482	-0.018831495
64	0xbb57093f	-0.0032811908
65	0x3a3b4eb7	0.00071452133
66	0x3b27644d	0.0025541962
67	0xbbcb8242	-0.0062105963
68	0x38c0d73a	9.1953625e-05
69	0xbbf35dcd	-0.0074269534
70	0x3ac45f8b	0.0014982087
71	0xbc2c09c7	-0.010500378
72	0x3b2d64fd	0.0026457899
73	0x3b26daa7	0.0025459917
74	0xbc675845	-0.014120166
75	0xbc4bb8f0	-0.012434229
76	0x3d08e28c	0.033419177
77	0xbbef52fd	-0.007303594
78	0xbb740aac	-0.0037237806
79	0x3bfc0c6e	0.0076919114
80	0xba83fbc3	-0.0010069538
81	0xbb81a088	-0.0039559044
82	0xbb7c5c92	-0.0038507325
83	0x3b9beca5	0.004758435
84	0x3b3fb01e	0.002924926
85	0xbc0caa42	-0.0085855145
86	0xbc5bdced	-0.013419372
87	0xbb2d7129	-0.0026465154
88	0xbb6e98d1	-0.0036407004
89	0xbcd55728	-0.026042536
90	0xbc80c7a9	-0.015720205
91	0x3b89eb60	0.004208967
92	0xbc0a190d	-0.008428824
93	0xbb8411f2	-0.0040304596
94	0xbc2c63b2	-0.010521816
95	0xbb1eea57	-0.0024248564
96	0xbbba0675	-0.0056770393
97	0xbc3f9b02	-0.011694672
98	0xbca3b518	-0.019983813
99	0xbb3f5f2b	-0.0029201012
100	0xbc007bb7	-0.007841996
101	0xb9a941e0	-0.00032283273
102	0xba5e4fff	-0.0008480548
103	0xbb7ec3ad	-0.0038873956
104	0xbc1935cb	-0.009351204
105	0xbb70470e	-0.0036663446
106	0xbc0e50e2	-0.008686276
107	0x3b85ca63	0.0040829643
108	0x3b89ef16	0.0042094095
109	0xbc2add32	-0.010428714
110	0x3ac10b86	0.0014728166
111	0xbc267fdc	-0.01016232
112	0xbc066b0b	-0.008204232
113	0xb8a8e4e1	-8.053496e-05
114	0x3bc183c5	0.0059056007
115	0xbbd00968	-0.0063487776
116	0x3b44c1ba	0.0030022697
117	0xbb0796ef	-0.0020689329
118	0xbac31f2e	-0.0014886612
119	0x38e2c0b9	0.00010812417
120	0xbadf6039	-0.0017042226
121	0xbc1b6d4e	-0.0094865095
122	0xbc180f88	-0.009281047
123	0xbb7f4412	-0.0038950485
124	0x3b816132	0.003948354
125	0xbba4a706	-0.0050247936
126	0xbc163726	-0.009168422
127	0xbafa4f00	-0.001909703

network_body._body_endoder.seq_layers.0.weight f4 [128, 17]
0	0x3ec84dea	0.39121944
1	0x3cd717a1	0.026256384
2	0xbddfe3b3	-0.10932102
3	0xbd008e41	-0.031385664
4	0x3ec4dedb	0.38451275
5	0x3eb03701	0.34416965
6	0xbea8ec8e	-0.32992977
7	0x3dee9a0b	0.11650475
8	0xbe8cb7f9	-0.2748411
9	0x3d80f8bc	0.06297442
10	0xbe86b4d1	-0.26309827
11	0xbeb3293c	-0.34992397
12	0x3e8362f1	0.25661424
13	0x3e892d93	0.26792583
14	0x3e6e35c6	0.232627
15	0x3dd332e2	0.103124395
16	0xbe8f099d	-0.27937022
17	0x3ed09547	0.4073889
18	0x3d9901d7	0.07471054
19	0x3e5c4ebe	0.21514413
20	0xbdb70ba2	-0.08937766
21	0xbda899c8	-0.082324564
22	0x3e66bb75	0.22532447
23	0xbf063089	-0.5241781
24	0x3e550c92	0.20805576
25	0x3ca87b54	0.02056662
26	0xbdedb9be	-0.11607693
27	0xbebaf84e	-0.36517566
28	0xbe3c196f	-0.18369077
29	0xbe268581	-0.16261865
30	0xbe84f49d	-0.25967875
31	0xbee64a46	-0.4497854
32	0x3e9776c0	0.29582787
33	0x3df90c90	0.12160599
34	0x3daafe52	0.08349289
35	0xbce2ace4	-0.027670331
36	0x3eaa362e	0.3324446
37	0xbefc1f0f	-0.49242446
38	0xbe38ff71	-0.18066193
39	0x3d848397	0.06470411
40	0x3d02a6b1	0.03189725
41	0x3eba8e97	0.36436912
42	0xbd054611	-0.032537524
43	0x3eaed055	0.3414332
44	0x3c06cd3c	0.008227643
45	0x3cd04b5c	0.02542656
46	0xbe8a5b1a	-0.2702263
47	0x3e690ac6	0.22758016
48	0x3ed012d3	0.40639362
49	0xbe843b2b	-0.25826392
50	0xbe280748	-0.16409028
51	0x3e90a2c8	0.28249192
52	0xbf1753e8	-0.59112406
53	0x3ce3153d	0.027720088
54	0xbe354004	-0.17700201
55	0x3eb6ede8	0.35728383
56	0xbe467a60	-0.1938262
57	0xbdc3e79d	-0.09565661
58	0x3e963fb6	0.29345483
59	0x3dcbaf66	0.09945564
60	0x3ebda354	0.37038672
61	0x3e09f404	0.13471991
62	0x3d1987b7	0.037482943
63	0xbd6cf302	-0.057848938
64	0x3ee98456	0.45608777
65	0x3d543789	0.051810775
66	0x3e380620	0.17971087
67	0x3dc85380	0.09781551
68	0xbd9daec1	-0.07699347
69	0xbe7309fb	-0.23734276
70	0xbe38cf67	-0.18047868
71	0x3ee024f0	0.4377818
72	0x3dad0824	0.08448818
73	0xbe14caac	-0.14530438
74	0xbe3302e5	-0.17481573
75	0x3e280f9d	0.16412206
76	0xbee47dd0	-0.44627237
77	0x3e271389	0.16316046
78	0xbda42207	-0.08014303
79	0xbe6b94e4	-0.23006016
80	0x3db6a74e	0.089186296
81	0x3c8e5cb6	0.017378192
82	0x3ecfd227	0.4059002
83	0xbe49f310	-0.19721627
84	0x3d8856d2	0.06657185
85	0xbe267486	-0.16255388
86	0x3dd0b7c4	0.101913005
87	0xbe2f870e	-0.17141363
88	0x3d257366	0.040393256
89	0xbcc94c34	-0.02457247
90	0x3df0cf75	0.11758319
91	0x3dc60bc0	0.0967021
92	0xbee5190a	-0.44745666
93	0x3edbf557	0.42960617
94	0x3df3097e	0.11867045
95	0xbeb57152	-0.3543802
96	0x3ec93c8c	0.39304006
97	0x3d4473ae	0.047961883
98	0xbb364649	-0.002781289
99	0x3eed63b4	0.4636513
100	0xbe2b479d	-0.16726537
101	0x3f069203	0.52566546
102	0xbe2d3922	-0.16916326
103	0xbeaf31d3	-0.342177
104	0x3e8c9a03	0.27461252
105	0x3d4a4799	0.049384687
106	0xbe1a7057	-0.15081917
107	0x3ebfcf45	0.37462822
108	0xbe878a43	-0.26472673
109	0x3e19eeaf	0.15032457
110	0xbddc687f	-0.107621185
111	0x3d93d361	0.07218052
112	0x3e73988e	0.23788664
113	0xbe0837f7	-0.13302599
114	0x3e65d268	0.22443545
115	0xbed704a0	-0.41995716
116	0xbe348304	-0.17628103
117	0x3e0e83e3	0.13917498
118	0xbe759350	-0.23981977
119	0x3ede1c18	0.4338081
120	0xbe23e559	-0.16005458
121	0x3e760eaa	0.24029031
122	0xbbb73dbb	-0.0055920756
123	0x3e54362a	0.20723787
124	0x3e396302	0.18104175
125	0x3f098834	0.53723454
126	0xbf4a0440	-0.78912735
127	0xbedb0da4	-0.42783844
128	0xbe6b5ba0	-0.22984171
129	0x3e0567c9	0.13027872
130	0xbe595849	-0.21225084
131	0x3ed5e32e	0.41774887
132	0x3e706ef0	0.2347982
133	0x3c8753f1	0.016519519
134	0x3f20b2f4	0.6277306
135	0x3eee69d7	0.46565124
136	0xbe98912c	-0.29798257
137	0x3ee9ea97	0.4568679
138	0xbe11503e	-0.14190766
139	0x3d4edb86	0.050502323
140	0xbe1637dd	-0.14669748
141	0xbefdc517	-0.4956443
142	0x3ea94ec3	0.33067903
143	0x3ec1ba0e	0.3783726
144	0xbf3cd5be	-0.73763645
145	0xbeabc885	-0.33551422
146	0xbeab7596	-0.33488148
147	0xbddf6767	-0.10908394
148	0x3cb725b1	0.02235684
149	0xbef0a4b4	-0.4700066
150	0xbda65f30	-0.08123624
151	0x3e0bfae0	0.1366992
152	0xbd9b40e0	-0.07580733
153	0xbe18d789	-0.1492597
154	0x3d06ac13	0.032878947
155	0xbea63cba	-0.32468206
156	0x3eaa7810	0.33294725
157	0x3e0625e7	0.13100396
158	0xbd6a760b	-0.05724148
159	0x3e9addc5	0.30247322
160	0xbc004eba	-0.00783127
161	0xbedbaf46	-0.4290716
162	0x3e7de213	0.24793272
163	0x3d373e8c	0.044737384
164	0xbd02b466	-0.031910323
165	0xbe2eadef	-0.17058538
166	0xbdebc628	-0.11512405
167	0xbe5df89c	-0.21676868
168	0x3f2eae89	0.6823507
169	0x3d42a8a5	0.047524113
170	0xbddc9ef5	-0.10772506
171	0x3e9ff6c5	0.31242958
172	0x3e9691e9	0.29408196
173	0x3e1128ca	0.14175716
174	0xbc2ba229	-0.010475674
175	0xbe294ed3	-0.16533975
176	0x3de876c8	0.11350781
177	0xbdfedad3	-0.12444081
178	0x3e87629e	0.26442426
179	0x3e3c6fcb	0.1840202
180	0xbccc39a9	-0.024929838
181	0x3d4d0346	0.05005195
182	0x3c23c0a2	0.009994658
183	0xbc94485b	-0.018100908
184	0x3dd72dad	0.10506759
185	0x3f158f8f	0.5842218
186	0xbe5c2c03	-0.21501164
187	0xbe81acf7	-0.25327274
188	0x3e45cfde	0.19317576
189	0x3da78a43	0.08180668
190	0xbe79acbd	-0.243823
191	0x3eda10f2	0.42591053
192	0xbe200b2d	-0.15629263
193	0xbe29bd46	-0.16576108
194	0xbde15d17	-0.110040836
195	0x3de330c0	0.11093283
196	0x3e4deb01	0.20109178
197	0x3e328dde	0.1743693
198	0x3d0e66b9	0.034765933
199	0xbe6a2904	-0.22867209
200	0xbea5d11d	-0.32386103
201	0x3efa5de3	0.48899755
202	0x3ddc835a	0.10767241
203	0xbdb14271	-0.08655251
204	0x3e6d6617	0.23183475
205	0x3eb71a1a	0.357621
206	0xbddf83a9	-0.10913784
207	0x3d9d87ef	0.07691943
208	0xbca5f15f	-0.020256696
209	0x3e65c017	0.22436558
210	0x3eaf9297	0.34291527
211	0x3da0d005	0.078521766
212	0xbe692d6a	-0.2277123
213	0xbedb18cf	-0.42792365
214	0xbf006051	-0.5014697
215	0xbdc5e314	-0.09662452
216	0x3d0dff7c	0.034667477
217	0xbe2d2df9	-0.16912068
218	0xbe937853	-0.28802738
219	0xbe8c9625	-0.274583
220	0x3d0f7693	0.03502519
221	0x3e5e0825	0.21682794
222	0xbd634f5e	-0.055495612
223	0x3e1e1a65	0.15439756
224	0xbd5dd9af	-0.054162677
225	0xbe837c0f	-0.25680587
226	0xbe985620	-0.29753208
227	0x3dbef95b	0.093249045
228	0x3f03a822	0.51428425
229	0x3daf0bbc	0.0854716
230	0x3dec5315	0.11539284
231	0x3e66340a	0.22480789
232	0x3df2ab67	0.11849099
233	0xbe00ee1a	-0.12590829
234	0x3e243820	0.16037035
235	0x3dfeea5d	0.12447045
236	0xbea1e627	-0.31620905
237	0xbca8bcea	-0.020597894
238	0xbe829f8e	-0.25512356
239	0xbd500343	-0.05078436
240	0xbd5a8bec	-0.053356096
241	0x3dbd52c0	0.09244299
242	0x3de5acee	0.11214624
243	0x3e5b2428	0.21400511
244	0xbcf1aba0	-0.029500782
245	0x3eb32a39	0.3499315
246	0xbe5dd204	-0.21662146
247	0x3e76e7a4	0.24111801
248	0x3e18875a	0.14895383
249	0x3e4920da	0.19641438
250	0xbe0c74c4	-0.13716418
251	0xbd9ca118	-0.07647914
252	0x3eb8c789	0.36089733
253	0xbd06dee8	-0.032927424
254	0xbf1fe2b1	-0.6245528
255	0xbde2c42a	-0.110725716

network_body._body_endoder.seq_layers.2.bias f4 [128]
0	0xbc11954b	-0.008885692
1	0x3bd3171a	0.006441963
2	0xbae9a7b3	-0.0017826468
3	0xba6344a2	-0.000866959
4	0xbb6c0160	-0.0036011562
5	0xbaf24a1c	-0.0018485221
6	0xbb9a3e82	-0.0047071585
7	0xbbaafc82	-0.0052180896
8	0x39ff933d	0.0004874709
9	0xba39a8d9	-0.000708235
10	0xbbb230f4	-0.0054379646
11	0xbb843a2b	-0.0040352545
12	0xbb0a608f	-0.0021114682
13	0xbba778db	-0.0051108426
14	0xbbe101e9	-0.006866683
15	0xbb9a2470	-0.0047040507
16	0x391346be	0.00014045366
17	0x3a87a837	0.0010349815
18	0xbad31091	-0.001610296
19	0x3a8d8d78	0.0010799607
20	0xbc1754c3	-0.009236517
21	0xbb45d628	-0.0030187462
22	0x3a61e4cc	0.0008617162
23	0x3c3221e2	0.010872336
24	0x3b194b8e	0.0023390981
25	0xba0be079	-0.0005335878
26	0x3c860e2d	0.016364181
27	0x3bce60e5	0.006298172
28	0xbb963491	-0.004583903
29	0x3b9c96a3	0.0047786995
30	0xbbe2d78a	-0.006922667
31	0x3c9e2001	0.01930237
32	0xb99b9376	-0.0002967377
33	0xbb00b382	-0.0019638245
34	0x3b066a66	0.0020510196
35	0xbb262d0d	-0.0025356442
36	0xbb9fab13	-0.0048726886
37	0xbac69b8a	-0.0015152555
38	0x3c7397d5	0.014867743
39	0x3a90eb2e	0.0011056417
40	0xb942a471	-0.00018562541
41	0x3c0d39e9	0.008619764
42	0xb9280a2f	-0.00016025522
43	0x3a838593	0.0010034315
44	0xbc28f422	-0.010312112
45	0x3bb9da7a	0.0056717964
46	0xbba0357c	-0.0048891883
47	0xbb72f149	-0.0037070087
48	0x3a3cb572	0.00071986683
49	0xbc8ee826	-0.017444681
50	0xbbf9ea50	-0.007626809
51	0xbbb14e52	-0.005410948
52	0xbbb52b7d	-0.005528866
53	0xbb3bec08	-0.002867462
54	0x3af5ab85	0.0018743133
55	0xbb180ca4	-0.0023200894
56	0xbc375095	-0.011188646
57	0xbc07be90	-0.00828518
58	0x3acbf139	0.0015559561
59	0x3c0038c5	0.007826035
60	0xbba02285	-0.0048869275
61	0xbb2ac233	-0.0026055693
62	0x3b5e4a9a	0.0033918978
63	0xbbab3083	-0.005224289
64	0xbb6743cf	-0.003528822
65	0xbb2659ab	-0.0025383036
66	0xbba5d494	-0.0050607417
67	0xbb9346c0	-0.004494518
68	0xbb65012e	-0.003494333
69	0xbb312472	-0.002702978
70	0xbbc68fdb	-0.0060596294
71	0xbadcecb7	-0.0016855214
72	0x3ba7479f	0.0051049734
73	0xbb2956a7	-0.0025839002
74	0xbba0f742	-0.004912288
75	0x3c8b960f	0.017039327
76	0xb9af2513	-0.00033406224
77	0x39afda6b	0.00033541335
78	0xbb953fdc	-0.004554732
79	0xbbc2d28c	-0.0059455093
80	0xbbc59fd5	-0.0060310164
81	0xbb8ca1c9	-0.004291747
82	0xbb9e334a	-0.0048278915
83	0xbbb3db64	-0.0054888
84	0xbc21b7ce	-0.009870483
85	0xbbb29d23	-0.005450861
86	0xbb0afc38	-0.0021207463
87	0x3a176d23	0.00057764555
88	0x3b92c93a	0.0044795545
89	0xbb297de9	-0.0025862402
90	0x3b1e5b6e	0.0024163383
91	0x3b7ab710	0.0038256086
92	0xbb3c83a8	-0.0028764997
93	0xbbe049d4	-0.0068447385
94	0xbbcbc637	-0.0062186974
95	0x3ba9a24d	0.0051768185
96	0x3bcd7f11	0.006271251
97	0x3b0b86fb	0.0021290171
98	0x3b07f8ea	0.002074773
99	0x3ac18f53	0.0014767445
100	0x398354bb	0.00025049396
101	0xb9e31c6e	-0.00043317996
102	0x3ca31bb4	0.01991067
103	0xbbc9dc4b	-0.006160294
104	0x3c069789	0.00821484
105	0xbb444c94	-0.002995287
106	0x3c3086ba	0.010774309
107	0xbb857a4b	-0.0040734163
108	0xbba4d20e	-0.0050299233
109	0x3b2964b0	0.0025847368
110	0x3a490fb8	0.0007669884
111	0xbbabda9c	-0.005244566
112	0x3ce7da25	0.028302262
113	0xbbace481	-0.005276263
114	0xb795172f	-1.777298e-05
115	0xb931b0ac	-0.00016945851
116	0xb9c5166b	-0.0003759147
117	0xbaf5e1e3	-0.0018759336
118	0xbbd4a209	-0.0064890427
119	0x39947c13	0.00028321202
120	0xbaa9e616	-0.0012962248
121	0xbc08b0ba	-0.008342916
122	0xbb346c2f	-0.0027530303
123	0x3c4c12c1	0.012455643
124	0x3c85b947	0.016323699
125	0x3b377da8	0.002799848
126	0xbb9bde68	-0.0047567375
127	0xbc152774	-0.009103645

network_body._body_endoder.seq_layers.2.weight f4 [128, 128]
0	0x3e03449f	0.12819146
1	0x3df1ddb3	0.11809864
2	0x3ca79813	0.020458257
3	0xbd244176	-0.04010149
4	0xbc05dcbf	-0.008170306
5	0x3d4c4e58	0.049879402
6	0xbe5252af	-0.20539354
7	0xbd11e055	-0.03561433
8	0xbdbbb7e3	-0.09165933
9	0xbbea7241	-0.0071547334
10	0xbdf167f5	-0.11787406
11	0xbc483f23	-0.012222084
12	0xbc93c30a	-0.018037338
13	0xbc91ad56	-0.017782848
14	0x3d6e4a76	0.05817648
15	0x3dfbe902	0.12300302
16	0xbe000acd	-0.1250412
17	0xbd341ab2	-0.04397077
18	0x3afb280c	0.0019161715
19	0xbc05fc74	-0.008177865
20	0xbe0dac6f	-0.1383531
21	0xbca777de	-0.0204429
22	0x3d8484f9	0.06470675
23	0x3ca4b858	0.020107433
24	0x3ccc8b7f	0.02496886
25	0x3bc931a0	0.006139949
26	0x3d86bdd9	0.06579179
27	0xbe140c45	-0.14457805
28	0xbd6d18ea	-0.057885088
29	0x3e2bd3f1	0.16780068
30	0x3e0522b0	0.13001513
31	0xbd26f961	-0.04076517
32	0xbd7671a5	-0.060166974
33	0x3cfc725f	0.030816255
34	0x3d05ec5d	0.032696117
35	0xbde237a0	-0.11045766
36	0x3df4863e	0.11939667
37	0x3daa9824	0.083298
38	0xbc3ad55a	-0.011403406
39	0xbd35b46b	-0.044361513
40	0x3cf9c09e	0.030487355
41	0xbd592816	-0.053016745
42	0x3dbdb0e7	0.09262257
43	0x3da604f8	0.081064165
44	0xbdcc11f5	-0.099643625
45	0xbcbf3a65	-0.023343274
46	0x3d1205fa	0.03565023
47	0xbe657dfb	-0.22411339
48	0x3c389b12	0.01126744
49	0x3baa8ae8	0.005204547
50	0xbd976c16	-0.07393663
51	0xbc87cfee	-0.01657864
52	0x3dd33eb6	0.103146955
53	0x3de438e5	0.11143664
54	0xbd4ed056	-0.050491653
55	0x3ac83429	0.0015274334
56	0xbdb45f7d	-0.088072754
57	0xbe016dbc	-0.12639517
58	0xbc2aafc6	-0.010417884
59	0x3e0be8c4	0.13663012
60	0x3b9aeba5	0.004727798
61	0x3ca10f8d	0.019660736
62	0x3d9b76d9	0.07591028
63	0xbdc1f419	-0.09470386
64	0xbc6830f7	-0.01417183
65	0xbe31cdf6	-0.17363724
66	0xbe1a0bde	-0.1504359
67	0x3e11d64e	0.14241907
68	0x3dd02954	0.10164133
69	0x3daef31a	0.08542462
70	0xbc1356a0	-0.008992821
71	0x3d2752ba	0.04085038
72	0x3dcef934	0.101061255
73	0xbd4ac6cc	-0.049505994
74	0x3e10cd01	0.14140703
75	0xbcda3555	-0.026636759
76	0xbdf3c24b	-0.11902293
77	0x3b85206b	0.0040627024
78	0xbc584751	-0.013200597
79	0xbe1cbbee	-0.15306064
80	0xbd7f89d5	-0.062387306
81	0xbba0d4da	-0.0049081864
82	0xbe136af2	-0.14396265
83	0xbdd12d0c	-0.1021367
84	0xb986287c	-0.00025588635
85	0xbbafc3d0	-0.005363919
86	0x3e420050	0.18945432
87	0x3d9aa8dc	0.075517386
88	0xbce23d7c	-0.027617209
89	0xbd178e7e	-0.037001126
90	0x3e119305	0.1421624
91	0x3d37b390	0.04484898
92	0x3b815187	0.0039464864
93	0xbd146fce	-0.036239438
94	0x3c1f7928	0.009733476
95	0x3dcf2fc4	0.101165324
96	0xbbd5fa55	-0.006530086
97	0xbe0fb6c9	-0.14034571
98	0xbd51dc5d	-0.051235545
99	0xbdd679d5	-0.10472456
100	0x3dab75fd	0.08372114
101	0x3d749e98	0.05972156
102	0x3d01b03f	0.031662222
103	0xbd3aedaf	-0.04563683
104	0x3d0fc88a	0.03510336
105	0xbccfc6f4	-0.025363423
106	0x3d00b27c	0.031420216
107	0xbe05df0e	-0.1307337
108	0xbd03e0aa	-0.03219668
109	0xbd39cdd5	-0.045362312
110	0xbb91ed28	-0.00445332
111	0xbd4a1a54	-0.049341515
112	0x3dc07274	0.0939683
113	0xbd45ce13	-0.04829223
114	0xbdf5d514	-0.12003532
115	0xbcfc1f9d	-0.030776793
116	0x3d4ce1cd	0.050020028
117	0x3d359925	0.044335503
118	0xbdddb5d3	-0.10825696
119	0x3d9a8df6	0.07546608
120	0x3d86e1e9	0.06586058
121	0x3d3f1c82	0.046658047
122	0xbdd8b8f3	-0.10582151
123	0xbd371e7a	-0.0447068
124	0x3e89321e	0.2679605
125	0xbd056349	-0.03256539
126	0xbd101f45	-0.03518607
127	0xbdce7417	-0.10080736
128	0x3dd97d35	0.106195845
129	0x3cf949c9	0.030430691
130	0x3b13a031	0.0022525901
131	0xbcc4f817	-0.02404408
132	0x3d6bfd5e	0.057614677
133	0xbda42491	-0.08014787
134	0xbd52fef5	-0.051512677
135	0x3cf9e3f3	0.030504202
136	0xbe05a9cb	-0.13053052
137	0x3ba562a2	0.0050471583
138	0x3dec42d5	0.11536185
139	0xbda5d2ea	-0.08096869
140	0xbd1a440d	-0.037662555
141	0xbd76fb05	-0.060297985
142	0x3ca7e10a	0.02049305
143	0xbc47748d	-0.012173784
144	0x3dcbcb1a	0.09950848
145	0x3da10b35	0.07863466
146	0x3d972964	0.073809415
147	0xbd42c824	-0.04755415
148	0xbd1393f0	-0.036029756
149	0x3de7b792	0.1131431
150	0x3c39876d	0.011323792
151	0xbcf984ad	-0.030458773
152	0xbda962cb	-0.082707964
153	0xbcd0aff0	-0.025474519
154	0xbe46ea45	-0.19425304
155	0xbe3ae8f6	-0.1825293
156	0x3daf7da8	0.08568889
157	0x3d8f7f71	0.070067294
158	0x3e035f9a	0.12829438
159	0xbd93bb6b	-0.072134815
160	0xbc763afe	-0.015028713
161	0x3e1a633d	0.15076919
162	0xbe02c446	-0.12770185
163	0xbd67d20f	-0.05659681
164	0x3e51ff13	0.2050746
165	0xbdc0f1c4	-0.09421113
166	0xbd5fb55b	-0.054616313
167	0x3b3d4970	0.0028882883
168	0xbdb7165b	-0.08939811
169	0x3d874d1a	0.06606503
170	0x3dfafe66	0.12255554
171	0xbe178797	-0.14797817
172	0xbd9ea132	-0.07745589
173	0xbdecfce2	-0.11571671
174	0x3d1c1ea8	0.038115174
175	0xbb2b97c4	-0.0026182989
176	0x3d7a856f	0.06116241
177	0x3d9e1efb	0.07720753
178	0x3d8ddfb8	0.069274366
179	0x3d31f360	0.04344499
180	0x3da06fda	0.07833834
181	0xbd4fdcd1	-0.050747696
182	0x3db7fa95	0.089833416
183	0xbd171de5	-0.036893744
184	0xbd5c3d38	-0.05376932
185	0xbd051abd	-0.032496203
186	0xbdcbe3ce	-0.0995556
187	0xbcb3d7fa	-0.021953572
188	0xbd3d6dbe	-0.046247236
189	0x3c6f798c	0.014616381
190	0x3de3cafe	0.11122702
191	0xbdbb7baa	-0.091544464
192	0xbe2456e7	-0.16048776
193	0x3e1719eb	0.1475598
194	0xbd14fc63	-0.036373507
195	0xbc7e1147	-0.015507049
196	0x3d825394	0.063635975
197	0xbdc9166c	-0.0981873
198	0x3d85b248	0.06528145
199	0xbd34c75c	-0.044135436
200	0x3dccf4d1	0.100076325
201	0xbd0721db	-0.03299127
202	0xbe17f023	-0.14837699
203	0xbe303fa6	-0.1721178
204	0xbdaefd4b	-0.085444055
205	0xbe15b2d3	-0.14618997
206	0xbd1c196c	-0.03811018
207	0x3dcc616d	0.0997952
208	0xbccc8c2e	-0.024969187
209	0x3a60ea70	0.0008579856
210	0x3dcff426	0.101539895
211	0x3c2a1032	0.010379838
212	0xbe093e3b	-0.13402645
213	0xbe761865	-0.24032743
214	0xbc6fc52a	-0.01463441
215	0xbca524b9	-0.020159112
216	0x3c65e658	0.014031969
217	0xbc2ed24c	-0.010670256
218	0x3ce3be38	0.027800664
219	0x3e8510e6	0.25989455
220	0xbd8845e5	-0.06653956
221	0x3d41a117	0.047272768
222	0x3dae6e3c	0.08517119
223	0x3da52ee6	0.08065586
224	0xbd290150	-0.041261017
225	0xbcc96307	-0.024583353
226	0x3d92a72d	0.071607925
227	0xbd30f7e1	-0.043205146
228	0x3d8cc60b	0.06873711
229	0xbd462686	-0.048376583
230	0xbe49c9c2	-0.19705871
231	0x3dee0fad	0.11624084
232	0x3e0cf9b2	0.13767126
233	0xbe0b92cb	-0.13630216
234	0x3e14dbb8	0.14536941
235	0xbd44f1a4	-0.04808201
236	0x3dafbf70	0.08581436
237	0x3b64b639	0.0034898652
238	0xbd875bd4	-0.06609312
239	0xbdabf9cd	-0.08397255
240	0xbd8a4969	-0.06752283
241	0xbc2cc6de	-0.0105454605
242	0xbd674dc3	-0.056470644
243	0x3cfc969b	0.030833533
244	0x3e097d3e	0.13426682
245	0x3ba26412	0.004955777
246	0xbe305282	-0.17218974
247	0xbd05d28f	-0.032671507
248	0x3d72dc33	0.05929203
249	0x3daaae66	0.08334045
250	0x3d755d5b	0.059903484
251	0x3cd2634e	0.025682118
252	0xbb00bb6b	-0.001964296
253	0xbc905cf7	-0.017622454
254	0xbce304e0	-0.027712286
255	0xbd3e8cf2	-0.046521135
