results/CubeAgentRay/CubeAgentRay/CubeAgentRay-0.onnx (onnx, 80046 bytes, 8 tensors)

action_model._continuous_distribution.log_sigma f4 [1, 2]
00000000: 0000 0000 0000 0000
0.0 0.0

action_model._continuous_distribution.mu.bias f4 [2]
00000000: 0000 0000 0000 0000
0.0 0.0

action_model._continuous_distribution.mu.weight f4 [2, 128]
00000000: aac3 f23c 60f9 b0bc 1063 6b39 3f30 c63c
00000010: 001d 2ebb 2f06 74bc 83ed aa3b 23d9 22bc
00000020: 850a debb 149d 36bc fbbb 6ebb da94 f0bc
00000030: c76d babc ad02 28bc a0d7 79bc 3ff4 45bc
00000040: 2b23 34bc c7ba 80bc 978c 3ebc c64f 493c
00000050: 62be 583b 3336 983c 5851 a63c 4f84 c2bc
00000060: 7b40 473c ada0 26bb 7746 8bbc 33e6 c8b9
00000070: 6f54 3bbc 92fc 2a3d effd d83c 7bb8 a83a
00000080: 2ccb 003d 1601 383d 620d 34bc 3308 acbb
00000090: b183 0d3c d74c 323d 6f21 d53c ab35 00bd
000000a0: 75dc 1dba 6214 6d3b 9fd5 583c 170c a43c
000000b0: 70be 57bb bab3 843c 7e64 9dbc 30c2 84bb
000000c0: 9c51 b5bc 7d79 81bb 54b4 003a 13d4 763b
000000d0: 5a2b e0bc ffbb 8b3b e552 0d3c b4fe 3abb
000000e0: f550 d1bc 07b8 85bc e0ca 8dbc 35d8 72bc
000000f0: 4e6f 803c 1d0e 56bc 8082 26b9 cde7 223c
00000100: 7f38 af3c f683 c6bc 7376 fcbb 02ab d53c
00000110: 09d8 b4bc 48f7 d9bc 8ba4 dcbc 1843 233c
00000120: 8788 3e3c fa4d e8bb 0fd1 1bbb 31bf 17bd
00000130: b8d9 19bc 07ed debc d591 4d3a 10f7 e73c
00000140: 5fea 993b 7046 db3a 3cfa 30bb 33c4 c83c
00000150: 05be d0bc 7fc8 21bb 0d65 03bc 8203 d0bc
00000160: c7f2 dcbc 5f6a 49bd aace 62bb 7589 d5bb
00000170: 0824 ebbc a84e 533c 0329 1c3b aba4 1fbc
00000180: a713 3eba 8355 b7bc a4a6 c0bc c3d6 313c
00000190: 03eb 7a3c 7c7a 4abc fe94 9abc 15f0 03bc
000001a0: e093 493c 9748 ce3b b663 373c 46df a83b
000001b0: b3c0 a43c 0ee3 0c3d f7a2 b9bb 46e4 9bbb
000001c0: d216 c439 d216 173b 88ba 073d 5d6b 363c
000001d0: be2d 09bd 4c91 90bc ca2b bfbc 8677 2f3a
000001e0: 8292 3c3b e5b1 2b3c fb90 333c 75c6 64bb
000001f0: 6295 573c 6f4e cd3c 13c3 3abd 922f 89bb
00000200: 234d bd3c eb77 8cbb 632c 4cba 0d70 ebbc
00000210: 753f 883c c59e 5e3c bfa8 2cbd e077 93bc
00000220: 0b15 d4ba 87fb a9bc 9bb7 42bd b343 f1ba
00000230: 5b9a 063b effb a83b 2a42 bbbb 33b1 3a3d
00000240: 90be 5f39 1b11 a83b 832b f33a 5881 edbc
00000250: 5cf2 953c ce34 4b3b 953b e4bc e369 653c
00000260: 347b 923c cbfe 1f3c 65ff d3bb 9faf 963c
00000270: 88e3 a13b 58ef 563c e6e3 223a e921 92bc
00000280: b6fc 0e3c 2bb6 d8bb 90ab e5bc 9372 4ebc
00000290: f763 a53b 51ac 353c 83f9 163c 8d65 a0ba
000002a0: a060 9d3a 7bae eebb 1282 13bb f316 1fbc
000002b0: 142a c8ba d75d 9bbc 7301 f7bc abf5 993c
000002c0: 25ea 2d3c a376 73bc efa8 e9ba 6f06 2fbd
000002d0: ecf4 0fbb d28e 133b ad4f 793c 0b8b 283d
000002e0: ca0f fbbb 37e7 dbbc b7c4 243d 5a57 ae3c
000002f0: d6de 883a b313 c03b 1a14 b2bb a77a 38bd
00000300: 92d3 eabc bc87 43bc 8d26 90bc aa7c c03b
00000310: 7a0f 223c da1f 733b 0770 973c 0943 223c
00000320: 76e1 2d3b 68b1 f03a aaf4 d4bb cb89 a0bb
00000330: f489 433b 3b73 50bc 4d5b 503c 6a13 aebc
00000340: 1f3c 8d3b 1a72 59bc aa11 fa3c f8a4 7f3c
00000350: 399e 46bc 45d4 e03c 4f3a b1bc 7382 993b
00000360: f82f f43c e618 bdbc 734f 30bb f569 303c
00000370: 0be2 a9bb ca99 6d3c d7b0 bdbc ae2c 8dbc
00000380: 0db9 c0bc 62ac e7bb 822f 6a3c 11c0 42bc
00000390: 57c5 c9bc 6878 fcba 08fd 67bb 4dd8 383a
000003a0: f750 97bc bb06 e7bb 9b22 223a 7b90 8fbb
000003b0: 2280 5d3c 077d 7cbc 003f b2bb 3f66 3cbc
000003c0: ad03 53bb f0d5 d03b 3ec1 0c3c 3a64 9e3b
000003d0: cfdc 8dbc 6b10 3c3b 6dbd 7dbc 0f85 1fbc
000003e0: ed02 e93c 18c0 5cbc bdd0 033c 0773 9ebc
000003f0: 07de 97bc cd7c 02bd 0d33 70bc f3a9 33bd
0.029634316 -0.021603286 0.0002244825 0.024192927 -0.0026567578 -0.014894052 0.005216302 -0.009939465
-0.0067761564 -0.011145849 -0.0036427963 -0.029367853 -0.022757424 -0.010254544 -0.015249163 -0.012082159
-0.010994713 -0.015714062 -0.011630199 0.012287086 0.0033072461 0.018580532 0.02030246 -0.02374473
0.012161369 -0.002542536 -0.017001374 -0.00038318484 -0.011433705 0.041744776 0.026488272 0.0012872362
0.03144376 0.04492291 -0.010989519 -0.005250001 0.008637355 0.04353031 0.026016919 -0.03130118
-0.00060219254 0.003617548 0.013234525 0.020025296 -0.0032919906 0.016198982 -0.019212957 -0.0040514693
-0.022133641 -0.00395125 0.00049096835 0.0037663027 -0.027364422 0.0042643542 0.008625721 -0.0028533163
-0.025551299 -0.016323103 -0.017308652 -0.014822056 0.015678074 -0.013064888 -0.00015879609 0.009942961
0.021389244 -0.024232846 -0.00770455 0.02608252 -0.02207567 -0.02660717 -0.026933929 0.009964727
0.01162923 -0.0070893737 -0.0023775732 -0.03704757 -0.009390287 -0.027212633 0.000784186 0.02831605
0.0046971287 0.0016729366 -0.002700462 0.024507618 -0.025481233 -0.0024686155 -0.008019698 -0.025392298
-0.026971234 -0.04917371 -0.0034608045 -0.0065166303 -0.028703704 0.012897171 0.0023828156 -0.00974385
-0.0007250853 -0.022379642 -0.02351696 0.010854426 0.01531482 -0.012358304 -0.018869873 -0.0080528455
0.012303323 0.0062952745 0.0111932065 0.0051535694 0.020111417 0.034396224 -0.005665179 -0.004757437
0.00037401036 0.0023054373 0.033136874 0.011133996 -0.03349089 -0.017647408 -0.02333631 0.00066935306
0.002877385 0.010479425 0.010959859 -0.0034908329 0.013158174 0.025061814 -0.045596194 -0.004186579
0.02310807 -0.0042867563 -0.00077885966 -0.028739953 0.016631821 0.013587658 -0.042153116 -0.018001497
-0.0016180588 -0.02074982 -0.04753838 -0.0018407017 0.002053878 0.005156986 -0.0057146745 0.045579147
0.00021337927 0.0051289923 0.0018552396 -0.02899234 0.018304043 0.0031006816 -0.027860442 0.014002296
0.017881013 0.009765337 -0.0064696544 0.01839429 0.004940454 0.013118587 0.0006213769 -0.017838435
0.008727243 -0.006613513 -0.028035909 -0.012600559 0.005047317 0.011088447 0.009214762 -0.0012237296
0.0012006946 -0.0072839833 -0.0022507948 -0.009710061 -0.0015271329 -0.018965645 -0.030152058 0.018793901
0.010614906 -0.014859828 -0.0017826835 -0.042730745 -0.0021966053 0.0022515547 0.01521675 0.041148227
-0.0076617943 -0.02684365 0.040226664 0.021281887 0.0010442387 0.0058617233 -0.005434525 -0.045038845
-0.028665338 -0.011934217 -0.017596507 0.005874236 0.009891385 0.0037097842 0.018486036 0.009903678
0.002653209 0.0018363418 -0.006498893 -0.0048992387 0.0029836865 -0.012722786 0.01271708 -0.021249492
0.0043101455 -0.013271833 0.030526001 0.015603296 -0.012122684 0.027444968 -0.021634249 0.00468474
0.02980803 -0.023083162 -0.0026902824 0.01076745 -0.005184417 0.014501998 -0.023155613 -0.017233219
-0.02352574 -0.00707011 0.014293553 -0.0118866125 -0.024630232 -0.0019261958 -0.003539862 0.00070512743
-0.018471224 -0.007050363 0.0006184966 -0.004381237 0.013519319 -0.015410668 -0.005439639 -0.011498987
-0.0032198236 0.0063731596 0.008590994 0.0048337253 -0.017317204 0.002869631 -0.015487057 -0.0097363135
0.028443778 -0.013473533 0.008045373 -0.019341959 -0.018538488 -0.0318573 -0.014660609 -0.043863248

action_model._discrete_distribution.branches.0.weight f4 [1, 128]
00000000: 3d4e 553c d3bb 013c 7ef9 c33b f71b ff3b
00000010: cd9e 41bb 1387 28bc ba4d 613c ff7a 023c
00000020: 22ba c1bb b626 abbb b712 e73b a742 3f3c
00000030: 7cc0 b83a 8757 923b c243 f33a a110 1dbc
00000040: 8b27 8ab9 a734 083c 7fbf 8a3b bf3c 3c3a
00000050: f03d 80bb 6b04 453c 4b5d 84bc 0d45 fbbb
00000060: 74e6 84bb 0747 59bb e648 22bc 5f3d e93b
00000070: 2f6d f9bb a636 45bb 2787 003c 3956 2abc
00000080: 85df 38ba a8e9 2e3a 6cd2 c43b 5ac4 94bb
00000090: b3aa 663b 18f0 2a3c 8f61 60bb b301 73bc
000000a0: 7f2d 673c d41f 1f3a 33f7 0abc f2b4 77bb
000000b0: cf67 45bb 2abf d0bb c339 40bb 0b8e 8ebb
000000c0: 4990 073b 23d5 ceba e654 2fbb 40b6 adbb
000000d0: a390 5dbb dfbe c9bb 4b18 38bc 2d1e f83b
000000e0: 0ed0 1f3b a09d b7bb 3347 72ba fb66 2e3b
000000f0: 8fb5 4c3b c75e a73b eaf4 ad39 75be 493a
00000100: bdf0 2a3b b799 bd3b 62e1 aeba 43e4 16bc
00000110: 0bd7 303c c527 5abc 0a97 58ba 9bdb 183c
00000120: d32b 83bc 916f a93b a099 6b3c 4be3 29bb
00000130: f1cc ab3c 75e9 ba3a 7860 dabb 0524 6d3c
00000140: 5165 293b 2053 44bb 4882 7bbc 7c80 1b3a
00000150: 1ff6 d8ba 7cfb 2b3c 0a7f cf3b e714 653b
00000160: eb87 dabb da74 1abc 4d24 723c d811 803c
00000170: 63aa e23b 07e7 383c d29a beba 95db 7fbc
00000180: cb6b a5b8 9482 193a 5adf 81bc ddf3 0dbc
00000190: 7db5 0a3c c8f3 9d3b d52d 1c3b c84b 8b3b
000001a0: 770a 8f3b 9793 1f3a 33a0 1c3c d3f6 49bb
000001b0: 4dc6 98bb 7370 b2bb 9310 0b3c f22e 883b
000001c0: 388b b13b 96ad 82bb 7238 703a bfc2 543c
000001d0: 8bcd e53a 6dbe b83b 5a05 913b 4834 703b
000001e0: 63ec 883b 8b2e b83b b738 89bb 37e2 8439
000001f0: 3b5d 853b 3d0e 61bb 0a99 f3bb db03 973c
0.013019142 0.007918316 0.0059806695 0.007785316 -0.0029544116 -0.01028611 0.013751442 0.007963895
-0.0059120813 -0.0052231206 0.0070517915 0.011673606 0.0014095451 0.0044660005 0.0018559622 -0.009586484
-0.00026350873 0.008313335 0.004234254 0.0007180683 -0.0039136335 0.012024979 -0.016157767 -0.0076681436
-0.0040557925 -0.0033153908 -0.009905076 0.0071179117 -0.0076118927 -0.0030092387 0.007844723 -0.010396534
-0.000705235 0.0006672391 0.0060065296 -0.0045400085 0.003519696 0.010433219 -0.0034237837 -0.014831948
0.014109968 0.00060701114 -0.008481788 -0.003779706 -0.003012169 -0.006370445 -0.0029331304 -0.004350429
0.0020685366 -0.0015780072 -0.0026753484 -0.005301267 -0.0033808134 -0.006156787 -0.011236261 0.0075719566
0.0024385485 -0.005603507 -0.0009242177 0.0026611674 0.0031236147 0.005107734 0.00033179607 0.0007695922
0.0026083433 0.0057861465 -0.0013342316 -0.009209695 0.010793458 -0.013315146 -0.00082622527 0.009329702
-0.016012108 0.0051707705 0.014379889 -0.002592283 0.020971747 0.001426025 -0.006664332 0.01447392
0.0025847743 -0.0029956773 -0.015350886 0.00059319264 -0.0016552842 0.01049697 0.006332283 0.0034955086
-0.0066690347 -0.009427274 0.014779163 0.015633509 0.0069172843 0.01128555 -0.001454199 -0.015616317
-7.887891e-05 0.00058559445 -0.015853573 -0.008664099 0.008466122 0.0048203208 0.002383103 0.004250977
0.004365261 0.0006087361 0.009559679 -0.0030817285 -0.004662311 -0.005445534 0.008487838 0.004155987
0.0054182075 -0.003987978 0.00091636844 0.012985884 0.001753257 0.005637935 0.004425687 0.0036652256
0.00417857 0.0056207827 -0.004187669 0.00025345545 0.004069952 -0.0034340762 -0.007434015 0.018434456

network_body._body_endoder.seq_layers.0.bias f4 [128]
00000000: 0000 0000 0000 0000 0000 0000 0000 0000
00000010: 0000 0000 0000 0000 0000 0000 0000 0000
00000020: 0000 0000 0000 0000 0000 0000 0000 0000
00000030: 0000 0000 0000 0000 0000 0000 0000 0000
00000040: 0000 0000 0000 0000 0000 0000 0000 0000
00000050: 0000 0000 0000 0000 0000 0000 0000 0000
00000060: 0000 0000 0000 0000 0000 0000 0000 0000
00000070: 0000 0000 0000 0000 0000 0000 0000 0000
00000080: 0000 0000 0000 0000 0000 0000 0000 0000
00000090: 0000 0000 0000 0000 0000 0000 0000 0000
000000a0: 0000 0000 0000 0000 0000 0000 0000 0000
000000b0: 0000 0000 0000 0000 0000 0000 0000 0000
000000c0: 0000 0000 0000 0000 0000 0000 0000 0000
000000d0: 0000 0000 0000 0000 0000 0000 0000 0000
000000e0: 0000 0000 0000 0000 0000 0000 0000 0000
000000f0: 0000 0000 0000 0000 0000 0000 0000 0000
00000100: 0000 0000 0000 0000 0000 0000 0000 0000
00000110: 0000 0000 0000 0000 0000 0000 0000 0000
00000120: 0000 0000 0000 0000 0000 0000 0000 0000
00000130: 0000 0000 0000 0000 0000 0000 0000 0000
00000140: 0000 0000 0000 0000 0000 0000 0000 0000
00000150: 0000 0000 0000 0000 0000 0000 0000 0000
00000160: 0000 0000 0000 0000 0000 0000 0000 0000
00000170: 0000 0000 0000 0000 0000 0000 0000 0000
00000180: 0000 0000 0000 0000 0000 0000 0000 0000
00000190: 0000 0000 0000 0000 0000 0000 0000 0000
000001a0: 0000 0000 0000 0000 0000 0000 0000 0000
000001b0: 0000 0000 0000 0000 0000 0000 0000 0000
000001c0: 0000 0000 0000 0000 0000 0000 0000 0000
000001d0: 0000 0000 0000 0000 0000 0000 0000 0000
000001e0: 0000 0000 0000 0000 0000 0000 0000 0000
000001f0: 0000 0000 0000 0000 0000 0000 0000 0000
0.0 0.0 0.0 0.0 0.0 0.0 0.0 0.0
0.0 0.0 0.0 0.0 0.0 0.0 0.0 0.0
0.0 0.0 0.0 0.0 0.0 0.0 0.0 0.0
0.0 0.0 0.0 0.0 0.0 0.0 0.0 0.0
0.0 0.0 0.0 0.0 0.0 0.0 0.0 0.0
0.0 0.0 0.0 0.0 0.0 0.0 0.0 0.0
0.0 0.0 0.0 0.0 0.0 0.0 0.0 0.0
0.0 0.0 0.0 0.0 0.0 0.0 0.0 0.0
0.0 0.0 0.0 0.0 0.0 0.0 0.0 0.0
0.0 0.0 0.0 0.0 0.0 0.0 0.0 0.0
0.0 0.0 0.0 0.0 0.0 0.0 0.0 0.0
0.0 0.0 0.0 0.0 0.0 0.0 0.0 0.0
0.0 0.0 0.0 0.0 0.0 0.0 0.0 0.0
0.0 0.0 0.0 0.0 0.0 0.0 0.0 0.0
0.0 0.0 0.0 0.0 0.0 0.0 0.0 0.0
0.0 0.0 0.0 0.0 0.0 0.0 0.0 0.0

network_body._body_endoder.seq_layers.0.weight f4 [128, 17]
00000000: 9f38 803e 8ec9 13bd f00e 2c3d 37a0 56be
00000010: 14ae 5cbe 62a2 fabc 4ffd c83d ec88 b3be
00000020: e823 a73e 965a 2a3f 0e66 ebbe ab54 a8be
00000030: 739e b83e 7094 103f 6b0a c93e 88c3 603d
00000040: 78b6 b33e 47b5 98be f8ca 133d 39f4 24be
00000050: a71e 783e 3991 293d 22ec 9bbd 9257 e43d
00000060: f878 4c3e 5e29 b13e c611 6cbe 8fac 0f3d
00000070: 7369 b5be b4e8 893e 6e96 10be bbb1 15be
00000080: e962 8e3e 267a d33e 95b4 dbbb fc2e 71be
00000090: 2081 b63d 0aee 873d 3b58 a83d 3377 c0be
000000a0: 9958 c0bd f080 26b9 c1b4 4f3d 19d8 083e
000000b0: ffed 383d de23 bb3e 14b7 ffbe c1fe 953d
000000c0: 9e04 52bd 9869 e93e 0474 b8bd 6560 9c3e
000000d0: 0cf0 69be 5fbb 4bbd 83c8 0dbd 179f 90be
000000e0: 1098 463e 5271 3a3e 8ed7 423e 209b aabe
000000f0: 66d6 f83b e4f1 17be ff4d 933d cb89 adbe
00000100: ac0f 843e c9e1 913a 2d8e 4e3e 3488 6c3e
00000110: 2d57 9dbc 9b0b bdbe b6b6 193f e79f b0be
00000120: 4084 7b3d 0317 91bd df96 64be e0f0 6abe
00000130: fc8c 0b3f ef68 723e 3957 c4bd f526 94be
00000140: 975c 30be e30d 1c3f 20cd d2be 97c7 31bc
00000150: aff1 82bd 8068 c8bd 821a 603d 22f2 43be
00000160: c7fb 033e e936 b0bd 2007 263e 6085 4e3e
00000170: 6131 8cbd 35c9 82bd bde4 6e3e 93ee d93e
00000180: c006 3dbe 0fa9 8cbe 2cb2 5cbc 4396 37be
00000190: fe24 88bd 0c89 33be 0167 6dbe 7698 813d
000001a0: 2cfb ae3b 7cf4 47be 6885 7ebe c3ad 64be
000001b0: 3b7f 33be 0ab9 463e ead5 cebe dd83 713d
000001c0: 42bd bbbe 551d cb3d f94e 4d3e 29e7 96be
000001d0: c659 b3bd 8ad5 db3e 6f60 7e3e df17 14bd
000001e0: 6404 b9be 0ef0 c4bc a13b 2e3e 6680 d83e
000001f0: 0e9a bd3e ce86 0ebe ef12 9c3d a2e4 b0bc
00000200: b2cd 783d e82b a13e de07 423e 6fab bfbd
00000210: afdf 853e a86c 94bc 917c 403e 37ee 273e
00000220: ecac 77be 15a5 2fbf 7485 f03c 88e6 0d3f
00000230: b5d8 593e 6284 673e 6e70 873e 17c2 cdbd
00000240: bf5c 52be fcb0 5ebe 5718 ce3e b350 1ebf
00000250: 43f2 2cbe 5845 613c 88ee 8b3e 326a 27be
00000260: 5cbc 82be c610 14be 920c 26be 871e 833e
00000270: 84a6 993d 4e04 cc3e 1f31 a6be ec31 843e
00000280: e321 873e 7441 d5be 01c1 9dbb 3c35 893e
00000290: 2f8c c13d 3f26 90be d712 ee3d 5ed3 483e
000002a0: 4794 e83d 9b5a 383e f96a 973e fe8a 65be
000002b0: 03eb 75be 6396 7dbb cea0 823c 460f b13d
000002c0: ac3f d63c c0e5 21be 5557 d53e 6d48 483d
000002d0: ac2d 01bf 1772 6dbe 2389 c0be 928c 4cbb
000002e0: 3b53 9b3e 80b2 cdbd 454a 5d3e fe7a 4bbe
000002f0: 90ef c33d 83c0 f2be cab6 f9bc 3b4e cfbe
00000300: f14a 9b3e e036 853e 67fa 97bc bf92 8abe
00000310: 1678 40be 62bc e43e af8d 3cbe cce1 3fbe
00000320: 9e86 6dbe 5f9a 56be d27e c3bd cc10 1abb
00000330: 656f a13d 8aa4 65bd 7185 9ebd fb40 fa3d
00000340: 868e 253e 990a b8be 681b f0bd 948e b33d
00000350: 5c56 4c3e 6982 85be b920 6a3e c09e c53e
00000360: 2159 b9be bb97 c03d 152d 2ebe 23ad ed3c
00000370: e732 24be 270f 2abd e5f9 0c3d 8c96 0dbf
00000380: e701 a03d fe11 923e e80e a6bd 3d18 ea3d
00000390: 9662 82be 3e3b bb3d d66d 9f3e 04d9 c8bd
000003a0: 1d8a 963d 502f 833c d3d2 d23d 3643 03bf
000003b0: 9d88 96be 2b8e 413e e63c 193e 6487 ef3e
000003c0: 8bb0 e1be 5b56 f13e 56fe 0d3b b49d aa3e
000003d0: 17f3 793e 1180 7bbd 43fe 3dbe 2dba 97be
000003e0: 10df 32be 3739 4bbd 1311 3c3e ef80 753b
000003f0: f8cf b2bd f66a 6abd b8d8 a4be 1e94 fc3d
0.25043198 -0.03608089 0.042006433 -0.20959555 -0.2155078 -0.030595008 0.0981394 -0.350654
0.32644582 0.66544473 -0.459763 -0.32877097 0.36058387 0.564765 0.3926576 0.054873973
0.3510015 -0.29825804 0.036082238 -0.16108789 0.24230443 0.04139826 -0.07613398 0.11149515
0.19968021 0.34601873 -0.23053655 0.035076674 -0.35432014 0.2693535 -0.14119884 -0.1461858
0.27809837 0.4130413 -0.0067048767 -0.2355308 0.089113474 0.06637199 0.082199536 -0.37590942
-0.09391899 -0.00015879027 0.05070949 0.13363685 0.045148846 0.36550802 -0.49944365 0.07323981
-0.051273935 0.45588374 -0.09006503 0.30542293 -0.22845477 -0.049739238 -0.03461505 -0.28246376
0.19393945 0.18207291 0.1902754 -0.33321476 0.0075939177 -0.14838368 0.07192611 -0.3389419
0.25793207 0.0011129911 0.20171423 0.23098832 -0.019206608 -0.36922917 0.6004442 -0.34496996
0.06140542 -0.07084467 -0.22323178 -0.22943449 0.54512 0.23672841 -0.09586949 -0.28935972
-0.1722282 0.6095869 -0.41172123 -0.010850809 -0.06393754 -0.09785557 0.05471278 -0.19135335
0.12889014 -0.08604223 0.16213655 0.20168066 -0.06845356 -0.063860334 0.23329444 0.4256483
-0.18459606 -0.2747273 -0.013470214 -0.17928414 -0.06647681 -0.17532748 -0.23183824 0.06327908
0.0053400006 -0.19526857 -0.24855578 -0.2233191 -0.17529003 0.19406524 -0.40397578 0.058963645
-0.3666783 0.09917704 0.20049657 -0.29473236 -0.08757357 0.42936355 0.24841474 -0.036155578
-0.36136162 -0.024040248 0.17014934 0.4228546 0.37031597 -0.13918611 0.07620799 -0.021593396
0.06074304 0.3147881 0.18948314 -0.0935887 0.2614722 -0.018118218 0.18797518 0.16399466
-0.24187058 -0.6861127 0.02936051 0.5542989 0.21274073 0.22609094 0.26452965 -0.10046785
-0.20543192 -0.21747202 0.40252945 -0.6184189 -0.1688929 0.013749443 0.27330422 -0.16349104
-0.25534332 -0.14459524 -0.16215733 0.25609228 0.075024635 0.39847034 -0.3245935 0.25819337
0.2639304 -0.416515 -0.0048142676 0.26798427 0.09450566 -0.2815418 0.11624687 0.1961188
0.11356407 0.18003313 0.295738 -0.22416303 -0.24015431 -0.0038694374 0.015945818 0.08645491
0.026153408 -0.15810299 0.41668192 0.048897196 -0.50460315 -0.23188053 -0.37604627 -0.0031211716
0.30336937 -0.10043812 0.21610363 -0.19871137 0.09567177 -0.474125 -0.030482668 -0.40489373
0.30330613 0.2601843 -0.018552018 -0.27065083 -0.18795809 0.44674975 -0.18413423 -0.18738478
-0.23195884 -0.20957325 -0.095456734 -0.0023508547 0.07882575 -0.05606512 -0.07740296 0.12219425
0.1616765 -0.35945585 -0.11723977 0.08767429 0.19954818 -0.26076058 0.22864045 0.3859768
-0.36200812 0.0940394 -0.17009385 0.029013222 -0.16035043 -0.041518357 0.034418005 -0.5530784
0.07812863 0.28529352 -0.08108312 0.11430404 -0.2546584 0.09142159 0.31138486 -0.098070174
0.07350562 0.016013771 0.10294118 -0.5127443 -0.29401103 0.18901889 0.14964637 0.46782982
-0.44080004 0.47136196 0.0021666489 0.33323443 0.24409138 -0.06140143 -0.18554024 -0.29634228
-0.17467904 -0.04961511 0.18365888 0.0037460884 -0.08731073 -0.057230912 -0.32196593 0.123329386

network_body._body_endoder.seq_layers.2.bias f4 [128]
00000000: 0000 0000 0000 0000 0000 0000 0000 0000
00000010: 0000 0000 0000 0000 0000 0000 0000 0000
00000020: 0000 0000 0000 0000 0000 0000 0000 0000
00000030: 0000 0000 0000 0000 0000 0000 0000 0000
00000040: 0000 0000 0000 0000 0000 0000 0000 0000
00000050: 0000 0000 0000 0000 0000 0000 0000 0000
00000060: 0000 0000 0000 0000 0000 0000 0000 0000
00000070: 0000 0000 0000 0000 0000 0000 0000 0000
00000080: 0000 0000 0000 0000 0000 0000 0000 0000
00000090: 0000 0000 0000 0000 0000 0000 0000 0000
000000a0: 0000 0000 0000 0000 0000 0000 0000 0000
000000b0: 0000 0000 0000 0000 0000 0000 0000 0000
000000c0: 0000 0000 0000 0000 0000 0000 0000 0000
000000d0: 0000 0000 0000 0000 0000 0000 0000 0000
000000e0: 0000 0000 0000 0000 0000 0000 0000 0000
000000f0: 0000 0000 0000 0000 0000 0000 0000 0000
00000100: 0000 0000 0000 0000 0000 0000 0000 0000
00000110: 0000 0000 0000 0000 0000 0000 0000 0000
00000120: 0000 0000 0000 0000 0000 0000 0000 0000
00000130: 0000 0000 0000 0000 0000 0000 0000 0000
00000140: 0000 0000 0000 0000 0000 0000 0000 0000
00000150: 0000 0000 0000 0000 0000 0000 0000 0000
00000160: 0000 0000 0000 0000 0000 0000 0000 0000
00000170: 0000 0000 0000 0000 0000 0000 0000 0000
00000180: 0000 0000 0000 0000 0000 0000 0000 0000
00000190: 0000 0000 0000 0000 0000 0000 0000 0000
000001a0: 0000 0000 0000 0000 0000 0000 0000 0000
000001b0: 0000 0000 0000 0000 0000 0000 0000 0000
000001c0: 0000 0000 0000 0000 0000 0000 0000 0000
000001d0: 0000 0000 0000 0000 0000 0000 0000 0000
000001e0: 0000 0000 0000 0000 0000 0000 0000 0000
000001f0: 0000 0000 0000 0000 0000 0000 0000 0000
0.0 0.0 0.0 0.0 0.0 0.0 0.0 0.0
0.0 0.0 0.0 0.0 0.0 0.0 0.0 0.0
0.0 0.0 0.0 0.0 0.0 0.0 0.0 0.0
0.0 0.0 0.0 0.0 0.0 0.0 0.0 0.0
0.0 0.0 0.0 0.0 0.0 0.0 0.0 0.0
0.0 0.0 0.0 0.0 0.0 0.0 0.0 0.0
0.0 0.0 0.0 0.0 0.0 0.0 0.0 0.0
0.0 0.0 0.0 0.0 0.0 0.0 0.0 0.0
0.0 0.0 0.0 0.0 0.0 0.0 0.0 0.0
0.0 0.0 0.0 0.0 0.0 0.0 0.0 0.0
0.0 0.0 0.0 0.0 0.0 0.0 0.0 0.0
0.0 0.0 0.0 0.0 0.0 0.0 0.0 0.0
0.0 0.0 0.0 0.0 0.0 0.0 0.0 0.0
0.0 0.0 0.0 0.0 0.0 0.0 0.0 0.0
0.0 0.0 0.0 0.0 0.0 0.0 0.0 0.0
0.0 0.0 0.0 0.0 0.0 0.0 0.0 0.0

network_body._body_endoder.seq_layers.2.weight f4 [128, 128]
00000000: b4b4 04bd ac90 933d ed9e fb3d ef62 143e
00000010: 2e6c 24bd 5553 583d d7d2 683d de4f 003d
00000020: 033d 933d b12c 8d3d 7cbf 173e 0792 d6bd
00000030: fcdd f73d f6f9 9a3c a821 793e ff77 813d
00000040: 9e3f 923d a8af 073d 4e71 3a3c 5e60 f53d
00000050: e305 253d 8843 bdbb f882 453c 96cf c93c
00000060: 2605 6f3d 48f4 54bd 4b0d ba3d 4779 49bd
00000070: 83c6 1b3d 58f7 a63d 44b2 64bd 4504 10bd
00000080: 6332 cd3d 48bc d0bd e4aa 5a3d 9006 253e
00000090: a131 c0bd d6d0 f73d f2a9 4d3c 0bca 033e
000000a0: 652c ba3d 01c7 bebc 0cd5 ef3c dad2 febd
000000b0: c9b7 a03d 6d8f 443e 341f 0bbe 6585 753d
000000c0: 49fd c8bd eecf d53c 6013 1abd 1f46 0cbe
000000d0: 5551 56be f2b9 34bd 0228 d6bc db8f 2dbc
000000e0: f663 b33c 4f49 debc 7707 6b3b c5ba 59bd
000000f0: 4dc6 a53d 1a33 ec3c 3521 c9bd 87aa f3bd
00000100: df8b 533d cb3e 8eb9 ecdf 4ebd 76c3 69bd
00000110: f8d1 aa3b 7502 d43b 3da5 cdbc d641 943c
00000120: 8bc5 01bd c1f9 36be 243c 033e 0885 403c
00000130: 18cf f6b9 d6e5 6e3d 87be 613d e093 2f3e
00000140: 11e2 86bd a245 b23d d6c5 8f3c 7878 c8bd
00000150: 40c6 113e 4da6 0ebe adb6 63bd 2de8 503d
00000160: 82f9 5fbd 81e7 bf3d 1a46 abbc 337d 8f3d
00000170: d63a bebd 259e 22bd 91c2 ffbd 9a15 11bd
00000180: fe27 80bd 0bea 6cb9 c061 343e 520a 49be
00000190: a05e 5dbe f827 2b3d 7510 75bb 5813 443d
000001a0: 814b 953d ba41 62ba 5f14 c6bd 1008 c4bd
000001b0: 2639 28bd ad48 e83d 325e 053e 6a5c 2d3e
000001c0: 133c 6f3d 2d42 d1bd c1d0 943d f330 55bc
000001d0: 3c86 e53b d296 1b3d 35cc d13c 98a6 4cbd
000001e0: 05d3 71bd 9a49 60bd b32f 3dbc 6e3a 9dbd
000001f0: 841b 2cbd 47e8 46be 4aeb ddbb b3d8 403d
00000200: 4bd2 4bbc 0753 5d3d bc8e 68bd fce7 7e3e
00000210: 0d6e 393e 2ec4 143e 5ab9 283e 077a aebd
00000220: 4d8d 1bbe da9e 17bd 89f6 8a3d 8cd5 a0bd
00000230: 9826 30bc 165e 8e3b e452 6e3d 1daa b9bd
00000240: 4007 1a3e 04b9 563d 0069 d13d e51a bfbc
00000250: 8267 903c 2e96 513d d48a 663e 16f3 7d3d
00000260: 8359 39bd d3a2 05bd 162f 0d3b 061a 493e
00000270: 5f07 c3bc e55b d3bd 02a6 e7bb 1b95 1dbd
00000280: 5d46 bd3d 00ed 3c3c c882 873d 8c5e ec3c
00000290: 0918 b0bd d26b 20bd e0a7 86bd edde 2a3e
000002a0: 10b6 183e 3836 fa3c 3723 0cbe beb9 5dbb
000002b0: 52b1 073d 2903 c93c 6206 b0bd a908 7dbd
000002c0: 1146 2d3a 156c 6fbd 28fa 94be 0d45 94be
000002d0: 4807 3cbe 8ff7 b33d 0fe3 6ebc c7f4 03bc
000002e0: 6356 d5bd e004 9fbd 225f 243e ed68 483d
000002f0: 489e 11bc 4299 fdbd b72f 2c3e ee4f dc3d
00000300: d880 c93d 3d49 643c b897 10be 723e babc
00000310: 160a 48bd 69db 4fbd 5fdf 67bd d425 cabc
00000320: 5e9f 143e c58a dcbb e051 bb3d fae7 bf3d
00000330: e916 5e3e f3b0 0f3d bd67 013e 298c 53be
00000340: 1ce8 7fbd 7e75 04bd 72b0 25be 9c6b 653c
00000350: 9691 2a3e 31d8 993d 80ea 3a3d 6c4b ccbc
00000360: 0a0d ec3c 0b0c cb3b 1eaa 8b3d 2ccb dbbd
00000370: eda7 983d a0da 193e 61d0 7a3d 02fa cbbd
00000380: cada 003e f82a 7c3c 62be 5ebd c612 86bc
00000390: 2201 773e affc ebbb e5c8 41be 3563 8b3d
000003a0: 1ecf 03bc 7b4f 073d a7df 40be 89f2 893d
000003b0: 22f4 a43c 2aa5 c83c efee dc3c 8a92 efbd
000003c0: b958 27be bb1d fd3d 7ad2 133e b4b2 5abd
000003d0: 6ddc 443d 01c5 bfbc aae8 88bc 039a f03c
000003e0: 4b5e 9f3d 3d57 573b 4988 773d 3a66 cabd
000003f0: 2be4 123e 16fe 41bd 1ebd b7bc fade babc
-0.032398894 0.07205328 0.12286172 0.14490865 -0.04014223 0.052813847 0.056841698 0.031326167
0.071893714 0.0689329 0.14819139 -0.10477071 0.12102887 0.018918019 0.24329245 0.063217156
0.0714104 0.033126503 0.011379553 0.11981271 0.040288817 -0.0057758726 0.012055151 0.024635118
0.05835452 -0.051990777 0.09084567 -0.049187925 0.038031112 0.08152646 -0.05583407 -0.03516032
0.10019376 -0.10192162 0.05338563 0.16115785 -0.09384466 0.12100379 0.012552725 0.12870042
0.09090499 -0.023288252 0.029276393 -0.124425605 0.07847554 0.19195338 -0.13586122 0.059941668
-0.09813935 0.026100125 -0.037616134 -0.13698624 -0.20929463 -0.044122644 -0.026142124 -0.01059338
0.021898251 -0.027134566 0.0035862604 -0.053156633 0.080944635 0.02883296 -0.09820787 -0.1189776
0.051647063 -0.00027131135 -0.050506517 -0.05707117 0.0052130185 0.0064700195 -0.025103206 0.0180978
-0.031682532 -0.17868711 0.1281591 0.011750467 -0.00047075073 0.058324657 0.05511334 0.17146254
-0.065860875 0.08704688 0.01755039 -0.097886026 0.14235783 -0.13930626 -0.055594135 0.05100267
-0.05468131 0.09370328 -0.02090745 0.07006302 -0.09288566 -0.0397016 -0.124882825 -0.03542099
-0.06257628 -0.00022593902 0.17615414 -0.19632843 -0.21618128 0.041786164 -0.0037393842 0.04787001
0.07289792 -0.000863101 -0.09671854 -0.0957185 -0.041070126 0.11341987 0.13024214 0.16929784
0.0584069 -0.102177 0.07266379 -0.013012159 0.0070045274 0.03798563 0.025610069 -0.049963564
-0.059039135 -0.054757692 -0.011547017 -0.0767716 -0.04201843 -0.19424544 -0.0067724334 0.04708166
-0.0124402745 0.05403426 -0.056776747 0.24893183 0.18108387 0.14527962 0.16476956 -0.085193686
-0.1519062 -0.037016727 0.06785304 -0.07853231 -0.010751389 0.004344712 0.05818452 -0.0906565
0.15041828 0.05242254 0.10225105 -0.023328254 0.017627481 0.051168613 0.22513896 0.061999403
-0.04525138 -0.032625984 0.0021542958 0.19638833 -0.023807226 -0.10320262 -0.00706935 -0.038472276
0.09241936 0.011531115 0.066167414 0.028853677 -0.08598334 -0.039165325 -0.06574988 0.16686602
0.14913201 0.030543432 -0.13685308 -0.0033832635 0.03312809 0.02453764 -0.085949674 -0.061775837
0.0006609867 -0.058452684 -0.29097104 -0.28958932 -0.18362153 0.087874524 -0.014580502 -0.008053965
-0.104168676 -0.07764602 0.16051915 0.04892819 -0.008887835 -0.12382747 0.16815077 0.10757433
0.09839028 0.013933477 -0.14120376 -0.022734854 -0.048837744 -0.050746355 -0.056609508 -0.024676241
0.14513919 -0.00673041 0.09146476 0.09370418 0.21688427 0.03508086 0.1263723 -0.20658936
-0.062477216 -0.03233861 -0.1618059 0.014002707 0.16657099 0.07511938 0.045633793 -0.024938308
0.028814811 0.006196504 0.06819557 -0.10732111 0.07453904 0.15024805 0.06123388 -0.099597946
0.12583461 0.015391104 -0.054380782 -0.016366374 0.24121526 -0.007201753 -0.18924291 0.068060316
-0.008044986 0.033034783 -0.18835317 0.06735713 0.020135943 0.024492819 0.026969401 -0.11697872
-0.16342439 0.12359186 0.14435759 -0.05339308 0.048061777 -0.023409368 -0.016712505 0.029370314
0.07781657 0.0032858395 0.060432706 -0.098827794 0.14344852 -0.047361456 -0.022429045 -0.022811402
