results/CubeAgentZoneRay-View-0/CubeAgentZoneRay/CubeAgentZoneRay-400161.pt (torch, 476943 bytes, 39 tensors)

network_body._body_endoder.seq_layers.0.weight f4 [128, 17]
000000 ab f0 03 bd c0 ef 8a be ef 19 77 be df 5f c0 3d
       -0.03221194 -0.2713604 -0.24130987 0.09393286
000010 53 cf 46 3d 46 99 00 be d1 05 e6 be 6e 74 71 be
       0.048537564 -0.12558469 -0.44926313 -0.2357957
000020 80 87 0d 3d 91 a5 89 be 7f 99 4b bc 2c 9f 2b be
       0.03455305 -0.2688413 -0.012426733 -0.16759938
000030 71 3f 9a be 36 fd 0a bf df 54 82 3e 01 42 8d bd
       -0.30126527 -0.5429262 0.25455377 -0.06897355
000040 15 d3 ce 3d e7 3b 28 be eb 8d 20 3e 5a dc 4a 3b
       0.100988545 -0.16429101 0.15679137 0.0030954094
000050 8a 62 84 be 95 f9 ad 3c 25 30 52 be 98 ea 23 bf
       -0.2585643 0.021237174 -0.20526178 -0.64029837
000060 16 93 7a bd df 04 b6 3e 57 04 e8 be 6a 58 e8 3e
       -0.06117543 0.3555059 -0.4531581 0.45379955
000070 76 ea 2e 3d 6c 76 26 3f 8d 7a 8a bc 77 c4 33 be
       0.042704068 0.6502445 -0.01690414 -0.17555414
000080 42 ed 12 be 87 ab 6b be 37 cf 02 3d 5e 3f a6 3c
       -0.14348319 -0.23014651 0.031935897 0.020293888
000090 35 06 a1 bd e3 24 16 be 7b 01 1c be 3f bd 4c be
       -0.07862512 -0.14662509 -0.1523494 -0.19994067
0000a0 45 50 47 be b2 59 34 be f3 68 bd 3e 1f 2b 4a be
       -0.19464214 -0.17612341 0.36994132 -0.19743012
0000b0 90 33 5e 3e b7 7a 10 3e a9 a0 36 be 05 b5 5a 3d
       0.21699357 0.14109312 -0.17834724 0.05339529
0000c0 68 1d 1f 3c 10 f6 08 3f 59 50 a8 3c 8b e8 8d bc
       0.009711601 0.5350046 0.020546125 -0.0173228
0000d0 7d ee 29 bf e3 57 77 be be d1 b1 bd 69 fa a9 3d
       -0.6637953 -0.2415462 -0.08682583 0.08299715
0000e0 e1 3f c0 3d ab 18 60 3e ef 68 7e bd 00 7f 76 3b
       0.09387184 0.2188441 -0.06211179 0.003761232
0000f0 2b 7a 47 3e f2 b9 c6 bd e1 7f 71 3e f8 eb 30 bd
       0.19480197 -0.09703435 0.23583938 -0.043193787
000100 30 15 a3 ba 65 da 50 3e 22 f8 d0 be f9 3a 9b 3d
       -0.0012442227 0.20395811 -0.4081431 0.075796075
000110 da f6 cc 3e c5 e9 34 3e c9 f7 5e be 07 b6 79 be
       0.40032083 0.17667301 -0.2177421 -0.24385844
000120 46 04 2d bd ec ca 82 3d 6a d2 70 be a8 62 b3 be
       -0.042240404 0.063863605 -0.23517767 -0.35036206
000130 0e f9 cd be b1 cd de 3e 89 35 ee bd d1 d3 a8 3e
       -0.40229076 0.43516305 -0.11631305 0.32974103
000140 72 ec 9a be 13 7c 5e be 22 48 91 3e 74 ea 0e be
       -0.30258518 -0.21727018 0.28375345 -0.13956624
000150 19 a2 04 3f 60 3a e4 3d 79 b3 aa 3e c9 01 80 be
       0.5180984 0.11143947 0.33340052 -0.25001362
000160 ca 47 47 3e 15 52 f8 3d 79 75 b9 bd af e9 57 be
       0.19460979 0.12125031 -0.09055609 -0.21085237
000170 2b 7a 80 bd 76 f8 ff bd 7e f4 a4 be af 1d 4a 3c
       -0.06273302 -0.12498562 -0.32217783 0.012336179
000180 f4 dc 22 3e 63 11 5c 3d e3 2f bb 3d 27 52 ee bc
       0.159046 0.05372752 0.09139993 -0.029091908
000190 9f 17 fc 3e 8c 78 0a 3d 4e f0 50 3e 1c 86 00 bf
       0.4923677 0.03380637 0.20404169 -0.50204635
0001a0 46 bf 87 3e 64 54 08 3e d8 0c 46 bd a1 c9 a0 bd
       0.26513118 0.13313442 -0.048352093 -0.07850958
0001b0 5d be 19 be 00 f5 5f 3e e0 4c cb be 2b d4 9e 3e
       -0.15014024 0.21870804 -0.39707088 0.31021246
0001c0 df 3d 0a bf 66 32 c7 bd 8f 3d 59 3e 4e ad e0 bd
       -0.5400066 -0.097264096 0.21214889 -0.10970555
0001d0 ff e5 d4 3d d6 c9 90 be 0b 0f b7 be 4a f1 83 bd
       0.10395431 -0.2827899 -0.35753664 -0.064425066
0001e0 5e d9 82 be a6 b3 a1 3d 32 90 02 be 98 96 b7 bc
       -0.25556463 0.07895593 -0.12750319 -0.022410676
0001f0 9e a6 4d be 09 56 d6 3c 0e 23 ce 3e cb 88 92 3e
       -0.2008309 0.026164072 0.4026112 0.2861999
000200 7c e5 a7 be da 9c 97 bd 14 2c e5 be c6 bd 2d bc
       -0.3279227 -0.07402964 -0.4476019 -0.010604328
000210 13 b5 dd bd 16 2b e2 be 6c 99 22 3d 8c cb 8b 3e
       -0.10825553 -0.44173497 0.039697096 0.2730373
000220 08 8c cf be 54 69 7b be 8f cd f3 3d 5a 0a 39 3e
       -0.40536523 -0.24551898 0.119044416 0.18070355
000230 e0 85 91 3e 03 89 fe 3e 1b bd 0f 3e 71 24 fb 3d
       0.2842245 0.49713907 0.14036982 0.1226281
000240 6a 21 e3 bd 7e 24 d1 be 95 f6 4e be ec 99 13 be
       -0.110903576 -0.40848154 -0.20211251 -0.14414185
000250 25 e2 8a bd 3c 6d 96 3d e6 17 6e be 66 9e d9 bd
       -0.06781415 0.073450536 -0.23251304 -0.10625915
000260 5f a4 9d 3d 1c 01 5a be 0a 5f 21 bd c2 1c 2c 3e
       0.07697367 -0.21289486 -0.039397277 0.16807845
000270 37 57 85 bd 7b 74 ab be 5c 42 74 be a7 31 8f be
       -0.065107755 -0.33487305 -0.23853439 -0.2796757
000280 6e bf 74 3e 7a 07 a1 bd c5 c2 0e be 3e b7 92 3e
       0.2390115 -0.07862754 -0.13941486 0.28655428
000290 ea f3 48 be 7b ea 0d be c8 da 89 bd 4e 21 c1 be
       -0.19624296 -0.13858978 -0.06731182 -0.37720722
0002a0 af 27 c4 3c d2 d6 ed 3e 37 b5 4a be 13 22 ae bc
       0.023944704 0.46452957 -0.1979569 -0.021256482
0002b0 32 8b a8 bc ba 60 a8 3d d8 b4 95 3d d6 71 c8 be
       -0.020574186 0.08221574 0.07309884 -0.3914935
0002c0 d9 4f 24 bd 94 2f 9d bd 36 45 ed bd 52 e1 ed 3d
       -0.04011521 -0.076750904 -0.115854666 0.11615242
0002d0 a8 9d e2 3d 80 86 dc 3e 06 80 9a bb 99 dc 22 be
       0.11065227 0.43071365 -0.0047149686 -0.15904464
0002e0 0b 38 e8 3e b9 8b 44 3e 69 a3 ee be 56 f4 75 3e
       0.45355257 0.19193925 -0.46609047 0.24018988
0002f0 62 d8 8f 3d b2 38 d9 bc e7 54 86 3e a2 3d c8 3e
       0.070236936 -0.026516292 0.2623665 0.39109522
000300 eb 10 11 3e 4a 88 56 be 74 01 81 be 10 45 b1 be
       0.1416661 -0.20950428 -0.2519642 -0.34623003
000310 57 6d 5a bd 55 3d 93 be ec 93 53 bd 11 fa 09 3e
       -0.05332693 -0.2875773 -0.05165474 0.13474299
000320 0c 04 76 be 40 45 1d 3f 2f 67 98 be c2 04 cf 3d
       -0.24024981 0.6143379 -0.29766223 0.10108329
000330 1f 0e 1c bc bc 73 ad be ef d0 82 3e e0 5b 24 be
       -0.009524851 -0.3387736 0.2555003 -0.16050673
000340 f8 4a ca bd 1f 7a 99 3e 61 15 53 3e 0f ef 6f 3d
       -0.098775804 0.29975984 0.20613624 0.058577593
000350 65 c3 1a be 73 50 c5 3e 29 c7 a5 be 6c 61 cc 3d
       -0.151136 0.3853794 -0.3237851 0.09979519
000360 04 7d 44 3e 9e fa 09 bd 6e e7 a6 be d4 f5 8b be
       0.19188315 -0.033686273 -0.32598442 -0.2733599
000370 46 ed 43 3e cd 98 d1 3d ba 8c f9 bd 20 cb 17 3f
       0.19133481 0.102342226 -0.121850446 0.5929432
000380 38 1e 96 3e 8f 2c 0d be 7f 58 33 bd 76 5d 2d be
       0.2931993 -0.13786529 -0.04378557 -0.16930184
000390 8b 5d 01 be 59 58 6d 3d 40 f8 c3 be 03 9e 5c b8
       -0.1263334 0.057945583 -0.38275337 -5.2599247e-05
0003a0 58 53 bb be a8 05 55 3e ec fd b8 be 42 76 bf 3e
       -0.36587024 0.20802939 -0.36131227 0.3739491
0003b0 4d 2d a4 3d cb 32 85 be 93 02 25 3e 21 ab 5d 3e
       0.08016453 -0.26015314 0.16114263 0.21647312
0003c0 3e 4c c1 be 4c a7 00 bf 71 cd 3b bf 54 c0 84 3e
       -0.3775348 -0.50255275 -0.73360354 0.25927985
0003d0 46 d7 73 3e f4 7c 60 3e 30 42 83 3e 7a 81 3a be
       0.23812589 0.21922666 0.25636435 -0.18213454
0003e0 a7 69 22 3e ac 67 44 3e 2c 4f c4 be 7b ce 12 3e
       0.15860616 0.19180173 -0.38341653 0.14336579
0003f0 63 01 ed bb 4c 21 11 3e 76 a7 53 3c 2d be 26 bf
       -0.0072328313 0.14172858 0.012918344 -0.65133935

network_body._body_endoder.seq_layers.0.bias f4 [128]
000000 73 d2 3d be d3 d4 1a bd 55 29 33 3e ff 4c 0c be
       -0.18537311 -0.03780062 0.17496236 -0.13701247
000010 a1 02 c0 bd 74 04 30 bb ce 96 96 bd da 4e 98 bc
       -0.093755014 -0.0026858123 -0.073529825 -0.018592287
000020 fc dd 7e ba 2d aa 6b 3d f3 a6 bb 3c 15 c7 b9 bd
       -0.00097224093 0.05753534 0.022906756 -0.09071175
000030 da 86 a6 bd 0e ef e1 bd f6 ec 59 3e 6a fe 11 3e
       -0.0813119 -0.11031924 0.212818 0.14257208
000040 21 68 08 bd 7e 5d 46 be d9 ba 0d 3d a4 65 9e bc
       -0.03330243 -0.19371602 0.03460202 -0.019335575
000050 ba 43 8f bd 6b b8 a0 bc 18 49 fa 3d fc 23 dc bd
       -0.0699534 -0.019619187 0.12220973 -0.10749051
000060 37 1d 4e bd 59 2a a6 bd b8 94 01 bd 6e eb 70 3d
       -0.05032083 -0.08113546 -0.03163597 0.058818273
000070 9f 43 0e be a8 21 c8 bd 65 51 4f bd e6 c4 82 bd
       -0.13892983 -0.097720444 -0.050614733 -0.06385212
000080 2c 53 c8 3b 76 bf 03 bd 07 8a 16 3e b7 43 85 bd
       0.0061134305 -0.032165013 0.14701091 -0.06507056
000090 be 91 b6 bd b2 ef 5f bd b4 9d 1d bd 45 a2 9a 3d
       -0.08914517 -0.05467195 -0.038480476 0.07550482
0000a0 a4 b6 18 bd 94 89 9b 3d ad fc fe bd a3 6a 66 bc
       -0.037283555 0.075946 -0.12450538 -0.01406351
0000b0 a8 12 11 3e 0c 66 56 be 59 fb fb bd 63 f7 b8 bd
       0.14167273 -0.20937365 -0.123038 -0.0903156
0000c0 4e bf e2 bd 31 df c4 bc a9 83 55 bd 63 1f 61 3b
       -0.11071645 -0.024032207 -0.052127514 0.0034350983
0000d0 19 ed 8e 3b 85 ab 1c be 88 f6 c7 3d e5 4e ba bd
       0.0043617603 -0.15299805 0.09763819 -0.09097079
0000e0 00 52 7d bd ac 79 9f bd 68 a3 2b 3d 71 2d 38 bd
       -0.06184578 -0.07786879 0.041903883 -0.04496521
0000f0 0e d9 08 be 08 12 be bc c9 91 dd bd b6 2e 84 bd
       -0.1336405 -0.023201957 -0.10818822 -0.06454222
000100 f9 3f 37 bd 62 86 3a 3d 34 98 bb bd 8c 8c 56 be
       -0.044738743 0.045538314 -0.0915989 -0.20952052
000110 f5 2c 06 bd f8 71 0a be 0c 09 1d bb ee 93 73 bd
       -0.032757718 -0.13520038 -0.0023961691 -0.05946725
000120 3b 7f d7 bd ae ad d2 bd 24 ff 86 bd 18 88 9f bb
       -0.10522314 -0.10287033 -0.06591633 -0.0048685186
000130 e2 31 e2 bd e5 18 12 be 45 42 b1 3d da ac ab 3c
       -0.11044671 -0.14267309 0.08655218 0.020956445
000140 8e 12 8b bd d1 a7 81 bd a5 c1 df bd 39 a6 83 bd
       -0.067906484 -0.063308366 -0.10925607 -0.06428189
000150 dd 1f ee bd 62 d3 0b be 01 ff 9e 3d d2 03 a9 bb
       -0.11627171 -0.13654855 0.07763482 -0.005157926
000160 33 cd 48 bc d2 2c 50 3c f3 46 75 bd 2e ba b2 3c
       -0.012255955 0.0127059985 -0.059882116 0.021817293
000170 0d d2 ac bd 9c 28 a3 3e 5e 0c bf bd 95 85 10 3e
       -0.084385015 0.3186692 -0.09328531 0.14113458
000180 79 1c 2b bd 00 1a a9 bd 14 d7 9d 3d 38 94 c1 bd
       -0.0417752 -0.08256912 0.077070385 -0.094520986
000190 00 40 04 3e 49 e9 9c 3e d6 0a d2 bd fe 9b c2 bd
       0.12915039 0.30646732 -0.10255973 -0.095024094
0001a0 10 35 aa bd e2 ca ed bc 74 26 f2 bd 78 09 69 be
       -0.08310902 -0.029027406 -0.118237406 -0.22757518
0001b0 8a 26 be bd 92 07 a6 3b 5e c5 4f bc 67 0a c1 bd
       -0.092846945 0.0050668204 -0.012681333 -0.09425812
0001c0 a9 d1 a5 bd 67 b4 dc bd 64 d7 38 3d 3d b8 46 3d
       -0.0809663 -0.107765965 0.045127288 0.048515547
0001d0 74 9b af 3d 6d e9 12 be 9c 74 32 bd 43 9c 01 be
       0.08574572 -0.14346857 -0.04356824 -0.12657265
0001e0 17 06 4c 3d c8 35 ef bc 77 aa f3 bd 28 f7 fe 3b
       0.049810495 -0.02920045 -0.11897748 0.007780928
0001f0 ad ab 7a bd 4f fd e2 bd e6 2d ad bd 17 0e 06 be
       -0.06119888 -0.11083471 -0.0845602 -0.13091312

network_body._body_endoder.seq_layers.2.weight f4 [128, 128]
000000 38 6f ef 3d 3a 94 b5 bd 7f 86 6d bc a0 c1 36 3e
       0.11691135 -0.088661626 -0.014497398 0.178473
000010 74 44 1d be b2 2c 46 be 37 14 47 bd 2a 80 82 3d
       -0.15358144 -0.19352987 -0.048603263 0.063721016
000020 b4 d4 58 3d 32 e5 03 be ef 6a d3 3c 81 51 46 3d
       0.052937225 -0.128804 0.025807826 0.048417572
000030 40 b1 35 3e f7 24 cd 3d b1 ca e1 bd 78 c3 79 be
       0.17743397 0.10016816 -0.110249884 -0.24390972
000040 38 6c bf bd 63 86 7b 3e 98 5a fb bb 35 a4 9f bd
       -0.09346813 0.24562983 -0.0076707117 -0.07794992
000050 33 bf 61 3c 6f d0 c3 be f5 fa 99 3d 2c 00 37 3d
       0.013778496 -0.3824496 0.075185694 0.0446779
000060 0c 5e 15 be 94 4a 07 3d 4a dc c6 bc b7 c2 fc bd
       -0.14586657 0.033030108 -0.024274964 -0.123418264
000070 6c c3 b1 3d 09 a6 13 be 38 1b 09 3e 86 74 2e bd
       0.08679852 -0.14418806 0.1338929 -0.042591594
000080 de f7 d5 3d 54 7d fd 3c 7f bc 9f 3d 23 76 b1 bd
       0.104476675 0.03094355 0.07799625 -0.08665111
000090 e5 ae b3 3d 2f 7a 57 3c 1e c2 92 bc aa e6 d3 ba
       0.08773593 0.013151689 -0.017914828 -0.0016166766
0000a0 29 5a 01 be 11 cf 9f bd 53 c6 1b 3e d2 1f cc bd
       -0.1263205 -0.07803167 0.15212373 -0.09967007
0000b0 28 8f 17 bd dd 48 7a 3e 11 2a 93 3d c1 b0 74 3e
       -0.03700176 0.24441858 0.07185758 0.23895551
0000c0 e8 15 88 3e f4 fd ca bd cf 3d 82 bd a4 c2 d7 bc
       0.26579213 -0.09911719 -0.06359445 -0.02633793
0000d0 13 b2 d3 bd 9a 1b c6 3c 62 5d 27 be 2a 02 1f be
       -0.10336699 0.024183083 -0.16344216 -0.1552817
0000e0 e4 cd 4b 3e c5 1a a4 bc 5b e7 59 bd c4 4f 4d 3d
       0.1990276 -0.020032296 -0.053199153 0.0501249
0000f0 5f 92 e8 bc a4 8c a6 bd 33 cc 16 bd 64 b8 83 bd
       -0.028390108 -0.08132294 -0.036815833 -0.06431654
000100 e2 87 13 3e 0d 65 3e bd b3 b7 66 3e db 8a 23 3e
       0.14407304 -0.04648309 0.22531013 0.15970938
000110 d7 03 00 be d8 38 c8 bd a8 d7 b7 3d fe 34 7c bd
       -0.12501465 -0.09776467 0.0897668 -0.061573975
000120 02 b4 15 3d 8d 50 9d 3d 2e 68 8d bd c3 41 ca 3d
       0.036548622 0.076813795 -0.06904636 0.09875824
000130 96 67 5a bd ea de 91 3b d8 d0 55 bd fa 98 b6 3d
       -0.053321443 0.0044516223 -0.052201122 0.08915897
000140 b3 02 af 3d 2b 13 22 3c 1a 22 05 3e a1 35 92 bb
       0.08545437 0.009892265 0.1300129 -0.0044619595
000150 9b 90 0e 3e bc 0e aa 3d 05 74 90 bd 6d ae 52 3d
       0.1392235 0.083035916 -0.07053379 0.051435877
000160 76 6d 33 bb af 64 01 bd 82 d2 46 bd 78 7d 17 be
       -0.0027378476 -0.03159016 -0.0485406 -0.14793956
000170 fd de ad 3b 2f 65 66 3d 44 27 8e 3d e6 40 e1 3d
       0.0053061233 0.05624884 0.06941083 0.109987065
000180 94 9c 13 3e e2 d8 36 3e 05 20 c9 bd 64 27 85 bd
       0.14415199 0.17856172 -0.0982056 -0.06501654
000190 42 97 8d 3d 78 b4 5a 3e 9c 99 81 3d 68 79 0e 3e
       0.06913616 0.21357906 0.06328127 0.139135
0001a0 71 4b 21 3e bd fb e4 bb 18 36 5d 3d b4 3e 98 3e
       0.15751435 -0.0069880174 0.054006666 0.2973534
0001b0 3d d1 6a 3d e4 87 06 3e 1f d7 cf bd a1 a5 f0 3c
       0.05732845 0.13137776 -0.10148453 0.029375853
0001c0 30 20 4a bd 19 ff 4c 3b a4 56 7f bd 41 96 13 be
       -0.049347103 0.003127998 -0.062338486 -0.14412786
0001d0 42 00 3b be c9 eb 74 3e 22 ae 4b be 80 45 d5 bc
       -0.18261817 0.2391807 -0.19890645 -0.026034117
0001e0 03 4d 8b 3d 6c 81 1b 3e 5d 97 8b 3d 62 49 cf bd
       0.06801798 0.1518609 0.0681598 -0.101214185
0001f0 6c 31 3c be 11 7a 7d 3d ee e5 49 be 23 32 54 bd
       -0.18378228 0.06188399 -0.19716617 -0.051805627
000200 3a 23 23 bd a8 8d 5a 3d 25 86 89 3d 64 3c 9e bd
       -0.039828517 0.05335775 0.06715039 -0.07726362
000210 ff cc 8b bb de 39 cc bd 06 f6 e1 3c e7 3f c7 bd
       -0.004266381 -0.09971975 0.027583133 -0.09728985
000220 5d 8b ad 3d d7 55 b0 bd 5f 28 8b be 64 4e 29 be
       0.08473847 -0.08610123 -0.27179238 -0.1653381
000230 d8 3c db bd 9d fe 29 be e5 97 31 3d 2f 96 34 be
       -0.107049644 -0.16601034 0.04335775 -0.17635415
000240 0f c4 b6 bb c9 65 62 3c ee a5 2c 3d e4 64 2a bb
       -0.005577571 0.013818213 0.04215043 -0.0026000077
000250 77 b8 a4 bd 81 30 17 3d c7 33 55 3d 3b 36 c7 bd
       -0.080429964 0.03691149 0.05205133 -0.097271405
000260 ae 28 f9 3d 6f 6e 9c bd 4f 19 17 be 46 ea 60 bd
       0.12165962 -0.07638251 -0.14755748 -0.05491092
000270 57 7a b1 3d f5 0f ab bd 4a 00 8d bd 74 35 ae bd
       0.086659126 -0.08352653 -0.06884821 -0.08506289
000280 d2 15 7e bc a7 8a 68 bd b5 ec 9a bd 4b 6d d9 bd
       -0.015508132 -0.056772854 -0.075646795 -0.10616549
000290 e8 67 89 3d 79 25 d4 bd 53 49 8a bd 26 c3 9f bd
       0.06709272 -0.1035871 -0.06752267 -0.078008935
0002a0 d1 f1 a4 bd 03 2c 5e bd 20 cb 1b bd ab 18 7a be
       -0.08053935 -0.05424119 -0.038035512 -0.24423473
0002b0 e8 b2 f2 bd d6 52 8b bb 6e 44 8b 3d 40 ed 5d 3d
       -0.1185053 -0.004251818 0.06800161 0.054181337
0002c0 bd 03 ac 3d 2b 82 d2 3d ea 01 95 3c 52 60 8f bc
       0.083991505 0.10278734 0.01818939 -0.017501984
0002d0 8d 9c ba 3d 45 bb a7 bc 3e 49 99 bc 89 2f 18 3e
       0.09111891 -0.02047504 -0.018711682 0.14861883
0002e0 3c 9e d7 bd 6f b5 36 bd 1d 09 70 bd 59 bc c8 bc
       -0.10528228 -0.044606622 -0.05860244 -0.024503874
0002f0 80 ff 84 bc ac fd b4 3d 6e 5e 49 bd ed 19 1e 3e
       -0.016235113 0.088374466 -0.04916232 0.15439577
000300 ae c6 05 3e 07 09 03 be c3 b7 2d be 7c fa c5 bc
       0.13064072 -0.12796412 -0.16964631 -0.024167292
000310 d9 bb e3 bd 6d 62 d9 bd 94 b3 c4 be 29 6f b2 3d
       -0.111198135 -0.10614476 -0.38418257 0.08712608
000320 5a 5d 31 bd b5 01 a0 bc 25 ab 15 bd 8f e0 ac 3d
       -0.043301918 -0.019532064 -0.03654017 0.08441269
000330 02 6c 7a 3c dd ff 84 bd 39 c4 58 bd 06 52 01 3e
       0.01528454 -0.064941145 -0.052921508 0.12628946
000340 b5 90 b5 3b b0 a0 52 bd 86 91 1f bd ff 66 05 be
       0.005540932 -0.051422775 -0.03895714 -0.13027571
000350 21 ec 6d bd 53 9f 54 bc f9 cb 06 3c 32 e9 ca bd
       -0.05808652 -0.012977439 0.008227342 -0.0990776
000360 f2 f1 57 be d9 b3 84 be 6b 79 58 3c 3f 4e 85 3d
       -0.21088389 -0.25918463 0.013212542 0.06509065
000370 9b fc ed 3c 0f fd 6e bd a3 da b1 bd bc db 7d 3c
       0.029051116 -0.058346804 -0.0868428 0.015494283
000380 db 22 02 bc 89 fa 95 3d af 49 b8 bd 31 63 33 bd
       -0.0079428805 0.073231764 -0.08998429 -0.04379577
000390 00 99 03 be c2 b4 a8 bd 7a 45 5d be 29 47 a8 bb
       -0.12851334 -0.08237602 -0.21608534 -0.005135436
0003a0 5b a1 49 3d da 54 11 bd 10 2a 2b be bb 79 19 3e
       0.049226146 -0.03548131 -0.16715264 0.14987843
0003b0 16 39 bd bd 6a 23 65 be 20 2b 2a 3d cb 07 af bd
       -0.09239404 -0.2237679 0.041545033 -0.08546408
0003c0 81 ff 63 3e 62 2c dd bd db 2e cf 3d 7f 5e fe 3d
       0.22265436 -0.10799481 0.10116359 0.124203674
0003d0 07 5c 90 bd 2a 2b 0c be 53 52 c5 3c 95 be a3 bc
       -0.07048803 -0.13688341 0.024087107 -0.019988338
0003e0 6f 8a ff bd ef 8a 03 be 7f f3 0b bd 58 bf 54 be
       -0.12477576 -0.12845968 -0.034167763 -0.20776117
0003f0 de f8 16 3e b6 da 36 be 9f 1e 36 3d 9b bd 38 3e
       0.14743373 -0.17856869 0.044462796 0.18041079

network_body._body_endoder.seq_layers.2.bias f4 [128]
000000 03 e5 4f be 0d 7a 29 3d d5 88 d5 3d 47 22 b5 3d
       -0.20302205 0.041376162 0.10426489 0.088444285
000010 95 cd 07 bd be c2 b2 bd e7 fc 05 be b2 b5 e6 bc
       -0.033155043 -0.087285504 -0.13084756 -0.028162811
000020 cd b0 63 bd 16 4b b3 bd 46 54 6b 3d eb e7 5e 3d
       -0.055588532 -0.08754556 0.057453416 0.054420393
000030 42 ab 33 bd b6 70 e6 3c 79 7f 02 bc a7 4e 20 bd
       -0.043864496 0.028129917 -0.007964962 -0.03913751
000040 24 61 6e bd 99 2e ca 3d c0 83 6b 3d 0d 71 9e bc
       -0.05819811 0.09872169 0.057498693 -0.019341016
000050 99 8e 54 bd 72 27 e3 bd 33 d8 22 be fe 78 67 3c
       -0.051893804 -0.11091508 -0.15902786 0.014127968
000060 59 e9 b6 3d 0e 54 d3 3d 18 42 d0 bd 31 1d fb 3d
       0.08931226 0.103187665 -0.101688564 0.12261427
000070 b3 15 52 3d 21 66 13 3d 7c 82 8a 3c db aa a5 3c
       0.051290225 0.03598607 0.016907923 0.020223072
000080 71 5e 83 3d bc e7 1e 3c 15 6a 7a 3d dc 08 91 bd
       0.06414498 0.0096988045 0.061136324 -0.07081768
000090 cc c0 8e bd 40 27 91 3c 65 bf 50 bd 2e b4 a4 3d
       -0.06970367 0.017718911 -0.050963778 0.08042179
0000a0 50 05 e9 bb 27 14 ce 3d 4b 1a 1d 3c 66 3f a5 3d
       -0.007111229 0.100624375 0.009588788 0.08068733
0000b0 17 37 3c be b0 1b a4 bd b8 7b cf bd d0 7c 92 3d
       -0.1838039 -0.080130935 -0.10131019 0.07152712
0000c0 b6 fe 05 be 66 9d 24 bd 9d eb f1 bc c3 1a 9e bd
       -0.13085446 -0.04018917 -0.029531294 -0.07719948
0000d0 c8 56 d3 bd 5c e8 14 3e 17 72 cd bc 54 e1 88 3d
       -0.103192866 0.14541763 -0.025078816 0.06683603
0000e0 e6 1f db bd 1f 68 85 3d 23 98 93 3d 83 c3 cf bd
       -0.106994435 0.06514 0.07206752 -0.10144713
0000f0 84 a7 f5 bd 0d 17 3a be 6b d5 95 3d 07 a7 af 3d
       -0.11994842 -0.18172856 0.07316097 0.0857678
000100 5d dc 31 3d 22 c2 38 be 5a 95 51 3d a9 9e f9 bd
       0.043423045 -0.18042806 0.051167823 -0.12188465
000110 c3 09 3f be eb e3 0c 3d b4 b2 51 3c 42 50 b9 bd
       -0.18656068 0.034397047 0.012798954 -0.09048511
000120 12 63 30 bd 36 f5 f4 bd 2a bf 8d bd 99 8b 8c 3a
       -0.04306323 -0.11960833 -0.06921227 0.0010722756
000130 16 70 89 bd 63 62 9b bd e1 3f 20 bd ad 0c b9 3d
       -0.06710832 -0.07587125 -0.03912342 0.09035621
000140 c2 3e b3 3d 08 c8 1c be 05 3c db bd 9e 47 db 3c
       0.087522045 -0.15310681 -0.10704807 0.026767548
000150 2e bb a5 3d 18 29 e6 bc d8 3f a7 bc 4a 10 c2 bd
       0.08092342 -0.028095767 -0.020416185 -0.09475763
000160 cf fb 5b be 13 9b c1 bd 4e b0 93 3d b2 af 96 bd
       -0.21482776 -0.09453406 0.07211362 -0.0735773
000170 0c e4 9c bb c7 b7 b5 bc 0d cf 5b be e6 1a e0 3d
       -0.0047879275 -0.022182358 -0.21465702 0.109426305
000180 3d d0 9a 3d 36 ff 74 3d 3b 13 c7 bd 62 9b 7e bd
       0.075592496 0.0598137 -0.09720465 -0.062159903
000190 c5 19 01 3d 1a 1c af 3c 24 8f 28 3e 6d e6 5a bc
       0.031518716 0.021375705 0.16460854 -0.013360602
0001a0 8f b1 16 3e ef 87 cd 3d d9 83 52 bd dd 47 8b 3d
       0.1471617 0.10035693 -0.05139527 0.06800816
0001b0 ec 83 6a bc 40 50 ae 3d f7 2e a9 bd 8a 9a 43 bc
       -0.014313679 0.085114 -0.08260911 -0.0119387
0001c0 11 96 56 bd b3 32 da bd b7 84 cb 3d b7 c1 2d 3d
       -0.05238921 -0.10654201 0.09937423 0.04242107
0001d0 2f 87 fa 3c a1 06 87 bd 63 31 31 3e 7f 04 20 bd
       0.030582039 -0.06593061 0.17303996 -0.039066788
0001e0 a7 66 d5 bd da 2f 91 bb 04 12 3e bb 54 b7 10 be
       -0.1041997 -0.004430753 -0.0029002437 -0.14132434
0001f0 e9 2d 50 3d ce 78 1b 3e 2e 60 a9 bc 5b 05 ad bd
       0.050825033 0.15182802 -0.020675745 -0.08448287

action_model._continuous_distribution.log_sigma f4 [1, 2]
000000 a3 47 e7 3e b1 cf 0f be
       0.45171842 -0.14044072

action_model._continuous_distribution.mu.weight f4 [2, 128]
000000 5b 92 ae 3d 66 8c a5 3d 72 e4 4f bd aa 63 4f be
       0.08524009 0.080834195 -0.05075497 -0.20252863
000010 96 7f c0 3d 8b a0 3c 3d 9b 00 fe 3b 8a f5 19 3e
       0.09399335 0.046051543 0.007751537 0.15035072
000020 49 30 fe bc b2 4d a7 3c 50 be e7 3d 28 29 cb 3d
       -0.031028884 0.02042279 0.11315596 0.09919959
000030 9a 12 ca 3d 41 c3 94 bd d5 7d f2 bd ce d7 f3 3d
       0.09866829 -0.07263804 -0.11840407 0.11906396
000040 0d 4a 98 3d ce ac 6b 3d c7 9f ac 3b db 8b 31 3d
       0.07435999 0.057537846 0.0052680704 0.043346267
000050 99 b4 e4 3d 60 d5 79 3d 54 ef 7a 3d 33 24 d6 3d
       0.11167259 0.060994506 0.061263397 0.10456123
000060 1f 16 66 be 22 b8 9c be b3 5b e4 3d c3 56 d8 bc
       -0.22469376 -0.30609232 0.11150303 -0.026408559
000070 94 ef 6a 3d 72 71 32 be 76 cb 01 3e a6 c6 27 be
       0.057357386 -0.17426088 0.1267527 -0.16384372
000080 a9 c3 37 be f3 89 f8 bd a8 2f 35 be f6 bc f3 3d
       -0.17945732 -0.12135687 -0.1769396 0.11901276
000090 c6 4a b7 3d a6 f0 09 be 5e ce 15 3b 82 19 6f be
       0.08949809 -0.13470706 0.00228586 -0.23349574
0000a0 1c 97 7e bc f3 1e 8e 3d b9 eb 9a bd 45 ae e3 bd
       -0.015538957 0.06939497 -0.07564492 -0.11117224
0000b0 f4 32 14 3d 7d cc 4a 3d 19 15 1d 3d 35 6f f7 bc
       0.036181405 0.04951142 0.0383502 -0.030204395
0000c0 15 9f 55 3d 8e 40 c8 bc ca bc 83 3d 47 34 96 bd
       0.052153666 -0.024444845 0.06432493 -0.0733419
0000d0 3c 82 f2 3c 1e 51 8d be 30 85 b2 bc c4 39 aa 3d
       0.029603116 -0.2760095 -0.021792024 0.08311799
0000e0 7b d4 32 3d ed 27 92 be 5d 58 d3 bd 8f aa 20 3e
       0.04365967 -0.28546086 -0.10319588 0.15690063
0000f0 bc a7 05 bd ae 62 5c 3c fe 3e 9e be c2 89 22 3c
       -0.032630667 0.013451261 -0.30907434 0.009920539
000100 51 72 dc 3d 1b 3c 01 3d 6b 88 78 3d 45 d6 ad 3b
       0.107639916 0.03155146 0.060676973 0.005305084
000110 8f 0c e6 3b 06 a0 99 bb d3 1e 5a be d0 30 7d 3d
       0.00702054 -0.0046882657 -0.21300821 0.06181413
000120 14 5f 1b bd 92 e1 0f 3e e0 23 01 3d d2 56 09 3e
       -0.03793247 0.14050892 0.031528354 0.13412026
000130 18 3b f5 3c e1 aa a7 3d b3 83 e4 3d e1 ae 15 3d
       0.029935405 0.081868894 0.11157932 0.03654373
000140 4f df 53 3d ff 80 08 3d c6 56 23 3e 4e a7 c3 3d
       0.051726636 0.033326145 0.1595107 0.09553395
000150 d8 1a 92 3d 2f 5e 26 3e 1c 51 ee 3d 65 6b 88 3c
       0.07134026 0.16246866 0.11636564 0.016652772
000160 c1 db c4 3b 18 b4 a7 3d fb 78 26 be d2 07 0d 3e
       0.006007642 0.08188647 -0.16257088 0.13772514
000170 6a 35 d3 3d 32 8d 16 be 9b 11 60 3d e3 af 66 bd
       0.10312922 -0.14702299 0.05470429 -0.056320082
000180 3b 9b 94 3d 57 57 25 3d bf 37 18 bd 0d b1 1c 3d
       0.0725617 0.040366497 -0.03716254 0.038254786
000190 09 5e 1c be 6b 04 14 be ee 87 26 be 4b 1b 1c 3e
       -0.15270247 -0.1445481 -0.1626279 0.15244786
0001a0 ee df 8f bd 7e ae d1 bb ec 03 d6 3d b1 e7 2d be
       -0.07025133 -0.006398975 0.10449967 -0.16982915
0001b0 72 27 20 3e 81 07 5d be 54 97 88 3b 03 b8 22 3e
       0.15640047 -0.21584894 0.0041684303 0.15890507
0001c0 7e 4e ab 3c 19 8c 7e 3c 4d 42 7b be 3b 5d 8b 3d
       0.020911451 0.015536332 -0.2453701 0.06804892
0001d0 b4 c0 21 be c5 a3 91 3d 47 06 a4 bd d6 6c 71 b9
       -0.15796167 0.07111315 -0.0800901 -0.00023024096
0001e0 af e7 6f 3c 54 53 13 be 27 d0 26 3e fe 41 3f 3d
       0.01464264 -0.14387256 0.16290341 0.046693794
0001f0 bc ef ab bd 68 21 23 be 81 49 0b 3e f8 bf aa 3a
       -0.08395335 -0.15930712 0.13602258 0.0013027182
000200 f6 db 91 3d ab 8c f8 bc c5 35 92 bd bb c1 0d bd
       0.07122032 -0.030340513 -0.07139162 -0.034608584
000210 1a dc 29 bc e1 98 07 3e 0a 7f 0b 3d 14 2e b0 bc
       -0.010367418 0.13241912 0.0340567 -0.021506347
000220 a6 93 5d 3d b4 59 a8 3c 84 d2 96 bd 67 71 8e bd
       0.054095887 0.020550586 -0.073643714 -0.069552235
000230 f7 03 27 3b 43 a6 b0 3d 43 8c 49 bc ed 33 93 bb
       0.002548454 0.08625462 -0.012301507 -0.004492274
000240 60 2c b4 3b 87 04 d7 bd 15 10 3e bd 15 87 cf 3b
       0.005498454 -0.104989104 -0.046402056 0.0063332417
000250 10 85 b7 3a 68 8a 92 3d a1 c6 e3 3d 48 6c 67 bd
       0.0014001448 0.07155305 0.1112187 -0.05649975
000260 fa 9e 97 bc d1 30 06 3b c6 05 d0 3d f2 2c c1 bd
       -0.018508423 0.0020475874 0.10157351 -0.09432401
000270 ff c2 aa bd d4 81 a5 3c f3 27 b8 bd 46 f5 e1 3b
       -0.08337974 0.020203508 -0.08991995 0.006895694
000280 44 da eb b9 dc 2c 1b 3d 21 bf e2 3c e2 c0 6f bc
       -0.00044985313 0.037884578 0.027679028 -0.014633389
000290 16 a6 d7 bb d1 77 9b 3c 43 c2 31 3c 37 8f 75 bc
       -0.0065810783 0.018978031 0.010849538 -0.014987758
0002a0 fb 4c d7 3d 23 3c c4 bd 41 9e 9b 3d 7a b7 bf bd
       0.1051273 -0.09581783 0.07598544 -0.09361167
0002b0 f2 a5 e4 3d 8c 2f aa 3d 69 1f c1 3c 59 66 7d bd
       0.11164464 0.0830985 0.023574548 -0.061865184
0002c0 7a 4e 12 3e 3f 98 96 3d 97 8a 1b bc c2 df e9 3d
       0.14287749 0.073532574 -0.009493492 0.114196315
0002d0 eb 5b 07 3e 04 d4 0f be 65 63 18 3c 18 4d 89 bd
       0.13218658 -0.14045721 0.009301041 -0.067041576
0002e0 ab 8e ac 3d c6 4a 3e 3c 8e a1 fb bc 90 b1 b1 3d
       0.08425649 0.011614507 -0.030716684 0.086764455
0002f0 5b b9 f7 3d 26 c5 ab 3d c8 2e 2d bc 1f 17 d9 bd
       0.120959006 0.083872125 -0.010570236 -0.10600113
000300 9a bb aa bd 50 05 80 3d 47 97 d0 bd ce a7 ac 3d
       -0.083365634 0.06251013 -0.10185104 0.08430444
000310 f9 4a a9 3d 5d 26 f8 bb bd b7 71 3d f9 93 4c 3c
       0.08266253 -0.0075729326 0.059013117 0.012486451
000320 b9 ac 9f 3d e3 9c 88 3d 57 ab fb 3d 14 5a a0 bd
       0.07796616 0.06670549 0.1228854 -0.07829681
000330 28 f2 c5 3d 9b e8 ca 3b 86 64 d7 bc 18 a2 99 bd
       0.09665328 0.0061922795 -0.02629305 -0.0750162
000340 29 89 b2 bd e8 47 0b 3e 5c e5 04 3e 23 43 64 bd
       -0.087175675 0.13601649 0.12978119 -0.05572809
000350 da 87 a8 bd c6 94 05 bd 4d ea 21 bd 49 7c b5 3d
       -0.08229037 -0.032612585 -0.039530087 0.08861596
000360 6c 76 ac 3d 98 2d d5 3c f9 32 19 bd 09 bf a5 3d
       0.08421025 0.026022717 -0.037402127 0.08093078
000370 3f c7 07 bd ce 35 82 3d 4a 2c d6 3d 72 a8 89 bd
       -0.033149 0.06357919 0.10457666 -0.067215815
000380 50 58 b0 bd 8a 25 c4 bd 52 d3 56 3d 5d ac 30 bb
       -0.08610594 -0.095774725 0.052447625 -0.0026958205
000390 20 bd 15 3d c6 e8 31 3d d8 65 f5 bd e0 51 23 bd
       0.036557317 0.04343488 -0.11982316 -0.039873004
0003a0 5e dd 38 bd aa 4e be bd 6e b6 ce 3d 47 ef 3d 3c
       -0.045132987 -0.09292348 0.100933895 0.011592693
0003b0 9f 2b 7f bd 66 0e f7 3c b9 ea 9f 3c 38 9d 40 bd
       -0.06229746 0.030158233 0.019521104 -0.047024935
0003c0 e2 c4 ad 3d 31 64 7c 3d c9 18 74 bd b7 56 60 bd
       0.08484818 0.061618987 -0.05959395 -0.054770198
0003d0 80 2b 0e 3d de 16 20 3e 60 9e 11 be 75 3f a7 3d
       0.034709454 0.15633723 -0.14220572 0.081664
0003e0 c8 7c 79 3d 3e ea 86 3d c7 69 7e bd 7c fd f2 3d
       0.060910016 0.06587647 -0.062112596 0.118647546
0003f0 16 69 a9 bc 47 ed cb bd 8c b8 f2 bc c9 c4 11 3d
       -0.020679992 -0.099573664 -0.029629014 0.03558806

action_model._continuous_distribution.mu.bias f4 [2]
000000 03 b9 8a bd 92 74 23 be
       -0.067735694 -0.15962437

action_model._discrete_distribution.branches.0.weight f4 [1, 128]
000000 57 d4 de bb 2f ac 92 ba 0e 34 22 3b 5a 9a b8 ba
       -0.006800215 -0.0011190231 0.0024750265 -0.0014084086
000010 9a f4 bc 3c 3a 5e 2f bc d4 da 12 bc a7 b0 0a bc
       0.023065854 -0.010703618 -0.0089633055 -0.008464969
000020 5e a5 a6 3a 67 26 f1 3b 6a a5 02 3a ed 94 7c 3b
       0.0012714078 0.0073593142 0.0004983755 0.0038540915
000030 6f 8b 58 b9 e8 8e 7e 3c 52 d4 92 bb 69 52 38 3c
       -0.00020651308 0.015537001 -0.004480877 0.011250117
000040 31 01 c7 bb c7 97 59 3c 2f b6 1b 3c 5a bc 55 3c
       -0.00607314 0.013280815 0.009503885 0.013045395
000050 6b 44 86 3c 10 36 fc bb 57 52 89 bb 0c b1 b8 3b
       0.016390046 -0.0076968744 -0.004190724 0.00563634
000060 2d 3c fc ba 13 c6 91 3b 86 c1 26 bc a2 f5 2b bb
       -0.0019244008 0.004448661 -0.0101779755 -0.0026238938
000070 0b 64 a9 3b e3 5b 83 3a bb 27 07 bc d7 03 43 3c
       0.0051693968 0.0010021891 -0.008249219 0.011902771
000080 65 85 6d 3c f7 18 5c 3c 03 2e dd 3a 86 6e a8 3b
       0.014497136 0.013433686 0.0016874674 0.0051401285
000090 4a 80 00 bc 1f 7e 7b bb e3 51 62 3b 43 df 3c 3b
       -0.0078430865 -0.0038374735 0.0034533672 0.0028819598
0000a0 fb cb dd 3a 35 b8 e0 bb 30 77 1f 3a af bb 30 3b
       0.0016921753 -0.0068578967 0.0006083129 0.0026967337
0000b0 40 55 ec bb 34 6c 00 bc 2e 1e 9e ba 2b cb 19 bc
       -0.007212311 -0.007838298 -0.0012063438 -0.009386818
0000c0 a7 da 55 ba e7 f9 22 3c 1c 26 8c bc 49 e7 a5 bb
       -0.0008157887 0.009947277 -0.017108016 -0.0050629717
0000d0 5e 65 ac bc ab 22 e2 bb 5f 3d c6 bb 4f 01 7f 3b
       -0.02104443 -0.0069011054 -0.0060497965 0.0038910692
0000e0 07 b7 01 bc 28 f3 ea bb bf 53 f1 bb 83 55 2e 3b
       -0.007917172 -0.0071700998 -0.0073647196 0.0026601262
0000f0 27 d1 81 3b 9a 84 f8 3b 66 a8 40 bc 19 45 0e 3c
       0.0039617005 0.0075841667 -0.011758899 0.008683466
000100 9c 83 15 bc cd b3 8f 3a 67 a1 07 bc 6f 14 1c bb
       -0.009125616 0.0010963619 -0.008278227 -0.002381589
000110 5c 57 a9 3b 74 4d a8 3b 2c 1a bd 3a 99 51 86 bb
       0.0051678848 0.0051361863 0.0014427355 -0.0040990827
000120 41 34 4b b8 72 41 ee bb 9f f6 db 3b be 40 ae 3b
       -4.8447637e-05 -0.0072709853 0.006712749 0.0053177765
000130 5a 18 37 3b 45 8c 8d bc 22 21 ce bb 90 32 6c 3c
       0.0027938099 -0.0172788 -0.006290571 0.014416352
000140 8b 2c 59 3b e2 20 61 3c d9 41 8d bb 15 97 ce 3a
       0.0033138122 0.01374075 -0.004310828 0.0015761579
000150 27 d1 14 bc aa a2 51 bb b9 b6 8a bb 16 36 af bb
       -0.009083069 -0.0031987824 -0.004233208 -0.0053470237
000160 3f 0a 8b ba 61 aa 2d bb 10 fe fb ba 7f 4b b5 3b
       -0.0010607912 -0.0026499259 -0.0019225497 0.0055326815
000170 2a 2a 4c bc b4 29 92 bc 52 2c 0f 3b 5a fb 89 bb
       -0.012461225 -0.017842151 0.0021846485 -0.0042108716
000180 38 31 7d 3c 1b a6 03 bb d8 25 d6 3b 2c fa bb 3b
       0.015453629 -0.002008802 0.006535273 0.00573661
000190 9f 4c 38 3b 17 43 11 bc b7 1a 19 3b 3d 26 6a 3b
       0.0028121842 -0.008866093 0.002336187 0.0035728358
0001a0 57 df 45 3b 2a e4 e1 ba e7 d1 a3 bb 17 bf 99 b7
       0.0030192935 -0.0017234136 -0.0049993875 -1.8328004e-05
0001b0 b8 6f 1f 3b aa c7 0b bc bb 6e 5f 3c e5 dc 6f 39
       0.0024328064 -0.00853149 0.01363724 0.00022875106
0001c0 a6 be cc bb 70 19 cd ba 47 df f5 3a bc 3d 49 3c
       -0.006248313 -0.001564784 0.0018758558 0.012282785
0001d0 89 c2 0b bc c5 81 56 bc 27 cd cd ba 3f b6 7e bc
       -0.0085302675 -0.013092463 -0.0015701399 -0.015546381
0001e0 79 cc 9c bb fd d8 56 3b 82 a4 80 bc 53 ff 7d bc
       -0.004785117 0.0032783144 -0.015703443 -0.015502769
0001f0 9a 5f 91 bb f2 43 d8 3b e7 75 09 ba 8b bc c0 ba
       -0.0044364454 0.0065998966 -0.0005243704 -0.0014704628

exp_avg f4 [128, 17]
000000 fe ee e6 b8 3b 93 19 ba fe ee e6 b8 3b 93 19 ba
       -0.000110117704 -0.0005858426 -0.000110117704 -0.0005858426
000010 fe ee e6 b8 3b 93 19 ba fe ee e6 b8 3b 93 19 ba
       -0.000110117704 -0.0005858426 -0.000110117704 -0.0005858426
000020 fe ee e6 b8 3b 93 19 ba fe ee e6 b8 3b 93 19 ba
       -0.000110117704 -0.0005858426 -0.000110117704 -0.0005858426
000030 fe ee e6 b8 3b 93 19 ba 5d 74 9c bb 72 61 a7 b9
       -0.000110117704 -0.0005858426 -0.004774614 -0.00031925325
000040 3a 9c 35 bb 30 07 b9 ba 95 f8 bb ba 30 07 b9 ba
       -0.0027711526 -0.0014116522 -0.0014341051 -0.0014116522
000050 95 f8 bb ba 30 07 b9 ba 95 f8 bb ba 30 07 b9 ba
       -0.0014341051 -0.0014116522 -0.0014341051 -0.0014116522
000060 95 f8 bb ba 30 07 b9 ba 95 f8 bb ba 30 07 b9 ba
       -0.0014341051 -0.0014116522 -0.0014341051 -0.0014116522
000070 95 f8 bb ba 30 07 b9 ba 95 f8 bb ba de f0 8f 3a
       -0.0014341051 -0.0014116522 -0.0014341051 0.0010981818
000080 b2 89 41 ba 6c 73 d5 3b bf 61 2e ba b6 49 d8 b9
       -0.0007382884 0.0065140035 -0.00066521385 -0.0004125365
000090 bf 61 2e ba b6 49 d8 b9 bf 61 2e ba b6 49 d8 b9
       -0.00066521385 -0.0004125365 -0.00066521385 -0.0004125365
0000a0 bf 61 2e ba b6 49 d8 b9 bf 61 2e ba b6 49 d8 b9
       -0.00066521385 -0.0004125365 -0.00066521385 -0.0004125365
0000b0 bf 61 2e ba b6 49 d8 b9 bf 61 2e ba b6 49 d8 b9
       -0.00066521385 -0.0004125365 -0.00066521385 -0.0004125365
0000c0 3d c8 ad ba 18 e4 00 ba 45 6d d3 bb c5 85 86 3a
       -0.0013258528 -0.0004916801 -0.006452235 0.0010263255
0000d0 72 75 56 3a c5 85 86 3a 72 75 56 3a c5 85 86 3a
       0.0008180953 0.0010263255 0.0008180953 0.0010263255
0000e0 72 75 56 3a c5 85 86 3a 72 75 56 3a c5 85 86 3a
       0.0008180953 0.0010263255 0.0008180953 0.0010263255
0000f0 72 75 56 3a c5 85 86 3a 72 75 56 3a c5 85 86 3a
       0.0008180953 0.0010263255 0.0008180953 0.0010263255
000100 72 75 56 3a 7e e5 14 3a 87 0a e8 39 7a 9c 70 39
       0.0008180953 0.0005679949 0.00044258332 0.00022946476
000110 6c 10 12 3b 25 84 c1 3a 6c 10 12 3b 25 84 c1 3a
       0.002228762 0.0014764114 0.002228762 0.0014764114
000120 6c 10 12 3b 25 84 c1 3a 6c 10 12 3b 25 84 c1 3a
       0.002228762 0.0014764114 0.002228762 0.0014764114
000130 6c 10 12 3b 25 84 c1 3a 6c 10 12 3b 25 84 c1 3a
       0.002228762 0.0014764114 0.002228762 0.0014764114
000140 6c 10 12 3b 25 84 c1 3a 91 c8 10 b9 4e 2b 11 3a
       0.002228762 0.0014764114 -0.00013807627 0.0005537764
000150 07 63 b7 ba 1a 89 f2 ba 0d 85 b5 ba 1a 89 f2 ba
       -0.0013991304 -0.0018503994 -0.0013848856 -0.0018503994
000160 0d 85 b5 ba 1a 89 f2 ba 0d 85 b5 ba 1a 89 f2 ba
       -0.0013848856 -0.0018503994 -0.0013848856 -0.0018503994
000170 0d 85 b5 ba 1a 89 f2 ba 0d 85 b5 ba 1a 89 f2 ba
       -0.0013848856 -0.0018503994 -0.0013848856 -0.0018503994
000180 0d 85 b5 ba 1a 89 f2 ba 0d 85 b5 ba c5 df 8a 3a
       -0.0013848856 -0.0018503994 -0.0013848856 0.0010595253
000190 c8 4a 38 ba 5b e3 93 b8 d2 6b 2a 39 fa 69 4f 39
       -0.0007030186 -7.0518545e-05 0.0001625263 0.00019780538
0001a0 d2 6b 2a 39 fa 69 4f 39 d2 6b 2a 39 fa 69 4f 39
       0.0001625263 0.00019780538 0.0001625263 0.00019780538
0001b0 d2 6b 2a 39 fa 69 4f 39 d2 6b 2a 39 fa 69 4f 39
       0.0001625263 0.00019780538 0.0001625263 0.00019780538
0001c0 d2 6b 2a 39 fa 69 4f 39 d2 6b 2a 39 fa 69 4f 39
       0.0001625263 0.00019780538 0.0001625263 0.00019780538
0001d0 1d 98 03 3a e1 18 f1 38 1e 0a 03 3b 11 cb 02 3a
       0.000501992 0.000114964096 0.0019995044 0.00049893657
0001e0 93 6b 09 3a 11 cb 02 3a 93 6b 09 3a 11 cb 02 3a
       0.0005242165 0.00049893657 0.0005242165 0.00049893657
0001f0 93 6b 09 3a 11 cb 02 3a 93 6b 09 3a 11 cb 02 3a
       0.0005242165 0.00049893657 0.0005242165 0.00049893657
000200 93 6b 09 3a 11 cb 02 3a 93 6b 09 3a 11 cb 02 3a
       0.0005242165 0.00049893657 0.0005242165 0.00049893657
000210 93 6b 09 3a 07 f7 02 bb 5c 45 9c 39 1e de 6a ba
       0.0005242165 -0.0019983666 0.00029806315 -0.00089594896
000220 a3 ef 78 b7 55 aa 69 38 a3 ef 78 b7 55 aa 69 38
       -1.4837747e-05 5.5710163e-05 -1.4837747e-05 5.5710163e-05
000230 a3 ef 78 b7 55 aa 69 38 a3 ef 78 b7 55 aa 69 38
       -1.4837747e-05 5.5710163e-05 -1.4837747e-05 5.5710163e-05
000240 a3 ef 78 b7 55 aa 69 38 a3 ef 78 b7 55 aa 69 38
       -1.4837747e-05 5.5710163e-05 -1.4837747e-05 5.5710163e-05
000250 a3 ef 78 b7 55 aa 69 38 40 5a cb b9 b7 c3 76 37
       -1.4837747e-05 5.5710163e-05 -0.0003878642 1.4708311e-05
000260 94 05 d9 ba 6d b4 1a ba 7b 44 02 ba 6d b4 1a ba
       -0.0016557449 -0.00059015193 -0.0004969311 -0.00059015193
000270 7b 44 02 ba 6d b4 1a ba 7b 44 02 ba 6d b4 1a ba
       -0.0004969311 -0.00059015193 -0.0004969311 -0.00059015193
000280 7b 44 02 ba 6d b4 1a ba 7b 44 02 ba 6d b4 1a ba
       -0.0004969311 -0.00059015193 -0.0004969311 -0.00059015193
000290 7b 44 02 ba 6d b4 1a ba 7b 44 02 ba 33 51 41 b8
       -0.0004969311 -0.00059015193 -0.0004969311 -4.609041e-05
0002a0 08 a0 92 b9 ff be f6 ba 36 71 ef 3b e7 eb df 3b
       -0.00027966523 -0.0018825232 0.007307197 0.0068335417
0002b0 36 71 ef 3b e7 eb df 3b 36 71 ef 3b e7 eb df 3b
       0.007307197 0.0068335417 0.007307197 0.0068335417
0002c0 36 71 ef 3b e7 eb df 3b 36 71 ef 3b e7 eb df 3b
       0.007307197 0.0068335417 0.007307197 0.0068335417
0002d0 36 71 ef 3b e7 eb df 3b 36 71 ef 3b e7 eb df 3b
       0.007307197 0.0068335417 0.007307197 0.0068335417
0002e0 1b 58 9a bb 48 0b 5f 3b df 81 6e bc d2 76 f3 3a
       -0.00471021 0.0034033824 -0.014557331 0.001857484
0002f0 eb ec d6 3a d2 76 f3 3a eb ec d6 3a d2 76 f3 3a
       0.0016397511 0.001857484 0.0016397511 0.001857484
000300 eb ec d6 3a d2 76 f3 3a eb ec d6 3a d2 76 f3 3a
       0.0016397511 0.001857484 0.0016397511 0.001857484
000310 eb ec d6 3a d2 76 f3 3a eb ec d6 3a d2 76 f3 3a
       0.0016397511 0.001857484 0.0016397511 0.001857484
000320 eb ec d6 3a 3c f6 92 3a 0b d8 61 3a 73 03 35 3a
       0.0016397511 0.00112123 0.0008615262 0.0006905116
000330 60 43 6a ba b0 e2 57 ba 60 43 6a ba b0 e2 57 ba
       -0.0008936431 -0.0008235378 -0.0008936431 -0.0008235378
000340 60 43 6a ba b0 e2 57 ba 60 43 6a ba b0 e2 57 ba
       -0.0008936431 -0.0008235378 -0.0008936431 -0.0008235378
000350 60 43 6a ba b0 e2 57 ba 60 43 6a ba b0 e2 57 ba
       -0.0008936431 -0.0008235378 -0.0008936431 -0.0008235378
000360 60 43 6a ba b0 e2 57 ba 02 dc d5 b9 81 06 b7 b9
       -0.0008936431 -0.0008235378 -0.00040790444 -0.00034909326
000370 1a 44 e0 3a 30 1e 0e 3b cf c6 08 3b 30 1e 0e 3b
       0.001711014 0.0021685474 0.0020870452 0.0021685474
000380 cf c6 08 3b 30 1e 0e 3b cf c6 08 3b 30 1e 0e 3b
       0.0020870452 0.0021685474 0.0020870452 0.0021685474
000390 cf c6 08 3b 30 1e 0e 3b cf c6 08 3b 30 1e 0e 3b
       0.0020870452 0.0021685474 0.0020870452 0.0021685474
0003a0 cf c6 08 3b 30 1e 0e 3b cf c6 08 3b d8 aa 7c 3a
       0.0020870452 0.0021685474 0.0020870452 0.0009638495
0003b0 8f 75 92 3a d4 30 24 bb cf 23 52 b9 0d f9 80 b8
       0.0011173951 -0.0025053518 -0.000200405 -6.149905e-05
0003c0 cf 23 52 b9 0d f9 80 b8 cf 23 52 b9 0d f9 80 b8
       -0.000200405 -6.149905e-05 -0.000200405 -6.149905e-05
0003d0 cf 23 52 b9 0d f9 80 b8 cf 23 52 b9 0d f9 80 b8
       -0.000200405 -6.149905e-05 -0.000200405 -6.149905e-05
0003e0 cf 23 52 b9 0d f9 80 b8 cf 23 52 b9 0d f9 80 b8
       -0.000200405 -6.149905e-05 -0.000200405 -6.149905e-05
0003f0 9c a5 a9 ba 94 a8 a2 b9 e6 2c f3 bb 6f a3 58 3a
       -0.0012943032 -0.00031024648 -0.007421124 0.00082640996

exp_avg_sq f4 [128, 17]
000000 5a 52 a1 36 46 83 cb 36 5a 52 a1 36 46 83 cb 36
       4.807761e-06 6.0651537e-06 4.807761e-06 6.0651537e-06
000010 5a 52 a1 36 46 83 cb 36 5a 52 a1 36 46 83 cb 36
       4.807761e-06 6.0651537e-06 4.807761e-06 6.0651537e-06
000020 5a 52 a1 36 46 83 cb 36 5a 52 a1 36 46 83 cb 36
       4.807761e-06 6.0651537e-06 4.807761e-06 6.0651537e-06
000030 5a 52 a1 36 46 83 cb 36 2b 04 36 39 39 87 de 36
       4.807761e-06 6.0651537e-06 0.00017358425 6.6318576e-06
000040 ea 83 1b 39 8c 5d 01 38 b2 88 04 38 8c 5d 01 38
       0.00014831094 3.084312e-05 3.159856e-05 3.084312e-05
000050 b2 88 04 38 8c 5d 01 38 b2 88 04 38 8c 5d 01 38
       3.159856e-05 3.084312e-05 3.159856e-05 3.084312e-05
000060 b2 88 04 38 8c 5d 01 38 b2 88 04 38 8c 5d 01 38
       3.159856e-05 3.084312e-05 3.159856e-05 3.084312e-05
000070 b2 88 04 38 8c 5d 01 38 b2 88 04 38 89 21 74 38
       3.159856e-05 3.084312e-05 3.159856e-05 5.8205365e-05
000080 d9 5a 15 37 b7 9d 79 39 3d 06 68 39 45 06 71 39
       8.902244e-06 0.00023805244 0.00022127568 0.00022985887
000090 3d 06 68 39 45 06 71 39 3d 06 68 39 45 06 71 39
       0.00022127568 0.00022985887 0.00022127568 0.00022985887
0000a0 3d 06 68 39 45 06 71 39 3d 06 68 39 45 06 71 39
       0.00022127568 0.00022985887 0.00022127568 0.00022985887
0000b0 3d 06 68 39 45 06 71 39 3d 06 68 39 45 06 71 39
       0.00022127568 0.00022985887 0.00022127568 0.00022985887
0000c0 fa 2a 00 3a 97 de 9e 38 31 ac 4f 3a 55 a1 9f 37
       0.00048892165 7.575488e-05 0.0007922082 1.9029403e-05
0000d0 3f 95 a3 37 55 a1 9f 37 3f 95 a3 37 55 a1 9f 37
       1.9500612e-05 1.9029403e-05 1.9500612e-05 1.9029403e-05
0000e0 3f 95 a3 37 55 a1 9f 37 3f 95 a3 37 55 a1 9f 37
       1.9500612e-05 1.9029403e-05 1.9500612e-05 1.9029403e-05
0000f0 3f 95 a3 37 55 a1 9f 37 3f 95 a3 37 55 a1 9f 37
       1.9500612e-05 1.9029403e-05 1.9500612e-05 1.9029403e-05
000100 3f 95 a3 37 a5 ef d9 38 b6 27 d5 36 b2 1a a0 38
       1.9500612e-05 0.000103920036 6.3525176e-06 7.634367e-05
000110 e7 c8 f4 38 2b 86 f9 38 e7 c8 f4 38 2b 86 f9 38
       0.00011672248 0.00011898236 0.00011672248 0.00011898236
000120 e7 c8 f4 38 2b 86 f9 38 e7 c8 f4 38 2b 86 f9 38
       0.00011672248 0.00011898236 0.00011672248 0.00011898236
000130 e7 c8 f4 38 2b 86 f9 38 e7 c8 f4 38 2b 86 f9 38
       0.00011672248 0.00011898236 0.00011672248 0.00011898236
000140 e7 c8 f4 38 2b 86 f9 38 e6 ef 19 3a dc 79 17 38
       0.00011672248 0.00011898236 0.00058722345 3.6114696e-05
000150 bf 30 77 3a 9b 16 6a 38 d7 c6 76 38 9b 16 6a 38
       0.0009429566 5.5811e-05 5.8836154e-05 5.5811e-05
000160 d7 c6 76 38 9b 16 6a 38 d7 c6 76 38 9b 16 6a 38
       5.8836154e-05 5.5811e-05 5.8836154e-05 5.5811e-05
000170 d7 c6 76 38 9b 16 6a 38 d7 c6 76 38 9b 16 6a 38
       5.8836154e-05 5.5811e-05 5.8836154e-05 5.5811e-05
000180 d7 c6 76 38 9b 16 6a 38 d7 c6 76 38 2a f2 86 39
       5.8836154e-05 5.5811e-05 5.8836154e-05 0.00025738898
000190 c9 10 a3 37 eb 35 9c 39 7b 1f c2 37 ef aa d4 37
       1.943893e-05 0.0002979481 2.3141261e-05 2.5351967e-05
0001a0 7b 1f c2 37 ef aa d4 37 7b 1f c2 37 ef aa d4 37
       2.3141261e-05 2.5351967e-05 2.3141261e-05 2.5351967e-05
0001b0 7b 1f c2 37 ef aa d4 37 7b 1f c2 37 ef aa d4 37
       2.3141261e-05 2.5351967e-05 2.3141261e-05 2.5351967e-05
0001c0 7b 1f c2 37 ef aa d4 37 7b 1f c2 37 ef aa d4 37
       2.3141261e-05 2.5351967e-05 2.3141261e-05 2.5351967e-05
0001d0 e5 43 78 38 72 c4 02 37 de 7f 73 39 3d 8e 89 38
       5.919104e-05 7.794342e-06 0.0002322192 6.559163e-05
0001e0 99 ee 89 38 3d 8e 89 38 99 ee 89 38 3d 8e 89 38
       6.577111e-05 6.559163e-05 6.577111e-05 6.559163e-05
0001f0 99 ee 89 38 3d 8e 89 38 99 ee 89 38 3d 8e 89 38
       6.577111e-05 6.559163e-05 6.577111e-05 6.559163e-05
000200 99 ee 89 38 3d 8e 89 38 99 ee 89 38 3d 8e 89 38
       6.577111e-05 6.559163e-05 6.577111e-05 6.559163e-05
000210 99 ee 89 38 f3 13 92 39 af 9d 8e 37 10 3b 8a 39
       6.577111e-05 0.00027862153 1.7001146e-05 0.00026365416
000220 fa 5f 89 37 0e ad 8a 37 fa 5f 89 37 0e ad 8a 37
       1.6376365e-05 1.6531467e-05 1.6376365e-05 1.6531467e-05
000230 fa 5f 89 37 0e ad 8a 37 fa 5f 89 37 0e ad 8a 37
       1.6376365e-05 1.6531467e-05 1.6376365e-05 1.6531467e-05
000240 fa 5f 89 37 0e ad 8a 37 fa 5f 89 37 0e ad 8a 37
       1.6376365e-05 1.6531467e-05 1.6376365e-05 1.6531467e-05
000250 fa 5f 89 37 0e ad 8a 37 0e 4c 87 38 51 50 98 36
       1.6376365e-05 1.6531467e-05 6.451468e-05 4.539303e-06
000260 85 77 c3 38 73 4a d7 38 ce 48 d9 38 73 4a d7 38
       9.320587e-05 0.00010265866 0.00010360927 0.00010265866
000270 ce 48 d9 38 73 4a d7 38 ce 48 d9 38 73 4a d7 38
       0.00010360927 0.00010265866 0.00010360927 0.00010265866
000280 ce 48 d9 38 73 4a d7 38 ce 48 d9 38 73 4a d7 38
       0.00010360927 0.00010265866 0.00010360927 0.00010265866
000290 ce 48 d9 38 73 4a d7 38 ce 48 d9 38 39 f4 aa 39
       0.00010360927 0.00010265866 0.00010360927 0.00032606887
0002a0 36 d0 e9 37 27 dc 22 3a 97 44 47 3a d5 06 4b 3a
       2.787272e-05 0.0006212615 0.0007601468 0.00077448535
0002b0 97 44 47 3a d5 06 4b 3a 97 44 47 3a d5 06 4b 3a
       0.0007601468 0.00077448535 0.0007601468 0.00077448535
0002c0 97 44 47 3a d5 06 4b 3a 97 44 47 3a d5 06 4b 3a
       0.0007601468 0.00077448535 0.0007601468 0.00077448535
0002d0 97 44 47 3a d5 06 4b 3a 97 44 47 3a d5 06 4b 3a
       0.0007601468 0.00077448535 0.0007601468 0.00077448535
0002e0 54 f0 a0 3a 01 17 56 39 b2 eb 0c 3b 75 3d 79 39
       0.0012278655 0.000204172 0.002150279 0.00023769385
0002f0 9e da 7a 39 75 3d 79 39 9e da 7a 39 75 3d 79 39
       0.00023923299 0.00023769385 0.00023923299 0.00023769385
000300 9e da 7a 39 75 3d 79 39 9e da 7a 39 75 3d 79 39
       0.00023923299 0.00023769385 0.00023923299 0.00023769385
000310 9e da 7a 39 75 3d 79 39 9e da 7a 39 75 3d 79 39
       0.00023923299 0.00023769385 0.00023923299 0.00023769385
000320 9e da 7a 39 d6 22 12 3a 80 57 85 38 d8 cd 73 3a
       0.00023923299 0.0005574649 6.358232e-05 0.00093003875
000330 1e 12 00 39 cc 28 02 39 1e 12 00 39 cc 28 02 39
       0.0001221378 0.00012412964 0.0001221378 0.00012412964
000340 1e 12 00 39 cc 28 02 39 1e 12 00 39 cc 28 02 39
       0.0001221378 0.00012412964 0.0001221378 0.00012412964
000350 1e 12 00 39 cc 28 02 39 1e 12 00 39 cc 28 02 39
       0.0001221378 0.00012412964 0.0001221378 0.00012412964
000360 1e 12 00 39 cc 28 02 39 ce ac 8a 39 75 73 0c 38
       0.0001221378 0.00012412964 0.0002645016 3.348613e-05
000370 a6 a1 b5 39 cd 6f e3 38 48 ac e8 38 cd 6f e3 38
       0.00034643448 0.00010845028 0.00011094712 0.00010845028
000380 48 ac e8 38 cd 6f e3 38 48 ac e8 38 cd 6f e3 38
       0.00011094712 0.00010845028 0.00011094712 0.00010845028
000390 48 ac e8 38 cd 6f e3 38 48 ac e8 38 cd 6f e3 38
       0.00011094712 0.00010845028 0.00011094712 0.00010845028
0003a0 48 ac e8 38 cd 6f e3 38 48 ac e8 38 f0 46 44 39
       0.00011094712 0.00010845028 0.00011094712 0.00018718443
0003b0 af 14 03 38 e6 ff db 39 ec b3 54 39 d7 a3 67 39
       3.1252097e-05 0.00041961594 0.00020284922 0.00022090912
0003c0 ec b3 54 39 d7 a3 67 39 ec b3 54 39 d7 a3 67 39
       0.00020284922 0.00022090912 0.00020284922 0.00022090912
0003d0 ec b3 54 39 d7 a3 67 39 ec b3 54 39 d7 a3 67 39
       0.00020284922 0.00022090912 0.00020284922 0.00022090912
0003e0 ec b3 54 39 d7 a3 67 39 ec b3 54 39 d7 a3 67 39
       0.00020284922 0.00022090912 0.00020284922 0.00022090912
0003f0 09 dc d4 39 6a 69 9a 38 16 38 54 3a f3 bb f4 38
       0.0004059973 7.362927e-05 0.00080955157 0.00011669835
