results/CubeAgentJumper-Bonus/CubeAgentRay/CubeAgentRay-10322.pt (torch, 440079 bytes, 39 tensors)

network_body._body_endoder.seq_layers.0.weight f4 [128, 5]
00000000: 70cc 06bf f960 563e db53 30bf ea6d 533f
00000010: 975e 89bd edaa bb3e c0c1 8fbd a471 7cbe
00000020: 47be 0abf 2018 933e 9b06 b8be a50b 06bf
00000030: 57d0 99bd b7e8 8e3d ecd4 58be 09ef 1cbe
00000040: 7e78 43bf 429a 84bc 1566 a0be 4003 97be
00000050: f50f 02bf 4b71 7bbf 8638 883e 405a 8f3e
00000060: 4ea4 48be e7da 00bd 658a 863d 8f3d 39bf
00000070: 1d0d fabe cd22 1abf 0303 223f a05f 333f
00000080: fc02 473e 4565 51be de5f 07bf f621 9c3e
00000090: 3d0f 023d 8ae3 c3be 0df7 383e 6a75 22bf
000000a0: 05d7 c43e bf16 2dbd 8cfe 453f d7fd a0be
000000b0: f638 f4be c02b 60bf 52e9 62be 84ed f93e
000000c0: 21eb 36be 8e4d 05bf 8328 fa3e 957d 3f3e
000000d0: 33b3 553f 5e01 dc3d 2991 de3e 32fc 39bf
000000e0: 90f6 003f 522d 20bf 808a 4ebe edfc 1c3f
000000f0: 2f5a 183f 1437 0ebf 288a 93be 9864 c1be
00000100: 029e 8a3d fa1d a03e 7e0c bcbe e91b f9be
00000110: e8d3 223f 2aee a6bc e6a7 6abe f566 8bbe
00000120: 0239 853c d501 873e b0dd 10be f496 f13e
00000130: 7b1b 173f 31d1 f4bd 2e58 3f3f d3b2 0f3f
00000140: eda7 463f 4bfa dfbe dd0b cebd 3276 113f
00000150: ae91 a03d a86c 713e c503 f6be 57c5 953d
00000160: 6e21 de3e e11a 4b3e 5d79 063f 69a1 08bf
00000170: 5f7e 7f3f 4071 203e e684 343e 0657 93be
00000180: 4fca c7be 156f a33e bd81 80bf fa1d 84be
00000190: dcbf 03bf 3019 893d 9a81 053f e158 f73b
000001a0: bc35 413f bac8 9cbe 2d51 323d 72ff 463e
000001b0: 72ea f23e e38a 3d3d 44a2 a7be ecb4 143e
000001c0: b9a9 0c3e 30d3 b63e 0106 3cbf c2b6 1fbf
000001d0: 3656 aebd 793c 603f 5285 75be 22f9 5f3f
000001e0: 1ba1 51bf feae 5f3e 2bdd 043f 10a0 06be
000001f0: 345f c63c e013 013e 5ab7 a9be aea0 863d
00000200: a927 993e 8af2 97be 4604 cebd 766d 8cbb
00000210: 6f2e b7bd 3238 bc3e 0315 6b3e 91ed 27be
00000220: b90a 04bf 3ddc 693e dbdf c53e b1ac 163f
00000230: ebcf 463c aa67 ef3e 745d 753d 19f0 36bd
00000240: 437a 94be 6969 d43e ae48 a43e f2cf a83d
00000250: fe3d bd3d d558 fdba 90d2 3c3f f5cf 7cbc
00000260: cbc8 0a3f 7ea6 86be a995 16bf 5250 1ebf
00000270: ce34 c4be 76f9 17bf e1c0 743e b1c0 ac3d
00000280: 283b b5be f4a9 d2be 91ab 763f bffb 2dbf
00000290: 421e 213e daeb 1d3f 20df d5be db52 473f
000002a0: fd4e ca3e 197a 39be 0aea 0a3e f69c 3d3f
000002b0: 3a95 3fbe 8c0b bcbe b3cb a23e d5c3 f53e
000002c0: d27d 003f e677 1a3f 3952 463e a7b7 26be
000002d0: 6d30 053f b43c b5be 6e54 afbb fcf7 83bd
000002e0: 8d93 d9be 444a 3d3f 5ced bd3c de8d b63e
000002f0: b8c7 d8bc d91d 713f 6fc7 493e b004 38be
00000300: 45ef 39bd 67a4 1f3f f36c 1fbf 8132 4ebf
00000310: 0ff0 b2be cf54 3cbd 4533 213e cc4f 163f
00000320: e2e8 b9be 755a c23e b105 343f 7e8b babe
00000330: caea 4ebe f548 593e ea2c 643f 4b06 833d
00000340: 1db0 be3e 381b e4be 6cbe 19bd da81 4f3e
00000350: e45b 4ebe 52f8 35bf cc7b c8be be72 383f
00000360: 8f5e 56be bfdc 3a3e 7eca 0f3f 649e 49be
00000370: 2812 213f 4fc6 903d 0b16 bfbe 2514 d1bd
00000380: 1bba b13d 039c c4be 128d e13e 4ac2 2b3d
00000390: e246 89bf 7f0c 6d3f 6a7f 83bd 8264 503e
000003a0: 755a 183f cded 80bf ff3f 73be 3b1e 9fbc
000003b0: 34e4 c2be 1bbd 82bc bb0f c5be 46f1 453c
000003c0: c6d9 9bbe 7709 d8bc 2aaa 503f c89a 373f
000003d0: 5763 963d cc33 383e 633c bbbd 9a2b 933f
000003e0: 8644 b83e 2358 6b3f e30f a13e 3856 203f
000003f0: f9cb 2b3e 127c 5ebf 3e60 eebe 9aea 173f
-0.52655697 0.2093543 -0.68877953 0.8258959 -0.06707495 0.36653844 -0.07019377 -0.24652725
-0.5419659 0.28729343 -0.3594254 -0.5236152 -0.07510441 0.069779806 -0.21174973 -0.1532556
-0.7635573 -0.016186837 -0.31327882 -0.29494667 -0.508056 -0.98219746 0.26605624 0.27998543
-0.19593927 -0.03145876 0.065693654 -0.72359556 -0.4883813 -0.6020935 0.63285846 0.7006779
0.19434732 -0.20448788 -0.52880657 0.3049466 0.031752814 -0.38259536 0.18062992 -0.6346041
0.38445297 -0.04225802 0.7734153 -0.31443664 -0.47699708 -0.8756676 -0.22159317 0.48814023
-0.17863132 -0.52071464 0.48859033 0.1870025 0.8347656 0.10742448 0.43470123 -0.72650445
0.50376225 -0.62569153 -0.20170021 0.61323434 0.5951261 -0.5555279 -0.28816342 -0.3777206
0.06768419 0.3127287 -0.3672828 -0.48654106 0.63604593 -0.020377237 -0.2291561 -0.27226987
0.016262535 0.26368585 -0.14147067 0.4718548 0.59026307 -0.119539626 0.74743927 0.5613224
0.77599984 -0.43745646 -0.100608565 0.56820977 0.07840286 0.23576605 -0.4804975 0.0731303
0.4338488 0.19834472 0.52528936 -0.5337129 0.998022 0.15668201 0.17628822 -0.2877733
-0.39021537 0.31920686 -1.0039593 -0.2580412 -0.5146463 0.06694257 0.5215088 0.007548437
0.7547262 -0.30621892 0.043534447 0.19433382 0.47444493 0.04627503 -0.32740986 0.14522141
0.13736619 0.35707998 -0.7344666 -0.6238824 -0.08512537 0.87592274 -0.23976639 0.8748952
-0.8188645 0.21844098 0.51899976 -0.13146996 0.024215318 0.12605238 -0.331477 0.06573616
0.2991307 -0.2967723 -0.10059409 -0.0042855097 -0.089444034 0.36761624 0.22957234 -0.16399218
-0.5157886 0.2283792 0.3864735 0.58857256 0.012134532 0.46758777 0.059903577 -0.04466257
-0.28999528 0.41486672 0.320867 0.082427874 0.0924034 -0.0019328842 0.7375879 -0.01543044
0.54212636 -0.26298898 -0.58822113 -0.6184131 -0.38321537 -0.5936502 0.23901702 0.084351905
-0.35396695 -0.4114529 0.9635554 -0.6796226 0.15734199 0.61688006 -0.41771793 0.778608
0.39513388 -0.18112983 0.13565841 0.7406763 -0.18709269 -0.3672756 0.31796035 0.4800097
0.50191987 0.603392 0.19367303 -0.16280995 0.52027017 -0.35397875 -0.005350641 -0.06443784
-0.42495385 0.73941445 0.02318447 0.3565511 -0.02646242 0.9418617 0.19704984 -0.17970538
-0.0453942 0.62360233 -0.6227562 -0.8054581 -0.34948775 -0.045979317 0.15742214 0.5871551
-0.36310488 0.37959638 0.70321184 -0.3643455 -0.20206752 0.21219237 0.89131033 0.06397685
0.3724374 -0.44552016 -0.037535116 0.20264378 -0.20152241 -0.7108203 -0.3915695 0.7205008
-0.20934509 0.1824827 0.56168354 -0.19689327 0.6291833 0.07069074 -0.37321505 -0.102089204
0.08678075 -0.38400277 0.4405294 0.041933335 -1.0724757 0.9259719 -0.06420787 0.2035084
0.59513026 -1.0072571 -0.23754881 -0.019423595 -0.3806473 -0.015959313 -0.38488564 0.01208145
-0.30439585 -0.0263717 0.8150965 0.7172055 0.07343166 0.17988509 -0.09142377 1.1497681
0.3598978 0.9193136 0.31457433 0.6263156 0.16777028 -0.86908066 -0.46557802 0.5934235

network_body._body_endoder.seq_layers.0.bias f4 [128]
00000000: 967c 2bbc b20c 983b fbcb 60bc 7dc3 52bd
00000010: a5c6 2c3c 03b5 e3bb 1ae6 6abb 7f76 aa3c
00000020: 95f8 6a3c 6037 5a3b 3de6 193c 49cf 84bc
00000030: 1798 48bb 9f51 8ebc 71ec 68bc 889e af3b
00000040: a991 883c 3972 91bc db48 d03b 19fd efbc
00000050: 2ec1 36bb aa7d cf3a ddf5 adbb 005b 52bc
00000060: 39fb 1cbc 72a6 a6bc 5202 b6bc 7756 76bb
00000070: 9df8 bcbc ad15 333c f3df 5f3c 906b 1639
00000080: 7541 71bd 43e9 663c 1d54 5a3c d182 7a3c
00000090: d3a3 35bc 929b 3d3b 6672 123c 82b6 25bc
000000a0: f16e ffbb 331b a4bc a027 99bc f03a 3d3c
000000b0: 9670 853c 000b aabc f1d5 8a3a d020 93bc
000000c0: 1709 cfba 2794 7c3c 3481 aa3a ae4d 31bc
000000d0: 01f0 0f3d 8e40 35bc 2b26 873c b257 00bc
000000e0: 9ff3 c73b 8aea babc f5ce cb3b 638e a0bc
000000f0: 1bf4 8abc 4d4b 87bb 4766 a7bc b423 f1bc
00000100: 62c1 3dbc 5b4a 083d 02c4 7d3c 81a7 7bbc
00000110: eba9 f43b 71b8 b4bc 9a2b 76bc 9d79 96bc
00000120: fed4 323c 13e5 603c 1e13 9d3c 1f5f 07bc
00000130: ba07 27bc fd52 fabb 9543 653c 2145 2bbb
00000140: cfd3 32bd e005 553c 95f3 1e3b 3fdb 22bc
00000150: 33ca c6bc 9947 fd3b 19bc d0bc 9669 e43b
00000160: 440c 013c 00c7 8dbb fe17 cbbb 0f52 f8ba
00000170: 79de a1ba 1bb6 763b 19f2 1dbc cce2 8dbc
00000180: 4f43 0d3b 7ced 503c 176a 0e3c 4b0f 7ebc
00000190: 09e9 293c 6f05 803c 11d3 fa3b 92b5 5cba
000001a0: 6c1b 20bd d4a1 68bc 478b 65bb 9538 123c
000001b0: 0dc5 bd3b 547a 413c cd7c 3dbc a806 9cbc
000001c0: a4d8 b5bc c361 dbbb 386a 7fbc 9b7a 75bc
000001d0: 3162 753b dbdc 07bd 18c3 66bc 7e31 89bc
000001e0: 5be3 b4bc 37b4 9c3c fc04 063c 681e 12bc
000001f0: 54fc a6ba 0425 c0bc 60ff 26bd 14fe 95bc
-0.010466715 0.0046401853 -0.013720508 -0.051455963 0.010545407 -0.0069490685 -0.0035842718 0.020808456
0.014341493 0.0033297166 0.009393272 -0.016212123 -0.003060823 -0.017372904 -0.014216528 0.0053594746
0.016671019 -0.01775466 0.0063563413 -0.029295491 -0.002788614 0.0015830297 -0.00530885 -0.012839079
-0.0095813805 -0.02034304 -0.022217903 -0.0037588158 -0.023067767 0.010930461 0.0136642335 0.00014345185
-0.058900315 0.0140937 0.013325718 0.015289978 -0.011086422 0.0028931838 0.0089384075 -0.010114314
-0.0077952077 -0.0200325 -0.018695652 0.011549696 0.016289037 -0.020757198 0.0010592324 -0.017959982
-0.0015795556 0.015416182 0.0013008476 -0.010821743 0.035140995 -0.011062754 0.016497692 -0.007833408
0.00610204 -0.022816915 0.0062197396 -0.019599145 -0.016962102 -0.0041288496 -0.020434512 -0.02943597
-0.011581751 0.033274036 0.015488626 -0.01535976 0.007466545 -0.022060605 -0.015025044 -0.018368537
0.010915039 0.013726491 0.019174155 -0.008262425 -0.010194713 -0.0076392875 0.013993164 -0.0026133733
-0.043659028 0.013001889 0.0024254073 -0.009939968 -0.024266338 0.0077294824 -0.025480317 0.0069705946
0.0078764595 -0.004326701 -0.0061979285 -0.0018945354 -0.0012349627 0.0037645164 -0.00964024 -0.01732006
0.0021555012 0.012751933 0.008692286 -0.015506576 0.010370501 0.015627591 0.0076545556 -0.000841939
-0.03908865 -0.014198739 -0.0035025643 0.008924623 0.0057913125 0.01180895 -0.011565399 -0.019046143
-0.022198029 -0.0066950037 -0.015589289 -0.014982845 0.003744256 -0.03316961 -0.0140846 -0.016747233
-0.022081068 0.019128902 0.008179899 -0.008918382 -0.0012739995 -0.02345515 -0.04077089 -0.01830963

network_body._body_endoder.seq_layers.2.weight f4 [128, 128]
00000000: 7e13 bc3d af4f 3c3d e894 073c 3e05 67bc
00000010: 2f42 74be b90c 87bc 7a40 bb3d e419 9f3d
00000020: e344 96bd 8266 9abc 7379 9d3d cd27 d0bd
00000030: f32f 4fbc 4b87 39bc 6dc8 03be 8677 e4bd
00000040: 1237 abbd 83e3 90bc cd7e 90bd 173d aebd
00000050: 89fa 22be 899b 3b3d 6597 083c 363c 0b3c
00000060: 5916 693d 41e6 793d 5cab 45bd 04a3 18bd
00000070: da2b abbb 2cee a8bd 914d d33b 5832 083d
00000080: 67e1 c83c a266 b3bd ae03 003e 39ed 30bd
00000090: 6e31 883d 673f 123c 59fa a83d e23d fcbd
000000a0: 3681 01be c5bb de3d 91f3 6f3d 8770 89bc
000000b0: 3263 fa3c 11cd 8cbd ef57 9ebd b8b7 10be
000000c0: 9f11 993c 844e 1e3d c17c 8cbd d410 5cbd
000000d0: 7359 df3d 274c 0dbe 7147 463d a8c8 fb3d
000000e0: 53fe 773d 76e0 8738 4509 de3d ac24 7cbd
000000f0: e21f 953d 777d 5e3d a341 aabc 1bfa abbd
00000100: ba3c 883d 82c6 e93d c147 223e f0bf 0f3c
00000110: 7098 153e 33f0 613d c9a2 85bd 9fc6 463c
00000120: 4d24 f4ba 5d55 4d3e 8b76 0abe ec02 ad3d
00000130: 8b1a 5dbd 4391 12bc 16a5 91bd 6362 5b3d
00000140: e4d0 873c 6164 74bc a59d e3bd 564c 823d
00000150: b6b4 e33d 0b7b a83c 231f 813d 686d 08be
00000160: 60a5 8ebb cb35 923d 6219 d8bc da16 fe3d
00000170: 86ea a4bd 7942 fd3d 5340 cebd 1a31 133d
00000180: ecd1 e43c 445e 2abe 6449 de3b dd61 303c
00000190: 2ffa 2c3e c365 1fbe fa7a 993c 721d d53d
000001a0: 44ed 06be ac88 27be c3f5 06be 07e3 dabb
000001b0: e884 8b3c 01d6 35be fe5b 5cbd 5e78 b9bd
000001c0: 5582 adbd 8827 aabd 4c05 8fba a01d 3c3d
000001d0: a4f7 56bc 00f7 183e dddb bebd c2fd 713d
000001e0: 378a afbd 426b 21be 5952 debc f232 7abd
000001f0: 7912 7dbd 213a 183e 7343 27bd 7dc9 63be
00000200: e7b2 053e e367 0ebd d037 1cbe afae fb3c
00000210: bad5 4ebe 56f0 703d 2f55 f63c 8455 babd
00000220: b089 cdbd 352f 9a3d d8b4 6a3d 3ab4 f33c
00000230: b38d 14be a592 29be 173d 793d edf7 a3bd
00000240: d4c6 6d3a 8b4c b43d 39c7 14be cd17 09bc
00000250: fafd 11bd 41fe efba a1ff 48bb 75d0 a6bd
00000260: 798d f53d e6df 6cbd b35c 3cbd fee3 17bd
00000270: 38af dbba 4ed7 133d f403 583e 7148 853d
00000280: a574 103d afa7 a93b b935 a73c 4f9a 183e
00000290: b752 913d 6d26 89bc 998e 3d3d a394 a7bd
000002a0: 7b90 abbd 0b6e 67bd ee4b 483d 433f c43d
000002b0: ceb6 a0bd 743a 223d 4e50 403d fd07 82ba
000002c0: a119 2cbe 28e9 fcbd 9486 c03d e466 cbbd
000002d0: 5c15 3e3d ad72 00bd ec23 113e 98ec 04bd
000002e0: 54ee 013e 929f 82bd 2c17 e8bc b926 9dbd
000002f0: 1979 18be e289 f4bd 999e ad3d a88c e7bd
00000300: 5fbc 0e3b ddfa 563d ffeb ef3d 859e 0dbe
00000310: 8515 66bd 1fa0 e2bd 4bba db3d 69cc 7f3c
00000320: 7fb2 5dbd c989 5fbd b647 98bc 268c d83d
00000330: 3277 b43d bc48 f83d 4587 e63d c500 8abd
00000340: 47af 94bd c3fb e73d 12f8 43be a603 39bc
00000350: 78fd a93d 7008 d93d 6df3 fb3b 9cfa 813d
00000360: 592f 003e 28a1 173e 9a07 3fbe 1503 de3d
00000370: 5c95 263d fdce 173e 5b57 353d 3103 80bd
00000380: 9e7d 65bc 20e3 a1bd 8e71 d1bd fd1f 573d
00000390: 7f33 783d e26e a7bc e307 74bd 1716 91bd
000003a0: 9551 83bd 622d b93d 9c2e c23b 1df9 d23b
000003b0: ccfe f13b 6596 3cbd bd40 1a3e c7eb 4abd
000003c0: ed0b 5fbd 60c2 ab3d cea5 4cbd dc47 c83d
000003d0: 307b ab3d f3be 82bc 7aa5 a8bd 93de 0d3d
000003e0: 88be 52ba 1ee4 ac3c 0a07 ed3c 8ffd 56be
000003f0: c122 123d f744 0f3e 6337 0a3e b602 9f3c
0.09183405 0.04597443 0.008275248 -0.014100371 -0.23853372 -0.016485559 0.09143157 0.0776861
-0.07337358 -0.018847708 0.0768918 -0.101638414 -0.012645709 -0.01132376 -0.12869425 -0.1115561
-0.08360113 -0.017686611 -0.07055435 -0.08507746 -0.15915884 0.045802627 0.0083368765 0.008498242
0.056906078 0.061010603 -0.048259124 -0.03726484 -0.0052237334 -0.08248553 0.0064484556 0.033251137
0.024521543 -0.0875981 0.12501404 -0.043194983 0.06650053 0.008926249 0.08250875 -0.12316491
-0.12646946 0.10875658 0.058581892 -0.01677729 0.030564878 -0.06875051 -0.07731616 -0.14132583
0.01868516 0.038649097 -0.068597324 -0.053726986 0.10905733 -0.13798581 0.048407976 0.122941315
0.060545277 6.479111e-05 0.10841612 -0.06155841 0.07281472 0.05431887 -0.020783251 -0.08397313
0.06652208 0.114148155 0.15847684 0.008773789 0.14608932 0.055160712 -0.065251894 0.012132316
-0.0018626541 0.20052095 -0.13521783 0.08447823 -0.05398039 -0.008945766 -0.07111566 0.053560626
0.016579099 -0.01491651 -0.11114053 0.06362216 0.11118452 0.020566484 0.06304767 -0.13322985
-0.0043532103 0.071391664 -0.026379291 0.12406702 -0.08052544 0.12366194 -0.100708626 0.0359355
0.02793213 -0.16637522 0.006783651 0.01076552 0.16892312 -0.15566163 0.018735398 0.10406007
-0.13176447 -0.1636073 -0.13179688 -0.006679896 0.017031148 -0.17757417 -0.053798668 -0.09056161
-0.084721245 -0.08308321 -0.0010911613 0.04592669 -0.013120566 0.14937973 -0.09319279 0.059079893
-0.08571284 -0.15763572 -0.027138876 -0.06108374 -0.061785195 0.14865924 -0.04083581 -0.2224483
0.13056527 -0.034767043 -0.15255666 0.030722944 -0.20198718 0.058822952 0.030069916 -0.09098342
-0.100360274 0.07528535 0.057301372 0.029749025 -0.14507179 -0.16559847 0.060849275 -0.080062725
0.000907046 0.08803662 -0.14529122 -0.008367491 -0.0356426 -0.0018310026 -0.0030669945 -0.08145229
0.119898744 -0.057830714 -0.045986842 -0.037082665 -0.0016760593 0.036094002 0.21095258 0.06507958
0.03526749 0.00517746 0.02041136 0.14902614 0.07095855 -0.016741956 0.04627857 -0.08182647
-0.08377167 -0.05650143 0.048900537 0.09582379 -0.07847367 0.039606526 0.046951585 -0.0009920594
-0.16806652 -0.123491585 0.09400669 -0.09931734 0.04640709 -0.031359363 0.1417386 -0.032452196
0.12688571 -0.06378092 -0.028331362 -0.076734014 -0.14889945 -0.119403616 0.08477516 -0.11306125
0.0021779758 0.052485336 0.117149346 -0.13830002 -0.056172866 -0.11065697 0.10728892 0.0156127
-0.054125305 -0.05457476 -0.018588882 0.10573606 0.08811797 0.12123248 0.11256269 -0.06738428
-0.07259994 0.113273166 -0.191376 -0.011292374 0.083002985 0.105973125 0.0076889307 0.06346628
0.12518062 0.1480757 -0.18655244 0.108404316 0.040669784 0.14825054 0.04427276 -0.06250609
-0.014007 -0.07904649 -0.10226737 0.05252074 0.060595986 -0.020438615 -0.059577834 -0.070842914
-0.06412045 0.09041859 0.0059259664 0.006438388 0.0073851105 -0.046041865 0.15063758 -0.04954126
-0.054454733 0.083866835 -0.04996281 0.09779331 0.083731055 -0.015960192 -0.08234687 0.03463609
-0.00080392556 0.021104869 0.02893402 -0.20995162 0.035677675 0.13991152 0.13497691 0.019410472

network_body._body_endoder.seq_layers.2.bias f4 [128]
00000000: b91d 883c 095d 233c 39d5 503c 74b1 e7ba
00000010: 5a48 3b3c cae5 6a3b b0b3 f0ba 4b0b 273c
00000020: 7cd9 213d ff69 883a 1bea 873c 217e d5bc
00000030: 82bf 30bc d252 f6bc 16d1 32bc 8431 a5bc
00000040: 7c47 39bd f313 a5bc b4cb 13bc 8ccb 81bc
00000050: cc9e 3d3a d7b5 2fbd 4435 d6bc 241f 2a3c
00000060: 86b3 cbbc de83 843c 6b5c 3bbb 5e79 1cbd
00000070: b92d 07bc c5eb 4e3c 4fc7 b03c cd01 113c
00000080: dd07 b73b 31dc 8d3c 6bc6 273c 98ab 1dbd
00000090: cf1a 19bb 946f f23a 45cc d8bb f366 e1bb
000000a0: c612 9c3c 734f 02bd 2929 20bd 288a 863c
000000b0: 02e0 d7bc 1d9f be3b 30d1 283c a06a 9fbc
000000c0: dc22 19bd 4801 c3bc 8449 d43c 8981 953c
000000d0: 16a9 903c ae53 db3b 39a2 5e3c ff45 59bc
000000e0: 4bd4 dabb 196a b93b 1951 973c ec03 dabc
000000f0: ab50 efbc 47b9 2ebd dd35 a83c eeeb c43a
00000100: f69f a3bc 1ad3 0abd 7e3c c5bc de1f e8bc
00000110: 24be a3bc e946 093c acd6 2a3c b532 e13c
00000120: faaa a13a 248b 2abc a6c0 bcbb 5eab 943c
00000130: b962 053c 5e07 9d3c 4573 653b 4251 21bc
00000140: 0a07 a2bb 68f8 9c3c 33c0 73bb fea7 89bc
00000150: 51cb 9a3b ddba a73b b951 e3bc 9c48 19bd
00000160: c421 a03c 2752 943a 32cf 9e3c 1b8c 943c
00000170: c441 51bc dcd5 243c 97f1 e6bc 6c46 55bc
00000180: deb1 2c3c 66a9 0d3c 4d2c 1cbd 0257 d8bc
00000190: 230c 04bd ff0d cc3c 6bb4 0dbd 8cbc 75bc
000001a0: 07a1 8abc fb72 e8bc d52e 9c3c f895 0abd
000001b0: b050 7c3c 6ed5 efbc 037f 91bb aa82 503c
000001c0: 1880 3b3b cd8c 81bc 59b9 a1bc 529e febc
000001d0: f101 063c 91f5 c7bc 1040 cebb f0e0 e0bc
000001e0: 2e98 393c 31d5 3b3c 15b8 2bbd 6677 8b3b
000001f0: 8744 083b f0c4 97bc 94be 26bd 5421 c4bc
0.016615735 0.009970912 0.012746149 -0.0017676787 0.011430824 0.0035842531 -0.0018364098 0.010195564
0.03951405 0.0010407566 0.016591122 -0.02606112 -0.0107878465 -0.030068789 -0.010914108 -0.020165212
-0.04523419 -0.020151114 -0.009020735 -0.015844129 0.00072334404 -0.042898025 -0.026148446 0.010383401
-0.024865877 0.01617616 -0.002858902 -0.038201682 -0.008250647 0.012629454 0.021579413 0.008850527
0.005585654 0.01731691 0.010240178 -0.038493723 -0.0023361926 0.0018496388 -0.0066161477 -0.0068787276
0.01905192 -0.03181405 -0.039101753 0.0164233 -0.026351932 0.0058173076 0.01030378 -0.019460022
-0.03738676 -0.023804322 0.025913961 0.018250244 0.017658751 0.006693325 0.013588482 -0.013261317
-0.0066781393 0.0056584 0.018471288 -0.026613198 -0.02921327 -0.042657163 0.020533497 0.0015023926
-0.019973736 -0.03389273 -0.024076696 -0.028335508 -0.019988127 0.008378723 0.010427158 0.02749
0.001233428 -0.01040915 -0.00576027 0.01814812 0.008141213 0.019168552 0.0035011333 -0.0098460335
-0.004944687 0.019161418 -0.0037193417 -0.016803738 0.0047239442 0.0051187114 -0.02774893 -0.03742276
0.01954735 0.0011315987 0.019385908 0.018133214 -0.012772027 0.010060754 -0.02819137 -0.013017278
0.010540454 0.008646345 -0.038128186 -0.026408676 -0.032238137 0.024909018 -0.034595888 -0.014998566
-0.016922487 -0.02837514 0.0190653 -0.033834428 0.015400097 -0.029276576 -0.00444019 0.012726465
0.0028610285 -0.01581421 -0.019741701 -0.031081352 0.008179174 -0.024409087 -0.006294258 -0.027451009
0.011327786 0.011464403 -0.0419236 0.0042561768 0.0020792799 -0.018526524 -0.040709093 -0.023941673

action_model._continuous_distribution.log_sigma f4 [1, 2]
00000000: fc78 79bc 05a7 fd3c
-0.015226599 0.03096343

action_model._continuous_distribution.mu.weight f4 [2, 128]
00000000: 2009 0e3d 82bf a83c 0a80 30bb 9c5e 803c
00000010: 108f 04bb b0d2 0f3c 82af 6f3c b59e be3c
00000020: 7fc9 61ba e391 d73c 2f22 81ba ba52 94bb
00000030: 5329 a53c 2450 a9bb ebef 60bd 5d53 08bb
00000040: cab2 e6bc 2164 18bd e484 28bd e7a5 5dbd
00000050: 0a77 133d 5eee 8fbc 5d4d f0bb 3c49 fcbb
00000060: 289a 953b 3a78 e73c 24e4 cbba 9134 26bd
00000070: 8028 813c a8f8 a13a 7934 423d 8944 e53c
00000080: 3a77 d63c 0266 0b3c d29e 92bc 3ea6 a1bc
00000090: b977 aabc 8fe1 243c ece0 f4bc d518 343c
000000a0: 0bce 083d d398 77bc d28a 28bd 5bcc 913c
000000b0: ee8a 1bbb 4f55 2bbd 14fa 913c 90e8 21bc
000000c0: 30e7 1abd 7141 14bc 2fa3 833c b39e 103d
000000d0: 077a e13c 138b 2fbb 3029 a53c db99 ae3c
000000e0: 9b6c 583c 6c11 653b 732f 7f3c d3a8 6fbc
000000f0: 6d43 05bd 874c e7bc 09a4 293d e43a 923c
00000100: 63ec 6e3b a263 e2bc 964d eb3b 8584 e1bc
00000110: 00d2 82bb 5e05 423b 7bf1 3f3c ec83 e2bc
00000120: 5050 09bd 3a6a 603c 0187 343c 5329 40bb
00000130: 4bc2 05bd de0f 123d abe0 ccbc 2bf0 78ba
00000140: d343 e53c 34cf abbc f249 ec3c 5b73 66bc
00000150: cebc a93c 0352 83ba 77a7 c7bc 8b3c edbc
00000160: 4d41 99bb 9d21 0f3c 8f6e 093d 5481 bdba
00000170: 31aa 363c c958 d13c 160f a0bc e061 31bb
00000180: def0 8c3c f65d db3c 272c 0dbd a828 3abc
00000190: 0a4f f8bc f39e cbb9 ffdb d63b b91e 1bbd
000001a0: e203 2cbc cd5f 88bb 7222 003d 2979 03bd
000001b0: 3697 f93c 8b14 1ebd 26bd 4e3c c589 b93c
000001c0: cf7f 363d 8139 35bd 9656 4dbd ae9e f1bb
000001d0: ece9 a53c 6d6f 11ba c894 8d3c 3547 17bd
000001e0: ef74 b23c d033 8c3c 8ede 2ebd a8eb 613d
000001f0: 2adb 59bd ac54 db3a 48d8 69bc a14f 83bb
00000200: 25ba 2e3b 4134 413b 3856 2c3b 4518 0fbc
00000210: 8c39 8a3b dae1 dd3b 8b1a 2c3b 3b0c e1ba
00000220: 9843 e83b 6b7f b0bc 2967 943a 866a 49bc
00000230: 7e8f 44bc b7a2 24bc 1a0f 963a 3ccd 07b9
00000240: e858 67bd a582 ebbb 9c2e 543b 2698 48bc
00000250: 96b7 4dbc 943d b8bc 3fa1 2dbc c457 b03c
00000260: 23c6 dabb 64b3 8c3c 519a 033c 0e4b 0fbd
00000270: 1ac1 0bbc 7acf 113d 70d3 293d 6566 c6bb
00000280: a976 09bc e9f2 983c 3835 7e3c 3758 94bc
00000290: a1b1 193c 0536 143b af6e aabb 25ae 73bc
000002a0: ea8e 9e3c 4591 93bc 18f9 febc 4c35 343c
000002b0: 34fc d8bc 8753 a33c d33d 29ba a79d cabb
000002c0: 747a 81bd 4557 e3bb fa6d 313d 4260 4f3c
000002d0: e101 b13c 1a19 383c fafc 4b3c 6e9b c6bc
000002e0: 7ee1 4bbb 70c6 de3b 6421 0c3d 907a 73bc
000002f0: 0190 71bc 0b7a 14bd f8e2 b83b ff68 9bbb
00000300: 2a55 99bc b58c a7bc 7d72 31bd 93e8 60bc
00000310: 3a0d e8bb 117c 813b 2ba3 103c 2d5b 7c3d
00000320: 451e 153c b671 84bc 3abf adbb 2fb5 d63c
00000330: e6e2 8a3c 67e4 b33b 46c6 573b 1923 f0ba
00000340: a6f6 6ebc 93a4 7c3c fd6e 9abc 0190 3bbc
00000350: d054 a3bb bb36 7dba 43be 37bc d14e acbc
00000360: 0013 193b 73fd 3fbc d9f1 203d 6f9e d33b
00000370: 933b 41bc 85ed 91bb b5ae 84bc e2f1 29ba
00000380: cc0e ec3b 117f f7bb 476b efbc 56c5 05bc
00000390: da2f acbc a6ce 44ba e624 19bd 2776 903b
000003a0: 2eb2 45bb a691 36bc 7fd0 013d 253d 8dbc
000003b0: daac ed3b 1437 78bc 13f4 91bc 416a 41ba
000003c0: 79e5 9ebc e5c8 7ebb 4d82 b1bc 085f 8ebc
000003d0: 711d b9bb 8b59 62bb 5ace 90bb 3acd 2fbc
000003e0: 30fd a23b 18da b4bb cbbe 23bd 5af1 c8bc
000003f0: 1908 b43c a3f9 5f3a 104f c7bc 91f8 7e3a
0.03467667 0.02059913 -0.0026931786 0.015670113 -0.0020226873 0.008778259 0.014629247 0.023269037
-0.0008613094 0.026314681 -0.0009852106 -0.0045264633 0.020161306 -0.005167024 -0.054916304 -0.0020801642
-0.028161425 -0.037204865 -0.04114236 -0.054113295 0.036002196 -0.017569717 -0.007333441 -0.00769916
0.004565496 0.02825557 -0.0015555662 -0.040577475 0.015766382 0.001235743 0.047413323 0.027986782
0.026179899 0.008508207 -0.017897997 -0.01973259 -0.020809041 0.010063543 -0.029892407 0.010992249
0.033399623 -0.01511212 -0.041148014 0.01779764 -0.0023733932 -0.041829403 0.017819442 -0.009882107
-0.037818134 -0.009048806 0.016069023 0.035307597 0.027524007 -0.0026785776 0.020161241 0.021313598
0.013209487 0.0034953011 0.015575278 -0.014627653 -0.032535005 -0.028234733 0.0414162 0.017850347
0.0036456815 -0.0276354 0.00718088 -0.02752901 -0.003992319 0.002960525 0.011715288 -0.027650796
-0.033523858 0.013697201 0.011018516 -0.0029321506 -0.032655995 0.035659663 -0.025009474 -0.0009496237
0.027986443 -0.020972826 0.028843854 -0.014065589 0.020719912 -0.0010018948 -0.024371846 -0.028959533
-0.004676974 0.008736041 0.033552703 -0.0014458098 0.011148975 0.025555031 -0.019538444 -0.0027066395
0.017204698 0.026778203 -0.034465935 -0.011362232 -0.030311126 -0.00038837604 0.0065569873 -0.037871096
-0.010498973 -0.004161811 0.03128285 -0.03209797 0.03046761 -0.03859381 0.012618339 0.022648701
0.04455548 -0.044244293 -0.050131403 -0.0073736524 0.020253144 -0.0005547915 0.017282858 -0.036933143
0.021784274 0.01711455 -0.042692713 0.05515638 -0.053187527 0.0016733608 -0.014272757 -0.0040072952
0.0026661244 0.0029480609 0.0026296508 -0.008733814 0.004218286 0.0067713084 0.0026260938 -0.0017169783
0.007088136 -0.021545133 0.0011322248 -0.012293464 -0.011997102 -0.01004856 0.0011448592 -0.00012951059
-0.056481272 -0.007187205 0.0032376414 -0.012243306 -0.012555977 -0.0224903 -0.010597526 0.021526225
-0.006676452 0.017175384 0.008032397 -0.034983687 -0.008529926 0.035598256 0.04146141 -0.006054687
-0.008390107 0.018670516 0.015515618 -0.01810847 0.009380729 0.0022615206 -0.005201183 -0.014873062
0.019355256 -0.018013606 -0.031124637 0.010999035 -0.026487447 0.01993729 -0.0006456051 -0.0061833444
-0.06322184 -0.0069378936 0.043317772 0.012657227 0.021607341 0.011236453 0.012450451 -0.024244037
-0.0031109746 0.006798558 0.03421153 -0.014860764 -0.014743806 -0.0362492 0.005642291 -0.004742741
-0.018717367 -0.020452837 -0.043322075 -0.013727325 -0.007081655 0.0039515574 0.008827965 0.06161039
0.009101455 -0.016167503 -0.005302337 0.026209442 0.016953897 0.005489874 0.0032924577 -0.0018321007
-0.014585173 0.015420097 -0.018851751 -0.011447907 -0.0049844757 -0.00096593396 -0.0112147955 -0.021033676
0.0023357272 -0.011718142 0.039293144 0.0064580957 -0.011793989 -0.0044533634 -0.016196588 -0.0006482882
0.0072039124 -0.0075529893 -0.029225959 -0.008164724 -0.021018911 -0.00075075997 -0.037388705 0.004408616
-0.0030166018 -0.011143124 0.031692978 -0.01724107 0.0072532715 -0.01514985 -0.017816579 -0.0007378199
-0.01939653 -0.0038877067 -0.021668578 -0.017379299 -0.0056492616 -0.0034538235 -0.0044191303 -0.010730082
0.00497403 -0.005519163 -0.039976876 -0.024529148 0.021976518 0.00085439737 -0.024329692 0.00097263703

action_model._continuous_distribution.mu.bias f4 [2]
00000000: 85d8 853c 1624 df3c
0.016338596 0.027238887

action_model._discrete_distribution.branches.0.weight f4 [1, 128]
00000000: dfe3 c7ba 7a7e 73bc 52ae 3a3c 8dde 70bb
00000010: 6590 0dbc d78e 043b 7772 f8ba d6c7 3c3c
00000020: cd2c 7c3c 3b83 02bc c819 ad3a ef19 c3bb
00000030: 8f8d 16bb 8799 0c3c deb8 8bbc 97a4 a9bb
00000040: aa14 f8bc bbc8 183c 15b6 d7b8 e880 1d3c
00000050: 65f0 2a3c 60bf 93bc 371b 96ba 94f1 a93a
00000060: b92f c23b 9d3b 0b3c e544 69bc 9776 8f3b
00000070: 6bd9 b8bb 8edd 203c 6152 3fbc 0a94 663c
00000080: 68b4 50bc c7ab 2dbc aee4 903b 34a2 99bb
00000090: b6db c63b 8d74 07bc 32f9 543b 8572 46bb
000000a0: 8a75 cabb 575b 8e3b abd8 263c 01b3 3c3a
000000b0: a0b8 d4bb 2e14 413c b755 e33b ba3d 9fbb
000000c0: 9fc4 92b9 6795 b1bb 7588 c8ba 90be cdbb
000000d0: f8fd da3b 95d0 96bb d6de adbb 5f05 efba
000000e0: 347a c63a b3e9 e7ba 3e4a 173c daff 1239
000000f0: 8681 81bb 0b70 6bba ab73 9a3b 07fe c2bb
00000100: e778 43bb f3fc b93a c814 6a3c 50bc c73b
00000110: a65c 3dbc aa69 6dbc a718 02bb 006f d43b
00000120: a5ea a9bb 57cb 303b db43 b93c 5c2f 3fbb
00000130: c4bd b33b 6375 043a 6da7 e839 f7b4 32bc
00000140: dd02 f1ba 5f2a 4ebc 6e80 25bb f39e 25bc
00000150: 70ec 66ba ba3a 513b 2054 08bb 05df c23a
00000160: d7e2 0abb 4bf8 373c b815 adbc bc5c 99bc
00000170: 2cab 34bb 9cc3 3c3a 4ee6 11bc 65a9 3b3b
00000180: cc2f 873c 1c9a c43b 2a14 023c 8b5c 40ba
00000190: b28f 1ebc b295 f8bb 9f9d 4c3c 1970 32bc
000001a0: 8aab f3b8 1b0d 02bc bcde 20bc 237a 133c
000001b0: 928c 75bb 50f5 d83b d86b 663a fd7c 293c
000001c0: 9d56 a7ba 3551 4b3a 2b1f 353c abd3 15bc
000001d0: 48e6 f83a d5ad 633a 9370 143b 17c3 4cbc
000001e0: a9de 843c cb7a ca3b a92c 1cbc 4f5a 4b3c
000001f0: baed a8bc bcbe 12bc 5b3a 9cbb fa5a 51bb
-0.0015250406 -0.014861697 0.0113941 -0.0036753744 -0.008640383 0.002022674 -0.0018955012 0.011522254
0.015391541 -0.007965858 0.0013206536 -0.0059540193 -0.002297256 0.008581526 -0.017055925 -0.0051770913
-0.03028329 0.009325202 -0.00010285914 0.009613253 0.010433291 -0.01803559 -0.0011452202 0.0012965673
0.005926099 0.0084981 -0.014237617 0.0043781507 -0.0056411526 0.009818448 -0.0116773555 0.014073381
-0.012738325 -0.010600037 0.004421792 -0.0046885256 0.006068672 -0.008267534 0.0032497165 -0.0030280661
-0.0061785625 0.0043443847 0.010183494 0.00071983045 -0.0064917356 0.011784596 0.0069377082 -0.0048596533
-0.00027993784 -0.0054194215 -0.0015299456 -0.0062788203 0.0066831075 -0.0046025016 -0.005306105 -0.0018235854
0.001514262 -0.0017693549 0.009234009 0.00014018957 -0.003952208 -0.0008981234 0.0047134957 -0.0059506926
-0.0029826702 0.0014189765 0.014287181 0.0060954466 -0.011557734 -0.014490524 -0.001985112 0.006482959
-0.0051854425 0.0026976669 0.022615364 -0.0029172515 0.0054852683 0.00050528924 0.0004437523 -0.010907403
-0.0018387694 -0.012583344 -0.0025253552 -0.010108697 -0.00088090356 0.0031925873 -0.0020802096 0.001486749
-0.0021192336 0.011228631 -0.02112852 -0.018720977 -0.0027567847 0.0007200779 -0.008905007 0.0028634903
0.016502284 0.0059998166 0.007939378 -0.0007338009 -0.009677814 -0.0075862044 0.012488752 -0.010890984
-0.000116190946 -0.007937695 -0.009818729 0.009001288 -0.003746782 0.0066210404 0.00087898737 0.010344741
-0.0012766902 0.0007755936 0.011054794 -0.009144704 0.0018989528 0.0008685266 0.0022650107 -0.012497685
0.016219454 0.006179189 -0.009532132 0.012411668 -0.02062117 -0.008956607 -0.0047676987 -0.0031945095

exp_avg f4 [128, 5]
00000000: d0c9 5cb9 f548 dfb8 0000 0000 4185 92b8
00000010: 75d6 4231 a7a1 e339 29f0 a439 0000 0000
00000020: 20bd 1b39 a507 d2b1 849d 6b38 03d8 9138
00000030: 0000 0000 fc0d c538 d4f9 82b1 7ceb 0138
00000040: a6ea f737 0000 0000 aa50 4638 c822 03b1
00000050: 29a1 67b7 f8d8 8c38 0000 0000 dccd 3439
00000060: 7e48 efb1 98f8 a439 3e1b 6e39 0000 0000
00000070: b943 0e39 3519 bfb1 6e59 aeb9 c71d c5b9
00000080: 0000 0000 4061 9fb9 59c4 5532 90a0 11b8
00000090: 2403 1ab8 0000 0000 fa88 3eb8 a87d fd30
000000a0: a564 0fb8 f7df feb8 0000 0000 89fc 17b9
000000b0: 2e1f cb31 0287 3a37 2d39 3938 0000 0000
000000c0: 1408 a838 cf51 5fb1 3096 15ba 051a 0fba
000000d0: 0000 0000 fdaf c1b9 4920 8232 f3fa 0139
000000e0: 5d6c 0e39 0000 0000 1b6f 2739 b935 dfb1
000000f0: a2f0 9a39 ec07 8139 0000 0000 438b 1039
00000100: 3d5e c2b1 c74e af38 62b5 b538 0000 0000
00000110: 6339 ed37 d90c a3b0 7d67 7539 5c02 7339
00000120: 0000 0000 8a77 5139 e71a 0cb2 4700 a7b8
00000130: 6d73 0fb9 0000 0000 ac00 6eb9 c53b 1e32
00000140: 8564 bfb9 f2f6 c8b9 0000 0000 f5da 8ab9
00000150: 9989 3a32 28dc ca39 9c5c d239 0000 0000
00000160: 45fd 9e39 a20b 55b2 9c4d 7b39 af86 3439
00000170: 0000 0000 a6ed 7638 adcc 27b1 89b5 a836
00000180: 4a5c 51b7 0000 0000 a11b 95b6 1f6a 512f
00000190: 71e0 c5b8 925c d0b7 0000 0000 2db3 3f37
000001a0: d094 fbaf 27a4 2ab8 52cd 8f38 0000 0000
000001b0: 716e b538 584c 73b1 448f 5fb9 6f65 d2b8
000001c0: 0000 0000 f5a9 2db8 0874 e830 b020 ad38
000001d0: fb22 c138 0000 0000 9baa 0539 dac5 b1b1
000001e0: 0ee9 9cb6 6656 1a38 0000 0000 e3a5 6f38
000001f0: 5dd1 1fb1 fb07 5c39 bb67 4f39 0000 0000
00000200: e73f 1139 c1ca c2b1 e269 35b8 28db 14b8
00000210: 0000 0000 bf1a 9eb7 0462 5530 14b5 8436
00000220: 035a 6838 0000 0000 e307 8538 080a 32b1
00000230: d435 2039 1875 2439 0000 0000 3aea a138
00000240: 49bd 5ab1 62a2 07ba ea23 fcb9 0000 0000
00000250: ca94 a8b9 c96d 6232 54ed 88b9 85ae a7b9
00000260: 0000 0000 b765 5eb9 f1dd 1532 fa21 6238
00000270: 17ee 0939 0000 0000 ff40 5739 c416 0fb2
00000280: 70a6 9837 5760 d9b6 0000 0000 09bd 9337
00000290: 7e02 3fb0 47aa dab9 b238 00ba 0000 0000
000002a0: e83d c0b9 9b09 8132 b3c4 32ba 087b 1eba
000002b0: 0000 0000 caad cbb9 7ee9 8832 c20d fcb9
000002c0: 6a1e f1b9 0000 0000 e97f a5b9 3d5b 5e32
000002d0: d51a 3a39 fa84 d738 0000 0000 f7b8 1638
000002e0: e0ec cab0 da77 fdb9 9020 01ba 0000 0000
000002f0: 24d2 a8b9 5109 6332 066d 25b8 bbe4 dfb8
00000300: 0000 0000 7e7a 13b9 1668 c431 2c10 1938
00000310: b532 4838 0000 0000 bf43 de38 6f30 93b1
00000320: 2e0c 5db8 75e7 a6b8 0000 0000 3a2c 0db8
00000330: bf28 c030 8239 6a37 dbac b1b8 0000 0000
00000340: a026 f7b8 a848 a531 7bbe d839 aa4b b139
00000350: 0000 0000 1b94 7239 04a4 22b2 34e2 a7b9
00000360: e6ce b4b9 0000 0000 f699 84b9 6c0a 3232
00000370: a0f7 20b9 8689 89b9 0000 0000 5c67 78b9
00000380: e389 2632 f73b 8239 c1dd 1e39 0000 0000
00000390: 27b0 de38 8f08 95b1 261f 0839 e849 2e38
000003a0: 0000 0000 9dd2 1fb7 77a4 d22f aada 8439
000003b0: de61 7f39 0000 0000 872d 4039 19ac 00b2
000003c0: 2dd8 0db9 bfe8 1ab8 0000 0000 e0e1 a4b7
000003d0: 3975 5730 520e aeb9 d754 aeb9 0000 0000
000003e0: dd0f 90b9 c1c5 4032 72e3 fa38 0925 5c38
000003f0: 0000 0000 d76b d1b6 7e1a 872f 1f67 a638
-0.00021056016 -0.00010647058 0.0 -6.986643e-05 2.835262e-09 0.00043417254 0.0003145945 0.0
0.00014852406 -6.1126735e-09 5.6175064e-05 6.954374e-05 0.0 9.396297e-05 -3.8119e-09 3.097531e-05
2.9553961e-05 0.0 4.7282003e-05 -1.908278e-09 -1.3806196e-05 6.716134e-05 0.0 0.00017242826
-6.964057e-09 0.00031465734 0.00022707597 0.0 0.00013567404 -5.5616973e-09 -0.00033254497 -0.00037596954
0.0 -0.000303993 1.2442876e-08 -3.472023e-05 -3.6719386e-05 0.0 -4.54271e-05 1.8443886e-09
-3.418759e-05 -0.000121533805 0.0 -0.00014494559 5.9116223e-09 1.1117898e-05 4.4160686e-05 0.0
8.012369e-05 -3.2497274e-09 -0.00057062786 -0.00054588943 0.0 -0.0003694295 1.5148673e-08 0.00012395885
0.00013582544 0.0 0.00015967751 -6.4962618e-09 0.00029552454 0.000246107 0.0 0.00013784789
-5.6568568e-09 8.359324e-05 8.664538e-05 0.0 2.8279324e-05 -1.1863462e-09 0.00023403573 0.00023175165
0.0 0.00019976325 -8.155189e-09 -7.963232e-05 -0.00013680542 0.0 -0.00022697699 9.2104e-09
-0.00036505252 -0.0003833096 0.0 -0.00026484547 1.0857911e-08 0.00038692472 0.0004012332 0.0
0.0003032481 -1.2400877e-08 0.00023966137 0.00017216311 0.0 5.8872298e-05 -2.4418043e-09 5.0279236e-06
-1.24788585e-05 0.0 -4.4437625e-06 1.9046141e-10 -9.4354975e-05 -2.4838639e-05 0.0 1.1426205e-05
-4.5762372e-10 -4.0684037e-05 6.857015e-05 0.0 8.651324e-05 -3.540455e-09 -0.00021320308 -0.00010032474
0.0 -4.14047e-05 1.69132e-09 8.255371e-05 9.209473e-05 0.0 0.00012747424 -5.173871e-09
-4.6762934e-06 3.6796926e-05 0.0 5.7136534e-05 -2.3256554e-09 0.00020983808 0.00019779701 0.0
0.00013852083 -5.6691936e-09 -4.3252374e-05 -3.5490055e-05 0.0 -1.8847522e-05 7.7628237e-10 3.954987e-06
5.539694e-05 0.0 6.343403e-05 -2.5908111e-09 0.00015278842 0.0001568388 0.0 7.720706e-05
-3.1830771e-09 -0.0005174038 -0.00048091944 0.0 -0.00032154314 1.3179894e-08 -0.00026116765 -0.0003198275
0.0 -0.00021209462 8.723405e-09 5.3914242e-05 0.00013154034 0.0 0.00020528211 -8.328872e-09
1.8197316e-05 -6.4783194e-06 0.0 1.7611792e-05 -6.9488937e-10 -0.00041707067 -0.0004891261 0.0
-0.00036667218 1.5021945e-08 -0.00068194716 -0.0006045555 0.0 -0.0003884866 1.5938664e-08 -0.00048075436
-0.00045989762 0.0 -0.00031566553 1.2942846e-08 0.00017748338 0.00010276768 0.0 3.593505e-05
-1.4764758e-09 -0.00048345217 -0.00049258117 0.0 -0.00032200024 1.3215257e-08 -3.94406e-05 -0.00010676073
0.0 -0.00014064644 5.716184e-09 3.6493104e-05 4.773094e-05 0.0 0.000105984036 -4.2837693e-09
-5.270185e-05 -7.958609e-05 0.0 -3.365821e-05 1.3981419e-09 1.39608765e-05 -8.4722145e-05 0.0
-0.00011785072 4.810392e-09 0.0004134065 0.00033816445 0.0 0.00023134092 -9.466934e-09 -0.00032021257
-0.00034486427 0.0 -0.00025291712 1.0363333e-08 -0.00015351037 -0.0002623314 0.0 -0.00023689627
9.6938235e-09 0.0002484021 0.00015150664 0.0 0.00010618596 -4.3374437e-09 0.00012981574 4.1553663e-05
0.0 -9.526176e-06 3.8315637e-10 0.0002533992 0.00024355153 0.0 0.00018327507 -7.489711e-09
-0.0001352734 -3.6933223e-05 0.0 -1.9655505e-05 7.838313e-10 -0.00033198536 -0.00033251077 0.0
-0.0002747764 1.1220835e-08 0.00011963294 5.248658e-05 0.0 -6.2412396e-06 2.457518e-10 7.9347046e-05

exp_avg_sq f4 [128, 5]
00000000: 7064 a835 665b b135 0000 0000 5bbe bf35
00000010: 680b ce25 bfb2 d935 1de2 df35 0000 0000
00000020: 7409 0535 3b8d 0726 48c0 bf33 bcde 0d34
00000030: 0000 0000 7bd9 4a34 1de2 ac24 1fc1 1232
00000040: 0af1 a132 0000 0000 4c73 3333 1535 fa23
00000050: da50 7d32 2fe8 1834 0000 0000 fb55 9435
00000060: 79d4 8725 8e9f 4135 ea20 4935 0000 0000
00000070: 1891 7734 16fd 5525 08a7 e136 7670 e936
00000080: 0000 0000 55f2 1f36 7802 d726 319c 8933
00000090: 2d44 a833 0000 0000 5565 ad33 3517 d523
000000a0: 4044 7b36 4585 8136 0000 0000 072b 9c35
000000b0: 43d2 7c26 ee90 fc31 2fd0 8133 0000 0000
000000c0: 004b a333 2fe0 6424 d7d8 dd36 7253 e336
000000d0: 0000 0000 d773 4436 affd c826 bc02 6135
000000e0: 3aa5 8635 0000 0000 fd23 e634 1ddd ab25
000000f0: 3d3b 1e35 d68f 2035 0000 0000 38b9 4e34
00000100: daf7 4e25 6d44 1533 9429 2a33 0000 0000
00000110: 521b 0534 bf2b 8523 c4a5 b635 cfbe c635
00000120: 0000 0000 9b7a 0136 d69e d825 41f0 d136
00000130: f8a5 db36 0000 0000 c635 5a36 8c26 db26
00000140: e143 6b36 c23b 6f36 0000 0000 c024 2e36
00000150: 8f63 5126 d107 e435 d3a8 ef35 0000 0000
00000160: bcdc 0b36 101c 0626 288b ab35 7f07 ae35
00000170: 0000 0000 3f9e 8135 cf70 b925 493c d62f
00000180: 93a6 0f31 0000 0000 62e6 9731 9a6c 8522
00000190: 697e 1134 a16c 3734 0000 0000 b192 5f34
000001a0: fc9b 8824 b546 5e35 9bd2 7c35 0000 0000
000001b0: 575d 6835 e78c b325 cfaa 8c35 d0de 9535
000001c0: 0000 0000 3b5a b035 72d4 b625 4fdf 5b34
000001d0: 1abb 9f34 0000 0000 88e8 4034 a733 1e25
000001e0: 474e b833 16ea 0d34 0000 0000 c633 f533
000001f0: 8188 7b24 33de b534 0e57 c234 0000 0000
00000200: 7cc7 2935 4945 d024 639e e533 8156 f533
00000210: 0000 0000 022f 1d34 5051 d823 d85f 6134
00000220: 0489 8434 0000 0000 933e 2435 1d06 bc24
00000230: a5f6 1035 e60c 1335 0000 0000 a9bc 9c34
00000240: 99b1 fc24 51e5 8836 8365 8c36 0000 0000
00000250: 77ef 0136 43df 7626 b08a ea36 7e8b ec36
00000260: 0000 0000 d471 0b36 b174 d326 7af0 7e34
00000270: e84b 0035 0000 0000 e22c 2f36 cdd2 bc25
00000280: 4613 6831 6d0b 6932 0000 0000 ba76 eb32
00000290: fea1 bd23 a54e 2737 e52c 2937 0000 0000
000002a0: 0e95 c536 171c 1a27 9ccd c436 03b2 cb36
000002b0: 0000 0000 a17c f235 0375 b326 fc64 d836
000002c0: 9e0a dc36 0000 0000 b133 5236 457b c626
000002d0: 6b7d 1036 6167 1236 0000 0000 772d 5b35
000002e0: 31b8 1026 f737 b336 b7aa b536 0000 0000
000002f0: 23aa 1036 1046 9c26 c02a 0835 0b15 1735
00000300: 0000 0000 73c3 7135 0d4b 3725 8fa5 ef32
00000310: 5d99 0234 0000 0000 31a6 0c35 efd8 f524
00000320: c8fb d033 f103 e433 0000 0000 5613 1633
00000330: 08c2 dc23 89a6 2e36 30ba 3736 0000 0000
00000340: 169f 0636 c05e 2826 0940 a035 cc9d a735
00000350: 0000 0000 b6f3 d134 472c b725 f0e2 9c36
00000360: f538 9f36 0000 0000 a742 0936 f297 8626
00000370: 3b24 0a37 f8cf 0c37 0000 0000 f601 5f36
00000380: de05 0527 c1ab ec34 223b 0435 0000 0000
00000390: 87cf 2e34 006a 1525 fb95 b035 e972 b635
000003a0: 0000 0000 9c8c d034 7bd0 c125 2cb6 0e35
000003b0: b196 1635 0000 0000 868e 5834 3288 3525
000003c0: ec12 5935 f3fb 6735 0000 0000 b834 6635
000003d0: 5e25 9225 393e 2836 47f6 2e36 0000 0000
000003e0: b400 c035 1f18 3126 8eca a136 f779 a436
000003f0: 0000 0000 825a aa35 a0aa 9526 7eb9 0335
1.2546207e-06 1.3214128e-06 0.0 1.428601e-06 3.5743033e-16 1.6219782e-06 1.6680602e-06 0.0
4.9560117e-07 4.7028937e-16 8.929106e-08 1.3212679e-07 0.0 1.8891835e-07 7.497616e-17 8.542229e-09
1.8852479e-08 0.0 4.1781547e-08 2.7127535e-17 1.4744922e-08 1.4240571e-07 0.0 1.1051883e-06
2.3562744e-16 7.2130285e-07 7.492623e-07 0.0 2.3056452e-07 1.8560554e-16 6.7249675e-06 6.9570333e-06
0.0 2.3833902e-06 1.4919291e-15 6.407971e-08 7.835511e-08 0.0 8.0743725e-08 2.3103335e-17
3.7441641e-06 3.860014e-06 0.0 1.1635428e-06 8.771502e-16 7.350642e-09 6.044899e-08 0.0
7.6039214e-08 4.962951e-17 6.6115567e-06 6.7748415e-06 0.0 2.9273704e-06 1.3946549e-15 8.382301e-07
1.0031865e-06 0.0 4.2867023e-07 2.9813604e-16 5.894579e-07 5.9813954e-07 0.0 1.9252627e-07
1.7951627e-16 3.4754e-08 3.9619025e-08 0.0 1.239653e-07 1.4438416e-17 1.3608301e-06 1.4807682e-06
0.0 1.9293864e-06 3.7577658e-16 6.2566546e-06 6.54603e-06 0.0 3.2515832e-06 1.5206626e-15
3.505724e-06 3.564856e-06 0.0 2.5949412e-06 7.264637e-16 1.6989599e-06 1.7856022e-06 0.0
2.0841098e-06 4.652862e-16 1.2780993e-06 1.2966192e-06 0.0 9.657305e-07 3.2168826e-16 3.8969208e-10
2.0903925e-09 0.0 4.42087e-09 3.616471e-18 1.3550165e-07 1.7082722e-07 0.0 2.082186e-07
5.9244846e-17 8.2804337e-07 9.4183787e-07 0.0 8.656256e-07 3.114703e-16 1.0480525e-06 1.1166212e-06
0.0 1.3139282e-06 3.1715926e-16 2.0477204e-07 2.9752192e-07 0.0 1.7965988e-07 1.3721816e-16
8.582406e-08 1.3216808e-07 0.0 1.1418119e-07 5.4542572e-17 3.3875548e-07 3.6198657e-07 0.0
6.3247694e-07 9.0322994e-17 1.0692454e-07 1.14244365e-07 0.0 1.4638866e-07 2.3453204e-17 2.0989626e-07
2.4686608e-07 0.0 6.118582e-07 8.154236e-17 5.4003095e-07 5.4780537e-07 0.0 2.9194533e-07
1.0958844e-16 4.079812e-06 4.1841427e-06 0.0 1.9361885e-06 8.565097e-16 6.989889e-06 7.049587e-06
0.0 2.077887e-06 1.4672695e-15 2.3743078e-07 4.7794174e-07 0.0 2.6103157e-06 3.2755646e-16
3.37714e-09 1.3564983e-08 0.0 2.7411591e-08 2.0560027e-17 9.9722865e-06 1.0083638e-05 0.0
5.8884098e-06 2.138702e-15 5.8651913e-06 6.0705947e-06 0.0 1.8066677e-06 1.2452336e-15 6.4490578e-06
6.557747e-06 0.0 3.1322527e-06 1.3772422e-15 2.1530675e-06 2.181587e-06 0.0 8.165002e-07
5.020966e-16 5.341131e-06 5.414094e-06 0.0 2.1556705e-06 1.0843665e-15 5.072616e-07 5.6282505e-07
0.0 9.006391e-07 1.5898148e-16 2.789855e-08 1.2162987e-07 0.0 5.2395905e-07 1.0661931e-16
9.7315535e-08 1.0617794e-07 0.0 3.4942182e-08 2.3934623e-17 2.6024957e-06 2.73775e-06 0.0
2.0060156e-06 5.841512e-16 1.1939566e-06 1.2488395e-06 0.0 3.9106607e-07 3.1775443e-16 4.6755813e-06
4.7452e-06 0.0 2.0453388e-06 9.339303e-16 8.2338765e-06 8.393072e-06 0.0 3.323073e-06
1.8460638e-15 4.4083393e-07 4.925988e-07 0.0 1.6280511e-07 1.2959604e-16 1.3156672e-06 1.35935e-06
0.0 3.8845326e-07 3.3621435e-16 5.316422e-07 5.609864e-07 0.0 2.0168417e-07 1.5745392e-16
8.0866334e-07 8.642084e-07 0.0 8.575839e-07 2.5352284e-16 2.507017e-06 2.6071373e-06 0.0
1.4305319e-06 6.14419e-16 4.8217544e-06 4.9017794e-06 0.0 1.2692328e-06 1.03852e-15 4.907123e-07

exp_avg f4 [128]
00000000: 4585 12b9 24bd 9b39 ff0d 4539 b350 c638
00000010: e0cd b439 bc43 8e39 4561 1fba 0089 beb8
00000020: 8cfc 97b9 1808 2839 01b0 41ba 226f a739
00000030: 458b 9039 6f39 6d38 8f77 d139 b300 eeb9
00000040: f7da 0aba 4afd 1e3a b1ed f638 a61b 15b7
00000050: 32b3 bf37 766e 3539 faa9 adb8 9eaa 8539
00000060: eca5 ef38 ec3f 9139 c31a 1eb8 e707 0539
00000070: 42ea 2139 d094 28ba bc65 deb9 0441 d739
00000080: 0dbd 1338 ee3d 40ba d0ad 4bba f17f 25ba
00000090: ffb8 9638 2bd2 28ba 817a 93b9 c343 5e39
000000a0: 3e2c 8db8 a426 77b9 2294 f239 f799 04ba
000000b0: 6a67 f8b9 2fb0 5e39 9fd2 9fb7 882d c039
000000c0: dce1 24b8 e10f 10ba 856b 51b7 aee3 7338
000000d0: 4f38 1139 fc27 3d39 8131 ff38 e038 3aba
000000e0: 969e 5f39 8303 ef38 122f 1339 35f4 fa39
000000f0: 0e14 c239 322b ddb9 1131 73b7 800f 3f39
00000100: f081 a7b9 738c f5b8 a79c cbba e681 c939
00000110: 37ba a1b9 7408 c438 f8e4 9539 2ce8 5b39
00000120: a05a 1737 ce43 85ba 01cd eeb8 11f2 9a38
00000130: 1d12 ebb8 240f 7639 70e5 4b39 924c 9039
00000140: b84f bf38 8b19 2eba c2db 6739 68fd c535
00000150: 1eaa c9b8 a3ca c4b9 9932 8c38 bcde 57b7
00000160: eff6 4eba 3fc3 c2b9 1b77 3739 45f1 3e39
00000170: 3a6f 4839 8c93 27ba 7f10 7e39 6b7f ad39
00000180: 2994 9139 e5fc a1b9 ec17 53ba 0f6d 82b8
00000190: 9b49 6cba da21 2739 b360 e7b9 31f5 de37
000001a0: 7da8 f5b5 026a bf39 9055 d539 381c 5ab9
000001b0: 92a2 e0b9 90c7 cdb9 9996 a438 cd10 a839
000001c0: c7a1 8639 b217 e8b8 ae29 5cb9 b678 9138
000001d0: d20b 89b9 f38b f637 1bdf aeb8 28f9 6c39
000001e0: 9f74 93b8 8acc 4839 5506 ceb9 c50a 8a39
000001f0: f196 8f39 4f6f b1b9 e857 5d37 3baf 87b7
-0.00013973292 0.00029704825 0.00018792598 9.456407e-05 0.00034485664 0.00027134817 -0.0006079863 -9.085424e-05
-0.00028989126 0.00016024744 -0.00073885923 0.00031935523 0.00027569584 5.6558692e-05 0.00039952665 -0.00045395418
-0.00052969105 0.00060649647 0.000117744676 -8.8875295e-06 2.2852419e-05 0.00017302655 -8.2809434e-05 0.00025494857
0.000114273134 0.0002770418 -3.769506e-05 0.00012686812 0.00015441424 -0.0006430866 -0.00042418938 0.00041056436
3.52236e-05 -0.0007333447 -0.00077697355 -0.0006313315 7.1870156e-05 -0.0006440009 -0.00028129297 0.00021196813
-6.731645e-05 -0.0002357015 0.00046268204 -0.0005058343 -0.00047379296 0.00021237203 -1.9052355e-05 0.00036655017
-3.9310995e-05 -0.000549553 -1.2482405e-05 5.8147758e-05 0.00013849254 0.0001803934 0.00012168568 -0.0007103812
0.00021326015 0.00011397062 0.00014036548 0.00047865664 0.00037017505 -0.00042184588 -1.4495353e-05 0.00018220954
-0.00031949533 -0.00011708671 -0.0015534357 0.0003843449 -0.00030847054 9.347583e-05 0.0002859009 0.00020971958
9.021402e-06 -0.0010167302 -0.00011386909 7.3883806e-05 -0.00011209047 0.00023466029 0.00019445061 0.0002752287
9.1224385e-05 -0.00066413794 0.00022111743 1.4751395e-06 -9.616114e-05 -0.0003753501 6.685145e-05 -1.2866858e-05
-0.00078950723 -0.00037148033 0.0001749661 0.00018209692 0.00019114921 -0.00063925306 0.00024229473 0.00033092065
0.00027766943 -0.00030896734 -0.0008052576 -6.219197e-05 -0.00090136536 0.00015938972 -0.000441318 2.6578638e-05
-1.8302959e-06 0.0003650934 0.00040690275 -0.00020800612 -0.00042845734 -0.00039249333 7.8481804e-05 0.00032055975
0.00025679005 -0.00011067036 -0.00020996362 6.936623e-05 -0.00026139483 2.9390654e-05 -8.338523e-05 0.00022599532
-7.0312286e-05 0.00019149683 -0.000392961 0.00026329435 0.00027387546 -0.00033843002 1.3193094e-05 -1.6174852e-05

exp_avg_sq f4 [128]
00000000: 1a4c d535 4e56 0336 89cb d034 8e29 1434
00000010: 6d6c a635 320b 7335 79b9 0037 50dc 1934
00000020: 7a85 9536 f1e1 8b34 cfbb f736 0571 d335
00000030: 7865 4d35 60cf 9e33 8429 0936 b286 0337
00000040: 2bc8 8236 d687 1f36 51f3 c435 4a23 8d32
00000050: 4acf a134 fe6d c435 7f5e bc35 6bdd 3e35
00000060: 3a50 9a34 1e86 0035 bd74 1734 2d10 eb34
00000070: 4fa6 1635 9b6b 9b36 1652 f636 be60 ef35
00000080: e391 d433 5d78 3737 0573 de36 ee39 ea36
00000090: a047 1f36 42ed c236 2c15 7435 dbe2 1835
000000a0: 7592 1434 bba7 5136 3059 ce35 205a ab36
000000b0: 0e4f 1937 b00b 2c35 caf6 cc35 7189 5335
000000c0: cd3b 9535 bb41 5a36 1736 a936 ea70 1435
000000d0: c191 5e34 2528 ac34 75e1 a034 5567 3937
000000e0: 985c ba34 44d3 8a34 fa53 7434 fb5b 2136
000000f0: 9a22 0f36 0862 8336 5cbf be34 cee9 2135
00000100: e5f6 ed35 fc11 9434 a844 3038 a2d5 b735
00000110: 4d49 9c35 cfb6 8f35 a097 4835 7f46 7335
00000120: 6585 d635 785b 0f37 dea1 f234 04c6 f734
00000130: 9f44 5636 9ffa 6835 cfb2 5a34 d252 4635
00000140: 3ce4 f833 2bfe 9f36 9eb4 6a35 a1b1 f533
00000150: c30b b034 40c0 0a36 15b3 7933 4038 0135
00000160: 1749 fc36 e078 ca35 d51c 9334 f31e 7834
00000170: 2aec 8635 7d2b 5d37 9529 0c36 83a0 bc35
00000180: 1b71 ee35 5be1 6635 26c8 6737 ac9d f733
00000190: 73e4 7137 239b 2335 975b 9236 5f39 4f35
000001a0: 93f9 0333 c647 8536 fcc9 7b35 e432 4636
000001b0: 8af2 8136 fb6d 2e36 9594 3934 c259 4c35
000001c0: 6e1f 3235 dafa 9136 0503 7834 956e eb35
000001d0: beff ae35 0287 a333 93c5 3036 f88f ef34
000001e0: e2ff 4d35 b185 9d34 1425 6636 c89a 8035
000001f0: 1caa 5735 c0fe fa35 dec6 1933 cbde fd34
1.5891885e-06 1.9570757e-06 3.889111e-07 1.3798692e-07 1.239952e-06 9.0540846e-07 7.672578e-06 1.4329385e-07
4.4560848e-06 2.6055162e-07 7.3830374e-06 1.5753618e-06 7.651611e-07 7.3951696e-08 2.0438756e-06 7.83957e-06
3.8976045e-06 2.3771913e-06 1.4673952e-06 1.6430608e-08 3.013941e-07 1.463515e-06 1.4034594e-06 7.110272e-07
2.8743108e-07 4.787888e-07 1.410544e-07 4.378393e-07 5.6121365e-07 4.631887e-06 7.3409274e-06 1.7835043e-06
9.898556e-08 1.0935674e-05 6.6295056e-06 6.9804873e-06 2.3734538e-06 5.809271e-06 9.092789e-07 5.695453e-07
1.3836855e-07 3.124106e-06 1.5374153e-06 5.106689e-06 9.137917e-06 6.4092e-07 1.527101e-06 7.880363e-07
1.1118769e-06 3.2522792e-06 5.0428894e-06 5.529861e-07 2.0728386e-07 3.2066706e-07 2.9966364e-07 1.1050918e-05
3.471257e-07 2.585822e-07 2.2754821e-07 2.404441e-06 2.1328801e-06 3.9155166e-06 3.552949e-07 6.0317404e-07
1.7729732e-06 2.7580234e-07 4.202561e-05 1.3696738e-06 1.1644239e-06 1.0707535e-06 7.472645e-07 9.062714e-07
1.5983065e-06 8.544761e-06 4.5193786e-07 4.615141e-07 3.1928428e-06 8.6791437e-07 2.0367882e-07 7.388127e-07
1.15899155e-07 4.7681583e-06 8.7434626e-07 1.1441012e-07 3.2791112e-07 2.0675507e-06 5.8137704e-08 4.81381e-07
7.518694e-06 1.5085352e-06 2.7401862e-07 2.3108059e-07 1.0052511e-06 1.3182752e-05 2.088583e-06 1.4053807e-06
1.77653e-06 8.600961e-07 1.3815274e-05 1.1530514e-07 1.4417909e-05 6.0947986e-07 4.3618015e-06 7.7196995e-07
3.07278e-08 3.9720644e-06 9.379871e-07 2.9533921e-06 3.872735e-06 2.5992038e-06 1.7283521e-07 7.6126537e-07
6.6355904e-07 4.3505397e-06 2.3097898e-07 1.7541048e-06 1.3038441e-06 7.614837e-08 2.6341047e-06 4.462197e-07
7.674081e-07 2.9340802e-07 3.4294253e-06 9.58179e-07 8.0341283e-07 1.8700594e-06 3.5803957e-08 4.7287025e-07
