results/CubeAgentJumper-Bonus/CubeAgentRay/CubeAgentRay-2486651.onnx (onnx, 79059 bytes, 8 tensors)

action_model._continuous_distribution.log_sigma f4 [1, 2]
00000000: 4a95 b6bf 5e73 56bf
-1.426431 -0.83769786

action_model._continuous_distribution.mu.bias f4 [2]
00000000: 58e3 983e 4bcf 233e
0.2986095 0.15997045

action_model._continuous_distribution.mu.weight f4 [2, 128]
00000000: 151a 4fbe f355 273c 3e10 67bc 74e2 52be
00000010: 1e03 23be f1bf 333c 76e8 24be f77c 60bd
00000020: da5e 5ebe 319e 6cbc 4870 a3bd 019c b43b
00000030: bb76 143c 9b83 5fbe 9859 0fbe 6061 d5bb
00000040: 34ba 3a3a 1540 903a 9cca 41be a548 b83c
00000050: 612c 03be 173c 50be 8376 bbbb b146 05bd
00000060: afd1 2abe 7f5e ae3b 7e9f b9bb 7405 813c
00000070: 26d9 59be de7d 29be 7341 4bbe 3f85 11bc
00000080: d872 29be 9c9e d3bd 183f 363e 145c 51be
00000090: 728e 913b 1bb4 fcbd 39bd 20be 8cfd 4bbe
000000a0: 384c ef3c 2c3c 89bb fb30 afbd 4718 28be
000000b0: cf72 1bbe 3e81 17bc cbf3 55be 2c1e 9cbc
000000c0: a23b 12be ba6d 6cbe 73ea 3abb c9e2 08bd
000000d0: 9cad 55be 257f e9bd 3d69 ed3c a1cf e6bd
000000e0: ff52 36bd b468 59be b66d 4ebd 7473 3fbe
000000f0: 6412 22bc cb87 5ebe f2bd 66bd 177a 103d
00000100: 589a 6cbe 517a ccbd 76df a3bc 9ee9 66bd
00000110: 507b 8abc ea2c 48bd 87ab 48be 31da 46be
00000120: b203 e13b 1bba 883c d38d 09be 73d3 3abe
00000130: 7a7f 893c d92a c03c 3b89 60be 6e32 8fbd
00000140: 5557 32be 731c 97bc 98bc 0bbe 4c88 b0bd
00000150: daf7 8ebd 0ac0 d5bb d62d 16be 58d4 4cbe
00000160: 4b33 243d 9f5e ac3c 425d 53be de3d f838
00000170: dc97 fdbb 1e01 973c e7ce 31be 2222 5abe
00000180: dee0 c3ba 4dad 4bbe 1c8c 51be ac9c 0ebe
00000190: 66ba 51be af4b 193c da05 c2bd ff69 3fbe
000001a0: f097 c7bc bd57 243b 0b6a 1ebd f08c 4cbe
000001b0: 7bb1 543c 3c9f 38be 618b bdba 723b 943d
000001c0: 84a2 35be 7ef2 4cbe 3db8 d7bb fc13 97bd
000001d0: 953d 1bbe a7ad 03bd fc07 d0bc 14c2 de3b
000001e0: cb44 b23c 645d 953c 55b9 17be 7567 17bd
000001f0: 7bf3 c13c 18c4 45be 6f9d 46bd dfda adbc
00000200: 5986 f2bd 1843 cdbe ebf8 0bbe 090c 06be
00000210: ed11 11be d4f0 5abe 55f8 81bd 99ed f4bd
00000220: 344f 1cbe 0f8f fc3b 0897 7ebd 151b 9b3b
00000230: 4a80 94bc 81db edbd 3fd6 8abd 0188 833c
00000240: 3a55 efbd 625b cd3c 4c25 edbd b5f6 38bc
00000250: df58 c1bd 1c37 cebd 246e 47bd a0d5 55bc
00000260: 0c8f e7bd 4d2b f4bc bf9e c6bd 8939 ca3d
00000270: b4d2 84be e3ad b6bd 0768 e3bd 7996 fabc
00000280: 77c3 3abd b9a9 6ebd 9ae8 053e 0891 cebd
00000290: 4042 01be 59e8 9bbd 9a43 9ebd cf71 cbbd
000002a0: 3189 5b3c 9004 2ebe cdd1 0dbe 62dc a4bd
000002b0: 0818 d2bd 461c 6e3e b2a3 cdbd df2d b0bd
000002c0: 1627 abbd b97b a2bd 06ed cc3d ac43 673e
000002d0: b90d c9bd 1a49 95be ba6b 2d3a ed19 a0bd
000002e0: 5de7 61bd 4832 01be 6cda b13b bf65 0cbe
000002f0: a933 cebb 604e f8bd 64dd edbd 8135 1cbc
00000300: 1f18 b2bd af71 c3bd 5de1 18bd 5523 04bd
00000310: e9dd 8abd 0e3e 8cbc 6a8c d3bd 9c79 ffbd
00000320: 5c3c 933c 3ec4 7d3d c857 abbd f823 dfbd
00000330: 2b84 dbbd 2a33 9f3d cf26 f1bd 98a9 69bd
00000340: 4e08 1ebe c4e8 72bd 63bf b1bd 283f d2bd
00000350: 99ab 58bc adae 263b e655 fcbd fd00 00be
00000360: cbe4 253c 8d2d 63be 84cd 0abe 42f8 97bc
00000370: 99d8 ffbb c4ab 22bc 1b3a c4bd 147e debd
00000380: 4480 313b 8817 f0bd 340b 0ebe 97fd b3bd
00000390: 8daa d6bd 5f5e 683c abbf aebd 145e e4bd
000003a0: 0dae 57bd f2f8 80bc 0caa 50bd e38d f3bd
000003b0: 6ca0 33be 55c9 08be 3b81 533e e8bd e73d
000003c0: a989 04be 7f07 01be a208 9bbc a1a7 91bd
000003d0: 3525 62bd 2650 0dbe d6e7 4bbd f3e6 4fbe
000003e0: fe5c cc3d 4a2b bcbd d75c febd 1114 1dbd
000003f0: e0fd 133c bec3 ddbd a676 abbd 9f5b 93bd
-0.20224793 0.010213363 -0.0141029935 -0.20594198 -0.15919158 0.010971055 -0.16104302 -0.054806676
-0.2171587 -0.014442013 -0.079804 0.005511761 0.009061511 -0.21827547 -0.13999021 -0.006511852
0.00071230833 0.0011005426 -0.18924946 0.022495577 -0.12809898 -0.20335422 -0.005720915 -0.03253812
-0.1668155 0.0053213234 -0.005664765 0.01574967 -0.21274242 -0.16551921 -0.19849186 -0.008881866
-0.16547716 -0.10332987 0.17797506 -0.20445281 0.0044420296 -0.1233904 -0.15697183 -0.19920939
0.029211149 -0.0041880812 -0.08554264 -0.16415511 -0.15180515 -0.009247122 -0.20893781 -0.019057356
-0.1428056 -0.23088732 -0.002852109 -0.033419404 -0.20867008 -0.11401204 0.028980846 -0.11270071
-0.044512745 -0.21231347 -0.050397597 -0.18696386 -0.00989208 -0.21731488 -0.05633349 0.035272684
-0.23105752 -0.099842675 -0.020004015 -0.05637514 -0.016904503 -0.04887096 -0.19596682 -0.19419171
0.0068668956 0.016690305 -0.13433008 -0.18244724 0.016784418 0.023457931 -0.2192735 -0.069920406
-0.17416127 -0.018446183 -0.13646162 -0.086197466 -0.06980868 -0.006523137 -0.14665923 -0.20002878
0.04008798 0.021041213 -0.20641044 0.00011837085 -0.0077390503 0.01843315 -0.17364083 -0.21302083
-0.0014944335 -0.19890328 -0.20463604 -0.13926953 -0.20481262 0.009356423 -0.09473772 -0.18692778
-0.024364442 0.002507671 -0.03867535 -0.19975638 0.012981768 -0.18029493 -0.0014461094 0.07237901
-0.17737776 -0.20014378 -0.006583242 -0.073768586 -0.1516021 -0.03214803 -0.025394432 0.0067980383
0.021761319 0.018233009 -0.14816792 -0.0369639 0.02367567 -0.19313085 -0.048489984 -0.02122253
-0.11842031 -0.4009025 -0.13669173 -0.13090529 -0.14166994 -0.21380931 -0.06346194 -0.11959381
-0.15264589 0.0077074836 -0.062155753 0.004733453 -0.01812758 -0.11614133 -0.067791454 0.016056063
-0.116861776 0.025067989 -0.115793794 -0.011289288 -0.09440779 -0.10069105 -0.048689023 -0.01305142
-0.11306581 -0.029805804 -0.09698247 0.09874255 -0.25942004 -0.08919885 -0.11103826 -0.03058933
-0.045596566 -0.05826733 0.13077012 -0.10086256 -0.12622929 -0.07612676 -0.07727738 -0.09933817
0.013399408 -0.16993928 -0.13849564 -0.08049847 -0.1025849 0.23252973 -0.10040988 -0.08602499
-0.083570644 -0.079337545 0.10006146 0.22584409 -0.098170705 -0.29157335 0.0006615479 -0.07817445
-0.055152286 -0.12616837 0.0054276492 -0.13710688 -0.0062927795 -0.12124324 -0.116144925 -0.009534241
-0.08696007 -0.09543168 -0.0373243 -0.032260258 -0.06780607 -0.017119434 -0.10329516 -0.12474367
0.017973118 0.06195473 -0.08366352 -0.10895532 -0.107185684 0.07773431 -0.1177498 -0.057046503
-0.15432855 -0.059304014 -0.08679082 -0.10265952 -0.013224506 0.0025433705 -0.12321071 -0.12500377
0.010125349 -0.22185345 -0.1355496 -0.018550996 -0.007807803 -0.009928647 -0.09581395 -0.10863891
0.002708451 -0.11723238 -0.13871461 -0.08788603 -0.10481749 0.014182656 -0.085326515 -0.111507565
-0.052656222 -0.015743706 -0.05094342 -0.11892297 -0.17541665 -0.13358052 0.20654766 0.113155186
-0.12943138 -0.12600516 -0.018925015 -0.07112051 -0.055211265 -0.13800105 -0.049781643 -0.20302944
0.09978674 -0.09187944 -0.124200515 -0.038349215 0.0090326965 -0.108283505 -0.0837224 -0.0719521

action_model._discrete_distribution.branches.0.weight f4 [1, 128]
00000000: 5bdb 9cba 1e28 05bb f338 023b 8bbd 35bc
00000010: c3ed c7ba bd7f 2a3b 441f 98bb 8b72 59bb
00000020: 58d2 93bb 959a 113c d35a b13a b0c2 083c
00000030: 00c1 81ba a79b b0ba a6eb b93c 99a1 ba3a
00000040: b6d7 48ba 873d 62bb 1d17 e0bb ef48 d4bb
00000050: 2a26 8ebb 83b5 373b d074 6cbc 6fea 8c3b
00000060: eabe c03b 8f4e 9ab8 815a b23b d8c7 64bc
00000070: 1584 323a 2900 98bb 9be6 ebbb c093 54bb
00000080: 92f4 96bb 3084 e4bb 8427 423c 33b9 9a3b
00000090: a3e4 4d3c 5019 cf3b 8266 593c a388 e03b
000000a0: 916d bfbb 7a99 e9ba cba1 573a 912e 4b3c
000000b0: cac5 9f3a 9f70 6eb9 6ffa 943a a41b 1d3c
000000c0: 8ae0 13bc 8790 60bc d2b0 bc39 495c b33b
000000d0: 3a4f d3bb 34dd 28bc e156 233b 3875 54bc
000000e0: ee69 aa3c ab27 333c 27f1 81bc 5f81 37bc
000000f0: 2bfb b3bb 3834 60bc c349 97bb 9056 df3a
00000100: 1ad3 6cbb aff5 5bba 113a 4bbc f62e 0f3b
00000110: 096b 44bb eb0e 673b eb40 22bc 8052 03bb
00000120: fb7a 85bc 0148 a83b 32ff 443c 3367 273a
00000130: c7b8 a2bb 6dd6 ce3b 4feb 69ba 394b 4abb
00000140: 9239 3d3b 0b65 53bb 5052 4a3c 7132 98bc
00000150: 5e95 b63b f3cb 903c ee1f a63a 3bb9 943c
00000160: fb1b 433b f0c2 333c ad43 35bc 4f00 5b3b
00000170: 6e58 1a3b 9313 983b 722b d63b 5bd8 f8bb
00000180: 2c77 c6bb 9606 01bc f92a 9d3c b517 ce3a
00000190: 333e 75bb 2fda 8abb 735f b8bc ade0 5ebb
000001a0: 767f 853a a70c e4bb e7af d8bb ebb7 523b
000001b0: 09e3 93bc 1826 933b 208d 673c 6541 8ebb
000001c0: 24b1 9f3b 9b52 1bbc 4bf1 3dbc 2ad5 10bc
000001d0: 2c61 12bc a20f aebb 62f7 28bc cd93 243c
000001e0: 63f2 bbbb bbce 56bb ade0 383c 8f43 f93a
000001f0: 0063 1f3c 0000 61bc 8db6 c4bb d76d 2bbc
-0.0011967228 -0.00203181 0.001987037 -0.011092554 -0.0015253354 0.002601608 -0.004642399 -0.0033179845
-0.004511159 0.008886953 0.0013531096 0.008347198 -0.0009899437 -0.0013474122 0.022695374 0.0014238834
-0.0007661538 -0.0034521536 -0.006838693 -0.006478421 -0.0043380456 0.0028031773 -0.014432147 0.0043004076
0.0058821337 -7.357925e-05 0.005442918 -0.013963662 0.0006809843 -0.004638691 -0.007199121 -0.0032436699
-0.004606792 -0.006973766 0.011850242 0.0047217845 0.012566718 0.006320156 0.013269069 0.006852226
-0.0058419188 -0.0017822229 0.0008225708 0.012401239 0.0012189683 -0.00022739403 0.0011366139 0.00958911
-0.009025702 -0.013706333 0.00035989896 0.0054736477 -0.0064486535 -0.010306645 0.002492361 -0.0129674
0.020802464 0.010934751 -0.01586206 -0.011200278 -0.005492588 -0.013684325 -0.0046169474 0.0017039347
-0.0036136569 -0.0008390797 -0.012403981 0.002184806 -0.0029971024 0.0035256695 -0.009903173 -0.0020038188
-0.016293993 0.0051355367 0.012023734 0.00063859223 -0.004965875 0.0063121826 -0.00089233083 -0.003086759
0.0028873426 -0.0032256271 0.012348726 -0.01857874 0.005572005 0.017675376 0.0012674311 0.018154731
0.0029771316 0.01097177 -0.011063498 0.0033416932 0.0023551243 0.0046410053 0.006535941 -0.007594151
-0.006056687 -0.007875105 0.01918553 0.0015723618 -0.0037421107 -0.0042374353 -0.022506451 -0.003400843
0.0010185081 -0.006959516 -0.006612766 0.003215308 -0.018052595 0.004490625 0.014132768 -0.0043412917
0.0048734117 -0.009480144 -0.011593173 -0.008839885 -0.0089343 -0.005311922 -0.010312887 0.010045004
-0.005735682 -0.003277703 0.011284036 0.0019017326 0.009728193 -0.01373291 -0.006003207 -0.0104632

network_body._body_endoder.seq_layers.0.bias f4 [128]
00000000: 18ec 4d3c 22cc ecbc e92b 10be 98c8 0d3b
00000010: d745 17bf 688a 22bc 6076 0ebd ff78 aebd
00000020: a5c0 00be 7a91 57bd b05e bf3b 5786 0f3c
00000030: 567b 1bbd 80a6 d0bd f7c2 c4bc 5bc0 08be
00000040: c43a a73b 69bd d53c 3531 42bd 988c 0e3d
00000050: fa0b dabc 43c0 8b3c 6573 19bd 0708 e6be
00000060: cd09 88be 4930 36be f730 133d b37a 53bd
00000070: 012a e0bc 28ba 963b 58a4 d13d b170 57bd
00000080: 79d6 e9bd 4a63 1a3c 9988 85bc f89b 6cbd
00000090: 8479 29be 6568 b1bd 06a7 0fbe fd43 0c3d
000000a0: 17ee 903d 9279 fcbd a2c7 6b3d 9533 81bd
000000b0: 7b41 a3bd efe4 84bd bb13 573d c223 c5bd
000000c0: 3d33 7abe 8004 a53d 2357 023e 0b2a 8dbd
000000d0: 7b71 8f3d 637c 99bd 43f4 4fbd fe3e 39be
000000e0: a074 bc3c 06b3 6fbd 129c 31bd 81d2 e1bd
000000f0: 0814 043c 767f 56ba 9d9f b63d 92fa 57bd
00000100: 8d6f 3ebe 7d54 183d a66c 7bbe dcdb 23bd
00000110: 7dce 94bd e7eb 08be c628 db3b a6b2 49bb
00000120: ff83 393c 6db8 123d 8ded c23c f905 9cbd
00000130: e552 433c da39 733c 6c68 e9bc 8ca9 08bd
00000140: 5eea 6dbe 4efa bfbc 3627 53bd 0acb 2b3b
00000150: e7e1 c7bd 2091 3a3b ae35 08be fa17 0fbe
00000160: 0211 eabd 79ef a2bc 4624 a3bd a8be 67bd
00000170: 4d3d f3bd 89b8 47be bdc5 2fbe 05c4 42bd
00000180: 24e1 4dbe 45d3 223c 7c50 9dbd 8bed 46be
00000190: cf30 7e3d 8a48 5bbd 097c 44bd 621f 9abd
000001a0: a524 a4bc 58eb 55bb d494 583b 9f81 ea3a
000001b0: 7720 f8be 6715 4e3d 9cbf 96bc 0b4d 47bd
000001c0: bb3d d43b 4af1 17be bcd4 0ebe f4df 01be
000001d0: 6bc3 b6bd 00bf 8e3d 5267 d03b c063 ac3c
000001e0: 9884 8fbd 112c eebd 8895 a2bd a888 2ebf
000001f0: 45a5 efbd 0833 5e3d c7f2 4e3c 396b 8bbc
0.012568496 -0.028905932 -0.1407925 0.0021634456 -0.5909094 -0.009920694 -0.03478086 -0.08519172
-0.12573488 -0.05262897 0.005840145 0.008760056 -0.03795942 -0.10188007 -0.024018748 -0.13354628
0.005103441 0.026091294 -0.04741021 0.03480205 -0.026617039 0.017059451 -0.037463564 -0.44928
-0.26569977 -0.17791857 0.03593537 -0.051630687 -0.027363779 0.0045998283 0.10236424 -0.052597705
-0.114178605 0.009423086 -0.016300486 -0.05776593 -0.16550261 -0.0866249 -0.14028558 0.034244526
0.07076662 -0.12327875 0.05756343 -0.063086666 -0.07971474 -0.06488978 0.05250905 -0.09625961
-0.24433608 0.08057499 0.12728553 -0.06892785 0.070040666 -0.07494428 -0.050770056 -0.18090436
0.02300483 -0.05852034 -0.04336173 -0.110264786 0.008061416 -0.00081824453 0.089171626 -0.052729197
-0.18597241 0.03718995 -0.24553165 -0.040004596 -0.07265947 -0.1337124 0.00668821 -0.0030776649
0.011322974 0.035820413 0.023794914 -0.07618327 0.011921619 0.014845336 -0.028492175 -0.033364818
-0.23233935 -0.023434784 -0.051551066 0.002621355 -0.09759884 0.002846785 -0.13301727 -0.1397399
-0.11429025 -0.01988958 -0.07965903 -0.05657831 -0.118769266 -0.19503988 -0.17165275 -0.04755022
-0.20105416 0.009938066 -0.07681367 -0.19426553 0.062058266 -0.053535976 -0.04796985 -0.07525517
-0.020037005 -0.0032641497 0.0033047693 0.0017891413 -0.4846227 0.05031338 -0.018401913 -0.04865746
0.0064770854 -0.14838138 -0.13948339 -0.12683088 -0.08923992 0.06970024 0.006359973 0.021043658
-0.07007712 -0.11629499 -0.07938677 -0.6817727 -0.117014445 0.054247886 0.012631125 -0.017018901

network_body._body_endoder.seq_layers.0.weight f4 [128, 15]
00000000: 3e4b 67b9 eabb a23c 21da 223d 2a1a e13e
00000010: 66b6 033e 2af6 a7be 37d4 1ebf 2e5d 53be
00000020: 6b18 3ebe 01a8 7c3e 24ae a93e c04e a5be
00000030: af9a bb3d 5331 1abe 6667 37be a9ea b9be
00000040: af96 31be a564 8cbe fff6 c8bd 0005 22be
00000050: 82f3 bb3d 6861 b43e b555 c2bd 9f43 713d
00000060: d429 5b3e 8c5e 2f3c ad4c 23be d88b 923e
00000070: ae04 72be 4dbc 98be 8363 c53e 7afd a0bd
00000080: 59b9 06bf 448d c5bc 0dee 5d3e 4e32 d8bd
00000090: 4959 973e fb5e 263e e948 53be 0481 413e
000000a0: c4bf ae3d ed24 313d ee0c cb3d 262d 60bf
000000b0: ec28 633c e7ca b93e c53e 86be 2f89 093e
000000c0: c356 1d3e 2756 6a3c 62a1 60be da67 2d3e
000000d0: a7d9 9dba 78cc c3be ae5a 3bbe 9fec 2d3e
000000e0: 7343 be3d 894d 5f3d 3e0b 1d3c d847 12ba
000000f0: 8545 05bf f59a 28bf 1c53 9bbd 88b7 81bf
00000100: aeb2 11bf 8cf1 edbe 507c 05bf ee03 65bf
00000110: 184b 60bf aaa2 99bf 7d34 11bf d077 81bf
00000120: 4909 23be 663c a8bf b331 463f 2593 32bf
00000130: 3109 07be f55f 013e c340 7cbd 9313 d93e
00000140: 8b6a f3be 516b 5dbd 81df c03e a309 6c3e
00000150: d730 efbe e43e 6f3d 422c 2cbd 4bf4 ba3d
00000160: a4c4 ac3e fc67 3c3e 96dc 9b3e d1dd b8be
00000170: d4b8 a03e 9b8a 51be 0451 15bc be11 a2be
00000180: 4b9f 84be b0a5 6f3e 62a9 9dbe 9511 ab3c
00000190: 4d57 4f3e 5553 333e ed33 ca3b cf85 c33e
000001a0: dc39 fd3a 6230 d23e 0d53 abbd 467f 28be
000001b0: 4aaf f7be 54e2 13bf 7230 883e 65fc dabe
000001c0: 0a01 84bd aa78 c13e 34db 3b3d fc75 bebd
000001d0: bfb4 23bd 725d 163d dd72 b83e f429 0ebe
000001e0: 9c4f 06be 3ccd b33d a4cf 523c 991e d2be
000001f0: a210 bbbe aad6 1abf f66e 2abf a34e cbbd
00000200: 5165 2cbe cea0 98be 5807 01bf 462e a8bd
00000210: 472a a23e 9735 a2be 8402 5f3e 7447 f43e
00000220: 5043 fe3d 5f04 a1be bc54 96bd 797b 90bc
00000230: 7b9d c83d ae38 253e 2ba5 3b3e 48d5 6bbc
00000240: 2dd0 e3bd ffcd fdbd 7dfe dc3e be0b c7be
00000250: af04 fdbe 2d21 b1be e582 0dbf 580c 81be
00000260: 46ae 32bd 9285 c23e abec 94bd db96 a4bd
00000270: 67dd d8be d408 493d 88fd e63d 535e 123e
00000280: 653f dd3e 68c0 06be e87f 183e c277 60bf
00000290: 463d 863e f2ae 18be efed 49be a5ac e33d
000002a0: 5b89 f3bb f619 ab3e 35d2 e93c e6db 4cbd
000002b0: a69c 933e 5f78 60bd f780 adbe b2ba 383e
000002c0: 7875 8ebc 4ed2 7dbe e845 4fbd 586f 883e
000002d0: c312 5fbe 59a7 dbbd dc39 a8be 3650 c7be
000002e0: e5e6 333d 497b 973e b837 dc3e 36a6 fabc
000002f0: a574 9ebe 55ca d2bc 62c6 11ba 545f 75bd
00000300: c4ec 793e 3b8f 30bd 5101 0c3f e27e d6be
00000310: 27d2 0ebf f5e9 ca3e 5b96 393e 9fb9 07be
00000320: f035 1f3e 59f3 903e 8745 343d 05d6 5f3d
00000330: b108 51be 8399 e3be 654c 0a3d b3b1 f63c
00000340: 1d27 40bf c165 72be 9633 13be c395 10be
00000350: e9b7 cfbe 2db5 c63e 65ee c3be eabc 593e
00000360: 6ab0 b2be c414 e9bd f0f7 453e d100 a33d
00000370: 6c78 38bd db67 a5be ed68 f9bd 946b 163e
00000380: 0ff8 49be 070f 64bd a90d 293c d4fb c33d
00000390: 85bf a23e 7e38 34be 23f5 b53d d12f 103d
000003a0: f8cb 3d3e c435 323e 1ddb 09bf ccad 07be
000003b0: d220 fbbc de36 8d3d ddc2 b03e 967b 0e3f
000003c0: 6eba 39be d66b 9cbe 3b95 363d bd81 56bd
000003d0: 743d d53d ba23 a33e e5b8 793d 1655 edbe
000003e0: fffb 8e3d 4acb 22be 0d97 213f ce28 bfbe
000003f0: c93f 093d 0c43 6c3e 4038 913e 2d74 a6bc
-0.00022057907 0.019864995 0.039758805 0.43965274 0.12862548 -0.32804996 -0.62042564 -0.20641014
-0.18564002 0.24673463 0.3314067 -0.32286644 0.09160363 -0.15057878 -0.17910537 -0.36311844
-0.17342637 -0.27420536 -0.09812736 -0.1582222 0.09177305 0.35230565 -0.094890036 0.05890238
0.21402675 0.010703694 -0.15947218 0.28622317 -0.23634598 -0.29831162 0.38552484 -0.07860847
-0.5262657 -0.024115212 0.2167284 -0.1055647 0.29560307 0.1624717 -0.20633282 0.18896872
0.0853267 0.043248106 0.099145755 -0.8756889 0.013864737 0.36287615 -0.26219764 0.13431238
0.15365128 0.014302767 -0.21936563 0.16934147 -0.0012043015 -0.38241935 -0.1829631 0.16984795
0.09290209 0.054517303 0.0095852 -0.00055801636 -0.52059203 -0.65861446 -0.07584211 -1.0134134
-0.5691327 -0.46473348 -0.5214281 -0.8945912 -0.87614584 -1.2002766 -0.56720716 -1.0114689
-0.15921511 -1.3143432 0.77419585 -0.69755775 -0.131871 0.12634261 -0.0615852 0.42397746
-0.47542223 -0.054057423 0.3767052 0.23050551 -0.4671695 0.058409587 -0.042034395 0.091286264
0.33743775 0.18399042 0.3044173 -0.36106732 0.31391013 -0.2046303 -0.009113554 -0.3165416
-0.2590278 0.23403049 -0.3079329 0.020882407 0.20248146 0.17512257 0.006170741 0.38188025
0.0019319612 0.41052538 -0.0836545 -0.16454801 -0.48375922 -0.57767224 0.2659946 -0.42770687
-0.06445511 0.37787372 0.045863345 -0.092998475 -0.039967295 0.03671021 0.36025134 -0.13883191
-0.13116306 0.0877938 0.012866888 -0.4103897 -0.36536127 -0.604838 -0.6657556 -0.09927108
-0.16835524 -0.29810184 -0.5040183 -0.08211951 0.3167288 -0.3168151 0.21778303 0.47710764
0.124151826 -0.31448647 -0.073403805 -0.017637001 0.09795662 0.16134903 0.18324725 -0.014394112
-0.11123691 -0.12392806 0.4316291 -0.38876146 -0.49417636 -0.34595624 -0.55277854 -0.2520473
-0.04362323 0.3799253 -0.07271703 -0.08036586 -0.42356417 0.049080685 0.11278826 0.14293794
0.4321243 -0.13159335 0.14892542 -0.87682736 0.26218623 -0.14910486 -0.1971967 0.11116914
-0.0074321455 0.33418244 0.028542617 -0.0500144 0.2883045 -0.054802295 -0.33887455 0.18039969
-0.017389998 -0.24787256 -0.050603777 0.2664745 -0.21784501 -0.107252784 -0.32856643 -0.38928384
0.04392137 0.29586247 0.4301126 -0.030596834 -0.30948368 -0.025731245 -0.00055608724 -0.059905365
0.24406725 -0.043105345 0.5468951 -0.4189368 -0.5578942 0.3963162 0.18123762 -0.13254403
0.1554792 0.2831066 0.04401162 0.054647464 -0.20413472 -0.44453058 0.03376426 0.03011403
-0.7505968 -0.23671629 -0.14375147 -0.1411963 -0.4057 0.388101 -0.38267818 0.21263471
-0.34900218 -0.11380914 0.19332862 0.0795914 -0.04503672 -0.32305798 -0.12178216 0.14689475
-0.19723533 -0.055678394 0.010318198 0.09569517 0.31786743 -0.17599675 0.08884647 0.03520185
0.18534839 0.17403322 -0.53849965 -0.13249892 -0.030655298 0.06895231 0.3452367 0.5565733
-0.18137524 -0.30551022 0.04457591 -0.05236982 0.10412112 0.31863195 0.060967345 -0.46353978
0.06981658 -0.15897861 0.6312111 -0.3733582 0.033508096 0.23072451 0.28363228 -0.020319069

network_body._body_endoder.seq_layers.2.bias f4 [128]
00000000: d535 62be 3cc7 aebe 7d6b 70bf 2222 10be
00000010: 9295 0dbe 8897 8abe c5d7 35be d83c 95be
00000020: ed28 0bbe d880 40be b485 4abe 81d5 37bd
00000030: e04b fabb b649 72be 9312 2ebe 614a 92bd
00000040: bf4d f7be f9ca d1bd 6520 08be 7d2d 24bb
00000050: 1f7a 4fbe f01c 31be 2227 14bf 203a 97bd
00000060: b29e 1bbe 9b9e aebc 7139 3ebf cf86 fdbd
00000070: 4718 69bf 13dc 25be 908d 1dbe f8d9 6abe
00000080: 6934 21be d834 b2be 359b e63d 3688 2bbe
00000090: 816f 67bf 8685 50be ea60 5bbe 22fd 3dbe
000000a0: 1fe8 cdbd 946d 0dbf aba2 9dbe 0dd2 27be
000000b0: 5879 33be cb18 f43d 5736 48be ec96 babe
000000c0: 7552 1cbe 4b66 06be 78ba d1bc a7e7 c53d
000000d0: efd9 28be ce2c 88bf 12a0 7fbd 6ffc 57be
000000e0: 3951 8bbe 7db7 6cbe be71 38be 1bb5 14be
000000f0: 5add 2ebe e7ae 04be a3d0 acbe d1ba 31bd
00000100: 1f92 42be fd92 13be 2ba5 8abd 07cc bdbe
00000110: 0cf1 d2be c006 cfbe 5d29 7fbe c57f 0fbe
00000120: 84c9 0fbe fb9e 9bbb e0d3 5dbe 7603 35be
00000130: 10f8 13bf e9ac 3a3c 90ea 2cbe 59e6 3bbe
00000140: f7ec 83be 3b9a ecbe ad12 0bbe 82e7 b1be
00000150: 24dc 97be 55e2 e3bc f9fd d6bd 32ff 7bbe
00000160: 7694 96bc 5384 89be 4eec 20be 2aef bebe
00000170: 9084 45be 2b35 a9bc 8836 28be 1fa5 57be
00000180: 456a 06bd d5f8 09be 7429 19be 837b 3dbe
00000190: 79f7 51be cbe4 33bd b49e 54be 7d8d 1cbe
000001a0: 545e 80be 7bbb 3cbd 162e c2bc 52f1 2cbe
000001b0: a2e3 fcbe 95d5 19be 1b3f db3c 9cc4 4c3d
000001c0: fc5e 07be 63e5 84bd bd6c 25bc 3299 25be
000001d0: 2fd3 6abe c32b d0be 2095 0abe 0f61 f3be
000001e0: 40ff 17bd f4fd 03bf dc94 14be 64b1 02be
000001f0: d8d4 f9bd ad40 0ebe 02c6 b0be 147a d9be
-0.22090848 -0.3413638 -0.93914014 -0.1407552 -0.13826588 -0.27068734 -0.17758091 -0.29147983
-0.1358983 -0.1879915 -0.19777566 -0.044881348 -0.0076384395 -0.23660931 -0.16999273 -0.07143093
-0.48301503 -0.10243792 -0.13293608 -0.0025051527 -0.20261429 -0.17296195 -0.5787221 -0.07384133
-0.15197256 -0.021315863 -0.743064 -0.12379228 -0.9105267 -0.16197233 -0.15386033 -0.22934711
-0.15742649 -0.34805942 0.11260072 -0.16751179 -0.90404516 -0.20363435 -0.21423689 -0.18553594
-0.10054039 -0.5524533 -0.30788168 -0.16388722 -0.17526758 0.119187914 -0.19551979 -0.3644327
-0.1526583 -0.13124959 -0.02560161 0.09663325 -0.16489385 -1.0638673 -0.062408514 -0.2109239
-0.27210405 -0.2311687 -0.18012139 -0.14522211 -0.17076626 -0.12957345 -0.33752927 -0.043391053
-0.19001053 -0.1441154 -0.067697845 -0.37069723 -0.4119953 -0.40434837 -0.24918123 -0.14013584
-0.14041716 -0.0047491766 -0.21662855 -0.17677101 -0.5780039 0.011393764 -0.16886353 -0.1834959
-0.25766727 -0.46211419 -0.13581343 -0.3474694 -0.2966014 -0.027817884 -0.1049766 -0.24609068
-0.018381339 -0.26858768 -0.15715143 -0.37291843 -0.1928885 -0.020655235 -0.16427052 -0.21059082
-0.03281619 -0.13473828 -0.1495722 -0.18504147 -0.2050456 -0.043919366 -0.20763665 -0.15288348
-0.25071967 -0.046077233 -0.023703616 -0.16888931 -0.4939242 -0.15022881 0.02676349 0.04999219
-0.13219827 -0.064890645 -0.010096726 -0.1617172 -0.22932123 -0.40658388 -0.13533449 -0.47534987
-0.03710866 -0.51559377 -0.1450991 -0.12762982 -0.121988 -0.1389186 -0.34526068 -0.4247595

network_body._body_endoder.seq_layers.2.weight f4 [128, 128]
00000000: c50a 05bd dedf 88ba 52b6 06be 2a97 44be
00000010: 233e 45be 8192 2e3e 8f98 b13d 8e94 a4bc
00000020: 8fdd e23d 31e6 973d 372e febd 6d11 d83d
00000030: c0ca d3bc c173 d8bc 3380 433d b0cf 363c
00000040: dbb2 1bbe 477e cc3d 4790 1a3e 3fcc 383d
00000050: 1fc3 f7bd 6080 e13c b506 60be 37c0 903d
00000060: 7194 0c3e 02d5 5c3e 5556 ee3c 26dd 413e
00000070: 10f8 00bd c8f7 cdbc 8915 7b3e 2287 b6bd
00000080: c189 91bd 53b5 e6bd 6dcf 9b3d 323b 4d3d
00000090: 7022 b6bd d97d 49bc 1804 153e 0bc7 ae3d
000000a0: abff a23d c19d 143e 0979 27bd 73be a7bd
000000b0: 9553 22be 3aa0 ae3d 0c71 963d 89f1 41be
000000c0: 95c4 113d 8a58 dfbd 691f 69bd 92df 0cbe
000000d0: 9dc7 ecbc 1ae7 50be c2cf d63d 9698 823c
000000e0: 4219 48be 6b38 88bd a7b0 313d 59e0 31be
000000f0: 7452 003e 0708 b9bd 1e41 b3bc 1728 9c3d
00000100: 21c7 03be 3352 aa3d a908 dd38 7714 c6bc
00000110: e690 6e3e 7157 55bd 761a 263d 49a4 36be
00000120: c1e3 173d 070a 303c a3be 32bd df81 18be
00000130: 457a 44bc 2617 c7bd 4caa b4bd f031 01be
00000140: 8ab2 533d e666 8d3d 19bb 2b3d 6199 f53d
00000150: e328 71bd 725d a7bd 0031 c93d aa3a 07bd
00000160: 943d c2bd ab20 a6be 5bac c3bd d118 9c3d
00000170: 798e 4c3d 9142 e8bd 1998 8a3e 0eeb 5a3e
00000180: 2b12 ce3d aa20 3fbe edd5 23be 680f 82bd
00000190: fdc2 c6bc a164 eebd e9dd 02be d25b 16be
000001a0: f961 f1bc 1ec9 553e 131a 173e 069a f83d
000001b0: 1b3f 00be 6ffa 23be d1e9 4d3e f274 52bd
000001c0: 8b21 9d3e 89a9 44be 6c19 62be 0427 263e
000001d0: 0c93 a1bd a8eb f63d 80d8 573d 73a9 2bbe
000001e0: 3988 f53d 5f81 023e 38be 2dbe ebf6 17bd
000001f0: 87b1 ec3b b66e 26bd 0263 1a3e 2b78 15be
00000200: 01a5 9f3e 98d2 283e 6aff 16be d4af 70be
00000210: 4a57 5e3e edf9 31be 545e 83bc 7ae1 153e
00000220: 835c cf3e 7a98 35be 8765 5f3d e533 603d
00000230: 6c50 80bc 594c 8fbd acdb e23e 37f6 1fbd
00000240: 0da5 0a3c 67f7 ac3e 8663 3ebe 5360 e93e
00000250: 649d 22bf b1ce fdbd c48a ddbd 3a88 933e
00000260: 9035 f63d db35 2c3e a486 81be f344 273e
00000270: e2f5 02bf ab08 f63d 3d31 f63e 4999 653e
00000280: c56e 83be 1e90 a13e 8a16 4cbe eb54 19be
00000290: 1225 343e 603d 15bf 56d9 853e ba84 b53e
000002a0: d975 c4be 6ec7 d5be 46f4 923e 91f8 bebe
000002b0: 7d9c 0a3e 2f0e 093f 10b5 033f 4c2d dbbe
000002c0: 8748 af3d 9a3c 2d3e a975 26be 28d1 5f3e
000002d0: e38e ae3e b44e c7bd 6857 ae3e e6ed a0bc
000002e0: 58de 343e f5e0 f13e 5857 11bd 33c6 89be
000002f0: 37bc 603e c847 083e 9b1b 4c3e 516c 393d
00000300: 595d 113d c2cd 0f3e c32a ae3e 9815 42bf
00000310: d219 513e 06ae f1be c7a6 693e d189 32bf
00000320: 36bc b33e 43e1 01be bc59 583d 10fc 55be
00000330: c701 f23e 6db1 5e3e a651 053f 7062 cc3e
00000340: 623b f23d cb38 e93e 5323 743e 73d5 2c3e
00000350: 7c68 3ebf bc3f 363e 44c5 10be 867a 7ebe
00000360: 387f 74be b2ba 893e ff8e 953d ad07 a13e
00000370: 0258 22be 01d8 293c befd 393e 6fdf 1b3f
00000380: bc04 45be 8c4d 50bf 4060 e03d 6709 ecbe
00000390: 25ea 30be 3945 be3d 1eef afbc c953 2cbe
000003a0: 7b6f a83e 8a7b 5bbe 93c1 953e 8351 8f3e
000003b0: 9dca 463e 8a22 7ebe 83d9 a53d 6213 9dbd
000003c0: 2427 5f3e 0fa7 7ebe 43e4 143e 702c 7e3e
000003d0: 94e1 2dbe 9978 4f3e 730b c93e 5c71 c43e
000003e0: 6988 c63e 0a5d 8e3d 36a3 82be e804 603e
000003f0: ebb3 aebe b368 db3e 0e55 c63d 4465 41bf
-0.032480974 -0.0010442694 -0.13155487 -0.1919829 -0.19261985 0.17048074 0.08671676 -0.020090368
0.11077415 0.074169524 -0.124111585 0.10550199 -0.025853515 -0.026422383 0.047729682 0.011157915
-0.15204947 0.09985023 0.150941 0.04511666 -0.12097763 0.027527034 -0.21877559 0.07067912
0.13728501 0.21565631 0.0290939 0.18932018 -0.03148657 -0.025142565 0.24519934 -0.08912493
-0.071063526 -0.112650536 0.07607923 0.05010528 -0.08893287 -0.012298071 0.14552343 0.08534058
0.07958921 0.14513303 -0.040886912 -0.08190622 -0.15852197 0.085266545 0.07345781 -0.18939795
0.035587866 -0.10905559 -0.05691472 -0.1375716 -0.028903777 -0.20400658 0.104888454 0.0159419
-0.19540885 -0.06651386 0.04338136 -0.17370738 0.12531453 -0.09034734 -0.021881636 0.07624834
-0.1286893 0.083164595 0.00010539714 -0.02417968 0.23297462 -0.052085344 0.04055258 -0.17836107
0.037082437 0.010744578 -0.043638837 -0.14893292 -0.011992042 -0.09721212 -0.08821544 -0.12616706
0.05168394 0.06904392 0.041926477 0.11992145 -0.058876883 -0.0817212 0.09823799 -0.03301493
-0.09484401 -0.324468 -0.095543586 0.07621921 0.04994056 -0.113408215 0.27069166 0.21378729
0.10062059 -0.18664804 -0.15999575 -0.06350595 -0.0242629 -0.11640287 -0.12779965 -0.14683464
-0.029465662 0.20877501 0.1475604 0.12138753 -0.12524073 -0.16013502 0.20108725 -0.05138106
0.30689654 -0.19205298 -0.2208001 0.16225821 -0.07889375 0.120566666 0.052696705 -0.16763858
0.11988873 0.12744664 -0.16967094 -0.037100714 0.0072233113 -0.040632926 0.15076831 -0.14596622
0.31180575 0.16486585 -0.1474587 -0.23504573 0.21712986 -0.17380495 -0.01603619 0.14636794
0.40500268 -0.17733946 0.054540183 0.05473699 -0.015663348 -0.06996984 0.4430822 -0.03905317
0.008462203 0.33782503 -0.18592653 0.45581302 -0.6352141 -0.12392939 -0.10817483 0.2881487
0.12021935 0.16817419 -0.25298035 0.16334896 -0.5115644 0.12013372 0.4808444 0.22421755
-0.25670448 0.31555265 -0.19930473 -0.149738 0.17592266 -0.58296776 0.26142377 0.35452825
-0.3837116 -0.41753715 0.2870199 -0.37299016 0.13536258 0.5353727 0.51448154 -0.42807996
0.08558755 0.16917649 -0.16255821 0.2185713 0.3409339 -0.09731808 0.3405106 -0.019644689
0.17662942 0.4724194 -0.035483688 -0.26909027 0.21946798 0.13308632 0.19932406 0.045269314
0.035489414 0.14043334 0.34017 -0.758142 0.20420006 -0.47203082 0.22817527 -0.6974154
0.3510453 -0.12683587 0.052819952 -0.20896935 0.4726698 0.2174737 0.5207771 0.39918852
0.118277326 0.45551142 0.238416 0.168783 -0.7437818 0.1779775 -0.14137751 -0.24851426
-0.23876655 0.2690025 0.07302665 0.3145117 -0.15853885 0.010366441 0.18163201 0.6088781
-0.19240087 -0.8136833 0.10955858 -0.46100923 -0.17276819 0.09290547 -0.021476325 -0.16828837
0.32897553 -0.21433845 0.29249248 0.27991876 0.19413228 -0.24817863 0.08098128 -0.076697126
0.21792275 -0.24868415 0.145402 0.24821639 -0.16980582 0.20260848 0.39266548 0.38367736
0.38775948 0.069513395 -0.25515145 0.21876872 -0.34121642 0.42853317 0.09684192 -0.75545144
