results/CubeAgentJumper-Bonus/CubeAgentRay/CubeAgentRay-1999978.onnx (onnx, 79059 bytes, 8 tensors)

action_model._continuous_distribution.log_sigma f4 [1, 2]
000000 ae 92 92 bf 0b d2 2f bf
       -1.1451013 -0.68679875

action_model._continuous_distribution.mu.bias f4 [2]
000000 b2 94 94 3e 01 0a 38 3e
       0.29019696 0.17972566

action_model._continuous_distribution.mu.weight f4 [2, 128]
000000 48 ab 49 be ec 1a eb 3d 9a 70 51 bb 04 b9 4b be
       -0.19694245 0.11479744 -0.0031957985 -0.19894797
000010 4d d3 29 be 98 3e e0 3d c0 38 20 be e2 44 8d bd
       -0.16584511 0.10949439 -0.15646648 -0.06897904
000020 39 41 57 be 03 b5 f5 3c 06 b5 e4 bd bf 58 c5 bc
       -0.21020974 0.02999354 -0.1116734 -0.024090169
000030 03 0c 38 bc be 59 5d be 2b c3 24 be 81 4f 81 bb
       -0.011233333 -0.21616265 -0.16090076 -0.003946245
000040 87 f3 2a bc c2 3a 8b bc bb aa 3b be 9d b2 b7 bc
       -0.010434038 -0.016995791 -0.18326847 -0.022424037
000050 30 98 14 be 2a dc 4a be 0e 51 60 bd 25 40 1f bc
       -0.1451118 -0.19810548 -0.0547648 -0.009719883
000060 c8 a6 4b be 49 c5 80 3c 81 04 44 bb 3e 52 26 3c
       -0.19887841 0.015719073 -0.002990991 0.010151444
000070 21 86 23 be df 44 25 be 6c f2 46 be c5 54 12 bc
       -0.15969135 -0.16139553 -0.19428414 -0.008931343
000080 40 bb 43 be 49 d2 ca bd 48 23 39 3e 5a 79 4c be
       -0.19114399 -0.0990339 0.18079865 -0.19968167
000090 85 81 cf b9 33 a8 f1 bd 1a 80 1b be 35 40 48 be
       -0.00039578616 -0.117996596 -0.15185586 -0.19555743
0000a0 d8 51 1b 3c 78 95 78 bc e7 c6 9d bd 22 a1 46 be
       0.009479962 -0.015172355 -0.07703953 -0.19397405
0000b0 2c fa 16 be 57 84 ac bd f2 a9 50 be d6 d6 22 bd
       -0.1474387 -0.08423679 -0.20377329 -0.039755665
0000c0 82 15 25 be b1 30 67 be 4e ec 53 bd 5b 57 ce bd
       -0.16121486 -0.22577168 -0.05173903 -0.100752555
0000d0 6c 6d 50 be 20 51 cb bd 00 0f c2 ba b5 8e 22 be
       -0.20354241 -0.09927583 -0.0014805496 -0.15874751
0000e0 ae 41 a7 bd 28 28 55 be 8a c9 ae bd c4 82 39 be
       -0.08166824 -0.208161 -0.08534534 -0.1811629
0000f0 7b cb e2 bb b7 22 58 be ff ed 4c bd 09 f6 a8 3b
       -0.0069212294 -0.21106993 -0.05003166 0.005156283
000100 37 b5 67 be ce 34 e8 bd 16 d9 b2 bc d3 78 2b bd
       -0.22627722 -0.11338197 -0.02183203 -0.041863274
000110 b3 7d 7b bd a5 c2 a0 bd 9d f6 42 be 58 fe 40 be
       -0.061399173 -0.078496255 -0.19039388 -0.18847024
000120 cf 60 fb 3b a6 be 42 3d 88 b9 22 be 8b 64 34 be
       0.0076714526 0.047545098 -0.15891087 -0.17616479
000130 58 b2 0e bc 8e 82 78 3d 94 3a 5b be 58 4a bc bd
       -0.008709513 0.06067138 -0.21409065 -0.091938674
000140 84 a8 cf bd d6 15 40 bd a2 63 05 be 75 f1 a8 bd
       -0.10139564 -0.046895824 -0.13026288 -0.08249179
000150 b1 36 84 bd af a8 24 3b 5d 40 34 be c4 70 46 be
       -0.06455744 0.0025124957 -0.17602678 -0.19378954
000160 29 fb 96 ba d9 aa e5 3d 84 31 4d be 06 e1 c4 bb
       -0.0011518943 0.11214227 -0.2003842 -0.00600827
000170 f4 67 10 3b 33 f1 09 bc 70 9f 52 be 61 a5 54 be
       0.0022034617 -0.008419323 -0.20568633 -0.20766212
000180 2f 03 42 bb d6 49 46 be d4 57 4b be 0a 21 0a be
       -0.0029603948 -0.19364104 -0.19857723 -0.13489166
000190 da 33 4c be ec a6 9d bd ee 91 01 be 04 55 39 be
       -0.19941655 -0.076978534 -0.12653324 -0.18098837
0001a0 47 6f 5d 3d 55 fa 12 bc 02 52 9a 3c fd 0b 4c be
       0.0540612 -0.008970817 0.018837932 -0.19926448
0001b0 97 5f 1d bc 4e b5 32 be 7a f5 b3 bd a7 4f aa 3d
       -0.00960531 -0.17451975 -0.08787055 0.08315974
0001c0 34 a6 2f be 22 d7 46 be d3 c4 0d 3c 97 ed d0 bd
       -0.17153245 -0.19418004 0.008652884 -0.10201567
0001d0 a9 7d 0b be 91 14 4c bd c8 6d e7 bc 93 27 f6 bb
       -0.13622154 -0.0498243 -0.02825059 -0.007512042
0001e0 c5 20 47 bd 33 28 53 bc 44 ff 10 be 4f be 8c bc
       -0.048615236 -0.012888002 -0.14159876 -0.01718059
0001f0 62 2c 6f ba 64 ff 3d be 40 e3 b3 bd e6 5c 53 bd
       -0.000912374 -0.18554455 -0.08783579 -0.051602267
000200 d3 54 0f be 2b 1a 28 be d9 2f 72 bb 26 a9 1d be
       -0.13997202 -0.16416232 -0.003695479 -0.15396556
000210 56 be 2f be 2f 6d 74 bd 07 c3 ae bd 6a 94 7f bd
       -0.17162451 -0.059674438 -0.08533292 -0.062397398
000220 49 58 31 be 53 3d ea 3b 14 9b a9 bd c0 db 43 bd
       -0.17318834 0.0071484237 -0.08281532 -0.04781699
000230 2b 90 85 3c 86 e1 0f be 0c c1 ab bd aa 7c 1c bc
       0.016304096 -0.14050874 -0.0838643 -0.009551207
000240 b8 12 e7 bc b3 51 8b 3d 1c 12 0d be fa a9 46 bd
       -0.028207168 0.06802692 -0.1377644 -0.048501946
000250 75 d6 f4 bd 1c 47 f9 bd 65 50 40 3c 56 9b 04 3d
       -0.11954967 -0.12171766 0.011737918 0.032374702
000260 71 8e 09 be 22 f8 df 3c dd 68 07 bc 76 28 cb 3d
       -0.13433243 0.027339999 -0.008264747 0.09919827
000270 88 0c d4 bd 46 be e4 bd 72 e0 07 be 76 27 13 bc
       -0.10353953 -0.11169104 -0.13269213 -0.008981576
000280 e5 0d 81 bd fb 7b 87 bd f7 aa f4 3d 27 e8 f7 bd
       -0.06301478 -0.06615444 0.119466715 -0.121048264
000290 e9 52 52 bb 72 c6 c7 bd 8d f3 c8 bd 56 c8 f5 bd
       -0.0032092875 -0.09754647 -0.098120786 -0.12001102
0002a0 03 3d f8 ba 82 61 22 bd 07 ab 04 be f3 50 cd bd
       -0.0018939081 -0.039643772 -0.12955867 -0.100252055
0002b0 11 42 00 be 2e 51 55 3e 99 2a fa bd 32 59 a5 bc
       -0.12525202 0.20831749 -0.12215156 -0.020184133
0002c0 23 4b d0 bd ec 7f cc bd 4a a5 f4 3d d6 98 52 3e
       -0.10170581 -0.09985337 0.11945589 0.20566115
0002d0 bc 19 f5 bd 3c f1 ca bd ac f8 66 bb 79 64 e1 bd
       -0.11967799 -0.09909293 -0.0035243435 -0.11005492
0002e0 76 ab 8c bd 7a e3 19 be 95 2d 09 ba d3 ad 22 be
       -0.06868641 -0.15028182 -0.00052329275 -0.15886621
0002f0 97 3d 86 bc 72 82 12 be c8 2a b8 bd 48 15 b9 bb
       -0.01638679 -0.14307573 -0.08992535 -0.005648289
000300 c0 03 e1 bd f9 51 fe bd 2e 4b 53 bd cd 8e 8d bd
       -0.109870434 -0.12417979 -0.05158537 -0.06912003
000310 f1 ca 76 bc 06 e8 14 bd b8 cf 00 be 2c 4a 15 be
       -0.015063033 -0.036354087 -0.12579238 -0.14579076
000320 37 de ec b8 c3 d3 16 3c 44 12 db bd 70 49 04 be
       -0.00011294748 0.009205761 -0.10696843 -0.12918639
000330 72 19 4e 3c 80 0d 9c 3c 76 ff 0d be da cf c0 bd
       0.012579309 0.019049406 -0.13866982 -0.094146445
000340 f1 4c c7 bd b3 db 1a ba e1 73 ee bd 8b b2 d6 bd
       -0.09731472 -0.00059073715 -0.11643196 -0.10483273
000350 89 58 13 bd 0f 08 9a 3c 6f fb 14 be ec d8 14 be
       -0.035973106 0.01880267 -0.1454904 -0.14535874
000360 3c 0d 47 bc 6f b0 79 bd 80 31 20 be 56 c8 62 3d
       -0.012149151 -0.060959276 -0.15643883 0.055366836
000370 29 0b 84 38 95 fd cc bc af 4e f7 bd 05 c8 05 be
       6.296329e-05 -0.025023261 -0.120755546 -0.13064583
000380 fe c6 30 3c e4 10 0e be 7f f8 22 be 32 d9 df bd
       0.010789631 -0.13873631 -0.15915106 -0.109300986
000390 c8 c0 01 be c0 89 6f bc af e9 d7 bd 5a 9d 07 be
       -0.12671196 -0.0146202445 -0.105426185 -0.13243619
0003a0 f8 2d 95 bd 4e 75 48 bc e9 cb 20 3d ec 3d 0f be
       -0.072841585 -0.012234999 0.039256964 -0.13988465
0003b0 d3 68 e2 bc 1a dc 1d be 3b ea 46 3e 26 9a 2d 3e
       -0.027637875 -0.15415993 0.1942529 0.16953334
0003c0 9a 78 1a be c0 58 19 be 3d fd dd 3c 30 6f cf bd
       -0.15085068 -0.14975262 0.027098292 -0.10128629
0003d0 35 f9 ad bd 19 fb 51 bd 2a a8 60 bd d3 df 00 bd
       -0.08494798 -0.051264856 -0.054847874 -0.031463455
0003e0 27 7f fb 3d 85 d8 80 3c cc 92 14 be 74 e1 45 bd
       0.12280112 0.015728245 -0.14509124 -0.048310712
0003f0 97 b4 7f bc 28 76 05 be 64 5b a0 bd 0e fc 28 bd
       -0.015607021 -0.13033354 -0.078299314 -0.041256003

action_model._discrete_distribution.branches.0.weight f4 [1, 128]
000000 5b db 9c ba 1e 28 05 bb f3 38 02 3b 8b bd 35 bc
       -0.0011967228 -0.00203181 0.001987037 -0.011092554
000010 c3 ed c7 ba bd 7f 2a 3b 44 1f 98 bb 8b 72 59 bb
       -0.0015253354 0.002601608 -0.004642399 -0.0033179845
000020 58 d2 93 bb 95 9a 11 3c d3 5a b1 3a b0 c2 08 3c
       -0.004511159 0.008886953 0.0013531096 0.008347198
000030 00 c1 81 ba a7 9b b0 ba a6 eb b9 3c 99 a1 ba 3a
       -0.0009899437 -0.0013474122 0.022695374 0.0014238834
000040 b6 d7 48 ba 87 3d 62 bb 1d 17 e0 bb ef 48 d4 bb
       -0.0007661538 -0.0034521536 -0.006838693 -0.006478421
000050 2a 26 8e bb 83 b5 37 3b d0 74 6c bc 6f ea 8c 3b
       -0.0043380456 0.0028031773 -0.014432147 0.0043004076
000060 ea be c0 3b 8f 4e 9a b8 81 5a b2 3b d8 c7 64 bc
       0.0058821337 -7.357925e-05 0.005442918 -0.013963662
000070 15 84 32 3a 29 00 98 bb 9b e6 eb bb c0 93 54 bb
       0.0006809843 -0.004638691 -0.007199121 -0.0032436699
000080 92 f4 96 bb 30 84 e4 bb 84 27 42 3c 33 b9 9a 3b
       -0.004606792 -0.006973766 0.011850242 0.0047217845
000090 a3 e4 4d 3c 50 19 cf 3b 82 66 59 3c a3 88 e0 3b
       0.012566718 0.006320156 0.013269069 0.006852226
0000a0 91 6d bf bb 7a 99 e9 ba cb a1 57 3a 91 2e 4b 3c
       -0.0058419188 -0.0017822229 0.0008225708 0.012401239
0000b0 ca c5 9f 3a 9f 70 6e b9 6f fa 94 3a a4 1b 1d 3c
       0.0012189683 -0.00022739403 0.0011366139 0.00958911
0000c0 8a e0 13 bc 87 90 60 bc d2 b0 bc 39 49 5c b3 3b
       -0.009025702 -0.013706333 0.00035989896 0.0054736477
0000d0 3a 4f d3 bb 34 dd 28 bc e1 56 23 3b 38 75 54 bc
       -0.0064486535 -0.010306645 0.002492361 -0.0129674
0000e0 ee 69 aa 3c ab 27 33 3c 27 f1 81 bc 5f 81 37 bc
       0.020802464 0.010934751 -0.01586206 -0.011200278
0000f0 2b fb b3 bb 38 34 60 bc c3 49 97 bb 90 56 df 3a
       -0.005492588 -0.013684325 -0.0046169474 0.0017039347
000100 1a d3 6c bb af f5 5b ba 11 3a 4b bc f6 2e 0f 3b
       -0.0036136569 -0.0008390797 -0.012403981 0.002184806
000110 09 6b 44 bb eb 0e 67 3b eb 40 22 bc 80 52 03 bb
       -0.0029971024 0.0035256695 -0.009903173 -0.0020038188
000120 fb 7a 85 bc 01 48 a8 3b 32 ff 44 3c 33 67 27 3a
       -0.016293993 0.0051355367 0.012023734 0.00063859223
000130 c7 b8 a2 bb 6d d6 ce 3b 4f eb 69 ba 39 4b 4a bb
       -0.004965875 0.0063121826 -0.00089233083 -0.003086759
000140 92 39 3d 3b 0b 65 53 bb 50 52 4a 3c 71 32 98 bc
       0.0028873426 -0.0032256271 0.012348726 -0.01857874
000150 5e 95 b6 3b f3 cb 90 3c ee 1f a6 3a 3b b9 94 3c
       0.005572005 0.017675376 0.0012674311 0.018154731
000160 fb 1b 43 3b f0 c2 33 3c ad 43 35 bc 4f 00 5b 3b
       0.0029771316 0.01097177 -0.011063498 0.0033416932
000170 6e 58 1a 3b 93 13 98 3b 72 2b d6 3b 5b d8 f8 bb
       0.0023551243 0.0046410053 0.006535941 -0.007594151
000180 2c 77 c6 bb 96 06 01 bc f9 2a 9d 3c b5 17 ce 3a
       -0.006056687 -0.007875105 0.01918553 0.0015723618
000190 33 3e 75 bb 2f da 8a bb 73 5f b8 bc ad e0 5e bb
       -0.0037421107 -0.0042374353 -0.022506451 -0.003400843
0001a0 76 7f 85 3a a7 0c e4 bb e7 af d8 bb eb b7 52 3b
       0.0010185081 -0.006959516 -0.006612766 0.003215308
0001b0 09 e3 93 bc 18 26 93 3b 20 8d 67 3c 65 41 8e bb
       -0.018052595 0.004490625 0.014132768 -0.0043412917
0001c0 24 b1 9f 3b 9b 52 1b bc 4b f1 3d bc 2a d5 10 bc
       0.0048734117 -0.009480144 -0.011593173 -0.008839885
0001d0 2c 61 12 bc a2 0f ae bb 62 f7 28 bc cd 93 24 3c
       -0.0089343 -0.005311922 -0.010312887 0.010045004
0001e0 63 f2 bb bb bb ce 56 bb ad e0 38 3c 8f 43 f9 3a
       -0.005735682 -0.003277703 0.011284036 0.0019017326
0001f0 00 63 1f 3c 00 00 61 bc 8d b6 c4 bb d7 6d 2b bc
       0.009728193 -0.01373291 -0.006003207 -0.0104632

network_body._body_endoder.seq_layers.0.bias f4 [128]
000000 0e 36 1f 3d e8 ad d1 bc 7d ac f7 bd a3 53 d5 3c
       0.03886991 -0.02559562 -0.120934464 0.026040858
000010 67 d4 05 bf 8c 45 db 3a 1f 1b f6 bc 58 ff 93 bd
       -0.52277225 0.0016729101 -0.03004223 -0.07226437
000020 c2 29 0c be b1 5d ad bd 3d 62 26 3c d2 d1 26 3c
       -0.13687804 -0.08465136 0.010155258 0.010181861
000030 bb 7d 04 bc 94 36 90 bd eb 45 a3 3b 95 f4 09 be
       -0.008086617 -0.0704166 0.0049827 -0.13472207
000040 2a 9d bc 3c 22 2a 48 bb bf d4 e6 bc 31 78 b7 bb
       0.02302416 -0.0030542691 -0.028177617 -0.0055990447
000050 64 b6 ee bb d0 a7 da 3c 2d 54 0a bd 42 86 c6 be
       -0.0072849263 0.026691347 -0.033771683 -0.38774306
000060 f7 92 5c be 77 ab 3f be ee bb 1f 3d 74 b6 c1 bc
       -0.21540438 -0.18717752 0.038997583 -0.02364657
000070 e3 79 ef bc 38 38 8d 3c a0 b6 8b 3d 78 bb 0f bd
       -0.029232925 0.017238721 0.06821942 -0.035090894
000080 7d 3b ba bd 01 fb 15 3d 0e 45 b6 bc 0b ab 97 bd
       -0.09093378 0.03661633 -0.022249725 -0.07405671
000090 2b bf 30 be 43 35 72 bd 04 7c 1e be fb be 7c 3d
       -0.17260425 -0.059132826 -0.15476996 0.06170557
0000a0 13 4f c2 3d 40 72 0b be 55 8e 5f 3d a2 13 90 bd
       0.094877385 -0.13617802 0.054579098 -0.07034995
0000b0 da c4 b4 bd ff c8 36 bd ce 32 ac 3d a4 2e 8d bd
       -0.08826609 -0.04462528 0.08408128 -0.068936616
0000c0 c7 30 61 be a8 f8 9d 3d d5 47 fe 3d 94 f1 7e bd
       -0.21991263 0.07713443 0.124160446 -0.062242106
0000d0 d7 6f 88 3d 15 70 28 bd 62 22 8c bc 4b ef 38 be
       0.06661957 -0.041122515 -0.017106239 -0.18060033
0000e0 fd cb 88 3d 95 d4 3d bd b5 dd 26 bd 97 8f c0 bd
       0.06679533 -0.046345312 -0.04073878 -0.094023876
0000f0 8b 12 20 3b 7a f8 2f bc f8 b8 b0 3d af ff 64 bd
       0.0024425115 -0.010740394 0.0862903 -0.0559079
000100 7e 93 2d be 76 2b 42 3d 66 34 78 be 41 bb 59 bd
       -0.16950795 0.04740473 -0.24238738 -0.053157095
000110 50 1e 60 bd a5 95 f0 bd 80 f2 59 ba 0e 36 c6 3b
       -0.05471641 -0.117472924 -0.00083140284 0.0060489243
000120 07 1d 2f 3d be d3 bf 3c c0 45 2e 3d 11 75 a0 bd
       0.042752292 0.023416396 0.042546988 -0.07834829
000130 26 01 7a 3b 11 a5 e7 3c 90 72 2d bd 01 5b 41 bd
       0.0038147657 0.028276952 -0.042345583 -0.04720593
000140 ff 51 77 be be 88 e8 3b 95 a3 c6 bc 7e b3 6f bd
       -0.24152373 0.007096379 -0.024247924 -0.058520786
000150 14 1c 9a bd 85 b3 35 3c a4 12 a2 bd f5 80 cb bd
       -0.07524887 0.011090164 -0.07913712 -0.09936706
000160 19 6f b2 bd e7 ad c9 bc 8b 1f 8b bd 7d 8b a5 bc
       -0.087125964 -0.024619056 -0.06793126 -0.020208115
000170 af 91 bc bd 50 f9 40 be 37 08 34 be 75 b1 45 bd
       -0.092074744 -0.18845105 -0.17581259 -0.04826494
000180 3b 79 1d be ce aa d8 3c e7 68 ab bd f8 99 29 be
       -0.15378277 0.026448634 -0.08369618 -0.1656264
000190 4a 6d be 3c 20 5e 4d bd 58 c7 27 bd 2e ec a9 bd
       0.023245472 -0.050138593 -0.040961593 -0.08297001
0001a0 89 55 94 3c 77 d4 f5 3c 86 64 5d bc c2 63 a6 3b
       0.018107193 0.030008538 -0.013512736 0.00507781
0001b0 e5 7f f8 be 45 71 57 3d 2c 2f 35 3d 3c c4 51 bd
       -0.48535076 0.052598257 0.04423444 -0.051212534
0001c0 66 1c ef bc b1 46 1a be e1 65 10 be 99 ae b9 bd
       -0.029188346 -0.15066029 -0.14101364 -0.09066505
0001d0 d9 d6 a3 bd cb 55 8f 3d d4 12 a1 3b 62 9d ac 39
       -0.07999963 0.069987856 0.0049155746 0.00032923656
0001e0 b1 a1 66 bd 95 68 5c bd 25 ac ae bd 89 fc 2c bf
       -0.056306545 -0.053810675 -0.08528928 -0.6757284
0001f0 c4 60 c5 bd c3 f6 7b 3d 90 c5 7d bb 66 22 0b 3c
       -0.09637597 0.061514627 -0.0038722493 0.008492088

network_body._body_endoder.seq_layers.0.weight f4 [128, 15]
000000 06 48 93 bc c3 af 0d 3d 8b c2 23 3d 76 ac e6 3e
       -0.01797868 0.034591448 0.039980453 0.45053452
000010 df f0 03 3e d8 63 a2 be e8 61 36 bf a5 53 45 be
       0.12884854 -0.317168 -0.71243143 -0.19270189
000020 d7 9a 58 be f5 da 81 3e 1e 6d 9c 3e bc c7 a1 be
       -0.21152817 0.25362363 0.30552 -0.31597698
000030 af 9a bb 3d 6c a2 eb bd 9b 9f 52 be 01 4f 97 be
       0.09160363 -0.11505589 -0.20568697 -0.29552463
000040 5d 47 2c be 05 68 77 be f8 a2 c6 bd dd a2 00 be
       -0.16824098 -0.24160774 -0.096990526 -0.12562127
000050 98 47 be 3d c8 17 b6 3e 54 10 ca bd 96 60 61 3d
       0.09290999 0.3556502 -0.098663956 0.055023752
000060 e4 72 59 3e 6a a5 df 3b 9d 03 25 be d8 8b 92 3e
       0.21235234 0.006825139 -0.1611466 0.28622317
000070 ce ac 57 be 02 d3 a3 be f9 63 d4 3e 37 5d a1 bd
       -0.21062014 -0.31996924 0.41482523 -0.078791074
000080 68 9e 04 bf 57 ab 05 bd d4 5b 66 3e 77 a4 e9 bd
       -0.5180421 -0.032634106 0.22495967 -0.11408322
000090 e6 ca a0 3e bf 04 38 3e 2d 19 48 be 0d d9 52 3e
       0.314048 0.1797056 -0.19540854 0.20590611
0000a0 a4 1e c5 3d 93 84 76 3d ee 0c cb 3d 85 20 58 bf
       0.09624985 0.060185026 0.099145755 -0.8442462
0000b0 be f0 4a 3a 8f 34 c4 3e 09 0e 85 be 62 a7 0b 3e
       0.0007741562 0.3832135 -0.2598727 0.1363807
0000c0 8d 8f 18 3e 1b 1e 86 3c 77 68 65 be 59 e3 08 3e
       0.1489851 0.016371777 -0.22403131 0.13367976
0000d0 bb b2 27 3c 17 72 b7 be ca 87 22 be 42 a2 46 3e
       0.010235484 -0.3582923 -0.15872112 0.19397834
0000e0 95 e9 ef 3d 89 4d 5f 3d 25 3d 2d 3d 81 12 ee bc
       0.11714474 0.054517303 0.04229464 -0.029061558
0000f0 68 0f 04 bf 53 bd 15 bf 3a b1 9e bd 54 22 70 bf
       -0.5158601 -0.5849201 -0.07748647 -0.9380238
000100 a8 1e 12 bf ee 57 c7 be 61 f5 f7 be 47 ae 4f bf
       -0.5707803 -0.38934273 -0.48429397 -0.811253
000110 38 bf 4a bf 01 3b 8e bf 31 51 f7 be ea 1e 6c bf
       -0.79198027 -1.1111757 -0.48304132 -0.9223467
000120 49 09 23 be 29 ea 9f bf d5 1e 34 3f fa 6f 3d bf
       -0.15921511 -1.2493335 0.70359546 -0.7399899
000130 90 f4 f6 bd ab 36 fd 3d 0a b8 2a bd 35 b2 d7 3e
       -0.12058365 0.12363943 -0.04167942 0.4212815
000140 c4 39 e9 be a7 ac 13 3c 43 54 d2 3e e8 05 8f 3e
       -0.45551884 0.0090133315 0.41079912 0.27934194
000150 20 fb db be 6f a0 db 3d f8 2c 94 bb 4b f4 ba 3d
       -0.4296503 0.1072396 -0.0045219623 0.091286264
000160 d5 34 af 3e 8f 59 30 3e 39 c9 96 3e 7e cd b7 be
       0.34219995 0.17221664 0.29450396 -0.35898966
000170 31 29 a7 3e bf 23 53 be c7 93 62 3b 45 de a2 be
       0.32648614 -0.20619105 0.0034572945 -0.31810203
000180 89 24 8e be 9a b1 69 3e 65 f6 97 be e3 81 07 3d
       -0.2776225 0.22821656 -0.29680172 0.033082854
000190 d6 bd 5a 3e 75 d1 3f 3e ed 33 ca 3b 03 10 c7 3e
       0.21361479 0.18732245 0.006170741 0.38879403
0001a0 50 2d 78 bb 53 83 fd 3e db 2d f4 bc 38 dd da bd
       -0.0037868805 0.49514255 -0.029807022 -0.106867254
0001b0 68 20 dc be 9b 1d 05 bf 3f bf a3 3e 9d 73 b7 be
       -0.42993474 -0.519983 0.31981847 -0.35830393
0001c0 6c c4 4b bd 1f dc c2 3e 1f 30 5c 3d 14 e6 b8 bd
       -0.04974787 0.38058564 0.05375683 -0.09028259
0001d0 e8 5f 03 bd 72 5d 16 3d 92 06 c0 3e 77 58 13 be
       -0.032073885 0.03671021 0.37505013 -0.14389215
0001e0 d3 15 d5 bd 02 06 ee 3d e2 c2 e5 3c a3 58 c3 be
       -0.10404553 0.1162224 0.028047029 -0.38153562
0001f0 39 4b b3 be 3c 73 13 bf bf 42 24 bf 3b 9d be bd
       -0.35018328 -0.5759771 -0.64164346 -0.09307333
000200 e3 fa 38 be b2 07 9e be 9f 2c 04 bf ff c9 bd bd
       -0.18064456 -0.30865246 -0.51630586 -0.09267043
000210 47 2a a2 3e 82 0a ad be 3a 34 6b 3e 08 88 fe 3e
       0.3167288 -0.3379708 0.22969142 0.4971316
000220 05 c7 a2 3d 82 d7 b0 be ea b0 01 be 69 d5 46 bd
       0.07948116 -0.3453942 -0.12665144 -0.048543368
000230 cd 1e 37 3d 5e 62 09 3e d0 1a 15 3e a5 b4 3b bd
       0.04470711 0.1341643 0.1456101 -0.045826573
000240 1f ef 11 be 6a 17 1f be f1 fa cc 3e be 0b c7 be
       -0.14251374 -0.15536276 0.40035203 -0.38876146
000250 0f 9b f9 be e1 a5 b1 be c7 fe 03 bf c9 72 55 be
       -0.48751113 -0.34696868 -0.51560634 -0.20844568
000260 d7 25 05 3c 8a f4 d7 3e 55 c3 ab bc 13 b3 1d bd
       0.0081266975 0.42178756 -0.020967165 -0.038500857
000270 eb 0f 97 be e9 85 99 3d 8a 46 f1 3d 87 fd 16 3e
       -0.29504332 0.074962445 0.117810324 0.1474515
000280 00 d2 df 3e 7b 21 02 be e8 7f 18 3e 04 e9 5e bf
       0.43714905 -0.12708084 0.14892542 -0.87074304
000290 f8 42 8d 3e f7 b2 8f be 97 a8 55 be 7b 25 00 3e
       0.27590156 -0.28066227 -0.20865093 0.12514298
0002a0 3c 8d 9a bb 17 41 b2 3e 6c 08 00 3d 97 03 0e bd
       -0.0047165435 0.34815285 0.03125803 -0.034671392
0002b0 4f 07 99 3e ac e8 3e bd c0 bd aa be 95 1e 41 3e
       0.2988839 -0.046608612 -0.33347893 0.18859322
0002c0 80 85 44 bc 4e d2 7d be e4 50 d6 bc ed a2 8a 3e
       -0.0119947195 -0.24787256 -0.026161619 0.27077428
0002d0 21 31 27 be 5f cf b0 bd aa 23 8d be 92 6d bd be
       -0.16327335 -0.08633303 -0.27566272 -0.36997658
0002e0 88 4b c6 3d 31 5e a1 3e 69 0b df 3e 8a 0f 44 bc
       0.09682375 0.31517175 0.43563393 -0.011966595
0002f0 89 be 88 be 06 15 14 3c e2 6f 2b 3d 6b e8 cd bc
       -0.26707867 0.0090382155 0.041854747 -0.02513524
000300 c4 ec 79 3e 77 14 a3 bb be bd 01 3f 4e 48 cc be
       0.24406725 -0.004976805 0.5068015 -0.39898914
000310 0b 0c 04 bf 37 b1 e4 3e 07 1d 6d 3e 80 59 a8 bd
       -0.51580876 0.44666454 0.23155604 -0.08220196
000320 89 bc 52 3e d7 d1 9b 3e 56 f9 94 3d 6b c8 39 3d
       0.20579733 0.30433533 0.072741196 0.04535715
000330 70 2a 44 be e2 5a e8 be 6d c4 3d 3d b3 b1 f6 3c
       -0.19156814 -0.45381838 0.046329904 0.03011403
000340 00 d2 35 bf f7 d0 8b be 1e 5a 77 bd f9 2b 74 bd
       -0.7102356 -0.27307865 -0.060388677 -0.059612248
000350 f3 33 b4 be e5 ef ef 3e 6f 6a a8 be ff 18 96 3e
       -0.35195884 0.46862713 -0.32893702 0.29315946
000360 43 4f 93 be 3f 09 9f bd 8c 36 58 3e e4 1f da 3d
       -0.2877141 -0.077654354 0.21114558 0.10650614
000370 bd f6 de bc e0 9e 97 be ed 68 f9 bd b3 31 30 3e
       -0.027217263 -0.296134 -0.12178216 0.17206459
000380 90 5c 60 be 84 f4 c7 bd 86 99 8a bb fb 2c f8 3d
       -0.2191031 -0.097634345 -0.004229727 0.12117954
000390 72 75 9c 3e 71 1f 1a be f2 c9 9c 3d 64 00 f8 3c
       0.30558354 -0.15051056 0.076557055 0.030273624
0003a0 e8 1a 40 3e 39 c9 41 3e 7e c9 07 bf 68 33 f0 bd
       0.18760264 0.18924417 -0.5304183 -0.11728555
0003b0 8a f5 b8 bc de 36 8d 3d db 10 b0 3e 85 c6 0f 3f
       -0.02257802 0.06895231 0.3438786 0.5616229
0003c0 f8 61 5f be 7c 81 9a be 3d 2d 7b 3d 74 37 5b bd
       -0.21814716 -0.30176914 0.06132244 -0.05351968
0003d0 f7 89 f7 3d a8 8c a2 3e 1f ff a9 3d 4f 2b de be
       0.120868616 0.31747937 0.083006136 -0.43392417
0003e0 74 e2 d1 3d 08 24 03 be 22 f3 29 3f c2 54 af be
       0.10248271 -0.12806714 0.66386616 -0.34244353
0003f0 c9 3f 09 3d ae 39 80 3e ab 8a 87 3e df 03 13 bd
       0.033508096 0.25044006 0.26472983 -0.035892364

network_body._body_endoder.seq_layers.2.bias f4 [128]
000000 39 c8 51 be 06 72 b4 be 6a 83 64 bf ad 68 d3 bd
       -0.20486535 -0.35243243 -0.8926302 -0.103227
000010 2b 84 0d be b6 e7 7a be 5d b8 37 be a4 1f 5d be
       -0.1381995 -0.24502453 -0.17941423 -0.21594101
000020 cd 78 16 be 0e cc 16 be c7 10 0f be 5f d1 7e bd
       -0.1469452 -0.14726278 -0.13971244 -0.06221139
000030 0c 3a 48 bd 74 8e 77 be 85 ac 28 be 43 ea 75 bd
       -0.048883483 -0.24175435 -0.16472061 -0.060037863
000040 dc 6b e7 be 65 77 6c bd 31 5e 10 be 61 1e 39 bd
       -0.45199478 -0.05773105 -0.14098431 -0.045194987
000050 16 1f 22 be 15 98 28 be 6d ec 73 be 81 9e 84 bd
       -0.15832171 -0.16464265 -0.23820658 -0.06475545
000060 4c c5 36 be 37 38 01 bd f2 34 1d bf 8b 97 10 be
       -0.178487 -0.03154775 -0.61408913 -0.14120309
000070 d8 30 88 bf 80 2b 31 be 27 43 24 be ea a7 3a be
       -1.0639906 -0.1730175 -0.16041242 -0.18228117
000080 bc e4 13 be 81 32 a1 be 22 4e d6 3d 37 6d 38 be
       -0.14442724 -0.31483844 0.104641214 -0.18010412
000090 19 4e 4f bf 3c 69 58 be 8b 2c 45 be fd 2b 3b be
       -0.8097854 -0.21133894 -0.19255273 -0.18278499
0000a0 1d 42 e0 bd 38 d9 17 bf d3 3e 76 be 45 31 28 be
       -0.1095011 -0.59315825 -0.24047403 -0.16425045
0000b0 5f 7b 1d be c6 f0 9f 3d cc c4 4a be f7 2b 73 be
       -0.15379094 0.07809596 -0.19801635 -0.2374724
0000c0 c7 71 11 be cc 18 08 be a8 d9 3c 3b a7 7e 49 3d
       -0.14203559 -0.1329071 0.0028816257 0.04919305
0000d0 49 8e 33 be f3 37 97 bf 33 3e 87 bd 53 91 23 be
       -0.17534746 -1.1813949 -0.066036604 -0.15973406
0000e0 2b 66 0c be ac a0 5d be 4f 05 fc bd 07 ba 2c be
       -0.13710849 -0.21643323 -0.123057 -0.16867839
0000f0 70 2d 14 be 31 2f 11 be 42 92 89 be a0 56 7e bd
       -0.14470458 -0.14178158 -0.26869398 -0.06209433
000100 62 36 34 be 69 73 1d be f7 b8 19 bd c9 f0 a4 be
       -0.1759887 -0.15376057 -0.03752991 -0.32214954
000110 29 22 70 be b4 ce 7a be b7 8d 66 be 93 74 11 be
       -0.23450531 -0.24492913 -0.22514997 -0.14204626
000120 ea c1 ef bd cd 1c 87 ba bb 0a 7a be 61 53 33 be
       -0.11706908 -0.0010308266 -0.24418156 -0.17512275
000130 ae d8 cc be 36 0f 9d 3c 63 54 32 be e7 3d 21 be
       -0.40009063 0.019172292 -0.17415003 -0.1574627
000140 d9 63 9d be 5b 87 85 be 52 5c 1c be 6e 02 9d be
       -0.3074024 -0.2607983 -0.15269592 -0.30665916
000150 8a 21 aa be 4c d5 ad bb 3b 8d e0 bd fb 8d 7b be
       -0.33228713 -0.005304968 -0.109644376 -0.2456588
000160 90 12 1b bd 17 62 7b be 2a 34 2c be 8f d6 5f be
       -0.0378595 -0.24549137 -0.16816774 -0.21859191
000170 6b 0b c7 bd ea 25 97 bd 5c 14 09 be ef f9 47 be
       -0.09718975 -0.073802784 -0.13386673 -0.19528936
000180 79 5e 40 bd 4c 9d 15 be c1 e5 15 be 82 10 28 be
       -0.046965096 -0.14610785 -0.14638425 -0.16412547
000190 4e 9a 3f be 98 f3 c9 bd 8f c6 22 be b1 dc 22 be
       -0.18711206 -0.09860915 -0.15896057 -0.159045
0001a0 c8 3c 7c bd 28 4d bb bd 9c c7 11 bc ac 0d 2a be
       -0.061581403 -0.09145576 -0.008897688 -0.16606778
0001b0 9d a8 09 bf f5 d5 19 be 77 e9 d1 3c ab 29 6a 3d
       -0.5377291 -0.15023024 0.02562402 0.057168644
0001c0 f8 ed 17 be 91 09 b8 bd af 7c 6d bc 80 17 08 be
       -0.14836872 -0.089862 -0.014495059 -0.13290215
0001d0 8c 56 58 be 00 e6 a9 be 80 6a bd bd 14 c2 0e bf
       -0.21126765 -0.3318329 -0.09248829 -0.5576489
0001e0 df e6 4d bc 86 e9 a6 be db 9d 1a be b0 d5 b7 bd
       -0.012567251 -0.3260004 -0.1509928 -0.089763045
0001f0 70 00 03 be de 13 1f be 3c b6 56 be 85 a7 88 be
       -0.12793136 -0.15534922 -0.20967954 -0.26690307

network_body._body_endoder.seq_layers.2.weight f4 [128, 128]
000000 ca 6b 21 bd 9c cf a7 3b 3a 4b 23 be 0c d8 62 be
       -0.039409436 0.0051211845 -0.15946665 -0.22152728
000010 b9 96 00 be 8d 49 08 3e 0a 1c 6b 3d 30 66 10 bd
       -0.12557496 0.13309307 0.057399787 -0.035253704
000020 cc fb de 3d ad e6 78 3d 30 30 38 be fc 8b d2 3d
       0.1088787 0.060766865 -0.17987132 0.10280606
000030 73 c8 98 bc f6 bd f1 bc c4 7d 1a 3d 02 9a 58 3c
       -0.01865027 -0.029509526 0.037717596 0.013220312
000040 f9 43 dd bd fd 77 ae 3d af 43 00 3e 31 ff 5b 3b
       -0.108039804 0.0851898 0.12525819 0.0033568854
000050 28 79 90 bd 2c d6 e2 ba 4c 6c 8a be b9 be 9e 3d
       -0.07054359 -0.001730626 -0.2703575 0.07751221
000060 e9 d1 0c 3e 5a de 66 3e e2 bc ab 3c 7d b6 3e 3e
       0.1375195 0.22545758 0.02096409 0.18624301
000070 ba 6c 1f bd 96 f8 74 bd 2a 00 6a 3e d1 5d b9 bd
       -0.03892205 -0.059807383 0.22851625 -0.09051097
000080 f2 39 4f bd 93 ba 87 bd 81 39 8d 3d 80 13 6e 3d
       -0.05059237 -0.06627383 0.068957336 0.058124065
000090 0d 5c 83 bd 15 a2 91 3c 19 2e 13 3e 17 05 f5 3d
       -0.06414042 0.017777482 0.14373054 0.119638614
0000a0 85 46 77 3d 5d 5b 16 3e 07 8d 7d bd 5c fc a5 bd
       0.060369987 0.1468329 -0.061902072 -0.08104774
0000b0 78 43 0a be 42 d0 b7 3d 8c 35 ac 3d d0 22 3b be
       -0.135023 0.08975269 0.08408651 -0.18274999
0000c0 88 a6 d5 3c bf 66 d3 bd 9c 92 2e 3d 66 ba f0 bd
       0.026080385 -0.10322332 0.042620286 -0.11754303
0000d0 9a 49 14 bd 0d c9 52 be 8c 64 13 3e 17 44 4b bd
       -0.036203004 -0.20584507 0.14393824 -0.049625482
0000e0 ba 59 33 be 5a 76 c3 bd cc 4c 26 3d 5e fb 52 be
       -0.17514697 -0.09544058 0.040600583 -0.20603701
0000f0 10 b6 00 3e 8c 43 42 bd 45 30 97 bc 29 9e 91 3d
       0.12569451 -0.0474277 -0.018455634 0.07110245
000100 e6 c3 85 bd 15 2c ca 3d d5 5d 67 b9 9c a8 5c bd
       -0.06531505 0.09871689 -0.00022064832 -0.053871736
000110 09 c5 33 3e 56 74 3b bd bd 5a 22 3d f7 8c 03 be
       0.17555632 -0.045765243 0.039637316 -0.12846743
000120 06 56 78 3d b2 22 38 3c c0 66 1b bd 01 e0 4e be
       0.060628913 0.011238741 -0.037939787 -0.20202638
000130 ff f9 15 3d 5b 7e 6b bd 8a 74 d0 bd 53 ad 10 be
       0.036615368 -0.05749355 -0.10178478 -0.14128618
000140 e0 0d 59 3d 71 47 40 3d a9 8a 09 3d 25 8d 19 3e
       0.052991748 0.04694313 0.033579502 0.14995249
000150 78 d9 8a bc e5 69 3c be 9b 91 f6 3d 50 cf be bc
       -0.0169494 -0.1839977 0.12039491 -0.023292214
000160 5f 57 fe bd 1e f6 a0 be 52 69 e4 bd 2c 2b 22 3d
       -0.124190085 -0.31437773 -0.11152901 0.039591953
000170 93 95 47 3d ef c0 19 be 89 23 89 3e 10 75 17 3e
       0.04872663 -0.15015005 0.26784924 0.1479075
000180 be 2a ea 3d f7 ef 30 be 69 76 48 be dd f9 1f bd
       0.11433934 -0.1727904 -0.1957642 -0.039056648
000190 ff c0 60 3a 92 79 dd bd 71 92 28 be f6 12 0f be
       0.00085736805 -0.10814203 -0.16462113 -0.13972077
0001a0 71 09 da bc 0c 54 38 3e c6 b4 16 3e bf 58 17 3e
       -0.02661583 0.18000811 0.14717397 0.14779948
0001b0 0c 18 e2 bd b4 ff 50 be 96 99 80 3e 82 48 4d bd
       -0.11039743 -0.20410043 0.25117177 -0.050117977
0001c0 b1 d3 8e 3e b7 c2 29 be 78 79 3f be 77 72 08 3e
       0.27895883 -0.16578184 -0.1869868 0.13324915
0001d0 dc d9 bd bd 00 02 cc 3d ac 52 41 3c fd 84 41 be
       -0.09270069 0.09961319 0.011799496 -0.18898387
0001e0 68 44 b9 3d d7 c6 12 3e 8e 14 44 be 86 9a 44 3c
       0.090462506 0.14333664 -0.19148466 0.011999732
0001f0 4c 8c a5 3c 4e d9 ee bc 06 07 0c 3e ea b0 ff bd
       0.0202085 -0.029156353 0.13674554 -0.124849156
000200 fa 1a 92 3e ff 51 39 3e 4f ba f5 bd aa 7c 13 be
       0.28536206 0.18097685 -0.11998426 -0.14403024
000210 24 e5 59 3e aa 1d 0a be 56 21 f7 3c 7b 18 27 3e
       0.21278816 -0.13487878 0.030167263 0.16317932
000220 ca 54 dc 3e e7 ac 0f be 1b db 04 bd b8 43 9d 3d
       0.4303344 -0.14030801 -0.032435518 0.07678932
000230 a0 3b 22 39 cf 76 5a bd 1c 2d af 3e 82 69 7c bd
       0.00015471736 -0.05333596 0.34214103 -0.061624058
000240 26 29 91 bc c0 1d b2 3e b5 aa 65 be 92 fa 8f 3e
       -0.017719816 0.34788322 -0.22428401 0.28120857
000250 ce 8e 13 bf 70 8a 2e bd cb ff 07 be c6 4e 8f 3e
       -0.5763978 -0.042612493 -0.13281171 0.27989787
000260 c1 4f f9 3d 72 7d 4a 3e eb 60 78 be 59 c7 34 3e
       0.12173415 0.19774416 -0.24255721 0.1765417
000270 b3 72 0d bf 34 26 f7 3d 28 29 00 3f 52 a0 31 3e
       -0.5525314 0.120678335 0.500628 0.17346314
000280 fe 33 76 be 95 d4 43 3e d6 bb 3c be cc 07 08 be
       -0.24043271 0.19124062 -0.18431029 -0.13284224
000290 a8 19 d7 3d 24 67 f6 be 33 e2 8e 3e 5f 6a bd 3e
       0.105029404 -0.48125565 0.2790695 0.36995217
0002a0 ce 7e 9b be e4 d7 c2 be 5f ba 1b 3e 58 3b af be
       -0.30370182 -0.38055336 0.15207814 -0.34224963
0002b0 86 d7 87 3d 35 a6 e5 3e 66 d4 04 3f cf 05 ad be
       0.06632905 0.44853368 0.51886594 -0.33793494
0002c0 06 56 d6 3d 5c b8 f9 3d 50 00 25 be 53 b3 6d 3e
       0.104656264 0.12193367 -0.161134 0.23212938
0002d0 0b d0 97 3e fd b2 31 bd ea 8c a1 3e da 2a 07 bc
       0.29650912 -0.043383587 0.3155282 -0.008249963
0002e0 df 02 6a 3e 00 fc bb 3e 90 b2 10 be 5c 49 82 be
       0.22852658 0.36715698 -0.14130616 -0.25446594
0002f0 36 2c 84 3e 30 9e e8 3d eb c6 17 3e 9e a9 b4 3d
       0.2581498 0.11358297 0.14821975 0.088214144
000300 53 dc 35 3b 3f 55 1d 3e e4 fc ad 3e 84 a7 2a bf
       0.0027749732 0.1536455 0.33982003 -0.6666186
000310 6e 5c 6d 3e d6 42 de be 46 a0 52 3e a8 fa 26 bf
       0.2317979 -0.43410367 0.20568952 -0.6522622
000320 8d f1 d2 3e cf b5 08 be f0 8c 94 3d 4e f9 0c be
       0.41199914 -0.13350604 0.07253444 -0.13766977
000330 d1 4a 0b 3f f6 e8 92 3e 6d 49 bf 3e 1e 88 aa 3e
       0.54411036 0.2869336 0.37360707 0.33306974
000340 c4 76 f6 3d 0c d6 f3 3e fc df 82 3e 9d 22 30 3e
       0.120343715 0.47624242 0.25561512 0.17200704
000350 68 2f 37 bf c2 52 4b 3e 93 1f e7 bd cb 62 65 be
       -0.7155671 0.19855788 -0.11285319 -0.22400968
000360 1b a5 82 be 7d 4f 2e 3e e5 10 bb 3d 34 92 b2 3e
       -0.2551659 0.1702251 0.09134082 0.3487717
000370 ec af 06 be 32 cc 6c 3d 31 9a 4f 3e 69 ec 03 3f
       -0.13153046 0.057811923 0.20273663 0.5153261
000380 77 45 20 be c9 ea 3f bf 81 09 16 3d 76 39 d8 be
       -0.15651499 -0.7496763 0.036630157 -0.4223134
000390 9a 88 34 be 31 d1 ca 3d 0b 3f 32 bd c7 85 52 be
       -0.17630234 0.09903181 -0.043517154 -0.20558845
0003a0 10 47 5a 3e 2b 8d 42 be c9 39 9b 3e 04 28 a4 3e
       0.2131617 -0.18999164 0.30317524 0.3206178
0003b0 3c a5 52 3e 4f ad 59 be f7 02 ba 3d 71 c7 1e 3d
       0.20570844 -0.21257518 0.09082597 0.03876442
0003c0 9d 1d 67 3e 47 d4 af be 01 2e 8d 3d a0 85 89 3e
       0.2256989 -0.34341642 0.0689354 0.2685976
0003d0 28 7d 47 be 14 06 36 3e fb 05 9b 3e 40 e0 98 3e
       -0.19481337 0.17775756 0.30278 0.2985859
0003e0 5a 43 d3 3e 4c b8 b6 3d 93 29 5f be 5d ec 61 3e
       0.41262323 0.089218706 -0.21793203 0.22062822
0003f0 20 61 a4 be 7e 59 b3 3e e9 d9 fe 3d ad 4d 31 bf
       -0.3210535 0.35029215 0.12443907 -0.6925915
