results/CubeAgentJumper-Bonus/CubeAgentRay/CubeAgentRay-1499998.onnx (onnx, 79059 bytes, 8 tensors)

action_model._continuous_distribution.log_sigma f4 [1, 2]
-0.8837537 -0.29459193
00000000: af3d 62bf c1d4 96be

action_model._continuous_distribution.mu.bias f4 [2]
0.27310166 0.140306
00000000: fbd3 8b3e 60ac 0f3e

action_model._continuous_distribution.mu.weight f4 [2, 128]
-0.18306577 -0.018207656 -0.009677565 -0.1968831 -0.1617985 -0.036929894 -0.14289054 -0.040757887
-0.1965183 0.020325078 -0.08157355 0.0039779255 -0.032343615 -0.20474432 -0.15713535 0.009221998
-0.030993165 -0.010633959 -0.17211138 -0.01779343 -0.15614295 -0.18649071 -0.08120853 0.009104278
-0.17594722 -0.0007203995 -0.033185903 -0.014945625 -0.044086028 -0.14976442 -0.18161957 -0.022853334
-0.17784351 -0.08391274 0.098475926 -0.18643712 -0.02601384 -0.104424395 -0.13879503 -0.18566115
0.008488768 -0.015054698 -0.063888155 -0.1801889 -0.14690332 -0.08199938 -0.18951173 -0.06264912
-0.14961514 -0.21332745 -0.08277295 -0.10240726 -0.18954805 -0.025185956 0.0024559018 -0.13593791
-0.0695309 -0.19828181 -0.05069273 -0.17178705 0.014163446 -0.19773528 -0.05445922 0.0026278005
-0.21414316 -0.0908661 0.0034901083 -0.048842814 -0.06867028 -0.043227028 -0.1832386 -0.17500736
0.010904417 -0.011571923 -0.14848019 -0.1679389 -0.034922186 -0.0071972013 -0.20028822 -0.067016475
-0.04384176 -0.061139844 -0.12032084 -0.042580415 -0.06685438 -0.017558303 -0.15078978 -0.17974979
0.0076625654 -0.033568174 -0.18723238 -0.02132116 0.0051001143 0.0040477887 -0.1851183 -0.19495729
-0.031548463 -0.17966591 -0.19386101 -0.1384404 -0.19162558 -0.07545768 -0.09274597 -0.16690005
0.0017661714 0.0048884675 -0.0025391008 -0.1948906 -0.019612331 -0.17088723 -0.07558882 0.028840432
-0.16023067 -0.18821059 -0.012730464 -0.07151561 -0.12429357 -0.051209733 0.0026500744 -0.017278297
-0.047439974 -0.028268732 -0.13197565 0.00073037343 0.004580153 -0.17302334 -0.070453025 -0.05237838
-0.101113155 -0.06595043 0.0977855 -0.11891227 -0.13962398 -0.034782197 -0.04678307 -0.05524867
-0.1346184 0.06295609 -0.06370946 0.008193086 0.027316397 -0.101001084 -0.045507938 -0.051629182
-0.07244749 0.15604183 -0.09940002 0.055676337 -0.11458154 -0.08241317 0.024516352 -0.056214035
-0.10728765 -0.082806736 0.04465606 0.12714553 -0.04179719 -0.07397335 -0.09319837 0.14332971
-0.041124277 -0.015577741 0.05470949 -0.08214303 0.05627573 -0.058612205 -0.058776107 -0.080989555
0.031060638 -0.067518555 -0.07708127 -0.071801886 -0.095009655 0.26521125 -0.082898065 -0.020233786
-0.08100196 -0.05986777 0.1994485 0.26651403 -0.0811651 -0.032469723 -0.0060812132 -0.09224736
-0.056746025 -0.11192047 0.033221085 -0.11996016 0.042836968 -0.103654295 -0.030707333 0.06656969
-0.070357814 -0.098409034 0.00893256 0.026498618 -0.010689305 0.020872574 -0.09184233 -0.10703545
0.030407503 0.08825411 -0.07742503 -0.09333325 0.053297237 0.09161675 -0.10013724 -0.07039408
0.022653967 0.014255864 -0.07839326 -0.042590708 0.08074773 0.027169691 -0.13152674 -0.1062107
-0.001241269 -0.03876537 -0.11715309 0.08745235 -0.0006748585 0.04502795 -0.09542445 -0.092953406
0.05943903 -0.09978464 -0.12284095 -0.083519034 -0.08864961 -0.010492413 -0.09634157 -0.09378867
-0.023086255 -0.0905146 -0.007867069 -0.10507212 -0.07746428 -0.119163856 0.26263043 0.028922975
-0.1124813 -0.11188115 0.02623881 -0.09154556 -0.046258602 -0.07264283 0.014814428 -0.0742519
0.212473 0.038781803 -0.10867886 0.027761396 2.2313003e-05 -0.092114255 -0.07152339 -0.036709644
00000000: 9875 3bbe 3928 95bc a68e 1ebc b99b 49be
00000010: 82ae 25be cd43 17bd e651 12be bef1 26bd
00000020: 183c 49be c780 a63c 0910 a7bd 4259 823b
00000030: bd7a 04bd 7fa8 51be 17e8 20be dd17 173c
00000040: 61e5 fdbc 0f3a 2ebc f73d 30be 87c3 91bc
00000050: f0e3 1fbe 6cf7 3ebe a850 a6bd 1c2a 153c
00000060: 822b 34be 31d9 3cba f1ed 07bd 7fde 74bc
00000070: 8d93 34bd d85b 19be 7bfa 39be ea36 bbbc
00000080: 9c1c 36be 71da abbd bfad c93d 5fe9 3ebe
00000090: fa1a d5bc 75dc d5bd 4920 0ebe f51d 3ebe
000000a0: 7914 0b3c fba7 76bc cbd7 82bd 7083 38be
000000b0: d36d 16be 4aef a7bd 5d0f 42be 2f4e 80bd
000000c0: b634 19be 8372 5abe dd84 a9bd e6ba d1bd
000000d0: e218 42be c752 cebc 32f3 203b 4f33 0bbe
000000e0: 3766 8ebd 630a 4bbe 2ea3 4fbd f2e8 2fbe
000000f0: cc0d 683c 1e7b 4abe a210 5fbd 2d37 2c3b
00000100: 5848 5bbe 0118 babd 4dba 643b 670f 48bd
00000110: 01a3 8cbd d30e 31bd e6a2 3bbe 2135 33be
00000120: 71a8 323c 2a98 3dbc 310b 18be 2df8 2bbe
00000130: 910a 0fbd 80d6 ebbb 5b18 4dbe ef3f 89bd
00000140: 6b93 33bd c66d 7abd c66a f6bd cd68 2ebd
00000150: f3ea 88bd 6ed6 8fbc a368 1abe 5410 38be
00000160: 4216 fb3b c87e 09bd d8b9 3fbe b7a9 aebc
00000170: dc1e a73b 50a3 843b a78f 3dbe e2a2 47be
00000180: f638 01bd 57fa 37be 8083 46be 52c3 0dbe
00000190: 7f39 44be 8e89 9abd 99f1 bdbd d9e7 2abe
000001a0: e17e e73a 702f a03b 0b67 26bb 6791 47be
000001b0: 0aaa a0bc 10fd 2ebe 50ce 9abd c542 ec3c
000001c0: 8213 24be 47ba 40be 7093 50bc c776 92bd
000001d0: a18d febd 4cc1 51bd dfac 2d3b 378b 8dbc
000001e0: 6b50 42bd d493 e7bc a024 07be 8876 3f3a
000001f0: 1c15 963b 082d 31be ad49 90bd b68a 56bd
00000200: 6a14 cfbd 0511 87bd c443 c83d 4788 f3bd
00000210: 97f9 0ebe c777 0ebd 9b9f 3fbd 6e4c 62bd
00000220: 68d9 09be 1fef 803d 1b7a 82bd 4b3c 063c
00000230: a3c6 df3c a8d9 cebd 8866 3abd 1f79 53bd
00000240: 5a5f 94bd 6ec9 1f3e 3d92 cbbd df0c 643d
00000250: baa9 eabd 3cc8 a8bd 84d6 c83c b040 66bd
00000260: a1b9 dbbd 9496 a9bd 46e9 363d 7032 023e
00000270: 8833 2bbd 577f 97bd c9de bebd 06c5 123e
00000280: ee71 28bd c839 7fbc 0f17 603d 9b3a a8bd
00000290: 6181 663d 5a13 70bd 37bf 70bd dadd a5bd
000002a0: e172 fe3c 2b47 8abd c9dc 9dbd de0c 93bd
000002b0: 6c94 c2bd c5c9 873e 76c6 a9bd 53c1 a5bc
000002c0: 5be4 a5bd e837 75bd 3a3c 4c3e 8774 883e
000002d0: e339 a6bd f9fe 04bd ea44 c7bb 2fec bcbd
000002e0: 856e 68bd 8f36 e5bd d512 083d acad f5bd
000002f0: d175 2f3d b448 d4bd f28d fbbc b155 883d
00000300: c217 90bd ad8a c9bd df59 123c a113 d93c
00000310: 3222 2fbc f6fc aa3c d517 bcbd 6735 dbbd
00000320: 2819 f93c 92be b43d 0491 9ebd 8125 bfbd
00000330: 344e 5a3d 90a1 bb3d c114 cdbd c52a 90bd
00000340: d094 b93c 6d91 693c a58c a0bd 9873 2ebd
00000350: 115f a53d f992 de3c f2ae 06be ff84 d9bd
00000360: 14b2 a2ba 70c8 1ebd f6ed efbd 381a b33d
00000370: fde8 30ba 3a6f 383d e56d c3bd 5b5e bebd
00000380: 5776 733d e45b ccbd 0994 fbbd 070c abbd
00000390: ed8d b5bd 5fe8 2bbc bb4e c5bd 4614 c0bd
000003a0: 631f bdbc b85f b9bd e1e4 00bc 0d30 d7bd
000003b0: 98a5 9ebd 2e0c f4bd 7f77 863e e0ef ec3c
000003c0: 995c e6bd f221 e5bd c6f2 d63c 3d7c bbbd
000003d0: a979 3dbd c4c5 94bd 37b8 723c 6111 98bd
000003e0: 8692 593e abd9 1e3d 0693 debd de6b e33c
000003f0: cf2c bb37 66a6 bcbd db7a 92bd da5c 16bd

action_model._discrete_distribution.branches.0.weight f4 [1, 128]
-0.0011967228 -0.00203181 0.001987037 -0.011092554 -0.0015253354 0.002601608 -0.004642399 -0.0033179845
-0.004511159 0.008886953 0.0013531096 0.008347198 -0.0009899437 -0.0013474122 0.022695374 0.0014238834
-0.0007661538 -0.0034521536 -0.006838693 -0.006478421 -0.0043380456 0.0028031773 -0.014432147 0.0043004076
0.0058821337 -7.357925e-05 0.005442918 -0.013963662 0.0006809843 -0.004638691 -0.007199121 -0.0032436699
-0.004606792 -0.006973766 0.011850242 0.0047217845 0.012566718 0.006320156 0.013269069 0.006852226
-0.0058419188 -0.0017822229 0.0008225708 0.012401239 0.0012189683 -0.00022739403 0.0011366139 0.00958911
-0.009025702 -0.013706333 0.00035989896 0.0054736477 -0.0064486535 -0.010306645 0.002492361 -0.0129674
0.020802464 0.010934751 -0.01586206 -0.011200278 -0.005492588 -0.013684325 -0.0046169474 0.0017039347
-0.0036136569 -0.0008390797 -0.012403981 0.002184806 -0.0029971024 0.0035256695 -0.009903173 -0.0020038188
-0.016293993 0.0051355367 0.012023734 0.00063859223 -0.004965875 0.0063121826 -0.00089233083 -0.003086759
0.0028873426 -0.0032256271 0.012348726 -0.01857874 0.005572005 0.017675376 0.0012674311 0.018154731
0.0029771316 0.01097177 -0.011063498 0.0033416932 0.0023551243 0.0046410053 0.006535941 -0.007594151
-0.006056687 -0.007875105 0.01918553 0.0015723618 -0.0037421107 -0.0042374353 -0.022506451 -0.003400843
0.0010185081 -0.006959516 -0.006612766 0.003215308 -0.018052595 0.004490625 0.014132768 -0.0043412917
0.0048734117 -0.009480144 -0.011593173 -0.008839885 -0.0089343 -0.005311922 -0.010312887 0.010045004
-0.005735682 -0.003277703 0.011284036 0.0019017326 0.009728193 -0.01373291 -0.006003207 -0.0104632
00000000: 5bdb 9cba 1e28 05bb f338 023b 8bbd 35bc
00000010: c3ed c7ba bd7f 2a3b 441f 98bb 8b72 59bb
00000020: 58d2 93bb 959a 113c d35a b13a b0c2 083c
00000030: 00c1 81ba a79b b0ba a6eb b93c 99a1 ba3a
00000040: b6d7 48ba 873d 62bb 1d17 e0bb ef48 d4bb
00000050: 2a26 8ebb 83b5 373b d074 6cbc 6fea 8c3b
00000060: eabe c03b 8f4e 9ab8 815a b23b d8c7 64bc
00000070: 1584 323a 2900 98bb 9be6 ebbb c093 54bb
00000080: 92f4 96bb 3084 e4bb 8427 423c 33b9 9a3b
00000090: a3e4 4d3c 5019 cf3b 8266 593c a388 e03b
000000a0: 916d bfbb 7a99 e9ba cba1 573a 912e 4b3c
000000b0: cac5 9f3a 9f70 6eb9 6ffa 943a a41b 1d3c
000000c0: 8ae0 13bc 8790 60bc d2b0 bc39 495c b33b
000000d0: 3a4f d3bb 34dd 28bc e156 233b 3875 54bc
000000e0: ee69 aa3c ab27 333c 27f1 81bc 5f81 37bc
000000f0: 2bfb b3bb 3834 60bc c349 97bb 9056 df3a
00000100: 1ad3 6cbb aff5 5bba 113a 4bbc f62e 0f3b
00000110: 096b 44bb eb0e 673b eb40 22bc 8052 03bb
00000120: fb7a 85bc 0148 a83b 32ff 443c 3367 273a
00000130: c7b8 a2bb 6dd6 ce3b 4feb 69ba 394b 4abb
00000140: 9239 3d3b 0b65 53bb 5052 4a3c 7132 98bc
00000150: 5e95 b63b f3cb 903c ee1f a63a 3bb9 943c
00000160: fb1b 433b f0c2 333c ad43 35bc 4f00 5b3b
00000170: 6e58 1a3b 9313 983b 722b d63b 5bd8 f8bb
00000180: 2c77 c6bb 9606 01bc f92a 9d3c b517 ce3a
00000190: 333e 75bb 2fda 8abb 735f b8bc ade0 5ebb
000001a0: 767f 853a a70c e4bb e7af d8bb ebb7 523b
000001b0: 09e3 93bc 1826 933b 208d 673c 6541 8ebb
000001c0: 24b1 9f3b 9b52 1bbc 4bf1 3dbc 2ad5 10bc
000001d0: 2c61 12bc a20f aebb 62f7 28bc cd93 243c
000001e0: 63f2 bbbb bbce 56bb ade0 383c 8f43 f93a
000001f0: 0063 1f3c 0000 61bc 8db6 c4bb d76d 2bbc

network_body._body_endoder.seq_layers.0.bias f4 [128]
0.056836724 -0.04508544 -0.11627574 0.046230543 -0.40392035 0.006989507 -0.014402592 -0.08907282
-0.12641062 -0.099186055 -0.008419025 0.018836094 -0.016411783 -0.09749987 -0.02019556 -0.13156353
0.025179526 -0.033413816 -0.0141906515 0.024749067 -0.0089799445 0.035633557 -0.039773267 -0.35698408
-0.25426972 -0.1527882 -0.02067474 -0.07673089 -0.0475595 -0.08992419 0.11523592 -0.034966663
-0.11696204 0.04948253 -0.0045540966 -0.08646542 -0.17733036 -0.044539563 -0.15072381 0.063344724
0.104266435 -0.13262613 0.04591365 -0.09978189 -0.08794179 -0.016052276 0.089266166 -0.052525833
-0.23235394 0.074182376 0.1291975 -0.058982268 0.055947058 -0.018282475 0.0101746265 -0.18308339
0.07209204 -0.07737546 -0.05311155 -0.10743173 0.016768454 -0.020048104 0.08968435 -0.030555485
-0.17591019 0.0010091675 -0.24520732 -0.055524815 -0.058756538 -0.10395979 -0.00917193 -0.009128474
0.064027034 -0.00042287513 0.03517992 -0.07289221 0.0042748004 0.05987131 -0.050504725 -0.0466358
-0.26307404 -0.03990606 -0.07809115 -0.058212522 -0.06836904 0.009902498 -0.084114596 -0.1255549
-0.0818225 -0.028890584 -0.083583646 -0.03891112 -0.12241384 -0.18593358 -0.10510192 -0.068084165
-0.16797508 0.019644804 -0.072803475 -0.18896276 0.011243852 -0.021500692 -0.09640128 -0.085129604
0.00032454054 0.04896555 -0.0033031802 0.021298714 -0.4732379 0.06640648 -0.081094645 -0.06277169
-0.051083405 -0.14240639 -0.15018518 -0.083253115 -0.12586634 0.058102816 -0.0064157853 0.0034704518
-0.12273032 -0.07544109 -0.07776999 -0.6361526 -0.114394784 0.049734835 0.0060093235 0.00043344276
00000000: a0cd 683d 83ab 38bd fa21 eebd 3d5c 3d3d
00000010: a6ce cebe 3c08 e53b d9f8 6bbc d06b b6bd
00000020: c971 01be 0f22 cbbd f3ef 09bc 274e 9a3c
00000030: 0172 86bc 03ae c7bd 2971 a5bc 97b8 06be
00000040: 4b45 ce3c eddc 08bd e87f 68bc 8ebe ca3c
00000050: 9e20 13bc 7ef4 113d 4be9 22bd 9ec6 b6be
00000060: a42f 82be 8374 1cbe 135e a9bc 1625 9dbd
00000070: c0cd 42bd 2c2a b8bd cf00 ec3d 3439 0fbd
00000080: cb89 efbd 32ae 4a3d 883a 95bb c814 b1bd
00000090: 1796 35be 1e6f 36bd 5857 1abe e1ba 813d
000000a0: a489 d53d 25cf 07be f40f 3c3d 735a ccbd
000000b0: d31a b4bd 1080 83bc 2ed1 b63d 5425 57bd
000000c0: 31ee 6dbe eeec 973d 594c 043e 6497 71bd
000000d0: be28 653d 21c5 95bc 7ab3 263c 367a 3bbe
000000e0: fea4 933d 0677 9ebd 7f8b 59bd 2b05 dcbd
000000f0: ff5d 893c ec3b a4bc 6eac b73d 7f4f fabc
00000100: cd21 34be 0b46 843a a117 7bbe fd6d 63bd
00000110: b2aa 70bd dfe8 d4bd dd45 16bc 988f 15bc
00000120: 9b20 833d 57b5 ddb9 d218 103d 8348 95bd
00000130: a013 8c3b 9e3b 753d 0bde 4ebd 2e05 3fbd
00000140: a4b1 86be 8974 23bd 41ee 9fbd 4170 6ebd
00000150: 1105 8cbd 163e 223c 4644 acbd 7791 00be
00000160: 8e92 a7bd f2ab ecbc e72d abbd 4461 1fbd
00000170: 1bb4 fabd 5f65 3ebe ad3f d7bd b66f 8bbd
00000180: a901 2cbe 24ee a03c fd19 95bd 747f 41be
00000190: 2238 383c 3822 b0bc 096e c5bd 6e58 aebd
000001a0: 1827 aa39 1a90 483d 2b7a 58bb a47a ae3c
000001b0: 3d4c f2be 1f00 883d f314 a6bd 728e 80bd
000001c0: d53c 51bd fbd2 11be 25ca 19be 9c80 aabd
000001d0: 1be3 00be 38fd 6d3d 823b d2bb 8570 633b
000001e0: 095a fbbd dc80 9abd df45 9fbd e6da 22bf
000001f0: d047 eabd c1b6 4b3d dce9 c43b b43f e339

network_body._body_endoder.seq_layers.0.weight f4 [128, 15]
0.07505565 0.06078861 0.09379523 0.46974832 0.18266097 -0.29795426 -0.7974476 -0.17228349
-0.19356468 0.27159265 0.3234917 -0.29800528 0.09160363 -0.09709115 -0.22368078 -0.2973613
-0.18146995 -0.19155844 -0.11570211 -0.07557104 0.07419858 0.29115963 -0.12730888 0.035532996
0.1928618 -0.012664614 -0.18063714 0.28622317 -0.2301103 -0.30045396 0.32499906 -0.08533625
-0.4956373 -0.031905446 0.24736589 -0.11335338 0.34424996 0.18641731 -0.19075064 0.210564
0.100906365 0.064843245 0.099145755 -0.83958757 -0.0038849304 0.3137526 -0.25483 0.11836271
0.15668096 -0.0016458865 -0.21633752 0.2086016 0.03792145 -0.33810252 -0.1385338 0.21416566
0.13733394 0.054517303 0.06248407 -0.049260702 -0.5044077 -0.5082137 -0.066146225 -0.8587938
-0.55944335 -0.3101148 -0.44840682 -0.7092586 -0.6731253 -0.99233204 -0.3641922 -0.8034918
-0.15921511 -1.1305267 0.5852313 -0.7608983 -0.14620277 0.03482699 -0.07267374 0.33247578
-0.48651162 -0.009809498 0.4062445 0.2846617 -0.4243305 0.11255759 0.000794386 0.091286264
0.34751937 0.16690259 0.20965695 -0.35677844 0.2637362 -0.19487865 -0.059286334 -0.30678162
-0.31357908 0.23156305 -0.28116488 0.048721388 0.2292535 0.20296116 0.006170741 0.40443185
-0.019425275 0.56791824 -0.015647113 0.015499723 -0.41983372 -0.3976294 0.32992035 -0.39526078
-0.060920477 0.3637773 0.036946278 -0.10709105 -0.04888432 0.03671021 0.35824195 -0.1270706
0.016635764 0.16619648 0.08754833 -0.33758566 -0.29067895 -0.5320256 -0.62504685 -0.088426016
-0.17017719 -0.2981848 -0.5058406 -0.082204096 0.3167288 -0.32750338 0.21922763 0.42161268
0.06936716 -0.30419135 -0.13038935 -0.007337589 0.040970035 0.14603914 0.13429655 -0.060362726
-0.15705009 -0.16989914 0.38581195 -0.38876146 -0.50205266 -0.33241895 -0.44848293 -0.201525
0.03310266 0.4172299 0.0040085874 -0.04305299 -0.29980835 0.06702608 0.09923808 0.12887722
0.4185727 -0.14565563 0.14892542 -0.8893113 0.29448265 -0.19900522 -0.20545714 -0.00051848515
-0.0037491568 0.22249235 0.032224935 0.008486024 0.30619413 -0.037954308 -0.32482448 0.19724879
-0.0033403053 -0.24787256 -0.017507253 0.26211858 -0.23973379 -0.11865143 -0.30311394 -0.40495405
0.06937623 0.28019527 0.35284913 -0.03641557 -0.2753976 0.00071294274 0.033529535 -0.033460423
0.24406725 -0.013301868 0.51513565 -0.38979056 -0.51591694 0.4567868 0.2179854 -0.07207794
0.19222674 0.25744784 0.04176906 0.018273294 -0.21865107 -0.48090187 0.019245986 0.03011403
-0.73733306 -0.24598494 0.046334565 -0.055448756 -0.21302065 0.46362555 -0.19000001 0.28815797
-0.3611545 -0.10483921 0.18596835 0.08132794 -0.052395396 -0.3213155 -0.12178216 0.14688827
-0.1939066 -0.12856187 6.9087255e-05 0.116186835 0.30485797 -0.15550241 0.07582844 0.08187176
0.19466893 0.19240156 -0.5272556 -0.11412466 -0.019416913 0.06895231 0.34704468 0.55847424
-0.18907237 -0.30702925 0.074347295 -0.057418946 0.1338921 0.3135815 0.124093965 -0.41490126
0.10463758 -0.12590913 0.66602314 -0.3402886 0.033508096 0.2525986 0.262581 -0.0009994318
00000000: c7b6 993d 7afd 783d b717 c03d da82 f03e
00000010: 7a0b 3b3e 768d 98be 8725 4cbf 156b 30be
00000020: d235 46be 310e 8b3e b4a0 a53e 2694 98be
00000030: af9a bb3d bad7 c6bd 930c 65be be3f 98be
00000040: 42d3 39be e527 44be 3af5 ecbd fdc4 9abd
00000050: 6df5 973d e012 953e 425d 02be 0c8b 113d
00000060: 907d 453e 3e7f 4fbc f1f8 38be d88b 923e
00000070: 09a2 6bbe 1ad5 99be 4766 a63e c6c4 aebd
00000080: 2cc4 fdbe 49af 02bd 7c4d 7d3e d125 e8bd
00000090: 8841 b03e 2ee4 3e3e 2354 43be 179e 573e
000000a0: ffa7 ce3d 89cc 843d ee0c cb3d 36ef 56bf
000000b0: 519a 7ebb 2ea4 a03e 1479 82be 2668 f23d
000000c0: f970 203e c9ba d7ba 9587 5dbe a89b 553e
000000d0: 8653 1b3d c61b adbe cedb 0dbe 3e4e 5b3e
000000e0: 45a1 0c3e 894d 5f3d 4cef 7f3d 97c5 49bd
000000f0: dd20 01bf 4b1a 02bf ac77 87bd e9d9 5bbf
00000100: ae37 0fbf 5ec7 9ebe 9495 e5be f991 35bf
00000110: f151 2cbf 7909 7ebf 6677 babe a3b1 4dbf
00000120: 4909 23be 19b5 90bf b8d1 153f 3bca 42bf
00000130: 2eb6 15be bfa6 0e3d f8d5 94bd 443a aa3e
00000140: 0d18 f9be 04b8 20bc 47ff cf3e 2ebf 913e
00000150: d941 d9be 9884 e63d 583e 503a 4bf4 ba3d
00000160: 0fee b13e 83e8 2a3e 50b0 563e aaab b6be
00000170: 6e08 873e 458e 47be 3ad6 72bd 7b12 9dbe
00000180: 708d a0be dd1e 6d3e d8f4 8fbe 1490 473d
00000190: 6ec1 6a3e 0dd5 4f3e ed33 ca3b b111 cf3e
000001a0: c121 9fbc 1763 113f 602e 80bc 8df2 7d3c
000001b0: 72f4 d6be 1596 cbbe 52eb a83e 9f5f cabe
000001c0: c087 79bd 0541 ba3e fb54 173d 8d52 dbbd
000001d0: ed3a 48bd 725d 163d 7d6b b73e cc1e 02be
000001e0: ba47 883c 692f 2a3e 8a4c b33d 07d8 acbe
000001f0: dfd3 94be d432 08bf 1203 20bf b318 b5bd
00000200: ee42 2ebe aeab 98be c57e 01bf 9f5a a8bd
00000210: 472a a23e 86ae a7be 357d 603e 9edd d73e
00000220: 5f10 8e3d f8be 9bbe c984 05be 2870 f0bb
00000230: 32d0 273d 498b 153e 0985 093e e83e 77bd
00000240: bdd1 20be 0afa 2dbe 2589 c53e be0b c7be
00000250: 8686 00bf d132 aabe 8e9f e5be 925c 4ebe
00000260: a896 073d 289f d53e 785a 833b 5558 30bd
00000270: 7b80 99be f844 893d 563d cb3d 64f8 033e
00000280: 294f d63e c026 15be e87f 183e e8a9 63bf
00000290: 6ec6 963e 06c8 4bbe 5b63 52be f3ea 07ba
000002a0: 6ab4 75bb 09d5 633e 4bfe 033d f708 0b3c
000002b0: 7ac5 9c3e fa75 1bbd 654f a6be 96fb 493e
000002c0: 06e9 5abb 4ed2 7dbe 5f6b 8fbc 6834 863e
000002d0: c67c 75be 85ff f2bd c031 9bbe 2356 cfbe
000002e0: 2015 8e3d c175 8f3e a4a8 b43e 7e28 15bd
000002f0: ea00 8dbe c7e4 3a3a 4456 093d cc0d 09bd
00000300: c4ec 793e 14f0 59bc eedf 033f a192 c7be
00000310: 2213 04bf f6df e93e 9137 5f3e 999d 93bd
00000320: 16d7 443e 34d0 833e 0916 2b3d e0b1 953c
00000330: 11e6 5fbe c538 f6be c2a9 9d3c b3b1 f63c
00000340: dcc1 3cbf 7ae3 7bbe 50c9 3d3d 3c1e 63bd
00000350: 1622 5abe 5460 ed3e 5d8f 42be 7189 933e
00000360: 3ee9 b8be f1b5 d6bd 7d6e 3e3e 438f a63d
00000370: 8e9c 56bd 7783 a4be ed68 f9bd e169 163e
00000380: 748f 46be b9a5 03be f0e2 9038 5df3 ed3d
00000390: 5816 9c3e 063c 1fbe f14b 9b3d 62ac a73d
000003a0: 4b57 473e ea04 453e 39fa 06bf 31ba e9bd
000003b0: 3810 9fbc de36 8d3d d7af b13e 2bf8 0e3f
000003c0: 309c 41be f032 9dbe 6543 983d 2130 6bbd
000003d0: 031b 093e c18d a03e fa24 fe3d f06d d4be
000003e0: 3a4c d63d 53ee 00be 7e80 2a3f 4f3a aebe
000003f0: c93f 093d 9b54 813e 0471 863e 5eff 82ba

network_body._body_endoder.seq_layers.2.bias f4 [128]
-0.1885811 -0.38748515 -0.09801964 -0.13574995 -0.12051223 -0.27662998 -0.17344514 -0.17627417
-0.14958283 -0.113875315 -0.19191477 -0.060536467 -0.12793186 -0.21109475 -0.19428013 -0.022557639
-0.26104024 -0.072974384 -0.13368644 -0.018828316 -0.15496773 -0.17816858 -0.17805299 -0.023066202
-0.17336139 -0.012560728 -0.1938013 -0.016170764 -1.1570951 -0.16391504 -0.16669539 -0.04557594
-0.18887515 -0.21243246 0.07240313 -0.15644169 -0.15628262 -0.20764263 -0.1911679 -0.17243628
-0.08921122 -0.4163536 -0.20747782 -0.18297406 -0.15105192 0.08100025 -0.18942629 -0.17216712
-0.17221935 -0.119008936 0.03259014 0.045304354 -0.13392018 -1.2145172 -0.11104936 -0.12347913
-0.15560478 -0.21830502 -0.15768355 -0.15271206 -0.13901734 -0.13108279 -0.21380088 -0.050083905
-0.17547368 -0.15751548 -0.041485555 -0.20739691 -0.1931118 -0.21235666 -0.22543016 -0.14590555
-0.08565764 0.012440273 -0.2258126 -0.17120862 -0.10818863 0.021611338 -0.15438643 -0.18215811
-0.24526459 -0.18020989 -0.114343114 -0.293975 -0.17383419 -0.022594506 -0.15598477 -0.23142721
-0.04319675 -0.28193882 -0.1714294 -0.03961955 -0.06085819 -0.06237059 -0.17590576 -0.19249246
-0.033709783 -0.13589548 -0.1654972 -0.16817704 -0.19169536 -0.16855897 -0.20606562 -0.16339487
-0.07678934 -0.045620885 0.0027787678 -0.17991957 -0.31356627 -0.15614563 0.022913521 -0.034747142
-0.14538777 -0.076207444 -0.01455922 -0.15920848 -0.20327796 -0.2722783 -0.094076216 -0.3544099
-0.006232309 -0.08079382 -0.1312425 -0.0877296 -0.11786747 -0.16099581 -0.22587118 -0.22995804
00000000: 671b 41be 7464 c6be 85be c8bd 0902 0bbe
00000010: 1ecf f6bd 72a2 8dbe 9a9b 31be 3781 34be
00000020: 3e2c 19be 7637 e9bd 4e85 44be 16f5 77bd
00000030: 9200 03be 3929 58be 5ff1 46be ccca b8bc
00000040: 11a7 85be 9873 95bd 19e5 08be d73d 9abc
00000050: dcaf 1ebe d371 36be 8653 36be 55f5 bcbc
00000060: a685 31be 83cb 4dbc d973 46be 8d78 84bc
00000070: b11b 94bf 58d9 27be 32b2 2abe d6ad 3abd
00000080: 7d68 41be e587 59be 1848 943d 4032 20be
00000090: 8d08 20be 45a0 54be 85c1 43be 2393 30be
000000a0: 5fb4 b6bd 4d2c d5be 1175 54be 8d5d 3bbe
000000b0: 5bad 1abe 76e3 a53d f7f8 41be 944c 30be
000000c0: 455a 30be f5ba f3bd 3d7d 053d 0f91 393d
000000d0: 5f22 09be 4d75 9bbf d96d e3bd a0e2 fcbd
000000e0: dc56 1fbe 5a8b 5fbe cc77 21be 8d60 1cbe
000000f0: 905a 0ebe 913a 06be 9eee 5abe c824 4dbd
00000100: 5faf 33be bd4b 21be c2ec 29bd db5f 54be
00000110: 1abf 45be 0674 59be 2ad7 66be 4468 15be
00000120: 466d afbd 49d2 4b3c 6b3b 67be 5051 2fbe
00000130: 0092 ddbd 430a b13c 7a17 1ebe a887 3abe
00000140: a426 7bbe f188 38be b92c eabd e483 96be
00000150: 9701 32be 1d18 b9bc 79ba 1fbe 41fb 6cbe
00000160: 13ef 30bd 495a 90be 308b 2fbe 1c48 22bd
00000170: 7046 79bd 4e78 7fbd a420 34be be1c 45be
00000180: 4513 0abd 2f28 0bbe 1978 29be 9a36 2cbe
00000190: ca4b 44be b99a 2cbe de02 53be fc50 27be
000001a0: bb43 9dbd f7dc 3abd fd1b 363b d63c 38be
000001b0: c28b a0be a4e4 1fbe 23b5 bb3c 0553 0ebd
000001c0: 88e0 14be a612 9cbd cb89 6ebc 8c07 23be
000001d0: 1928 50be 1068 8bbe 08ab c0bd 3775 b5be
000001e0: 6638 ccbb 3b77 a5bd 6f64 06be 94ab b3bd
000001f0: 8064 f1bd 16dc 24be c64a 67be 1f7a 6bbe

network_body._body_endoder.seq_layers.2.weight f4 [128, 128]
-0.018654412 0.042694137 -0.1544308 -0.23302439 -0.17986347 0.09663094 0.08962294 -0.01983468
0.08579716 0.05710844 -0.1799351 0.030191079 -0.0069158985 -0.058094934 0.09035646 -0.018159887
-0.08196104 0.08236705 0.11873415 0.024535712 -0.06705305 -0.0003713766 -0.27061617 0.04025615
0.10944112 0.20298089 -0.018600786 0.13368809 -0.054237455 -0.05889782 0.21051249 -0.09118435
-0.05462793 -0.023150591 0.033856023 0.07180272 -0.08274957 0.0032071956 0.10971366 0.12581345
0.1081065 0.09913432 -0.0065497784 -0.07325031 -0.0948002 0.099808894 0.07826584 -0.15458812
0.0019372446 -0.08686894 0.07442072 -0.10579526 -0.028190706 -0.20391855 0.12359908 0.06657717
-0.18459558 -0.06225734 0.047364745 -0.17370431 0.14062528 -0.014902118 -0.002485626 -0.005387201
-0.010984999 0.10901206 -0.037062183 -0.109048 0.18269224 -0.04924018 0.06463564 -0.1184702
0.061243173 0.009734441 -0.01252174 -0.20796408 0.03046475 -0.008267322 -0.054107383 -0.11661629
0.017141316 0.044687632 0.052712146 0.13512185 0.03659457 -0.18057263 0.1651863 -0.025172194
-0.19321093 -0.24974349 -0.08936911 0.05794727 0.06993096 -0.18794344 0.24380615 0.12908764
0.1435991 -0.16913587 -0.11534952 -0.0075608417 0.022246419 -0.14293943 -0.15615177 -0.12152484
0.006940359 0.21735364 0.12265096 0.14044096 -0.15752736 -0.17587456 0.23536634 -0.03693818
0.24396978 -0.13901092 -0.15536688 0.10783686 -0.11960456 0.031246182 0.028671173 -0.17382729
0.090069264 0.1667417 -0.17281617 -0.03815732 0.0787622 -0.000391848 0.10621655 -0.130377
0.13355368 0.22554776 -0.05479358 -0.046860415 0.21110584 -0.07429623 0.13206583 0.12516168
0.4813111 -0.059497338 -0.14956816 0.041586764 0.05011375 -0.012531346 0.2741453 -0.17226143
-0.069403626 0.39639667 -0.12019951 0.077622235 -0.49509272 0.05803541 0.050508402 0.28787935
0.11464679 0.25507617 -0.16252302 0.23043351 -0.6183031 0.1759349 0.54214317 0.080151945
-0.17128734 0.09883392 -0.18390734 -0.13757756 0.047797885 -0.38516593 0.32439628 0.1954744
-0.20708261 -0.38607714 0.037749898 -0.28019592 -0.020771863 0.3270399 0.43625414 -0.18201731
0.14618438 0.04809982 -0.12139367 0.15547006 0.17481807 0.033432674 0.1932914 0.14947985
0.16150135 0.28004792 -0.24346672 -0.18242157 0.13631614 0.048250135 0.07707722 0.14369038
0.0079531325 0.19492872 0.3629207 -0.59136724 0.26755396 -0.3639508 0.13322479 -0.5500491
0.32434693 -0.18144597 0.10929375 -0.022441192 0.5985266 0.31924897 0.26462868 0.25946128
0.13047391 0.51731956 0.2962259 0.18686123 -0.5436289 0.17364275 -0.055582598 -0.17073515
-0.20063531 0.08374752 0.12935375 0.39508936 -0.082463644 0.046361845 0.24699375 0.44070554
-0.08602842 -0.68251276 0.13711299 -0.37478197 -0.21296929 0.024204222 0.008359498 -0.27385712
0.2303937 -0.13959488 0.34545577 0.41930774 0.22853471 -0.1285359 0.128724 0.08538755
0.2664517 -0.41218787 -0.026175888 0.30523407 -0.1390628 0.15097931 0.17342201 0.20587432
0.46199584 0.13372558 -0.15728112 0.23669252 -0.25492555 0.20890246 0.17747824 -0.6061242
00000000: 23d1 98bc 0ce0 2e3d 1c23 1ebe f29d 6ebe
00000010: 212e 38be 71e6 c53d 3b8c b73d 577c a2bc
00000020: 6cb6 af3d 8aea 693d e840 38be 4853 f73c
00000030: c39e e2bb f4f4 6dbd cf0c b93d 0bc4 94bc
00000040: 31db a7bd 0eb0 a83d e42a f33d 1eff c83c
00000050: 1c53 89bd 53b5 c2b9 348e 8abe a2e3 243d
00000060: aa22 e03d 39da 4f3e ad60 98bc 88e5 083e
00000070: 1828 5ebd d73e 71bd 9690 573e dcbe babd
00000080: 89c1 5fbd 4fa6 bdbc 9dac 0a3d 4e0d 933d
00000090: 9b78 a9bd d02f 523b 8eb1 e03d 3ed5 003e
000000a0: f166 dd3d ef06 cb3d 869f d6bb 4204 96bd
000000b0: 9b26 c2bd 9b68 cc3d d749 a03d 594c 1ebe
000000c0: 24eb fd3a 58e8 b1bd e469 983d 2fab d8bd
000000d0: 32f0 e6bc 06d0 50be 8421 fd3d 9c59 883d
000000e0: a006 3dbe 8d01 7fbd 8901 423d 8bdf 31be
000000f0: 1300 103e 0328 74bc e2e5 22bb 1e87 b0bb
00000100: 6dfa 33bc b741 df3d 84ce 17bd 8f54 dfbd
00000110: ad13 3b3e 12b0 49bd b15f 843d 81a0 f2bd
00000120: 1fda 7a3d 347d 1f3c fc27 4dbc 89f4 54be
00000130: 3691 f93c a973 07bc b49f 5dbd 85d4 eebd
00000140: f26b 8c3c 610a 373d b1e8 573d 625d 0a3e
00000150: 30e4 153d 08e8 38be 9926 293e eb35 cebc
00000160: 16d9 45be c2bc 7fbe 2707 b7bd 1e5a 6d3d
00000170: f737 8f3d 3f74 40be 52a8 793e 8d2f 043e
00000180: a40b 133e f431 2dbe 5f3c ecbd f0c0 f7bb
00000190: 1f3e b63c b75e 12be 40e6 1fbe 04e2 f8bd
000001a0: f36b e33b f491 5e3e 6d30 fb3d c1cf 0f3e
000001b0: da4e 21be 7618 34be e003 713e 7d4c 17bd
000001c0: 37d3 793e e158 0ebe 7f18 1fbe 92d9 dc3d
000001d0: 3cf3 f4bd fef7 ff3c cfdf ea3c c8ff 31be
000001e0: 3c76 b83d 56be 2a3e b9f6 30be da4a 1cbd
000001f0: 144e a13d f370 cdb9 1088 d93d 8c81 05be
00000200: 4cc2 083e fef5 663e 3c6f 60bd b5f0 3fbd
00000210: 212c 583e 9f28 98bd 443c 073e 622a 003e
00000220: 696e f63e 7bb3 73bd 6528 19be e256 2a3d
00000230: 1344 4d3d 4650 4dbc c65c 8c3e 4d65 30be
00000240: 7d23 8ebd 81f4 ca3e 292b f6bd 68f8 9e3d
00000250: cb7c fdbe 8ab6 6d3d e6e1 4e3d ec64 933e
00000260: f0cb ea3d 5899 823e 6f6c 26be c3f6 6b3e
00000270: 1d49 1ebf 4728 343e e5c9 0a3f b426 a43d
00000280: f365 2fbe 7069 ca3d 3552 3cbe 22e1 0cbe
00000290: b7c7 433d 7834 c5be 4517 a63e 712a 483e
000002a0: 770d 54be e7ab c5be a39f 1a3d d775 8fbe
000002b0: c129 aabc c671 a73e b45c df3e bf62 3abe
000002c0: 5cb1 153e 5104 453d 3f9d f8bd 8b33 1f3e
000002d0: 8203 333e b3f0 083d 2eee 453e 3f11 193e
000002e0: 9c60 253e 7162 8f3e 574f 79be b8cc 3abe
000002f0: 7596 0b3e efa1 453d a9da 9d3d 9223 133e
00000300: db4d 023c 659b 473e bed0 b93e d863 17bf
00000310: d5fc 883e c257 babe 146c 083e 05d0 0cbf
00000320: cd10 a63e f9cc 39be 67d5 df3d 97d6 b7bc
00000330: 0a39 193f 9a74 a33e 697d 873e 1cd8 843e
00000340: f49a 053e 0e6f 043f ecaa 973e 8d58 3f3e
00000350: 432b 0bbf 68cf 313e 94aa 63bd 32d5 2ebe
00000360: 5873 4dbe d283 ab3d 4f75 043e 2749 ca3e
00000370: b3e2 a8bd ebe5 3d3d eeeb 7c3e 28a4 e13e
00000380: ab2f b0bd 28b9 2ebf 5967 0c3e 6ce3 bfbe
00000390: 9f14 5abe ef47 c63c 47f6 083c 0037 8cbe
000003a0: 53ec 6b3e f6f1 0ebe 94df b03e 81af d63e
000003b0: 0105 6a3e ea9e 03be 39d0 033e abdf ae3d
000003c0: 5b6c 883e 4a0a d3be d16e d6bc a447 9c3e
000003d0: 7b66 0ebe 529a 1a3e 8a95 313e b8d0 523e
000003e0: b88a ec3e 5cef 083e 4d0e 21be 865f 723e
000003f0: 9a85 82be 87ea 553e dbbc 353e f52a 1bbf
