results/CubeAgent/CubeAgent/CubeAgent-0.onnx (onnx, 74377 bytes, 8 tensors)

action_model._continuous_distribution.log_sigma f4 [1, 2]
000000 00 00 00 00 00 00 00 00
       0.0 0.0

action_model._continuous_distribution.mu.bias f4 [2]
000000 00 00 00 00 00 00 00 00
       0.0 0.0

action_model._continuous_distribution.mu.weight f4 [2, 128]
000000 d0 9f f0 3b 6e c5 06 bc 49 50 14 bc c4 dc a8 3c
       0.00734327 -0.008225782 -0.009052345 0.020613082
000010 94 3e 01 bd 50 a4 4f bc c7 aa dc bc e1 eb be 3b
       -0.03155382 -0.0126734525 -0.026936902 0.005826459
000020 bb 96 19 bc 5e 69 20 3c f0 92 35 3c d8 bd 32 bb
       -0.009374316 0.0097907465 0.011082396 -0.00272738
000030 5e 14 3e 3c 34 eb 92 3c b7 78 4c 3c d3 ad b1 3c
       0.011601536 0.01793442 0.012479953 0.021689331
000040 3e 91 95 bc ef e9 cd 3b 73 d0 e3 ba 6f 38 98 3b
       -0.018257733 0.0062839906 -0.0017380848 0.0046453993
000050 1a cf 7f bc 4a 6b db 3c c3 fa 21 3c 30 5f d8 3b
       -0.015613342 0.026784558 0.009886446 0.006603144
000060 df ce 15 3c db 68 18 3c f2 95 bb bc f3 a0 ac bc
       0.00914356 0.009302343 -0.022898648 -0.02107284
000070 e3 45 f9 3c 65 5e bb 3b 9b 9f 8f 3c 8c bc 29 bc
       0.030428832 0.00571804 0.01753216 -0.0103598945
000080 bb c9 e8 bc 5f 62 0b 3d d6 61 c9 3c f3 da 42 bc
       -0.028416505 0.03402936 0.024582785 -0.011893022
000090 b2 d3 46 3c 42 c5 6c 3c 19 9a b3 3b d5 f4 ce ba
       0.012135433 0.014451327 0.0054810164 -0.0015789518
0000a0 7f d9 99 b8 05 e7 03 3c fb 75 43 bb 2f 51 a8 bc
       -7.33612e-05 0.008050685 -0.002982496 -0.020546524
0000b0 bd 93 ee bb 5d 1b 04 3c d5 be 6c bc da 55 d8 3b
       -0.0072807954 0.008063165 -0.014449795 0.006602031
0000c0 03 28 24 3c 4e 88 35 b8 ff e4 2e 3c f7 68 c1 3b
       0.010019305 -4.3280706e-05 0.010674714 0.0059024054
0000d0 00 74 2f 3d 61 f1 93 bc 8a eb 57 3c 5b fc 8a bc
       0.042835236 -0.018059434 0.0131787155 -0.016966036
0000e0 43 33 07 3b 54 4d 99 3c b5 ef 7e 3b 74 86 3c bc
       0.002062992 0.01871363 0.00389002 -0.0115066655
0000f0 ad 30 52 3b e6 f4 3a 3b d0 b1 fb 3b 41 26 27 bb
       0.003207247 0.0028527318 0.007681109 -0.002550498
000100 89 ce 42 bc 77 9f eb ba c3 22 d7 bc 1b b8 7e 3c
       -0.011890062 -0.0017976601 -0.026261693 0.015546824
000110 26 de 98 3c eb 29 09 3d bc dd 26 bc 33 f9 8a bb
       0.018660616 0.03348724 -0.0101847015 -0.0042411326
000120 1a 1e 31 bb 55 94 e9 bb 9d 5b d5 3b cb 9d 2b bc
       -0.0027025999 -0.0071282783 0.0065111653 -0.0104746325
000130 33 37 c7 3c 4b 11 4f bb 35 f0 2e 3c f4 c2 41 bc
       0.024318313 -0.0031596 0.010677387 -0.011826266
000140 41 ea 8e bc 92 95 b3 bb 15 6f d8 3b 17 7f 2f 3b
       -0.017445685 -0.0054804767 0.006605039 0.0026778632
000150 1f d5 d8 bc 18 36 61 bb b0 fb c4 3a c1 26 25 bd
       -0.026468812 -0.0034364518 0.0015028622 -0.04032016
000160 c8 23 9e 3b 60 c9 a1 bb 6d df 18 bd 17 0a 8a 39
       0.004826043 -0.004937336 -0.03732245 0.0002632893
000170 37 3f a2 bc ba 95 34 bd 5f 37 bf 3a c8 59 51 3c
       -0.019805534 -0.044088103 0.0014588645 0.012777753
000180 37 4e 68 3b 2f 41 5d bc 49 65 c3 bc be 9d 10 bb
       0.003544701 -0.0135043105 -0.023852007 -0.0022066678
000190 b5 77 7b 3c ad 84 d1 3c 47 58 6b 3c 3b 8b 5f 3c
       0.015348365 0.02557596 0.014364309 0.013644035
0001a0 8a b6 db 3b c6 7e 09 3c cf 3e 39 bc 82 72 ce 3b
       0.00670511 0.008392042 -0.011306479 0.0063002715
0001b0 03 96 2f bc 83 65 9a bc ad 27 91 bc ab 71 41 bb
       -0.010716918 -0.018847233 -0.017719114 -0.0029517214
0001c0 1f 9a aa 3c ea c8 c7 3b 53 56 39 bc 71 39 97 bb
       0.020825444 0.006096949 -0.011312085 -0.004615002
0001d0 27 f8 ff 3c b0 45 3e bc 78 6e 1a 3a 63 1a d8 3b
       0.031246258 -0.0116132945 0.0005891095 0.0065949424
0001e0 b0 3a 74 bc 2b 19 97 3c 63 83 7c bb f3 8b f6 bc
       -0.01490657 0.018444618 -0.003853046 -0.03009603
0001f0 1f ef db bc 41 f3 49 3c 0f 76 dc bc 4c 0f 93 bc
       -0.02684742 0.012326063 -0.026911763 -0.01795163
000200 83 d2 17 bc 17 a3 0d bb a7 04 06 3c 6f d4 14 bc
       -0.0092664985 -0.0021612102 0.00817982 -0.009083851
000210 a1 02 36 3c 67 16 f4 bb cb f0 c0 39 88 e1 04 bc
       0.011109025 -0.0074489596 0.00036800498 -0.008110411
000220 0a 42 b0 3b 93 4e 3b bd 5d 61 a2 3c 68 20 47 3d
       0.005378966 -0.04572923 0.019821817 0.04861489
000230 f5 2f d5 bc 77 8d 9f bc 2d 03 a9 3c 71 97 20 bd
       -0.026023844 -0.019476635 0.020631397 -0.039206926
000240 50 54 08 3c 98 a1 66 3d 72 d3 ce 3c 19 c4 0a bb
       0.008320883 0.05630645 0.02524731 -0.0021174012
000250 82 a0 65 bc af b3 3f 3c 26 8c 1c bc b9 76 90 3c
       -0.014015319 0.011700555 -0.009554898 0.017634736
000260 f3 d3 7c bc aa f2 f5 3a 9b 46 24 3c cb 84 ac 3c
       -0.015431392 0.0018764336 0.010026599 0.021059414
000270 de a7 37 bc 67 c8 2d 3c eb e5 88 bc ed b5 e1 bc
       -0.011209456 0.010606862 -0.016711196 -0.02755257
000280 7d 7e de ba b5 13 6c 3c 21 6b 19 3c 28 8f 92 3c
       -0.0016974952 0.014408995 0.00936392 0.017890528
000290 af 44 76 3c 23 83 50 3c 13 2f 85 3a f2 07 ea 3b
       0.015031024 0.012726578 0.0010161124 0.0071420604
0002a0 63 44 50 bb 2f b7 dc bb 52 71 56 bb 77 eb 80 bb
       -0.0031779043 -0.0067357044 -0.0032721353 -0.0039343196
0002b0 f3 62 72 bc 5d 18 e1 3b a0 50 1c 3c 5d 1e 4a bc
       -0.014794099 0.0068693594 0.009540707 -0.012336341
0002c0 03 58 9e bc 6d 3a d3 3c eb ea 2f 3c 8b 2c 36 bc
       -0.019329077 0.025784696 0.010737161 -0.011119018
0002d0 db dd c1 bc 4f 6e 1c bc 6f fb de 3a 03 c0 4e bc
       -0.02366536 -0.009547784 0.0017012189 -0.012619021
0002e0 2f 85 98 3c 4b e4 b8 3c c4 00 bc bc 77 6b 40 bc
       0.018618194 0.022569796 -0.022949584 -0.011744372
0002f0 c3 1a a1 bc a7 0b 0d bd 68 83 7e bc 25 bf 5d bb
       -0.019666081 -0.03443494 -0.015534259 -0.0033835855
000300 00 f9 85 bc 6d 5c 71 3c 11 2d b8 3c cd 8a 73 bc
       -0.016354084 0.014731509 0.022482427 -0.014864636
000310 78 26 e6 3a ca dd 0c bd fa 8f cd 3c f3 73 c1 bc
       0.0017559072 -0.034391202 0.025093067 -0.02361486
000320 ff 3d da bc 2a b9 9d 3c ac 4b b1 3c 37 3e 88 bc
       -0.02664089 0.019253332 0.021642528 -0.016631229
000330 6b 5e 8b bc 79 5a 39 bc d0 0c 87 3c 50 fd e4 3b
       -0.017012795 -0.011313074 0.016485602 0.006988205
000340 10 e8 b7 bc 0d 9f 86 bc 3d a8 77 bc 1f 0e 4b 3c
       -0.022449523 -0.016433263 -0.015115795 0.012393503
000350 38 37 4d bd 3f 99 9b 3c 5f e0 42 3b 23 37 b0 3c
       -0.05010149 0.018993972 0.0029735786 0.021510666
000360 98 fd fa 3b 06 01 8a 3c 52 32 82 3b ef 8c 4a 3c
       0.0076596253 0.016846191 0.003973284 0.012362703
000370 8f 67 99 3b 57 2e 6e bc 4b f6 f5 bc 3a e5 72 3c
       0.0046815346 -0.0145374155 -0.030024668 0.01482516
000380 72 fc bc 3b 20 e0 cc 3c 57 e0 0e bc 74 be 05 3c
       0.0057673985 0.025009215 -0.008720479 0.008163083
000390 dd 5a ba bb ad e2 d3 3c 47 1c 86 3b 4f c8 00 bc
       -0.0056871013 0.025864923 0.0040927264 -0.007860257
0003a0 77 19 03 bd 61 a7 ad bc e8 63 d6 bc 40 b4 09 3d
       -0.032006707 -0.021197977 -0.026170686 0.033619165
0003b0 a3 1f 55 ba db e7 46 bc 3a d8 b2 bc 63 5c 96 bc
       -0.00081300194 -0.01214024 -0.02183162 -0.0183546
0003c0 75 b0 e5 3b 17 93 d3 ba 52 4e d4 3c 33 0f 0f bc
       0.0070095607 -0.0016141859 0.025916252 -0.008731651
0003d0 1f 3b 15 ba f6 98 02 3b 02 34 e3 bb b0 fe 62 3c
       -0.00056927087 0.0019927598 -0.00693369 0.013854668
0003e0 8b c8 0c bc 52 7d df bb ef 32 b9 3b 68 02 29 bb
       -0.008592735 -0.0068203593 0.0056518237 -0.0025788788
0003f0 fb 40 94 bb aa 5f 69 3c 24 f1 30 3d 63 6d bc 3c
       -0.004524348 0.0142439995 0.04319872 0.023001378

action_model._discrete_distribution.branches.0.weight f4 [1, 128]
000000 9f ac 56 3c 1e 85 87 bb 50 de ff 3b c3 e2 61 ba
       0.0131026795 -0.004135742 0.007808484 -0.0008616859
000010 25 6f a1 3c cf 03 87 3a 36 ad a7 3c 74 59 21 bc
       0.019706318 0.0010300818 0.020468336 -0.009847987
000020 6f e6 37 3b a2 0b 26 ba 65 a4 34 3b 3b 74 18 3b
       0.0028060933 -0.0006334131 0.0027563807 0.0023262638
000030 24 b9 9c bb 3d a0 95 ba f3 63 f7 bb 8e 13 47 bb
       -0.0047828127 -0.0011415553 -0.0075497567 -0.0030376646
000040 ef 45 04 bc 03 62 64 3b eb a6 59 bc 0a 64 f0 bb
       -0.008073314 0.0034848459 -0.013284425 -0.0073361443
000050 a7 fb c6 bb 96 f8 19 3c 61 07 03 bc 99 18 31 3c
       -0.0060724798 0.009397646 -0.007997365 0.010809087
000060 16 7a 18 bc 40 bb 54 bc 17 72 85 bc 85 46 51 3a
       -0.009306451 -0.012984097 -0.016289754 0.00079832255
000070 52 8c 73 3c c8 07 65 bb d1 54 b5 3b 0f b8 f1 bb
       0.014864998 -0.0034947265 0.0055337925 -0.007376678
000080 a6 4d 99 ba 74 33 08 3c 40 aa fc bb 69 34 8d 3c
       -0.0011696115 0.008313049 -0.007710725 0.017236905
000090 84 5c 96 bb ef 09 ed 3b c2 90 a0 3b ba 3c f6 3b
       -0.0045886654 0.00723385 0.004900069 0.0075145634
0000a0 da ed 6c bb 3f 31 78 bb dc 29 31 3c 07 4a 35 3c
       -0.0036152513 -0.003787115 0.010813203 0.011065013
0000b0 b8 1c e8 ba c7 1e 5e 3c 8f a1 b8 3b 46 12 07 bc
       -0.0017708754 0.013557143 0.0056344937 -0.008244103
0000c0 02 cd d9 ba e1 b7 1e bc 90 5d f0 bb b7 2f 34 3c
       -0.0016616883 -0.009687395 -0.0073353723 0.010997704
0000d0 db 54 bb 3b c9 69 2a 3c 0c bb 9f b9 8a e5 32 bc
       0.0057169027 0.010401198 -0.00030466204 -0.010918984
0000e0 d7 83 fe 3b cf 52 57 bc 72 70 35 3c b9 23 81 bc
       0.0077671814 -0.013142302 0.011074172 -0.015764104
0000f0 7d 2d 2d 3c 30 cb 00 bc fd c7 eb 3b 16 46 b2 bb
       0.010569927 -0.007860944 0.0071954713 -0.005440484
000100 62 cc 09 3b f8 18 9a b9 ff 08 4d bc 95 15 1a bc
       0.0021026363 -0.00029391772 -0.012514352 -0.00940456
000110 e3 57 f8 3b db 9e 45 3c 9d 2b d1 3b 6e b8 05 3b
       0.0075788363 0.0120618 0.006383373 0.0020404118
000120 8c 1e 99 3b a4 e1 1c 3c 6f bb 83 3c 33 aa 33 3b
       0.004672831 0.009575281 0.016080586 0.002741468
000130 fb df 89 39 d3 d9 42 bc 77 13 41 bb 6f 49 5f bc
       0.00026297555 -0.011892754 -0.0029461065 -0.013628348
000140 f3 73 bc b9 33 52 b6 39 e3 27 28 b8 45 65 fe 3a
       -0.00035944543 0.00034774988 -4.009147e-05 0.0019408843
000150 df 8a b0 bc ee be b8 bb 67 d9 6e bb b8 fe 43 bb
       -0.021550594 -0.005637995 -0.00364455 -0.0029906463
000160 10 cc e0 bb 97 a6 a4 3b a7 46 95 3a 64 c4 89 3c
       -0.0068602636 0.005024742 0.0011388854 0.01681728
000170 1f 1c c0 bb 33 19 33 3c 15 0a b4 bb 9a 21 f2 bb
       -0.0058627273 0.010931301 -0.005494366 -0.0073892595
000180 82 f1 7f 3b ab bc 4a 3b b0 87 fe b9 2d 62 7c ba
       0.0039053862 0.0030935209 -0.0004854775 -0.00096276664
000190 47 c2 cf 3b 16 2f 1e bb b0 fd 3e 3b af 44 03 3c
       0.0063402983 -0.0024136952 0.0029142909 0.008011981
0001a0 40 19 48 3c 10 76 2d bc 2e 25 29 bc d5 59 31 3b
       0.012213051 -0.01058723 -0.010323806 0.00270616
0001b0 a7 19 08 bc eb 2c 2d 3c f0 c2 f0 3b e0 10 6a 3b
       -0.008306897 0.010569791 0.007347457 0.0035715625
0001c0 98 79 36 3b 25 ad 71 3b 5f 0c 0d bc 23 a2 36 bb
       0.0027843472 0.0036876884 -0.0086089065 -0.0027867637
0001d0 15 30 26 bc 4a a0 0a 38 75 85 1f bb a4 9d 9a 3a
       -0.0101433 3.3051045e-05 -0.0024341021 0.0011796248
0001e0 db 5d f1 bb fc 64 02 3a 8a 04 d4 ba 0b 21 9d 3c
       -0.007365925 0.0004974154 -0.0016175669 0.019180795
0001f0 87 31 17 3c 0a 4c 62 3c 8b 47 10 bc 77 ba 97 bb
       0.009228117 0.013812074 -0.00880612 -0.0046303826

network_body._body_endoder.seq_layers.0.bias f4 [128]
000000 00 00 00 00 00 00 00 00 00 00 00 00 00 00 00 00
       0.0 0.0 0.0 0.0
000010 00 00 00 00 00 00 00 00 00 00 00 00 00 00 00 00
       0.0 0.0 0.0 0.0
000020 00 00 00 00 00 00 00 00 00 00 00 00 00 00 00 00
       0.0 0.0 0.0 0.0
000030 00 00 00 00 00 00 00 00 00 00 00 00 00 00 00 00
       0.0 0.0 0.0 0.0
000040 00 00 00 00 00 00 00 00 00 00 00 00 00 00 00 00
       0.0 0.0 0.0 0.0
000050 00 00 00 00 00 00 00 00 00 00 00 00 00 00 00 00
       0.0 0.0 0.0 0.0
000060 00 00 00 00 00 00 00 00 00 00 00 00 00 00 00 00
       0.0 0.0 0.0 0.0
000070 00 00 00 00 00 00 00 00 00 00 00 00 00 00 00 00
       0.0 0.0 0.0 0.0
000080 00 00 00 00 00 00 00 00 00 00 00 00 00 00 00 00
       0.0 0.0 0.0 0.0
000090 00 00 00 00 00 00 00 00 00 00 00 00 00 00 00 00
       0.0 0.0 0.0 0.0
0000a0 00 00 00 00 00 00 00 00 00 00 00 00 00 00 00 00
       0.0 0.0 0.0 0.0
0000b0 00 00 00 00 00 00 00 00 00 00 00 00 00 00 00 00
       0.0 0.0 0.0 0.0
0000c0 00 00 00 00 00 00 00 00 00 00 00 00 00 00 00 00
       0.0 0.0 0.0 0.0
0000d0 00 00 00 00 00 00 00 00 00 00 00 00 00 00 00 00
       0.0 0.0 0.0 0.0
0000e0 00 00 00 00 00 00 00 00 00 00 00 00 00 00 00 00
       0.0 0.0 0.0 0.0
0000f0 00 00 00 00 00 00 00 00 00 00 00 00 00 00 00 00
       0.0 0.0 0.0 0.0
000100 00 00 00 00 00 00 00 00 00 00 00 00 00 00 00 00
       0.0 0.0 0.0 0.0
000110 00 00 00 00 00 00 00 00 00 00 00 00 00 00 00 00
       0.0 0.0 0.0 0.0
000120 00 00 00 00 00 00 00 00 00 00 00 00 00 00 00 00
       0.0 0.0 0.0 0.0
000130 00 00 00 00 00 00 00 00 00 00 00 00 00 00 00 00
       0.0 0.0 0.0 0.0
000140 00 00 00 00 00 00 00 00 00 00 00 00 00 00 00 00
       0.0 0.0 0.0 0.0
000150 00 00 00 00 00 00 00 00 00 00 00 00 00 00 00 00
       0.0 0.0 0.0 0.0
000160 00 00 00 00 00 00 00 00 00 00 00 00 00 00 00 00
       0.0 0.0 0.0 0.0
000170 00 00 00 00 00 00 00 00 00 00 00 00 00 00 00 00
       0.0 0.0 0.0 0.0
000180 00 00 00 00 00 00 00 00 00 00 00 00 00 00 00 00
       0.0 0.0 0.0 0.0
000190 00 00 00 00 00 00 00 00 00 00 00 00 00 00 00 00
       0.0 0.0 0.0 0.0
0001a0 00 00 00 00 00 00 00 00 00 00 00 00 00 00 00 00
       0.0 0.0 0.0 0.0
0001b0 00 00 00 00 00 00 00 00 00 00 00 00 00 00 00 00
       0.0 0.0 0.0 0.0
0001c0 00 00 00 00 00 00 00 00 00 00 00 00 00 00 00 00
       0.0 0.0 0.0 0.0
0001d0 00 00 00 00 00 00 00 00 00 00 00 00 00 00 00 00
       0.0 0.0 0.0 0.0
0001e0 00 00 00 00 00 00 00 00 00 00 00 00 00 00 00 00
       0.0 0.0 0.0 0.0
0001f0 00 00 00 00 00 00 00 00 00 00 00 00 00 00 00 00
       0.0 0.0 0.0 0.0

network_body._body_endoder.seq_layers.0.weight f4 [128, 6]
000000 fe 67 d8 3e cb 05 5a bf 8d 3b 27 3e 47 8d dc be
       0.4226684 -0.8516509 0.1633131 -0.43076536
000010 e5 74 56 be b9 1f 97 bd 9f f0 0b 3d fc 1d 55 be
       -0.20943029 -0.073790975 0.03416502 -0.2081222
000020 af eb e7 3e 10 b9 a3 3e 03 1a 0c bf 86 d1 10 bf
       0.45297 0.3197713 -0.5472719 -0.5656971
000030 41 da 80 bd 09 a7 1f be 91 b8 97 3e b0 65 d1 3d
       -0.06291629 -0.15591063 0.29633 0.102244735
000040 5b fe 8a 3e 56 a9 81 3d cf de 6d bd b3 8f bd 3e
       0.27147183 0.063311264 -0.058073815 0.37023696
000050 83 e8 61 bd a9 d9 bf 3e 75 b5 c4 3e c1 9c d4 be
       -0.05515338 0.3747075 0.3841969 -0.41525844
000060 35 0c 00 3e 29 f1 1e be 1f 2a ba 3e 2b b2 95 3e
       0.12504657 -0.15521683 0.3636026 0.29237494
000070 6e 75 00 bf e7 f6 32 be 7a 87 64 bf 20 f7 50 3e
       -0.50179183 -0.17476998 -0.8926922 0.2040677
000080 a3 1f 86 be 17 9d b4 3c 34 3b 11 be 74 b3 b4 be
       -0.26196012 0.022047563 -0.1418274 -0.35293162
000090 7b 4e 1a 3e dc 0d c7 3c e8 c4 9e be 16 59 f7 3d
       0.15069 0.0242986 -0.31009603 0.12077539
0000a0 23 3a a0 3e a1 29 c8 be 6c 78 32 be c6 52 16 be
       0.31294355 -0.3909426 -0.1742875 -0.14680013
0000b0 cf e1 21 bf 34 cd 34 bd ee 78 d2 3e ba e5 7e 3f
       -0.6323518 -0.04414101 0.41107887 0.99569285
0000c0 4e f4 36 bd d1 5e 3d be bc 21 c9 be f9 a9 73 3e
       -0.04466658 -0.18493201 -0.3928355 0.23795308
0000d0 d7 0a 82 3e 6b c6 01 bf 10 59 c8 bd 9f 0b 1f bf
       0.25398895 -0.50693387 -0.09782612 -0.6212711
0000e0 67 77 94 bd cb fb 90 3e d7 30 b0 be b6 f3 83 be
       -0.07249337 0.28317103 -0.34412262 -0.25771874
0000f0 c6 07 2a 3e ab da 46 be 5d de 33 bc 2f 3c d9 3c
       0.16604528 -0.19419353 -0.0109783085 0.026517956
000100 d6 a2 a2 bd 42 6e 44 3e af fd b2 be 5e 6a 04 3c
       -0.07941215 0.19182685 -0.3495917 0.008082001
000110 40 0f d3 bd b3 5a a7 bd 42 e0 97 bd 85 6a 8b be
       -0.10305643 -0.081715964 -0.07415821 -0.27229705
000120 7c ff 88 be 59 ed e8 b9 17 58 cb bd 16 ed 1c 3e
       -0.2675742 -0.00044427326 -0.09928911 0.15324816
000130 53 fb b3 be ae e6 e8 be ba a1 66 bd 01 77 04 3f
       -0.35152683 -0.45488495 -0.05630658 0.51744086
000140 71 4e ac 3d f7 e5 a7 be d8 70 9a bf 75 ac 8f 3e
       0.08413399 -0.32792637 -1.2065687 0.28061262
000150 2c be 81 3f 68 35 ae be d2 5e 00 3d ae eb 31 be
       1.0136161 -0.3402512 0.031340428 -0.17375061
000160 8d 4c 3f 3e 55 70 3b bf 7a 09 12 bf 63 5c 95 be
       0.18681546 -0.7321828 -0.5704571 -0.29172048
000170 b3 74 31 be 6f ef d3 3d 61 34 2b ba f6 33 55 3e
       -0.17329673 0.10348403 -0.00065309374 0.20820603
000180 b1 2b a8 3d bb 46 8a 3f 16 c3 07 3e bb 1b 25 be
       0.082114585 1.0802835 0.13258013 -0.1612386
000190 da 44 e5 3e be 21 22 3f b7 4d 1e bf 25 99 3f 3f
       0.44779092 0.63332736 -0.61837333 0.74843055
0001a0 91 7b a1 3e 57 87 a0 3d 0b f4 d7 bc 7c d4 80 be
       0.31539586 0.07838314 -0.026361486 -0.25162113
0001b0 fc fc de bd f7 2a 67 bf b5 50 b6 3d 66 ae 26 3e
       -0.10888097 -0.90299934 0.089021124 0.16277465
0001c0 f0 e4 8b 3e 63 33 a2 3e d5 8c 12 3c bf 50 9b be
       0.27323103 0.3167983 0.00894471 -0.30335042
0001d0 aa d4 d4 bc a2 5a bc be 24 8b a2 3d d5 5e 88 bd
       -0.025980312 -0.36787897 0.07936695 -0.06658713
0001e0 47 9d 3c bd 25 ae 99 3e 7a 9f a7 bc 9f 7f b2 3d
       -0.04604843 0.30015674 -0.020461787 0.08715748
0001f0 bb 97 15 bf b7 a4 c7 3d 99 d4 b3 3c 9e fc c9 3e
       -0.5843465 0.09748214 0.02195196 0.39450544
000200 7d 44 52 be 8b 27 87 3e 07 f6 eb be 4c c2 ad 3d
       -0.20533939 0.26397356 -0.4608614 0.08484325
000210 84 74 ed bb 4b de d0 be b0 11 14 bf 7d 6a 1f 3f
       -0.0072465558 -0.40794596 -0.5783949 0.62271863
000220 e5 e1 62 3f 92 9d 14 3f 5b 9d 71 bf d4 6e 4a bd
       0.8862594 0.58052933 -0.9438073 -0.0494221
000230 a1 23 d1 3e 8e f3 c4 3d 60 aa 73 3d af 31 69 be
       0.40847495 0.09616767 0.059488654 -0.22772859
000240 f0 6c 3c be d5 36 62 3f fe ef 26 3e 2a 13 b6 3e
       -0.18400931 0.8836492 0.16302487 0.35561496
000250 cc 48 6b 3e 47 9d de bc d9 88 8d 3e 29 0b 97 3e
       0.22976989 -0.027174605 0.2764347 0.29500702
000260 dd 4a f8 3d 53 94 05 3d e6 00 3e bf be 29 2b bf
       0.12123654 0.032612156 -0.7422012 -0.6686057
000270 57 52 39 bf 13 5e 13 3f a0 43 cd bd aa aa 8c 3d
       -0.72391266 0.5756542 -0.10022664 0.06868489
000280 be 5d 04 be 15 b3 73 bc fd 12 11 3f 33 f3 21 be
       -0.12926385 -0.014874239 0.566696 -0.1581543
000290 aa a1 46 bf 12 51 ba 3e 74 b0 c8 be 42 bb 20 3f
       -0.7759043 0.36389977 -0.39197123 0.6278573
0002a0 4b 9d 36 3e 3a 9a 9a be 79 2d 3f bf 5b 76 8a 3e
       0.1783344 -0.3019579 -0.7467876 0.27043423
0002b0 9b 30 0d bf 8f 78 d0 be 3c ca 5c 3e 2d 3d a4 be
       -0.5515229 -0.4071698 0.21561521 -0.32077923
0002c0 a0 eb 56 be 6f 1e c9 3e 42 42 d8 be d4 85 b6 3e
       -0.20988321 0.3928103 -0.4223805 0.35648978
0002d0 77 b4 39 3f ba a5 9c 3e b1 87 31 bf e3 90 19 3f
       0.7254099 0.3059519 -0.69347674 0.59986705
0002e0 bd eb 06 3f 51 34 00 bf ff c8 26 bf 9f bc ec bd
       0.5270346 -0.5007983 -0.65150446 -0.11559414
0002f0 54 c0 cd be 26 6c a7 be 86 5a ed be 88 9b 78 bd
       -0.40185797 -0.32699698 -0.46358126 -0.0606952
000300 91 f8 f2 3d 97 13 b2 3e e2 01 03 bf d4 db f7 be
       0.118638165 0.3478057 -0.5117475 -0.48409903
000310 f3 5c ee 3e 3c be 20 3e 07 c7 f6 be 4b d6 f4 be
       0.4655529 0.15697569 -0.4819872 -0.47819743
000320 f4 ee 35 be 55 18 9d be 7d 8b 5d bf bc b2 ce 3e
       -0.17766935 -0.30682626 -0.8654097 0.40370739
000330 22 64 2d 3e 1b 8f 85 3e 07 45 99 be 3d c9 3b 3d
       0.16932729 0.26085743 -0.29935476 0.045846213
000340 b1 da 0c 3e f8 06 dc be f4 d5 e6 3e cf ea 4f 3e
       0.13755299 -0.42974067 0.45085108 0.20304416
000350 4a 41 78 bd 2f 17 a0 3d 0c 26 42 3d 16 08 2b 3e
       -0.06060914 0.07816922 0.047399566 0.16702303
000360 b7 8a be 3e 58 f0 d2 be 95 2c 16 3f df 7f 1f 3d
       0.37215206 -0.41198993 0.58661777 0.038940307
000370 71 7d 4a 3f a5 6e 82 be ce 9b 5b be a7 de 73 3f
       0.7909766 -0.2547504 -0.21446154 0.95261616
000380 67 f3 5a be 98 68 a2 3d f1 61 0e 3f 98 b8 d1 3e
       -0.21381913 0.07930106 0.55618197 0.40961146
000390 f0 68 d5 be d5 82 d6 3e 83 07 07 3f 98 7f 6e 3e
       -0.41681623 0.41896692 0.52745837 0.2329086
0003a0 d1 ab 99 be 83 d4 23 3e ea 7b 42 bf 12 3a 32 bf
       -0.30013898 0.15999036 -0.7597033 -0.6961986
0003b0 bf d5 93 3e 74 74 58 be 6d 70 77 be 6d c8 aa 3e
       0.28874013 -0.21138173 -0.24163981 0.33356038
0003c0 b7 d2 8a 3e c4 19 5a 3e c4 fd 62 be 45 45 18 3f
       0.27113888 0.21298891 -0.22167116 0.59480697
0003d0 18 74 8a bf e4 76 00 3f 3c 1d cc bd fd 84 01 3f
       -1.0816679 0.5018141 -0.099665135 0.5059355
0003e0 94 94 dd be 62 6f 99 3e bb aa b8 be 11 7f d4 be
       -0.4327742 0.2996779 -0.36067757 -0.41503194
0003f0 91 a2 9c 3e a0 40 a1 be df 48 77 3b dc 81 96 be
       0.30592778 -0.31494617 0.0037732644 -0.2939595

network_body._body_endoder.seq_layers.2.bias f4 [128]
000000 00 00 00 00 00 00 00 00 00 00 00 00 00 00 00 00
       0.0 0.0 0.0 0.0
000010 00 00 00 00 00 00 00 00 00 00 00 00 00 00 00 00
       0.0 0.0 0.0 0.0
000020 00 00 00 00 00 00 00 00 00 00 00 00 00 00 00 00
       0.0 0.0 0.0 0.0
000030 00 00 00 00 00 00 00 00 00 00 00 00 00 00 00 00
       0.0 0.0 0.0 0.0
000040 00 00 00 00 00 00 00 00 00 00 00 00 00 00 00 00
       0.0 0.0 0.0 0.0
000050 00 00 00 00 00 00 00 00 00 00 00 00 00 00 00 00
       0.0 0.0 0.0 0.0
000060 00 00 00 00 00 00 00 00 00 00 00 00 00 00 00 00
       0.0 0.0 0.0 0.0
000070 00 00 00 00 00 00 00 00 00 00 00 00 00 00 00 00
       0.0 0.0 0.0 0.0
000080 00 00 00 00 00 00 00 00 00 00 00 00 00 00 00 00
       0.0 0.0 0.0 0.0
000090 00 00 00 00 00 00 00 00 00 00 00 00 00 00 00 00
       0.0 0.0 0.0 0.0
0000a0 00 00 00 00 00 00 00 00 00 00 00 00 00 00 00 00
       0.0 0.0 0.0 0.0
0000b0 00 00 00 00 00 00 00 00 00 00 00 00 00 00 00 00
       0.0 0.0 0.0 0.0
0000c0 00 00 00 00 00 00 00 00 00 00 00 00 00 00 00 00
       0.0 0.0 0.0 0.0
0000d0 00 00 00 00 00 00 00 00 00 00 00 00 00 00 00 00
       0.0 0.0 0.0 0.0
0000e0 00 00 00 00 00 00 00 00 00 00 00 00 00 00 00 00
       0.0 0.0 0.0 0.0
0000f0 00 00 00 00 00 00 00 00 00 00 00 00 00 00 00 00
       0.0 0.0 0.0 0.0
000100 00 00 00 00 00 00 00 00 00 00 00 00 00 00 00 00
       0.0 0.0 0.0 0.0
000110 00 00 00 00 00 00 00 00 00 00 00 00 00 00 00 00
       0.0 0.0 0.0 0.0
000120 00 00 00 00 00 00 00 00 00 00 00 00 00 00 00 00
       0.0 0.0 0.0 0.0
000130 00 00 00 00 00 00 00 00 00 00 00 00 00 00 00 00
       0.0 0.0 0.0 0.0
000140 00 00 00 00 00 00 00 00 00 00 00 00 00 00 00 00
       0.0 0.0 0.0 0.0
000150 00 00 00 00 00 00 00 00 00 00 00 00 00 00 00 00
       0.0 0.0 0.0 0.0
000160 00 00 00 00 00 00 00 00 00 00 00 00 00 00 00 00
       0.0 0.0 0.0 0.0
000170 00 00 00 00 00 00 00 00 00 00 00 00 00 00 00 00
       0.0 0.0 0.0 0.0
000180 00 00 00 00 00 00 00 00 00 00 00 00 00 00 00 00
       0.0 0.0 0.0 0.0
000190 00 00 00 00 00 00 00 00 00 00 00 00 00 00 00 00
       0.0 0.0 0.0 0.0
0001a0 00 00 00 00 00 00 00 00 00 00 00 00 00 00 00 00
       0.0 0.0 0.0 0.0
0001b0 00 00 00 00 00 00 00 00 00 00 00 00 00 00 00 00
       0.0 0.0 0.0 0.0
0001c0 00 00 00 00 00 00 00 00 00 00 00 00 00 00 00 00
       0.0 0.0 0.0 0.0
0001d0 00 00 00 00 00 00 00 00 00 00 00 00 00 00 00 00
       0.0 0.0 0.0 0.0
0001e0 00 00 00 00 00 00 00 00 00 00 00 00 00 00 00 00
       0.0 0.0 0.0 0.0
0001f0 00 00 00 00 00 00 00 00 00 00 00 00 00 00 00 00
       0.0 0.0 0.0 0.0

network_body._body_endoder.seq_layers.2.weight f4 [128, 128]
000000 c6 b6 1e be 02 cb 04 3d 7f b6 d7 3d 0b a4 32 3d
       -0.1549941 0.032420166 0.10532855 0.043613475
000010 c7 62 55 bc 95 e1 99 bd 88 c5 5f 3d 87 49 42 3d
       -0.013024039 -0.075137295 0.05463174 0.047433402
000020 69 c2 80 3d 01 3d 08 3d 9c 27 a8 3c 36 17 05 3e
       0.06287081 0.033261303 0.0205267 0.12997136
000030 d1 57 19 3d e1 31 f3 3c fe 9a 1f be 38 53 bb bd
       0.037437264 0.02968687 -0.15586469 -0.09146732
000040 bc 14 8b bd ed b0 90 bd 57 ba 7d 3d eb 2d 10 bd
       -0.06791064 -0.07064996 0.061945286 -0.03520004
000050 f0 18 53 bd 12 38 c2 3d bd f7 90 3d 5e fa cf bc
       -0.051537454 0.09483351 0.07078502 -0.025387939
000060 96 29 87 bc d8 d2 17 3d 12 9d 61 bd af e1 92 bc
       -0.016499322 0.03706631 -0.055081435 -0.01792988
000070 f5 9a 04 3e 9d f8 49 bb eb 44 a6 3d f4 e0 a9 3c
       0.12949736 -0.003081835 0.08118614 0.020737149
000080 fb 38 a7 3d 8f 3b 75 bd 9f e8 f1 bd c7 f9 08 3d
       0.08165165 -0.059871253 -0.11811947 0.03344133
000090 56 ea 93 bd f4 7d 29 bd d2 51 a3 3b 12 34 0e bd
       -0.072224304 -0.041379884 0.004984119 -0.034717627
0000a0 76 6e 0d be 27 ea 8c 3e 13 3c d3 bd 2c 72 e9 bd
       -0.13811669 0.27522394 -0.103141926 -0.1139873
0000b0 11 3f 90 3d a7 b7 c1 3d 0c f7 51 3d 83 96 78 bd
       0.07043279 0.09458857 0.051260993 -0.060690414
0000c0 02 f5 19 be 10 3f ab bd 01 23 86 3c 56 b9 fd bd
       -0.1503487 -0.083616376 0.016374113 -0.12388866
0000d0 7d 8a 89 3d e8 33 20 bd 7e 53 03 be 36 4a 8c 3d
       0.06715868 -0.039112 -0.12824818 0.06850092
0000e0 73 c4 bb 3d a5 25 d1 bd bc f4 5b 3e 7c 10 4c bb
       0.09168329 -0.10212258 0.21480078 -0.0031137755
0000f0 db 6a 60 bc 3a 2f 90 bd f5 e5 a9 bb ea 93 b6 bb
       -0.013697351 -0.07040258 -0.0051848837 -0.005571832
000100 10 36 f7 3d e2 ca d7 bd c7 38 5e 3e 18 8f f5 3c
       0.120708585 -0.10536744 0.21701346 0.029975459
000110 0e bd a4 3d 9c c9 99 bd 6d b5 ef bd c7 6c 0c bd
       0.08043872 -0.07509157 -0.11704526 -0.034283426
000120 36 92 73 3d 57 4c 1c bd 52 dc 92 bd 62 7c 08 be
       0.05946561 -0.03815874 -0.07170929 -0.13328698
000130 ac 60 8d 3c 66 61 a0 bc aa d9 ff bc ab 72 e7 3c
       0.01725801 -0.019577693 -0.03123172 0.02825292
000140 ce 90 e9 3d 48 c4 6f bd fc bb 04 bd 1a eb c3 3b
       0.114045724 -0.058536798 -0.03240584 0.005978954
000150 1e 68 a1 be 72 30 3f be 4a fc 28 3e 3b d5 8a 3d
       -0.31524748 -0.18670824 0.1650249 0.06778952
000160 66 ae 13 be b0 33 62 bd 2d 89 58 3d a3 65 40 bd
       -0.14421996 -0.055225074 0.052865196 -0.04697193
000170 9a 2b 2b 3e b4 93 38 be 99 1e cc bd 0a 67 8b 3d
       0.16715851 -0.18025094 -0.099667735 0.068067625
000180 e9 09 b2 3d 7a 70 45 bd 41 a7 8f bc bf 96 bd 3c
       0.086932965 -0.04820297 -0.017535808 0.02314317
000190 a9 0c 5f bc e1 9a 46 3e 85 65 f1 3d d2 dd a9 bc
       -0.013613858 0.19395019 0.117869414 -0.020735655
0001a0 cb 44 71 bc 71 8d 91 3b 47 1f 6b 3e 6d 60 96 3d
       -0.014725874 0.00444191 0.2296115 0.073426105
0001b0 20 aa 89 3d 1c 8f 29 be 6d e5 9c 3d ab 9b 6e bd
       0.06721902 -0.16558498 0.07660947 -0.058253925
0001c0 f0 a9 2f bd 9a 9c 5f 3b 5a 1f e2 b9 bc 15 b0 3d
       -0.042886674 0.0034120441 -0.00043129438 0.085978955
0001d0 f9 63 fa bd 90 4b 3e be 21 0a 15 3e 4f 1d 24 bd
       -0.122260995 -0.18583512 0.14554645 -0.040067013
0001e0 96 c1 93 bd 9a d1 25 be 4a dd 7d 3d 81 96 81 3d
       -0.07214658 -0.16193238 0.061978616 0.063275345
0001f0 75 64 5e bc 45 39 4a 3c a5 c9 55 3c 24 ee 13 bd
       -0.0135737555 0.012342756 0.013048564 -0.03611578
000200 73 e8 6d bd 9a e1 c0 bc a6 51 e1 bd 35 4b 80 bd
       -0.05808301 -0.023545075 -0.11001901 -0.062643446
000210 50 de 0f bd 9b 45 b1 bc 4c 3c d9 bd 9d 35 06 bd
       -0.035124123 -0.021639636 -0.10607204 -0.032765973
000220 a2 40 dc 3d ae d7 35 3e 90 7b cc 3c 5c 59 0f be
       0.10754515 0.17758057 0.024961263 -0.13998932
000230 35 34 91 3d 50 4a a6 bd 1d ce 0a be b3 fc 59 bb
       0.07090036 -0.08119643 -0.13555188 -0.0033262193
000240 62 44 ee 3d c4 40 42 bb 6e 91 3c bc f6 18 4d bd
       0.11634137 -0.0029640654 -0.0115092825 -0.050072633
000250 5e e6 49 3d 21 87 89 bd a8 9d 75 3d 45 54 c0 3d
       0.04929196 -0.06715227 0.059964806 0.09391073
000260 2c 54 0f 3d ab ef 6f 3d 31 da 10 3d d4 2e a3 bd
       0.034992382 0.058578175 0.035364334 -0.07967916
000270 64 ec 3d bd 91 5b 19 3d 7d 0b 3d 3e b9 9c 96 3d
       -0.046368018 0.03744084 0.18461414 0.07354111
000280 c7 50 28 be f5 46 d6 3d 6f f1 55 3c a9 02 5a 3d
       -0.16437064 0.10462753 0.013058051 0.053225193
000290 31 c7 05 3d 78 4f f7 3b 7e ed f3 3d b8 02 3d 3c
       0.032660667 0.007547315 0.119105324 0.011536293
0002a0 19 ec fd 3d b7 01 a4 bd 99 fe 01 be 76 3f 26 bd
       0.12398548 -0.080081396 -0.12694778 -0.040587865
0002b0 a1 9a b9 bc 26 f5 ef 3c be d8 96 bd 8b f7 14 bd
       -0.02265674 0.0292917 -0.07365559 -0.036368888
0002c0 3b 0e ca 3d c7 46 06 3c 70 44 58 3c 93 1d 8b bc
       0.098659955 0.008195586 0.0131999105 -0.016981876
0002d0 d4 18 7b bc 58 bc 88 3d 95 b1 84 bd 52 7e 43 3d
       -0.015325744 0.06676549 -0.064791836 0.04772789
0002e0 a0 6d de 3c 12 71 4d 3c df 27 d9 bd e9 0e 45 bd
       0.027151883 0.012539165 -0.10603308 -0.048109923
0002f0 b0 2d ad bd 74 fd 10 3e 8c 39 fd 3d 50 00 f9 3d
       -0.0845598 0.14159185 0.12364492 0.12158263
000300 2e 0a 97 3d db 2e 00 3d 80 db 06 3e 0f 23 ac 3b
       0.073749885 0.031294685 0.1316967 0.0052532027
000310 00 3a d4 bd 99 90 e1 3c ae 99 09 bb 24 79 f5 3d
       -0.10362625 0.02753477 -0.0020996141 0.11985996
000320 4d 3d 95 bd e0 39 c4 bd 1e a0 d8 bc bc af 99 3d
       -0.07287083 -0.09581351 -0.026443537 0.07504222
000330 3c 65 9d bd 29 c3 04 bb b9 3e bd 3d 41 32 82 bd
       -0.076853245 -0.0020257926 0.09240479 -0.063572414
000340 90 8d 20 3e 6e fd 35 3d 5b 6d 1e bd c7 5a 3e 3d
       0.15679002 0.044431143 -0.03867851 0.04647329
000350 f4 32 86 3d 17 c4 94 3c 09 3d 8e 3d bf 81 27 3e
       0.06552687 0.01815991 0.06945235 0.16358088
000360 e0 02 e2 3d 55 75 94 3d 64 84 36 3d e9 ae 72 3d
       0.110357046 0.07248942 0.04455985 0.05924884
000370 18 53 7e 3d 12 08 29 3d cc 8a 77 3d 01 d0 b8 bc
       0.062090963 0.041267462 0.0604351 -0.022560121
000380 90 c2 93 3c bd 74 0a 3e 35 92 0f 3c 9f 27 a2 3d
       0.01803711 0.13521095 0.008762886 0.079177134
000390 4c c8 87 3d 74 75 9e bd dc 11 35 bd be 6b 6f 3d
       0.066300005 -0.07737246 -0.044206485 0.05845236
0003a0 a1 4c 26 be a1 2f 0d 3e 80 3d 67 bb 13 5b b6 bd
       -0.16240169 0.137877 -0.003528446 -0.0890409
0003b0 5c fe 66 3d 48 e5 79 3d 91 f8 99 bd aa bf 96 3c
       0.05639492 0.061009675 -0.075181134 0.01840194
0003c0 a9 2d 6d 3c 39 08 86 3d b7 06 3d 3d 7e 82 20 bd
       0.014476218 0.06544537 0.046148982 -0.039186947
0003d0 70 b1 6b bd 3f 1a bf 3c be 34 94 3c 3a bf 4b 3d
       -0.057542264 0.023327945 0.018091556 0.049742915
0003e0 93 9b ec 3c 8a d2 87 bd 3e 96 ab bd de 32 07 bd
       0.028882777 -0.06631954 -0.08378266 -0.033007495
0003f0 96 1f 37 3c 4c 9a 09 bd d2 a3 a2 bc 5e e3 c3 bb
       0.011176964 -0.033594415 -0.019853506 -0.005978032
