results/CubeAgent/CubeAgent/CubeAgent-27943.onnx (onnx, 74377 bytes, 8 tensors)

action_model._continuous_distribution.log_sigma f4 [1, 2]
-0.109457165 -0.13280724
00000000: 142b e0bd 9ffe 07be

action_model._continuous_distribution.mu.bias f4 [2]
0.009810024 -0.0068129776
00000000: 39ba 203c 663f dfbb

action_model._continuous_distribution.mu.weight f4 [2, 128]
-0.058177717 -0.03934398 -0.07244339 -0.0012123449 -0.042980276 -0.055295397 -0.07401939 0.05858029
-0.019730614 -0.07108943 0.033763826 0.0013084295 0.042847794 -0.018125888 0.03703832 -0.0036042533
-0.027191743 0.07421864 -0.032621704 0.050188307 -0.10367296 -0.013767058 -0.031819623 -0.0060340366
0.025193566 0.06710935 -0.055749208 0.0031504272 0.07416353 0.11350723 -0.029744407 -0.05915471
-0.05996393 0.071868606 0.10694002 -0.019592445 -0.04753236 0.055517916 0.054201845 -0.080118455
0.04010779 -0.027306175 -0.088549405 -0.04756905 -0.11836377 0.022694489 -0.06580055 0.002426023
0.051053464 0.0064712334 0.021057172 -0.042189565 0.107065864 -0.032231674 0.04187692 -0.049541503
-0.06132786 0.039537977 -0.032501284 -0.05722313 -0.02650721 0.018420763 -0.09571234 0.029189514
-0.0030072639 0.043393992 -0.05780075 0.002122923 0.048153874 0.05311367 -0.05745648 -0.07513978
0.012254432 0.02953566 0.011981252 0.04787911 0.054176502 -0.04190048 0.03675693 -0.061208054
0.008458976 -0.05084032 0.038585916 0.04384992 -0.076724514 -0.052446082 -0.03897505 -0.10855434
0.02120008 -0.0671046 -0.09140895 -0.017049113 -0.093265176 -0.09503052 -0.012468114 0.08897755
-0.07746873 -0.013472503 -0.053335983 -0.05782356 -0.0013660858 0.047292717 -0.08288738 0.03779561
0.10461014 -0.016280705 -0.009549994 -0.015815193 -0.052249238 -0.059540834 -0.021798614 -0.013720314
0.09501767 0.11268951 0.013901577 0.03812907 0.044822637 -0.056632817 0.018416408 -0.00014664554
-0.032903284 0.06808463 0.0713235 -0.0448948 -0.09102701 0.08042149 -0.036302127 -0.018712936
-0.029749563 0.01822246 0.02262495 -0.07844709 0.068473086 0.012192079 -0.011847526 -0.067017384
0.08931186 -0.02196534 0.05249954 0.06543476 -0.07312117 -0.04935162 0.09437099 -0.10736068
-0.045989364 0.026294755 0.08946418 -0.067383096 -0.022029443 0.024848778 -0.009293241 0.0025120291
-0.0930643 0.03726326 0.06066921 0.018389734 -0.04915606 0.014801731 -0.08343366 -0.078240134
0.01612931 0.04370114 0.04594255 0.00884796 0.053450584 0.01777591 0.08624795 -0.0622414
0.0604656 -0.05792037 -0.053392675 -0.060178947 -0.057042092 -0.021287885 -0.010920591 -0.07913728
-0.067147955 0.025632735 0.08614495 -0.046647605 -0.008917101 0.03106233 0.006373287 -0.026674004
0.04446061 0.031020174 -0.06903423 -0.023842335 -0.07842562 -0.06879468 -0.026479186 0.076397866
0.018441988 0.015545491 0.0070410403 0.037529986 0.06885136 -0.072108716 0.098901875 -0.07556853
-0.052312218 0.08058925 0.030146683 -0.052473444 -0.077039145 -0.017541027 0.07385551 0.09320436
-0.07399338 -0.036956728 -0.0675175 0.035991885 -0.073879346 0.035602953 0.06529349 -0.0018568861
-0.017385261 0.10173857 0.006580282 0.07279726 -0.010562636 -0.011844458 -0.06902801 0.014489194
0.04514414 0.023891687 -0.052355874 -0.008944185 -0.019981477 0.05844837 -0.0073423837 0.033374038
-0.047228783 -0.057534948 -0.03536691 0.066335276 0.04215247 0.02729154 -0.0058935154 -0.024667026
0.025517188 -0.011204675 0.015122735 -0.07058128 -0.037444796 0.0019354782 -0.031734243 0.06394015
-0.013048601 0.022833647 0.06782808 0.0070470395 -0.02345977 -0.045785915 0.08777502 0.088888906
00000000: c24b 6ebd 2727 21bd 335d 94bd 8be7 9eba
00000010: 160c 30bd 6d7d 62bd 7a97 97bd e3f1 6f3d
00000020: 19a2 a1bc 5697 91bd f04b 0a3d 9c7f ab3a
00000030: 2b81 2f3d be7c 94bc 7eb5 173d 5635 6cbb
00000040: 38c1 debc f1ff 973d 569e 05bd 4192 4d3d
00000050: 7d52 d4bd 3a8f 61bc 4b55 02bd 2bb9 c5bb
00000060: bd62 ce3c a070 893d 4859 64bd 6677 4e3b
00000070: 0ce3 973d 7b76 e83d 8baa f3bc 364c 72bd
00000080: bd9c 75bd d92f 933d 5f03 db3d 5680 a0bc
00000090: 4bb1 42bd c166 633d c102 5e3d 2515 a4bd
000000a0: 1148 243d 33b1 dfbc 6459 b5bd c4d7 42bd
000000b0: b468 f2bd cbe9 b93c 70c2 86bd e9fd 1e3b
000000c0: 701d 513d a40c d43b 1780 ac3c f7ce 2cbd
000000d0: 5945 db3d 5c05 04bd 2287 2b3d 08ec 4abd
000000e0: ec32 7bbd 93f2 213d 1120 05bd cd62 6abd
000000f0: a625 d9bc 24e7 963c d504 c4bd d91e ef3c
00000100: 8415 45bb e6bd 313d 7bc0 6cbd bd20 0b3b
00000110: ff3c 453d b88d 593d 7c57 6bbd e3e2 99bd
00000120: d0c6 483c c5f4 f13c 034d 443c e31c 443d
00000130: 2ee8 5d3d d69f 2bbd 6f8e 163d 4cb5 7abd
00000140: 8497 0a3c f03d 50bd 440c 1e3d f99b 333d
00000150: be21 9dbd b4d1 56bd 4da4 1fbd bd51 debd
00000160: caab ad3c 236e 89bd 9e34 bbbd 95aa 8bbc
00000170: d001 bfbd 5c9f c2bd 0f47 4cbc dd39 b63d
00000180: eda7 9ebd c6bb 5cbc d576 5abd 66d8 6cbd
00000190: 3c0e b3ba 02b6 413d dcc0 a9bd 92cf 1a3d
000001a0: d73d d63d 1d5f 85bc 9477 1cbc dd8e 81bc
000001b0: 4c03 56bd 17e1 73bd 0293 b2bc 2bcb 60bc
000001c0: a098 c23d c2c9 e63d 71c3 633c 3a2d 1c3d
000001d0: f197 373d d0f7 67bd 02de 963c ddc4 19b9
000001e0: 98c5 06bd f46f 8b3d 0e12 923d 9ce3 37bd
000001f0: 5e6c babd 06b4 a43d 8ab1 14bd df4b 99bc
00000200: 5bb5 f3bc 4547 953c f657 b93c dea8 a0bd
00000210: 9e3b 8c3d 49c1 473c 201c 42bc 6940 89bd
00000220: 23e9 b63d a8f0 b3bc c209 573d a902 863d
00000230: 8dc0 95bd ed24 4abd 9445 c13d ebdf dbbd
00000240: 585f 3cbd 1968 d73c ff38 b73d 2600 8abd
00000250: 1777 b4bc aa8f cb3c ae42 18bc dba0 243b
00000260: 7f98 bebd 5ca1 183d 4780 783d 11a6 963c
00000270: dd57 49bd f682 723c 44df aabd 5d3c a0bd
00000280: 9d21 843c f7ff 323d 412e 3c3d 09f7 103c
00000290: 00ef 5a3d c99e 913c c4a2 b03d d7f0 7ebd
000002a0: c7aa 773d e93d 6dbd 47b2 5abd 337e 76bd
000002b0: f8a4 69bd ee63 aebc 47ec 32bc ba12 a2bd
000002c0: de84 89bd befb d13c c36c b03d 8f11 3fbd
000002d0: 0819 12bc 6d76 fe3c 02d7 d03b 7183 dabc
000002e0: 541c 363d 051e fe3c d261 8dbd 0051 c3bc
000002f0: 9d9d a0bd 3ae4 8cbd e1ea d8bc 7c76 9c3d
00000300: a713 973c 84b2 7e3c 87b8 e63b 0bb9 193d
00000310: f101 8d3d bcad 93bd 118d ca3d acc3 9abd
00000320: 5645 56bd fa0b a53d 2df6 f63c 65ee 56bd
00000330: b3c6 9dbd 33b2 8fbc 8f41 973d ede1 be3d
00000340: d789 97bd f05f 17bd 9d46 8abd 3a6c 133d
00000350: 0e4e 97bd 67d4 113d 98b8 853d c262 f3ba
00000360: 896b 8ebc 505c d03d 689f d73b bb16 953d
00000370: e80e 2dbc 420f 42bc 8f5e 8dbd 1664 6d3c
00000380: 10e9 383d 80b8 c33c 1d73 56bd a28a 12bc
00000390: 32b0 a3bc 8f67 6f3d 6198 f0bb 37b3 083d
000003a0: f872 41bd c4a9 6bbd e5dc 10bd cada 873d
000003b0: 12a8 2c3d 8292 df3c 641e c1bb 8112 cabc
000003c0: 6c09 d13c d093 37bc 59c5 773c eb8c 90bd
000003d0: b75f 19bd dfaf fd3a c4fb 01bd 0ef3 823d
000003e0: cdc9 55bc a10d bb3c 73e9 8a3d daea e63b
000003f0: b42e c0bc 038a 3bbd 64c3 b33d 630b b63d

action_model._discrete_distribution.branches.0.weight f4 [1, 128]
0.0131026795 -0.004135742 0.007808484 -0.0008616859 0.019706318 0.0010300818 0.020468336 -0.009847987
0.0028060933 -0.0006334131 0.0027563807 0.0023262638 -0.0047828127 -0.0011415553 -0.0075497567 -0.0030376646
-0.008073314 0.0034848459 -0.013284425 -0.0073361443 -0.0060724798 0.009397646 -0.007997365 0.010809087
-0.009306451 -0.012984097 -0.016289754 0.00079832255 0.014864998 -0.0034947265 0.0055337925 -0.007376678
-0.0011696115 0.008313049 -0.007710725 0.017236905 -0.0045886654 0.00723385 0.004900069 0.0075145634
-0.0036152513 -0.003787115 0.010813203 0.011065013 -0.0017708754 0.013557143 0.0056344937 -0.008244103
-0.0016616883 -0.009687395 -0.0073353723 0.010997704 0.0057169027 0.010401198 -0.00030466204 -0.010918984
0.0077671814 -0.013142302 0.011074172 -0.015764104 0.010569927 -0.007860944 0.0071954713 -0.005440484
0.0021026363 -0.00029391772 -0.012514352 -0.00940456 0.0075788363 0.0120618 0.006383373 0.0020404118
0.004672831 0.009575281 0.016080586 0.002741468 0.00026297555 -0.011892754 -0.0029461065 -0.013628348
-0.00035944543 0.00034774988 -4.009147e-05 0.0019408843 -0.021550594 -0.005637995 -0.00364455 -0.0029906463
-0.0068602636 0.005024742 0.0011388854 0.01681728 -0.0058627273 0.010931301 -0.005494366 -0.0073892595
0.0039053862 0.0030935209 -0.0004854775 -0.00096276664 0.0063402983 -0.0024136952 0.0029142909 0.008011981
0.012213051 -0.01058723 -0.010323806 0.00270616 -0.008306897 0.010569791 0.007347457 0.0035715625
0.0027843472 0.0036876884 -0.0086089065 -0.0027867637 -0.0101433 3.3051045e-05 -0.0024341021 0.0011796248
-0.007365925 0.0004974154 -0.0016175669 0.019180795 0.009228117 0.013812074 -0.00880612 -0.0046303826
00000000: 9fac 563c 1e85 87bb 50de ff3b c3e2 61ba
00000010: 256f a13c cf03 873a 36ad a73c 7459 21bc
00000020: 6fe6 373b a20b 26ba 65a4 343b 3b74 183b
00000030: 24b9 9cbb 3da0 95ba f363 f7bb 8e13 47bb
00000040: ef45 04bc 0362 643b eba6 59bc 0a64 f0bb
00000050: a7fb c6bb 96f8 193c 6107 03bc 9918 313c
00000060: 167a 18bc 40bb 54bc 1772 85bc 8546 513a
00000070: 528c 733c c807 65bb d154 b53b 0fb8 f1bb
00000080: a64d 99ba 7433 083c 40aa fcbb 6934 8d3c
00000090: 845c 96bb ef09 ed3b c290 a03b ba3c f63b
000000a0: daed 6cbb 3f31 78bb dc29 313c 074a 353c
000000b0: b81c e8ba c71e 5e3c 8fa1 b83b 4612 07bc
000000c0: 02cd d9ba e1b7 1ebc 905d f0bb b72f 343c
000000d0: db54 bb3b c969 2a3c 0cbb 9fb9 8ae5 32bc
000000e0: d783 fe3b cf52 57bc 7270 353c b923 81bc
000000f0: 7d2d 2d3c 30cb 00bc fdc7 eb3b 1646 b2bb
00000100: 62cc 093b f818 9ab9 ff08 4dbc 9515 1abc
00000110: e357 f83b db9e 453c 9d2b d13b 6eb8 053b
00000120: 8c1e 993b a4e1 1c3c 6fbb 833c 33aa 333b
00000130: fbdf 8939 d3d9 42bc 7713 41bb 6f49 5fbc
00000140: f373 bcb9 3352 b639 e327 28b8 4565 fe3a
00000150: df8a b0bc eebe b8bb 67d9 6ebb b8fe 43bb
00000160: 10cc e0bb 97a6 a43b a746 953a 64c4 893c
00000170: 1f1c c0bb 3319 333c 150a b4bb 9a21 f2bb
00000180: 82f1 7f3b abbc 4a3b b087 feb9 2d62 7cba
00000190: 47c2 cf3b 162f 1ebb b0fd 3e3b af44 033c
000001a0: 4019 483c 1076 2dbc 2e25 29bc d559 313b
000001b0: a719 08bc eb2c 2d3c f0c2 f03b e010 6a3b
000001c0: 9879 363b 25ad 713b 5f0c 0dbc 23a2 36bb
000001d0: 1530 26bc 4aa0 0a38 7585 1fbb a49d 9a3a
000001e0: db5d f1bb fc64 023a 8a04 d4ba 0b21 9d3c
000001f0: 8731 173c 0a4c 623c 8b47 10bc 77ba 97bb

network_body._body_endoder.seq_layers.0.bias f4 [128]
0.1424251 0.0726545 0.056303773 0.108507015 0.026564173 -0.008241951 -0.02705023 0.11933776
0.005827521 0.021571483 -0.0150597105 0.0076620546 0.021533497 -0.07474725 0.07627279 0.056112584
0.09560001 0.06892625 -0.099460445 0.03048699 0.006807645 0.006788509 0.06524922 0.06970304
0.033853773 0.009429628 0.078450665 0.06349601 -0.021620028 0.021293594 0.033514686 0.041169867
0.05300596 0.026402533 -0.020197345 0.070215546 0.11199667 0.03634919 0.041064385 0.047189508
-0.08533485 -0.010214574 0.04327964 -0.0016790221 0.010048873 0.05862755 0.014773855 0.0068613025
0.05310241 0.059007667 0.03462637 0.050422277 0.04684669 0.08612398 -0.02845125 0.04317176
0.04555807 0.07240968 0.0038100188 0.11792769 0.06777088 0.09186492 0.068415165 0.022193227
0.101483546 0.054911543 -0.008037986 -0.030924791 0.036051936 0.06083862 0.04774026 0.025826383
0.033217642 0.08158718 0.0007207328 0.12344732 0.026486637 0.07481371 0.0010453595 0.052381914
0.07642817 0.023336926 0.09588903 0.14358298 0.06744871 -0.05235968 0.14332126 0.030154759
0.01588092 0.039240256 0.049753368 -0.042304095 0.044239722 0.061883982 -0.030327251 0.030391451
0.08791411 0.037776396 0.067929335 -0.043372307 0.043634277 0.041719735 -0.022269964 0.056489184
-0.025029495 0.09177558 -0.0018936093 0.056635834 0.06228646 0.016489422 0.101187855 0.10603709
0.029656492 0.07327476 0.052487444 0.03554988 0.03651885 -0.0647974 0.054771144 0.04721959
0.019766055 0.06525224 0.06423759 0.015256343 -0.034530193 0.0035716784 0.029193182 0.039774418
00000000: e3d7 113e e2cb 943d c99e 663d ed38 de3d
00000010: 1c9d d93c 4009 07bc 7298 ddbc 5b67 f43d
00000020: caf4 be3b aeb6 b03c 01bd 76bc f911 fb3b
00000030: 0467 b03c 1615 99bd e934 9c3d 4fd6 653d
00000040: f0c9 c33d 3529 8d3d ebb1 cbbd dabf f93c
00000050: aa12 df3b 2472 de3b 62a1 853d 78c0 8e3d
00000060: 41aa 0a3d ba7e 1a3c beaa a03d 320a 823d
00000070: 7c1c b1bc e76f ae3c b246 093d bca1 283d
00000080: c71c 593d 204a d83c e774 a5bc 2bcd 8f3d
00000090: 835e e53d e3e2 143d 2133 283d c949 413d
000000a0: 0ac4 aebd 075b 27bc fe45 313d a212 dcba
000000b0: 07a4 243c 7123 703d 0a0e 723c c7d4 e03b
000000c0: ea81 593d 06b2 713d 61d4 0d3d 9787 4e3d
000000d0: 51e2 3f3d c561 b03d 9912 e9bc dfd4 303d
000000e0: 199b 3a3d 874b 943d 82b1 793b 1384 f13d
000000f0: 76cb 8a3d ad23 bc3d 401d 8c3d 92ce b53c
00000100: 9bd6 cf3d edea 603d c2b1 03bc fd55 fdbc
00000110: 32ab 133d eb31 793d 4a8b 433d da91 d33c
00000120: 390f 083d 2e17 a73d 8fef 3c3a f3d1 fc3d
00000130: 81fa d83c ee37 993d 7204 893a 6b8e 563d
00000140: 5f86 9c3d 152d bf3c 7861 c43d 6b07 133e
00000150: 8d22 8a3d 1b77 56bd cfc2 123e 1d07 f73c
00000160: b418 823c 64ba 203d 30ca 4b3d 0f47 2dbd
00000170: b634 353d 0f7a 7d3d db70 f8bc 7ef7 f83c
00000180: 500c b43d 6cbb 1a3d 891e 8b3d 29a7 31bd
00000190: dbb9 323d 50e2 2a3d 806f b6bc 3461 673d
000001a0: a80a cdbc d6f4 bb3d fc32 f8ba fafa 673d
000001b0: 1620 7f3d d314 873c 943b cf3d f929 d93d
000001c0: 2cf2 f23c 1411 963d 13fd 563d c09c 113d
000001d0: ca94 153d 80b4 84bd b557 603d 5469 413d
000001e0: 6cec a13c f7a2 853d ff8e 833d bef5 793c
000001f0: 886f 0dbd d212 6a3b 8a26 ef3c 80ea 223d

network_body._body_endoder.seq_layers.0.weight f4 [128, 6]
0.42725393 -0.7092275 0.1657957 -0.4900008 -0.067331836 -0.12440493 -0.00030273738 -0.13546811
0.45138568 0.3512743 -0.4691939 -0.5990381 -0.06993949 -0.099607356 0.34483993 0.11714617
0.3194682 0.016531385 -0.08145004 0.47874287 -0.06962391 0.43185478 0.49132505 -0.43483827
0.124247074 -0.12865324 0.3157668 0.29611343 -0.48016885 -0.21515325 -0.90019757 0.19582643
-0.2594281 0.0993673 -0.14908063 -0.30094525 0.13404125 -0.0027515688 -0.309136 0.09202603
0.2837065 -0.36646244 -0.21757603 -0.027462883 -0.69149154 -0.037982844 0.53174764 1.0225788
-0.08122465 -0.17910396 -0.4129529 0.18197273 0.2581258 -0.47181228 -0.12183839 -0.59970075
-0.058975466 0.30850846 -0.31507343 -0.2535108 0.20659965 -0.20925325 0.016648153 -0.024883594
-0.097572014 0.13751924 -0.35005608 0.015744459 -0.14185895 -0.031511087 -0.06678937 -0.22645934
-0.30245605 0.021088619 -0.08606719 0.1982944 -0.33184752 -0.43576592 -0.01688096 0.44269472
0.111308776 -0.32477534 -1.2936125 0.21517727 1.0247511 -0.26397896 0.031353876 -0.20943275
0.26645517 -0.78324854 -0.60634184 -0.23560713 -0.23727302 0.11172758 0.061309982 0.25698686
0.08977465 1.1758845 0.101127855 -0.19579999 0.55436236 0.64248085 -0.64620423 0.81735706
0.35763493 0.16484495 0.041378386 -0.26196298 -0.0649022 -1.0024608 0.047106113 0.1350667
0.1751587 0.32145134 0.013923702 -0.27286333 -0.008176602 -0.40770435 0.10281714 -0.09116423
-0.08327312 0.30696478 -0.05839337 0.1504162 -0.5809711 0.13719319 -0.04635097 0.4012954
-0.2029797 0.29731125 -0.45714396 0.12286952 -0.05211647 -0.34269616 -0.61048573 0.59182215
0.952895 0.6052204 -0.96291083 0.02028068 0.46173358 0.12049347 0.12696466 -0.25001776
-0.24839024 0.917501 0.11389699 0.40770558 0.26346132 -0.033725414 0.23521839 0.3044367
0.13885167 0.02921526 -0.7299448 -0.71310335 -0.75282866 0.6541034 -0.113624096 0.109664306
-0.05187838 0.0058594896 0.57609344 -0.09465877 -0.81814295 0.32113108 -0.3275576 0.64792097
0.1771897 -0.32357693 -0.7284343 0.19183928 -0.5722272 -0.42307884 0.20548542 -0.29948524
-0.24133326 0.40286043 -0.40170428 0.37123603 0.73886406 0.3394665 -0.6923787 0.5645753
0.5614565 -0.5303747 -0.6802272 -0.07442398 -0.4275427 -0.3171589 -0.42629117 -0.06141081
0.164475 0.40081254 -0.54993856 -0.55263364 0.5261688 0.1836699 -0.47335365 -0.45179474
-0.23206939 -0.27585843 -0.838013 0.41997233 0.17921259 0.24066037 -0.30275467 0.018186511
0.11443499 -0.43347302 0.47620094 0.27326 -0.068394914 0.030907467 0.11937863 0.14833127
0.38288817 -0.29999486 0.6388668 0.012010366 0.9064128 -0.3052662 -0.19499508 0.98896366
-0.28199247 0.054371502 0.5963714 0.4488497 -0.4660584 0.46003073 0.52995706 0.27776277
-0.26626927 0.13199407 -0.79759693 -0.6490113 0.2487911 -0.16754732 -0.19430792 0.35358256
0.24030977 0.1276543 -0.20981297 0.5418307 -1.1711327 0.50094324 -0.15840802 0.49572247
-0.42749548 0.33896324 -0.3741219 -0.35911378 0.33903462 -0.27166486 -0.03522421 -0.33541575
00000000: 07c1 da3e ef8f 35bf 59c6 293e 63e1 fabe
00000010: 46e5 89bd 03c8 febd b9b8 9eb9 27b8 0abe
00000020: 061c e73e 3ada b33e 2f3a f0be 905a 19bf
00000030: 6f3c 8fbd f1fe cbbd dc8e b03e 55ea ef3d
00000040: 5691 a33e d46c 873c 47cf a6bd c91d f53e
00000050: fb96 8ebd 121c dd3e f58e fb3e 1fa3 debe
00000060: 4075 fe3d adbd 03be 30ac a13e 2e9c 973e
00000070: b1d8 f5be 2251 5cbe 5973 66bf b986 483e
00000080: c3d3 84be 1581 cb3d 98a8 18be 7f15 9abe
00000090: 1c42 093e aa53 34bb 1347 9ebe 2578 bc3d
000000a0: fa41 913e f7a0 bbbe 40cc 5ebe d7f9 e0bc
000000b0: 9705 31bf e693 1bbd 9d20 083f dde3 823f
000000c0: 1c59 a6bd 0767 37be 906e d3be 0f57 3a3e
000000d0: 1129 843e 6191 f1be 6886 f9bd fd85 19bf
000000e0: 4290 71bd d2f4 9d3e 4e51 a1be 2bcc 81be
000000f0: dc8e 533e 7c46 56be b561 883c aed8 cbbc
00000100: d6d3 c7bd d8d1 0c3e 8d3a b3be 86fa 803c
00000110: 7943 11be c511 01bd ddc8 88bd f5e4 67be
00000120: 85db 9abe 0ac2 ac3c ff43 b0bd b00d 4b3e
00000130: ebe7 a9be b61c dfbe f049 8abc e2a8 e23e
00000140: dbf5 e33d f448 a6be 1895 a5bf 6e57 5c3e
00000150: 0b2b 833f 4028 87be ec6c 003d 8a75 56be
00000160: d06c 883e fa82 48bf 3839 1bbf ff42 71be
00000170: b3f7 72be 6ed1 e43d 2d20 7b3d c893 833e
00000180: c6db b73d 6283 963f 1f1c cf3d cb7f 48be
00000190: b1ea 0d3f a079 243f a46d 25bf 503e 513f
000001a0: ed1b b73e 1dcd 283e 627c 293d 0320 86be
000001b0: 72eb 84bd a350 80bf 57f2 403d ed4e 0a3e
000001c0: cd5c 333e 4595 a43e 3d20 643c beb4 8bbe
000001d0: 28f7 05bc a0be d0be cb91 d23d 50b4 babd
000001e0: 198b aabd 7d2a 9d3e e32d 6fbd b406 1a3e
000001f0: 86ba 14bf 5f7c 0c3e 84da 3dbd 9776 cd3e
00000200: e9d9 4fbe 2e39 983e c60e eabe 04a3 fb3d
00000210: 1478 55bd df75 afbe cb48 1cbf a881 173f
00000220: edf0 733f b9ef 1a3f 5381 76bf ab23 a63c
00000230: 5868 ec3e 48c5 f63d 0603 023e 5402 80be
00000240: 035a 7ebe 58e1 6a3f d342 e93d c9be d03e
00000250: 67e4 863e a923 0abd 17dd 703e 21df 9b3e
00000260: 222f 0e3e d754 ef3c aadd 3abf f18d 36bf
00000270: 61b9 40bf 5273 273f c0b3 e8bd ae97 e03d
00000280: 6d7e 54bd f600 c03b dc7a 133f 75dc c1bd
00000290: d171 51bf 4b6b a43e a1b5 a7be 26de 253f
000002a0: 3771 353e e0ab a5be ac7a 3abf 8471 443e
000002b0: 7b7d 12bf ca9d d8be c56a 523e 2156 99be
000002c0: 1120 77be b943 ce3e 2fac cdbe a612 be3e
000002d0: 3226 3d3f 8ece ad3e bb3f 31bf 0288 103f
000002e0: 9dbb 0f3f a3c6 07bf 5f23 2ebf 9a6b 98bd
000002f0: e0e6 dabe a762 a2be d642 dabe e789 7bbd
00000300: 226c 283e 4d37 cd3e c6c8 0cbf 6679 0dbf
00000310: 00b3 063f f613 3c3e 695b f2be a451 e7be
00000320: 99a3 6dbe 513d 8dbe 0588 56bf 9d06 d73e
00000330: 8183 373e ac6f 763e a902 9bbe e1fb 943c
00000340: e45c ea3d 2df0 ddbe 9cd0 f33e bce8 8b3e
00000350: a212 8cbd a831 fd3c c87c f43d 27e4 173e
00000360: eb09 c43e ed98 99be c68c 233f 20c7 443c
00000370: ab0a 683f da4b 9cbe caac 47be b92c 7d3f
00000380: 5161 90be a7b4 5e3d ccab 183f a1cf e53e
00000390: 359f eebe 2689 eb3e 44ab 073f ec36 8e3e
000003a0: 7254 88be 7429 073e 502f 4cbf 9b25 26bf
000003b0: 18c3 7e3e 8691 2bbe a8f8 46be c608 b53e
000003c0: c413 763e cfb7 023e 36d9 56be 6bb5 0a3f
000003d0: ade7 95bf d13d 003f b635 22be 56cf fd3e
000003e0: b0e0 dabe 978c ad3e e88c bfbe c3dd b7be
000003f0: f295 ad3e a817 8bbe 4347 10bd 9dbb abbe

network_body._body_endoder.seq_layers.2.bias f4 [128]
0.033466008 0.026358344 0.044769883 0.021703864 0.03146329 0.019707244 0.037517834 0.0874323
0.06410844 0.027321808 0.03859203 0.021016974 0.072648816 0.009116603 0.09225095 0.06628761
0.040881656 0.036341745 0.057689648 0.07113533 0.086875595 -0.0075135864 0.023963481 -0.03554579
0.07340891 0.08785249 0.024627753 -0.03211226 0.06690726 0.13583393 0.056562733 0.06680833
0.016563468 0.039007265 0.09016881 -0.01575008 0.034415748 0.038601663 0.103780046 0.10599962
0.059550412 0.059299413 0.10766179 0.06469279 0.105767936 0.04180074 0.056054022 0.03522495
0.08030201 -0.030114233 0.0791944 0.042101406 0.026595859 -0.0013414726 0.03997981 0.04779338
0.06656571 0.017950676 0.03691462 0.0411222 0.04260734 0.05645497 0.080450326 0.077061936
-0.017816538 0.053976778 0.032794453 0.024420261 0.082630135 0.050198905 0.10398978 0.072547756
0.043734424 0.045960095 -0.005574698 0.052258357 0.061531212 0.026836766 0.03704404 0.09563465
0.055445448 0.029352523 0.05806107 0.034896087 0.06550836 0.028225828 0.0815089 0.044224624
0.049411412 0.105094865 0.07385466 0.050223287 0.0636175 0.045942448 0.03737724 0.10053053
0.091472864 -0.0055796443 0.05203077 0.047361523 0.014543447 0.04768592 0.07149888 0.03697942
0.09435728 0.058540065 -0.011609547 0.028501252 0.049522676 0.03389237 -0.01917138 0.01877101
0.1249033 0.15790415 -0.0053456416 0.06377667 0.038483173 0.02440006 0.031799104 0.037612297
0.020708842 0.052320592 0.08272738 0.0050239926 0.050773706 0.08676965 0.027076574 0.045377742
00000000: a713 093d 74ed d73c a060 373d 4dcc b13c
00000010: a7df 003d 1671 a13c 4dac 193d b50f b33d
00000020: 494b 833d fcd1 df3c ad12 1e3d ca2b ac3c
00000030: e7c8 943d ce5d 153c 11ee bc3d ccc1 873d
00000040: 8673 273d 15db 143d fb4b 6c3d 66af 913d
00000050: d5eb b13d 8834 f6bb 104f c43c 7698 11bd
00000060: 6957 963d 02ec b33d 24c0 c93c 2588 03bd
00000070: ac06 893d 0d18 0b3e 53ae 673d ced2 883d
00000080: 1cb0 873c 15c6 1f3d 6daa b83d 5006 81bc
00000090: 87f7 0c3d c71c 1e3d a28a d43d 5416 d93d
000000a0: 22eb 733d f1e3 723d c97d dc3d a77d 843d
000000b0: dc9c d83d 4137 2b3d e798 653d 0a48 103d
000000c0: 6175 a43d 20b2 f6bc ac30 a23d 8672 2c3d
000000d0: 8fdf d93c 5ad4 afba dfc1 233d fec2 433d
000000e0: 9a53 883d 4c0d 933c c933 173d c16f 283d
000000f0: 0985 2e3d 543d 673d 24c3 a43d a6d2 9d3d
00000100: fdf3 91bc c116 5d3d 7a53 063d 000d c83c
00000110: fd39 a93d 5e9d 4d3d 98f8 d43d eb93 943d
00000120: de22 333d a740 3c3d f5ab b6bb dc0c 563d
00000130: 2708 7c3d c7d8 db3c 7ebb 173d 19dc c33d
00000140: c41a 633d b474 f03c 72d1 6d3d 33ef 0e3d
00000150: 3f29 863d da39 e73c 23ee a63d e124 353d
00000160: 9f63 4a3d fa3b d73d 1d41 973d efb6 4d3d
00000170: e449 823d 262e 3c3d e018 193d f3e2 cd3d
00000180: 2056 bb3d 73d5 b6bb 371e 553d 28fe 413d
00000190: a347 6e3c 5052 433d 016e 923d bb77 173d
000001a0: 643e c13d b5c7 6f3d f835 3ebc 757b e93c
000001b0: 4ad8 4a3d bad2 0a3d 4c0d 9dbc a9c5 993c
000001c0: 4dcd ff3d a0b1 213e 7e2a afbb 589d 823d
000001d0: 88a0 1d3d a2e2 c73c c73f 023d 5a0f 1a3d
000001e0: 97a5 a93c 1e4e 563d f96c a93d 4ea0 a43b
000001f0: 17f8 4f3d 49b4 b13d b1cf dd3c 03de 393d

network_body._body_endoder.seq_layers.2.weight f4 [128, 128]
-0.25035605 -0.032994114 0.06480191 0.055838805 -0.086338915 -0.049305424 0.06859191 0.08293871
0.08153993 0.023430562 -0.032942627 0.15531665 0.04592431 -0.007719312 -0.21522187 -0.062357698
-0.07317236 -0.07116068 -0.00016949142 -0.03482271 -0.03136117 0.1225245 0.104125924 -0.023306608
-0.01058256 -0.046307467 -0.025348933 0.0082795 0.14434242 -0.0009955494 0.101031825 0.049088042
0.107059486 -0.04157633 -0.1073968 -0.0024294774 -0.13645893 -0.00398149 -0.022161296 -0.025345543
-0.15000196 0.2970293 -0.19792111 -0.16198601 -0.005841535 0.122292265 0.04698929 -0.097998194
-0.13258724 -0.1435773 -0.012625808 -0.18320832 -0.022239285 -0.08853052 -0.18782641 0.03378203
0.06957155 -0.092593245 0.24341266 -0.062183015 0.012568552 -0.15527922 -0.041146122 -0.016463542
0.09658246 -0.1564113 0.1847372 0.052107166 0.110880755 -0.037810355 -0.10939527 -0.010331791
0.08948889 -0.07197654 -0.1570308 -0.13786416 -0.05555836 -0.0012516668 -0.026357446 -0.035847496
0.09356514 -0.04255549 -0.0112061715 -0.12758535 -0.32662377 -0.20061986 0.08202888 0.10232887
-0.13180076 -0.04267235 0.03312033 -0.07212176 0.18291424 -0.1924838 -0.09361272 0.09524775
0.06982747 -0.060161512 -0.101193205 -0.053139612 0.013401924 0.22083017 0.1400951 -0.098633505
-0.06970021 0.01710817 0.16426772 0.043308027 -0.003806174 -0.21331346 0.030800818 -0.10823154
-0.02446901 0.031825088 -0.01367622 0.03221241 -0.100661315 -0.15480456 0.08284093 -0.041153267
-0.039104883 -0.22655553 0.08468515 0.06297875 -0.04240309 0.043982007 -0.028849822 -0.10403052
-0.19819322 -0.030394569 -0.10406287 -0.022338677 -0.041219473 0.009800601 -0.11078001 -0.039251097
0.11737082 0.21545534 -0.022350296 -0.117117815 0.09417695 -0.09574215 -0.17766757 0.04126239
0.11104284 0.048872054 -0.028866513 -0.108613946 0.09299119 -0.050102644 0.07019856 0.13527602
0.098327264 0.025534557 0.07954531 -0.09794992 -0.05359376 0.025627922 0.18272553 0.08570217
-0.2290786 0.109592505 0.00056782836 0.017016305 -0.012144219 0.04398964 0.14298864 0.027890151
0.11511718 -0.0611707 -0.20742188 -0.04971054 -0.055654503 0.042382646 -0.053732257 -0.017925212
0.095434576 -0.046426106 -0.012256144 -0.04758104 -0.063907474 0.03364356 -0.0681728 0.08828969
0.01550711 0.05222418 -0.11819691 -0.108859934 -0.03656319 0.0596216 0.082102075 0.11909748
0.021063473 -0.0076033208 0.12894271 0.013061264 -0.11151784 0.052398972 -0.03607417 0.12609072
-0.05788153 -0.05257364 -0.050653193 0.08409745 -0.10374955 -0.009200095 0.100245714 -0.07358916
0.21119447 0.01399365 -0.042329248 -0.086115696 -0.02326661 0.018368218 -0.023159932 0.20139827
0.13782789 0.03365413 0.06849087 0.049507182 0.08087139 0.0026490102 0.06265403 -0.04555173
0.07718739 0.15328775 -0.071942516 0.03563373 0.08131626 -0.0380681 -0.050214723 0.01740107
-0.15670668 0.1815437 -0.01340863 -0.07287738 -0.018148653 0.04084112 -0.12054847 -0.029460963
-0.019943748 0.092639744 0.018938638 -0.050780874 -0.043686565 0.03506616 -0.0026847008 0.04492902
0.0407901 -0.11101295 -0.065302506 -0.03451811 0.015320103 -0.009558697 -0.044687744 -0.06351482
00000000: ab2e 80be d624 07bd ddb6 843d 3bb7 643d
00000010: 75d2 b0bd 7cf4 49bd ea79 8c3d c5db a93d
00000020: 68fe a63d 73f1 bf3c d9ee 06bd 540b 1f3e
00000030: 211b 3c3d 48f2 fcbb 1f63 5cbe c96a 7fbd
00000040: 64db 95bd b1bc 91bd 82b9 31b9 42a2 0ebd
00000050: 9274 00bd 20ee fa3d f93f d53d 80ed bebc
00000060: 7962 2dbc e6ac 3dbd 91a8 cfbc bda6 073c
00000070: 80ce 133e 187d 82ba c6e9 ce3d 8b10 493d
00000080: 0142 db3d f14b 2abd daf2 dbbd de37 1fbb
00000090: e4bb 0bbe 2977 82bb 9b8b b5bc 75a1 cfbc
000000a0: 1d9a 19be 3914 983e d5ab 4abe a9df 25be
000000b0: 596a bfbb 5e74 fa3d d777 403d 47b3 c8bd
000000c0: f3c4 07be ed05 13be 7adc 4ebc f69a 3bbe
000000d0: 292f b6bc 7d4f b5bd 9155 40be 075f 0a3d
000000e0: 877b 8e3d 87a1 bdbd 2b41 793e 9eb3 7ebd
000000f0: 54ec 4d3c 8401 1fbe d688 28bd 8dde 86bc
00000100: 06cd c53d 492a 20be c02b 3d3e 536e 553d
00000110: 7315 e33d 08df 1abd a10a e0bd ac46 29bc
00000120: f345 b73d 7068 93bd afcc 20be 432c 0dbe
00000130: 2a91 63bd f80e a4ba 92eb d7bc d3d4 12bd
00000140: 159f bf3d aa4e 2ebd 179a 37bc bca5 02be
00000150: 3b3b a7be 4b6f 4dbe c2fe a73d cc91 d13d
00000160: c7f6 06be 34c9 2ebd 2fa9 073d 93b4 93bd
00000170: df4d 3b3e 791a 45be 07b8 bfbd 4111 c33d
00000180: b401 8f3d eb6b 76bd 623e cfbd eca8 59bd
00000190: be93 5b3c 4e21 623e 1775 0f3e 5d00 cabd
000001a0: fcbe 8ebd 6f26 8c3c cc35 283e c263 313d
000001b0: 0171 79bb d86e 5abe ff51 fc3c 7fa8 ddbd
000001c0: 3c73 c8bc 065b 023d 3912 60bc 29f1 033d
000001d0: 8527 cebd 1685 1ebe 81a8 a93d 5490 28bd
000001e0: 712c 20bd 2cfe 67be 686f ad3d 01fb 803d
000001f0: ddae 2dbd 7a26 343d 7656 ecbc f40d d5bd
00000200: 2af3 4abe 08fe f8bc ea1e d5bd 9aff b6bc
00000210: c0d5 28bd b392 203c a1e0 e2bd c2c5 20bd
00000220: 1d60 f03d 53a0 5c3e f817 b7bc 77db efbd
00000230: d8df c03d 7614 c4bd 7dee 35be c002 293d
00000240: 6e6a e33d 102e 483d 7779 ecbc fd70 debd
00000250: 2a72 be3d 6e38 4dbd 43c4 8f3d cc85 0a3e
00000260: ce5f c93d d92d d13c a7e8 a23d f899 c8bd
00000270: 2185 5bbd a6f1 d13c 671c 3b3e 9f84 af3d
00000280: 9593 6abe 0972 e03d 51da 143a c765 8b3c
00000290: 8cf8 46bc 7b2e 343d 9d6b 123e e379 e43c
000002a0: 8ec2 eb3d 218e 7abd 6766 54be 479d 4bbd
000002b0: faf5 63bd 6d99 2d3d 5b16 5cbd e5d7 92bc
000002c0: 3473 c33d 4d29 3ebd fecd 48bc 56e4 42bd
000002d0: ece1 82bd d4cd 093d 2e9e 8bbd 3ad1 b43d
000002e0: 8911 7e3c 06e9 553d 3911 f2bd f5f1 debd
000002f0: 49c3 15bd c735 743d 2225 a83d 61e9 f33d
00000300: 4e8d ac3c 4725 f9bb 8f09 043e e9fe 553c
00000310: 7763 e4bd 4ea0 563d 82c2 13bd ed1d 013e
00000320: 2f15 6dbd 7557 57bd b979 4fbd 493b ac3d
00000330: a57a d4bd ffbb 16bc a04d cd3d eab5 96bd
00000340: 5d43 583e 9f45 653c 6f61 2dbd 6d5d b0bd
00000350: 9e99 bebc f278 963c e6b9 bdbc 593b 4e3e
00000360: c122 0d3e ead8 093d f144 8c3d 0bc8 4a3d
00000370: e69f a53d 049b 2d3b c250 803d 7394 3abd
00000380: 6c14 9e3d 77f7 1c3e 9956 93bd adf4 113d
00000390: 2489 a63d 4ced 1bbd f4ad 4dbd b08c 8e3c
000003a0: b777 20be 97e6 393e dfaf 5bbc bc40 95bd
000003b0: 7cac 94bc 0549 273d 1ee2 f6bd 1e58 f1bc
000003c0: 1261 a3bc e8b9 bd3d 3425 9b3c 9bff 4fbd
000003d0: aff0 32bd 89a1 0f3d cef1 2fbb 7e07 383d
000003e0: 8513 273d c25a e3bd 52bd 85bd dd62 0dbd
000003f0: 2b01 7b3c 159c 1cbc 7f0a 37bd 0f14 82bd
