results/CubeAgentJumper-Basic/CubeAgentRay/CubeAgentRay-100024.onnx (onnx, 73902 bytes, 8 tensors)

action_model._continuous_distribution.log_sigma f4 [1, 2]
000000 29 43 d4 3c b3 5e db 3d
       0.02591093 0.10711422

action_model._continuous_distribution.mu.bias f4 [2]
000000 8e 93 47 3d 52 ee 96 3c
       0.048724703 0.018424187

action_model._continuous_distribution.mu.weight f4 [2, 128]
000000 3f 31 c2 bc e6 85 80 bd d6 40 87 bd 28 f3 b1 bd
       -0.023705123 -0.06275539 -0.06604163 -0.086889565
000010 a6 99 ac bb 2d 4d 82 3c 99 26 4b 3c aa aa 98 3d
       -0.0052673398 0.01590594 0.012399339 0.074544266
000020 36 02 38 3d a0 50 77 3d a5 3f 8b bd e9 b0 4a 3d
       0.044923984 0.060379624 -0.067992486 0.04948512
000030 8f 17 5d 3d 88 e2 eb 3d 3f 9d 86 bd ac 16 b0 bd
       0.053977545 0.11517817 -0.06572961 -0.08598074
000040 aa 3f 42 bd dc 6b a5 bc d3 ad 99 bd cf ec 88 bd
       -0.047423996 -0.020193033 -0.075038575 -0.06685793
000050 c3 71 22 bd 2a 2b c5 b9 14 8d 25 3d 3d 3d 9e bd
       -0.039659273 -0.00037606928 0.040417746 -0.07726524
000060 04 4c 91 bd 4f 70 c6 3d 7c fc f3 3c 88 f2 ac bd
       -0.07094577 0.0968939 0.02978348 -0.08444697
000070 72 22 29 bd 1e 7a 49 bd 80 6b e5 3c 56 a0 55 bd
       -0.041292615 -0.049188726 0.028005362 -0.05215486
000080 4f 22 9d 3c 01 d7 40 3c d2 e4 c7 bd 41 90 49 bd
       0.019181399 0.011770011 -0.09760441 -0.049209837
000090 6a eb df 3b c4 7b d9 3c 5c 54 90 bd 4e fa f7 bc
       0.0068334835 0.026548274 -0.0704734 -0.030270722
0000a0 cc 52 ab bd 6a 28 12 bd 21 51 ad bd 3a f0 e8 bd
       -0.083654016 -0.035683073 -0.0846274 -0.113739446
0000b0 fb 6b 0c bd 51 cc ca bb 72 d5 8f 3c 9b e9 c6 3d
       -0.034282666 -0.006188907 0.017557833 0.097125255
0000c0 06 81 cb 3d 4b 05 8b bd b5 1a e9 bc b4 ea a0 bd
       0.09936719 -0.06788119 -0.028455118 -0.07857266
0000d0 12 ac 33 bd a6 f8 37 bc ee 40 5d bd dd 59 58 3d
       -0.04386527 -0.011228716 -0.054017 0.052820075
0000e0 3c 40 14 bd 4a 7f 81 3c a9 86 1c bd e6 c1 6a 3d
       -0.03619407 0.015807766 -0.03821436 0.057313822
0000f0 4d a9 b6 3d e5 b5 05 3e 39 2f db bc d8 1f 8c bc
       0.0891901 0.13057669 -0.026755916 -0.017105028
000100 1f 3f 9b bd 09 51 74 3d ff 3a 10 3e c8 58 e0 3c
       -0.07580399 0.059647594 0.14085005 0.027386084
000110 bd 15 1b bd 9d 43 91 bd 45 db 86 bd a0 15 02 bd
       -0.037862528 -0.07092974 -0.06584791 -0.031758904
000120 4f d3 8e bd cc 4c 55 3c b5 76 bd bb 2e 85 c6 3b
       -0.06973898 0.013018798 -0.0057819732 0.0060583567
000130 6f 19 21 3d 95 97 b0 bd 27 4c 0d 3e bb 55 c4 3c
       0.039330896 -0.08622662 0.13798581 0.02396666
000140 93 57 4e bc 04 29 84 bd 21 fa bc 3d 0f 33 ff bc
       -0.0125941215 -0.064531356 0.09227396 -0.031152276
000150 c7 57 e7 bc e2 26 78 bc c7 7e 24 3d 35 50 9a bd
       -0.028240098 -0.015145989 0.040159967 -0.075348295
000160 b9 25 0c 3c b4 71 91 bd 62 d3 fc 3c 76 1e 4d 3c
       0.008553916 -0.07101765 0.030862514 0.0125194695
000170 ed b0 4b bd 05 60 23 bc c1 38 88 bb 67 e8 33 bd
       -0.049729276 -0.009971623 -0.004157156 -0.043922808
000180 2d ce c3 bd 97 42 c8 bd d2 49 c0 bd 3b 04 62 3d
       -0.09560809 -0.09778326 -0.0938908 0.055179816
000190 67 98 1c 3c 5a 28 bf bd d8 29 bb 3c 14 5a e3 bb
       0.00955782 -0.09333868 0.022847101 -0.0069382284
0001a0 2f 35 e7 3d 95 68 0f 3d bc 63 03 3e ea 56 b2 bd
       0.11289441 0.035011847 0.12831014 -0.08707984
0001b0 98 07 8f 3d 27 39 62 bc 62 21 5d bd 3c 3f 6d bd
       0.0698387 -0.0138075715 -0.053986914 -0.057921633
0001c0 a8 29 7d bd 8c d1 e1 bc 4c 43 96 bd 70 23 9b bd
       -0.061807305 -0.02756574 -0.073370546 -0.075751185
0001d0 bc 69 e6 bc 88 cb a9 3d 23 54 85 bd 8c 27 88 3d
       -0.02812659 0.08290774 -0.065101884 0.06648168
0001e0 19 26 39 bc 72 11 38 3d 79 15 86 3d e0 c1 d9 bd
       -0.011300587 0.044938512 0.06547064 -0.10632682
0001f0 49 9a 94 3d ab 43 b4 bd 2d 63 41 bc c6 b2 a4 bd
       0.0725599 -0.08801969 -0.0118034305 -0.08041911
000200 45 b0 b1 3c 30 fa 57 bd cc 3d 44 bd 02 37 bb bc
       0.021690497 -0.05272883 -0.047910497 -0.022853378
000210 98 26 0a 3d d4 7f 83 3c 52 e3 f6 3c dc ba 09 3d
       0.033728212 0.016052164 0.030137692 0.03362547
000220 93 9c 65 3d 7c 44 da 3b a3 9e 6e bc 02 a0 fe 3c
       0.056057524 0.006660996 -0.014564189 0.031082157
000230 84 28 23 3d d5 32 ea 3c f5 e5 5d bd ff 92 98 bc
       0.03983356 0.028588692 -0.054174382 -0.01862478
000240 d5 7f 90 bc 0d 8d ca 3c 1d 76 92 bc c1 88 30 bc
       -0.01763908 0.024725461 -0.017878586 -0.010774792
000250 4a 9a 42 bd 73 37 c7 3c 0c 16 a4 3b e9 eb 72 bd
       -0.047510423 0.024318432 0.005007511 -0.059307013
000260 e0 69 91 bb f1 30 3c 3d f3 e2 f5 3c a8 92 09 bd
       -0.00443767 0.04594511 0.030015444 -0.033587128
000270 43 64 25 3d fe 3d 43 bd 35 96 31 3d be 17 28 bd
       0.04037882 -0.047666542 0.04335614 -0.041038267
000280 69 e7 cb bc 6a b5 14 3d 24 db 19 bd 0c 32 2e bd
       -0.024890618 0.036305822 -0.037562504 -0.042528197
000290 8a 92 e3 bc 84 f8 26 3d d6 d5 23 bd cc 0e 83 3c
       -0.027779836 0.040764347 -0.03999885 0.015998267
0002a0 45 b5 bb bc a8 08 2c bd 09 23 1d bd bc c9 51 bd
       -0.022913584 -0.042000443 -0.03836349 -0.05121778
0002b0 6c 58 0d bd 58 f3 2d 3c 86 87 93 bc 23 a2 da 3c
       -0.034508154 0.0106171 -0.018008959 0.026688641
0002c0 f2 46 12 3d 4d 76 21 bd e8 07 08 bd eb 6c 0b bd
       0.03571219 -0.03941946 -0.033210665 -0.03403942
0002d0 41 f6 5a bd 30 64 9a 3c ad b5 37 bd 39 a7 6f 3d
       -0.053457502 0.018846601 -0.044850994 0.058509085
0002e0 06 ab c2 3c 17 e4 d2 3c a3 3f 29 bd 55 66 0f 3d
       0.023763191 0.025743527 -0.041320454 0.0350097
0002f0 25 27 33 3d 2a 59 2e 3d 48 f6 d4 3c e1 ef 78 3d
       0.043738503 0.042565502 0.025996342 0.06077564
000300 12 d9 82 bb 04 de f7 3c 97 86 34 3d c2 de 15 3d
       -0.003993162 0.030257232 0.044073667 0.03658939
000310 02 9f 2f bd fd 55 f0 bb 87 d9 81 bd c1 6a 1d bd
       -0.04287625 -0.0073344694 -0.06340318 -0.038431887
000320 b0 ae 66 bd e2 b8 25 3d 3f 76 e4 3b a1 d0 c6 3c
       -0.05631894 0.04045952 0.006972104 0.024269404
000330 90 25 e4 bb 0c 6d d5 bc 07 7e 31 3d bc 6c 41 3d
       -0.0069624856 -0.026052974 0.04333308 0.047222838
000340 3c 25 c1 39 80 b4 0d bd 4d 8c b7 3c 33 25 7f 3d
       0.0003683957 -0.034595966 0.022405768 0.062291335
000350 d5 c1 86 3c ed b6 e3 3c 98 d6 bb bc 9e 18 de 3b
       0.016449848 0.027797187 -0.022929475 0.006777837
000360 9e 17 11 3d 89 8a d1 bc f3 fd b0 bc d6 09 19 3d
       0.035422914 -0.025578754 -0.021605467 0.037362896
000370 ab 8b 4f bd 15 f4 56 3d 9a 7b 17 3c ab a3 59 3c
       -0.050670307 0.05247887 0.0092457775 0.01328365
000380 22 b1 23 bd 94 13 01 bd 86 3a 43 bd bc 21 12 3d
       -0.03996385 -0.03151281 -0.047663234 0.035676703
000390 45 c7 83 3d 74 6c 10 bd 26 ef 29 3d c5 d6 be 3c
       0.06434492 -0.03525968 0.041487835 0.02329577
0003a0 e0 fd 30 3d c1 ef 8f 3d 77 23 31 3d 19 88 2f bd
       0.043210864 0.07028151 0.043246713 -0.042854402
0003b0 2c 15 85 3d cd f1 ea 3c bc 5a f9 3c 4f 62 29 bd
       0.06498179 0.028679753 0.030438773 -0.04135352
0003c0 a4 c6 53 bd ab 33 0e 3d 25 06 38 bd 37 dd 2a bd
       -0.05170311 0.034717243 -0.044927735 -0.041714873
0003d0 87 15 4d bd f0 99 49 3c ad 8f 2c bd fd 25 1b 3d
       -0.05006936 0.012304768 -0.042129207 0.037878025
0003e0 b8 8e 22 3d 8e 23 de 3c 29 70 28 3d 19 49 39 bd
       0.03968689 0.027116563 0.04112259 -0.045235727
0003f0 97 9b 06 3d 22 71 58 bd 8a 82 89 3c ac 84 5c bd
       0.032863226 -0.052842267 0.016785879 -0.053837463

action_model._discrete_distribution.branches.0.weight f4 [1, 128]
000000 a6 1a a0 bc 06 c3 18 bc 8b fa 30 3c 27 f0 b3 3b
       -0.019543957 -0.009323841 0.010801922 0.005491275
000010 d3 8c 5c 3c 1c a6 0d 3c 8f 2d 24 bc 6a 82 ee 39
       0.0134613095 0.008645561 -0.010020628 0.00045492064
000020 bf f9 ec bb 87 c2 6c 3b 28 97 a6 3c 7b 57 34 bb
       -0.0072319205 0.003612669 0.020335749 -0.0027517963
000030 f2 02 d6 b9 cc 19 86 bb 4b 7a f7 bb 9f 82 31 3c
       -0.00040819455 -0.0040924307 -0.0075524203 0.010834365
000040 78 1a a7 3b 07 4e 9a bb 44 81 06 bc 47 d1 10 3c
       0.005099591 -0.0047090086 -0.00820953 0.008838958
000050 4f c2 0d bc 71 66 aa bc 77 5d 45 3c f2 fe 2f bc
       -0.008652284 -0.020800801 0.01204621 -0.010741936
000060 c0 25 ee bb 17 ae 6b 3a f0 ed 71 3a a0 18 0f bb
       -0.0072676837 0.000899048 0.0009228876 -0.0021834746
000070 0b 9d 5b 3b 0f 8f 4e b9 30 32 14 bc ed c8 52 bb
       0.0033510353 -0.00019698984 -0.009045169 -0.0032163218
000080 75 e8 89 bc 2f f4 6f bc 8b c3 ea 3a fc 79 33 3c
       -0.016834477 -0.01464562 0.001791106 0.010954376
000090 9b a5 89 b7 a7 cf 94 3b 8b f5 9f bb 2b 3b fc bb
       -1.6408789e-05 0.0045413557 -0.004881566 -0.007697483
0000a0 d8 9a 10 bc 39 de a3 b9 12 10 cd 3b e3 82 63 bc
       -0.00882598 -0.00031255351 0.0062580192 -0.013886186
0000b0 0e 2f 39 3a ac 02 95 bb d3 7f 34 3c 97 a4 0f bb
       0.00070642016 -0.0045474377 0.011016804 -0.0021918172
0000c0 b2 60 bd 3b e6 b7 0a bb c1 ec 29 bc f5 1c 64 3c
       0.0057793492 -0.002116674 -0.010371388 0.0139229195
0000d0 0c 54 83 3c db 94 fa 3b 87 79 1a 3b b7 f6 a6 3b
       0.016031288 0.0076471395 0.002357097 0.0050953287
0000e0 1a 6e e2 3a 6b 43 42 bb d3 86 81 39 45 4a 51 39
       0.0017275244 -0.0029642235 0.0002470525 0.00019959461
0000f0 1f 23 6f bc 19 71 c5 bb 9b 1d 80 bc 79 d2 a8 3b
       -0.014595776 -0.006025445 -0.015639117 0.0051520434
000100 47 23 0c bc c8 04 84 bb ef ab d7 3a 3d e7 d9 3c
       -0.008553333 -0.0040288903 0.0016454438 0.02659952
000110 65 15 b1 3b 0e 6e b5 bb 4d c0 b7 bb a3 8a 67 3c
       0.0054041618 -0.005536801 -0.005607641 0.014132175
000120 5f 9a 1e 3a d7 62 25 3b df cf 38 3c 57 28 03 3b
       0.0006050225 0.0025235915 0.011280029 0.0020013058
000130 71 c5 0c bc 3a 84 f6 bb b8 ab c8 3c 17 b8 a4 bb
       -0.008591996 -0.007523087 0.024495944 -0.005026828
000140 5d 5e cc bb 60 a4 4e 3b 13 20 ba b9 d3 7d e0 bb
       -0.006236835 0.003153108 -0.00035500582 -0.006850937
000150 1d ad 2e bc 03 18 20 3b 68 fd a8 3a 87 f5 b4 3a
       -0.010661391 0.0024428375 0.0012892904 0.0013806083
000160 e0 b2 0e 3c 66 17 8b 3c a3 fa 85 bc 43 fc 9c bb
       0.008709639 0.01697893 -0.016354864 -0.004790814
000170 8d 0b 7e 3b e2 65 9e 3b b7 15 bc bb d3 df cd bc
       0.003876421 0.0048339227 -0.0057398933 -0.025131142
000180 4d 52 9d bb 8d 9d e5 3a ec 52 c3 bb 8e bd 2a bc
       -0.004801071 0.0017518267 -0.005960813 -0.01042117
000190 f5 d9 0f bb a3 1b ad 3b 29 d2 96 bc d8 62 5f 3c
       -0.002194998 0.0052828356 -0.018410759 0.013634406
0001a0 6b 43 d2 bb 7f 45 85 bb 5e 13 46 39 a7 66 43 bb
       -0.0064167283 -0.0040671225 0.00018889966 -0.0029815824
0001b0 b7 54 40 ba b7 68 b9 3b b3 4c 96 3b 8a b0 7d 3b
       -0.0007336842 0.005658235 0.00458678 0.0038709962
0001c0 d1 91 8c bb b9 3f c7 ba 7f f2 1e bb c2 d9 53 bc
       -0.0042898436 -0.0015201486 -0.0024253426 -0.0129303355
0001d0 68 fe d1 3b 85 c1 3e bc b1 d6 0c bb 63 c9 d9 3b
       0.0064085014 -0.011642818 -0.002149027 0.0066463216
0001e0 a3 84 4c bc 58 e4 51 3c d3 7f 92 bb f8 3a 7f bb
       -0.012482795 0.012810789 -0.0044708042 -0.003894506
0001f0 4b 14 a4 3b bf 5f d0 3b 4b b3 70 bb e0 54 c4 3b
       0.005007302 0.00635907 -0.003672796 0.005991563

network_body._body_endoder.seq_layers.0.bias f4 [128]
000000 6b ae 2d bd 2c c3 94 bd e5 71 36 bd 21 20 0f 3e
       -0.042402666 -0.072637886 -0.044542212 0.139771
000010 c9 6f 45 bd 5e db f2 3c 54 c7 a8 3d 92 fb 1d 3e
       -0.04820231 0.029645618 0.08241144 0.15427998
000020 21 25 8e 3d a4 9c 8c bd d8 92 57 bc 39 08 5b 3e
       0.069406755 -0.06865814 -0.013157569 0.21389855
000030 c4 df b6 bb d2 66 a0 bd 04 4a b0 3d f2 7a 04 3e
       -0.005580874 -0.078321114 0.08607867 0.12937525
000040 84 da 17 3d 81 64 4b 3d 39 60 79 bd 69 ae 3e be
       0.037073627 0.049656395 -0.06088278 -0.1862122
000050 7a 7c 50 3d d5 45 95 bd 06 b4 4e be 8f f1 4c be
       0.05089996 -0.0728871 -0.20185861 -0.20014022
000060 48 16 02 be 86 3c 73 bd ac 18 2d be c7 5e c4 bd
       -0.12703812 -0.05938389 -0.16903943 -0.0958839
000070 f9 c6 f1 bc 97 f0 6f be c6 39 2a bd c7 ae c6 bd
       -0.029513823 -0.23431621 -0.041559003 -0.09701305
000080 65 ad 9f bd f9 18 3f 3e be e8 87 bd f8 bc 4f bd
       -0.07796744 0.1866187 -0.06636189 -0.050717324
000090 32 13 60 bd 7a eb 58 3c 32 aa 82 bd 1b 7c 9a bd
       -0.054705806 0.013239736 -0.063801184 -0.075432025
0000a0 75 a1 8f 3d ac 72 ae 3d 17 1c 37 be 5e ef 84 3d
       0.07013217 0.08517966 -0.17881809 0.06490968
0000b0 c3 77 96 bd c2 42 00 3e e4 5e 0b 3d c0 98 65 bd
       -0.073470615 0.12525466 0.03402604 -0.056053877
0000c0 f5 1d fc bd aa c9 29 3d 13 ef 8b bd 63 3f 2a bd
       -0.12310401 0.041452087 -0.06832709 -0.041564357
0000d0 cb a3 8f 3b 0e 66 f6 bc 96 b8 2c 3d 94 63 34 3d
       0.0043835393 -0.03007796 0.042168222 0.044040278
0000e0 57 85 b3 3d a4 c4 04 bd f3 e6 c6 bd 05 e3 c2 3d
       0.08765667 -0.032414094 -0.09712019 0.09515957
0000f0 7a 7c 5c bd b1 26 09 3e 88 fb 15 3d 05 c8 02 bb
       -0.053829648 0.13393666 0.036616832 -0.0019955647
000100 82 07 31 bd fd cc ee bc 59 c8 24 3d 47 79 bb bd
       -0.04322005 -0.02915048 0.04023013 -0.09153991
000110 2a 9e 64 bd ec d0 ef bd e0 5b 45 bd 7c 8b 15 3e
       -0.0558149 -0.117097706 -0.048183322 0.1460399
000120 f6 f4 95 bd 76 5a b2 bd f7 48 d1 3c 5b ab 72 3c
       -0.07322113 -0.0870866 0.025547488 0.014811362
000130 e0 c9 cc bc 9e 39 df bc da 7d 8d bd d8 51 7c bd
       -0.024998605 -0.027249154 -0.0690877 -0.06160149
000140 35 47 3d 3c 0d 09 a2 bc 0a 76 02 3c 2a a3 db bc
       0.011552622 -0.019779706 0.007962713 -0.026811201
000150 c1 e7 1d bb c1 2e cb bd 71 81 e6 bc 15 8f 19 bc
       -0.0024094435 -0.09921027 -0.028137894 -0.009372492
000160 22 8e 65 bd 8b 7e 04 3d d5 29 f2 bd fa b8 fd 3d
       -0.05604375 0.032347243 -0.11824385 0.12388797
000170 1c 8f dc bd e8 8a 4d bd cc 10 65 bd 99 31 3a bd
       -0.107694834 -0.0501813 -0.055924222 -0.045457456
000180 e9 8b 8b 3d d5 eb 9e 3b bb e2 6d 3c db 2b 45 be
       0.06813795 0.0048498907 0.014519389 -0.19255011
000190 81 d2 4d be f5 20 30 3e 6b 42 51 3d 4f 25 da 3b
       -0.20099832 0.17200072 0.05108873 0.0066572796
0001a0 6b 74 27 bd 75 74 8c 3c 91 64 83 bc d9 b1 73 bd
       -0.04088251 0.017145375 -0.016039165 -0.05949578
0001b0 50 88 21 bd 70 7b 96 bd 54 f1 44 be 5d 3d 00 3e
       -0.03943664 -0.073477626 -0.19232684 0.12523408
0001c0 a1 6a 2b bc e7 cd 06 3d 56 7b c6 3a 84 96 86 3b
       -0.010462434 0.032911208 0.0015142958 0.0041072983
0001d0 2b d9 09 3d 29 53 a7 bc ed 0f a3 bd a9 12 37 bd
       0.033654373 -0.020425396 -0.07962022 -0.04469553
0001e0 55 87 4f bd 4e ae 06 bd 17 7b 7b bd fe 53 1d bd
       -0.050666172 -0.032881074 -0.061396684 -0.03841018
0001f0 11 ea 57 bd 09 e2 e9 3d d0 b1 d8 bc 6b ef ac 3d
       -0.052713457 0.11420066 -0.026451975 0.08444103

network_body._body_endoder.seq_layers.0.weight f4 [128, 5]
000000 98 72 ea 3e 0a fd bd be 82 66 e9 3e c9 58 db be
       0.45790553 -0.37107116 0.4558602 -0.42841175
000010 28 90 87 be 82 36 c9 3e fd 74 17 bd e3 9d 85 bb
       -0.2647717 0.392994 -0.036976803 -0.0040776595
000020 62 03 4a 3f b6 94 a7 3e 75 46 6f 3e 17 04 90 be
       0.7891141 0.32730645 0.23366721 -0.2812812
000030 2f c8 2e 3e 9d 4f 38 3c bf 70 64 bd 02 d2 87 bf
       0.17068551 0.01124945 -0.055771586 -1.0610964
000040 42 9a 7d 3e ef 0e ad be df 7a 7e 3e 8b 2f 78 bf
       0.24765876 -0.33800456 0.24851559 -0.96947545
000050 26 8d 13 3f 4c 13 9a 3e 59 3d 71 3f 0a ff 80 be
       0.5763725 0.30092847 0.94234234 -0.2519458
000060 c4 3b 3f bd c0 91 84 be 15 7b 7c be 8e 9c 8c bd
       -0.046687856 -0.25892448 -0.24656327 -0.06865798
000070 06 1d 78 3e 3d 92 da bd 4b 85 c7 be 49 42 11 3e
       0.24229822 -0.10672424 -0.38968882 0.14185442
000080 5b 5a 62 3d 44 8f 5f 3e 54 f3 60 3f fa 71 5c bf
       0.05526195 0.21831995 0.8787129 -0.86111414
000090 93 6b 0a 3f 42 f4 72 3e 78 b5 5e bd 12 9a 24 3e
       0.54070395 0.2372599 -0.05437228 0.16074398
0000a0 ca 39 ce be 80 e7 91 3e 4f 72 12 3e 09 5b 01 3f
       -0.40278465 0.28496933 0.14301418 0.50529534
0000b0 b5 c5 21 bc aa 11 5b 3e 6a 76 fb 3d 45 a2 d0 be
       -0.009873797 0.21393457 0.12278445 -0.40748802
0000c0 63 9c b7 be bb a0 06 be 6e 0e e4 3c 9a 39 03 3f
       -0.358615 -0.13147251 0.027838912 0.5125977
0000d0 0a 89 b6 bd 07 13 7f 3e 91 03 f0 3e f5 ef a6 bf
       -0.08912857 0.24909602 0.4687772 -1.3041979
0000e0 e1 25 8f 3d fa 90 3f bf e7 ce 83 3e 0a 21 49 bf
       0.06989647 -0.7483059 0.2574379 -0.7856604
0000f0 e5 00 9b 3e 29 d9 54 bf 48 86 ad 3e d9 24 01 3f
       0.3027412 -0.8314386 0.3389151 0.5044685
000100 e6 d4 93 3e 1b ef 55 be 8a ce b9 3e 84 b4 cb 3e
       0.28873366 -0.20891993 0.3629039 0.3978616
000110 dd 9f 0a bf bd f0 75 3f 7d 4b ba bd 54 a4 55 be
       -0.5415018 0.9607046 -0.090964295 -0.20863467
000120 ef 05 0c bf 00 7c 0e 3f a7 92 00 be f2 a5 78 3d
       -0.54696554 0.5565796 -0.12555943 0.060705133
000130 31 e2 68 be ce f7 37 bf d6 4d bf 3d 20 2d f3 be
       -0.22742535 -0.71862495 0.09341018 -0.47495365
000140 6a 59 8d be 13 e9 22 3f dc af a1 3d 46 f8 05 3c
       -0.2760728 0.63636893 0.07894871 0.008176869
000150 f8 35 1e 3f fa 32 aa be 17 2f 48 3f 89 4a 3c 3e
       0.618011 -0.33242017 0.78196853 0.18387808
000160 a0 d5 c4 bd 8f eb 2f 3e 8e 81 fe 3e c2 f9 fb be
       -0.09611058 0.17179702 0.49708217 -0.49213988
000170 26 5d 95 bd c6 8a 66 3e 8c 92 af 3e 68 e1 54 be
       -0.07293157 0.22513875 0.34291494 -0.2078911
000180 88 41 58 bf bb c9 b9 39 6c d9 a5 be 23 9d 75 ba
       -0.8447499 0.0003543625 -0.32392442 -0.00093694235
000190 8a cb 30 bf b6 5b 48 3f 08 72 93 be 9c da e8 3e
       -0.69060576 0.7826494 -0.28797936 0.45479286
0001a0 fd 75 c3 be 42 8a 29 be a4 f4 13 be 41 c1 13 be
       -0.38175955 -0.16556647 -0.14448792 -0.1442919
0001b0 93 14 a0 be 23 93 73 bd 2b 50 af 3d 7c ce 7e bf
       -0.31265697 -0.059466492 0.08560213 -0.9953382
0001c0 dc 61 0d bf 99 52 b8 be 32 7e cb 3e 3e 32 23 bf
       -0.55227447 -0.36000517 0.39744717 -0.6374854
0001d0 d7 6a 0b bf 64 31 11 be c4 21 5b bf 29 ad bb be
       -0.544599 -0.14178997 -0.855984 -0.36655548
0001e0 73 ae d6 be 75 96 2c 3c 96 cd 14 3f db 60 f0 be
       -0.4192997 0.010533919 0.581262 -0.46948895
0001f0 ac 7e 8d bd 50 d7 f7 bd 5b 81 0c be ef a5 38 bf
       -0.06908926 -0.121016145 -0.1372122 -0.72128195
000200 89 9f 4e bf 35 59 fe be 89 e9 36 bf 5a 61 3c bf
       -0.8071218 -0.49677435 -0.71450096 -0.73586047
000210 e8 bc 95 3e 7b 6d 39 bf 9f bb 14 3f 63 ff ab bd
       0.29245687 -0.7243268 0.5809879 -0.083983205
000220 a5 f2 92 3e 29 9d 08 3f 2f c7 08 bf e2 73 a6 3e
       0.28700748 0.5336481 -0.5342893 0.32510287
000230 06 7c 09 3f a6 d1 de 3e e1 3e 85 be 5e 5c 92 bf
       0.5370487 0.43519324 -0.26024535 -1.1434438
000240 91 93 3a be 05 ac 88 bf 26 ac 4e bf 47 b3 3f 3e
       -0.18220355 -1.0677496 -0.8073143 0.18720733
000250 74 93 6a 3e e0 a8 ec bd bf 26 1e 3e e4 66 41 3e
       0.22907811 -0.11555648 0.15444468 0.18886906
000260 cf 9e 71 3e 9d 99 81 bf 05 ff 7c 3e d1 90 cb bd
       0.23595737 -1.0125004 0.24706657 -0.09939731
000270 12 df 3f bd 81 99 a1 be 73 e6 28 bf 8d 1d 01 3f
       -0.046843596 -0.31562427 -0.6597664 0.50435716
000280 53 59 3f be 7f e9 af bd f8 0e 9e 3e ae e5 bd be
       -0.18686418 -0.08589458 0.30870795 -0.37089294
000290 0f af df 3d d2 30 82 bf b4 6d ff 3e ac d5 54 be
       0.10922062 -1.0171149 0.49888384 -0.20784634
0002a0 f7 6d 18 37 dd f8 8d be a4 8e 25 3c 58 39 49 bd
       9.085509e-06 -0.2772893 0.010104809 -0.049126953
0002b0 38 12 a0 be a0 1e ed be 79 40 0a be 58 37 22 3f
       -0.312639 -0.46312428 -0.13501157 0.633657
0002c0 aa d0 5f 3f b3 90 c0 3e ff 3d 99 be b7 6a d9 3e
       0.8742777 0.37610397 -0.29930112 0.4246423
0002d0 f7 09 56 3e af 41 1c 3e 92 dd b0 be f7 e8 28 bc
       0.20902239 0.15259431 -0.34544045 -0.010309449
0002e0 c5 bf 5a 3e 27 8b 00 bf c0 ed 14 bf 8e a5 3d 3e
       0.21362217 -0.5021233 -0.5817528 0.18520185
0002f0 a5 97 ab 3e 51 75 54 3e ec 00 2d 3f ff 5e 19 3f
       0.33514133 0.20747878 0.6757953 0.5991058
000300 6d da 98 be 0a 6a 26 3e 17 02 ee be df 6e 06 3e
       -0.29854146 0.16251388 -0.4648597 0.13128231
000310 09 d1 92 3e 64 ea 9a 3e ba 18 20 bf 0c 00 dd be
       0.28675106 0.3025695 -0.6253773 -0.43164098
000320 f6 42 7b bf 92 d2 00 3e 87 f7 9b 3e 4f d2 d8 be
       -0.9814905 0.12580326 0.30462286 -0.42347953
000330 62 11 d8 3e 97 d7 3f be 44 6c 64 3a b2 8a 18 3e
       0.42200762 -0.18734585 0.00087136426 0.14896658
000340 61 df e4 3b 06 89 41 3f cf 27 54 be 54 06 c6 be
       0.0069846367 0.75599706 -0.20718311 -0.38676703
000350 ee b4 9b 3e 6d 10 2b bf ed 72 83 be 4c 58 98 be
       0.30411476 -0.6682194 -0.2567362 -0.29754865
000360 75 c7 0a 3e 30 a0 ee 3e e5 84 e0 3e 59 36 04 bf
       0.1355265 0.46606588 0.4385139 -0.5164543
000370 59 5b 04 3f 3b 9a 9c be 7b 79 0a bf da 9d a3 be
       0.51701885 -0.30586419 -0.54091614 -0.3195637
000380 6f b2 7d 3e d1 6d be bd a2 a8 a8 be c0 41 ea 3e
       0.24775098 -0.092982896 -0.32941157 0.45753288
000390 f7 65 5a 3d 2e 51 b8 bd 10 78 e5 be bc b3 7f 3f
       0.053319898 -0.08999859 -0.44818163 0.9988363
0003a0 62 06 ad be c9 e0 45 3f 86 36 7c 3e d2 a9 49 3f
       -0.33793932 0.7729612 0.24630174 0.7877475
0003b0 e8 70 02 3f 52 6e 93 3e 0d 54 48 be df c9 2d be
       0.5095353 0.28795105 -0.19563313 -0.16971539
0003c0 d0 71 05 bf c0 6e fc bd bd 8e 11 bf 28 50 33 bf
       -0.5212679 -0.123258114 -0.56858426 -0.70044184
0003d0 02 e8 86 be aa 22 79 bd b1 61 30 3e a2 bc 19 bd
       -0.26348883 -0.060824074 0.17224766 -0.03753341
0003e0 c4 72 b3 3f 86 f9 dc bd dd e7 9d 3e ce d2 55 3e
       1.4019399 -0.1078978 0.3084096 0.20881197
0003f0 0e e9 ad 3e c3 80 5d 3f 01 31 db 3e af 83 08 3f
       0.3396687 0.865246 0.42810825 0.53325933

network_body._body_endoder.seq_layers.2.bias f4 [128]
000000 32 a5 9e bc 79 00 12 3b 55 c3 4e bd 59 8f 04 bd
       -0.01936588 0.0022278114 -0.050479252 -0.03236327
000010 04 b9 1c 3d 2f 7f 5f 3d cc 5f 29 3d 66 2c b7 3d
       0.038262382 0.05456465 0.041351125 0.08944015
000020 93 ed dd 3d 79 8e 87 3d 8c cf 99 bd 38 d6 89 3d
       0.10836329 0.066189714 -0.075102895 0.06730312
000030 1f 21 8a 3d 1b 80 ab 3d 27 d5 19 bc e0 ad 05 bd
       0.067445986 0.083740436 -0.009389198 -0.032636523
000040 ff f3 4a bd 27 4c 20 3d f6 c8 47 bd ae e7 86 bd
       -0.0495491 0.039135125 -0.048775636 -0.06587158
000050 a6 14 01 bc 89 4f e7 3c d2 78 1f 3d ec 78 b8 bb
       -0.007878458 0.028236168 0.038933583 -0.0056296494
000060 4a f1 9d bd 5b bf b3 3d 8d 9d bc 3d 97 8d e9 bc
       -0.07712038 0.087767325 0.09209738 -0.028509898
000070 72 a3 98 bc 39 35 1b 3c 39 2e b3 3d 9e 0f 00 bc
       -0.018632624 0.0094731385 0.08749051 -0.007816223
000080 12 28 8a 3c c1 81 e6 3c 9a 41 af bc 8f 0e cc 3a
       0.01686481 0.028138043 -0.021393586 0.0015568304
000090 46 72 5b bb ba 26 83 3d c1 55 0d bd 24 48 ce bc
       -0.003348486 0.06403871 -0.03450561 -0.025180884
0000a0 31 85 0e bd 69 69 cd ba cc 48 ec bc 09 47 e1 bb
       -0.03479499 -0.0015671673 -0.028843306 -0.006874923
0000b0 b2 f4 4f bd 83 49 26 bc d8 92 e3 3c c5 bc b4 3d
       -0.05077047 -0.0101493625 0.027779981 0.088250674
0000c0 56 17 c4 3d 3e a8 23 bd 0a 45 95 bb 58 98 e6 bc
       0.095747635 -0.03995537 -0.0045553492 -0.028148815
0000d0 c2 33 70 bc 97 59 b1 3a 71 55 d3 bc a8 67 89 3d
       -0.0146607775 0.0013530728 -0.025797578 0.06709224
0000e0 6b cc c0 bc 5f d5 5f 3d d7 76 19 bc 21 71 7a 3d
       -0.023534974 0.054646846 -0.0093667125 0.061143044
0000f0 22 c9 9c 3d 40 52 be 3d 71 fa e1 ba e4 33 97 3c
       0.076555505 0.09293032 -0.0017240775 0.01845736
000100 c5 cf 8a bd 6c 42 74 3d 03 24 e4 3d 2d ed 92 3d
       -0.0677791 0.059633657 0.11139681 0.07174144
000110 c5 86 22 bd a8 cd 9f bd 26 b3 1c bb 3b 08 01 bc
       -0.039679307 -0.07802898 -0.0023910492 -0.007875497
000120 22 88 a5 bc 58 0a 35 3d 91 b5 03 bd ac 82 4b 3d
       -0.020206515 0.044199318 -0.032155577 0.049685165
000130 4e 20 22 3d 1c 8c b7 bc 2b ad da 3d 86 3e 75 3d
       0.03958159 -0.022405677 0.106775604 0.05987408
000140 35 3a 30 bd 25 ec 3c bd 11 db 96 3d 76 c3 5d ba
       -0.04302426 -0.046123642 0.07366002 -0.0008459607
000150 35 87 9f bc 48 fb 19 bc 8f bb 60 3d e1 42 b5 bd
       -0.019473651 -0.009398289 0.05486637 -0.08850647
000160 3b 0a 93 3d a5 b3 16 bd 76 f1 29 3d 06 a6 47 3d
       0.07179686 -0.036792416 0.04149004 0.048742317
000170 6b fa b7 bc 7f c0 b8 3c d1 dc 36 bb 6f 7a ab bd
       -0.022458276 0.022552727 -0.0027902613 -0.08372962
000180 61 ad 3b bc bd a8 62 bc eb 58 b4 bc 02 c5 89 3d
       -0.011454911 -0.013834176 -0.022015056 0.067270294
000190 5a a8 30 3d 78 3c 96 b9 e8 09 89 3d 21 bc 90 3c
       0.043129303 -0.00028655282 0.066913426 0.017667832
0001a0 e1 14 bc 3d 17 4f 97 3d 8f b7 00 3e ab e5 ff bc
       0.0918367 0.07388132 0.12570022 -0.031237444
0001b0 4e ed 8a 3d 52 5d 20 bc 97 90 b2 bc dd d2 4d bd
       0.067835435 -0.009787874 -0.021797461 -0.050249923
0001c0 0f 97 82 bc 54 7e 8b 3b d6 a0 14 bd 10 69 18 bd
       -0.015941171 0.004257003 -0.036286198 -0.03720957
0001d0 3e c7 31 bd 18 59 61 3d 60 96 00 bd 43 01 99 3d
       -0.043402903 0.055016607 -0.03139341 0.07470944
0001e0 0c 90 4d 3d 56 88 71 3d 72 cb b6 3d 3f 81 6c bc
       0.050186202 0.05896791 0.08925523 -0.014435112
0001f0 61 29 a7 3d 91 ef 26 bc c6 cb 4e bd 7b 84 bc bc
       0.08162189 -0.010188953 -0.050487302 -0.02301239

network_body._body_endoder.seq_layers.2.weight f4 [128, 128]
000000 6e 5f f1 3d 6e e8 b1 bd 5b 2b 2b 3c 50 9b 88 bd
       0.1178578 -0.086869106 0.0104473485 -0.066702485
000010 41 f2 10 3e b9 07 b0 bd f3 49 a7 3c b3 7d a0 3c
       0.14154913 -0.08595223 0.020421004 0.019591188
000020 bd b4 a3 bd bb 91 13 3b 3a d4 6f be d5 0b de bb
       -0.079934575 0.0022517282 -0.23420802 -0.006776313
000030 cc 84 db 3d d5 81 c5 3d 35 48 3c bd f3 b4 2f 3d
       0.10718688 0.09643904 -0.0459673 0.042897176
000040 31 92 e8 bd a0 16 06 be 06 80 7c bc 9f 0f 91 bd
       -0.11356009 -0.13094568 -0.015411383 -0.070830576
000050 86 02 5e bd 4d 1a 33 bd ad 5d 87 bc fe 35 d7 3d
       -0.054201625 -0.043726254 -0.01652416 0.10508345
000060 53 93 d5 bd ec a2 a0 3c 55 9a dd bd 85 45 7d bc
       -0.104284905 0.019608937 -0.10820452 -0.015458469
000070 27 a0 15 bd 61 fe e8 bd 1a 88 8e 3b 45 c0 a6 bd
       -0.036529686 -0.11376644 0.0043497207 -0.08142141
000080 b7 30 1b 3d 65 6f fd bc a4 ab e8 3c db 13 79 3d
       0.037888255 -0.030936906 0.028402157 0.06080995
000090 a9 99 44 3d d5 ac 51 3e c4 09 60 bd d3 d4 98 bd
       0.047998104 0.20476086 -0.054696813 -0.07462468
0000a0 3e 1a 7f 3d 41 1b 47 bd e8 bc e3 bd 9e f5 78 bd
       0.062280886 -0.048609976 -0.111200154 -0.060781114
0000b0 46 9b b9 3d 86 84 2f bd f7 23 9f 3d a3 bf 14 3c
       0.09062819 -0.042850994 0.077705316 0.009078893
0000c0 3a 92 37 3d 6c 45 ee bd 2d db 28 3e f9 f7 21 bd
       0.044817187 -0.11634335 0.16489859 -0.039543126
0000d0 34 5d fa bc 00 80 8d bd d5 77 1c 3e 5c 6d 09 be
       -0.03056202 -0.0690918 0.15280087 -0.13420624
0000e0 08 e6 2b 3d 00 69 88 bd e9 e0 82 3d b2 61 24 be
       0.04196742 -0.06660652 0.063905545 -0.16052893
0000f0 ff 12 f1 3c 92 b8 26 be ae 9e 12 3d 4b ed 61 bc
       0.029428003 -0.16281345 0.03579586 -0.013789485
000100 66 91 0b bd 99 28 fd 3d 72 79 40 3c 55 ca 16 3d
       -0.03407421 0.12361259 0.011747705 0.036814053
000110 97 3e b9 3d 09 bb dd 3c a3 0e b1 3c a8 ab 93 bd
       0.09045141 0.027066724 0.021613425 -0.07210475
000120 71 ac f9 3d 8b 0d 8a 3d 13 1e ac bd 52 68 1b bd
       0.12191094 0.06740864 -0.08404174 -0.037941284
000130 26 47 9e bd 76 20 48 bd 8a 05 27 3e ba 58 e9 3d
       -0.07728414 -0.048859082 0.16310707 0.113938764
000140 e9 f9 2b be 1c e9 d9 3d af 39 70 3d f5 64 37 3d
       -0.16794552 0.10640165 0.05864876 0.044774015
000150 b0 ec 87 bc 49 60 14 bd ef c3 b6 bc 5d 5d 2f 3e
       -0.016592354 -0.036224637 -0.022310225 0.17125459
000160 fa 82 55 bd 23 87 07 bc 9b cb 37 3d 29 4b 3c 3d
       -0.052126862 -0.008271965 0.044871908 0.045970116
000170 e4 ad 9e bd cb 44 3f bd cf 31 9d bd 5b 1b e5 3d
       -0.07748011 -0.046696465 -0.07675516 0.11186858
000180 66 10 89 bd 4d c8 4b bd d6 5d ac bd 04 8d 39 3d
       -0.06692581 -0.04975157 -0.08416335 0.0453005
000190 4f 64 47 3d 4e 8d a3 3b 85 41 2d 3e 52 a3 cc bd
       0.048679646 0.00499121 0.16919525 -0.099920884
0001a0 15 83 3e 3e 7f 0a 2f 3d 10 56 8b 3c 80 c2 0c 3d
       0.18604691 0.04273462 0.017008811 0.034365177
0001b0 22 76 08 3e e3 d8 e3 3c 92 6c b5 bc 6f 34 ff 3d
       0.13326314 0.02781338 -0.022146497 0.12461173
0001c0 90 3f d0 bd fc c9 57 3d 69 e1 e4 3d 58 e8 c9 bd
       -0.101683736 0.05268286 0.11175806 -0.09858769
0001d0 7a b2 79 3d af d9 49 3e 4c c2 92 3c f5 4a 46 be
       0.060961224 0.19711946 0.017914914 -0.19364531
0001e0 fb a9 74 bc 33 d7 d8 3d 59 26 9a bd ab 09 c8 3d
       -0.014933105 0.10587921 -0.075268455 0.09767469
0001f0 3c 62 74 3c 2d c2 e5 bd 6f 02 e3 bc 77 76 35 bd
       0.014915999 -0.11218677 -0.027711121 -0.04430243
000200 39 e7 80 3c 93 27 a7 bd e3 cf 87 3d ee 40 86 be
       0.015735256 -0.08161845 0.06631448 -0.26221412
000210 7c 48 89 3d 98 2e 50 3d 02 e8 96 bd f3 e4 f8 bd
       0.067032784 0.050825685 -0.07368471 -0.121530436
000220 af 2d d2 bd 70 25 ad bd 73 8b 6e 3c 65 91 2b be
       -0.1026262 -0.08454406 0.0145596145 -0.16754682
000230 6a b8 bf 3d 36 c6 cf 3b 24 7a 08 be 0b e0 88 3d
       0.09361346 0.0063407673 -0.13327843 0.06683358
000240 90 40 cf 3c 40 24 22 3e 5c 58 c1 bd bd 0e 60 3e
       0.02529934 0.15834141 -0.09440681 0.21880622
000250 63 7a 08 be 7d 5b 21 be 7c f0 e3 bb cb d7 ac 3b
       -0.13327937 -0.15757556 -0.006956158 0.005274748
000260 af 99 63 bc 68 c3 0e bd 73 6c e8 bd 84 c9 a5 bc
       -0.0138916215 -0.034854323 -0.1134881 -0.020237692
000270 99 ae 9b 3d 68 30 9b bd 82 aa 6c 3d a6 43 33 bd
       0.07601661 -0.07577592 0.057779796 -0.043765686
000280 7a 07 63 bd 33 d6 24 3d 57 d6 1e bd dc a3 77 bc
       -0.055427052 0.04024334 -0.03877863 -0.015114751
000290 56 cc 7f 3d c6 f3 96 38 b7 49 80 bd 44 b6 a2 3d
       0.06245073 7.197964e-05 -0.0626406 0.07944921
0002a0 11 a1 03 bd e3 fd ea bd 30 a1 b9 bc 89 80 1a be
       -0.032136027 -0.11474206 -0.022659868 -0.15088095
0002b0 7a 02 3b 3d 8a ff a6 bd d1 d1 5a be fb 6f fa 3d
       0.04565666 -0.08154209 -0.21369101 0.1222839
0002c0 fc d5 02 bc 65 e2 02 3e 27 29 27 bd 0e 36 36 bd
       -0.007985588 0.12781675 -0.04081073 -0.044485144
0002d0 38 d2 d9 3d c0 36 4b 3c 4a 17 38 bc 92 67 32 bd
       0.10635799 0.01240319 -0.011236021 -0.043555804
0002e0 52 80 3b be f9 1f e9 3d 95 64 2a 3d bf e7 c9 bd
       -0.18310669 0.113830514 0.04159983 -0.09858655
0002f0 af 29 a9 3d 0f 85 03 3b 63 20 0d be 06 5a 76 bd
       0.08259904 0.0020068323 -0.13781886 -0.060144447
000300 64 6b 02 3d 48 49 90 bd a4 04 f5 3c 32 c6 89 bd
       0.031840697 -0.07045227 0.02990944 -0.06727256
000310 0e c5 61 bd 34 28 05 3e 88 d1 86 be 4b 1b 2c 3c
       -0.055119567 0.13003618 -0.26331735 0.010504554
000320 8e 7a c1 3d f9 cf de 3d 0b bf ea bd c8 0c 11 bd
       0.094472036 0.108795114 -0.1146222 -0.03541258
000330 fc c0 04 3d e4 2a d7 3d b1 29 21 bd 1a 89 bf bd
       0.032410607 0.105062276 -0.0393464 -0.09352322
000340 17 87 38 be 50 1a a6 bc 57 66 12 3d 82 d0 fa bc
       -0.18020283 -0.020276219 0.03574213 -0.030617002
000350 99 37 59 be 47 2c 93 3c f1 4d af 3c 53 65 e4 bd
       -0.21212615 0.017965449 0.02139947 -0.111521386
000360 4c 7f 07 3e 50 08 4c 3d 07 d4 f4 3c 9d fd 07 be
       0.13232154 0.049812615 0.029886259 -0.1328034
000370 6a c1 5f bd f2 d1 c2 3c f6 bd f0 3d e6 d9 d0 39
       -0.054627813 0.02378175 0.11754982 0.000398352
000380 8f 90 27 be 1b cc 62 3d df d5 18 be e4 80 ad 3d
       -0.16363738 0.05537043 -0.14925335 0.084718496
000390 6b d2 71 3d 1e 9a 98 bd 88 a9 63 bd 88 99 90 3d
       0.05903856 -0.074512705 -0.0555816 0.07060534
0003a0 f6 db 8f bd e7 84 83 bd d1 22 0a be f0 b1 1d 3d
       -0.07024376 -0.064218335 -0.13489844 0.038499773
0003b0 02 5c 86 3d 65 ef bb 3d 4d b7 48 3d ed 61 a6 3d
       0.06560518 0.0917652 0.049002934 0.081241466
0003c0 c2 55 c9 3d bc 19 50 3d dd 08 27 be ec eb 5b bc
       0.0983081 0.050805792 -0.16311975 -0.013422947
0003d0 ec 8b ea 3c e1 34 a8 bc 3c cf 9f 3d f0 70 32 3e
       0.028631173 -0.020533027 0.07803199 0.17425895
0003e0 f2 65 9d 3e 11 47 06 bc a8 5b 05 3d e1 3e 5c 3d
       0.3074184 -0.0081956545 0.032558113 0.053770903
0003f0 36 0a 66 3d 76 f7 a6 bd db de 4f bd 3c 30 67 39
       0.05616208 -0.08152668 -0.05074964 0.00022047845
