results/CubeAgentJumper-Basic/CubeAgentRay/CubeAgentRay-219129.pt (torch, 440079 bytes, 39 tensors)

network_body._body_endoder.seq_layers.0.weight f4 [128, 5]
00000000: ecc9 f43e 8250 b3be 8266 e93e 804d d1be
00000010: bf40 84be c38e de3e 510b b53b e39d 85bb
00000020: 99b2 4a3f e7ec 9d3e 0bfc 863e 81f2 7fbe
00000030: 2fc8 2e3e cff0 cc3c 68d2 8bbd 0cfd 89bf
00000040: cc1f 6a3e ef0e adbe 7e4e 7d3e d230 79bf
00000050: 659d 1a3f 34e1 a73e 593d 713f b230 70be
00000060: c390 72bd 4f06 85be f886 7ebe 8e9c 8cbd
00000070: d7f5 693e 9fcc e3bd 7283 d4be 575b eb3d
00000080: 5b5a 623d 5f2f 4b3e f7c2 633f 8af3 63bf
00000090: 6cbb 023f 42f4 723e 1498 86bd 1e80 1c3e
000000a0: 37fa d3be 14a3 8b3e 4f72 123e ca9e f53e
000000b0: a072 adbb 66e9 733e 5a52 173e 45a2 d0be
000000c0: 9c6f a3be 959d 0fbe f250 f13c a771 033f
000000d0: 0a89 b6bd fdf7 7c3e d21b fa3e 3aa2 a8bf
000000e0: 8d85 6a3d fa90 3fbf a046 8e3e a389 53bf
000000f0: 0793 9a3e cab5 54bf 4886 ad3e 6b4b f93e
00000100: 89d9 a43e e876 4fbe 3361 be3e 84b4 cb3e
00000110: 9928 0abf e6ea 773f 5c62 e6bd 4b5a 6cbe
00000120: ef05 0cbf d3e4 063f e4b5 02be c58e 2a3d
00000130: 4c1a 7fbe cef7 37bf e359 8c3d 9e60 f6be
00000140: 19fc 99be cb29 1b3f dcaf a13d c874 76bc
00000150: c3d0 213f f95e babe f218 3f3f 894a 3c3e
00000160: 3300 00be 0974 4d3e 8869 083f fee4 e8be
00000170: 265d 95bd 22d3 743e 9053 ae3e c943 7fbe
00000180: 37c1 63bf bbc9 b939 d2f3 b9be 55cf e03d
00000190: cd74 36bf 405e 423f 0872 93be 78de e03e
000001a0: 45fb b9be dff0 2bbe 4642 0cbe 41c1 13be
000001b0: b680 a5be b497 4fbd 37ef 2c3d a7dc 85bf
000001c0: dc61 0dbf 9c14 d1be 1672 073f 5f2c 2cbf
000001d0: 42cb 16bf 6431 11be 9404 70bf 18f7 7cbe
000001e0: 0562 e1be 2a84 df3a 96cd 143f 2945 01bf
000001f0: 1b4b 88bc cf32 19be 06a9 25be efa5 38bf
00000200: 1a04 5abf 0a20 debe 572e 3cbf 4551 43bf
00000210: e8bc 953e d44c 47bf 8a92 2b3f ea65 9dbd
00000220: c976 973e 299d 083f 202e 0bbf b46e ab3e
00000230: 6c5d 0b3f 3355 e23e e13e 85be 7a47 94bf
00000240: d49d 36be e7f6 8bbf 17b1 51bf 47b3 3f3e
00000250: c68b 5c3e 14ad 6dbd 4bbb 1b3e 0ebd 3e3e
00000260: cf9e 713e 43eb 86bf 2106 8a3e b363 c5bd
00000270: 960a 30bd 8199 a1be 09dd 32bf 7a73 0b3f
00000280: ed48 35be db44 86bd f80e 9e3e f135 cfbe
00000290: 5d86 143e 3ae2 85bf 0cd2 ef3e acd5 54be
000002a0: 2472 84bb f80d 90be 58ed c93c f60c 01bd
000002b0: 3812 a0be 8964 f1be d212 e9bd fdb0 293f
000002c0: d50b 673f b390 c03e 950a 90be d546 d13e
000002d0: 24c7 6f3e 20c3 343e 92dd b0be 2806 abbc
000002e0: 2ef7 523e a3b0 05bf 309b 19bf 8ea5 3d3e
000002f0: de50 aa3e 5d4c 403e 518a 313f 61f8 1d3f
00000300: 6dda 98be 3470 253e 62af f3be e5cc 193e
00000310: 8af6 9c3e 64ea 9a3e f083 1dbf 453c dbbe
00000320: 897d 80bf 1c99 ee3d 87f7 9b3e 98c3 dfbe
00000330: 65a7 b23e 4d7c 57be 5d54 b7bc b28a 183e
00000340: 65a0 f83a 1405 403f d61d 80be eda7 ddbe
00000350: eeb4 9b3e 1c7a 3dbf 1eb7 04be f1d6 9fbe
00000360: ffa1 f73d 30a0 ee3e a204 d53e 7c12 03bf
00000370: 706f 0b3f d92e 8ebe 7b79 0abf fd3c 8fbe
00000380: 2311 783e 69ae debd 1fe5 b0be c041 ea3e
00000390: 8c3c 993d 3d4a ecbd 74b8 eebe 0bad 7a3f
000003a0: 6206 adbe 3ddd 413f 99fd 873e 16b7 4f3f
000003b0: 8e83 083f 526e 933e d61c 42be 9ce5 3bbe
000003c0: 63b6 12bf 2a6d 2abe bd8e 11bf b512 45bf
000003d0: 8970 1fbe 248b 90bd d22e 253e a2bc 19bd
000003e0: 5688 b03f fc27 c4bd 9ff8 b03e 7707 7d3e
000003f0: 0ee9 ad3e 8d9f 5b3f a3f9 d23e 11af 0e3f
0.47810304 -0.3502236 0.4558602 -0.4087944 -0.25830647 0.43468294 0.0055250307 -0.0040776595
0.7917877 0.30844805 0.2636417 -0.24994852 0.17068551 0.02501717 -0.06827241 -1.0780349
0.22863692 -0.33800456 0.24736974 -0.9734012 0.60396415 0.32789004 0.94234234 -0.23456076
-0.059220087 -0.25981376 -0.24856174 -0.06865798 0.22847687 -0.11123013 -0.41506535 0.11492031
0.05526195 0.1984229 0.8896937 -0.89043486 0.51067233 0.2372599 -0.06571975 0.15283248
-0.41401836 0.27272856 0.14301418 0.4797271 -0.0052932054 0.23819503 0.14777508 -0.40748802
-0.3192109 -0.14024957 0.029457543 0.51345295 -0.08912857 0.24703975 0.4884935 -1.3174508
0.05725627 -0.7483059 0.27788258 -0.8263189 0.30190298 -0.8308989 0.3389151 0.48690352
0.32197216 -0.20260203 0.37183532 0.3978616 -0.539682 0.968428 -0.11249229 -0.23081319
-0.54696554 0.5269291 -0.12764698 0.041640062 -0.24912375 -0.71862495 0.06853082 -0.48120588
-0.30075148 0.60610646 0.07894871 -0.015042491 0.6320917 -0.36400583 0.7464744 0.18387808
-0.12500076 0.20063795 0.5328603 -0.45487207 -0.07293157 0.23908666 0.34048128 -0.24928202
-0.889667 0.0003543625 -0.36318833 0.109770454 -0.71271974 0.75925064 -0.28797936 0.4391973
-0.36324516 -0.16791104 -0.13697156 -0.1442919 -0.3232476 -0.050681785 0.04222032 -1.0457963
-0.55227447 -0.40836036 0.52908456 -0.67255205 -0.58903897 -0.14178997 -0.93756986 -0.24703634
-0.44020095 0.0017052938 0.581262 -0.50496155 -0.016637376 -0.14960788 -0.16177759 -0.72128195
-0.8516251 -0.4338382 -0.7350821 -0.7629588 0.29245687 -0.77851605 0.67020476 -0.07685454
0.29582813 0.5336481 -0.54367256 0.33482897 0.54439425 0.44205627 -0.26024535 -1.1584313
-0.17833644 -1.0934724 -0.8191084 0.18720733 0.21537694 -0.05802639 0.15208165 0.18626806
0.23595737 -1.0540546 0.269578 -0.09638157 -0.042978846 -0.31562427 -0.6986852 0.5447308
-0.177036 -0.06556102 0.30870795 -0.40470842 0.1450438 -1.0459664 0.4683994 -0.20784634
-0.004041927 -0.28135657 0.024649307 -0.0315065 -0.312639 -0.47147015 -0.11380543 0.6628569
0.9025243 0.37610397 -0.28133073 0.40874353 0.2341581 0.1765256 -0.34544045 -0.020876959
0.20602104 -0.5222265 -0.6000242 0.18520185 0.33264822 0.1877913 0.6935168 0.6170712
-0.29854146 0.16156083 -0.47594744 0.15019567 0.30656844 0.3025695 -0.61529446 -0.4281942
-1.003831 0.11650297 0.30462286 -0.43703914 0.34893337 -0.2104351 -0.022379095 0.14896658
0.00189687 0.7500775 -0.25022763 -0.4329218 0.30411476 -0.7401445 -0.12960479 -0.31218675
0.12091445 0.46606588 0.41605097 -0.5120008 0.54466915 -0.27770117 -0.54091614 -0.27976218
0.24225287 -0.1087311 -0.34549806 0.45753288 0.074822515 -0.11537597 -0.46625102 0.9792029
-0.33793932 0.7572821 0.26560667 0.8113874 0.53325737 0.28795105 -0.18956313 -0.18349308
-0.5730955 -0.16643205 -0.56858426 -0.7698167 -0.15570273 -0.07057789 0.16131142 -0.03753341
1.3791606 -0.09577939 0.34564683 0.24709879 0.3396687 0.8579033 0.41206083 0.5573588

network_body._body_endoder.seq_layers.0.bias f4 [128]
00000000: 00a4 48bd 813c 59bd cc8a 09bd 21d7 143e
00000010: abb8 0dbd d4dd 103d 6450 953d 58d2 253e
00000020: be40 893d f3ab 75bd 65f9 d1bc 5158 813e
00000030: d174 17bd 94ff b6bd 32e9 b23d dee9 093e
00000040: eab7 c03c 9b74 bd3c 09df 71bd 0b97 93be
00000050: 2ed2 103d 89b6 aabd ccd9 a5be eb99 a0be
00000060: 4dfd 39be 8ce2 00be 6a85 81be 1a2b dcbd
00000070: a07c 12bd 438d 94be 2c32 8bbd eb66 10be
00000080: 1fe2 e7bd 2d26 443e edb1 b4bd 51e6 0cbd
00000090: acb0 42bd 8314 e63c dad7 69bd 1497 a3bd
000000a0: b842 083e 54f7 bc3d 1c1b 99be bd19 803d
000000b0: aa6d 89bd d171 1a3e 5714 953c 1b94 33bd
000000c0: 1c65 66be 293f 083d f137 52bd 2c54 03bd
000000d0: 592d bdbc 8c4b bb3c 0736 e63c e204 033d
000000e0: c307 9d3d 2265 57bd 5785 33be 84c2 b53d
000000f0: f708 3bbd 3d2e 123e ce38 203d de4b 6cbb
00000100: 9fda 21bd 9124 78bd 353c 143d 68fe f7bd
00000110: bc6e 85bd 6c83 54be b913 52bd 83b6 173e
00000120: bcf7 9abd 027a a8bd ea5d cf3c 3e00 38bb
00000130: 5249 a1bc 7122 00bd 2c6a 8cbd bf02 68bd
00000140: c3d6 c63b af17 62bc 18af fc3b 2715 32bd
00000150: 352e d7bc e450 43be c38a 863b fc75 66bb
00000160: 98d9 eabd a2c5 bd3d fb2b 33be 854c fd3d
00000170: 9d94 53be fb10 61bd ab81 91bd 18a1 72bd
00000180: 7580 5c3d b676 8c3c c5db 2d3c bd95 97be
00000190: b175 91be 160c 533e 233a 3a3d feba 523b
000001a0: 97de d1bc 1abe 953c cf8b 663c cbee 80bd
000001b0: 97e3 18bd 507c 92bd c970 94be 0ce8 e93d
000001c0: 9cdb fabc 7051 633d aca8 a6bb 8c23 0dbc
000001d0: 2810 783b d079 72bd 48c0 b3bd 150b 1dbd
000001e0: 721e 61bd 920a ffbc 6631 9ebd e43d 47bd
000001f0: cce8 9bbd f045 f13d e8f5 0cbd 43da a23d
-0.048984528 -0.053036217 -0.033579633 0.1453519 -0.03459994 0.0353678 0.07290724 0.16193521
0.06701802 -0.059978437 -0.025631616 0.25262693 -0.03697664 -0.089354664 0.08735885 0.1346812
0.023525197 0.02312689 -0.059050594 -0.28826174 0.035356693 -0.08335597 -0.32392728 -0.3136743
-0.18163033 -0.12586421 -0.252971 -0.107504085 -0.035763383 -0.29014024 -0.06796679 -0.1410176
-0.11322426 0.19155188 -0.08822999 -0.034399334 -0.04753177 0.028085953 -0.057090618 -0.079878
0.13306701 0.092268616 -0.29903495 0.06254909 -0.0671037 0.1508248 0.018198175 -0.043842416
-0.22499508 0.03326336 -0.05132288 -0.032062694 -0.023092913 0.022863172 0.028101934 0.03198708
0.07667496 -0.052586682 -0.17531334 0.088749915 -0.045662846 0.14275451 0.039116673 -0.0036055963
-0.039515134 -0.060581747 0.03619023 -0.12109071 -0.065152615 -0.20753258 -0.05128834 0.14815716
-0.07566783 -0.08226396 0.025313336 -0.0028076316 -0.019688282 -0.031282846 -0.06856188 -0.056643244
0.006068082 -0.013799592 0.0077113025 -0.043477204 -0.02626715 -0.19073826 0.004105897 -0.003516554
-0.11467284 0.09266211 -0.17497246 0.123681106 -0.2066216 -0.054947834 -0.0710481 -0.059235662
0.053833444 0.01714645 0.010611479 -0.2960643 -0.28410104 0.20610079 0.0454656 0.0032154913
-0.025618834 0.018279124 0.014071419 -0.06295546 -0.03732642 -0.07152617 -0.28992298 0.114212126
-0.030622296 0.055497587 -0.005086025 -0.008614432 0.0037851427 -0.0591982 -0.08776909 -0.038340647
-0.054960676 -0.03113297 -0.07724266 -0.048643008 -0.07612762 0.11780918 -0.034414202 0.07951786

network_body._body_endoder.seq_layers.2.weight f4 [128, 128]
00000000: b808 0e3e b088 fabd 905b d1bc 25cc 09be
00000010: 71dc 493e 478b 19be a355 17bd aad1 a43c
00000020: 240f ffbd 80b8 523d c442 84be 64ea 9cbd
00000030: 0b8f 543d 930c d93d 8432 c2bd 3d50 88bc
00000040: d712 e7bd dba4 b7bd d76f 68bd f86b a9bd
00000050: b414 c1bd 2634 28bd b3a8 eebc 040e a23d
00000060: ecff ecbd 3675 72bb a9d0 07be 7630 24bb
00000070: e49d 4bbc fcb0 e5bd 5c62 f9bb f6b9 c4bd
00000080: f780 1c3d ca2e 44bd e5cd 0b3d 8b31 d73d
00000090: 89ef 763d 5efd 103e fdbb 80bd b9e3 41bd
000000a0: 2b92 373d d489 8fbd 8c3a 09be 252a dcbd
000000b0: 21b9 093e a45c b8bd b8a9 373d 1425 383d
000000c0: 8efe a33c 8f99 1ebe 238f 063e f1fa efbb
000000d0: 9b46 473c 7830 80bd cae8 be3d 9e46 2cbe
000000e0: f8e0 5ebb b354 05bd 821a 213d 6790 57be
000000f0: fe57 003d e28f 0ebe bc94 d6bc de75 3ebd
00000100: b420 10bd 6991 d63d e66a d9bc f775 103d
00000110: 8077 873d 8bf7 9f3b 9f5e aabc 5860 0cbe
00000120: 1a57 1e3e 4bac fc3d 8266 08be dea4 8ebd
00000130: e7fd 9ebd aeea a3bd 691b 2b3e 64c6 9d3d
00000140: cd82 54be 37a7 333d 2259 d83c c8a6 823d
00000150: a87a 1bbd f23d 62bd 5878 9ebc 9394 013e
00000160: 0c9d 8ebd 5ffa 60bc 899b 253d b021 873d
00000170: 6c66 bcbd bff7 66bd bf62 7cbd af2f b23d
00000180: cfb0 bdbd 5573 e8bd e797 fcbd 9d06 0b3d
00000190: 6cb4 b13c 538d 8ebc 07fb f73d 6a75 44bd
000001a0: 45f0 133e b846 55bc 61cf 813c 36df f93b
000001b0: 0297 ee3d 6102 613d 0122 2fbd 94ee 843d
000001c0: 3184 e4bd 7a19 473b b416 6d3d 27b9 cbbd
000001d0: 7c6e 9e3d d26b 853e d10c e43c f0a4 4bbe
000001e0: 33f8 5b3c 8e92 853d a07c 8bbd 83cd e13d
000001f0: 6903 923c de7b 0bbe 38b6 d13c 57a7 4dbc
00000200: 7afc 673d 075e d7bd b81e a43d 8bea 84be
00000210: cb04 793d da74 653d 8c46 abbd 3c3a e9bd
00000220: 2687 02be e62c 89bd 5137 94bb c270 27be
00000230: ede6 bc3d 7760 3d3d 8917 1dbe 30bd 473d
00000240: 63ea 1d3c 1291 173e 43f1 e9bd e959 733e
00000250: 1bca 22be 19af 0abe 5ebe 4c3c 7382 ba3c
00000260: af08 f53b 5552 4fbc 13d3 c3bd 7108 bc3c
00000270: 5766 d43d cb90 6abd cb16 d13d f2b9 94bc
00000280: 23d7 01bd ec4b 393d 3b2d f7bb a8a6 c4bc
00000290: 5b79 553d 1ec2 2f3c 7995 9fbd 2e11 f83d
000002a0: 0a10 83bc 1929 e4bd 9225 4fbb 7c57 32be
000002b0: ae33 9a3d ff83 9ebd f092 73be 802b e63d
000002c0: 11e2 2f3c d49a cf3d 01a6 83bd 7e11 60bd
000002d0: 5840 c83d 592c f73c d3bb 2ebc 9143 8abd
000002e0: 4685 54be 3924 d33d 43f0 813d a693 fabd
000002f0: 9e52 8d3d 05b1 b93c 8931 08be 26e0 abbd
00000300: 4e62 943c 1010 b5bd b4fc 883b 1a99 33bd
00000310: 4e7b 95bd 4e21 183e d6fa 90be 7241 653c
00000320: 632c 0a3e eb1c d23d 32c1 05be e08f 6dbd
00000330: 8a0c 5e3d f82d a93d 96bb 56bd e6f7 edbd
00000340: bd3d 53be abd2 2fbc 8871 663c ab8c 2cbd
00000350: 14db 47be 6353 133d bd5e 213d 6a10 07be
00000360: 5ca5 223e a014 823d 6eaa 4c3d 73de e4bd
00000370: 01e2 07bd 9cd4 093c 9e82 113e e3cb 9cbc
00000380: 0146 3fbe bd6b 853d fc14 31be d541 d53d
00000390: e8c8 9b3d e2fa 89bd 388a 99bd 7404 813d
000003a0: 6a9a bebd 1fcb 8bbd e56b efbd a63f 8f3c
000003b0: 3f3d 483d 031f aa3d b2b7 8b3d ea5a a23d
000003c0: 19f2 a83d afaf 0d3d eb83 2ebe 1bbe 2b3c
000003d0: 1510 793c 296f d5bc 7492 da3d 1cef 233e
000003e0: 0f57 b13e f483 01bd 623b 753d 157b da3d
000003f0: 4e8d b83d d69c babd a7e5 6bbd e7c7 d93c
0.13870513 -0.12233102 -0.025556356 -0.13456781 0.19712998 -0.14994536 -0.036946904 0.020119507
-0.1245406 0.051445484 -0.25832188 -0.07661894 0.05189423 0.105981015 -0.09482291 -0.016639823
-0.1128289 -0.089669906 -0.056747284 -0.082725465 -0.09427777 -0.041065358 -0.029133176 0.079128295
-0.11572251 -0.0036996133 -0.13263191 -0.00250533 -0.012427781 -0.11215398 -0.0076106023 -0.09605782
0.038208928 -0.047896184 0.034131903 0.105074964 0.060287032 0.14159152 -0.06285856 -0.047336314
0.04481713 -0.070087105 -0.1340124 -0.10750226 0.13449527 -0.09002045 0.04483959 0.044957235
0.020018842 -0.15488265 0.1314054 -0.0073236157 0.01216283 -0.06259245 0.09321745 -0.16823813
-0.0034008604 -0.03255148 0.03933192 -0.21051179 0.031333916 -0.13922074 -0.026193969 -0.046499126
-0.035187438 0.104769535 -0.026540231 0.03526875 0.0661459 0.0048818043 -0.020797072 -0.13708627
0.15462914 0.1233755 -0.13320354 -0.0696504 -0.07763272 -0.08003746 0.16709675 0.07703856
-0.20753022 0.04386064 0.02640969 0.06379467 -0.03795877 -0.055234857 -0.019344494 0.12654333
-0.06963548 -0.013731568 0.040431533 0.06598222 -0.09199223 -0.056388613 -0.06161761 0.08700501
-0.09262239 -0.11350123 -0.123336606 0.033941854 0.021692477 -0.017401373 0.121084265 -0.047963537
0.14447124 -0.013017349 0.015845956 0.007625486 0.11649896 0.05493391 -0.042757038 0.06490818
-0.11158026 0.0030380175 0.05788298 -0.099474244 0.07735917 0.26058823 0.027838143 -0.19887137
0.0134258745 0.06522094 -0.0681088 0.110255264 0.017823892 -0.1362147 0.025599584 -0.012552104
0.056637265 -0.10515981 0.08013672 -0.25960192 0.060795587 0.05601964 -0.08363065 -0.113880605
-0.12746868 -0.06698017 -0.004523196 -0.16351607 0.09223733 0.046234574 -0.15341009 0.048764408
0.009638402 0.14801434 -0.1142297 0.23764767 -0.1589741 -0.13543357 0.012496559 0.022767281
0.007477842 -0.012653907 -0.095617436 0.022953244 0.10371082 -0.05726699 0.102094255 -0.018155072
-0.03169931 0.04523842 -0.0075432337 -0.02400525 0.052117687 0.0107274335 -0.077921815 0.12112652
-0.015998859 -0.11140651 -0.0031608087 -0.17416185 0.07529388 -0.0774002 -0.23786521 0.11238766
0.010735051 0.10136953 -0.06428147 -0.05470418 0.097778976 0.030172514 -0.010664898 -0.067511685
-0.20753965 0.10309643 0.063446544 -0.12235193 0.069005236 0.022667417 -0.13300146 -0.08392362
0.018113282 -0.08840954 0.004180515 -0.04384718 -0.07298909 0.14856455 -0.28316373 0.013992654
0.13493495 0.10259422 -0.1306198 -0.057998538 0.054211177 0.08260721 -0.05242499 -0.116195485
-0.2062902 -0.0107313795 0.014065154 -0.04212634 -0.19517165 0.035968196 0.03939699 -0.13189855
0.15883392 0.0635159 0.049967222 -0.11175241 -0.03317452 0.008412506 0.14209983 -0.01914019
-0.18679048 0.0651469 -0.17293161 0.10412947 0.07606679 -0.06737305 -0.07497066 0.062996775
-0.09306796 -0.06825852 -0.11690501 0.017486405 0.048886534 0.08306696 0.068221465 0.07927497
0.082493015 0.034591373 -0.1704251 0.010482336 0.015201588 -0.026053982 0.10672465 0.16009182
0.34636733 -0.03161998 0.059871085 0.10668007 0.09011327 -0.09111945 -0.05759206 0.026584579

network_body._body_endoder.seq_layers.2.bias f4 [128]
00000000: 411d c5bc 69d9 a7bc 71c6 abbd 43ea 78bd
00000010: 596e cf3c cddb 4e3d 7d51 db3c 897a b13d
00000020: c4ea be3d c3c2 b73d 26f2 f8bd 6342 9b3d
00000030: dd33 4b3d d1cc c23d 2a22 d7bc aa82 82bd
00000040: 5be3 afbc 93fe 083d 13b6 d3bd eed8 d0bd
00000050: 06a8 06bd 7dbb 0b3d c4f8 773d cef9 043c
00000060: 348f e3bd d61b 9c3d d5aa a33d 023b 0ebd
00000070: 0dbd 37bc c249 c93c b386 973d 5691 de3b
00000080: f929 2a3d c1e3 403c 318c 20bd 8e86 d4bc
00000090: c374 af3c 5620 503d 64f9 a9bc 2414 d8bc
000000a0: 9530 a8bd 7140 5ebc 901e 6bbd 4f3a be3c
000000b0: f208 38bd 910e 3fbc 43f8 293d 1b1e d13d
000000c0: 222a cb3d 736a 9ebd c5fa 31bc 2b4f 15bd
000000d0: 4245 2dbd bf7a fbbb 9e7c 6bbd b100 553d
000000e0: c5e1 c5bc 1320 813d d7c3 cbbc c799 853d
000000f0: 53c9 af3d 213f d13d f47e aabb ae58 353c
00000100: 900e d9bd 4b7e 8b3d f5db f83d 5595 603d
00000110: 45ef 92bd 215a efbd f9e6 eebc b73d 2fbd
00000120: 9c91 80bc 3537 013d bfd8 b7bc 6f69 493d
00000130: 971c 693d 7dc5 3cbd 5442 f03d 5258 323d
00000140: 7e8f 1dbd 077a 21bd 26b0 af3d d17a 223b
00000150: 834a b1bc 734e 82bc 3a8a b23d 0577 06be
00000160: 9a24 603d c877 b3bd d9d4 933d 68fa 083d
00000170: b025 5ebd 5847 7b3c 76c5 1abc 70cb 05be
00000180: 8240 dfbc 5693 d1bc 6afe 02bd b5ab 5c3d
00000190: 18f0 f93c 0cc6 2dbc 0724 4c3d 2576 4d3c
000001a0: 4458 da3d cb63 733d f63c 0a3e eeed 73bd
000001b0: aaad 643d ba5e a0bc bf76 04bc b73a adbd
000001c0: c539 0dbc 7c89 173b a077 09bd 47dd 59bd
000001d0: c9fc 8cbd a1e9 713d e695 8bbd d983 5e3d
000001e0: 839c 2a3d 6292 8d3d db16 9c3d 6885 f4bc
000001f0: 67c9 bb3d 3b26 62bc a88f 0cbe c99e 41bd
-0.0240618 -0.020489411 -0.08387459 -0.060770284 0.025321173 0.050502587 0.026772255 0.0866595
0.09322122 0.08972695 -0.12155561 0.07581022 0.049610008 0.09511722 -0.026261408 -0.063725784
-0.021470716 0.033445906 -0.10337462 -0.10197626 -0.032875083 0.03411435 0.060539976 0.008116199
-0.11111298 0.07622497 0.07991568 -0.034724243 -0.011214507 0.024571303 0.07398739 0.0067922277
0.041543934 0.011773051 -0.039196197 -0.025943067 0.021417981 0.050812088 -0.020748802 -0.026376791
-0.08212391 -0.013565169 -0.057402194 0.023221163 -0.044930406 -0.011661188 0.041496526 0.1021082
0.099201456 -0.07735147 -0.010863011 -0.036452454 -0.042302378 -0.0076745446 -0.05749189 0.052002613
-0.024155507 0.06304946 -0.024873657 0.06523471 0.085833214 0.10217119 -0.0052031223 0.011068506
-0.10598481 0.06811198 0.121513285 0.054829914 -0.07174543 -0.116871126 -0.02916287 -0.042783465
-0.015694432 0.03154679 -0.02244222 0.049172815 0.05691203 -0.046086777 0.11731401 0.04354126
-0.038466923 -0.039423015 0.085785195 0.0024792443 -0.021641975 -0.015906548 0.08717771 -0.1313134
0.054722406 -0.08763081 0.07218332 0.03344193 -0.05423516 0.015336834 -0.009446492 -0.13065886
-0.02725244 -0.02558295 -0.03198091 0.05387469 0.030509993 -0.0106063 0.049839046 0.012540375
0.106613666 0.059421342 0.13499817 -0.05955308 0.05582968 -0.01957642 -0.008084952 -0.084584646
-0.00861973 0.0023122719 -0.03356135 -0.053189542 -0.068841524 0.059060697 -0.068157 0.05432496
0.041653167 0.06912686 0.07621547 -0.02984877 0.09169274 -0.01380306 -0.13726676 -0.04727057

action_model._continuous_distribution.log_sigma f4 [1, 2]
00000000: 84a0 483d 0689 ad3d
0.048981205 0.08473401

action_model._continuous_distribution.mu.weight f4 [2, 128]
00000000: 7688 84bc 4087 b3bc 5c5e 90bc e5fa 38bd
00000010: aa65 77b9 dfe9 17bc 89a2 45bc fcec a53d
00000020: 16bd 5c3d e002 9d3d db46 80bd 502f 773d
00000030: cc34 1f3d ec1a 133e 24b4 0dbd 32d7 34bd
00000040: fd82 8fbd d8ce 85bc 2e0d 3cbd 3300 b6bd
00000050: 7afb e63b c2ee 23bd d843 623d e2fa a2bd
00000060: 8075 f7bd 4b52 bd3d 5e07 083d dcc6 33bd
00000070: ffa0 0abd 3d36 80bd 2fef 0f3d cc7b 6cbd
00000080: bf85 683d 29aa 2c3c 79eb 80bd 06f5 143b
00000090: acec 3e3d 1052 fd3c e4ab 65bd 965f 97bc
000000a0: 8818 70bd 0fdd f4bb cd87 0dbd 4d0d 0ebe
000000b0: 6b3c 87bc f93e eebc a75c 0d3d 1867 013e
000000c0: df12 ee3d 44be a1bc 6baf c13b 0db4 00bd
000000d0: 86c9 8e3b ba0d 9fbc 5bef 4dbb 4f89 5f3d
000000e0: ec3a d7bc e22a 34bd 7672 b4bb ae4c 8f3d
000000f0: c762 e33d ce00 223e 18f9 8dbc 68ce 8fbb
00000100: 05d4 b8bd df86 9a3d 506e 2f3e 324b d63c
00000110: 433c f83b 8b8a b6bd db38 dbbc 02a4 843b
00000120: e76b 2dbd f102 563c 9792 1dbd f83f 0ebd
00000130: 724e 463d 8578 39bd 771b 293e 10c2 dd3c
00000140: d125 58bc 0cfc 0ebd b6b3 f03d 5c3b c3bc
00000150: 8413 85bc 848e 80bc 3a1e 9b3d 428e e5bd
00000160: 70aa 253c 29f4 36bd 8561 873d 65df 793c
00000170: ab78 1e3b 0283 b5b9 f4cd 7fbc d195 06be
00000180: ff28 65bd 275e 7ebd 9195 5fbd 3d79 133d
00000190: 3f8d a23c a37f 8ebd 33c0 c33c 594f a3bc
000001a0: 7a53 113e 607f 3c3d 4d71 1f3e 4f26 25bd
000001b0: 9244 8e3d d897 efbb b261 31bd 6626 f5bb
000001c0: 927d 3ebd b215 7cbc 3ba7 1ebd 9d8c f5bc
000001d0: 4ce6 d63b 0c1a c53d 3d66 44bc fb0d 283d
000001e0: d626 b539 b028 603d 4f6d 723d 4785 8bbd
000001f0: bd5e be3d 63a2 82bd df56 5bbd 709b 01bd
00000200: e9aa fe3c 990e 23bc 453a 00bd 0218 e6bc
00000210: 9d81 643c cd5b 973b 6bbd d33c 91e2 da3c
00000220: dbfe 1c3d b15e 25bb 9bdc 12bd 1b2b 353c
00000230: 9aa5 423c f9d1 683c c87a f7bb 9970 dfbc
00000240: 177e 12bc 35f1 fb3b 2dd3 12bd 95ee fcbc
00000250: 5fa5 9bbc cf9e ae3c 409d 503a 262f 2bbd
00000260: 2870 afbc c8e7 b63c 4714 aa3b 8b18 5f3b
00000270: 967e da3c fbd9 fdbc 8ba3 b23c fb1e c7bc
00000280: d201 9fbc afae 7d3c db86 92bc 7044 3bbc
00000290: 784a c4bc 3187 8b3c 7fb9 e3bc acd9 073d
000002a0: a264 23bd 4d2b 963a bb1d d7bc 760a 13bd
000002b0: 8af8 ecbb e93e c33c 458a 303b cf52 553c
000002c0: 4b58 893c 3235 0dbd 4085 ab3b 8809 fdbb
000002d0: 627d cabc 1914 ac3c e84a aabc d31f 183d
000002e0: 9b39 813c 4b9c 253c 0e2f 853b 29df e93c
000002f0: bca1 c13c 0bcf c63c ea96 1b3c ff48 2f3d
00000300: 8f51 dfbc 83fe 733c c8de b03c 0e8d 813c
00000310: 5599 0ebd 74bb f2bc 5d9a e5bc e0c8 04bd
00000320: 6e58 09bd 1428 043c ba50 a83c 8026 903c
00000330: 7b6a 12ba 5f02 e1bc a1aa 9c3c fbe6 eb3c
00000340: 4c43 ae3c c2f8 69bc 3a0a 263c 9a1b 4b3d
00000350: 9b5d f53c 647c 473c 34ab b0bc 51c7 3cbc
00000360: 587d 4f3c 7c4b 2bbd 2902 9ebc c769 823c
00000370: 730c f6bc 6066 163d 60fe c23c 9512 4d3c
00000380: 304a 00bc 8cff 7abb 1d6a 2abc 55f3 cd3a
00000390: b87c 443d 3cc2 c9ba 4409 b93c f50b d53c
000003a0: a771 c23c 6e36 533d 6c0f 933c 2ba0 f9bc
000003b0: ac5d 0c3d 992e 733c 5e45 9e3c 865b dcbc
000003c0: c2ff e4bc 3932 923c f272 98bc aebf 02bc
000003d0: 71e2 50bd 7b30 ad3b 7785 f6bc 3cad 803c
000003e0: 25a3 c93c 86c5 643c a3d0 583c e9a1 37bc
000003f0: 403c 833c 6c30 b9bb 4b19 123c 1d2f acbc
-0.01617835 -0.021915078 -0.017623119 -0.045161147 -0.00023593628 -0.009272068 -0.012062677 0.08101842
0.053891264 0.07666564 -0.062635146 0.060347855 0.03886871 0.14365739 -0.034595624 -0.04415054
-0.07007406 -0.016333982 -0.045911007 -0.08886757 0.0070490213 -0.04002262 0.055240482 -0.07958008
-0.12082958 0.09244212 0.03321015 -0.04389082 -0.033844944 -0.06260345 0.035140213 -0.05773525
0.056768175 0.010538616 -0.06294913 0.0022729053 0.046612427 0.03092292 -0.05607213 -0.018478196
-0.058617145 -0.0074726413 -0.034553338 -0.13872261 -0.016508302 -0.029082762 0.03451219 0.12636983
0.11624693 -0.019744046 0.005910804 -0.03142171 0.0043575196 -0.019415725 -0.0031423185 0.054574307
-0.026273213 -0.04398621 -0.005506809 0.06997047 0.11102825 0.1582062 -0.017330691 -0.004388619
-0.090248145 0.07545256 0.17131925 0.026158903 0.007575543 -0.08913144 -0.02676051 0.0040478716
-0.04233923 0.013062225 -0.038469877 -0.034728974 0.048414655 -0.045280952 0.16514383 0.027070075
-0.01319261 -0.03490834 0.11753027 -0.023832016 -0.016244657 -0.015692957 0.07574125 -0.11208774
0.010111436 -0.044666443 0.06610397 0.015251015 0.002418081 -0.0003462062 -0.015613068 -0.13143088
-0.0559473 -0.06210151 -0.054585997 0.036004294 0.019842742 -0.069579385 0.023895359 -0.019935297
0.14192 0.04601991 0.15570565 -0.040319737 0.069466725 -0.0073118024 -0.04330606 -0.007481384
-0.046506472 -0.015386032 -0.038733702 -0.029974276 0.0065582152 0.09624109 -0.011987266 0.041028958
0.00034551945 0.054726303 0.059186276 -0.0681253 0.09295414 -0.06378629 -0.053549644 -0.031642377
0.031087356 -0.009952211 -0.03130557 -0.02808762 0.013946918 0.004619098 0.025847157 0.026719363
0.038328987 -0.0025233442 -0.035854917 0.01105764 0.011880303 0.014210218 -0.0075524785 -0.02727537
-0.008941195 0.007688666 -0.035845924 -0.030875484 -0.018999754 0.02131596 0.00079580024 -0.04179301
-0.021415785 0.022327319 0.0051904055 0.0034041728 0.026671689 -0.03098773 0.021806499 -0.024306765
-0.019410048 0.015483542 -0.01788657 -0.011429891 -0.02396129 0.017032238 -0.027798412 0.033166572
-0.039890893 0.0011456996 -0.026259294 -0.03589865 -0.0072317766 0.023833709 0.0026937884 0.013020231
0.016765734 -0.03447456 0.0052343905 -0.0077220835 -0.02471799 0.021005677 -0.020787671 0.037139725
0.015774539 0.010108064 0.0040644472 0.028548794 0.023636691 0.024268648 0.00949643 0.042794224
-0.02726057 0.014892223 0.021590605 0.01581433 -0.034814198 -0.0296304 -0.028027708 -0.03241813
-0.0335316 0.008066196 0.020546306 0.017596483 -0.0005585325 -0.027466951 0.019124331 0.028796664
0.021272324 -0.0142805 0.010134274 0.04958687 0.029951861 0.012175653 -0.021566011 -0.01152213
0.012664162 -0.041820034 -0.01928814 0.01591958 -0.030035233 0.036718726 0.023802936 0.012516637
-0.007830188 -0.003829929 -0.010401276 0.0015712777 0.047970504 -0.0015392969 0.022587426 0.026006678
0.023735834 0.05156558 0.01795169 -0.030471882 0.03426902 0.014842653 0.019320186 -0.02689911
-0.027953986 0.017846214 -0.018609498 -0.00798027 -0.0509972 0.0052853203 -0.030092938 0.015707605
0.024613926 0.013963109 0.013233337 -0.011208036 0.01601994 -0.0056515243 0.008917163 -0.02101856

action_model._continuous_distribution.mu.bias f4 [2]
00000000: 5ab0 123d 1ceb 993c
0.035812713 0.018788867

action_model._discrete_distribution.branches.0.weight f4 [1, 128]
00000000: a61a a0bc 06c3 18bc 8bfa 303c 27f0 b33b
00000010: d38c 5c3c 1ca6 0d3c 8f2d 24bc 6a82 ee39
00000020: bff9 ecbb 87c2 6c3b 2897 a63c 7b57 34bb
00000030: f202 d6b9 cc19 86bb 4b7a f7bb 9f82 313c
00000040: 781a a73b 074e 9abb 4481 06bc 47d1 103c
00000050: 4fc2 0dbc 7166 aabc 775d 453c f2fe 2fbc
00000060: c025 eebb 17ae 6b3a f0ed 713a a018 0fbb
00000070: 0b9d 5b3b 0f8f 4eb9 3032 14bc edc8 52bb
00000080: 75e8 89bc 2ff4 6fbc 8bc3 ea3a fc79 333c
00000090: 9ba5 89b7 a7cf 943b 8bf5 9fbb 2b3b fcbb
000000a0: d89a 10bc 39de a3b9 1210 cd3b e382 63bc
000000b0: 0e2f 393a ac02 95bb d37f 343c 97a4 0fbb
000000c0: b260 bd3b e6b7 0abb c1ec 29bc f51c 643c
000000d0: 0c54 833c db94 fa3b 8779 1a3b b7f6 a63b
000000e0: 1a6e e23a 6b43 42bb d386 8139 454a 5139
000000f0: 1f23 6fbc 1971 c5bb 9b1d 80bc 79d2 a83b
00000100: 4723 0cbc c804 84bb efab d73a 3de7 d93c
00000110: 6515 b13b 0e6e b5bb 4dc0 b7bb a38a 673c
00000120: 5f9a 1e3a d762 253b dfcf 383c 5728 033b
00000130: 71c5 0cbc 3a84 f6bb b8ab c83c 17b8 a4bb
00000140: 5d5e ccbb 60a4 4e3b 1320 bab9 d37d e0bb
00000150: 1dad 2ebc 0318 203b 68fd a83a 87f5 b43a
00000160: e0b2 0e3c 6617 8b3c a3fa 85bc 43fc 9cbb
00000170: 8d0b 7e3b e265 9e3b b715 bcbb d3df cdbc
00000180: 4d52 9dbb 8d9d e53a ec52 c3bb 8ebd 2abc
00000190: f5d9 0fbb a31b ad3b 29d2 96bc d862 5f3c
000001a0: 6b43 d2bb 7f45 85bb 5e13 4639 a766 43bb
000001b0: b754 40ba b768 b93b b34c 963b 8ab0 7d3b
000001c0: d191 8cbb b93f c7ba 7ff2 1ebb c2d9 53bc
000001d0: 68fe d13b 85c1 3ebc b1d6 0cbb 63c9 d93b
000001e0: a384 4cbc 58e4 513c d37f 92bb f83a 7fbb
000001f0: 4b14 a43b bf5f d03b 4bb3 70bb e054 c43b
-0.019543957 -0.009323841 0.010801922 0.005491275 0.0134613095 0.008645561 -0.010020628 0.00045492064
-0.0072319205 0.003612669 0.020335749 -0.0027517963 -0.00040819455 -0.0040924307 -0.0075524203 0.010834365
0.005099591 -0.0047090086 -0.00820953 0.008838958 -0.008652284 -0.020800801 0.01204621 -0.010741936
-0.0072676837 0.000899048 0.0009228876 -0.0021834746 0.0033510353 -0.00019698984 -0.009045169 -0.0032163218
-0.016834477 -0.01464562 0.001791106 0.010954376 -1.6408789e-05 0.0045413557 -0.004881566 -0.007697483
-0.00882598 -0.00031255351 0.0062580192 -0.013886186 0.00070642016 -0.0045474377 0.011016804 -0.0021918172
0.0057793492 -0.002116674 -0.010371388 0.0139229195 0.016031288 0.0076471395 0.002357097 0.0050953287
0.0017275244 -0.0029642235 0.0002470525 0.00019959461 -0.014595776 -0.006025445 -0.015639117 0.0051520434
-0.008553333 -0.0040288903 0.0016454438 0.02659952 0.0054041618 -0.005536801 -0.005607641 0.014132175
0.0006050225 0.0025235915 0.011280029 0.0020013058 -0.008591996 -0.007523087 0.024495944 -0.005026828
-0.006236835 0.003153108 -0.00035500582 -0.006850937 -0.010661391 0.0024428375 0.0012892904 0.0013806083
0.008709639 0.01697893 -0.016354864 -0.004790814 0.003876421 0.0048339227 -0.0057398933 -0.025131142
-0.004801071 0.0017518267 -0.005960813 -0.01042117 -0.002194998 0.0052828356 -0.018410759 0.013634406
-0.0064167283 -0.0040671225 0.00018889966 -0.0029815824 -0.0007336842 0.005658235 0.00458678 0.0038709962
-0.0042898436 -0.0015201486 -0.0024253426 -0.0129303355 0.0064085014 -0.011642818 -0.002149027 0.0066463216
-0.012482795 0.012810789 -0.0044708042 -0.003894506 0.005007302 0.00635907 -0.003672796 0.005991563

exp_avg f4 [128, 5]
00000000: 6ce2 aab8 ac6f c4b8 0000 0000 acd8 01ba
00000010: 392e 0e34 65b7 47ba 72f9 4eba 0000 0000
00000020: febc b1ba e719 3336 ecbe 98ba df7f 9bba
00000030: 0000 0000 87df 10bb a1f6 8636 6c5c 873a
00000040: 6f40 8e3a 0000 0000 5416 ae3a b327 6fb6
00000050: 635c 12ba a15f 17ba 0000 0000 502c b4ba
00000060: 59db 0436 6283 5339 2df4 5739 0000 0000
00000070: 53f8 8c39 eb98 3cb5 0354 323a 0305 383a
00000080: 0000 0000 0daf 973a ab14 1eb6 301f 143a
00000090: 6e4f 263a 0000 0000 a747 a63a 68ce 01b6
000000a0: 77ba d739 1ab0 db39 0000 0000 3006 923a
000000b0: 1c4e bfb5 332d bdb9 f0e9 c6b9 0000 0000
000000c0: d348 90ba 076f a535 822f 7939 fe10 6939
000000d0: 0000 0000 823c e9b7 f9af 62b5 8a05 cc39
000000e0: edc6 e739 0000 0000 e85a 4b39 62d0 a6b5
000000f0: dd90 ae39 3bf5 ac39 0000 0000 7ff4 a639
00000100: 8136 a6b5 a5dc 4bb7 15db aab7 0000 0000
00000110: e73a 73b8 6180 3a32 7a51 4938 cb1f 7338
00000120: 0000 0000 77bc b439 cf89 e5b3 bbcf eab8
00000130: 13de d9b8 0000 0000 86b0 b4b8 c2c9 e734
00000140: cba4 8bb9 3f9a 87b9 0000 0000 1149 d3b9
00000150: c162 8035 43a6 093a 4fa7 0c3a 0000 0000
00000160: 03fe 943a 87b7 f7b5 a707 6dba 9495 72ba
00000170: 0000 0000 24a4 02bb 0d29 4f36 e39d 7d38
00000180: 1b4d 8238 0000 0000 0169 0e39 e991 9bb4
00000190: e2e0 e33a e4c9 e63a 0000 0000 4dd4 403b
000001a0: 84be cdb6 cb7b 29b7 7c52 44b7 0000 0000
000001b0: d200 9a36 09b4 1332 79f1 b838 6953 c238
000001c0: 0000 0000 679f 4239 2972 e2b4 fa78 6838
000001d0: e04a 7538 0000 0000 4fff 0f39 cb2f 91b4
000001e0: 3c6e b837 782c 9b37 0000 0000 fc37 9e38
000001f0: ea2e e6b3 47f3 8db7 6743 a7b7 0000 0000
00000200: 9e43 d937 6add 3032 af25 b737 eb13 d037
00000210: 0000 0000 56be 9a38 17d8 26b4 6c30 3f38
00000220: 6d03 0838 0000 0000 1505 ff35 870b 57b4
00000230: b614 c839 b433 bb39 0000 0000 2940 3639
00000240: f081 b9b5 4d08 c437 943d b737 0000 0000
00000250: 8dfd 4238 32ac 06b4 702c c739 fd6c bc39
00000260: 0000 0000 502b eb39 3369 c1b5 beed 1138
00000270: 01d1 ee37 0000 0000 0c45 9237 6287 35b4
00000280: 01b6 3338 4f9a 2b38 0000 0000 7b3f 0c39
00000290: 36f1 27b4 4b0f 423a 5155 543a 0000 0000
000002a0: f1f1 ab3a 04b9 2ab6 226b c237 aa8f 7237
000002b0: 0000 0000 722b f735 bfbf 0ab4 e196 72ba
000002c0: 9f70 7bba 0000 0000 bf3b 09bb 5391 5e36
000002d0: 1fb0 d1b9 c598 dab9 0000 0000 628b 46ba
000002e0: 3a98 bc35 df9e 9839 505c 9c39 0000 0000
000002f0: f315 12b8 fab9 82b5 331b beba 6d60 c1ba
00000300: 0000 0000 c890 38bb a993 ac36 4ff1 eb38
00000310: 30dd b938 0000 0000 3b80 47b8 668c eeb4
00000320: e9d0 a0b7 5c1a 4ab7 0000 0000 820b 2e38
00000330: f668 aa33 5cd5 0d3a e135 153a 0000 0000
00000340: 1349 973a a61f f6b5 1e0b c837 1580 c437
00000350: 0000 0000 3cda 9438 eb28 20b4 b8a8 3b3a
00000360: de14 3d3a 0000 0000 2b9b af3a 8b4c 28b6
00000370: d985 d2b9 83a8 dab9 0000 0000 4054 a6ba
00000380: 3ef8 ae35 aa13 2839 09ad 3b39 0000 0000
00000390: bb50 c239 9cfb 00b5 ae9d 3f3a 1099 413a
000003a0: 0000 0000 6458 993a ba8c 2bb6 a3ea 55ba
000003b0: 7e21 5dba 0000 0000 4ec3 d8ba 7eb2 4136
000003c0: 0e96 8d37 af85 7437 0000 0000 36d7 0038
000003d0: f4e1 c2b3 dba8 613a df8e 623a 0000 0000
000003e0: 23e5 e23a 6255 4bb6 28a1 dfb9 7e93 edb9
000003f0: 0000 0000 5307 49ba c208 ca35 1c89 51ba
-8.148406e-05 -9.366809e-05 0.0 -0.0004953246 1.3241596e-07 -0.00076185755 -0.00078954466 0.0
-0.0013560352 2.6688156e-06 -0.0011653579 -0.001186367 0.0 -0.002210589 4.0222226e-06 0.0010327226
0.0010852943 0.0 0.0013281801 -3.5636883e-06 -0.00055832247 -0.00057744427 0.0 -0.0013746116
1.979721e-06 0.00020171472 0.0002059496 0.0 0.00026887897 -7.025798e-07 0.000680268 0.000701979
0.0 0.0011572555 -2.3555865e-06 0.0005650399 0.00063442334 0.0 0.0012686149 -1.9342642e-06
0.00041146923 0.0004190214 0.0 0.001114076 -1.4253342e-06 -0.00036082565 -0.000379398 0.0
-0.0011008031 1.2325771e-06 0.00023764189 0.00022226942 0.0 -2.780394e-05 -8.4447635e-07 0.0003891404
0.00044207965 0.0 0.00019393454 -1.2428611e-06 0.00033295798 0.00032989107 0.0 0.0003184415
-1.2383827e-06 -1.2151116e-05 -2.0367597e-05 0.0 -5.799057e-05 1.0855815e-08 4.7998015e-05 5.7965324e-05
0.0 0.00034472693 -1.0688711e-07 -0.00011196682 -0.00010388731 0.0 -8.615949e-05 4.31739e-07
-0.00026634926 -0.0002586413 0.0 -0.00040299495 9.565484e-07 0.000525091 0.0005365507 0.0
0.0011367205 -1.8456348e-06 -0.0009041973 -0.0009253856 0.0 -0.0019934261 3.0869298e-06 6.0466944e-05
6.213245e-05 0.0 0.00013581292 -2.8977163e-07 0.0017385746 0.0017607776 0.0 0.0029423416
-6.131655e-06 -1.0102008e-05 -1.1701715e-05 0.0 4.589653e-06 8.597461e-09 8.8187815e-05 9.266177e-05
0.0 0.00018560664 -4.2178843e-07 5.542578e-05 5.8482285e-05 0.0 0.00013732653 -2.704313e-07
2.1985841e-05 1.8498147e-05 0.0 7.544455e-05 -1.0718743e-07 -1.6921795e-05 -1.9939338e-05 0.0
2.5899903e-05 1.0294892e-08 2.1832848e-05 2.4804807e-05 0.0 7.378745e-05 -1.5538568e-07 4.5583045e-05
3.2428117e-05 0.0 1.900046e-06 -2.0027629e-07 0.00038162404 0.0003570594 0.0 0.00017380774
-1.3821391e-06 2.3368886e-05 2.1843975e-05 0.0 4.6489342e-05 -1.2542367e-07 0.00037989346 0.00035939357
0.0 0.00044854963 -1.4410238e-06 3.479211e-05 2.8469136e-05 0.0 1.7436709e-05 -1.690619e-07
4.284643e-05 4.0913288e-05 0.0 0.00013375089 -1.5640839e-07 0.00074027915 0.00080998713 0.0
0.0013118369 -2.5439667e-06 2.317649e-05 1.4457773e-05 0.0 1.8415578e-06 -1.2922008e-07 -0.000925405
-0.0009591672 0.0 -0.0020940152 3.3165168e-06 -0.00039994807 -0.00041694022 0.0 -0.000757387
1.4051395e-06 0.00029110067 0.00029823417 0.0 -3.4829554e-05 -9.739881e-07 -0.0014503956 -0.0014753469
0.0 -0.0028162468 5.1431894e-06 0.000112506204 8.862687e-05 0.0 -4.756472e-05 -4.4433108e-07
-1.9170768e-05 -1.20462755e-05 0.0 4.149555e-05 7.935334e-08 0.0005410516 0.00056919275 0.0
0.0011542164 -1.8337639e-06 2.3847035e-05 2.3424664e-05 0.0 7.097839e-05 -1.4916047e-07 0.0007158625
0.0007212887 0.0 0.0013397684 -2.5078505e-06 -0.00040154046 -0.0004170575 0.0 -0.0012689903
1.3036258e-06 0.00016029054 0.0001789817 0.0 0.00037062712 -4.8049856e-07 0.0007309568 0.0007385174
0.0 0.0011699316 -2.55629e-06 -0.0008160269 -0.00084354717 0.0 -0.0016537698 2.8863137e-06
1.6878384e-05 1.4574659e-05 0.0 3.071801e-05 -9.0749296e-08 0.000860823 0.0008642505 0.0
0.001731072 -3.0299057e-06 -0.00042653945 -0.00045314053 0.0 -0.0007668633 1.5052722e-06 -0.0007993148

exp_avg_sq f4 [128, 5]
00000000: eefa 2e37 d13d 3237 0000 0000 23b3 0337
00000010: 5a19 1d2f b48c 9d37 0d7d a237 0000 0000
00000020: 2046 d838 6352 8c2f 8c1f e837 e5f3 e937
00000030: 0000 0000 41c7 8739 63c6 c02f a51a 7338
00000040: 4299 7a38 0000 0000 6513 603a 9db9 5530
00000050: adcd 1538 5a90 1638 0000 0000 c9e6 ef38
00000060: eecb ef2f 7e55 5e36 bf10 5f36 0000 0000
00000070: 060b 3738 62ec 322e f824 af37 99e7 b137
00000080: 0000 0000 adca 5739 b5f8 922f d639 b137
00000090: 72a7 d337 0000 0000 1979 b638 2a47 dc2f
000000a0: 4f2f 0937 99df 0937 0000 0000 d73f 9d38
000000b0: 24df d92e cbc5 6137 ff06 6637 0000 0000
000000c0: fd43 8837 6a4e 3c2f 79fd 1437 4cf7 1937
000000d0: 0000 0000 5f11 1939 d096 fd2e e509 bd37
000000e0: 0b71 d637 0000 0000 5621 ad39 0461 e22f
000000f0: a060 cf36 3243 d236 0000 0000 fe63 b438
00000100: a88e b12e 7525 0335 6b94 1735 0000 0000
00000110: 90ec 3b35 2dc1 102d bbdd e936 7250 f036
00000120: 0000 0000 7646 2f37 422f cf2e fdf3 8c35
00000130: 30e4 9d35 0000 0000 5eb1 5136 5ee7 ad2d
00000140: c6b4 d935 ebac e435 0000 0000 3137 7537
00000150: 093b be2d 5426 5036 b9c1 5336 0000 0000
00000160: 0167 d937 7960 292e ddad 4837 07f2 4e37
00000170: 0000 0000 3676 9f38 07df 412f 7c73 8a33
00000180: 32bc 9033 0000 0000 113c 4435 7dfd 032c
00000190: 9bc5 c238 ead5 c238 0000 0000 d47c 843a
000001a0: f933 9930 3267 f432 75c0 0833 0000 0000
000001b0: e80b 1234 6f39 292b 8ef1 2934 b70a 3234
000001c0: 0000 0000 f941 a935 a829 8f2c 23ec aa33
000001d0: 3498 b433 0000 0000 2d33 4f34 fb7a 002c
000001e0: 4821 a432 4887 1733 0000 0000 59eb 5c34
000001f0: 98a6 902b 6543 b033 e485 da33 0000 0000
00000200: bb93 f534 af04 222c f472 8133 cc17 8833
00000210: 0000 0000 ba2a 8634 d7bf d62b 3c8e 2236
00000220: 4b07 2f36 0000 0000 4bad 8735 8f64 192e
00000230: 1051 dd37 872e e237 0000 0000 afcd 0b37
00000240: 8aad b32f 5b51 9132 010e b032 0000 0000
00000250: 3917 d333 b9d2 822b 50c9 1e37 2e3b 2737
00000260: 0000 0000 fa7e b836 422f 0d2f 86e2 8634
00000270: 4455 a534 0000 0000 2d38 3534 7702 cc2c
00000280: f5bf a233 2500 bb33 0000 0000 a87c b535
00000290: 084b c82b 29eb e837 e3fb 0338 0000 0000
000002a0: 69f1 7539 cb3d 0230 ad76 d334 826d 0235
000002b0: 0000 0000 4cd8 0135 e3b4 222d e81d 6238
000002c0: 23bd 6438 0000 0000 98d2 5c39 6d80 3630
000002d0: 2b75 eb37 ebf4 ec37 0000 0000 7302 1d39
000002e0: 8989 be2f 4d2e 8237 af78 8237 0000 0000
000002f0: 5332 8239 5a99 522f 5873 1838 3b3d 1938
00000300: 0000 0000 1596 8639 381e f32f a6b8 cf36
00000310: 9e30 e336 0000 0000 4538 5336 efef cb2e
00000320: 83c6 c733 1154 2b34 0000 0000 daea 3735
00000330: d215 7e2c 03cb 9137 5bbc 9737 0000 0000
00000340: 6e5b a038 c8c2 872f 62e1 0033 0240 2b33
00000350: 0000 0000 ce02 3d34 24b1 0b2c 1a49 d237
00000360: 313a d237 0000 0000 4acf 5a39 8fd1 a42f
00000370: 552a b937 e7e2 ba37 0000 0000 7d77 f237
00000380: 100d 9b2f ac27 dd36 941b eb36 0000 0000
00000390: 7e1c da37 5f5b ec2e b967 a937 bb8a a937
000003a0: 0000 0000 31ec 8539 b368 842f 819e 3b38
000003b0: 5d22 3d38 0000 0000 df00 8639 b1cc 1630
000003c0: 9b87 5932 7b74 cd32 0000 0000 9b13 8d33
000003d0: 3c5f 702b 7236 6c37 a2a1 6c37 0000 0000
000003e0: 2970 1439 7740 382f ed92 1f37 e8bd 2737
000003f0: 0000 0000 922d 5138 0c72 142f 369c 4338
1.0429632e-05 1.06240195e-05 0.0 7.849917e-06 1.4288074e-10 1.8781378e-05 1.9370136e-05 0.0
0.000103127444 2.552439e-10 2.7671245e-05 2.7889337e-05 0.0 0.00025897662 3.506556e-10 5.796053e-05
5.9747377e-05 0.0 0.0008547812 7.775272e-10 3.571592e-05 3.5897225e-05 0.0 0.00011439395
4.3618748e-10 3.313034e-06 3.3239337e-06 0.0 4.3640866e-05 4.0682464e-11 2.087884e-05 2.120789e-05
0.0 0.000205795 2.6733962e-10 2.1126976e-05 2.5231133e-05 0.0 8.7009925e-05 4.0068332e-10
8.176851e-06 8.217897e-06 0.0 7.4982345e-05 9.907655e-11 1.3457097e-05 1.3710697e-05 0.0
1.6244123e-05 1.7126359e-10 8.880504e-06 9.177089e-06 0.0 0.00014597688 1.1531898e-10 2.2535163e-05
2.5563428e-05 0.0 0.0003302197 4.1178094e-10 6.1803294e-06 6.2663103e-06 0.0 8.601694e-05
8.074369e-11 4.885581e-07 5.646786e-07 0.0 7.000717e-07 8.228346e-12 6.969754e-06 7.1619224e-06
0.0 1.0447218e-05 9.421665e-11 1.0501823e-06 1.1763823e-06 0.0 3.1246668e-06 1.977057e-11
1.6220372e-06 1.703765e-06 0.0 1.4615988e-05 2.1626716e-11 3.1016725e-06 3.1554212e-06 0.0
2.591638e-05 3.8511836e-11 1.196141e-05 1.2334908e-05 0.0 7.603729e-05 1.7632483e-10 6.447132e-08
6.739755e-08 0.0 7.31031e-07 1.8756934e-12 9.287448e-05 9.2904855e-05 0.0 0.0010108002
1.1146987e-09 2.8452266e-08 3.1840006e-08 0.0 1.3601641e-07 6.0120566e-13 1.5827229e-07 1.658144e-07
0.0 1.2610682e-06 4.0689292e-12 7.959195e-08 8.409589e-08 0.0 1.9296995e-07 1.8258162e-12
1.9107247e-08 3.5280465e-08 0.0 2.0574716e-07 1.0278054e-12 8.207898e-08 1.01757706e-07 0.0
4.5742294e-07 2.3024185e-12 6.0279405e-08 6.337322e-08 0.0 2.4990533e-07 1.5258861e-12 2.4222672e-06
2.6081277e-06 0.0 1.0108719e-06 3.4877486e-11 2.6383e-05 2.6962965e-05 0.0 8.332935e-06
3.2683217e-10 1.6917218e-08 2.0495465e-08 0.0 9.829677e-08 9.295543e-13 9.464406e-06 9.9677545e-06
0.0 5.4984093e-06 1.2840665e-10 2.5124262e-07 3.0795684e-07 0.0 1.6877375e-07 5.7983024e-12
7.5786296e-08 8.7078924e-08 0.0 1.3521831e-06 1.423168e-12 2.776606e-05 3.146742e-05 0.0
0.00023454953 4.738154e-10 3.938816e-07 4.858813e-07 0.0 4.8371e-07 9.248799e-12 5.391045e-05
5.4535583e-05 0.0 0.00021059287 6.639372e-10 2.8068744e-05 2.8247441e-05 0.0 0.00014973599
3.4658523e-10 1.5518768e-05 1.5553405e-05 0.0 0.00024833027 1.915387e-10 3.6347046e-05 3.6535068e-05
0.0 0.00025670292 4.4222914e-10 6.1905766e-06 6.770787e-06 0.0 3.1474203e-06 9.273992e-11
9.302769e-08 1.5956199e-07 0.0 6.8514566e-07 3.6107684e-12 1.7379882e-05 1.8088313e-05 0.0
7.646425e-05 2.4694757e-10 3.0007307e-08 3.9872255e-08 0.0 1.7603017e-07 1.985142e-12 2.5067991e-05
2.5061048e-05 0.0 0.00020867321 2.9980327e-10 2.2073431e-05 2.2278587e-05 0.0 2.890429e-05
2.8203617e-10 6.5909317e-06 7.0067563e-06 0.0 2.6000893e-05 1.0748268e-10 2.019467e-05 2.0210971e-05
0.0 0.00025543713 2.4085053e-10 4.4731893e-05 4.5093115e-05 0.0 0.0002555912 5.4860566e-10
1.26618955e-08 2.391811e-08 0.0 6.5693904e-08 8.539729e-13 1.4079373e-05 1.4104329e-05 0.0
0.00014156163 1.6757605e-10 9.511347e-06 9.998192e-06 0.0 4.9871924e-05 1.3501039e-10 4.6637106e-05

exp_avg f4 [128]
00000000: 286b 1bb8 f65c 44ba 3cf8 93ba 8716 833a
00000010: 2c99 11ba 57b4 4e39 a04c 2d3a cb4a 0e3a
00000020: 70af d139 b053 b5b9 847e 7839 b0e0 b639
00000030: 8032 b639 aeae 4bb6 e39c fa37 c948 feb8
00000040: 52c2 8cb9 57d1 073a 7821 63ba 9199 aa38
00000050: 378f e13a b090 22b6 1252 f838 3c39 9f38
00000060: bf6c fc37 97f3 40b6 310b 3738 1bed 6b38
00000070: 2980 cb39 68bf 1338 e81e d439 4f20 4738
00000080: 5424 3838 4027 3b3a ac32 1838 2bf5 73ba
00000090: d4ab ceb9 4853 8f39 8637 bdba c1de 0239
000000a0: 79dc bab7 0de7 063a 32aa 2f38 fc7c 383a
000000b0: 4cbf bfb9 bb49 0d39 3f13 3c3a 7c51 54ba
000000c0: bab8 d537 07ed 5e3a 487e ddb9 715c 4fba
000000d0: fa0a 8139 09ce 3339 a72b d839 2359 593a
000000e0: c8dd 563a 0487 12ba 58f8 2d39 18d8 743a
000000f0: 8b20 4bba 2d9d 2bb8 b332 9f39 04a2 5db8
00000100: 568a 72ba 4f64 1ab9 2851 0eba 41e7 0337
00000110: a782 aa38 e731 8438 fa64 40ba c0b9 6d3a
00000120: 3753 c4b7 bbf8 9d36 7752 5d39 45d6 ef39
00000130: 9c51 3337 650f c238 dde8 adb9 3e9f b6b9
00000140: 1e82 8a39 c69c 6eb7 31ae f5b8 4013 acb9
00000150: 69b0 97b8 876f 7638 2912 2138 1a70 15ba
00000160: afd2 cd38 f2ba c436 8bca efb5 8e72 313a
00000170: 306c bc38 1e58 82b9 47d8 4636 e500 a539
00000180: 2a50 923a 4dff ce39 eac8 98b7 f94b 2e39
00000190: ea9b 3938 cab9 4939 c617 963a fb85 0ab9
000001a0: edc3 49ba 8761 f8b8 3380 2eb7 b91a 99b9
000001b0: 1e53 18ba 3954 fbb9 3d15 5339 b5c3 4c3a
000001c0: f089 4bb9 b766 dcb9 b4a0 ac37 7603 a037
000001d0: bddf 27b9 140c 5d39 ffd1 38b8 bb19 7fba
000001e0: 2715 0cb9 f506 e537 18ae deb7 47a9 7b39
000001f0: b3a0 b338 188a 413a ed2d 9d39 fcbb fa39
-3.7054677e-05 -0.0007490659 -0.001128919 0.001000122 -0.00055541354 0.00019712873 0.0006610844 0.0005428015
0.00039994298 -0.00034585362 0.00023698254 0.0003488115 0.0003475137 -3.0351034e-06 2.9875378e-05 -0.00012125221
-0.0002684766 0.00051810354 -0.000866435 8.134836e-05 0.0017208819 -2.42241e-06 0.00011840848 7.5923715e-05
3.009138e-05 -2.8752017e-06 4.3641023e-05 5.6249188e-05 0.00038814664 3.5225792e-05 0.00040458818 4.7475387e-05
4.390285e-05 0.00071393326 3.6286816e-05 -0.0009306247 -0.00039419404 0.00027337135 -0.0014436103 0.00012480748
-2.2275593e-05 0.00051461236 4.1881758e-05 0.0007037667 -0.00036572886 0.00013474275 0.0007174499 -0.00080993003
2.5477599e-05 0.0008503948 -0.00042246492 -0.0007910198 0.00024612976 0.00017147524 0.00041231254 0.00082911755
0.00081965 -0.0005589577 0.00016591081 0.0009340062 -0.0007748685 -4.091596e-05 0.00030364617 -5.2841395e-05
-0.0009252181 -0.00014723952 -0.00054289633 7.8620515e-06 8.1305676e-05 6.3035455e-05 -0.00073392654 0.00090685114
-2.340377e-05 4.7079207e-06 0.00021106923 0.00045745276 1.0688233e-05 9.253508e-05 -0.00033170628 -0.0003483239
0.00026418356 -1.4222407e-05 -0.00011714956 -0.0003282074 -7.2331e-05 5.875484e-05 3.8402304e-05 -0.00057006034
9.8144046e-05 5.8630185e-06 -1.7865835e-06 0.0006769084 8.98469e-05 -0.00024861185 2.963019e-06 0.0003147192
0.0011162807 0.00039481596 -1.821337e-05 0.00016622235 4.4252643e-05 0.00019238066 0.0011451177 -0.00013210617
-0.0007696737 -0.000118437274 -1.0401057e-05 -0.00029202344 -0.0005810725 -0.000479372 0.0002013044 0.0007811145
-0.00019410974 -0.00042038198 2.0578831e-05 1.9075098e-05 -0.0001600971 0.00021080702 -4.4064593e-05 -0.0009731312
-0.0001335932 2.7302167e-05 -2.6545531e-05 0.00024000286 8.565318e-05 0.00073829433 0.0002997959 0.00047823775

exp_avg_sq f4 [128]
00000000: a0ff 4a37 8f31 b437 e3a7 f737 c4b2 8838
00000010: d593 1938 f77b 6436 638f bc37 962a 0d38
00000020: f28e 0c37 8cfc 7237 bc05 2237 2a9f 1038
00000030: 2499 e136 fe2a 3c35 aee3 0537 5c5d df35
00000040: eb35 f135 94ec 5a36 27a9 7937 0874 2834
00000050: 74dd c338 e5de 5733 370f b734 5b8d 2534
00000060: 8493 b833 24f2 4e34 ad57 0934 3329 4736
00000070: fc35 e837 d699 a533 5c5f 3637 142f 0335
00000080: 307d ff33 1da3 2638 43b1 5135 c51b 6a38
00000090: 42dd f337 011d 8637 34fd 1b38 27ba 0337
000000a0: 0ac0 a134 dd66 ae37 6e78 3234 4e22 d337
000000b0: b3e4 c737 538d 1737 fde5 a937 536b 4138
000000c0: 07ca 9933 ca46 6d37 9097 3e37 2dd9 4738
000000d0: a97a 8636 3ff7 ac34 fa36 bf36 a690 1538
000000e0: edaf ff37 6366 bc37 093a ba34 7647 a038
000000f0: 9334 6338 25a8 fb36 1f5c 4737 5f12 5c36
00000100: ccd2 2c38 1dda 6536 ed03 2a36 81d9 4034
00000110: d7ee bd36 b382 e033 c4a1 5537 fbbc 8c38
00000120: 6d36 f536 bb8a 6f37 2df8 a136 e2b5 0237
00000130: a6c4 0433 be09 4f37 9192 6137 daaa ac37
00000140: 17dc 1e37 0e08 5135 e832 a735 0582 0a37
00000150: 0b2a c033 e7f4 1934 d2f4 d534 6b50 1d37
00000160: fbd9 0135 0774 cb34 77b4 0933 9155 0138
00000170: 7e65 6834 b03d 9337 27d6 af34 75d0 8d36
00000180: 1c15 7538 1c4c e136 0308 ba35 590e 2c35
00000190: 117d 0d34 4934 2037 3271 7438 8015 2b37
000001a0: 06f7 c137 0aef 5d36 66b4 7d34 8029 fe36
000001b0: 5466 1538 a52d 9937 b380 3935 584f a237
000001c0: 2b1c aa36 08fa ae36 2c72 9d36 2a50 0634
000001d0: 7cc7 e934 f282 0e36 b1a6 d135 d6d2 2838
000001e0: 0821 6c37 a29e f136 2af5 c234 4c6f 1838
000001f0: c9a1 3336 1db5 7638 c573 8737 1ffd 6b37
1.2099656e-05 2.148075e-05 2.9522873e-05 6.518283e-05 3.6615722e-05 3.4046805e-06 2.2478116e-05 3.365668e-05
8.377932e-06 1.4483125e-05 9.657288e-06 3.448051e-05 6.7233505e-06 7.009802e-07 7.980429e-06 1.6641966e-06
1.7971591e-06 3.2622238e-06 1.488094e-05 1.5688431e-07 9.3395734e-05 5.026131e-08 3.4097476e-07 1.5418247e-07
8.5950006e-08 1.9273335e-07 1.2791016e-07 2.9677292e-06 2.7681694e-05 7.711394e-08 1.0870248e-05 4.886981e-07
1.1897134e-07 3.9729395e-05 7.8116517e-07 5.581581e-05 2.9070889e-05 1.598755e-05 3.7190694e-05 7.85155e-06
3.0128314e-07 2.0790316e-05 1.6621354e-07 2.5169134e-05 2.3829145e-05 9.033206e-06 2.0253467e-05 4.611474e-05
7.161366e-08 1.4142783e-05 1.1360171e-05 4.7647558e-05 4.0077907e-06 3.2217392e-07 5.6986437e-06 3.5659083e-05
3.048029e-05 2.2459024e-05 3.4687426e-07 7.642705e-05 5.416998e-05 7.4999575e-06 1.1882773e-05 3.2793248e-06
4.1204315e-05 3.4250618e-06 2.533426e-06 1.7960521e-07 5.6604435e-06 1.0454587e-07 1.2733453e-05 6.7109206e-05
7.307905e-06 1.4277811e-05 4.8270654e-06 7.790952e-06 3.0912496e-08 1.234043e-05 1.344517e-05 2.0583557e-05
9.4687775e-06 7.787029e-07 1.2457285e-06 8.2557135e-06 8.948344e-08 1.433833e-07 3.9852472e-07 9.376653e-06
4.837345e-07 3.7896118e-07 3.206193e-08 3.0835687e-05 2.1643606e-07 1.7552491e-05 3.2752106e-07 4.226395e-06
5.843221e-05 6.714383e-06 1.3860412e-06 6.409587e-07 1.3177147e-07 9.548917e-06 5.8279555e-05 1.01974e-05
2.3122422e-05 3.3070705e-06 2.362809e-07 7.574621e-06 3.561967e-05 1.8260276e-05 6.910515e-07 1.9348852e-05
5.069674e-06 5.2147116e-06 4.692256e-06 1.2508886e-07 4.3544776e-07 2.123587e-06 1.5620227e-06 4.0250678e-05
1.4074387e-05 7.200827e-06 3.6313696e-07 3.6343277e-05 2.676725e-06 5.8819645e-05 1.6147163e-05 1.4066026e-05
