results/CubeAgentJumper1/CubeAgentRay/CubeAgentRay-56394.onnx (onnx, 80046 bytes, 8 tensors)

action_model._continuous_distribution.log_sigma f4 [1, 2]
00000000: b9ba c03c 0915 b13d
0.023526536 0.0864659

action_model._continuous_distribution.mu.bias f4 [2]
00000000: 98f5 293d 4ecd f2bb
0.041493982 -0.007409728

action_model._continuous_distribution.mu.weight f4 [2, 128]
00000000: 034d f9bb 1331 693c bdff 14bd 5e3c 793d
00000010: e5b7 ebbc cb81 09bc f304 8abd 9d04 8e3c
00000020: b1b0 7f3d 3d58 28bd 75f7 f13c 2cf6 b73c
00000030: 8428 c7bc 7196 0c3d 0a3d 02bd b42e 20bd
00000040: 0423 b0bc e226 523d 743e 13bc 25be 403d
00000050: aca9 643d 6718 4fbc b259 773c 3219 d2bc
00000060: 13e5 87bd 48bf 5cbd 0ccd 053b 3f33 4ebd
00000070: aeb3 a3bc 227d afbd 97ca 003d 90c8 2fbd
00000080: 87c5 273d 2b9d f93c 7d8c 0bbd a4af 31bd
00000090: b81b bd3d ed95 aa3a a45a cfbc 1ccb 1bbd
000000a0: 4862 2cbd 3668 623b 7c81 2e3d 22da 95bc
000000b0: 189c c33d a866 e63c 69ed 863d 26ce a33d
000000c0: 1268 9b3d 03d3 4ebd 3a8b 843d 1e83 a73c
000000d0: 8c29 c8bc 4ba3 7bbd a5ea 8fbd e523 d0bd
000000e0: ff22 913d 08e9 cb3c 6982 58bd 0430 833c
000000f0: a339 33bd c421 fdbc c599 4a3d b42e c23d
00000100: 2f63 29bd 59b6 1abd 482c 1abd 7c74 87bd
00000110: 10bf d0bc 04ff 80bb 3202 28bd 1135 71bd
00000120: 0286 d9bc 299d 7abd 2db2 993d f80d ca3c
00000130: b15a b9bb 0146 b9b9 8f25 6b3d 23b6 723d
00000140: fd50 4f3c 2c14 a33d 93eb aa3c 363e 90bd
00000150: 7014 34bd 15d9 0f3d 76d1 62bd 729a aa3d
00000160: 51b5 b0bc 3363 5ebc 3bb5 aeba 3c25 11bd
00000170: 84d5 eabc 7a3c 903d 9124 023c d875 4fbb
00000180: c8f2 a0bc 7ee6 be3b 583c a73d cafa 9d3d
00000190: 9107 46bd 640a 0bbd a8bd de3d 4aaa 023d
000001a0: 6e9c ab3c 4580 c3bc 586e e7bc ce0a bfbc
000001b0: 42de 5fbd aa5f 9e3c 0b32 06bd f2f4 83bd
000001c0: dae4 a2bd 92de 963c 53b4 6a3d b4d6 1bbd
000001d0: e6a4 27bd 4745 f6bc edd6 f73c 4e6e 27bd
000001e0: dbd1 86bd bff6 3abb 405b 64bd 5962 bbbb
000001f0: 9056 423d 6133 3abc 5d86 3b3d ebaf 5cbd
00000200: d82a b2bb 913c fd3b dcdd 413c 96f1 8d3c
00000210: 94ec bdbc ffbf a3bc 3a62 b53c 8781 c3bc
00000220: 9186 68ba 1800 ff3c afa2 9a3c 298a bfbc
00000230: 9f93 43bc 978e 89ba 4433 363d ff45 553c
00000240: 29e2 2c3d c8ec 70bb e654 673c 62ef 82bc
00000250: 51cf ddbc 58a1 d83c 1812 28bc 113a 11bc
00000260: 95fd 813c 44ba 19bc 9034 023c b6de aebb
00000270: 6d3a d73a 3ea7 4f3d f5f3 b0bc b52c 02bc
00000280: 68a6 91bc 9e14 26bc 6534 dd39 4850 0d3d
00000290: 52fd a83a 5111 873a fee5 653c 364b 3c3c
000002a0: 0436 5c3c 099f 83bc e0fd e4bc c328 93b8
000002b0: 1b53 583c 29ae dfbc b86b 67bb 52e8 0739
000002c0: d13a eb3b 3aa0 d6bc 94ac d9bc b2e9 943c
000002d0: fccf 353c fb58 4c3d 8133 6c3d 5329 353c
000002e0: 33e5 ba3c 8b51 293c 62e7 233c 509c 05bc
000002f0: 9bfd 5b3b 1b6d 05bc 357a d1bb c694 b23c
00000300: 09db 9bbb 4e24 333c 1b44 103d f432 143c
00000310: c895 7cba 2bf5 8f3a 946e 97bc d983 40bb
00000320: c3ae 223d ea62 23bd 5a7e b33b be67 35bc
00000330: 4df0 79bb df6f 53bc d7dd e43c 4faf a2bb
00000340: 45f5 8c3b ca2e c33c 4d04 0b3a 6d76 2b3c
00000350: 5b98 b33b a1f3 c53b 3d98 1b3c 0b21 03bc
00000360: f2cd 383d b637 85b9 a1fa 4cbc b556 1f3c
00000370: e9aa a23c a56b 8b3b f705 9f3b 7ab3 8dbc
00000380: 7f44 8e3c b5f4 14bc 76f3 a7ba 9c0c 103c
00000390: 7373 463c a357 433c 8f70 993c 8a0e a2bc
000003a0: 8a7c 5c3c b25d bb3c 6cd9 953c 32c5 5c3c
000003b0: 9df9 f63b 9c31 353b b0fe d53b aa55 cc3c
000003c0: 04ce e83b cea7 82bb d169 4abc c4fa 4a3c
000003d0: 53d4 23bc 80c3 53ba ed3e 5b3c aa63 2a3b
000003e0: 7166 a23c 0c46 8cbb 496e 303c c014 56bb
000003f0: 5d0f a3bc 482e 303c 26c0 bebb fed5 8439
-0.0076080575 0.014232892 -0.036376704 0.060848586 -0.028774211 -0.008392761 -0.06739225 0.017336184
0.062424365 -0.041099776 0.029536942 0.022456251 -0.024311312 0.03432316 -0.031796493 -0.03910704
-0.021501072 0.051306613 -0.008987058 0.047056336 0.055825874 -0.012640095 0.015097069 -0.02564678
-0.06635489 -0.053893358 0.0020416407 -0.05034184 -0.019983139 -0.08568789 0.031443205 -0.04291588
0.04095986 0.030470451 -0.034069527 -0.043380395 0.092338026 0.0013014652 -0.025311776 -0.038035497
-0.042085916 0.0034546978 0.042603955 -0.01829249 0.09551257 0.028125122 0.06588251 0.07998304
0.07588209 -0.050494205 0.06471868 0.020448264 -0.024433874 -0.061435025 -0.07027177 -0.10163096
0.07086753 0.024891391 -0.052858744 0.016014107 -0.04375614 -0.03089989 0.049463052 0.09481564
-0.041354354 -0.037771557 -0.037639886 -0.066140145 -0.02548173 -0.00393665 -0.04101772 -0.0588885
-0.026553158 -0.061185036 0.075046875 0.024664864 -0.005656563 -0.00035338107 0.057408866 0.05925573
0.012653586 0.07962832 0.020864284 -0.07043116 -0.043964803 0.035119135 -0.05537554 0.08330239
-0.021570833 -0.013573456 -0.0013329157 -0.0354359 -0.028666265 0.07042785 0.007943288 -0.0031655934
-0.019647017 0.0058258167 0.081658065 0.0771385 -0.04834706 -0.033945456 0.10876018 0.03190068
0.020948615 -0.023864875 -0.028250858 -0.023320582 -0.05465532 0.019332726 -0.03276257 -0.06443204
-0.07953806 0.018416677 0.057300877 -0.038046554 -0.040928744 -0.03006233 0.030253852 -0.04087668
-0.065829955 -0.002852842 -0.055751085 -0.005718511 0.047445834 -0.011364789 0.045782436 -0.053878706
-0.0054372363 0.0077281673 0.011832681 0.017327111 -0.023184098 -0.019989012 0.022141565 -0.023865474
-0.00088701496 0.031127974 0.018876402 -0.02338131 -0.011937051 -0.0010494766 0.044482484 0.013017177
0.04220787 -0.0036762226 0.014119362 -0.015983287 -0.027076395 0.026444122 -0.01025822 -0.008863942
0.015867988 -0.009382788 0.007947102 -0.005336608 0.001642061 0.050696604 -0.021600703 -0.007945229
-0.017779544 -0.010136751 0.00042191442 0.03450039 0.0012892878 0.0010304843 0.014031885 0.011492541
0.013440613 -0.016067045 -0.027953088 -7.017099e-05 0.013203408 -0.027304726 -0.0035312008 0.0001296115
0.0071786423 -0.026199449 -0.02657155 0.01817784 0.011096951 0.049889546 0.057666305 0.011057216
0.022814369 0.010334383 0.010003896 -0.008154944 0.0033567909 -0.008143689 -0.006392742 0.021799456
-0.0047563356 0.010933949 0.0352212 0.009045351 -0.0009635356 0.00109831 -0.018485345 -0.0029375462
0.039717447 -0.039889254 0.0054777088 -0.011072097 -0.0038137615 -0.01290509 0.027937813 -0.004964746
0.0043016993 0.023826022 0.000530307 0.010465247 0.0054808087 0.0060410057 0.009496746 -0.0080034835
0.04511828 -0.00025409245 -0.012510926 0.009725262 0.019856887 0.0042547756 0.004853006 -0.017297495
0.017366646 -0.009091546 -0.0012813646 0.008792069 0.012112486 0.01192275 0.01873043 -0.019782323
0.013457427 0.022871826 0.018292151 0.013474749 0.0075370804 0.0027647978 0.0065306053 0.024943192
0.007104637 -0.003987289 -0.01235433 0.012388889 -0.0099993525 -0.0008078143 0.013381702 0.0025999346
0.019824238 -0.004280811 0.0107684815 -0.0032666177 -0.019904787 0.010753222 -0.0058212457 0.0002533644

action_model._discrete_distribution.branches.0.weight f4 [1, 128]
00000000: 2b7b 36ba c7aa fdba 8da8 ed3b a148 203c
00000010: 8f20 84bb 56f3 33bc 87d0 acbb 91b6 2a3c
00000020: bba5 f0ba f0d9 d23b 4bf0 323b 724f ab3b
00000030: 611d b33b 14e6 bc3b 900c 013c 9570 b43b
00000040: b776 da3b 8fc5 853a 40f9 913b 7715 653b
00000050: b90e 0f3a aab2 e73b ab1f a5bb e30f ba3a
00000060: 3362 753c 894b bdba 9596 debb fff2 4a3b
00000070: d2ec f73a d01a d83b 353c ce3a 1fc6 84bc
00000080: 86b8 8dbb be24 cb3b 7b68 fcbb 755a b5bb
00000090: 079c 833c 0a45 573c d040 65bc 6de8 743c
000000a0: b324 babb 652b f7ba 83eb 4e3c 1057 b53b
000000b0: 9d3a 4cba 530a 22ba 0fc0 ad3a 35ba a7b9
000000c0: f565 e23a d88c 51bb ca16 c2ba 86d9 8abb
000000d0: 7c89 c73a 0fd7 913a 37c7 803a 8a29 11ba
000000e0: 77c3 7b3c f369 e2bb 2316 a7bb 2264 ee38
000000f0: 710e 26bc 9029 fe3b 822f 65bb 2fea 63bc
00000100: 9d12 3dbc dede 36bc fbb3 f9bb 6b92 4b3c
00000110: 80c6 3eb9 e848 c9bb ef64 8f3c 5c60 00bc
00000120: 857f 103c 3d89 e7bb 2417 9b3a eb55 07bc
00000130: 9fe9 153b 2e0b a23b 6e3b b9bb 222c cdba
00000140: 4c1e 96bc 90de 85bc 52f5 1a3c 3bf7 af3c
00000150: bb6e 20bb 5727 163a 1b1d a23b fd17 f73b
00000160: 5376 31bc 8d9d dfbb 96e9 0c3c a5fb 363c
00000170: d2cf 07bc 0842 1fba dcdd 84bb 8f7e 323c
00000180: e0a7 693b a536 e8bb 6fd6 773c 7dd7 db3a
00000190: b510 05bc 97b8 cfbb 30a7 ecbb 352c 88bc
000001a0: bdf8 60bc a852 91bb 8776 1ebc cd6b 643b
000001b0: f1a6 c8bb ab44 ebbb 85ca 713c 5772 0d3c
000001c0: 83f0 e83b bd19 75bb 3e2e 06bc 5644 07bc
000001d0: 4517 9abb ad01 ec3b ade2 773b 140f 14bb
000001e0: e8a3 953b 35e0 bf3a f035 03bc 07c2 54bb
000001f0: 3f4c 1abc 9000 d0bb 7839 c03a a239 313c
-0.00069611025 -0.0019353264 0.007252759 0.009782941 -0.0040322016 -0.010983309 -0.005273882 0.010419504
-0.0018359938 0.0064346716 0.002730387 0.0052279765 0.0054661487 0.005764732 0.00787653 0.005506585
0.006666984 0.0010205972 0.0044547617 0.003495542 0.0005457211 0.007070859 -0.0050391755 0.0014195408
0.014977026 -0.0014442067 -0.006792853 0.003096759 0.0018915182 0.006594993 0.0015734496 -0.016207753
-0.0043249754 0.0061994484 -0.0077028847 -0.005534465 0.01606561 0.013139019 -0.013992503 0.014947993
-0.0056806444 -0.0018857537 0.012629393 0.0055340603 -0.00077907165 -0.0006181348 0.001325609 -0.00031991457
0.0017272817 -0.0031974819 -0.0014807817 -0.0042373566 0.0015223469 0.0011126715 0.0009824996 -0.0005537501
0.015366427 -0.006909603 -0.0050990744 0.000113673756 -0.010135279 0.0077564195 -0.0034970944 -0.013910814
-0.011540082 -0.011161534 -0.0076203323 0.0124250455 -0.00018193759 -0.0061427243 0.017504184 -0.007835474
0.0088194655 -0.0070659206 0.0011832458 -0.0082602305 0.0022874845 0.0049451804 -0.0056528365 -0.0015653411
-0.018324994 -0.016341478 0.009457903 0.021480193 -0.0024480063 0.0005727908 0.0049473173 0.0075407014
-0.010831433 -0.0068242014 0.008600613 0.011168395 -0.008289294 -0.0006075208 -0.004054768 0.010894432
0.003565304 -0.0070865923 0.015126809 0.0016772595 -0.008121659 -0.0063391435 -0.0072220787 -0.016622642
-0.013731179 -0.004434902 -0.009671814 0.0034854293 -0.0061234166 -0.0071798167 0.014757757 0.008633218
0.0071087494 -0.0037399374 -0.008189736 -0.008256039 -0.004702481 0.007202348 0.0037824318 -0.0022591995
0.0045666583 0.0014638962 -0.008008465 -0.0032464282 -0.009417593 -0.0063477233 0.0014665565 0.010816963

network_body._body_endoder.seq_layers.0.bias f4 [128]
00000000: 7597 fcbc 5505 66bd c8d2 6ebd 4a60 c8bb
00000010: b73e b6bb ec6f 3ebd 01ed 7b3c f0ef 1f3a
00000020: eb1b 74bb 0d76 a53a f3bc 07bd e407 ab3c
00000030: c897 44bc 7d68 25bc 70f3 f3bc ef89 d1bc
00000040: 976f 893b da2e 253b 9fb1 993d e1ce 863b
00000050: 732d 52bd ec1a 153c e971 d93c a76e b33c
00000060: 6195 45bc dcef 0f3b 4aa3 b43b b7ba 72bc
00000070: baee 86bc fc58 7dbd e22c 763a 660e 1b3d
00000080: 8351 5f3d 1a24 0ebd 33d9 903c e0df e0bc
00000090: e6a8 fa3d 302f b8ba 6cf0 5cbc 6765 b8bc
000000a0: ceee d4bc 353c 1d3d b8c0 55bc da0f adbc
000000b0: 6f50 b2bc ab71 dabc bd16 2a3d 7470 0abc
000000c0: 69ef 4f3d b0d4 e7bc fe70 cd3b f2b6 babc
000000d0: 2690 a6bc 63ed 903c 07dc 163d b908 4fbc
000000e0: 6a88 48bc 4ad2 d5bc fb71 c2bc 6840 aa3d
000000f0: c2f1 f83c b042 723c 9c4e 823d d1aa 123d
00000100: 1346 f6bc a830 49bd c8d2 1fbd 7a29 0e3d
00000110: 3c47 9bbd 9911 583d 0d9a cbbb b5fb 293c
00000120: 5f98 1abd 2e31 3e3b 4eae 053d 2d5b 083d
00000130: c31e 1e3c 9d1c 243c 0c41 03bc 0dcb c7bc
00000140: 61ef 3a3c e9da 34bd 9c00 2c3c 47c9 c13d
00000150: e127 70bd 0eaf 1ebc eb25 44bd 6cfd 1fbb
00000160: 0f51 503d 7815 473d 506a d0bc 3d81 0b3d
00000170: 62c1 1dbd 7c4e 8f3d 1060 41bd edf6 5abd
00000180: 6405 bcbd 9a4c 7bbc 4d47 623c 5aa2 b7bc
00000190: 7721 13ba a1cc 27bc bf3d 9bbc 607d 063d
000001a0: ec60 adbb aec3 49bc 286e 8fbc 1f5a 5e3c
000001b0: 2afe 873d deda a8bb 7864 ffba 3c2d 933d
000001c0: 9e61 7a3c b44c c7bd accc cf3c 0717 5fbd
000001d0: 5a20 643c 53d6 c4bc a603 19bd 3e33 10bd
000001e0: 42e6 e0bc f229 a5bd 3ead 0cbd 9557 a6bc
000001f0: bf54 36bd 87ef cbbc 7948 04bd 264b 2e3b
-0.03083394 -0.05615743 -0.058306485 -0.006114994 -0.0055616754 -0.046493456 0.01537633 0.0006101122
-0.0037248086 0.0012623683 -0.03313918 0.020877786 -0.011999078 -0.010095713 -0.029779166 -0.025578467
0.0041942107 0.0025204928 0.07504582 0.0041140174 -0.051312875 0.009100657 0.026543574 0.02190335
-0.0120595405 0.0021963036 0.0055126296 -0.014815024 -0.016471256 -0.06185244 0.00093908433 0.03785553
0.054521095 -0.034702398 0.017681694 -0.027450502 0.12239246 -0.0014052149 -0.013485055 -0.02250929
-0.025992777 0.038387496 -0.013046436 -0.021125723 -0.02176687 -0.02666553 0.04152559 -0.0084496625
0.05076543 -0.02829966 0.0062695732 -0.022792313 -0.020332407 0.01769132 0.03683093 -0.012636357
-0.012239555 -0.02610125 -0.02373599 0.08313066 0.030388717 0.014786407 0.0636265 0.035807434
-0.03006271 -0.049118668 -0.039019376 0.034707524 -0.07581946 0.052751157 -0.0062134326 0.010374953
-0.03774297 0.0029021013 0.032636933 0.033290077 0.009650889 0.010016588 -0.008011114 -0.024388814
0.011409611 -0.04415408 0.010498192 0.09462219 -0.05863178 -0.009685291 -0.047887724 -0.0024412526
0.050858553 0.04860446 -0.025441319 0.034058798 -0.038514502 0.069973916 -0.047210753 -0.053458143
-0.09180716 -0.015338087 0.013810945 -0.022416282 -0.00056125916 -0.010241658 -0.018950341 0.03283441
-0.005291095 -0.01231472 -0.017508581 0.013571291 0.06640275 -0.005153044 -0.0019484898 0.07186362
0.015282063 -0.09731427 0.02536615 -0.05446532 0.013923729 -0.024027979 -0.037356995 -0.03520512
-0.027453545 -0.08064641 -0.034344904 -0.020305434 -0.044514414 -0.024894489 -0.032295678 0.0026595085

network_body._body_endoder.seq_layers.0.weight f4 [128, 17]
00000000: efeb 853d f239 90bd 7835 663e b3c2 943e
00000010: 210b 7c3e 4a40 5ebe 2083 ea3d 0386 283e
00000020: a1cf 1bbe d5cc 6dbd f371 40bf e6d3 30bd
00000030: a8cd 76bd 995e 7ebc 25d7 92be 81fb 553e
00000040: 5a99 b43d 8b6e fcbd 34ee 52be 7e4c b3bb
00000050: fbb2 fbbe bf70 e0be 6308 bbbe eda0 7abe
00000060: 1b7c f7bd 0cb0 d8bd 9c23 483e abb9 33bf
00000070: 9c9b e0bc d0c1 adba c98c 5d3e b36f 0e3f
00000080: da6d 883e 51ef abbd 6f91 8b3d 21e4 87be
00000090: 9683 22bd b072 0dbe 2a13 b8be 81be 7ebe
000000a0: 4fc3 1fbe 2865 0fbe 37b6 dcbe 417a 71be
000000b0: 7d27 a4be 56d9 a7be e2a5 683e 1e42 2f3e
000000c0: 0920 703e e37b 433e bd99 623e bf15 a23c
000000d0: b0b7 4cbd 7052 30bd 9612 613e 0403 6bbd
000000e0: 504a dcbd 65c6 d13d 5590 d53d e6a2 013e
000000f0: 6d7e 9f3e a463 e53e d3f2 09be e6f2 04be
00000100: b13a bc3e 7f7b 29be e013 97be 5f8d 10bf
00000110: 25e8 533d c2b8 febe 7453 a23d 2915 a1be
00000120: 8a95 e3bd 44c7 463e 2802 143e b0fd 89bd
00000130: a9ae 553e 6e80 983d 5ba9 18be afd6 e1be
00000140: 7779 fc3c 75f3 d5bd 473e 0cbf 495f 99be
00000150: 6fd2 5bbe 7854 6dbd 2434 db3d 1b68 87be
00000160: c4dc 913e fb3d 86bd 72c5 01bf 9eb0 f8be
00000170: bf81 0dbe 6b42 493e 65bb 523e 35f6 06bf
00000180: 3fbf c0bd 467a 32be 6651 c4be 3c7a 81be
00000190: 726c 363e ee08 d4bd 74b4 b6bd 8d5d 6abe
000001a0: 57bc 16be ba95 b53d ab82 fbbc 7ca9 2e3d
000001b0: 1378 d53d 52e1 8c3e 13f2 703e d5ee ccbd
000001c0: 92c4 543e 306b 703e e32c 703e dd16 ab3e
000001d0: 4117 ee3e 8558 573d 8a89 a73d bce9 753e
000001e0: c51f 01bd 36c9 833e ef46 f2bd 9880 853e
000001f0: 325f 14bf eaae 5cbd 15eb 25bd a894 9b3c
00000200: c29e 86be f052 51be 8ed2 71be 1f6b b1bd
00000210: b18d 9cbe 7478 d1bd 1421 f63d 6bbb 87be
00000220: 4440 7abe 45f7 9bbb 3136 ba3e e45b 183e
00000230: 6572 d5be ac6f 25be 875c f7bd c4bd 30be
00000240: 15e5 023d 9a94 ee3e e96b 8f3d 78c2 693e
00000250: 5d73 d43d 4850 043e d834 cdbe cb40 913d
00000260: 7d40 a6be 5be0 90be cc7e f63d 43e7 363b
00000270: bdb3 3abe 2ce3 783e 0bf3 0bbe e7bf 7a3e
00000280: a6f8 913d 9dd7 a43e f318 923c ac5c f2be
00000290: ea5f d23d 31ba b53e e6ca 133e 7afe c13d
000002a0: e61c 63bb 53f5 91be 5eee 1b3d 0323 cbbe
000002b0: 6573 fe3c 60c4 193d 0daf afbd fa6b de3d
000002c0: 1671 993d e791 bb3d 909a 84be 836a 2fbe
000002d0: 4712 8a3d b6ab 93bd 3e16 8c3d 8d48 69be
000002e0: 29af f4bd c2ea 643e 0924 63bd 355a 293e
000002f0: cfcf 9c3e 08e8 183e 00c1 e739 c132 e13e
00000300: 34e9 003e 4e2d ff3c c9c9 873e cf59 7dbe
00000310: c6ac 7c3d f1f5 05be 12cf 61bd c16c c3be
00000320: 67f9 a33d d404 633e 4864 0abf 7b1a dbbe
00000330: 43a9 3b3e 84d2 82bc dfed 0c3e 13dd 943d
00000340: fa67 49be 3a92 9f3e 4c80 893e 7bca 2ebe
00000350: 3baa a7be b2fd c73e ca3e 79be da51 2dbe
00000360: c3de cf3d 6c48 503e c942 a3be 8ebf 14be
00000370: 8fdb bfbe 031a 8fbd d4c2 5b3e 17de b2bd
00000380: 47dc 393e 78d6 34bd cdcd 20be b126 48bd
00000390: 5883 b73e 217c 103f d464 a53d 13d6 533e
000003a0: 37eb 0dbf 1cee d13e ca31 02bf b57b 003f
000003b0: ac61 0bbe af9b 3d3e 88a8 243d a04b 86be
000003c0: cd29 8cbd 0fff a2bd 2d39 6a3e fde6 0a3b
000003d0: e12c d9bd 3818 e23d 48b7 293e 4e02 f73d
000003e0: 84c5 143e dcc5 f6be 3c10 f9bc e561 96bc
000003f0: ba51 41be 5703 d83d 5d11 7bbe 8a18 67bd
0.065391414 -0.07042302 0.22481334 0.29054794 0.2461362 -0.21704212 0.11450791 0.16457371
-0.15215923 -0.05805667 -0.7517387 -0.043170832 -0.060254723 -0.0155254835 -0.28679767 0.20896722
0.08818312 -0.12325772 -0.2059868 -0.005471765 -0.4915999 -0.43836018 -0.36529836 -0.24475451
-0.12084218 -0.10580453 0.19544834 -0.7020518 -0.02741795 -0.0013256613 0.21635737 0.5563919
0.2664631 -0.08395255 0.06814849 -0.26541236 -0.03967627 -0.13813281 -0.3595212 -0.24877359
-0.15601848 -0.14003432 -0.4310777 -0.23581792 -0.32061377 -0.32783002 0.2271953 0.17115065
0.2344972 0.19090228 0.22128959 0.01978576 -0.049979866 -0.04304737 0.21979746 -0.057375923
-0.107563615 0.10242919 0.1042792 0.12659797 0.31151143 0.44802582 -0.13471536 -0.12983283
0.36763528 -0.16551016 -0.2950735 -0.56465715 0.051735062 -0.49750334 0.07926074 -0.31461456
-0.11112507 0.19411951 0.14453948 -0.0673784 0.20867409 0.07446371 -0.14908354 -0.44109103
0.030819638 -0.10446826 -0.5478253 -0.2995551 -0.21466993 -0.057941884 0.107033044 -0.26446614
0.28488743 -0.065547906 -0.506919 -0.48572248 -0.13819025 0.19654243 0.20579298 -0.5271943
-0.09411477 -0.17429456 -0.38343352 -0.2528857 0.17814806 -0.10353266 -0.089211375 -0.2288725
-0.14720283 0.08866449 -0.030701956 0.0426421 0.10423293 0.27515656 0.23529844 -0.10006491
0.2077811 0.23478389 0.23454623 0.3341588 0.46502116 0.052574653 0.0818053 0.24014944
-0.03152444 0.2573945 -0.11829936 0.26074672 -0.57957757 -0.05387775 -0.040507395 0.018991783
-0.26292998 -0.20441794 -0.23615476 -0.0866301 -0.30576852 -0.10228053 0.12018028 -0.26510176
-0.24438578 -0.0047597014 0.3636947 0.14878803 -0.4168884 -0.1615588 -0.12078195 -0.1725989
0.03195675 0.4659775 0.07003004 0.2282809 0.10373566 0.1292125 -0.4007938 0.070924364
-0.32471076 -0.2829617 0.12035903 0.0027908839 -0.18232627 0.24305409 -0.13666932 0.24487267
0.07127504 0.3219575 0.017834162 -0.47336328 0.102722004 0.35493615 0.14432868 0.09472366
-0.0034654676 -0.2850748 0.03806912 -0.3967515 0.031060884 0.037540793 -0.0857831 0.10860439
0.074922726 0.09158688 -0.25899172 -0.17130475 0.067417674 -0.07210486 0.0684018 -0.22781582
-0.11947472 0.22355178 -0.055454288 0.16538318 0.30627295 0.14932263 0.0004420355 0.43984035
0.1258896 0.031149533 0.26521137 -0.2474129 0.061688207 -0.130821 -0.05512912 -0.3816891
0.08006554 0.2216981 -0.5405927 -0.4279364 0.18326287 -0.015969522 0.13762616 0.07268729
-0.1966857 0.3116625 0.26855695 -0.17069428 -0.32747063 0.39060742 -0.24340358 -0.16925755
0.1014991 0.20340127 -0.3188689 -0.14526197 -0.37472197 -0.06987383 0.2146104 -0.087337665
0.18150435 -0.044149846 -0.15703507 -0.048865024 0.35842395 0.56439406 0.08075872 0.20687132
-0.55437034 0.41001976 -0.5085722 0.5018876 -0.13611478 0.1851642 0.040199786 -0.26229572
-0.0684391 -0.07958805 0.22873373 0.0021194809 -0.10604263 0.110397756 0.16573822 0.120609865
0.14528471 -0.4819783 -0.030403249 -0.018357227 -0.18878832 0.10547512 -0.24518342 -0.056419887

network_body._body_endoder.seq_layers.2.bias f4 [128]
00000000: 7e50 5ebc 978e 0a3c 3122 3ebd 34d1 f03c
00000010: 0d7c f7bc 6c1a 4cbc 296c 0f3c 2ecc 283c
00000020: e525 f63c 86cb cb39 4273 7d3c 62ae f53b
00000030: e2d6 b53b 6930 1f3d 95f3 ae3c 2eba 80bc
00000040: e42d 193d 7250 c83c c4a7 b53c c791 eb3c
00000050: 1d82 233d a520 6abc 541b 9e3c 4c8d 95bc
00000060: 0baa 833c cb5d 86bc ab5f 44bc de21 11bc
00000070: a07e 73bc 5273 693c 6d6a 7d3c e0fe fcbc
00000080: 1378 b53c d7f9 e43c 5fe3 c2bc bfc9 283c
00000090: 508b 643d 2ad6 c93c 6abb 773c c874 5dbd
000000a0: 1cc8 78bd 4438 97bc 77c8 a73c 9ffd e9bc
000000b0: afdd 943d 2935 433c e6f3 0a3d f41b 5e3d
000000c0: 4bbd 253d 0e33 0cbd c24c e63c 6a18 e23c
000000d0: a610 d5bc 7004 023d b6b8 843c 71d6 e7bc
000000e0: efcb 6d3d 9251 d33c 0a7b 12bd 6a24 113c
000000f0: 5d2f a1bc 3265 643b 828d eb3c e4b3 ae3c
00000100: 278d 3ebc d4c1 e63a 2824 b73c fd74 13bc
00000110: 5eed 24bb bd51 f3bc 1615 9fbc 3a3d 6fba
00000120: e4c8 043c 30e7 edbc 0d0c fb3c 7b53 f43b
00000130: bb8e 2abc 871b 01bd 7621 963c 1033 113d
00000140: 009e 463b 8b69 4c3d 0ad8 253c d15f 23bd
00000150: aeb5 8bbc b6ef 1f3d 73fc 7fbd d7cf 503d
00000160: b635 13bb 961c ecbc 030c acbc d336 2fbc
00000170: 4b57 54bc 6d4c 203d f67f cc3c bf3d d5bb
00000180: 9e02 d0bb e551 9fbb bb47 563d 13f3 3b3d
00000190: f6df a2bc 533a 36bd 2f82 a03d f62e 853c
000001a0: 965a 263d df23 b8bc 1c15 e2bc 8016 9cb6
000001b0: 51b4 2cbd ab45 093c ab01 56bd 7221 6c3b
000001c0: ceb0 4cba d8e7 323c 6f85 503d c27f 2fbd
000001d0: 0d01 30bd a11b a0bc 3d46 0d3a 4fbc 20bd
000001e0: 8ae9 18bd 7a73 cabc 22e7 c7bb ac33 40bc
000001f0: 1365 d53c 57af 613c d2eb 283d f505 bdbc
-0.0135689955 0.008456848 -0.046419326 0.02939663 -0.03021052 -0.012457471 0.008753815 0.0103025865
0.030047366 0.00038870814 0.015469374 0.0074975947 0.0055492977 0.038864527 0.021356383 -0.015713777
0.03739728 0.024452422 0.022174723 0.028756035 0.039919008 -0.01429001 0.01930014 -0.018255852
0.016072294 -0.016402146 -0.0119857 -0.008858172 -0.014861733 0.014248686 0.015467268 -0.030883253
0.022151982 0.027951164 -0.02379006 0.010302006 0.05579692 0.024638254 0.015120367 -0.05406645
-0.060737714 -0.018459447 0.020481331 -0.028563319 0.07268845 0.01191453 0.033924006 0.054225877
0.040463727 -0.034228377 0.028112773 0.027599532 -0.026008915 0.031742513 0.016201358 -0.028300496
0.058055814 0.025795732 -0.03576187 0.008858779 -0.019675905 0.0034850356 0.028754 0.021326013
-0.011630333 0.0017605373 0.022356108 -0.00900006 -0.0025165896 -0.029702062 -0.019419234 -0.000912625
0.008104537 -0.029040903 0.030645395 0.0074562407 -0.010410006 -0.031520393 0.018326502 0.035449088
0.0030306578 0.04990534 0.0101223085 -0.0398863 -0.017054405 0.039046966 -0.062496614 0.05097946
-0.0022462434 -0.028822225 -0.021001821 -0.010694223 -0.012960265 0.039135385 0.02496336 -0.006507605
-0.0063479682 -0.0048620575 0.0523145 0.04588611 -0.019882184 -0.044489216 0.078373305 0.016257744
0.040613733 -0.022478042 -0.027597956 -4.6517816e-06 -0.04216415 0.008378427 -0.052247684 0.0036030677
-0.00078083284 0.010919534 0.050908502 -0.04284645 -0.042969752 -0.019544424 0.00053891895 -0.039242085
-0.037332095 -0.024713267 -0.006100551 -0.01173107 0.026049173 0.013774714 0.04124052 -0.02307413

network_body._body_endoder.seq_layers.2.weight f4 [128, 128]
00000000: b422 053e 1a89 603d fa96 b4bc 26d9 d03c
00000010: 177f 563e 8f56 323c 87d9 bd3c 91a6 ddbb
00000020: 59d3 c13c 8b7f fe3d 00c5 7e3b 989c 923c
00000030: 149d 95bd 9962 00bc a516 9bbd 3df2 0e3d
00000040: 8eae 073e a43d 713d 38d8 07be af7f ce3d
00000050: 27de 483d b7ca 3fbd f83f 703c 4ed5 dbbc
00000060: 1e4e 7c3d 4f12 863d 4fd5 c8bc 2d20 2a3d
00000070: bfd1 aa3d 265f 60bc f84d 80bc f1dd 06bd
00000080: d7d7 3abd e673 753d af4e 0f3d 213c 943d
00000090: 24a5 39be 234e 67be e67c fabd 84ad 14bd
000000a0: 7b8a 343c 301c b33d 10e2 8c3b e2e5 32bc
000000b0: 82d5 953c ae9a 02bd b1ec 3cbc b9d1 2fbd
000000c0: cc10 a1be e16f 34bd d825 c73d ae2e 433e
000000d0: 9ecd 17bd 2d2f 84bc 4122 35bd 2fc4 c0bd
000000e0: 6614 f5bd 0e07 ebbc 7ea3 94bd 2978 f73d
000000f0: c3e7 cf3d a3a7 0abe bb33 e63c a663 c6bd
00000100: aa12 07bd 118e 733d 73e1 adbc 4647 813d
00000110: 99bd 91bd d017 25bd 0bf6 503c 3959 a4bd
00000120: 452a c03d 491e 7a3d 0452 b7bd 30e3 e23c
00000130: bf62 66be d03a e83c 8d37 f5bc 3bb4 9f3d
00000140: 7fa7 3bbd 0bac bbbc 14f4 c5bc f652 8d3d
00000150: 0f53 d13b ca8e fe3d b7d4 9cbd 39c6 fdbd
00000160: 3725 df3c 0dfa 143c 3437 263e 95a8 c5bc
00000170: e6ac 4c3d b812 663d c741 9c3d 1afc be3d
00000180: 2692 efbd cd0f f73d 3d20 613c 56b4 a73d
00000190: a1ab b8bd bb05 8f3a 97af f3bd 24c7 ae3d
000001a0: f2c7 efbc ae12 1fbe cb6f 67bd 7b71 453d
000001b0: b6ee d8bd ddec 443d c947 06bd 3b0a c7bc
000001c0: c3ab 763c 7a5e 093d 22d8 c93d 6dee 3fbd
000001d0: e6a0 983c d4de 5b3c ae88 c83d 7536 743d
000001e0: e428 533c 664e 393d 5307 b33d d213 2abe
000001f0: 77ab 823d 3233 46bd 88b1 39bd f648 bf3c
00000200: d499 ac3b cabf 26bd 2e8c 82bc 977b 3ebe
00000210: ba14 babc d085 e73c 6a4b 84bd 2f9e 9b3b
00000220: b20a 5d3b f14c 6d3d b68e 0f3d 3f6e 523d
00000230: a84c e6bd c2a8 823c b040 683d 4ab9 a03d
00000240: 7eb6 95bc 3e0c ac3b f395 9f3d 858d d63c
00000250: 86ad 383d 6d4b 08bd d478 45bd 5ea5 033b
00000260: 56a1 80bd a2fb df3d 2774 df3d 2cab 4abb
00000270: 34fd 58bc 657c 503d 26c3 50bd 76da 70be
00000280: 630c 273d 4453 f23c d26b 31bd f201 9abd
00000290: be55 b3bb 5dc2 443a a8de e03d 16bf 9a3d
000002a0: a7d6 5cbd 5cec 72bd 6b25 0a3e 84dc 223d
000002b0: 031e d9bc 270e 90be 7085 713c a79e 24bd
000002c0: 5e08 49bc a47d b8bc 2585 8a3d 1f59 c9bc
000002d0: 895a f73d 8251 db3c 8072 4abc 3372 44bd
000002e0: bc13 13be a7b2 72bd 76e5 d73d 6e09 1c3e
000002f0: 4bc6 fe3d c2a3 823d 3c88 d03d d0c6 4abd
00000300: fd4b 0c3e d20b 913d f9fb 0dbd c15a b23d
00000310: 125e 07be eafa a53d 4b90 3abc 2870 66bd
00000320: 74e6 4e3d a8ef 8dbc fdab 15be 1463 a8bc
00000330: b826 3d3d 294b 3ebe a7b4 7cbb 305e 9f3d
00000340: 014a b3bd dfc7 b7bd 3438 debc c2a0 c13d
00000350: c855 c0bd 6562 11be 2404 e2bd a1c9 633c
00000360: 000f d63d d149 1dbe a48c 093d 977c 03bd
00000370: 40b2 c5bd 0313 4ebc 397f 163e 6045 943d
00000380: 5364 7f3d a91a 83bd c337 08be e861 18be
00000390: a4e7 f5bc 6fb6 a4bd c05f 07bd d9d6 b63c
000003a0: 7255 94bd 303e 163d 49b7 edbd 0f83 9abd
000003b0: d461 bebc a6b6 bd3d 7037 b03c b0e4 e7bd
000003c0: feb0 06be 8ad6 da3c c104 413e 47af eebc
000003d0: 1447 babd cf0d 9d3d 2139 e4ba 286e b4bc
000003e0: 36b7 51bd aaf9 063c d22a 593d 3bad eebc
000003f0: d087 ad3d 12f8 933d 8b26 28bc ffb8 4b3c
0.1300152 0.05481825 -0.022044647 0.02549417 0.20946918 0.010884895 0.023175014 -0.006764241
0.023660349 0.12426671 0.0038874745 0.017896935 -0.07305351 -0.0078360075 -0.075726785 0.034898985
0.13250181 0.058896676 -0.13266075 0.100829475 0.049039986 -0.046824183 0.014663689 -0.02683511
0.061597936 0.06546461 -0.024515776 0.04153459 0.08340787 -0.01369456 -0.015662178 -0.032926504
-0.045615997 0.059924982 0.034987148 0.07238031 -0.18129402 -0.225884 -0.12230854 -0.03629829
0.011019344 0.08745611 0.0042994097 -0.010919066 0.018290285 -0.031885795 -0.011531041 -0.042924616
-0.31458127 -0.04405201 0.09724015 0.19060776 -0.037061326 -0.016135776 -0.04422212 -0.09412419
-0.11966781 -0.028689887 -0.07257746 0.120834656 0.10151627 -0.13540511 0.028100839 -0.09686975
-0.032976784 0.059461657 -0.021225667 0.063124225 -0.07116241 -0.040305912 0.012753974 -0.0802483
0.09383062 0.06106404 -0.0895119 0.027696222 -0.22498606 0.028348356 -0.029933715 0.07798048
-0.045814034 -0.022909185 -0.024164237 0.06900589 0.006388075 0.124295786 -0.0765776 -0.123913236
0.027239425 0.00909282 0.16231996 -0.024128238 0.049969576 0.056170195 0.076297335 0.09325428
-0.116977975 0.12063561 0.013740596 0.08188693 -0.090171106 0.0010911742 -0.118987255 0.08534077
-0.029270146 -0.1553447 -0.0565031 0.048203927 -0.105924055 0.048077453 -0.032783303 -0.02429687
0.0150556 0.033537365 0.09855677 -0.04685824 0.01863141 0.013419826 0.097916946 0.059622247
0.012888167 0.045240782 0.08741631 -0.16609123 0.063803606 -0.048388667 -0.045335323 0.02335022
0.005267361 -0.040710248 -0.015935984 -0.18601833 -0.022714961 0.028262049 -0.064596966 0.0047490816
0.0033728299 0.057934705 0.03504821 0.05137467 -0.1124509 0.01594961 0.056702316 0.07847841
-0.018275496 0.005250483 0.077922724 0.026190529 0.04508736 -0.033275057 -0.048210934 0.002008758
-0.062807724 0.10936667 0.10910826 -0.003092478 -0.013243962 0.050899882 -0.050967358 -0.23520836
0.040783297 0.02958072 -0.043315716 -0.07519902 -0.0054728677 0.0007505769 0.10979968 0.07555978
-0.053915646 -0.05930744 0.13490836 0.03976108 -0.026503569 -0.28135797 0.014741287 -0.040190365
-0.012270061 -0.022520848 0.067636766 -0.024578629 0.12077815 0.026772264 -0.0123564005 -0.04796047
-0.14362997 -0.059252407 0.10541813 0.15237972 0.12440165 0.063788906 0.10182235 -0.04950601
0.13700862 0.07082333 -0.034664128 0.08708716 -0.13219479 0.08104499 -0.011386941 -0.056259304
0.050512746 -0.017326191 -0.1461639 -0.020555057 0.046179503 -0.18583359 -0.0038559826 0.07781637
-0.087543495 -0.08973669 -0.02712641 0.0945449 -0.093913615 -0.14197691 -0.11035946 0.013903053
0.1045208 -0.1536019 0.03358139 -0.03210124 -0.09653139 -0.012577775 0.14696969 0.07239795
0.062351536 -0.064015694 -0.13302521 -0.14881098 -0.030017681 -0.08042609 -0.0330503 0.022319244
-0.0724286 0.0366804 -0.116072245 -0.07544529 -0.023240007 0.09263353 0.02151081 -0.113229156
-0.13153455 0.026713628 0.1884947 -0.029136313 -0.09095588 0.076686494 -0.0017412045 -0.022025183
-0.051200114 0.0082382355 0.053019352 -0.029135337 0.0847317 0.0722505 -0.010263096 0.012434243
