results/CubeAgentJumper1/CubeAgentRay/CubeAgentRay-2787.onnx (onnx, 80046 bytes, 8 tensors)

action_model._continuous_distribution.log_sigma f4 [1, 2]
00000000: 6b17 113c 6965 11bc
0.008855681 -0.008874276

action_model._continuous_distribution.mu.bias f4 [2]
00000000: d28e e53a 360c 1d3c
0.0017513877 0.009585431

action_model._continuous_distribution.mu.weight f4 [2, 128]
00000000: d3ee 913c 01d5 00bd 83de d63b 0466 91bb
00000010: c23e 8c3b 23d2 673c 6242 baba b06d ce3c
00000020: 073b e83c c1cc e03b e053 943c 5436 c0bc
00000030: fb69 85bc 3b3a 36b9 7be1 ac3c 50ca 443b
00000040: 3ae3 d43c 4b6a 98ba b5a9 90bb 5534 013b
00000050: 5eb6 573b bf59 8dbb 3445 f2bc f8e0 073c
00000060: 93fe 05bb 6d2a 93bc 0973 dd3c 1379 08bb
00000070: 7f62 63bb fe54 2ebc 0fbb 44bc 7166 833b
00000080: 97a6 f439 c62b 4bbc 0a2b dcbb d3b2 a8bc
00000090: 6365 103d 5403 afbb c2d3 8a3b 58f4 b6ba
000000a0: 907e 1ebc 78f9 3d3c eec4 d93a d6f3 dbbb
000000b0: f52e 37bc 8adc b13c 15f7 a73c 9158 17bb
000000c0: b51d 20bc 5469 bebc 9682 513b 994e 8ebb
000000d0: 19bb 3cbc ddc1 5fbc acf7 eebc 57b3 17ba
000000e0: 3913 563c a8c9 a5bc 0da3 c03c caef 64bb
000000f0: 99f0 f93a eddb 913c 89c3 073c 4a38 21bc
00000100: 5449 283c 1e35 45bc 34e5 963b 0f7c c2bb
00000110: c6d7 f03c 84c8 1e3c dacb 7fbc 455b d3ba
00000120: 4312 953c edf6 b4bc 3a2a 2a3d 4f66 803b
00000130: 8e7f b4bb 71ad 16bd 2bee 24bc b250 6dbc
00000140: fc71 87ba 5799 6bbc 74c3 153c bc00 08bd
00000150: b106 603c 4c0e 48bb 49aa 953b 8ff1 883b
00000160: 62f5 243c 3b88 c7b9 9f96 8c3b 8965 523c
00000170: fb22 cdbb 6ee4 2b3d 969e 0ebc 435d 1b3d
00000180: 709f fb3b 7806 3fbc 30b9 a33b 4db7 603c
00000190: d64a 9c3c f1e8 91bc a47a 13bc db8e 59bc
000001a0: 2f8a e33c 8cfa 6f3c 97d3 e5bb e827 87bb
000001b0: 3678 8ebc 5b7a e3bb a483 81bc 00ad 3ebc
000001c0: 13dc c8bc f25a 7c3c d6b8 043d 1cc4 37bc
000001d0: 04f9 0dbc c44a be3c b665 a3bc cce0 b03b
000001e0: bfe6 663c a7c9 6c3c 828e 42bc 9af3 cfbb
000001f0: dfe3 1d3b 65e9 463c 2420 05bc 022a 52bb
00000200: d408 1d3c c3ac 453c 5392 a43b 8a25 adbc
00000210: 9943 3cbc b529 cb3b 7165 163d 832b e63c
00000220: 4f93 82bc cf4f 793b fe7c 6b3c 4d8c bcbc
00000230: fa58 0dbd 59fc dfbc c8ff b8bb 5188 93bb
00000240: b755 0c3d 9826 b0ba be3d 5c3b 2bc6 143d
00000250: 8519 df3c 6c8d 21bd c4d8 253d 164c 36bc
00000260: 1122 bd3b 5a25 1cba bdce 49bc f497 543d
00000270: 6a21 a43b 8afe 8ebc 877c b13c 44d0 b23a
00000280: 3567 4bbb 0b2b 4bbc da03 993c 0441 3e3a
00000290: 53b1 02bc 26b6 2b3d edc8 85bb 3278 883c
000002a0: 2378 55bd b55b 6d3c c300 baba f000 823c
000002b0: 5de5 2f3c d5bf c83c aec3 c2bc 90e8 daba
000002c0: 4853 a2bc 7477 81bc c923 633b 5473 03bc
000002d0: edc0 a33a d545 1c3c 9efb debc ec9c ba3b
000002e0: e90c dfbb 357f 433c 3c2d 9cbb 509e 21bc
000002f0: ac96 6ebb 799e 7f3c ba79 7d3c 1a9f fd39
00000300: d013 debc 166a 04bb 6478 0ebc 686b a33c
00000310: 5413 6b3c 97c5 4e3d 37d1 b23c 26ef b6bc
00000320: f9b6 863c 2933 aabb 9b4e a43c c0cb 19bb
00000330: 18a2 003d 9c0a 5bbc c145 9fbc 8058 b4ba
00000340: 1743 a7bc f1d4 143c c09e a039 6949 ce3c
00000350: 6b3e 8ebc d834 963b 6a6c 7e3c ded2 803c
00000360: a33b 173d 784d 733c b475 92bc f4b6 b2bc
00000370: f124 ccbb 0c5d 6b3c 370d 8d3b fafd f1bb
00000380: 9555 3abd 3b07 83bc 46c2 463c 8f8a 0ebd
00000390: 03b1 69bd 49a9 943a 9476 12ba 7e70 9cbc
000003a0: add2 dfbc 5b7d dabc e3fd f23b beae 813c
000003b0: f014 4b3c ff9a 9c3c 0e76 4e3c cd6d 76bb
000003c0: 0e92 5cbc 10c1 613c 101e 07bd c77f 313c
000003d0: a5e4 b13a e5ee 71bc 696e 563b 2353 ad3c
000003e0: eaee bc3c c074 7abc 62ff 533d 44f9 743c
000003f0: 7482 2d3a f22d 4bbd ceda 6d3b fa19 953b
0.017814076 -0.031453136 0.006557287 -0.00443721 0.0042799423 0.014149222 -0.0014210457 0.025198787
0.028348459 0.006860346 0.018106401 -0.023463406 -0.016285887 -0.00017378565 0.021103611 0.0030027814
0.025987256 -0.0011628357 -0.004414762 0.001971503 0.0032915096 -0.004313677 -0.029574014 0.008293383
-0.0020445928 -0.017964566 0.027032392 -0.002082412 -0.003469616 -0.010640381 -0.012007489 0.0040100147
0.00046663426 -0.012400573 -0.006718998 -0.020593083 0.03525294 -0.005340973 0.0042366693 -0.0013958318
-0.00967373 0.0115951225 0.0016614476 -0.006712417 -0.011180629 0.021711607 0.02050356 -0.0023093561
-0.009772708 -0.023243584 0.0031968704 -0.0043428657 -0.011519217 -0.01365706 -0.029170834 -0.00057869166
0.0130661065 -0.020237759 0.023515249 -0.0034932964 0.0019068896 0.017805064 0.008286365 -0.0098400805
0.010271389 -0.01203659 0.00460496 -0.005935199 0.029399764 0.009691361 -0.015612567 -0.0016125223
0.018197184 -0.0220904 0.041544177 0.003918446 -0.0055083698 -0.0367865 -0.010066549 -0.014484571
-0.0010333653 -0.014379821 0.009140838 -0.033203825 0.01367347 -0.00305261 0.0045674187 0.0041791867
0.010068269 -0.00038057737 0.0042904164 0.012841591 -0.0062602735 0.041965894 -0.008704802 0.03793074
0.0076789185 -0.011659257 0.0049964413 0.013715577 0.019078653 -0.01781127 -0.009001408 -0.013278688
0.027775852 0.014647137 -0.007013749 -0.0041246302 -0.017391305 -0.006942076 -0.015809841 -0.011637926
-0.024519002 0.015402542 0.032402836 -0.01121619 -0.008665327 0.02322901 -0.01994596 0.0053978916
0.0140931 0.014452375 -0.011874797 -0.0063461782 0.002409212 0.0121406065 -0.008125339 -0.0032068496
0.009584624 0.012065115 0.005022326 -0.021136064 -0.011490726 0.00620004 0.036717836 0.02809692
-0.015939383 0.0038041954 0.014373062 -0.02301612 -0.034508683 -0.027342008 -0.005645726 -0.004502334
0.03426143 -0.0013439236 0.0033606137 0.0363218 0.027233848 -0.03944151 0.040489927 -0.011126539
0.0057718833 -0.00059564936 -0.012317357 0.051902726 0.005008866 -0.017455358 0.021665825 0.001364239
-0.0031036858 -0.012400399 0.018678594 0.0007257613 -0.007976848 0.041921757 -0.00408279 0.016658876
-0.052116524 0.014487197 -0.0014190901 0.015869588 0.010735837 0.024505535 -0.023774948 -0.0016701389
-0.019815102 -0.01580403 0.003465878 -0.008023102 0.001249341 0.009538134 -0.02721959 0.005694976
-0.006806959 0.011932184 -0.0047661345 -0.009864405 -0.0036405725 0.015601748 0.015470916 0.0004837446
-0.027109057 -0.0020204834 -0.008695696 0.019948676 0.01434787 0.050481405 0.021828277 -0.022330832
0.01644467 -0.005194087 0.020057013 -0.0023467392 0.031404585 -0.013369229 -0.019442441 -0.0013759285
-0.020417733 0.009083972 0.00030635856 0.025181489 -0.017363748 0.004583936 0.015528778 0.01572555
0.03692211 0.014850013 -0.01787839 -0.021815754 -0.0062299897 0.014365446 0.004304554 -0.0073850127
-0.045491774 -0.015994659 0.012131279 -0.03480011 -0.057053577 0.0011341955 -0.00055871275 -0.01909661
-0.027322138 -0.026671102 0.0074155196 0.015830394 0.012395129 0.019116877 0.012601389 -0.0037602067
-0.0134625565 0.01377894 -0.032987654 0.010833687 0.001357217 -0.01476643 0.0032719618 0.021157807
0.023063142 -0.015286624 0.051757224 0.014952008 0.00066188653 -0.049604364 0.0036293748 0.004550216

action_model._discrete_distribution.branches.0.weight f4 [1, 128]
00000000: 0b5f 153c 95f1 12bc 64ea 963b 57c6 8cbb
00000010: 3978 1fbc 0b11 cc3b a4f4 1bbc 9d20 3cbc
00000020: dd0a a03a 53ad 10bc 8ad5 07bc eaa1 6f3b
00000030: 27cb fabb 6cef 8e3b 3c6c bdbb 100e 44bc
00000040: 9654 85bb cc14 92bb 217d 0f3b 537b 373c
00000050: 5ba5 cabb 329f 0ebb 5ded afbb 92f5 743b
00000060: a081 513c 8236 ddbb a3d6 1aba 4274 59bb
00000070: 11c7 923a d540 923b d3e8 313b b718 cdba
00000080: dbde 5abb 2507 9dba 9bf5 81bb 5f31 bbbb
00000090: 55d4 fdbb f2b6 29bc 357f 523c 9f0d 20bc
000000a0: b750 0f3b 7398 193c 6d05 7fbb 4503 0a3c
000000b0: cb1c 32bc 6b78 4dbc 3a24 093c a179 0f3c
000000c0: 91e9 0cbc db4f eebb 7079 483a 683d ee3a
000000d0: 721e 69bb b19c 883b c780 803c 38b8 af3b
000000e0: efef 99bc 0d19 753b 47d6 20bc 27ee d73b
000000f0: 58c8 153b c9c7 c33c 997f 0cbc eb6a 683c
00000100: cb29 223c 1dab 4fba 351a 7bbc 5a0c 5fbc
00000110: cbb1 8b3b c712 69bb 6db8 db3b ddad d9bb
00000120: 7774 78bb 965b 8d3b cfb6 7f3b 2b51 ebba
00000130: 7fa3 173c 8482 38bc cb59 bf3a 055b 043b
00000140: b960 8fba b4d2 073c daaa f83b bb5f 553b
00000150: 17c2 393c 8317 75ba 071f 7fbc eada 48bc
00000160: a84b 83b9 427a 0cbc 0bfc 3c3b dc88 303c
00000170: 490e 803c a096 583c 4891 a4bc eff8 383c
00000180: a5e2 d0bb a7b6 e139 0b09 61bc b5ec 403c
00000190: f05e dd3b 6831 7abc 9d27 8a3b 45d5 82bb
000001a0: ba84 66bb 43b1 9e3b 677c 023c 16ea a83c
000001b0: c0b4 cd38 71d8 46bc 5543 13bc f2e2 fe3b
000001c0: 67a2 59bc 10b5 ce3b ed5a 8bbc d0da e13b
000001d0: b558 7a3b 3b65 31bc af91 79bb 7ce1 c93b
000001e0: 7724 22bc edfd bfba 47e6 ffbb debf 133b
000001f0: 288f 083b 78d2 11bc 971c 7ebc dd78 fc3b
0.009116898 -0.00896873 0.0046055783 -0.004296105 -0.009733253 0.0062276176 -0.009518776 -0.011482385
0.0012210269 -0.008830386 -0.008290658 0.0036565014 -0.007653612 0.0043620374 -0.005780725 -0.011966243
-0.0040689213 -0.0044580456 0.002189465 0.011198836 -0.0061842627 -0.0021762368 -0.005368872 0.0037377817
0.012787253 -0.0067508826 -0.0005906617 -0.0033180867 0.0011198242 0.004463295 0.002714683 -0.0015647624
-0.0033396992 -0.0011980279 -0.003966046 -0.0057126726 -0.007746259 -0.010358559 0.012847711 -0.0097688725
0.0021868178 0.009374726 -0.0038913146 0.008423631 -0.010871123 -0.012540917 0.0083704535 0.008757026
-0.008600608 -0.007272703 0.000764749 0.001817626 -0.0035571125 0.0041690697 0.015686406 0.0053625368
-0.018791167 0.0037398965 -0.009816713 0.0065896693 0.002285501 0.023898976 -0.0085753435 0.0141856475
0.0098976595 -0.0007921921 -0.015326072 -0.013613785 0.004263138 -0.003556417 0.006705335 -0.0066430406
-0.0037911215 0.0043138964 0.0039018875 -0.0017953267 0.009255289 -0.011261586 0.0014598904 0.0020195853
-0.001093886 0.008289982 0.0075887265 0.003255828 0.0113377785 -0.0009349512 -0.015571362 -0.012259224
-0.00025042635 -0.00857407 0.0028836753 0.010774817 0.015631812 0.013219506 -0.020088807 0.011289819
-0.0063746744 0.0004305143 -0.013735066 0.011775185 0.006755702 -0.015270568 0.004216148 -0.003992709
-0.0035174326 0.0048429086 0.00796423 0.020619433 9.808829e-05 -0.012136565 -0.008988221 0.007778519
-0.013283349 0.0063082054 -0.01701113 0.0068925396 0.0038199846 -0.010827358 -0.003808122 0.006160913
-0.009896389 -0.0014647819 -0.0078094336 0.0022544782 0.002083728 -0.008900277 -0.015509746 0.0077048377

network_body._body_endoder.seq_layers.0.bias f4 [128]
00000000: a2fb fc3b b864 d339 0c50 033c 8b17 03bc
00000010: 9f0b 9abc 467a 523c a9e3 1739 8d0c 513b
00000020: efe7 363c c9bf 07bc b03e 16ba 85b1 9dbb
00000030: 08a5 d4ba 6da7 b43b 9c66 41ba 0360 013c
00000040: ee4b 95bb 18b4 373b 3c0f 21bc 6c9f b8bb
00000050: 74e8 1b3b ea23 50bb f5c9 683a 3ec7 90bb
00000060: a738 f4ba 100e 883c 645b 02bb 96e6 9639
00000070: 5e87 15bc ecbc 7abb b695 07bc 845c 6e3c
00000080: ac67 c3ba 7dba 1cbb 52f5 c73b e57b 11bc
00000090: 003a a9bb 12f9 61bc 9a4a a33b 5918 683c
000000a0: 1762 4bbb 24df 53bb 6eb3 ccbb 7fa3 2e3b
000000b0: 819e 5438 817a cd38 9e0c 373c bdb3 d83b
000000c0: bf63 20bb aff6 733a 3a4b b6bb ace6 99bb
000000d0: 343e 4cbb 972d 443a 8e92 4c3c 0085 8ebc
000000e0: 2b20 6bb9 e3e6 553b 26b5 e33b 6e48 6c3b
000000f0: 6e10 dc3b b2b5 59bc 7c00 a63c abf5 fb3b
00000100: 1a8f 55bc 56db 93bc 621b b0ba cde5 0bbc
00000110: 5748 dbbb c4c3 67bc 168b d43b 68b9 32bb
00000120: 1cd2 0ebc 77b9 eebb d250 0cbc 2e42 fcbb
00000130: a322 1db9 a976 093b 5a5a 0e3c b3f9 7c3b
00000140: 0b86 373b 416a 143c 5aa2 c0bb 8964 e4ba
00000150: 65cb aa3b bb0c 05ba 6965 f93b e5c4 31bb
00000160: 7637 483a c2c0 ff3b 664b ddb9 96e6 923b
00000170: 2b05 3dbb aade d138 ff2d dfba ded3 a8bb
00000180: 4308 763a 303d 823b b13c c3bb 45ce 69bb
00000190: 67af 6b3b 8ae0 8d3b 9249 153c 3ed5 99bc
000001a0: d5bb 9a3b 38b0 63ba e06c aeb9 5dc0 1bba
000001b0: ff14 d1bb b3f7 883b f847 c53b 49c1 d53c
000001c0: 5921 1dbb 170d eabb 7f29 93bb 9abd b43a
000001d0: 6c95 0ebc 6f20 31bb bdce 30bb a1ac aeba
000001e0: 428b b43b ee4f d4bb 4976 21bc 6ca8 063b
000001f0: da0a 5f3b 0a2a 2fbc 6a52 0abb d7d4 d0b9
0.0077204267 0.00040320097 0.00801469 -0.008001219 -0.01880437 0.012846535 0.00014485292 0.003189835
0.011163696 -0.008285471 -0.0005731387 -0.0048124217 -0.00162235 0.005513123 -0.0007377656 0.007896426
-0.0045561707 0.0028030928 -0.009830292 -0.005634239 0.0023789676 -0.0031759688 0.00088801916 -0.004418283
-0.0018632606 0.016608268 -0.00198909 0.0002878203 -0.009126512 -0.003825958 -0.00827544 0.014548425
-0.0014908216 -0.0023914867 0.0061022425 -0.008879636 -0.005164385 -0.013792293 0.0049832584 0.014165961
-0.0031033808 -0.0032329047 -0.0062469756 0.0026647744 5.0692357e-05 9.79798e-05 0.011172442 0.0066132233
-0.0024473516 0.0009306473 -0.005563167 -0.0046966877 -0.0031165006 0.00074836 0.012486113 -0.017397404
-0.0002242333 0.003263884 0.006949085 0.0036053914 0.0067158258 -0.013287948 0.020263903 0.007689198
-0.013034606 -0.018048923 -0.0013435895 -0.0085386755 -0.006691973 -0.014145795 0.006486307 -0.0027271155
-0.008717086 -0.0072852927 -0.008564191 -0.007698319 -0.0001498559 0.0020975268 0.008688534 0.003860098
0.002800348 0.009058536 -0.005878729 -0.0017424981 0.005212235 -0.00050754444 0.007610966 -0.0027125415
0.0007637659 0.007804961 -0.0004220858 0.0044830544 -0.0028842192 0.00010007371 -0.0017027258 -0.0051522097
0.00093853864 0.0039745793 -0.0059581627 -0.0035675925 0.0035962702 0.0043297457 0.009111779 -0.01877844
0.0047220984 -0.00086856214 -0.00033268984 -0.0005941445 -0.0063806768 0.0041799187 0.0060205422 0.026093142
-0.0023976176 -0.0071426737 -0.0044910307 0.0013789416 -0.008702617 -0.0027027389 -0.0026978694 -0.0013326594
0.005509765 -0.006479255 -0.009854862 0.0020547165 0.0034033568 -0.010691175 -0.0021106252 -0.0003983143

network_body._body_endoder.seq_layers.0.weight f4 [128, 17]
00000000: d793 d23e 095c 593e 0b9d c83d 521e e33d
00000010: ac30 04be 88f3 91be baac 323e d6d4 6a3e
00000020: 665e cdbe 61fe 0f3e c334 bdbc 2975 1bbe
00000030: a908 263d e184 53bd aada 86be 49e7 a4bd
00000040: e3ec 4a3e 8de9 883e 65ad 5cbc c56b 31be
00000050: 1c4f c63d 1032 213d 8d48 243f 9a4b af3d
00000060: 1a6c 2fbe db94 443e 7a53 ecbd e66d dfbe
00000070: 34d4 49be 5715 1d3e 1319 983d 976d dabc
00000080: 6093 2b3e 8f54 67bd 41a6 aa3d 21f6 f93c
00000090: 3f0f dcbd 677e bc3d 79b1 28bb ca92 5bbe
000000a0: 67f8 313d ad17 19be a054 8b3e 8c4e 6a3e
000000b0: ee80 28be 4cc4 ff3c 4eaf 5b3e 71ae df3d
000000c0: ee02 023e 051d aabe 29c7 f13e 3ee7 bbbe
000000d0: 577d 0f3e 6cd5 e6be e25c b23d 54d9 be3e
000000e0: b316 a2bd dc0b 7e3e c691 903e 8d85 55bd
000000f0: ec81 b83e 2ff5 573e 873a 4fbe f7fc d83c
00000100: cc97 cebe e613 ed3e 60f8 4e3d d60a 15be
00000110: 180e 1b3e 8c7b 58bd b3ed 83be b234 acbe
00000120: 9c1b 913d f94a 0ebe c1ef 74be 0d73 be3e
00000130: a29d fcbe d485 b3be c238 80be 486a 95be
00000140: d29e 193e 65e0 453e 26ea 55bd d387 18be
00000150: 64bb 203e c7f5 c13d 4959 f83e 2812 213e
00000160: ac5f 8ebd a206 f3be 5ee9 a23e 7423 8cbd
00000170: 4e19 613e 23b4 c6bd 5fe7 dabd f69d ac3d
00000180: cdbd 97bd dd84 4cbc b946 87bd 6601 e2bd
00000190: 7817 6fbe baf6 823e 981f 96be 34cc 0dbf
000001a0: 9785 be3d 88be 08be e97e 37bf f022 0fbf
000001b0: e710 f2bc 160d 9c3e 3d34 1bbe 7d59 783d
000001c0: 1f70 9f3e 14ca 9fbc 7bda 873e 078b 97be
000001d0: 9637 c93e 01d8 c7bd f9ac c9bd e47f 79be
000001e0: 55e4 7e3e 067d 273e 282e 99be e10e a7be
000001f0: 2862 193f 0cff 21bd 82cb a63d e626 98be
00000200: 5846 903e 1bc9 b33c 3dff 0c3d 6c47 50be
00000210: 26cb 10be 3c08 7d3e 63b3 9fbc f469 0abe
00000220: c9ef 04bd 3c6e 2f3e 90e2 b03e 24b4 1d3d
00000230: 91ce 99bd 7883 74bd 2dde a33d 5f3f b5bc
00000240: d025 863e 17ff bb3e 9dcb de3e 9237 b7be
00000250: 1a0c 53be 2100 023f d380 72bd b86c ccbe
00000260: b60d b93c cac9 a8be c91c d5bc 546c a3be
00000270: e6a4 84bd f106 f03e af67 6ebe 5cf6 df3d
00000280: aa3a 9d3e c8e4 8e3e a276 84be 256f 9abe
00000290: dfa8 d93e fa7d 20be 9ce0 943e d483 663e
000002a0: 6cb9 87bb a15c 253c 7564 e83d 9095 5abe
000002b0: 0bb6 85be 461e 123f 53c0 2fbe 46a5 373d
000002c0: 08a6 dcbd b9db a1bd dc45 41be 5b62 043d
000002d0: e763 9cbe 623e f33d 125c 663d d573 cebd
000002e0: 753b 003d ab1e 003c bb7c b5bd f698 7cbe
000002f0: b24b 7fbe 5650 5cbb 79f2 88be a777 eb3d
00000300: 5477 773c 9922 6bbd 8927 e83d df2d 073f
00000310: ce7b 05be 3933 86bd 2b3f de3d aead 13be
00000320: 2531 ddbe 6dcc 96bb d5fb a33e e6eb 733e
00000330: 0fe5 c8be 0396 093d 0fa1 25be 98e6 513e
00000340: 83c2 3dbd 7e3f fa3e cd8f 8c3e 6974 8dbd
00000350: c505 33be 1747 62bd 8952 8ebd f034 5d3d
00000360: dc03 b7bd 7e83 1a3e dde8 503e 4d14 173f
00000370: 2bc7 ff3d 1c4f 6c3c 7409 8dbe b95a 123d
00000380: 0394 6f3e 46c7 38bd 01ce 6f3e f4f3 de3e
00000390: 119c 6fbe 9aa5 94be d55a ee3d eeb4 533e
000003a0: 1042 0b3f ed0d 5dbe 2ba4 c23e 9639 e13e
000003b0: fbe2 c93e 78b2 b8be 7c72 88bd 8588 8f3e
000003c0: af27 593d aba7 3bbd c3f7 5cbe 1a7b 3c3e
000003d0: 43d3 5fbe e0c2 a63e 463a 21be 4bb3 263e
000003e0: 4f20 35bc feaa b4bd 3f67 a1be 58a4 1c3e
000003f0: c52b 93be 3219 733e bee4 c63e 0bfe 12be
0.41128418 0.21226515 0.097955786 0.110897675 -0.12909192 -0.28506112 0.17448702 0.22932753
-0.40111083 0.14061882 -0.023096448 -0.15181412 0.040535603 -0.051640395 -0.26338702 -0.08051927
0.19816928 0.26740685 -0.013469075 -0.17326267 0.09683058 0.039354384 0.64173204 0.08559342
-0.17131081 0.19197409 -0.115393594 -0.43638533 -0.19709855 0.15340172 0.074266575 -0.026663585
0.16755438 -0.056477126 0.08332492 0.030512871 -0.107450955 0.09203797 -0.0025740548 -0.21442714
0.043449786 -0.14950438 0.27213 0.22881526 -0.16455433 0.031221531 0.21453592 0.10921944
0.1269643 -0.33225265 0.4722226 -0.3669986 0.14012657 -0.45084703 0.08709122 0.37275183
-0.07914486 0.24809211 0.28236216 -0.052129317 0.36036623 0.21089624 -0.2023717 0.02648781
-0.40350187 0.46304244 0.050529838 -0.14554915 0.15142095 -0.0528522 -0.25767288 -0.33633953
0.07085344 -0.13895787 -0.23919584 0.37197152 -0.49339014 -0.3506304 -0.25043303 -0.2918265
0.15001991 0.19323881 -0.052225254 -0.14895563 0.15696484 0.094707064 0.4850562 0.15729582
-0.06951842 -0.47465998 0.3181867 -0.068427 0.21982309 -0.09702327 -0.10688662 0.08428566
-0.074092485 -0.012482849 -0.06605286 -0.11035423 -0.23348796 0.25578862 -0.2932098 -0.55389714
0.09302824 -0.13353932 -0.71678025 -0.55912685 -0.029549075 0.30478734 -0.15156646 0.060632218
0.3114023 -0.019505538 0.26533875 -0.29598257 0.3930022 -0.09757996 -0.09847445 -0.24365193
0.2489179 0.16356286 -0.29918027 -0.3262854 0.599154 -0.039549872 0.08144285 -0.29717177
0.28178668 0.02194648 0.0344231 -0.20339745 -0.14139995 0.24710172 -0.019494718 -0.1351698
-0.03245524 0.17131895 0.34547853 0.038501874 -0.075101025 -0.05969569 0.08001361 -0.022124944
0.26200724 0.36718056 0.4351472 -0.35784584 -0.20610085 0.50781447 -0.059204888 -0.39926696
0.022589546 -0.32966453 -0.026014702 -0.31918585 -0.064767644 0.46880296 -0.2328174 0.10935661
0.3070882 0.2790892 -0.2587176 -0.30162922 0.4251165 -0.15673056 0.29077613 0.22511226
-0.004141977 0.010092885 0.11347286 -0.21346116 -0.2611545 0.57077444 -0.1716321 0.04483535
-0.107738554 -0.07903237 -0.18874305 0.03232036 -0.3054497 0.11877133 0.05624015 -0.10080687
0.031306703 0.007819812 -0.08861681 -0.24667725 -0.24931219 -0.003361722 -0.26747492 0.11497431
0.015104134 -0.05740604 0.11335666 0.5280437 -0.13035509 -0.06552739 0.10851892 -0.14421722
-0.43201557 -0.004602006 0.3202807 0.23820457 -0.39237258 0.033590328 -0.1617472 0.20498121
-0.04632808 0.48876566 0.2745346 -0.06906969 -0.1748267 -0.055243578 -0.06949336 0.054005563
-0.08936283 0.15089223 0.2040133 0.5901535 0.1248916 0.014423158 -0.27546275 0.03573105
0.23396306 -0.045111917 0.23418428 0.43545496 -0.23399378 -0.29032594 0.116384186 0.20674488
0.5439768 -0.21587344 0.38015875 0.43989247 0.39430985 -0.3607366 -0.06662461 0.28033844
0.05301636 -0.045814198 -0.21578889 0.18406335 -0.21857934 0.32570553 -0.15744886 0.16279332
-0.011055066 -0.08821677 -0.31524083 0.15297067 -0.2874433 0.2374008 0.3884639 -0.14354722

network_body._body_endoder.seq_layers.2.bias f4 [128]
00000000: bc8f afbb 5a2c 1db7 cf42 053b 81fb b2bb
00000010: 99c1 c1bb db37 913b 8539 c93b 24c2 cc3b
00000020: 9eca eeba 365a d5bb 72f0 67bc 2394 02bb
00000030: 0731 b1bb 4b2c 2fbc c80a aabb fe41 423b
00000040: e7bb f63b 7bd1 863a a8e8 90bb f415 513b
00000050: 8988 fe3b dcce 50bc 4021 7b3c 49f3 58bc
00000060: 6201 86bb 338e 61bb c20f bcbb 51ed 173c
00000070: 146f 583c 821f 46bb a432 7c3c c8ef 23b9
00000080: 5229 62bb 51e5 0bbc ce48 293c 7546 7a3c
00000090: c373 9fb9 cf2f 183c 8b70 c1bb a980 d73b
000000a0: 3e95 bcba 4710 2a3c 3546 41bc 1297 963b
000000b0: 3476 303c 989b e43b dd14 88bb 987d d6bb
000000c0: 36da 0bbc 350c c5bb 0083 18bb b4c9 87bb
000000d0: 8f0a 87bb 067c 6c3c e9b3 97b9 e544 28bc
000000e0: 4d77 14bb 823f 5e3b 237c a33c 3151 f8bb
000000f0: 56f3 cebc 037d 533b c131 7b3b 73eb db3b
00000100: 0dcc f6bb 4cef febb 829a 49bc 371f a23b
00000110: 1fed 21bb d9c5 0f3c 4a90 303b 8748 dd3b
00000120: 83cd a43b 4b51 e1bb 9c73 bd3b a612 fdbb
00000130: aa79 063c 6d58 c33a 401c 07bc 3c00 e93a
00000140: b854 10bc f2e4 b03b 3929 9c3a 9018 b53a
00000150: 0000 a0bc 40e4 ee3b afc7 c43b 096b b63b
00000160: 7df6 e93b cd92 b93b 5be3 bebb 627d 58bc
00000170: 9d2b 143a ffe5 a23b 3e14 a0b9 aeee f2ba
00000180: 6ec6 ae3a 5cc5 04bc 90c2 cc3b 567a ebbb
00000190: d4ef 34bc 7145 22bb 122b b9bb 660c e9bb
000001a0: 7160 84bb f5a6 82bc 1881 3e3b 911f 993b
000001b0: d915 283c 391c 533b 472d 1a3c 211b e1ba
000001c0: 1efd cfbb db28 cb3b 44fe 343c 6a74 71b8
000001d0: 55d9 93bb 588f d4bb dc6e 183c b45a 9f3b
000001e0: 0bfc 8b3b 8e29 9dbb 5ed8 863c d9f8 813b
000001f0: 411a 95bb 8f21 03bc 36e9 44ba ab4a dfbb
-0.0053577106 -9.368256e-06 0.002033401 -0.0054621105 -0.005912971 0.0044317073 0.00614089 0.0062487293
-0.0018218344 -0.006510998 -0.014156448 -0.0019924722 -0.005407456 -0.010691713 -0.0051892735 0.0029641385
0.007529724 0.0010285819 -0.004422266 0.0031903954 0.007767741 -0.012744632 0.015327752 -0.013241597
-0.0040895203 -0.0034417033 -0.005739183 0.009272889 0.013210077 -0.0030231182 0.015392933 -0.00015634217
-0.0034509492 -0.00853856 0.010332299 0.015275587 -0.00030413092 0.009288742 -0.0059033087 0.006576617
-0.0014387739 0.010379857 -0.011796524 0.0045956457 0.010770369 0.006976556 -0.0041528777 -0.0065457337
-0.008535912 -0.006013418 -0.0023271441 -0.004143918 -0.0041211317 0.014433866 -0.00028935008 -0.010270332
-0.0022654117 0.0033912365 0.019956654 -0.007578038 -0.025262516 0.0032270558 0.0038329216 0.0067114173
-0.007531649 -0.0077799913 -0.012304904 0.0049475688 -0.0024707986 0.008775198 0.0026941472 0.0067530307
0.0050293817 -0.006876146 0.005781604 -0.0077231703 0.008207718 0.0014903672 -0.008246481 0.0017776559
-0.008809261 0.005398386 0.0011914141 0.0013816524 -0.01953125 0.007290393 0.0060052495 0.005566959
0.0071399794 0.005663252 -0.0058254427 -0.013213487 0.0005652251 0.0049712653 -0.0003053266 -0.0018534267
0.0013334283 -0.008103695 0.0062487796 -0.0071862144 -0.011043508 -0.0024760629 -0.0056508863 -0.0071120737
-0.004039817 -0.015948752 0.0029068645 0.0046729525 0.010259115 0.0032212867 0.009410209 -0.0017174223
-0.0063473126 0.0061999387 0.01104695 -5.7567297e-05 -0.004511992 -0.0064868145 0.009303775 0.0048631076
0.004271989 -0.0047962135 0.016460594 0.0039664325 -0.004550249 -0.008003606 -0.0007511558 -0.006814321

network_body._body_endoder.seq_layers.2.weight f4 [128, 128]
00000000: ab86 8b3d b2aa a9bd f545 9d3d 164d d2bd
00000010: 3bf2 bfbd 16c3 a9bc 29c9 e13c 78ba 9d3a
00000020: b131 1e3e 3e2c febc 3738 5fbe c6e6 323e
00000030: 8465 41bd 85cd f9bc 9316 4fbe f75b 523e
00000040: c01e 0e3e 4c61 42be a1de 923c 3722 05bb
00000050: fcfd 743d a47f e8bc e0eb 08be 14ee 03be
00000060: 973f 4bbc beba e43d 5e3b 38be cb7f a2ba
00000070: 332c 11be aa7f 893d 9f08 163e b0fb efbc
00000080: fe31 48be 1bf6 393e b394 663b 3d3a 943d
00000090: 5dd6 e2bd 8a49 133e 6a25 09be ddef 9b3c
000000a0: 982e 97bc 06d0 273c 0aac 27bd dd87 333d
000000b0: 6bee a73c d2c3 0fbd 3683 c53d 3ad9 4abd
000000c0: 21b3 683c e45d 353d de63 e2bd 10b1 f4bd
000000d0: 0ac7 d2bc 66c4 84bd 0a77 b03d 92a3 95bd
000000e0: 3fa7 393e 2e9a 23bd e2a4 89bc 1347 223d
000000f0: 6b01 9ebd 1926 89bd 7fe1 c13c 67ab 69be
00000100: ea17 e83d df9e 0b3e 4de3 223a 04c5 c23b
00000110: d513 e2bc 2322 bb3d 789e c2bd 8dba ea3d
00000120: 8b07 ebbc 5913 4bbd 7d96 a2bd ce1e bf3d
00000130: 06fb 16be e563 81bd 606a 9c3c 14a1 93bc
00000140: 16e5 12bd a310 b73d ec71 9abd b2a9 cabd
00000150: 014c 8abc 8019 12be 6792 b23d 1e00 d5bc
00000160: 9941 ccbc 7e0e 9d3d 1400 873b 1bc0 5dbc
00000170: af83 d3be 65f4 aebb 8702 433d 0910 a63d
00000180: c92b fcbd 023b 403d 67bd 173d 67a8 eabd
00000190: bcd4 a73c 23a3 0abd af41 c1bb d560 273c
000001a0: c2fc 633c 47c1 f83d c751 c9bc ff0a 3a3d
000001b0: c851 67b8 4b8a d13d c6bc 683d ad36 19bc
000001c0: 010f 7d3d e76a 2e3e b357 6dbd 546a 683d
000001d0: a243 07bd 249c 98bd 6fae 613c 2686 f93d
000001e0: 474e 45bd 9043 23b9 d375 8d3d e67e c0bc
000001f0: 2098 b1ba d590 03bd 6a8d d63d c393 133d
00000200: 948e 8cbd 0b95 563d 07dc d73d 5036 d93c
00000210: 604b 43bd 4548 623e ea15 cd3d 011a 8abd
00000220: fab9 453d b19e 98bd de96 1bbe 1e7a ccbc
00000230: d06f 33bd b5cd 7f3c e2dc 59be 9822 c43d
00000240: dab2 bb3d ec78 c83d 3b57 393b 4c9a acbd
00000250: 162c 463e c218 093d 897e c83c 38d9 ad3d
00000260: 884a f3bd 4ffa d63d 8dc9 b73d c079 1a3d
00000270: 5b88 6abd 9ab2 5e3d 57f9 d43c c657 3a3e
00000280: c874 9abd 638e 953c b5f6 223b 72dc 02bd
00000290: 501b d9bc 199d b8bd 7880 6ebd d06c 8fbd
000002a0: b4d7 143d cb21 f53c 2949 1b3e cf9c 0f3e
000002b0: 21aa 4c3d addf 2d3d e166 873d 93c0 abbd
000002c0: fafb 1a3e 97d3 ae3c ecb8 5fbd 3dd3 043e
000002d0: 1286 583d 06c0 8dbc 7057 46bd 69a7 f43c
000002e0: 3861 af3d 6d5e 16bd 9438 6dbd a54d f6bd
000002f0: 135c a7bd dc98 c3bc f3d8 54bd dae5 bd3d
00000300: ef68 47bd cb30 103e 1aa7 003e fce1 9cbc
00000310: 0168 923d 5152 47bd c8cd d03d ed91 2b3d
00000320: d5ce b23d dd87 c2bd 5bc9 0ebd 7742 143d
00000330: 99a0 d2bd 0c14 eebd 0452 09bd 1123 d0bd
00000340: e073 d9bc 31f5 613d 892c c7bd 4e10 18bd
00000350: 24e2 10bc 919c c3bd e9de 643c 6aaf 1d3e
00000360: 7305 4dba 2353 8f3d 41c0 26bd 181f 753d
00000370: 2a7e f83d ac89 a7bd c186 5e3d 1a01 72bd
00000380: be65 f13c 0903 d23c 43e3 3fbd 503c 6fbd
00000390: f330 b93c 6a9d dbbd c4a8 3f3d 3e82 b43d
000003a0: 63f9 173e 122e 1f3c b728 85bc b25c e33c
000003b0: 3ad2 8b3d 5c5d 60bc 4414 a0bc 78f4 f2bd
000003c0: b5a7 a33d 80e0 1cbc 4187 8bbc 241e 07be
000003d0: 1a1d 503d ed9a a63d f4aa 883d 4082 e53d
000003e0: e03f 873d 5aa7 713b 7905 d33c 1849 33bd
000003f0: 0cb0 103d 483e 89bb 8edb 3e3e 9ab4 b9bc
0.06812795 -0.08284511 0.07679359 -0.10268609 -0.09372374 -0.020722907 0.027561741 0.0012033721
0.15448643 -0.031026956 -0.21798788 0.17470846 -0.047215953 -0.030493507 -0.20223455 0.20542894
0.13878918 -0.18982428 0.017928423 -0.0020314583 0.05981253 -0.028381176 -0.13371229 -0.12883788
-0.012405298 0.11168431 -0.17991397 -0.0012397704 -0.14177017 0.06713803 0.14651726 -0.029294819
-0.1955032 0.18160288 0.0035183846 0.072376706 -0.11076043 0.14383522 -0.13393179 0.019035274
-0.018454835 0.010242468 -0.040935554 0.04383074 0.020499429 -0.03509886 0.09644167 -0.04952357
0.014202864 0.044278994 -0.110542044 -0.119478345 -0.025729675 -0.064827725 0.08616455 -0.07306589
0.18130206 -0.03994196 -0.016802255 0.039618563 -0.07715114 -0.0669672 0.023667095 -0.22819291
0.11332686 0.13634823 0.000621368 0.0059438962 -0.027597347 0.091373704 -0.09502882 0.11461363
-0.02869012 -0.049579 -0.079388596 0.093320474 -0.14744195 -0.063178815 0.019093692 -0.018021144
-0.035863005 0.0893872 -0.0754126 -0.09895648 -0.016881945 -0.1426754 0.0871933 -0.026001032
-0.024933623 0.0766878 0.0041198824 -0.013534571 -0.41311404 -0.0053391927 0.047609832 0.08108527
-0.12313039 0.046931274 0.037045863 -0.114579014 0.020487182 -0.033846986 -0.0058977227 0.010215958
0.013915243 0.1214624 -0.024575127 0.045420643 -5.5150856e-05 0.102314554 0.056820653 -0.009351415
0.061781887 0.17032968 -0.057944965 0.056742027 -0.033023484 -0.074516565 0.013774498 0.1218379
-0.048170354 -0.0001557006 0.06907239 -0.02349801 -0.0013549365 -0.032120544 0.10476191 0.03602959
-0.06863132 0.052388232 0.10540014 0.026515156 -0.047679305 0.22097881 0.100139454 -0.06743241
0.048273064 -0.07452143 -0.1519427 -0.024960574 -0.043807805 0.015613009 -0.21275666 0.09576911
0.091649726 0.09788689 0.0028280753 -0.08427867 0.19352755 0.033470877 0.0244744 0.08488697
-0.1187945 0.10496961 0.0897399 0.037713766 -0.057258945 0.054369546 0.0259978 0.18197545
-0.075418055 0.018256372 0.0024866287 -0.031948514 -0.026502281 -0.09014339 -0.058227986 -0.07003176
0.036338523 0.02992334 0.15164627 0.14024661 0.049966935 0.042449642 0.066114195 -0.0838634
0.15135184 0.021341128 -0.054619715 0.12971206 0.052862234 -0.017303478 -0.04842323 0.029864984
0.08563465 -0.036711145 -0.057915285 -0.12026528 -0.08171859 -0.0238766 -0.05196471 0.09272356
-0.048684057 0.14081113 0.12563744 -0.019150726 0.071487434 -0.048662487 0.101955 0.041887213
0.08730856 -0.0949857 -0.034859996 0.0361962 -0.10284538 -0.116249174 -0.03352548 -0.101629384
-0.026544511 0.055165473 -0.09725291 -0.037124924 -0.008842979 -0.09551347 0.013969162 0.15398946
-0.00078209414 0.06998279 -0.04071069 0.059844106 0.12133439 -0.08180556 0.05432773 -0.05908308
0.02946746 0.025636213 -0.046847593 -0.058407128 0.022606349 -0.10723384 0.046791807 0.08813904
0.14841227 0.009715574 -0.016254766 0.027754162 0.06827207 -0.013694134 -0.019540913 -0.11863035
0.07990972 -0.009575009 -0.017032268 -0.13195091 0.050809003 0.081350185 0.06673232 0.11206484
0.0660398 0.003687343 0.025759446 -0.04377088 0.03532414 -0.0041883327 0.18638441 -0.022669125
