results/CubeAgentZoneRay-View-10/CubeAgentZoneRay/CubeAgentZoneRay-0.pt (torch, 162463 bytes, 13 tensors)

network_body._body_endoder.seq_layers.0.weight f4 [128, 17]
000000 e5 56 64 3d 96 cc 8e bd 56 4a 8f 3e 6d 5a 23 3e
       0.05574693 -0.069726154 0.279864 0.15952463
000010 21 e5 3c 3e 23 51 7b 3e dd 72 b6 3c 03 85 54 3e
       0.1844678 0.2454267 0.022271568 0.20753865
000020 18 74 16 bd cc 58 92 3d ba b7 3e 3e 93 15 86 3e
       -0.03673181 0.07145843 0.18624774 0.26188335
000030 ec 5a 5c bd fa fb 04 bd 06 f0 a0 be 98 10 83 3e
       -0.053797647 -0.032466866 -0.31433123 0.25598598
000040 7d c8 b4 bc 58 29 f0 be 40 76 04 bd 44 10 b3 3e
       -0.022068257 -0.46906543 -0.032339334 0.34973347
000050 07 01 09 be 26 72 cc be 0a 7d 0c bd 59 18 42 3b
       -0.13379298 -0.39930838 -0.034298934 0.0029616563
000060 62 b9 8f bc 60 23 bf 3e 06 aa c8 bd 68 03 0d be
       -0.017544452 0.37331676 -0.097980544 -0.1377083
000070 99 b1 ce bd 6e 4a 1c be 43 ee cd 3d 4e fb 64 bd
       -0.10092468 -0.15262768 0.100552104 -0.055903725
000080 d3 bf 55 be ee e5 84 3e 92 8b 21 3c dc f8 84 3e
       -0.20873956 0.25956672 0.009859936 0.25971115
000090 f6 5f 64 be d0 67 e7 bd 5a c9 a8 3e 02 30 2c be
       -0.22302231 -0.112990975 0.3296612 -0.16815189
0000a0 38 47 01 bf ee dc 0e be 0e 2e 7c 3e 9b db 4a be
       -0.50499296 -0.13951465 0.24626943 -0.19810335
0000b0 ea 4d 0f be ac 67 65 be d4 34 91 be b0 25 c5 be
       -0.13994566 -0.22402829 -0.28360617 -0.38505316
0000c0 8b d3 00 3f 18 df b5 3e f5 8b f4 be 85 3e b7 3e
       0.5032279 0.3552177 -0.4776303 0.35789886
0000d0 fa 5c 78 be b8 19 36 be 04 11 0a be 54 ee 66 3e
       -0.24254218 -0.17783248 -0.13483053 0.22551852
0000e0 9b 8a cf be 5b bc e0 be c4 5c 45 be b0 28 b1 be
       -0.40535435 -0.43893704 -0.19273669 -0.34601355
0000f0 a9 66 81 3e 38 22 d7 be f0 9b a4 3e 7a 71 cd bd
       0.25273636 -0.42018294 0.3215022 -0.100314096
000100 4f 72 9f bd 41 a8 01 3e e5 8c 2a bd 28 7d bc be
       -0.077854745 0.1266184 -0.041638274 -0.36814237
000110 2e 1e a5 3e 5c 24 15 be f4 7e a0 3e 09 17 0d 3e
       0.32249588 -0.14564651 0.31346858 0.13778318
000120 0a fe 77 bc b1 f8 38 bd 59 63 05 bf f5 2f 4b 3d
       -0.015136251 -0.045159046 -0.5210472 0.049606282
000130 ec 27 ec bc 43 82 48 be 4d 5d 9a be 6c 59 b8 3e
       -0.02882763 -0.19580941 -0.30149308 0.36005723
000140 f1 ee ae be 85 23 68 be fb cc 86 be cf a0 7d be
       -0.34166673 -0.226698 -0.26328263 -0.24768375
000150 47 08 c3 3d f8 27 9d be fd 57 a7 3d da d6 06 bd
       0.09523063 -0.30694556 0.08171079 -0.032919742
000160 a6 e1 14 3f ac 64 20 be 13 49 30 3e 4f 61 db 3d
       0.5815681 -0.15663403 0.17215376 0.107119195
000170 59 08 f0 bc 5e 81 8e bd 3a 35 c4 3e 90 83 85 3e
       -0.029300855 -0.069582686 0.3832186 0.26076937
000180 34 44 05 3c 80 32 f7 3d 2d 9c 04 be cb 5c 46 bd
       0.008133937 0.12070179 -0.12950201 -0.048428338
000190 3c 7d 01 be 5d ad f7 3c e1 29 df 3e 4c 41 c5 be
       -0.1264543 0.030234033 0.4358664 -0.3852638
0001a0 1d 91 86 3e 91 d7 1c 3d fc ea 91 be b4 58 31 3e
       0.26282588 0.038291518 -0.2849959 0.17318994
0001b0 8f 2e 6b 3e 14 d5 49 bd f6 0a ad bd f4 2a a3 bd
       0.2296698 -0.049275473 -0.08449356 -0.07967177
0001c0 b1 09 b6 be f9 70 93 3e 22 15 f8 3d 64 dc bf be
       -0.3555427 0.2879713 0.12113406 -0.37472832
0001d0 ae 44 10 bd bd 0f 67 3e 02 3a fa 3d 43 eb 9e 3d
       -0.035221748 0.22564597 0.12218095 0.07759716
0001e0 e3 81 aa bd 4e 0e 96 3e 22 43 9d 3c aa ae cd 3d
       -0.08325555 0.2930779 0.01919705 0.1004308
0001f0 1d b2 a7 be 03 1d ea 3d 4a d3 60 3e 4a 91 3c 3e
       -0.32753077 0.11431315 0.219556 0.18414798
000200 23 f3 61 3d 21 34 05 3e ab e6 c3 3e 0c fe 69 3e
       0.055163514 0.13008167 0.38261923 0.22850817
000210 ba 3a 01 bf 48 83 5d be c7 7c 33 3d 1e 84 09 3e
       -0.50480235 -0.21632111 0.04382017 0.13429305
000220 95 ae 2a be 36 00 14 bd 4e 69 7b be c8 d2 08 3e
       -0.1666816 -0.036133014 -0.2455189 0.13361657
000230 f6 49 be 3e 79 82 77 3d 34 12 b2 3d 5e c0 13 bd
       0.37165803 0.060427163 0.08694878 -0.036072128
000240 e5 13 01 3e 3a b1 e4 3d a4 a4 1b 3e 09 16 7f be
       0.12605245 0.11166616 0.15199524 -0.2491075
000250 d9 af 18 be c5 75 0a bf 62 c1 bd 3c 32 ca 67 3e
       -0.1491083 -0.5408595 0.023163501 0.22635725
000260 f1 31 a1 be bd b1 b5 3d 96 5e 12 be fd 00 c2 3d
       -0.31483415 0.088717915 -0.14293894 0.09472845
000270 13 a6 67 be 26 dd da bc 74 c8 66 3e fb 71 d2 be
       -0.22621946 -0.02671678 0.22537404 -0.41102585
000280 11 3e 3b ba 50 27 63 be ca d5 89 be 24 c8 93 3e
       -0.00071427325 -0.22182965 -0.2692092 0.28863633
000290 ed 38 2a bb 28 f6 1d be f4 cd 37 be f3 64 a4 be
       -0.0025973872 -0.15425932 -0.17949659 -0.32108268
0002a0 0a 9a 49 3e 25 71 a8 bd 8e 57 8f bb b0 3f 23 bd
       0.19687667 -0.082247056 -0.004374451 -0.03985566
0002b0 4b df 0e 3e 69 13 e6 3d d5 03 71 be fc 60 f4 3b
       0.13952367 0.11234171 -0.23536618 0.0074578505
0002c0 c7 5c 20 bd 31 9c 2f 3d 0a 60 98 be 75 15 a7 3b
       -0.03915098 0.042873565 -0.29760772 0.0050989934
0002d0 cd ab e9 3e 03 e1 40 3e 60 16 de 3e 81 d4 44 be
       0.45638886 0.18835835 0.43376446 -0.19221689
0002e0 73 6b 27 be 04 5a 82 3e 48 68 b7 bc 7f 55 1b 3e
       -0.16349582 0.254593 -0.022388592 0.15169333
0002f0 60 a6 51 3c 87 75 09 3e 7f 7c 7d 3e 5b ff 47 be
       0.012796015 0.1342374 0.24754523 -0.19531004
000300 4c 3d 76 3e 49 30 2d 3d 03 cb 8a bd 47 bf 14 be
       0.2404682 0.042282376 -0.06777003 -0.14526092
000310 5f 7f 21 3e c2 f4 62 bd 69 54 4b 3d 65 bb 49 3d
       0.15771244 -0.0554092 0.049641047 0.04925098
000320 80 a1 91 3e 8c 51 03 bd 4d a6 65 bd 4d fa 98 be
       0.28443527 -0.03206019 -0.0560668 -0.29878464
000330 9c 95 46 bf 52 ac 8c 3d 44 8b 9f 3c 8c 68 6d be
       -0.77572036 0.06868805 0.019475587 -0.23184413
000340 a6 3c 90 3d 1a dc 11 be 3a b2 0f 3d 4f 01 67 be
       0.07042818 -0.14244118 0.03508208 -0.22559093
000350 30 64 96 bd 02 60 47 be f8 15 5f be cb 80 e8 3c
       -0.07343328 -0.19470218 -0.21785724 0.028381726
000360 78 bb 9e 3e a6 96 31 3e 82 64 21 be 87 18 be 3d
       0.31002402 0.17342624 -0.15760997 0.09282022
000370 88 cf 05 3c 26 94 29 be d7 d4 33 be 3a 6c e4 bc
       0.008167155 -0.1656042 -0.1756166 -0.027883638
000380 90 48 21 3e 6e 70 99 bd 9d dd b2 3e f1 66 ec 3e
       0.15750337 -0.074921474 0.34934703 0.46172288
000390 38 61 13 be 16 7f f3 3e 03 40 44 bf 2f 9f 47 be
       -0.14392555 0.47557896 -0.76660174 -0.19494317
0003a0 22 3a b2 bd f5 b9 3c 3e f7 77 01 bf 70 9a a2 3e
       -0.08702494 0.18430312 -0.50573677 0.3175845
0003b0 c0 88 36 be 15 84 3d 3e 3b 31 86 3e ef db 30 3d
       -0.17825603 0.18507417 0.26209435 0.043178495
0003c0 71 c8 7b 3d 68 03 9e 3e 46 39 9d 3e db 68 19 bd
       0.061470453 0.30861974 0.3070776 -0.037453514
0003d0 ce b7 a1 be ba fc 9a 3e 80 d1 df 3e 21 1d 15 3d
       -0.31585544 0.3027094 0.43714523 0.036404733
0003e0 b4 d4 d5 3e 9e 24 c5 3c fd c1 66 be f0 01 59 3d
       0.41763842 0.024065312 -0.22534938 0.052980363
0003f0 2d db 77 3e 59 7b 9a bd 04 ab 73 3e af de d3 3c
       0.24204703 -0.07543058 0.23795706 0.02586302

network_body._body_endoder.seq_layers.0.bias f4 [128]
000000 00 00 00 00 00 00 00 00 00 00 00 00 00 00 00 00
       0.0 0.0 0.0 0.0
000010 00 00 00 00 00 00 00 00 00 00 00 00 00 00 00 00
       0.0 0.0 0.0 0.0
000020 00 00 00 00 00 00 00 00 00 00 00 00 00 00 00 00
       0.0 0.0 0.0 0.0
000030 00 00 00 00 00 00 00 00 00 00 00 00 00 00 00 00
       0.0 0.0 0.0 0.0
000040 00 00 00 00 00 00 00 00 00 00 00 00 00 00 00 00
       0.0 0.0 0.0 0.0
000050 00 00 00 00 00 00 00 00 00 00 00 00 00 00 00 00
       0.0 0.0 0.0 0.0
000060 00 00 00 00 00 00 00 00 00 00 00 00 00 00 00 00
       0.0 0.0 0.0 0.0
000070 00 00 00 00 00 00 00 00 00 00 00 00 00 00 00 00
       0.0 0.0 0.0 0.0
000080 00 00 00 00 00 00 00 00 00 00 00 00 00 00 00 00
       0.0 0.0 0.0 0.0
000090 00 00 00 00 00 00 00 00 00 00 00 00 00 00 00 00
       0.0 0.0 0.0 0.0
0000a0 00 00 00 00 00 00 00 00 00 00 00 00 00 00 00 00
       0.0 0.0 0.0 0.0
0000b0 00 00 00 00 00 00 00 00 00 00 00 00 00 00 00 00
       0.0 0.0 0.0 0.0
0000c0 00 00 00 00 00 00 00 00 00 00 00 00 00 00 00 00
       0.0 0.0 0.0 0.0
0000d0 00 00 00 00 00 00 00 00 00 00 00 00 00 00 00 00
       0.0 0.0 0.0 0.0
0000e0 00 00 00 00 00 00 00 00 00 00 00 00 00 00 00 00
       0.0 0.0 0.0 0.0
0000f0 00 00 00 00 00 00 00 00 00 00 00 00 00 00 00 00
       0.0 0.0 0.0 0.0
000100 00 00 00 00 00 00 00 00 00 00 00 00 00 00 00 00
       0.0 0.0 0.0 0.0
000110 00 00 00 00 00 00 00 00 00 00 00 00 00 00 00 00
       0.0 0.0 0.0 0.0
000120 00 00 00 00 00 00 00 00 00 00 00 00 00 00 00 00
       0.0 0.0 0.0 0.0
000130 00 00 00 00 00 00 00 00 00 00 00 00 00 00 00 00
       0.0 0.0 0.0 0.0
000140 00 00 00 00 00 00 00 00 00 00 00 00 00 00 00 00
       0.0 0.0 0.0 0.0
000150 00 00 00 00 00 00 00 00 00 00 00 00 00 00 00 00
       0.0 0.0 0.0 0.0
000160 00 00 00 00 00 00 00 00 00 00 00 00 00 00 00 00
       0.0 0.0 0.0 0.0
000170 00 00 00 00 00 00 00 00 00 00 00 00 00 00 00 00
       0.0 0.0 0.0 0.0
000180 00 00 00 00 00 00 00 00 00 00 00 00 00 00 00 00
       0.0 0.0 0.0 0.0
000190 00 00 00 00 00 00 00 00 00 00 00 00 00 00 00 00
       0.0 0.0 0.0 0.0
0001a0 00 00 00 00 00 00 00 00 00 00 00 00 00 00 00 00
       0.0 0.0 0.0 0.0
0001b0 00 00 00 00 00 00 00 00 00 00 00 00 00 00 00 00
       0.0 0.0 0.0 0.0
0001c0 00 00 00 00 00 00 00 00 00 00 00 00 00 00 00 00
       0.0 0.0 0.0 0.0
0001d0 00 00 00 00 00 00 00 00 00 00 00 00 00 00 00 00
       0.0 0.0 0.0 0.0
0001e0 00 00 00 00 00 00 00 00 00 00 00 00 00 00 00 00
       0.0 0.0 0.0 0.0
0001f0 00 00 00 00 00 00 00 00 00 00 00 00 00 00 00 00
       0.0 0.0 0.0 0.0

network_body._body_endoder.seq_layers.2.weight f4 [128, 128]
000000 c8 62 0f bd e1 a4 9b bd f6 00 0a be d1 e6 10 3d
       -0.035006315 -0.075998075 -0.13476929 0.035376374
000010 14 64 93 bd 53 55 77 bd ab b1 85 3c 49 ee 2d 3d
       -0.07196823 -0.060384106 0.01632007 0.042463575
000020 b0 92 00 3d 7a 92 53 3d 85 6c 4f 3c b5 2e 06 3e
       0.031389892 0.051653363 0.01266015 0.13103755
000030 c7 d8 d8 bd 5b 68 b9 3d d6 bc cd bd 2d 4c 83 bd
       -0.10588222 0.09053107 -0.10045783 -0.06411014
000040 09 8a f4 3d e9 0f 01 3e b8 f2 f1 bd 4e 62 84 bc
       0.119403906 0.12603725 -0.11813873 -0.016160157
000050 df df cd 3d 7a 2f ba 3d 24 99 8d bc a2 91 38 bb
       0.10052466 0.09091087 -0.017284937 -0.0028162976
000060 08 17 b7 bc fb d4 6e 3d 93 06 31 3d 98 4e b2 bb
       -0.02234985 0.058308583 0.04321916 -0.005441498
000070 39 ea ac bb 0a a0 b7 3d 1d e1 d7 bd 71 c4 d9 bd
       -0.005276945 0.08966072 -0.10540984 -0.10633171
000080 17 9a 17 3d 25 f2 08 3d ce 4f c2 3c 4b 0f 1c bd
       0.037012186 0.033434052 0.023719694 -0.038100522
000090 d3 10 29 3d 01 9c 6b 3d 76 5e 15 be 47 3b 27 3e
       0.04127581 0.057521824 -0.14586815 0.16331206
0000a0 87 21 e1 bd 2c a2 50 3c d0 00 63 bd fc 93 e3 bd
       -0.10992723 0.012733977 -0.055420697 -0.1111221
0000b0 50 64 30 bb 8e e2 1a 3d d7 09 b0 3d 45 07 8f bd
       -0.002691526 0.037813716 0.08595627 -0.069838084
0000c0 d7 ba 0e be 0f 43 b6 bd 55 60 db 3d 67 6c f3 bd
       -0.13938461 -0.08899509 0.10711733 -0.118859105
0000d0 a8 3f c6 bd e6 fb ac bb 30 69 38 3c 4e 17 c5 3c
       -0.0968011 -0.005279052 0.011255547 0.024058964
0000e0 9e 2f 6c bd 13 ee 20 bc e2 db 09 be 70 a6 64 3e
       -0.0576626 -0.009822386 -0.13462785 0.22329116
0000f0 15 7d 32 3e cf d3 14 3d 06 69 25 be d4 90 46 be
       0.17430528 0.03633481 -0.16153345 -0.19391185
000100 c7 77 ca bd 49 d8 ef bc 44 6e 2f 3e f8 06 7c 3e
       -0.09886127 -0.029277937 0.17131907 0.24612033
000110 02 bb e2 bd 44 e2 54 bd 9f 3d af 3c c7 9f 5d 3d
       -0.11070825 -0.051973596 0.021391688 0.054107454
000120 af 83 3b bc 18 6d 5b 3e f3 90 8c bc e1 92 63 3c
       -0.01144497 0.21428335 -0.01715896 0.013889999
000130 fd ed 01 be 4c 03 c5 bd fe fd c6 bc d4 94 6b 3c
       -0.12688442 -0.096197695 -0.024291035 0.014378745
000140 06 33 7e 39 f8 fe ab bb 70 78 a6 ba 90 f8 b3 3d
       0.00024242335 -0.0052489005 -0.0012700688 0.08787644
000150 f7 80 5d bc 5e 5b 3d bd a1 36 57 bb a4 8e 2b bc
       -0.013519517 -0.046229713 -0.0032838958 -0.01047102
000160 5d b9 78 bd 73 00 e5 bd 65 df 6d bd b2 7e 15 3d
       -0.06072365 -0.11181726 -0.058074374 0.03649778
000170 25 5c 5f 3d e1 9f 3a 3c 29 40 67 3c 2e 1c 9f 3b
       0.054531235 0.011390657 0.014114418 0.004855654
000180 2f 8a c3 bd 49 53 e5 bc e6 f2 62 bb aa 68 17 be
       -0.09547841 -0.027993815 -0.0034629642 -0.1478602
000190 d4 23 aa 3d 89 a0 d0 3d 6a 9d 72 3c b0 12 84 3d
       0.08307615 0.1018687 0.014808038 0.06448877
0001a0 d6 94 b6 bc 15 a2 29 bd 34 91 d3 bd 11 ef 23 3d
       -0.022287767 -0.04141434 -0.1033043 0.040022913
0001b0 1c a0 5d 3d 92 88 ef bc b4 8b a4 3c 0f 63 8c 3d
       0.05410777 -0.029239926 0.020086147 0.068548314
0001c0 42 90 1e be 3f af 5e 3d f3 c6 e8 bd 06 ab 0e 3d
       -0.15484717 0.054366346 -0.113660716 0.03483107
0001d0 ca f4 1f bd 29 a5 97 bd 10 28 b6 3d 1b 06 69 bd
       -0.03905181 -0.07404549 0.0889436 -0.05689059
0001e0 99 b9 0c 3c fe ef 72 3d 3e 82 66 3e 34 c6 92 3d
       0.008589172 0.059310906 0.22510621 0.071667105
0001f0 88 49 be 3d bf 6c a7 3d ec 35 24 3d 4c d5 74 3c
       0.09291369 0.081750385 0.040090486 0.014943432
000200 15 85 10 be 3b 25 27 3d 02 2d 55 bb a6 31 fb 3d
       -0.14113267 0.04080699 -0.0032528047 0.12265329
000210 b2 6a 15 bd e8 5a fe bc 29 ef 96 bd 7a 42 89 3d
       -0.036478706 -0.031049207 -0.07369835 0.067021325
000220 a8 27 54 3e e5 6a 72 3d 62 b7 06 be f7 f3 3f be
       0.20718253 0.059183974 -0.13155892 -0.18745409
000230 b9 7a ba 3d 61 9b ed bc 4d e6 93 3b 7c 9d 00 3e
       0.09105439 -0.029004754 0.004513538 0.12560076
000240 ba 6f b4 3d 79 91 84 bd 03 89 1c be f5 ef 37 3d
       0.08810373 -0.06473059 -0.15286641 0.044906575
000250 66 77 d9 bd 21 db 98 3d 50 5b 07 3d 3d 18 5b bd
       -0.106184766 0.074636705 0.033046067 -0.053489912
000260 ce e7 01 bd 1d 7e 37 3d 05 ca 1e 3d a0 bf 60 bc
       -0.031715207 0.044798005 0.03876688 -0.013717562
000270 e3 e0 31 3e 20 8c 83 bd ff a7 0a be a8 5d 33 3d
       0.17370944 -0.06423211 -0.13540648 0.04379049
000280 6d 36 2a 3e 02 40 8d 3d d7 02 03 be 9a df 17 bd
       0.16622324 0.06896974 -0.12794052 -0.037078477
000290 95 3a ce bd 7c d4 29 3e fb ba 35 be 14 47 2f bd
       -0.100697674 0.16584963 -0.17747109 -0.042792395
0002a0 17 ce 23 be c4 1f e5 3d 28 39 00 be e6 e3 c9 bd
       -0.15996586 0.111876994 -0.12521803 -0.09857921
0002b0 b0 62 74 ba fd 28 0b 3e f4 b2 08 3e 7b 09 b5 3d
       -0.0009322567 0.13589855 0.13349515 0.08839699
0002c0 a6 42 33 3d 9f d1 1d be 7b fa 6c 3b 8b a6 01 3e
       0.043764733 -0.15411995 0.003616004 0.12661187
0002d0 b3 4e bc bd 12 21 ba 3d 36 0f f0 bd c8 30 28 bc
       -0.09194698 0.09088339 -0.11721651 -0.010265537
0002e0 3c b3 4f bd c4 65 81 3d 37 f9 2a 3e 3e da 7b 3d
       -0.05070804 0.063182384 0.1669663 0.06148743
0002f0 5c c8 8d bc 3e 7d fa bd da 6f c1 3d 03 21 fd 3d
       -0.017307453 -0.12230919 0.09445162 0.12359812
000300 18 d1 e5 3c ae dc 0e 3d 61 51 70 3a b6 be 0b 3d
       0.028053805 0.034878425 0.00091674 0.034117423
000310 05 9a 98 bd bd 1b e1 bc 1e d9 9a bd fa cb 8b bc
       -0.07451252 -0.027479047 -0.07560943 -0.017065037
000320 22 f8 34 3e 05 6d 93 3b b2 a9 88 3d 7b 45 e6 bd
       0.1767278 0.00449908 0.06672992 -0.11243721
000330 cf 87 e2 bc 04 34 2f bd 8a b0 e1 3d 4c c4 91 3d
       -0.02765265 -0.042774215 0.1102 0.07117519
000340 6e d9 c4 ba c2 8d 86 bc 98 d5 92 3d 67 69 70 3d
       -0.0015018412 -0.016425017 0.07169646 0.05869427
000350 35 fa a8 3c 61 44 ae bb a9 42 5d bd 9f f2 81 3d
       0.02062712 -0.00531821 -0.05401865 0.063451044
000360 fc 08 43 3b 76 64 4e 3d d7 b4 86 3d b8 34 3a 3e
       0.0029759994 0.050388776 0.06577461 0.18184173
000370 4e 72 d5 bd 3e 17 b9 3d 9e 8f 3c bd ed d0 b4 bd
       -0.104221925 0.09037636 -0.0460354 -0.08828912
000380 ca f3 ee bd 64 9a ed bd 76 12 0f 3e 7e db 58 3e
       -0.11667593 -0.11601713 0.13971886 0.2117748
000390 b9 00 ba bc de 63 9d bd 5a 1a 4f 3c 22 bd 35 3d
       -0.022705423 -0.07685064 0.01264056 0.044369824
0003a0 c5 ad 6c bd 29 c4 ee bd 5c cc cd 3d 62 5d 76 bd
       -0.057782907 -0.11658508 0.10048744 -0.06014765
0003b0 8a a5 d4 3c cf ef 80 bd 96 00 da bd 9b f4 d3 3c
       0.025957841 -0.0629574 -0.10644643 0.025873473
0003c0 e3 41 9f bd 14 d6 58 3e 8b 7f 2f 3d 06 4a dc bd
       -0.07776239 0.21175414 0.042846244 -0.10756306
0003d0 4d f8 f7 3d af 39 ed 3d ac 3c 71 3d 08 54 96 3d
       0.121079065 0.11583268 0.05889575 0.073402464
0003e0 cf ea df bd 60 53 31 bc 9d 51 26 3e 85 23 8e 3d
       -0.10933458 -0.010823101 0.1624207 0.069403686
0003f0 84 bd f8 bd f1 3c 97 bd 7e 96 23 3d cb f3 87 3d
       -0.12145522 -0.073846705 0.039938442 0.06638297

network_body._body_endoder.seq_layers.2.bias f4 [128]
000000 00 00 00 00 00 00 00 00 00 00 00 00 00 00 00 00
       0.0 0.0 0.0 0.0
000010 00 00 00 00 00 00 00 00 00 00 00 00 00 00 00 00
       0.0 0.0 0.0 0.0
000020 00 00 00 00 00 00 00 00 00 00 00 00 00 00 00 00
       0.0 0.0 0.0 0.0
000030 00 00 00 00 00 00 00 00 00 00 00 00 00 00 00 00
       0.0 0.0 0.0 0.0
000040 00 00 00 00 00 00 00 00 00 00 00 00 00 00 00 00
       0.0 0.0 0.0 0.0
000050 00 00 00 00 00 00 00 00 00 00 00 00 00 00 00 00
       0.0 0.0 0.0 0.0
000060 00 00 00 00 00 00 00 00 00 00 00 00 00 00 00 00
       0.0 0.0 0.0 0.0
000070 00 00 00 00 00 00 00 00 00 00 00 00 00 00 00 00
       0.0 0.0 0.0 0.0
000080 00 00 00 00 00 00 00 00 00 00 00 00 00 00 00 00
       0.0 0.0 0.0 0.0
000090 00 00 00 00 00 00 00 00 00 00 00 00 00 00 00 00
       0.0 0.0 0.0 0.0
0000a0 00 00 00 00 00 00 00 00 00 00 00 00 00 00 00 00
       0.0 0.0 0.0 0.0
0000b0 00 00 00 00 00 00 00 00 00 00 00 00 00 00 00 00
       0.0 0.0 0.0 0.0
0000c0 00 00 00 00 00 00 00 00 00 00 00 00 00 00 00 00
       0.0 0.0 0.0 0.0
0000d0 00 00 00 00 00 00 00 00 00 00 00 00 00 00 00 00
       0.0 0.0 0.0 0.0
0000e0 00 00 00 00 00 00 00 00 00 00 00 00 00 00 00 00
       0.0 0.0 0.0 0.0
0000f0 00 00 00 00 00 00 00 00 00 00 00 00 00 00 00 00
       0.0 0.0 0.0 0.0
000100 00 00 00 00 00 00 00 00 00 00 00 00 00 00 00 00
       0.0 0.0 0.0 0.0
000110 00 00 00 00 00 00 00 00 00 00 00 00 00 00 00 00
       0.0 0.0 0.0 0.0
000120 00 00 00 00 00 00 00 00 00 00 00 00 00 00 00 00
       0.0 0.0 0.0 0.0
000130 00 00 00 00 00 00 00 00 00 00 00 00 00 00 00 00
       0.0 0.0 0.0 0.0
000140 00 00 00 00 00 00 00 00 00 00 00 00 00 00 00 00
       0.0 0.0 0.0 0.0
000150 00 00 00 00 00 00 00 00 00 00 00 00 00 00 00 00
       0.0 0.0 0.0 0.0
000160 00 00 00 00 00 00 00 00 00 00 00 00 00 00 00 00
       0.0 0.0 0.0 0.0
000170 00 00 00 00 00 00 00 00 00 00 00 00 00 00 00 00
       0.0 0.0 0.0 0.0
000180 00 00 00 00 00 00 00 00 00 00 00 00 00 00 00 00
       0.0 0.0 0.0 0.0
000190 00 00 00 00 00 00 00 00 00 00 00 00 00 00 00 00
       0.0 0.0 0.0 0.0
0001a0 00 00 00 00 00 00 00 00 00 00 00 00 00 00 00 00
       0.0 0.0 0.0 0.0
0001b0 00 00 00 00 00 00 00 00 00 00 00 00 00 00 00 00
       0.0 0.0 0.0 0.0
0001c0 00 00 00 00 00 00 00 00 00 00 00 00 00 00 00 00
       0.0 0.0 0.0 0.0
0001d0 00 00 00 00 00 00 00 00 00 00 00 00 00 00 00 00
       0.0 0.0 0.0 0.0
0001e0 00 00 00 00 00 00 00 00 00 00 00 00 00 00 00 00
       0.0 0.0 0.0 0.0
0001f0 00 00 00 00 00 00 00 00 00 00 00 00 00 00 00 00
       0.0 0.0 0.0 0.0

action_model._continuous_distribution.log_sigma f4 [1, 2]
000000 00 00 00 00 00 00 00 00
       0.0 0.0

action_model._continuous_distribution.mu.weight f4 [2, 128]
000000 5f 13 22 3c 0a 72 5d bc d9 2e 32 3b 4a cb f1 bb
       0.009892314 -0.013515959 0.0027188568 -0.0073789703
000010 90 a7 59 3c eb c8 f8 bc ab fc 03 3d ea c4 95 bc
       0.013284579 -0.030369243 0.032223385 -0.018282373
000020 52 b9 f6 bc 0e 59 b6 bc 86 80 23 3c 7e 56 ab 3b
       -0.030117664 -0.022259261 0.009979373 0.0052288165
000030 30 9f d3 3b 57 eb 08 3c cf 11 b7 3b ca 47 e4 39
       0.0064581856 0.008356891 0.0055868397 0.00043541036
000040 77 d3 32 bd 0b ed 3d 3b 5c eb 02 bd 07 04 d1 bc
       -0.0436587 0.00289804 -0.031962737 -0.025514616
000050 cf e6 2c bd 6b 2e e8 3a 67 b7 c2 ba 38 9a e4 3c
       -0.042212304 0.0017714029 -0.0014855684 0.027905568
000060 1d 06 35 3a 22 e3 0e bc 28 bb b8 3c a2 9b fe 3a
       0.0006905513 -0.008721145 0.02255018 0.0019425044
000070 23 4e 4f bc 39 7a 30 3c cf e9 00 3c 42 cc c4 3c
       -0.012652907 0.010771328 0.007868244 0.024023179
000080 bf b3 3b 3c f0 c2 1f 3b f3 e5 3b bc 15 cc 56 bc
       0.011456429 0.0024377666 -0.011468398 -0.01311018
000090 b7 d1 45 bc 85 c9 a3 3c 7b bb 44 bb bf 49 81 bb
       -0.012073926 0.019993553 -0.0030018974 -0.003945559
0000a0 e8 75 e5 bc f2 37 7c 3b 13 8e 42 bc 77 0d 37 bc
       -0.028010324 0.0038485494 -0.011874693 -0.011172644
0000b0 a5 a7 e8 bb 9a 82 db 3b 23 67 d7 ba fb c1 0c bc
       -0.007100063 0.0066989185 -0.0016433935 -0.00859117
0000c0 5f 24 0a 3d 23 8d 10 3c e1 1f 1f 3d 5f 01 b7 3c
       0.033726092 0.008822712 0.03884876 0.022339521
0000d0 9b 7c a8 bc b3 dc 23 bb b0 74 d9 3b 27 05 30 bb
       -0.020567229 -0.0025003373 0.0066362247 -0.002685854
0000e0 4a 51 e0 3c 0b 57 5e bc 45 36 5b bb 45 62 ee bc
       0.027382512 -0.013570557 -0.0033449095 -0.029099593
0000f0 75 6f e9 3b ff 43 9e 3c 24 ef 1d bb 22 93 03 bb
       0.0071238824 0.019319532 -0.0024098838 -0.0020076712
000100 e6 80 3b bb 80 30 62 bc 78 71 64 3c d8 be 5c bc
       -0.0028610765 -0.013805509 0.013943069 -0.013473235
000110 c8 2b 3b 3c 03 6e b9 3c 6f d1 a4 bc 29 bc 12 3d
       0.0114240125 0.022635465 -0.020119397 0.035823975
000120 ab f9 28 bc 8f 95 1f bd 71 39 32 bc cb f4 37 bb
       -0.010313432 -0.03896099 -0.010877953 -0.0028069492
000130 2e 76 bc 3c 55 8e e7 3b 5a 8c b1 3c 3b c3 38 bc
       0.023005571 0.007066528 0.02167337 -0.011277015
000140 26 f4 a4 b9 58 cf d6 bc 54 68 80 bc 18 f8 bf bc
       -0.00031462422 -0.026221916 -0.015674748 -0.02343373
000150 ca 26 a6 bc b1 58 9d bc 55 05 19 3c 75 67 86 bc
       -0.020282168 -0.01920733 0.00933965 -0.016406754
000160 4d ee ae ba e2 d4 37 3c 75 86 55 bc c2 97 21 3a
       -0.0013346166 0.011220189 -0.013032545 0.0006164276
000170 93 ee 89 bc 4d ff e0 ba a1 23 09 bc ca b3 29 3b
       -0.016837394 -0.0017165929 -0.008370311 0.0025894516
000180 82 e6 8e 3b 65 e7 2b 3c 0d 96 37 3c 0b 97 65 3c
       0.0043609748 0.0104921805 0.0112052085 0.014013062
000190 b3 b9 81 bb 01 39 03 3d 16 4b 41 bd 4f d1 3f 3c
       -0.0039589047 0.032036785 -0.04719075 0.011707618
0001a0 80 53 e0 3c 53 78 93 bc 68 14 61 bc fc 84 0c 3d
       0.027383566 -0.018001711 -0.013737775 0.03430651
0001b0 b7 5c 06 bc d9 c9 34 3d 79 02 a7 3b 30 1a 89 bc
       -0.008200816 0.04413781 0.0050967303 -0.01673612
0001c0 0e 0d 2d bc 57 64 91 bb 53 72 fd bc 97 c7 f5 3b
       -0.0105621945 -0.0044370103 -0.030938303 0.0075005996
0001d0 51 d5 00 3d f0 59 13 bd 2b b9 3b bc 08 af 86 3a
       0.031453434 -0.035974443 -0.011457722 0.0010275552
0001e0 cf 1c ae 3c 9a ee 1b 3c 44 7f ac bc 4f ed 1c 3c
       0.021253971 0.009517336 -0.021056779 0.009578063
0001f0 a3 3b 9d 3b ca 9d 60 bb a4 7f c4 bb af 94 0e 3d
       0.004798369 -0.0034273737 -0.0059966613 0.034809764
000200 59 11 8e bc b8 9c 43 3c cd d2 93 3c 4f f1 fb bb
       -0.017342256 0.01193922 0.018044854 -0.0076886783
000210 e7 b1 d3 bb a5 65 8f bc 27 e2 10 3d bf 5a ec bb
       -0.0064604166 -0.017504523 0.035371926 -0.007212966
000220 b3 16 84 bc e2 9a fe bc 03 bc 91 3c 14 3f a4 bb
       -0.016124105 -0.031079713 0.017789846 -0.0050124023
000230 d8 63 e4 3b 8a 42 9b 3c 00 d2 9c bb 2b e2 81 3c
       0.00696991 0.018952627 -0.004785776 0.015854916
000240 08 d5 a3 3c d3 9c 1f 3d 2b a1 d7 3c 56 3f 35 bd
       0.019999042 0.03896792 0.026321968 -0.044249855
000250 de 65 4c 3c db 63 84 3c 3d 6e cd 3c cf ec 1d bb
       0.012475459 0.016160896 0.02507698 -0.0024097448
000260 40 99 c8 bc 08 1a da bc 17 cc a0 3c 51 b9 15 3d
       -0.024487138 -0.02662374 0.019628568 0.036553685
000270 75 67 06 3c 06 82 ac b9 c7 8e 1f bb 1b 40 15 3d
       0.008203377 -0.00032903271 -0.0024346577 0.03643809
000280 5a 4f 64 bd 9c ce b1 bb 70 57 8a 3c 87 22 e1 3c
       -0.055739738 -0.005426241 0.016887397 0.027482284
000290 da cf aa bc b8 ff 2c bc 72 11 b9 3c 9e 55 2b 3c
       -0.020851064 -0.010559015 0.022591326 0.010457424
0002a0 33 dd e4 ba dd a4 2a bc 8d 4b 4e bc 1d 8b c6 3c
       -0.0017460942 -0.010415283 -0.012591255 0.024236256
0002b0 33 d5 59 bc 3f 6c 97 bc 02 24 a2 bc 9c ef a4 bc
       -0.01329546 -0.018484233 -0.01979256 -0.020133786
0002c0 dd 21 ff 39 7b d3 1c 3c 40 88 65 bc 59 8f 95 bb
       0.0004866262 0.009571905 -0.014009535 -0.0045642075
0002d0 4f 1a 89 bc 53 8a bd bb 6b 13 8a 3a 34 fa ac 3b
       -0.016736178 -0.005784312 0.0010534351 0.00527885
0002e0 8f b5 59 3a 03 c6 fb ba 38 e2 08 3d e7 e3 1b 3b
       0.00083049474 -0.0019208792 0.033418864 0.0023786963
0002f0 f3 17 cd bb c8 62 41 3c 7f cb 2f bb e3 63 23 bd
       -0.0062589585 0.011803336 -0.0026824174 -0.03989018
000300 34 6c 08 bd d1 7b 93 bb 4a 51 b7 bc 52 19 5d 3c
       -0.033306316 -0.004500844 -0.022377629 0.013494806
000310 b2 25 39 3d d6 48 a3 3c d0 10 9f 3c 69 ec 94 bb
       0.045201965 0.019932192 0.019417197 -0.004544784
000320 e8 59 b8 ba cf 0c d9 3a 1c 80 b1 bb b5 24 4d 3c
       -0.001406488 0.0016559603 -0.005416883 0.012520959
000330 9e 08 93 3c 15 d3 34 bc c1 4a b1 3c aa b1 3c bc
       0.017948445 -0.011036654 0.02164209 -0.011516968
000340 61 7f 93 3b c7 56 1b 3c 86 96 93 bc f0 8b fc 3b
       0.0045012687 0.009481139 -0.018016111 0.0077071115
000350 f2 57 4d bc e5 e3 4f 3c 0a ba 62 3c d2 7e 7f 3b
       -0.012533175 0.012688612 0.0138383005 0.0038985503
000360 45 41 ee 3a c9 1d b3 3c 82 e2 f8 3b 5a c5 38 bc
       0.0018177411 0.021864789 0.007595361 -0.011277521
000370 a0 14 3a 3b a8 42 5c bb 47 64 a4 3c 3c 51 3d bc
       0.002839364 -0.0033609066 0.020067347 -0.011555012
000380 e7 27 d1 bb bd 6a 7b 3c b0 9c f0 bc f7 fa 73 3c
       -0.0063829306 0.015345273 -0.02937159 0.014891378
000390 48 10 0e 3c a3 0c a7 3c 25 6b 04 bc 54 a0 c4 bb
       0.008670874 0.020391768 -0.008082186 -0.006000558
0003a0 e7 93 8d bc 59 61 0a bd c0 4a 51 3d ef ac d1 b9
       -0.01728244 -0.033784244 0.051096678 -0.00039992432
0003b0 c7 ba e5 3c 9f 7d 5f bb da 45 87 bc 3e b1 96 bc
       0.028043164 -0.0034101976 -0.0165128 -0.018395063
0003c0 5a 4e 83 3c e5 b7 ad bc 09 f2 af bc de 68 37 3c
       0.016028572 -0.021205852 -0.021477716 0.011194436
0003d0 ab 1e 9b bc ff c3 3d 3a 0d 13 18 bc 21 b4 a7 3b
       -0.018935522 0.00072389835 -0.009281886 0.0051179086
0003e0 0a 3a d0 bc de 65 18 bc 5d 08 c4 bb 21 26 81 3c
       -0.0254183 -0.009301631 -0.0059824423 0.015765252
0003f0 34 55 8d 3b ab ac 1f 3c af 07 7e 3a d8 c2 35 3c
       0.0043131355 0.009745757 0.0009690476 0.011093818

action_model._continuous_distribution.mu.bias f4 [2]
000000 00 00 00 00 00 00 00 00
       0.0 0.0

action_model._discrete_distribution.branches.0.weight f4 [1, 128]
000000 63 98 09 3c c5 9b ec 3b 60 59 0d 3b b8 df 8b ba
       0.008398148 0.0072207176 0.0021568164 -0.0010671532
000010 05 28 ff ba b5 33 8e 39 8a a4 c3 ba 3d a4 97 3c
       -0.0019466883 0.00027122875 -0.0014926356 0.018510932
000020 1d c4 2d bb 03 f6 24 b9 1a b1 ec 3b ef f2 40 bb
       -0.0026514598 -0.00015731905 0.0072232606 -0.0029441675
000030 cf 7c 4b 3c b2 6c 03 3c 18 4e 5e bb 52 d9 36 bc
       0.012419893 0.00802152 -0.003392106 -0.011160212
000040 e0 f6 0f 3c 23 af c5 3c 1c 3d 9e 3b 3a c9 20 bc
       0.008786887 0.024131363 0.004829062 -0.009813601
000050 91 5f 94 bc 7f 38 a1 bb 76 78 84 3a f1 97 13 3c
       -0.018111976 -0.004920065 0.0010106701 0.009008394
000060 30 29 b1 bc db d5 26 bc f2 f0 54 3b f3 04 bc 3b
       -0.021626085 -0.010182823 0.0032492247 0.0057378947
000070 ad 9e ba 3b ca a1 b1 3b 99 5a 06 bc 9a 87 7f bb
       0.005695185 0.005420898 -0.008200311 -0.0038990737
000080 f6 9f 08 3b 5a 4b c6 3b 40 56 af 3b 82 ef 23 bc
       0.0020847297 0.006051463 0.005350858 -0.010005834
000090 be 83 9c bc 8a 53 08 bc fe 46 85 bb 13 8e 19 3c
       -0.019105788 -0.0083206985 -0.004067301 0.009372252
0000a0 4b 2c a6 3b 19 88 ae bb 4a 5e 14 bc ee 9a 3e 3b
       0.005071198 -0.0053262827 -0.009055683 0.0029084045
0000b0 a1 2a 80 bc 8f c1 9d bc 10 87 fb bb c1 79 80 bc
       -0.015645327 -0.019257335 -0.007676013 -0.015683057
0000c0 75 67 01 3c 03 03 20 3c 4a 3c 46 3c 88 3c c2 3b
       0.007898201 0.009766343 0.012099335 0.005927626
0000d0 44 40 36 3c d6 2b cb 3b 2b f1 dd ba 03 62 88 bc
       0.011123721 0.006200294 -0.0016932836 -0.016648298
0000e0 28 5b d6 3b 53 0a 70 bb 83 fc 13 bb 8d 33 58 bc
       0.0065416284 -0.0036627247 -0.0022580929 -0.013195884
0000f0 ec 94 0e 39 d7 71 66 ba e5 82 71 bc 03 98 5f 3c
       0.00013597653 -0.0008790767 -0.01474068 0.013647082
000100 a0 af be 3b ca 52 ac 39 f8 be ce 3b 1b 06 35 3c
       0.005819276 0.0003286808 0.0063093863 0.011048819
000110 84 e3 a0 3b 5b 49 10 3c 2a 4d 24 3c 87 15 03 bc
       0.0049099345 0.008806552 0.010028163 -0.008000738
000120 0a 74 0d 3c 77 a1 b1 3c b4 a0 af 3a 36 e0 8f bb
       0.008633623 0.021683438 0.0013399334 -0.0043907417
000130 fe 3b 23 3c eb d7 de bb 23 eb c7 bc aa b7 c5 bb
       0.009963034 -0.006800642 -0.024404114 -0.0060338574
000140 5b 01 58 3a d1 ac b7 3b b2 52 ff b9 da 2f 60 3b
       0.0008239948 0.005605318 -0.00048699003 0.003420821
000150 7b b0 3e bb 39 df c7 3b ab d3 3c 3c 77 26 19 3c
       -0.002909689 0.0060996083 0.011525075 0.00934755
000160 37 5f 3d bb 18 bd e6 bb 02 44 b8 3a 37 a1 b9 3b
       -0.0028895864 -0.0070415847 0.0014058354 0.0056649703
000170 49 89 9a 3a 6b 13 d7 ba 9d 67 55 bc cc 7c a7 bb
       0.0011790182 -0.0016408985 -0.013025192 -0.0051113125
000180 73 12 8f bc 73 36 d2 3b 27 7b 18 3c 00 e5 75 3b
       -0.017464852 0.0064151823 0.009306706 0.0037520528
000190 e2 67 58 3b 57 46 8c 3c 41 e7 8a 3b 19 75 18 3b
       0.0033020903 0.017123384 0.0042389934 0.0023263155
0001a0 5d 1c 96 bb 1f 38 a1 bb 8a 14 ed 3b 63 df 62 3c
       -0.004581018 -0.0049200202 0.0072351145 0.013847205
0001b0 bb f8 25 bc 45 3e 8f 3b 65 72 ff 39 f5 ba d4 ba
       -0.010130103 0.004371437 0.0004872262 -0.0016230034
0001c0 05 bf d5 3a 9f 69 20 3a 60 0d 7d bc a1 26 b8 3b
       0.0016307539 0.00061192544 -0.015445083 0.0056198393
0001d0 f9 1c 9c 3b dd f1 7a bb f4 e3 19 bb 10 51 74 ba
       0.004764196 -0.0038291134 -0.0023481818 -0.00093199406
0001e0 f4 39 c9 bb bd 8d 43 3a 65 08 18 3b d7 ed b8 ba
       -0.0061409418 0.00074597803 0.0023198363 -0.0014108968
0001f0 26 2b a0 bb ec b1 0b bb c4 65 03 bb fa ac 51 ba
       -0.004887956 -0.0021315766 -0.002004967 -0.0007998493

network_body._body_endoder.seq_layers.0.weight f4 [128, 17]
000000 c5 de 26 3a db a2 22 be eb d2 23 3e 35 8a c1 be
       0.00063655927 -0.15882437 0.15998428 -0.37800756
000010 45 39 2e be e3 5d 07 be 26 76 e6 be e8 4f 23 bd
       -0.17014034 -0.13219409 -0.45012015 -0.039871126
000020 03 30 47 3d ad a7 9a 3e 58 c1 9e 3c 04 44 b4 bd
       0.048629772 0.3020605 0.019379303 -0.088020355
000030 78 37 18 3e f2 c0 9a be 5f 94 3f be 4a 45 76 bd
       0.1486491 -0.3022533 -0.18708943 -0.060124673
000040 90 23 a3 be 5a e3 d8 be a6 cb a9 be b7 d1 03 3e
       -0.3186307 -0.42360955 -0.33163184 0.12872969
000050 da 46 c4 be f3 2c 77 bc 4c 84 85 3e b1 fa a3 be
       -0.38335305 -0.0150864 0.26077497 -0.320272
000060 bc 16 0b 3e 90 b0 06 bd 3d 9e 04 be 2b d2 ad 3e
       0.13582891 -0.032883227 -0.12950988 0.33949408
000070 79 93 3a be f6 0d 6b 3d ca 8a a3 3e 62 c8 92 3e
       -0.18220319 0.05738636 0.31941825 0.28668505
000080 55 8e 88 be 6b 42 14 3e 95 5b 56 be f6 98 75 be
       -0.2667109 0.14478461 -0.20933373 -0.23984131
000090 e3 e9 dd be 46 1e 53 3e 70 a9 46 bd 95 5f 1a be
       -0.43342504 0.20617017 -0.048501432 -0.15075524
0000a0 fe a3 9c 3a 57 e4 4e 3d d1 a5 58 3e 03 7f 11 3e
       0.0011950729 0.05051073 0.21157004 0.14208607
0000b0 7c 44 fc bd ab 10 5f be 2e 46 04 3e ec da 71 3e
       -0.1231775 -0.21783702 0.12917396 0.23618668
0000c0 41 39 36 bd e9 7b 03 bb d9 48 89 be 63 26 21 be
       -0.044488195 -0.002006287 -0.2681339 -0.157373
0000d0 cb 1e 30 3e 7a 75 31 3e 64 10 10 bd 95 53 43 3d
       0.17199247 0.1732997 -0.03517188 0.047687132
0000e0 a4 af 81 be 1e 08 76 bd 9b c8 3a bc 86 f4 0b bf
       -0.25329316 -0.060066335 -0.011400367 -0.5466999
0000f0 bc e3 8e be e6 e5 4d be 64 c3 b6 3b 2e 28 b7 bd
       -0.27908123 -0.2010723 0.0055774916 -0.089432105
000100 66 98 c1 be 23 ef 70 be 6f 08 ae 3e 85 bb 80 3e
       -0.37811583 -0.23528723 0.3399081 0.25143066
000110 ef 72 1b be 21 65 74 3e cd 48 73 3d 23 56 25 3e
       -0.15180562 0.23866703 0.0593956 0.1614614
000120 bf c9 5a 3e 0e ca a4 bd fe 3d ba bc a9 e9 4b 3e
       0.21366023 -0.080463514 -0.022734638 0.19913353
000130 69 75 73 be 6a a8 80 be a7 ed 07 bd a5 d8 67 3f
       -0.23775257 -0.2512849 -0.033185627 0.9056495
000140 6a 92 a0 3e d0 3b 8c be be 4c 60 3e 0e 5d ae bd
       0.31361705 -0.27389383 0.21904275 -0.085138425
000150 18 f8 2a bf c2 73 02 be 0e 53 4d 3e af 26 41 be
       -0.6678481 -0.1273947 0.20051214 -0.18862413
000160 09 63 11 bb 45 e2 c9 be b5 7a e9 3c 20 83 66 3e
       -0.0022184274 -0.39430442 0.028500894 0.22510958
000170 0a 8d 0c 3f 50 be 85 3e 62 d7 a0 be f2 04 95 bb
       0.5490271 0.2612176 -0.31414324 -0.0045477087
000180 18 d7 03 bd 12 05 82 3e 93 5b a9 3e 96 a3 3e bf
       -0.03218755 0.25394493 0.33077678 -0.7446836
000190 fc a3 b3 3e 90 e8 d3 bd 6e cc cb 3e 7c 04 18 be
       0.35086048 -0.10347092 0.39804405 -0.1484546
0001a0 2f bd 3a 3e a7 c8 8d 3e 4b 41 e5 3c 65 ce 84 3e
       0.1823623 0.27692148 0.027985236 0.25938717
0001b0 c8 51 52 3e 53 c7 1a 3e 21 f2 90 be 4b af 07 be
       0.2053901 0.15115099 -0.2830973 -0.13250463
0001c0 9b 5f 81 be 55 88 75 bd 20 1e 0d 3e 46 9f 48 3e
       -0.25268254 -0.05994447 0.13781023 0.19592008
0001d0 6e 4a 9e be 44 bf 2b 3b af 96 60 3d 05 ea db bc
       -0.3091616 0.0026206532 0.054831203 -0.026844988
0001e0 a8 09 fd bd 64 7f 96 3d 97 d4 ef be e5 ce 39 bd
       -0.123553574 0.073485166 -0.4684188 -0.045363326
0001f0 e9 a9 bc 3d f8 40 9e 3e 55 4b 02 3d a4 d3 6c 3e
       0.09212095 0.30908942 0.031810123 0.2312761
000200 7a 4b 5f be ce 01 d6 bd c9 79 b4 3d 46 ff 0b 3e
       -0.21806136 -0.10449563 0.08812291 0.13671598
000210 c5 86 fa 3e 7b cb 67 be 8d 07 1b 3e cc c4 26 3e
       0.48930946 -0.22636215 0.15139599 0.1628601
000220 71 91 4f 3d 79 e6 8c 3e 50 1c c8 3e 19 ed 1b 3e
       0.050675813 0.27519587 0.390841 0.15227164
000230 7e 1f 80 be 07 6e 4a be 46 35 3f 3d 78 f2 07 be
       -0.25024027 -0.19768535 0.046681665 -0.13276088
000240 48 eb cb bd 75 18 6c be 06 c2 75 3e 3a 02 42 be
       -0.09956986 -0.23056205 0.23999795 -0.18946162
000250 b9 28 9a be 6a 1d b0 bc 80 45 5b 3d 91 97 b4 bd
       -0.30109194 -0.0214984 0.053533077 -0.088179715
000260 3f 6e 02 bd b9 61 fc 3d 86 c4 7b 3e ed 8b 9a 3e
       -0.03184342 0.123233266 0.24586686 0.3018488
000270 96 ae a8 3e 3f 98 ae be 07 bd 74 3e 6a 90 8e bd
       0.32945698 -0.3410053 0.23900233 -0.069611385
000280 86 1f d8 be 4c 11 64 3c f6 32 4a bf 0e 00 ad be
       -0.4221155 0.0139201395 -0.7898401 -0.33789104
000290 6c 7b 15 be 2a a3 77 3c 65 5f 9f bb 87 3e 13 bf
       -0.14597863 0.015114585 -0.004863667 -0.57517284
0002a0 e2 8e 08 bf 96 83 4d be fc da 93 bd c3 4b 7d 3d
       -0.5334302 -0.20069727 -0.07219502 0.06183983
0002b0 0a d0 13 be 2f 52 f1 bd ee 70 9b bd ac 48 3b be
       -0.1443483 -0.117832534 -0.07589899 -0.18289441
0002c0 3c 31 b9 3e 34 37 8d 3e be 77 28 3e f3 15 fd bd
       0.36170375 0.2758118 0.16451928 -0.12357702
0002d0 64 1e fe bd 27 0a d2 bc e7 d7 84 3d 6c 7f aa be
       -0.1240814 -0.025639607 0.064864926 -0.3330034
0002e0 fe 83 ca bd b0 b8 6d 3e f0 8e 84 be 47 26 36 be
       -0.09888457 0.23214984 -0.25890303 -0.17788039
0002f0 62 ad 10 3f 29 f5 c4 bc 3b e1 1f be 87 d1 ca bd
       0.5651456 -0.024042683 -0.15613262 -0.099032454
000300 49 9a 4a be b4 6d bf bd ba 11 07 3f 8e 95 47 3d
       -0.19785418 -0.09347096 0.52761424 0.04872661
000310 b0 9a a4 3d 5e 3a 23 3d bc 01 62 be da 62 23 be
       0.08037317 0.039850585 -0.22070974 -0.15955678
000320 c3 96 4d 3d 17 4a a3 be 59 7e 8c 3e 87 f9 d6 3e
       0.050192606 -0.31892464 0.27440146 0.4198725
000330 f5 f4 bf 3d 2f 93 1a 3e 19 a2 ce 3e 88 1c 02 3e
       0.09372894 0.15095209 0.40358046 0.12706196
000340 2f 72 0c 3e 40 29 63 be 63 b8 80 3e cd 7a 3a ba
       0.13715433 -0.22183704 0.25140676 -0.00071136357
000350 5e aa 79 3e 73 c1 7e be 42 45 e2 bd 40 ef d4 3e
       0.24381396 -0.24878483 -0.11048366 0.41588783
000360 43 82 d0 3d 37 17 1a 3c 56 71 98 3e 75 e1 d8 be
       0.101810955 0.009404949 0.29773968 -0.4235951
000370 e0 48 b1 be 62 c2 e8 3d 9d db 54 bc b3 70 a2 3e
       -0.34625912 0.113652006 -0.012991813 0.31726608
000380 fa 65 ef 3d 16 a5 8d 3d fb 38 0a 3d 7f 99 62 be
       0.11689372 0.06916253 0.033745747 -0.22128867
000390 3a 6c 42 be f8 27 a5 3e 5b a5 25 3c 8f a6 85 3e
       -0.18986598 0.32257056 0.010110225 0.26103637
0003a0 c8 73 01 3e bc a1 d9 bd 27 d8 96 3d 46 c7 a5 3d
       0.12641823 -0.106265515 0.073654465 0.08094649
0003b0 91 5d cc 3d 8b b0 f7 bc 56 b2 22 3d 68 c6 2c 3e
       0.09978784 -0.03023555 0.039720856 0.16872561
0003c0 f4 ac 17 be 60 dc 81 bc 9d a4 82 3e ec 7a 80 be
       -0.1481207 -0.015852153 0.25516215 -0.25093782
0003d0 62 6a 89 3e ef 13 af 3d 26 17 28 3e 89 26 6b be
       0.26838976 0.08548724 0.1641508 -0.22963919
0003e0 6d 16 e9 3d 1d 26 41 be 09 04 07 3e 3a e8 8e 3d
       0.113812305 -0.18862195 0.13185133 0.069778875
0003f0 d6 84 2d 3f da 8a f0 bd e4 ae 9c be d2 76 48 3f
       0.67780817 -0.11745234 -0.3060218 0.78306305

network_body._body_endoder.seq_layers.0.bias f4 [128]
000000 00 00 00 00 00 00 00 00 00 00 00 00 00 00 00 00
       0.0 0.0 0.0 0.0
000010 00 00 00 00 00 00 00 00 00 00 00 00 00 00 00 00
       0.0 0.0 0.0 0.0
000020 00 00 00 00 00 00 00 00 00 00 00 00 00 00 00 00
       0.0 0.0 0.0 0.0
000030 00 00 00 00 00 00 00 00 00 00 00 00 00 00 00 00
       0.0 0.0 0.0 0.0
000040 00 00 00 00 00 00 00 00 00 00 00 00 00 00 00 00
       0.0 0.0 0.0 0.0
000050 00 00 00 00 00 00 00 00 00 00 00 00 00 00 00 00
       0.0 0.0 0.0 0.0
000060 00 00 00 00 00 00 00 00 00 00 00 00 00 00 00 00
       0.0 0.0 0.0 0.0
000070 00 00 00 00 00 00 00 00 00 00 00 00 00 00 00 00
       0.0 0.0 0.0 0.0
000080 00 00 00 00 00 00 00 00 00 00 00 00 00 00 00 00
       0.0 0.0 0.0 0.0
000090 00 00 00 00 00 00 00 00 00 00 00 00 00 00 00 00
       0.0 0.0 0.0 0.0
0000a0 00 00 00 00 00 00 00 00 00 00 00 00 00 00 00 00
       0.0 0.0 0.0 0.0
0000b0 00 00 00 00 00 00 00 00 00 00 00 00 00 00 00 00
       0.0 0.0 0.0 0.0
0000c0 00 00 00 00 00 00 00 00 00 00 00 00 00 00 00 00
       0.0 0.0 0.0 0.0
0000d0 00 00 00 00 00 00 00 00 00 00 00 00 00 00 00 00
       0.0 0.0 0.0 0.0
0000e0 00 00 00 00 00 00 00 00 00 00 00 00 00 00 00 00
       0.0 0.0 0.0 0.0
0000f0 00 00 00 00 00 00 00 00 00 00 00 00 00 00 00 00
       0.0 0.0 0.0 0.0
000100 00 00 00 00 00 00 00 00 00 00 00 00 00 00 00 00
       0.0 0.0 0.0 0.0
000110 00 00 00 00 00 00 00 00 00 00 00 00 00 00 00 00
       0.0 0.0 0.0 0.0
000120 00 00 00 00 00 00 00 00 00 00 00 00 00 00 00 00
       0.0 0.0 0.0 0.0
000130 00 00 00 00 00 00 00 00 00 00 00 00 00 00 00 00
       0.0 0.0 0.0 0.0
000140 00 00 00 00 00 00 00 00 00 00 00 00 00 00 00 00
       0.0 0.0 0.0 0.0
000150 00 00 00 00 00 00 00 00 00 00 00 00 00 00 00 00
       0.0 0.0 0.0 0.0
000160 00 00 00 00 00 00 00 00 00 00 00 00 00 00 00 00
       0.0 0.0 0.0 0.0
000170 00 00 00 00 00 00 00 00 00 00 00 00 00 00 00 00
       0.0 0.0 0.0 0.0
000180 00 00 00 00 00 00 00 00 00 00 00 00 00 00 00 00
       0.0 0.0 0.0 0.0
000190 00 00 00 00 00 00 00 00 00 00 00 00 00 00 00 00
       0.0 0.0 0.0 0.0
0001a0 00 00 00 00 00 00 00 00 00 00 00 00 00 00 00 00
       0.0 0.0 0.0 0.0
0001b0 00 00 00 00 00 00 00 00 00 00 00 00 00 00 00 00
       0.0 0.0 0.0 0.0
0001c0 00 00 00 00 00 00 00 00 00 00 00 00 00 00 00 00
       0.0 0.0 0.0 0.0
0001d0 00 00 00 00 00 00 00 00 00 00 00 00 00 00 00 00
       0.0 0.0 0.0 0.0
0001e0 00 00 00 00 00 00 00 00 00 00 00 00 00 00 00 00
       0.0 0.0 0.0 0.0
0001f0 00 00 00 00 00 00 00 00 00 00 00 00 00 00 00 00
       0.0 0.0 0.0 0.0

network_body._body_endoder.seq_layers.2.weight f4 [128, 128]
000000 0f bf 41 3d 83 fc 45 bc 10 2b 24 bd 57 3d 43 bd
       0.04730135 -0.012084129 -0.04008013 -0.04766592
000010 9f de f1 bd d1 63 53 3e 41 36 e6 3d 32 ac be bd
       -0.1181004 0.20643546 0.11240817 -0.093101874
000020 d8 72 a5 bd 1b 16 7e bd 2f 93 98 bd 55 c9 c8 bc
       -0.08078545 -0.0620328 -0.07449948 -0.024510065
000030 3c 9f 9c 3c 3d c0 d6 3d 84 9d 27 be 1a 43 9d bd
       0.019118898 0.10485885 -0.16368681 -0.07678814
000040 61 42 8a 3c ea be 78 bc 4a 6d b2 3d 6d a1 4a 3d
       0.016877355 -0.015182236 0.087122515 0.049470354
000050 e2 ef 44 3d 52 4e 16 be ca 00 01 3d c5 3b 9b 3d
       0.048080333 -0.14678314 0.031494893 0.075797595
000060 5d a2 47 3e bb be b7 bc 99 9e b9 3c 73 a0 0b bc
       0.1949553 -0.022429815 0.022658633 -0.008522141
000070 76 62 e1 3d 5d 1b d2 bb 1d 5d 40 3d d8 de 2a bd
       0.11005108 -0.0064119534 0.0469638 -0.041716427
000080 1a 7a 84 bb f1 1f b9 bd 45 d6 8b bd ad 5b 3d 3d
       -0.004042876 -0.090392955 -0.06827978 0.046230007
000090 a3 20 f7 bc 06 34 42 bd 8e 59 ab bd 72 bb f7 3d
       -0.03016693 -0.047412895 -0.083666906 0.12096299
0000a0 f8 96 3e 3c 81 04 e6 3c 2f 73 c5 3d 8b 0c 0c 3e
       0.011632673 0.02807832 0.0964111 0.1367666
0000b0 ec 4f 90 bd ad 6c 61 bd 59 f2 65 bd c0 f5 5b be
       -0.07046494 -0.055035282 -0.056139324 -0.21480465
0000c0 97 36 0e 3e ee d3 91 bd fc d6 21 be 96 98 14 3d
       0.13888012 -0.071205005 -0.15804666 0.03627833
0000d0 36 10 07 3d 9a c7 3f 3d 79 29 d7 bd 3d a7 7c 3c
       0.032974444 0.046821214 -0.10505957 0.015420732
0000e0 6f 28 0e 3e ee 06 40 3d 3b ac 4d 3c 3b 99 6a bb
       0.13882612 0.04688161 0.01255327 -0.00357969
0000f0 06 6a 04 3d d9 25 7c 3c cd ae a9 3c 5f 61 10 3e
       0.032327674 0.015389883 0.020713234 0.14099644
000100 c2 aa 67 bd 5d 7a fc 3d 00 f6 49 be cb a7 da bc
       -0.05655933 0.123280264 -0.19722748 -0.026691338
000110 1d 69 b4 bd 01 ea eb bd 81 9e a1 bd e5 41 75 3d
       -0.08809111 -0.11519242 -0.0789156 0.059877295
000120 a8 f1 ea bc 58 cc 32 bd 94 bf 15 bb 35 c8 2c 3c
       -0.028679684 -0.04365191 -0.0022849785 0.01054578
000130 8d c7 2a be 6c 07 50 3b ec bd 53 3c d7 1d 1d bc
       -0.16677685 0.0031742705 0.012923699 -0.009589634
000140 fc 31 b5 3c 6c 2b 2a be 11 8e d7 3d cd 0d 2e be
       0.022118561 -0.16618127 0.10525144 -0.16997452
000150 53 99 d7 bd 5f 9e 97 ba a7 36 e4 bb c6 b5 55 3c
       -0.10527291 -0.0011567584 -0.006964523 0.013043826
000160 27 f6 55 bd c6 78 51 bd 86 01 13 be d9 2c 52 bd
       -0.052236702 -0.05114057 -0.1435605 -0.0513123
000170 8f fa 78 3d ce 9a 8d bd 2c 19 bf 3d 6f c2 1d bd
       0.060785826 -0.06914292 0.09330973 -0.038515504
000180 24 c6 4b 3d d1 73 01 bd d5 9c 24 3e 9e 0d b2 bd
       0.04974951 -0.03160459 0.16075452 -0.086940035
000190 c8 09 c3 3d 55 33 f1 bc 30 b3 91 bd 77 06 c2 bd
       0.0952335 -0.029443422 -0.071142554 -0.09473889
0001a0 43 47 83 bc 45 aa a0 bd 00 bd eb 3c 61 89 41 bc
       -0.016025191 -0.07844976 0.028776646 -0.011812539
0001b0 e5 36 31 bd 5a e5 e3 bd 8b 5c c8 3d 2c ac eb bd
       -0.043265242 -0.1112773 0.09783276 -0.115074486
0001c0 29 d2 f5 3d f0 39 f3 3c 80 91 4d bc c8 2b eb 3d
       0.120029755 0.029690713 -0.012546897 0.1148296
0001d0 40 d3 d6 bd 6c b7 cd bd f2 3a 77 3d 29 2f b1 3c
       -0.104895115 -0.100447506 0.06035895 0.021628933
0001e0 1a 7c 8e bc 33 9e 9d 3c 72 eb 68 3b 12 f7 93 3d
       -0.01739316 0.019240474 0.0035540727 0.07224859
0001f0 46 ab d6 bd 26 e1 69 3d 1b 21 97 3d dc b3 87 3d
       -0.104818866 0.057099484 0.07379361 0.06626102
000200 52 03 35 bc a9 b2 35 bd dc e4 38 bd 50 09 00 3e
       -0.011048155 -0.044359837 -0.045140132 0.12503552
000210 5c ae f8 bc 79 d2 43 be 6f a6 dc 3b 7b ae e5 bd
       -0.030356579 -0.19123258 0.0067337076 -0.1121492
000220 a7 25 db bd 06 8c 49 bd 65 eb 31 be b4 58 0a bd
       -0.10700541 -0.049205802 -0.17374952 -0.033776
000230 d5 12 f0 3d a7 a3 9c bd 71 71 a1 3d 9d 99 b6 3a
       0.11722342 -0.07648402 0.07882965 0.0013931278
000240 4c b6 0e 3d 83 25 18 3d 7e 3f d3 3d 7a 2c db 3d
       0.03484182 0.03714515 0.103148445 0.107018426
000250 0a e9 86 3d e2 b7 63 3e b1 3d fc 3c 2c b1 08 3e
       0.065874174 0.22238114 0.030791136 0.13348836
000260 ad 32 0e be de db a0 3d ac 1c 32 be fc b7 8d 3d
       -0.13886519 0.07854436 -0.1739375 0.06919858
000270 86 95 8c 3c 09 da 08 bd ec f9 13 be 43 b6 e1 bd
       0.017161142 -0.03341106 -0.14450806 -0.11021092
000280 77 83 00 be d0 67 ca 3d b7 83 d8 3c 87 3c 94 bd
       -0.1255015 0.09883082 0.026429994 -0.07238107
000290 be f3 52 3d 29 d5 77 bd 75 a9 01 be a2 21 73 bc
       0.051501982 -0.06050602 -0.12662299 -0.014839562
0002a0 0f cd c0 bb bc de 9f 3d 0d 32 24 3e 95 f5 35 bd
       -0.00588382 0.07806155 0.16034718 -0.04442366
0002b0 2e 33 f8 3c cb 0a f5 bd 29 80 30 3c 5d cc f4 3d
       0.030297842 -0.11964949 0.010772743 0.11953042
0002c0 c6 ba f2 3d 25 bc 8b bd 6a 6e 8b 3d 81 a6 2b 3d
       0.118520305 -0.06822995 0.06808169 0.041906837
0002d0 84 df fd bd 54 79 b8 3c 4f 01 03 be 24 3d 6e 3c
       -0.12396148 0.022518791 -0.12793468 0.014540944
0002e0 93 7d 2c bd 25 d5 ae bb 14 37 cb 3a a5 9c 17 be
       -0.042111944 -0.0053354674 0.0015504085 -0.14805849
0002f0 e4 69 3a 3e c4 67 f0 bd ec 33 c7 3d ce 3d 13 3e
       0.18204457 -0.11738542 0.097267 0.14379045
000300 a6 dc 5e 3d 09 d7 30 be 88 bf 0a 3e 71 11 eb bd
       0.054409645 -0.1726953 0.13549626 -0.11477936
000310 6a cf b1 3d 31 f6 91 3d f9 49 55 be 64 2e 7d 3c
       0.08682139 0.071270354 -0.20829 0.015452955
000320 0a 9f 8d bd de c1 ae 3b 09 7c 6e 3c 46 1e c9 bd
       -0.069151 0.0053331694 0.0145559395 -0.09820227
000330 5d 4a ac 3d 8c 11 cb 3d 3e 45 7e bd f8 b8 d8 3d
       0.08412621 0.09915456 -0.062077753 0.10582155
000340 60 17 80 bd 51 e5 45 be 5a 1e d0 bd 34 20 24 3c
       -0.062544584 -0.19325759 -0.10162039 0.010017443
000350 36 d8 b0 bd bd 5c 88 bb ce b5 df 3d f0 0f 91 3c
       -0.08634989 -0.004161446 0.10923348 0.017707795
000360 48 27 0e bd ae 6a 12 3c 10 ac fa 3b 6f 33 a6 bd
       -0.03470543 0.008936567 0.007649906 -0.08115279
000370 c3 f1 d9 bd 4c a4 0a be ca 29 d4 bd 11 9d fb 3d
       -0.106418155 -0.13539237 -0.10359533 0.122858174
000380 b5 fb 01 3d 6c 6b 86 bd f2 b8 97 bd 13 c8 b9 3d
       0.031734187 -0.06563458 -0.074083224 0.09071364
000390 2d 41 ef bd 2e 81 cc bd b7 b1 07 bd 31 d3 87 bc
       -0.11682353 -0.099855766 -0.033128466 -0.016580196
0003a0 b9 32 1b bd 5d 6d a3 3c 99 43 e4 bd 5f fd a1 bd
       -0.03789017 0.01994961 -0.11145706 -0.07909655
0003b0 25 bf 12 3c 10 b5 ec 3d f1 66 f6 bd ef 07 c9 3d
       0.008956705 0.115579724 -0.12031353 0.09815966
0003c0 68 d5 d4 3c 26 ef 28 bd d9 16 80 3d 04 6d 4b 3d
       0.025980666 -0.041243695 0.06254358 0.049664512
0003d0 ca fa c3 bd 56 5c 97 3d fd 47 8a 3d f9 e7 41 bc
       -0.095693186 0.073906586 0.06752012 -0.011835092
0003e0 7e c3 f0 bc fd a3 e1 3d 4a 93 96 3c 33 0f f5 3d
       -0.029390093 0.110176064 0.01838078 0.1196579
0003f0 33 d8 2c 3e 81 c5 f7 bb 2d a0 ba 3b 1e 44 96 3d
       0.16879348 -0.007561386 0.005695364 0.07337211

network_body._body_endoder.seq_layers.2.bias f4 [128]
000000 00 00 00 00 00 00 00 00 00 00 00 00 00 00 00 00
       0.0 0.0 0.0 0.0
000010 00 00 00 00 00 00 00 00 00 00 00 00 00 00 00 00
       0.0 0.0 0.0 0.0
000020 00 00 00 00 00 00 00 00 00 00 00 00 00 00 00 00
       0.0 0.0 0.0 0.0
000030 00 00 00 00 00 00 00 00 00 00 00 00 00 00 00 00
       0.0 0.0 0.0 0.0
000040 00 00 00 00 00 00 00 00 00 00 00 00 00 00 00 00
       0.0 0.0 0.0 0.0
000050 00 00 00 00 00 00 00 00 00 00 00 00 00 00 00 00
       0.0 0.0 0.0 0.0
000060 00 00 00 00 00 00 00 00 00 00 00 00 00 00 00 00
       0.0 0.0 0.0 0.0
000070 00 00 00 00 00 00 00 00 00 00 00 00 00 00 00 00
       0.0 0.0 0.0 0.0
000080 00 00 00 00 00 00 00 00 00 00 00 00 00 00 00 00
       0.0 0.0 0.0 0.0
000090 00 00 00 00 00 00 00 00 00 00 00 00 00 00 00 00
       0.0 0.0 0.0 0.0
0000a0 00 00 00 00 00 00 00 00 00 00 00 00 00 00 00 00
       0.0 0.0 0.0 0.0
0000b0 00 00 00 00 00 00 00 00 00 00 00 00 00 00 00 00
       0.0 0.0 0.0 0.0
0000c0 00 00 00 00 00 00 00 00 00 00 00 00 00 00 00 00
       0.0 0.0 0.0 0.0
0000d0 00 00 00 00 00 00 00 00 00 00 00 00 00 00 00 00
       0.0 0.0 0.0 0.0
0000e0 00 00 00 00 00 00 00 00 00 00 00 00 00 00 00 00
       0.0 0.0 0.0 0.0
0000f0 00 00 00 00 00 00 00 00 00 00 00 00 00 00 00 00
       0.0 0.0 0.0 0.0
000100 00 00 00 00 00 00 00 00 00 00 00 00 00 00 00 00
       0.0 0.0 0.0 0.0
000110 00 00 00 00 00 00 00 00 00 00 00 00 00 00 00 00
       0.0 0.0 0.0 0.0
000120 00 00 00 00 00 00 00 00 00 00 00 00 00 00 00 00
       0.0 0.0 0.0 0.0
000130 00 00 00 00 00 00 00 00 00 00 00 00 00 00 00 00
       0.0 0.0 0.0 0.0
000140 00 00 00 00 00 00 00 00 00 00 00 00 00 00 00 00
       0.0 0.0 0.0 0.0
000150 00 00 00 00 00 00 00 00 00 00 00 00 00 00 00 00
       0.0 0.0 0.0 0.0
000160 00 00 00 00 00 00 00 00 00 00 00 00 00 00 00 00
       0.0 0.0 0.0 0.0
000170 00 00 00 00 00 00 00 00 00 00 00 00 00 00 00 00
       0.0 0.0 0.0 0.0
000180 00 00 00 00 00 00 00 00 00 00 00 00 00 00 00 00
       0.0 0.0 0.0 0.0
000190 00 00 00 00 00 00 00 00 00 00 00 00 00 00 00 00
       0.0 0.0 0.0 0.0
0001a0 00 00 00 00 00 00 00 00 00 00 00 00 00 00 00 00
       0.0 0.0 0.0 0.0
0001b0 00 00 00 00 00 00 00 00 00 00 00 00 00 00 00 00
       0.0 0.0 0.0 0.0
0001c0 00 00 00 00 00 00 00 00 00 00 00 00 00 00 00 00
       0.0 0.0 0.0 0.0
0001d0 00 00 00 00 00 00 00 00 00 00 00 00 00 00 00 00
       0.0 0.0 0.0 0.0
0001e0 00 00 00 00 00 00 00 00 00 00 00 00 00 00 00 00
       0.0 0.0 0.0 0.0
0001f0 00 00 00 00 00 00 00 00 00 00 00 00 00 00 00 00
       0.0 0.0 0.0 0.0
