results/CubeAgentZoneRay-3/CubeAgentZoneRay-3/CubeAgentZoneRay-3-100023.onnx (onnx, 80046 bytes, 8 tensors)

action_model._continuous_distribution.log_sigma f4 [1, 2]
0	0xbe214a18	-0.15750921
1	0xbe50afa4	-0.20379502

action_model._continuous_distribution.mu.bias f4 [2]
0	0xbd7d11d7	-0.06178459
1	0x3d5fe4f6	0.054661714

action_model._continuous_distribution.mu.weight f4 [2, 128]
0	0x3cdb5cd4	0.026777662
1	0xbd48597d	-0.048913468
2	0x3bdad47f	0.0066781635
3	0xbcfb0358	-0.030641243
4	0x3d3e5a32	0.046472736
5	0x3d443418	0.047901243
6	0xbcf55678	-0.029948458
7	0xbcd39b9f	-0.025831042
8	0x3c903bfe	0.017606732
9	0xbc52d699	-0.012868547
10	0x3d059b30	0.0326187
11	0x3d81ebc1	0.063437946
12	0x3d282fdb	0.041061264
13	0xbc8e31d9	-0.017357754
14	0xbcdb2e4f	-0.02675548
15	0x3dbdc485	0.09265999
16	0x3dc75517	0.097330265
17	0x3d3c5c40	0.045986414
18	0xbcf481ec	-0.029847108
19	0xbd54d14f	-0.051957425
20	0xbceb3d66	-0.0287158
21	0x3da357e8	0.07975751
22	0x3da5cc57	0.08095615
23	0xbcc06c66	-0.023489188
24	0xbcf482e7	-0.029847575
25	0xbd4fb200	-0.050706863
26	0xbc488433	-0.01223855
27	0x3d467adc	0.04845701
28	0x3c2b33a4	0.010449324
29	0x3d591630	0.052999675
30	0x3c43b4ef	0.011944993
31	0x3d4ce8ff	0.05002689
32	0x3d8816bb	0.066449605
33	0x3cf430b8	0.029808387
34	0x3d6314ad	0.05543964
35	0xbc047ebf	-0.008086859
36	0xbcdb6553	-0.026781714
37	0x3b41055c	0.0029452657
38	0x3d5f3438	0.05449316
39	0x3d5ce3be	0.05392813
40	0x3d8ee126	0.069765374
41	0x3d1f374c	0.038871095
42	0x3d6443fa	0.05572889
43	0x3d308d2c	0.043103382
44	0x3c3c7973	0.011503565
45	0xbce110d1	-0.027473839
46	0x3c05b16d	0.008159977
47	0xbc911f2d	-0.017715061
48	0xbd10ae0a	-0.035322227
49	0x3cdc4ddc	0.026892595
50	0x3d62b6b0	0.055350006
51	0xbd0e6c10	-0.034771025
52	0x3d1de05b	0.03854404
53	0x3d829c8d	0.06377516
54	0xbb9685f8	-0.004593607
55	0x3d95b34e	0.0730959
56	0xbd667dfa	-0.056272484
57	0x3d47708e	0.048691325
58	0x3d0d8898	0.034554094
59	0xbd191458	-0.037372917
60	0xbd600617	-0.054693308
61	0xbd0411a5	-0.03224339
62	0xbd433835	-0.047661025
63	0xbd06e5c7	-0.032933977
64	0x3d5d7f95	0.05407675
65	0xbd3d2e4a	-0.046186723
66	0xbd47333a	-0.048632838
67	0xbc992684	-0.018695123
68	0xbbf57516	-0.0074907644
69	0x3d83ad02	0.06429483
70	0x3c6bb9bb	0.014387543
71	0xbcae1281	-0.021249058
72	0xbd081f6d	-0.033233095
73	0x3d2c8b7f	0.04212522
74	0x3c9654c9	0.018350976
75	0x3d915c73	0.070977114
76	0x3d55a7cc	0.052161977
77	0xbc32a19b	-0.010902788
78	0x3c4b3548	0.01240284
79	0x3d87f389	0.066382475
80	0x3d6f20be	0.058380835
81	0x3d942e3d	0.07235382
82	0x3d63781a	0.05553446
83	0xbd04e41d	-0.03244411
84	0xbc55714e	-0.013027502
85	0xbcbb5e6f	-0.022872178
86	0x3d54ab12	0.051920958
87	0x3dc3a697	0.09553259
88	0x3ca43b95	0.020047942
89	0xbd96bf19	-0.07360668
90	0xbc8f44e7	-0.01748891
91	0x3d3d547b	0.046223145
92	0xbc1c94ca	-0.009556958
93	0xbd41fa57	-0.047357883
94	0x3d8d192f	0.06889569
95	0x3c789ecc	0.015174579
96	0x3d33e3b4	0.043918326
97	0x3c18ffcf	0.009338333
98	0x3ce71e7e	0.028212782
99	0x3d76bd5f	0.060239192
100	0x3d524e2f	0.051344093
101	0xbcfb9306	-0.030709755
102	0xbd09db7c	-0.033656582
103	0xbdafcd2e	-0.08584057
104	0xbd0ed0b1	-0.034866992
105	0xbcbb26a5	-0.022845576
106	0xb9a8fa23	-0.00032229823
107	0x3c48c27a	0.012253398
108	0x3d79185a	0.06081424
109	0xbbc733bc	-0.0060791653
110	0x3c3b186f	0.0114194
111	0xbd2c1dc2	-0.042020567
112	0x3d2648ff	0.04059696
113	0x3c36cc6a	0.011157135
114	0xbcbe17cc	-0.023204707
115	0xbdea1805	-0.114303626
116	0xbd17c827	-0.037056115
117	0x3d6f18a9	0.058373127
118	0x3d8a8997	0.067645244
119	0x3d362f87	0.04447892
120	0xbcbc4a34	-0.022984602
121	0x3d4a88b0	0.04944676
122	0xbd2920c2	-0.041291006
123	0x3d766abd	0.060160387
124	0x3bc99637	0.00615194
125	0x3c49e974	0.012323726
126	0x3cd61264	0.026131816
127	0xbc051f3b	-0.008125122
128	0xbd42354e	-0.047414117
129	0x3cd4e7a1	0.025989356
130	0xbcf15ea5	-0.029464075
131	0x3d32878e	0.043586306
132	0xbd406660	-0.046972632
133	0xbd020a0b	-0.03174786
134	0x3d46bc9f	0.048519727
135	0x3cef12c8	0.02918376
136	0xbd8a77e3	-0.06761148
137	0xbd36ace5	-0.04459848
138	0xbda09e93	-0.07842746
139	0xbd1e8697	-0.038702574
140	0xb8378321	-4.3752723e-05
141	0x3d575c6a	0.052578367
142	0x3ca1a54c	0.01973214
143	0xbdb10923	-0.08644321
144	0xbd089530	-0.0333454
145	0x3cb9d971	0.022686692
146	0x3bdced04	0.0067421217
147	0x3d15389d	0.036430944
148	0x3dbaf980	0.091296196
149	0x3d86872b	0.0656875
150	0x3cf87479	0.030328976
151	0x3c9fef1e	0.0195232
152	0xbc556b36	-0.013026049
153	0xbcbaa75b	-0.02278488
154	0x3d45781b	0.048210245
155	0xbc9c6f2e	-0.019095983
156	0xbd8a0ab6	-0.06740324
157	0xbc62c296	-0.013840338
158	0xbcec4f3e	-0.02884638
159	0xbae9a3d9	-0.001782532
160	0xbd95c5a0	-0.073130846
161	0xbd5b7f97	-0.053588476
162	0xbd94e85a	-0.0727088
163	0x3d703b10	0.058650076
164	0x3d58f06d	0.052963663
165	0x3d87cf35	0.066313185
166	0xbd97f7d6	-0.07420318
167	0xbc3d4d1f	-0.011554032
168	0xbcd2a018	-0.025711104
169	0xbd560caa	-0.05225817
170	0xbd280be4	-0.041026965
171	0xbcc3966d	-0.02387544
172	0xbd99914c	-0.07498416
173	0x3d7e6e79	0.062117074
174	0xbd99b2ab	-0.07504781
175	0x3ce5a977	0.028034909
176	0x3d189a5a	0.037256576
177	0xbc7d4898	-0.015459202
178	0xbd5a81a2	-0.053346284
179	0xbc223cc5	-0.009902184
180	0x3d2656cc	0.04061012
181	0xbca45efa	-0.02006482
182	0xbd593484	-0.0530286
183	0x3ba40f66	0.0050067184
184	0x3d0474e5	0.03233804
185	0xbd488bb8	-0.04896137
186	0xbcc0cebd	-0.02353608
187	0x3ac56e8e	0.0015062855
188	0x3d227bfb	0.03966902
189	0x3d5bb2c7	0.053637292
190	0x3ce60a7e	0.028081175
191	0x3caf26da	0.02138083
192	0xbd84a681	-0.064770706
193	0xbca3c4d8	-0.019991323
194	0xbd199a58	-0.03750071
195	0x3d7e4efa	0.062087037
196	0x3cedd38b	0.029031536
197	0xbd100cb1	-0.035168353
198	0x3c10fe09	0.008849629
199	0x3d46dfb6	0.04855319
200	0x3d229060	0.039688468
201	0x3d8fecac	0.070275635
202	0xbd712f55	-0.05888303
203	0xbcf30d67	-0.029669477
204	0xbd9242c7	-0.07141643
205	0xbce3e424	-0.027818747
206	0xbd7c6b31	-0.061625663
207	0xbcfa93e0	-0.03058809
208	0xbd09b7cb	-0.033622544
209	0xbdb1a218	-0.08673495
210	0xbd01b3af	-0.0316655
211	0xbc89bb1a	-0.01681285
212	0x3d72fe0c	0.05932431
213	0x3ca9ee66	0.02074356
214	0xbd9eeba3	-0.07759788
215	0xbd1ed3f2	-0.038776346
216	0xbc4ef81d	-0.012632397
217	0x3d766283	0.06015254
218	0x3d552dae	0.052045517
219	0xbc0f0df0	-0.00873135
220	0xbd598a8e	-0.05311065
221	0x3d1b6aa0	0.037943482
222	0xbcdeb34b	-0.027185103
223	0xbd60e1ab	-0.054902714
224	0xbcfa6053	-0.03056351
225	0x3d4a1832	0.04933948
226	0x3cc5f4f0	0.024164647
227	0xbca3b0fb	-0.019981852
228	0xbc929ffa	-0.017898548
229	0x3c857d1e	0.016295012
230	0xbac704db	-0.0015183942
231	0x3cb8ec20	0.02257353
232	0x3cf09da6	0.029372048
233	0x3c800caf	0.015631048
234	0xbd84f707	-0.06492429
235	0xbdfaaa43	-0.12239506
236	0xbd4d832b	-0.05017392
237	0x3bee2fd1	0.0072688838
238	0xbda6805b	-0.081299506
239	0x3b8a4660	0.004219815
240	0x3d5eda4b	0.0544074
241	0x3d847e6b	0.06469425
242	0xbc8869dd	-0.016652042
243	0xbbca6248	-0.006176267
244	0xbd117071	-0.035507623
245	0xbd1909e9	-0.037362967
246	0xbd82bfb7	-0.06384223
247	0xbd886963	-0.06660726
248	0x3d29d500	0.0414629
249	0xbd4de801	-0.050270084
250	0x3c3da1b8	0.011574201
251	0xbdbda07c	-0.092591256
252	0x3baa1d66	0.005191493
253	0xbd03d48f	-0.032185134
254	0xbd5c9ff1	-0.05386347
255	0xbc0694af	-0.00821416

action_model._discrete_distribution.branches.0.weight f4 [1, 128]
0	0x3bb65b74	0.0055651013
1	0x3c4b69cd	0.012415362
2	0x3baa76d0	0.005202152
3	0x3b6166aa	0.0034393468
4	0x3bb07e76	0.005386169
5	0xbbca8c33	-0.006181264
6	0x39906a29	0.00027544916
7	0x3c2d09ce	0.01056142
8	0x3c34aa22	0.011026891
9	0xbba685f8	-0.0050818883
10	0x3b17ce2f	0.0023163666
11	0xbabab58b	-0.0014244778
12	0xba2b31cd	-0.0006530553
13	0x3c04de2b	0.00810961
14	0xba1303d7	-0.0005608177
15	0x3bb2a55d	0.0054518417
16	0xbaaf1830	-0.0013358649
17	0x3babcc0e	0.005242831
18	0xbaa500bd	-0.0012588721
19	0xbbb7be0d	-0.0056073726
20	0xbba92aad	-0.005162558
21	0xbaf7231d	-0.0018855069
22	0x3c1d3725	0.009595667
23	0xbbfd9580	-0.007738769
24	0xb9b64007	-0.0003476145
25	0x3bbae573	0.005703622
26	0x3be45540	0.0069681704
27	0xbbebe5ea	-0.0071990388
28	0xbc462391	-0.012093441
29	0xbc1a7283	-0.009426716
30	0x3c6ea0ba	0.014564687
31	0x3b799517	0.003808325
32	0x3b0ac099	0.0021171926
33	0xbc310bf7	-0.010806075
34	0xbb67b065	-0.0035352942
35	0x3c236f04	0.009975199
36	0xbbb4ccd0	-0.0055175796
37	0xbbc477eb	-0.0059957406
38	0xbc806058	-0.01567094
39	0xba3ff3d1	-0.0007322403
40	0x3ab629ed	0.0013897993
41	0x3aeb4498	0.001794952
42	0xbb0cc54e	-0.0021479907
43	0xba81647a	-0.0009871863
44	0xbc080cb7	-0.008303813
45	0x3c7fb008	0.015605934
46	0xbbf770e2	-0.0075512985
47	0xbc4e0957	-0.012575469
48	0x3bd86f43	0.0066050603
49	0xbca21117	-0.01978354
50	0xbb2905b6	-0.0025790757
51	0x3b2727f2	0.0025505987
52	0xbbf8654d	-0.0075804354
53	0xbb3ea931	-0.0029092545
54	0xbb78cd5a	-0.0037964196
55	0x3b1d56d8	0.0024008062
56	0xbbe08397	-0.006851624
57	0xba2e5b39	-0.00066511665
58	0xb9526fbf	-0.0002006879
59	0x3b2c6480	0.002630502
60	0xbb3b3c0b	-0.0028569724
61	0x3a9a3c53	0.0011767246
62	0x3b0ba7ef	0.0021309813
63	0xbc0de1ff	-0.008659839
64	0x3bc2503b	0.0059299744
65	0x3cc38098	0.02386503
66	0x3c894e75	0.016761044
67	0x3a916222	0.0011091868
68	0x3c2e9157	0.010654769
69	0x3a5d45eb	0.00084408995
70	0x3ac97d3f	0.0015372409
71	0xbcec6a2f	-0.028859226
72	0x3c0aeacf	0.008478834
73	0x3bf5df4b	0.0075034252
74	0x3c5a9708	0.013341673
75	0x3c731338	0.014836125
76	0x3b24cec3	0.0025147654
77	0xba426a99	-0.0007416397
78	0x3b4aee45	0.0030964774
79	0xbc0ebb71	-0.008711682
80	0xba8e135a	-0.0010839507
81	0xbc16859e	-0.00918713
82	0x3adbbdca	0.0016764936
83	0xbbcc4367	-0.006233621
84	0xb94c25c9	-0.00019469032
85	0x3bb405b2	0.005493843
86	0x3b40b357	0.002940377
87	0xb9d3d6c2	-0.00040405063
88	0xbb3280ed	-0.002723749
89	0xbaf8ffa2	-0.0018997083
90	0x3be1104d	0.0068683983
91	0xbb774205	-0.003772856
92	0x3b8149f6	0.0039455844
93	0x3bea86ba	0.007157174
94	0x3c4a80be	0.012359796
95	0x3bcf6ee0	0.006330356
96	0xbbbb6f7f	-0.0057200785
97	0x3b331b55	0.0027329524
98	0x3b84c493	0.004051754
99	0x3c858687	0.0162995
100	0xbbeefa08	-0.0072929896
101	0x3aa441cf	0.001253182
102	0xbb55f6ef	-0.0032648405
103	0x3b41b3db	0.0029556665
104	0x3b93e109	0.0045129103
105	0xbaa68350	-0.0012703929
106	0xbbf098ff	-0.0073424573
107	0x3bb50f43	0.005525501
108	0x3a151e0b	0.00056883757
109	0x3a0085f9	0.0004902776
110	0x3b999abc	0.004687635
111	0x3aa4fee4	0.001258817
112	0x3a16ea87	0.0005756993
113	0x394b0281	0.00019360521
114	0xbbfd3d63	-0.007728265
115	0x3b43c21c	0.0029870337
116	0xbb496f1b	-0.003073639
117	0x3b78628b	0.0037900533
118	0x3b8875a2	0.0041644135
119	0xbc9c7769	-0.019099908
120	0x3bba6e7f	0.0056894417
121	0x3a509ecb	0.00079582323
122	0xba144a42	-0.0005656817
123	0xbb92cf74	-0.0044802967
124	0x3bc532cc	0.0060180184
125	0xbb80df8e	-0.0039329
126	0x3caaee4e	0.020865586
127	0xbc27c27a	-0.010239238

network_body._body_endoder.seq_layers.0.bias f4 [128]
0	0x3c42e848	0.0118962005
1	0xbd1d50e3	-0.038407218
2	0x3d4bf46f	0.049793657
3	0x3c84475b	0.016147306
4	0xbdd1e531	-0.10248793
5	0x3ca47b1e	0.020078238
6	0xbd77da8a	-0.06051115
7	0x3d644ef5	0.05573936
8	0x3cd88842	0.02643216
9	0x3c8ac184	0.016937979
10	0xbd2036c7	-0.03911474
11	0xbd05104b	-0.03248624
12	0xba1e90c9	-0.00060487963
13	0xbc7cce16	-0.015429994
14	0x3c6ff43b	0.014645631
15	0xbd82ef76	-0.0639333
16	0xbd4b87b4	-0.049689963
17	0xbdadfc57	-0.08495396
18	0xbcea58ed	-0.028606856
19	0x3d666854	0.05625184
20	0x3c3193c1	0.01083845
21	0x3b9f90ff	0.00486958
22	0x3cfa26de	0.030536111
23	0x3d2b1e27	0.041776802
24	0xbcf1f1cc	-0.029534243
25	0xbde1fb02	-0.11034204
26	0x3bee7907	0.007277611
27	0xbdb78318	-0.08960551
28	0xbca2bbb4	-0.019864894
29	0xbd7a44f0	-0.0611009
30	0xbc90cdd6	-0.017676275
31	0x3c699a95	0.014258047
32	0xbcf0c24c	-0.029389523
33	0x3d62e521	0.055394296
34	0x3caee6ce	0.02135029
35	0xbd7047ed	-0.058662344
36	0xbd79bfb5	-0.06097384
37	0xbbce8169	-0.006302048
38	0x3ce76d2a	0.028250296
39	0xbc24da74	-0.010061849
40	0xbd396e98	-0.045271486
41	0x3d3abf27	0.045592453
42	0x3ca2097a	0.01977991
43	0xbca15139	-0.01969205
44	0x3d56fb1b	0.052485567
45	0x3d0c5a20	0.034265637
46	0x3c918404	0.017763145
47	0x3bb6dc6f	0.005580477
48	0x3d8005ec	0.062511295
49	0xbd0fa337	-0.035067763
50	0xbd08e3a0	-0.033420205
51	0xbc700565	-0.014649724
52	0x3cfa85a7	0.030581309
53	0xbce10bb5	-0.027471403
54	0xbd0cd6a5	-0.03438439
55	0x3d48bad1	0.049006287
56	0xbaa8f558	-0.0012890501
57	0x3c30afc2	0.010784091
58	0xbce3ec63	-0.027822679
59	0xbd968d9f	-0.07351231
60	0xbd04e98a	-0.032449283
61	0x3c30acc0	0.010783374
62	0xbc80aaa5	-0.01570637
63	0x3d522a77	0.05131003
64	0xbd5808da	-0.052742817
65	0xbd270c49	-0.0407832
66	0xbc0aa711	-0.008462683
67	0x3ce8a27c	0.028397791
68	0xbd285361	-0.04109514
69	0x3d911b33	0.07085266
70	0xbca45df7	-0.020064337
71	0xbd638769	-0.05554906
72	0x3cd25a59	0.025677847
73	0x3c6114d4	0.013737876
74	0x3bf55ce6	0.007487881
75	0xbd823fd2	-0.06359829
76	0x3d34bde3	0.044126403
77	0xbd4da758	-0.05020842
78	0xbd16a8b0	-0.036781967
79	0xbd43f749	-0.04784325
80	0xbbb12388	-0.005405847
81	0xbd90dc15	-0.07073227
82	0xbc9f95cd	-0.01948061
83	0x3d104e94	0.035231188
84	0x3d2c49f3	0.04206271
85	0x3d025830	0.031822383
86	0x3d6e24de	0.058140628
87	0x3d2de991	0.042459074
88	0xbd7f5d8c	-0.062345073
89	0xbd107e31	-0.035276596
90	0xbc2ac39b	-0.010422613
91	0xbd83c7d6	-0.064346
92	0xbd91dec8	-0.0712257
93	0xbc686fe0	-0.014186829
94	0x3ba3046b	0.004974892
95	0xbd54ecbc	-0.05198358
96	0xbce32530	-0.027727693
97	0x3cb9cfe8	0.022682145
98	0xbd3b19e9	-0.045679007
99	0xbd653822	-0.055961736
100	0xbd547ebe	-0.051878683
101	0x3c8a9746	0.016917836
102	0x3cd30009	0.025756853
103	0x3d07330f	0.033007678
104	0x3cb12872	0.021625731
105	0xbcd07887	-0.025448097
106	0x3d9cdd18	0.07659358
107	0x3cac7a93	0.021054542
108	0x3d9d6c6c	0.076866955
109	0x3bb7e459	0.005611938
110	0xbc97ffe1	-0.01855463
111	0x3c9c13d5	0.019052425
112	0x3d73eda6	0.05955281
113	0x3ce82fe5	0.02834315
114	0xbdac8e3f	-0.08425569
115	0xbc34c1cc	-0.011032533
116	0x3ccc325e	0.02492636
117	0x3d0151c7	0.03157213
118	0xbc5b92a0	-0.013401657
119	0xbcd54e39	-0.026038276
120	0x3be1da20	0.0068924576
121	0x3d46bb4d	0.048518468
122	0xbc3f4f2e	-0.011676593
123	0xbc37cf7f	-0.0112189045
124	0xbd8c8627	-0.06861525
125	0xbab5c055	-0.0013866524
126	0x3bc0b3f8	0.005880829
127	0xbd33c664	-0.043890372

network_body._body_endoder.seq_layers.0.weight f4 [128, 17]
0	0x3e1a723d	0.15082641
1	0xbe24a99c	-0.16080326
2	0x3ea418b5	0.320501
3	0x3e9352fe	0.28774256
4	0x3d58e71a	0.05295477
5	0x3e753938	0.23947608
6	0x3e9f6c26	0.31137198
7	0x3e70d604	0.2351914
8	0x3da7e867	0.08198624
9	0x3ee20c2c	0.4414991
10	0xbe8ca435	-0.2746903
11	0x3d038ceb	0.03211681
12	0xbe59bb3e	-0.21262833
13	0xbd7cc1fd	-0.06170844
14	0x3e44bf78	0.19213665
15	0xbd7e46d1	-0.062079255
16	0x3d7475fc	0.05968283
17	0x3ede6e6c	0.4344362
18	0x3e1f7229	0.15570892
19	0xbe0b7eac	-0.1362254
20	0xbd5f8095	-0.054565985
21	0xbe152fd7	-0.1456903
22	0xbe27b9c3	-0.16379456
23	0xbe9d2c25	-0.30697742
24	0xbce2ee9f	-0.027701674
25	0xbdf56d8b	-0.11983784
26	0x3ddb4349	0.10706193
27	0xbeb1b7cb	-0.34710535
28	0xbdca168b	-0.09867581
29	0xbcc5043d	-0.024049873
30	0xbe9c0b8d	-0.30477563
31	0x3de2903a	0.11062665
32	0xbe475475	-0.19465812
33	0x3e20ad36	0.15691075
34	0x3e9c26f0	0.30498457
35	0x3eb7509e	0.35803694
36	0xbeb6bb6a	-0.3568986
37	0xbe2d0b80	-0.16898918
38	0xbe4d0790	-0.20022416
39	0x3ef2b057	0.47400162
40	0x3f67726f	0.90408987
41	0xbebae0c4	-0.36499608
42	0x3d5aec54	0.053448036
43	0xbe054195	-0.13013299
44	0x3ec9d6e2	0.39421755
45	0x3e6013ab	0.21882503
46	0x3e196995	0.14981683
47	0xbcb46627	-0.022021366
48	0x3dee896f	0.11647307
49	0x3e15a0fe	0.14612195
50	0xbedb2d48	-0.42807984
51	0x3ee32406	0.4436342
52	0xbc4b04e6	-0.012391305
53	0x3e0466c5	0.12929828
54	0x3e0efd06	0.13963708
55	0xbf04e134	-0.5190613
56	0x3e6855a6	0.22688922
57	0xbe5651c4	-0.20929629
58	0xbe09251b	-0.13393061
59	0x3dd126fc	0.10212514
60	0x3db3a5a4	0.08771828
61	0xbf1bc71c	-0.6085069
62	0xbec69eb2	-0.3879295
63	0xbdc0aaec	-0.09407601
64	0x3ef69201	0.48158267
65	0xbeaaf475	-0.3338963
66	0x3dccc85a	0.099991515
67	0x3e09c65a	0.13454571
68	0xbdacaeda	-0.08431788
69	0x3d26c8e6	0.040718935
70	0x3c42e0bf	0.011894404
71	0x3d3192c6	0.043352865
72	0xbcccaee2	-0.024985734
73	0xbe08cfb9	-0.1336049
74	0xbea081dd	-0.31349078
75	0x3d1160b8	0.03549263
76	0xbe175d7a	-0.14781752
77	0x3eb385bd	0.35062972
78	0x3e735f69	0.23766865
79	0xbf370ba3	-0.7150213
80	0xbce7f622	-0.028315607
81	0xbe4a0da7	-0.1973177
82	0x3ee06e4b	0.43834147
83	0x3e8070ad	0.25085965
84	0x3d695b34	0.056971744
85	0xbdd1288b	-0.10212811
86	0xbdf6056a	-0.120127514
87	0x3e89f2cf	0.2694306
88	0xbe02114b	-0.12701909
89	0xbe5e3a99	-0.2170204
90	0xbe83eb54	-0.2576548
91	0x3e4d777a	0.20065108
92	0x3d8ceb68	0.06880838
93	0x3c354e29	0.011065998
94	0x3ea1cdfc	0.31602466
95	0xbe19ceb9	-0.15020265
96	0xbf203bb3	-0.62591094
97	0x3ed5f374	0.41787302
98	0x3f15e7b4	0.58556676
99	0xbedb9d4f	-0.42893454
100	0xbd9ddb01	-0.07707787
101	0xbe4ac0d4	-0.1980012
102	0xbe89dd6c	-0.26926744
103	0xbd8d4f18	-0.068998516
104	0x3dd1dbc3	0.10246994
105	0x3d35f923	0.04442705
106	0x3cf0c86d	0.029392445
107	0xbd195b6c	-0.037440702
108	0xbe24e523	-0.16103034
109	0x3e3e78f8	0.18600833
110	0xbdb8bf43	-0.09020855
111	0xbe2b5ce1	-0.16734649
112	0xbeb012e6	-0.34389418
113	0xbe927e3a	-0.28611928
114	0xbc26e5ed	-0.0101866545
115	0x3e0e21af	0.13880037
116	0x3d5549ed	0.052072454
117	0xbeaf93fb	-0.34292588
118	0x3e2fcdd4	0.17168361
119	0xbebf966d	-0.37419453
120	0xbcd196d2	-0.025584612
121	0xbe6f034a	-0.23341098
122	0x3dbec820	0.093155146
123	0xbe649a41	-0.22324468
124	0x3cbface7	0.023397876
125	0x3e135290	0.14386964
126	0x3eb5d41b	0.35513386
127	0x3f0abc22	0.5419332
128	0xbe941e8c	-0.28929555
129	0xbd74fef3	-0.05981345
130	0x3e9944e7	0.2993538
131	0xbcd78c27	-0.026311947
132	0xbd2de4be	-0.042454474
133	0xbeadbf73	-0.33935127
134	0x3d2913c2	0.04127861
135	0xbe0b1a39	-0.13584222
136	0x3e95e6e5	0.2927772
137	0x3d6b43ef	0.057437833
138	0x3d5dc229	0.054140244
139	0xbe80472b	-0.25054297
140	0xbe86cca8	-0.26328015
141	0x3eb8abc9	0.36068562
142	0x3c11d59c	0.008901026
143	0x3e282085	0.16418655
144	0xbbd24202	-0.00641656
145	0xbcda8870	-0.026676387
146	0xbe35a696	-0.17739329
147	0x3e87aae2	0.2649756
148	0x3f01dfee	0.50732315
149	0xbdb4b534	-0.08823624
150	0xbe86e555	-0.2634684
151	0x3dafb0c2	0.08578636
152	0xbcf1d13d	-0.029518718
153	0xbe80d47f	-0.25162122
154	0xba78dec4	-0.0009493644
155	0x3db6cbbf	0.0892558
156	0xbeaba0b0	-0.33521032
157	0xbed2fa0c	-0.41206396
158	0x3db25ad2	0.08708729
159	0xbe3b5082	-0.1829243
160	0x3f31142e	0.69171417
161	0x3ee9abff	0.45639035
162	0x3dcdec1f	0.10054802
163	0xbc9d5561	-0.01920575
164	0x3e9be4dc	0.30448043
165	0x3e713a5f	0.23557423
166	0x3cbf7679	0.023371922
167	0x3d466407	0.048435237
168	0x3e9df1c0	0.30848503
169	0x3dc7236c	0.09723553
170	0xbe438236	-0.1909264
171	0xbe5e784f	-0.21725582
172	0x3e8d2a79	0.27571467
173	0x3e7e0974	0.24808294
174	0xbe6dc840	-0.2322092
175	0xbc77a52c	-0.015115064
176	0x3e583d0c	0.21117038
177	0xbdc1bfae	-0.09460388
178	0xbc202d9f	-0.009776502
179	0xbe751934	-0.23935395
180	0x3e567dfd	0.20946498
181	0xbb55a9a0	-0.0032602325
182	0xbdabeccd	-0.083947755
183	0x3ce35085	0.027748356
184	0x3d33b924	0.043877736
185	0xbf0287f2	-0.50988686
186	0xbe7d9bdf	-0.24766491
187	0xbe114394	-0.14185935
188	0xbee5af47	-0.44860289
189	0xbd86bd70	-0.06579101
190	0xbebe277d	-0.37139502
191	0xbeffdd54	-0.49973547
192	0xbe7a3efe	-0.24438092
193	0xbee0f74c	-0.43938673
194	0x3d879ffc	0.066223115
195	0x3d6a5fc1	0.057220224
196	0x3de18759	0.11012144
197	0xbe23e7b1	-0.16006352
198	0x3d899ed4	0.06719747
199	0x3e5428e9	0.20718731
200	0xbdede06f	-0.11615073
201	0x3e65865c	0.22414535
202	0xbeb6b0d5	-0.35681787
203	0xbe4b0d4c	-0.19829291
204	0xbdb2d3e9	-0.08731825
205	0x3f01ed2f	0.5075254
206	0x3da1ffbc	0.079101056
207	0xbe9af454	-0.30264533
208	0x3dac9547	0.0842691
209	0xbed4e763	-0.41582784
210	0x3d953216	0.07284944
211	0xbe34be2b	-0.17650668
212	0x3df2e8f9	0.11860842
213	0x3e2e7e2c	0.17040318
214	0x3e9cd7d4	0.30633414
215	0x3e21e00e	0.15808126
216	0x3e048d60	0.12944555
217	0x3e34e61d	0.17665906
218	0x3cd55d05	0.026045332
219	0xbe729d69	-0.2369286
220	0x3e8d4e39	0.27598742
221	0xbe18d750	-0.14925885
222	0x3f07efa8	0.5310006
223	0xbdab350c	-0.08359727
224	0x3e7c9144	0.2466479
225	0xbd0d21dd	-0.034456123
226	0x3e0496b3	0.12948112
227	0x3e82c91b	0.25544056
228	0x3997aca2	0.00028929586
229	0xbf19d475	-0.6008981
230	0xbe8b4caf	-0.27206942
231	0xbe3482a1	-0.17627956
232	0xbde1123a	-0.109898046
233	0xbbb42305	-0.0054973387
234	0x3ddd0416	0.10791795
235	0xbe1be5d4	-0.15224391
236	0xbed8584f	-0.42254874
237	0x3e0dff68	0.13866961
238	0xbd83ab12	-0.064291134
239	0xbe37778d	-0.17916699
240	0xbe232610	-0.15932488
241	0xbe0e5bb5	-0.13902171
242	0xbe70b22c	-0.23505467
243	0x3f269228	0.65066767
244	0x3f066cd1	0.5250979
245	0xbe32c73a	-0.17458811
246	0xbe8f3fef	-0.27978465
247	0x3e6f50f6	0.23370728
248	0x3daeeeff	0.08541679
249	0xbe01493c	-0.12625593
250	0xbeab2171	-0.3342395
251	0x3e19d4b7	0.1502255
252	0xbe880587	-0.26566717
253	0xbd9e43f2	-0.07727803
254	0x3dfa120c	0.122104734
255	0xbea1d988	-0.31611276

network_body._body_endoder.seq_layers.2.bias f4 [128]
0	0xbd87a7c3	-0.06623795
1	0x3d52b1b5	0.051439006
2	0xbd8b3b20	-0.067983866
3	0x3d561f53	0.052275967
4	0xbd71489a	-0.05890713
5	0xbd59c4a7	-0.053166058
6	0x3d5a10c9	0.053238664
7	0x3d48f215	0.049058992
8	0xbd1e8e8b	-0.03871016
9	0xbd5b35a0	-0.053517938
10	0xbd4a67a6	-0.049415253
11	0xbceea0b1	-0.029129358
12	0xbd966c6a	-0.07344897
13	0x3d77339b	0.06035195
14	0x3cc395f5	0.023875216
15	0xbcbb5dca	-0.02287187
16	0xbd898a70	-0.06715858
17	0xbd06cd20	-0.032910466
18	0xbb104f95	-0.002202009
19	0x3d87a40e	0.06623088
20	0x3d8efc71	0.06981743
21	0x3d05bfed	0.032653738
22	0xbc2e7748	-0.010648556
23	0x3d0d2aee	0.03446477
24	0xbca47944	-0.020077355
25	0x3cea7867	0.028621865
26	0x3d884772	0.06654252
27	0xbd95bb37	-0.07311099
28	0xbd2f3cd4	-0.04278262
29	0xbdaf1b33	-0.0855011
30	0xbd9f33db	-0.077735625
31	0xbda67f4a	-0.08129747
32	0xbd0da187	-0.034577873
33	0xbd6f5068	-0.05842629
34	0xbd776861	-0.060402278
35	0x3d50cae0	0.050974727
36	0x3d67968e	0.056540065
37	0x3d1f272d	0.03885572
38	0xbcc881fd	-0.024476046
39	0xbdc651bb	-0.096835576
40	0xbd8fbe22	-0.07018687
41	0xbcf5ae4b	-0.029990336
42	0xbd557338	-0.052111834
43	0xbd2c4c4e	-0.042064957
44	0xbd320861	-0.043465022
45	0x3d4633da	0.048389293
46	0xbcec6f3a	-0.02886163
47	0x3c406c5c	0.011744585
48	0x3d6901e7	0.05688658
49	0xbbca0a37	-0.0061657685
50	0xbd7fd39d	-0.06245767
51	0xbb8005b7	-0.0039069313
52	0x3cc6203b	0.02418529
53	0x3b0adbd8	0.0021188166
54	0xbd30e30d	-0.043185282
55	0xbd842417	-0.06452196
56	0x3d6c4b2b	0.057688873
57	0xbce7f56f	-0.028315274
58	0xbde860c8	-0.113465846
59	0x3b9de338	0.0048183464
60	0x3d6db0a6	0.058029793
61	0x3d91865b	0.071057044
62	0x3d3af711	0.045645777
63	0x3cc5317c	0.024071448
64	0xbd438031	-0.047729675
65	0x3be26f96	0.0069102747
66	0xbc5b6069	-0.013389685
67	0x3d5349a4	0.0515839
68	0x3cabc651	0.020968588
69	0xbd9d7318	-0.07687968
70	0xbd3da441	-0.046299223
71	0x3d69a98a	0.05704645
72	0x3d414dc1	0.047193293
73	0x3c979e8b	0.018508216
74	0xbd3d679f	-0.0462414
75	0xbd4f9429	-0.050678406
76	0xbd2a82cb	-0.04162864
77	0xbd152681	-0.036413673
78	0xbd1f0755	-0.03882535
79	0xbd486439	-0.048923705
80	0xbd970590	-0.07374108
81	0xbd2ff96e	-0.042962484
82	0xbd8621c5	-0.0654941
83	0x3ca0280f	0.019550351
84	0x3d0c0afe	0.03419017
85	0x3d208a6c	0.03919451
86	0xbd031a13	-0.03200729
87	0xbcef109c	-0.029182725
88	0xbda2f3d3	-0.07956662
89	0x3d9db8d4	0.07701269
90	0x3d4d40c8	0.05011061
91	0xbd94ba78	-0.072621286
92	0xbd09ed73	-0.033673715
93	0x3d2f6e24	0.042829648
94	0xbda4875f	-0.080336325
95	0xbd2a1233	-0.041521262
96	0xbdad23de	-0.08454107
97	0xbb2b3723	-0.0026125393
98	0xbd24ae32	-0.040205188
99	0xbd95adda	-0.0730855
100	0xbda49106	-0.080354735
101	0x3c417fee	0.011810286
102	0x3c836fae	0.016044464
103	0x3d404bd3	0.04694731
104	0x3d0062f9	0.031344388
105	0x3d46b86d	0.048515726
106	0xbcc2cd51	-0.023779543
107	0xbc93c267	-0.018037034
108	0xbd2d6e65	-0.04234161
109	0xbcecbc09	-0.028898256
110	0xbd1ed52c	-0.038777515
111	0x3d008552	0.031377144
112	0x3cb68a13	0.022282636
113	0x3d01f279	0.03172538
114	0xbb3f2c1a	-0.0029170574
115	0x3d301be8	0.042995363
116	0xbd2d261b	-0.04227267
117	0xbd6bcd37	-0.057568755
118	0xbdab08bc	-0.08351275
119	0xbd0113c4	-0.03151299
120	0x3d36bf58	0.044616073
121	0xbd7d2e81	-0.061811928
122	0x3ce94a2f	0.028477756
123	0xbd142842	-0.036171205
124	0x3cd36342	0.025804166
125	0xbd964150	-0.07336676
126	0xbd1f3d9f	-0.038877126
127	0x3b01289a	0.0019708038

network_body._body_endoder.seq_layers.2.weight f4 [128, 128]
0	0xbd4dba0c	-0.050226256
1	0x3d296c56	0.041363083
2	0x3d601497	0.054707136
3	0xbd3d7358	-0.04625258
4	0x3e287c76	0.16453728
5	0xbe1160a0	-0.14197016
6	0xbe592616	-0.21205935
7	0xbe60c5fc	-0.21950525
8	0x3e1400f9	0.14453496
9	0xbd0fd09d	-0.03511106
10	0x3cfd0147	0.030884398
11	0x3e239cea	0.15977827
12	0xbdfe5e15	-0.124202885
13	0x3c3abb59	0.011397206
14	0xbd7e4f27	-0.062087204
15	0x3e1aa50b	0.15102021
16	0x3dbf06ab	0.09327444
17	0xbbcfb096	-0.0063381894
18	0xbe5c7eba	-0.21532717
19	0xbdbbfe3f	-0.09179353
20	0xbcd7cda6	-0.026343178
21	0xbccf4dfe	-0.025305744
22	0xbdda695f	-0.10664629
23	0xbdba82ef	-0.09107005
24	0xbe34672a	-0.17617479
25	0x3da22cc7	0.07918697
26	0xbd8ffec4	-0.070310146
27	0xbd16cae3	-0.03681458
28	0xbcc1f43e	-0.023676034
29	0xbd1c3f8a	-0.038146533
30	0x3e140b5f	0.14457463
31	0xbe3add9f	-0.18248604
32	0x3d8ed402	0.06974031
33	0xbc19368c	-0.009351384
34	0xbde38889	-0.111100264
35	0x3e0fd633	0.14046554
36	0xbd3ed079	-0.046585534
37	0x3da8cc2d	0.082420684
38	0xbe2ac50b	-0.16676728
39	0xbdd9e1de	-0.10638784
40	0x3b8e9d4c	0.0043522473
41	0xbd221de9	-0.039579306
42	0xbdeeeecc	-0.11666641
43	0xbc3568aa	-0.011072317
44	0xbe311bc1	-0.17295744
45	0x3dadaf2d	0.08480678
46	0xbe4d0dcf	-0.20024799
47	0x3db43059	0.08798284
48	0x3dc2a5f7	0.095043115
49	0x3dc1ad29	0.09456856
50	0x3e148409	0.14503492
51	0xbd3d5575	-0.046224076
52	0xbdb5767f	-0.08860492
53	0x3bc70c6c	0.006074479
54	0xbc5368a8	-0.01290337
55	0x3daaffe9	0.08349592
56	0xbd9f038d	-0.07764349
57	0xbce67224	-0.028130598
58	0x3d8d1aa1	0.06889845
59	0x3e4559fe	0.1927261
60	0x3d8f5945	0.06999449
61	0x3d0d21d7	0.0344561
62	0x3c5d7294	0.013516087
63	0xbb0da70c	-0.002161446
64	0x3d122efc	0.03568934
65	0x3e1bd314	0.15217239
66	0x3d34a2e9	0.044100676
67	0xbd940ba3	-0.07228782
68	0xbadf64ff	-0.0017043649
69	0x3e222600	0.15834808
70	0xbe21c6cb	-0.1579849
71	0x3db998be	0.090623364
72	0xbdabe84b	-0.08393916
73	0xbe569409	-0.20954908
74	0xbdcef062	-0.10104443
75	0xbc9448cb	-0.018101117
76	0xbddc7c4e	-0.10765897
77	0x3bd9bc31	0.0066447486
78	0xbbb12605	-0.0054061436
79	0x3dba3db6	0.09093802
80	0xbdb73a35	-0.08946649
81	0xbd0874a2	-0.033314355
82	0xbd5e5d02	-0.054287918
83	0x3ca109d6	0.01965801
84	0xbd0c06d9	-0.034186218
85	0x3d1b77cf	0.037956055
86	0xbd9b619d	-0.07586978
87	0xbde6f19f	-0.11276554
88	0xbccc6fc8	-0.024955645
89	0xbdb3e156	-0.08783214
90	0x3d826907	0.063676886
91	0xbc299e76	-0.010352721
92	0x3b300a2e	0.0026861536
93	0xbc9ef1a6	-0.019402336
94	0x3d1dc3b9	0.038516734
95	0x3d384a55	0.044992764
96	0xbdb45d86	-0.08806901
97	0x3dac28b6	0.084062025
98	0x3d54c2a8	0.05194345
99	0x3d762457	0.06009325
100	0x3e2347b5	0.15945323
101	0xbd214a14	-0.039377287
102	0x3c019f8a	0.007911572
103	0x3dc92bd1	0.098228104
104	0xbd32f343	-0.043689024
105	0x3c48b3a2	0.012249859
106	0x3d20bf89	0.039245162
107	0x3b8e65ef	0.0043456475
108	0xbb19aa78	-0.0023447555
109	0xbd23053a	-0.039799906
110	0xbd6beaa7	-0.05759683
111	0xbe03ece0	-0.1288333
112	0xbd0bb384	-0.034106746
113	0xbccf97d2	-0.025340948
114	0x3cba95fa	0.022776593
115	0x3d168e44	0.03675677
116	0xbc9fae68	-0.019492343
117	0xbe0c52a1	-0.13703395
118	0x3e628f6a	0.2212502
119	0xbdaf4c56	-0.08559482
120	0x3e119151	0.1421559
121	0x3c921e10	0.0178366
122	0xbcc67f2f	-0.024230568
123	0x3d7a3f2a	0.061095394
124	0x3ddd0b28	0.107931435
125	0xbd6c3a93	-0.05767305
126	0xbcc6fb99	-0.024289893
127	0xbe3c1a36	-0.18369374
128	0x3e32b7cb	0.17452924
129	0x3b793aab	0.0038029354
130	0x3daf1113	0.085481785
131	0xbcb3ec58	-0.021963283
132	0xbe321f29	-0.17394699
133	0xbe255009	-0.16143812
134	0xbdc2127a	-0.094761804
135	0x3d5dcc5c	0.05414997
136	0xbdeffffa	-0.117187455
137	0x3db2bfea	0.08728011
138	0x3ccac1ff	0.024750708
139	0xbb5d6dc9	-0.003378736
140	0x3d8b2620	0.06794381
141	0x3d2ee65a	0.04270015
142	0xbdf1650a	-0.1178685
143	0x3dc0192b	0.093798004
144	0xbe3527a9	-0.1769091
145	0xbd346d89	-0.044049773
146	0xbcdfd6fc	-0.027324192
147	0xbd99f518	-0.07517451
148	0xbded9a79	-0.11601729
149	0x3c9103a6	0.017701935
150	0x3e51b483	0.20479016
151	0x3dcdb396	0.10044019
152	0x3d56236a	0.052279867
153	0xbe5358a0	-0.20639277
154	0x3d955a48	0.072926104
155	0x3dac1fc7	0.084044985
156	0x3de2d83d	0.110764004
157	0xbd1a5582	-0.037679203
158	0xbdd21899	-0.10258598
159	0x3d5d38e7	0.054009344
160	0x3d1d8422	0.03845609
161	0xbdc45966	-0.09587364
162	0xbd70df71	-0.05880684
163	0xbdcb9da9	-0.09942181
164	0xbe548112	-0.20752361
165	0xbd926c79	-0.07149596
166	0xbd5726cb	-0.05252723
167	0xbe0a2d1d	-0.13493772
168	0xbb535b99	-0.0032250641
169	0x3e1ac5d7	0.15114532
170	0xbdb283de	-0.08716558
171	0xbdb0aaf7	-0.08626359
172	0x3e2456f2	0.16048792
173	0x3ce90958	0.028446838
174	0xbde9a30f	-0.11408054
175	0xbe156d16	-0.14592394
176	0x3dfede09	0.124446936
177	0xbd87b396	-0.0662605
178	0xbdc75856	-0.097336456
179	0xbd00239f	-0.03128397
180	0x3d8ac2cf	0.06775438
181	0xbc3b06b8	-0.011415176
182	0x3d2e2aa9	0.042521153
183	0x3e157cb9	0.14598359
184	0xbd7b1627	-0.061300423
185	0x3bc4d0cf	0.0060063372
186	0xbdca51a8	-0.09878856
187	0xbe8ec1ed	-0.2788233
188	0xbda20c15	-0.07912461
189	0xbdb1a521	-0.08674074
190	0xbd18f817	-0.037345972
191	0x3d8e9e42	0.06963779
192	0xbe0d15b8	-0.13777816
193	0xbc6b0093	-0.014343399
194	0xbd78f1b3	-0.060777377
195	0x3d05c3b6	0.032657348
196	0xbdb91800	-0.09037781
197	0xbcd22a28	-0.025654867
198	0xbdd1ce10	-0.102443814
199	0x3dade095	0.08490101
200	0xbc33bb4e	-0.01096995
201	0xbd58c788	-0.052924663
202	0x3dde7051	0.108612664
203	0xbd08de26	-0.033414982
204	0x3e2725fc	0.16323084
205	0x3d55b064	0.052170172
206	0xbca64195	-0.020294944
207	0x3d9c85b0	0.07642686
208	0xbc65da41	-0.014029087
209	0xbd25f3c8	-0.04051569
210	0x3d5d30ef	0.054001745
211	0x3ddfb7a3	0.10923698
212	0xbd71b903	-0.05901433
213	0x3de06604	0.10956958
214	0xbc49a7c6	-0.012308067
215	0xbda8cda1	-0.082423456
216	0xbde3f28f	-0.11130249
217	0x3d034a00	0.032052994
218	0x3d90a2b1	0.07062281
219	0x3d057e0f	0.032590922
220	0xbe75ea65	-0.24015196
221	0x3d91351c	0.07090208
222	0xbdf893d5	-0.12137572
223	0x3c3e1dbb	0.011603768
224	0x3d5ed566	0.05440273
225	0xbdb54067	-0.088501744
226	0x3e1112fb	0.14167397
227	0xbd8f1c20	-0.06987786
228	0xbe440e23	-0.19146018
229	0xbd50453c	-0.050847277
230	0x3e00db4e	0.12583658
231	0x3dd31e13	0.103084706
232	0x3db3e9c0	0.08784819
233	0xbd0bec27	-0.03416076
234	0xbdeb74fa	-0.11496921
235	0x3dc50b07	0.09621244
236	0x3cbaf7be	0.02282321
237	0xbe1cb8bb	-0.15304844
238	0xbde10c02	-0.109886184
239	0x3ddce4bf	0.10785817
240	0x3dc1b481	0.094582565
241	0xbded2afe	-0.11580466
242	0xbc360a6a	-0.011110881
243	0xbdaa3d8f	-0.083125226
244	0x3d88e4c4	0.066842586
245	0xbc3abecf	-0.011398031
246	0xbdab0f68	-0.08352548
247	0x3d02246d	0.03177302
248	0x3e57f445	0.21089275
249	0x3dc11c12	0.09429182
250	0xbdbe6fda	-0.09298678
251	0xbba53bbc	-0.0050425213
252	0x3d8ea8dc	0.06965801
253	0x39a734f3	0.00031892172
254	0x3d06834c	0.03284006
255	0x3b85e6d9	0.004086357
