results/CubeAgentZoneRay-View-90/CubeAgentZoneRay/CubeAgentZoneRay-400062.pt (torch, 476943 bytes, 39 tensors)

network_body._body_endoder.seq_layers.0.weight f4 [128, 17]
000000 03 81 cd 3c c3 dc 3c 3d 4a c7 fc 3e 7d 69 3b 3d
       0.025085932 0.046108972 0.49370795 0.0457549
000010 c1 08 46 3e 9e 17 06 3e 96 cb f0 bb 2a 5b 20 3e
       0.19339277 0.13094947 -0.007348488 0.15659776
000020 97 ab 9a 3e df 82 b2 3e e4 f4 ea 3d 5b a2 54 be
       0.30209038 0.34865472 0.114724904 -0.20765059
000030 21 42 f7 be 3c f7 64 be bb 2e cc bc c2 09 c3 be
       -0.4829264 -0.22359937 -0.024924627 -0.38093382
000040 77 71 ca bd ec 80 c2 3d 53 4c 77 be 9a 7c e0 3e
       -0.09884923 0.09497246 -0.24150209 0.43845063
000050 4a fe 76 3d dc 8d 26 be ce 4d 0a be b2 94 91 bc
       0.060301103 -0.16265053 -0.13506243 -0.017771099
000060 a9 26 d6 be d4 bd 07 3f a3 d0 56 3e b9 55 4c 3e
       -0.4182637 0.5302403 0.20978026 0.19954576
000070 cc 70 97 3e 27 84 b4 be 67 89 d5 bd b6 4f 9f bd
       0.29578245 -0.35257074 -0.10426598 -0.077788755
000080 e0 86 23 3e b0 3e 4d 3d d3 ca 07 bc 2f 7d 83 bd
       0.1596942 0.05010861 -0.008288103 -0.06420361
000090 25 b3 9d bd 63 50 46 bc 75 7f dc 3e 6f fa 9e 3d
       -0.07700185 -0.012104127 0.43065992 0.0776261
0000a0 af 1e 0d 3e da e3 4c 3c 67 6e c6 3e 92 18 4c be
       0.13781236 0.012505496 0.38756105 -0.19931248
0000b0 43 84 7a 3e 62 7e 8e 3c 5e d0 d7 be 4c d0 b3 bd
       0.24464516 0.017394248 -0.4215116 -0.08779964
0000c0 61 4b 01 3d 42 f1 ba bc 4a ca 5d bd fa 7a 4b 3c
       0.031566028 -0.022820119 -0.054147996 0.012419457
0000d0 c0 07 cc 3e 0b 98 6e 3e 14 d8 37 be af 28 a4 be
       0.39849663 0.23300187 -0.17953521 -0.3206229
0000e0 84 3e 89 be 72 06 91 3e 20 ec ac bd 83 27 de bd
       -0.26805508 0.2832523 -0.08443475 -0.1084738
0000f0 73 7b f6 3d f2 2d 6b bb ff 9c c7 be 67 a9 0c 3e
       0.12035265 -0.003588554 -0.38986966 0.13736497
000100 0d cc 76 be 6a 08 e8 3e 89 c4 8d be e0 ea d9 bb
       -0.24101277 0.4531892 -0.27689007 -0.0066503137
000110 8a e5 6c bd 65 55 6d 3c ff 0e 46 be d6 d3 b1 bd
       -0.057836093 0.014485692 -0.19341658 -0.086829826
000120 f3 0c da be 1b 49 ba be 20 95 dc bd 4b 13 35 be
       -0.42588004 -0.363839 -0.10770631 -0.17683141
000130 ae 8a 2b be 71 fe 15 bd 2f f6 6b be 8a eb 42 3e
       -0.16752121 -0.036619607 -0.2304313 0.19035164
000140 77 65 27 be df a4 e5 3e 37 d7 00 bf 71 d4 2c 3e
       -0.163473 0.4485235 -0.5032839 0.16877915
000150 b9 a6 aa be 29 2b 3a 3e 56 cf a5 be 24 ea e4 be
       -0.33330324 0.18180527 -0.32384747 -0.44709885
000160 67 bf df 3d fd 22 df bd fe 38 d3 3d 68 28 d6 be
       0.10925179 -0.10895345 0.10313605 -0.41827703
000170 23 15 1d be e9 20 58 bd 18 52 78 bc 9e 0a 43 3e
       -0.15340094 -0.05276576 -0.015156291 0.19047019
000180 45 0b 90 3d 83 c9 ab 3e a3 67 1f be d1 75 25 3e
       0.070333995 0.3355218 -0.15566878 0.16158225
000190 69 6a 7b bc 59 24 af 3e a6 a9 77 3e 88 2d 21 3e
       -0.015345194 0.3420742 0.2418581 0.15740025
0001a0 a6 1d 8e bd 7e 5c 3e 3e b4 59 1a bd f0 08 20 3f
       -0.06939249 0.1858997 -0.037683204 0.6251364
0001b0 45 f5 af 3d ff 84 47 3e 1a 51 e5 be 04 e4 bb be
       0.08591703 0.19484328 -0.44788438 -0.366974
0001c0 a4 fe be be 61 59 ea 3d f2 ed b2 3e e0 f7 0a be
       -0.3730365 0.11442829 0.34947163 -0.1357112
0001d0 1b 7f b9 3d 95 16 71 3c 2d e0 27 3d d3 c1 72 be
       0.090574466 0.014714857 0.040985275 -0.2370675
0001e0 8a 87 18 be 06 cb b4 3e 13 06 a3 39 b3 d3 80 bc
       -0.14895454 0.35311145 0.00031094308 -0.015725946
0001f0 07 49 cb bd 9c 43 80 3d f3 9d 2d 3e d0 61 3b be
       -0.09926038 0.062628955 0.16954784 -0.18299031
000200 95 f7 01 be 54 45 c7 3e 10 c3 0c be 31 15 e3 be
       -0.12692101 0.3892008 -0.13746285 -0.44352105
000210 96 9d 8f be f4 c2 39 3e b8 64 a9 3e 2c 8e 16 3e
       -0.28049916 0.18140775 0.33084655 0.14702672
000220 25 67 92 39 fb 7f d6 be a6 68 5b 3d 14 a3 b2 3c
       0.0002792414 -0.41894516 0.053566597 0.021806277
000230 87 d2 d4 3d 08 b1 40 3e 4d 61 66 3e bf e7 bc 3d
       0.103917174 0.18817532 0.22498055 0.092238896
000240 cf bc d6 bd 5d 87 02 bf 63 b8 4a be f4 d1 a8 3e
       -0.10485231 -0.509878 -0.197969 0.32972682
000250 c7 50 fe 3c 6f fb 99 3e 40 ed 3f 3e b6 cf 63 3e
       0.031044377 0.3007464 0.18742847 0.22247204
000260 48 42 5e bd 0c 88 73 3c d2 cb 90 be be b9 14 3e
       -0.05426243 0.014863979 -0.28280503 0.1452398
000270 c0 11 0c 3e 8d 12 ea 3e d2 a6 40 3e 51 07 48 be
       0.13678646 0.45717278 0.18813637 -0.19534041
000280 7d 7a 1e be 4d 6d 19 3e 4d a6 b1 3e 0c 1e fc be
       -0.15476413 0.14983101 0.3469719 -0.49241674
000290 56 4a 85 3e 3a 3b 1b be cd 0e 89 3e 5d b2 37 bd
       0.26033276 -0.15159312 0.26769105 -0.044847835
0002a0 6b 87 a7 be 1f 0d 8f be 80 a9 5a 3b 2a 7b 20 bf
       -0.32720503 -0.27939698 0.003336519 -0.62687933
0002b0 02 00 b2 3e 3b 91 3b bc 35 43 02 bf 7b 67 72 3e
       0.3476563 -0.0114482 -0.508838 0.23672287
0002c0 d5 2c 4f 3e 3f 75 04 bf 20 60 1e 3c dd 5c 1f bd
       0.20231946 -0.51741403 0.009666473 -0.03890692
0002d0 aa 32 cb 3e 75 3f ef bd f9 f0 ed 3d 63 f8 23 3e
       0.3968709 -0.11682025 0.116182275 0.16012721
0002e0 b9 a8 83 3e fa c7 4e 3e 17 a1 b1 be a8 d7 17 be
       0.25714663 0.20193473 -0.34693214 -0.1482836
0002f0 6f 3e b8 3d af f0 c0 be 15 5e 6e be bb fa 76 bd
       0.08996283 -0.37683627 -0.23278077 -0.06029771
000300 4d 50 12 bf 53 9f e6 3e 16 ed 93 bd 42 fc 8c 3d
       -0.5715378 0.4504343 -0.07222955 0.06884052
000310 ca 81 5e bd ee 03 7b 3e c6 06 da 3d 44 23 5b 3e
       -0.054322995 0.24513218 0.10645823 0.21400172
000320 e8 24 54 3e 8e 37 fd 3d 5e 35 11 3f 48 fe 18 3c
       0.20717204 0.12364112 0.56722057 0.009337969
000330 eb 99 da be d3 f6 8c be 4e b2 8f be 3d 32 e0 bd
       -0.42695555 -0.27532062 -0.28065723 -0.10947082
000340 36 78 38 3e f2 b7 de bd b0 4e 39 bf 61 4f 37 bf
       0.18014607 -0.108749285 -0.7238569 -0.716055
000350 86 8b 16 bf 0e 3c d2 3d b9 bf 35 3e 09 d1 8e 3e
       -0.58806646 0.10265361 0.17748918 0.27893856
000360 f0 53 8c be 14 fa 27 bf 4c 09 f5 3d 57 40 6a 3e
       -0.2740779 -0.65615964 0.11964664 0.22876106
000370 01 d4 48 3e 67 92 19 be a4 9c d2 3e 86 18 3a 3e
       0.19612123 -0.14997254 0.41135132 0.18173417
000380 14 22 c2 3e 6e 48 17 bf fb 26 24 bf 35 46 14 3d
       0.37916625 -0.59094894 -0.6412198 0.036199767
000390 57 03 a3 3d ba d6 73 3e 68 19 4c 3d 4e cd 1f be
       0.079596214 0.2381238 0.049828917 -0.15605661
0003a0 1a e3 f8 bc 93 f2 8d 3d 58 e1 02 be 0c 25 cc bd
       -0.030381728 0.06931033 -0.12781274 -0.09968004
0003b0 45 23 dc 3e 75 d0 bf 3c ae 2a fd 3c 9c 75 d5 3e
       0.4299566 0.02341483 0.03090414 0.4169129
0003c0 46 18 d3 3d 7d b3 34 3e 78 c2 01 3e 4a 26 cf 3d
       0.10307364 0.17646594 0.1267184 0.10114725
0003d0 ce 15 0b 3f f1 41 15 3c 22 f9 0a be e4 aa 99 be
       0.54330146 0.00910996 -0.13571599 -0.30013192
0003e0 1c e9 1e 3d 0a b3 c4 be b0 b0 ea 3d 1a 28 ad 3e
       0.03879653 -0.38417846 0.11459482 0.33819658
0003f0 51 df d7 bd a5 6d 09 3e 11 9e c6 be 7e 03 59 be
       -0.10540641 0.13420732 -0.3879247 -0.21192738

network_body._body_endoder.seq_layers.0.bias f4 [128]
000000 3c 8f 0b bc 7f fd 50 3d 90 e3 e3 bc 8c 75 85 bb
       -0.008518036 0.051023003 -0.027818471 -0.0040728506
000010 0f ab bd 3d ce 6b fb bd 3c ec 50 3a a6 ea c2 3d
       0.092611425 -0.122764215 0.0007969772 0.09517412
000020 f3 d9 f0 bc 3c 9d c0 bd 75 65 5c 3d f8 b4 44 bd
       -0.029400801 -0.0940499 0.053807694 -0.048024148
000030 a0 22 eb bc d7 78 02 3e 97 a9 48 bd 40 1a db bc
       -0.028703034 0.12741409 -0.04898986 -0.026745915
000040 72 25 bc 3d fc bb 80 3c c3 74 83 3d ef 65 7e 3d
       0.091868296 0.015714638 0.06418755 0.06210893
000050 2e 10 12 3d 57 2b ac 3b be b6 3f bd 84 7f 11 bc
       0.03565996 0.00525419 -0.046805136 -0.0088805
000060 d6 e8 2c 3d 14 d0 07 3d 12 1c 2d bd ca 5a 4a bd
       0.042214237 0.033157423 -0.042263098 -0.04940299
000070 f4 f4 98 3d 72 35 85 3d 64 ea 76 3c 12 4a b4 bc
       0.07468596 0.065043345 0.0150705315 -0.022007976
000080 bb 13 68 bd cd 37 40 bc 3c de 5b bd be fd 72 bd
       -0.05665944 -0.011732054 -0.053678736 -0.05932402
000090 1c 76 9d 3d 53 1c b6 bc d5 d3 3f 3d 68 55 92 3c
       0.07688543 -0.022230303 0.04683288 0.01786299
0000a0 20 8b a6 3c 8e a2 2d bd 0e 5a c4 bc 1d 7f de bd
       0.020330012 -0.042391352 -0.023968723 -0.10864089
0000b0 72 c2 b4 bc 8d 98 90 bc da c4 2b 3d cc 84 78 bc
       -0.022065375 -0.017650867 0.04193578 -0.01516838
0000c0 21 84 82 3d d3 54 79 3d 79 3c a1 3c cd ec b0 3b
       0.06372858 0.06087191 0.019682156 0.0053993226
0000d0 18 c7 b5 bb cb 15 8b bd d0 67 b1 bc 87 88 5b 3d
       -0.0055474155 -0.06791266 -0.021655947 0.053597
0000e0 00 b5 a8 bd cc 2b ea bc 34 97 38 bc ab f7 48 3d
       -0.08237648 -0.028585337 -0.011266518 0.04906432
0000f0 44 85 20 bd 44 e2 1b bd 59 01 21 bc 5e 02 85 3c
       -0.039189592 -0.03805758 -0.009826981 0.01623648
000100 06 d6 4b 3d 86 0a 6d 3d 9f 0f c5 3d 90 1f 1d bc
       0.049764656 0.057871364 0.0962212 -0.009590045
000110 0b 4b 9e 3b a4 bf 81 3d 26 62 7e 3c f3 f5 81 3c
       0.004830723 0.06335381 0.01552633 0.015864348
000120 82 d9 9a 3d aa ee 75 bc ca f1 8a 3d d6 6c 65 3d
       0.075610176 -0.015010515 0.06784399 0.056011997
000130 c2 f9 4a bd 00 9f 45 3d 11 ff bc bd 31 fa 87 3d
       -0.049554594 0.048247337 -0.092283376 0.06639517
000140 9a ce d4 bc 0d 38 3b bd 4f fc dd ba d8 89 02 bd
       -0.025977422 -0.04570775 -0.0016936156 -0.03186974
000150 6a 21 3c bd 43 30 2e 3d 84 67 cc 3c 2b 9f 91 3d
       -0.045930304 0.042526495 0.024951704 0.07110437
000160 a9 5c 4c bc 51 ff 92 3d 23 90 bd bb 6d 9b 7e 3d
       -0.012473264 0.07177604 -0.0057850047 0.062159944
000170 37 fc 82 bc 5e c5 76 bd a5 62 51 bd 36 0a 92 bd
       -0.015989406 -0.060246818 -0.051119465 -0.07130854
000180 a7 60 37 bc bb 40 f4 bc a3 88 81 3b b9 f3 ac bc
       -0.011192477 -0.029816022 0.003953056 -0.02111231
000190 c7 7c 55 3c 02 1d d1 bc 4e 8d 97 3c 15 df 03 bd
       0.0130302375 -0.025526527 0.018499997 -0.03219517
0001a0 bb bf 69 bc c6 9a 01 bb c9 c1 74 3d a4 ac cb bc
       -0.0142669035 -0.001977609 0.05975512 -0.024862595
0001b0 b3 1f 61 bd db 15 81 3d 63 ed 79 3d 6e 5b 3d bd
       -0.05496187 0.06302997 0.061017405 -0.046229772
0001c0 1c bb cf bd 7e 39 f2 3d cd da 06 3d 6e 6d f4 bc
       -0.1014311 0.11827372 0.03292351 -0.029837336
0001d0 8d c4 1a bd 8a a9 e8 3b 73 aa 63 bc 6d 71 83 3d
       -0.0377851 0.0071002888 -0.013895619 0.064181186
0001e0 29 23 29 3c 5b fb 9c 3c 98 ba c4 3c ec 5a 9c 3c
       0.010323324 0.019162824 0.024014756 0.019086324
0001f0 d2 48 85 3d 9f 25 8b 3b 9a 18 98 bb cf d6 9e 3c
       0.0650803 0.004246428 -0.0046416046 0.019389538

network_body._body_endoder.seq_layers.2.weight f4 [128, 128]
000000 f7 5b ba 3d 34 c8 bc 3d 07 fc 0b 3e c1 6a 87 bd
       0.09099572 0.09217873 0.1367036 -0.066121586
000010 45 20 32 3c e1 6f d2 bd 95 53 6b be b1 0f 42 3d
       0.0108719515 -0.102752455 -0.22981103 0.047378246
000020 cd 90 1c be 05 bd fb 3d b5 f3 2e 3e e3 1e 14 be
       -0.15289612 0.12291912 0.17085154 -0.14464907
000030 74 49 ca bd 51 77 32 bd 94 b3 97 3c 89 75 8a 3d
       -0.09877291 -0.04357082 0.018518247 0.06760699
000040 df 01 4a 3e 97 28 db bb 7f b1 02 be 99 eb 89 3d
       0.19727276 -0.0066881883 -0.12763022 0.0673439
000050 a4 a4 d0 bd 5b 83 88 bd 3b 97 58 3c a0 24 0e 3e
       -0.10187653 -0.06665679 0.01321965 0.13881159
000060 da 85 f1 3b 2f 60 66 3c b3 2e 21 bc 81 95 85 bd
       0.0073706927 0.014061018 -0.009837794 -0.06522656
000070 6c 1a 6a be 81 90 cc bd ba f4 a8 bd 08 f4 23 be
       -0.22861642 -0.099884994 -0.08249803 -0.1601106
000080 2d 5e 30 3c ca 39 f5 3d 14 31 0e bd 5c f3 9b bd
       0.010764641 0.11973913 -0.034714773 -0.076147765
000090 7c 63 32 be 06 ca e6 3d f0 aa f5 3c 8d 86 27 bd
       -0.17420763 0.11269002 0.029988736 -0.040899802
0000a0 d1 18 13 3e cd 09 1d 3d 40 a0 aa bd 09 51 8a 3d
       0.14364935 0.038339425 -0.083313465 0.067537375
0000b0 24 86 9a be 13 4a b0 ba cd 7e 66 3d 53 19 94 be
       -0.30180466 -0.001344981 0.05627327 -0.2892557
0000c0 29 71 a9 bd fa b7 dc 3d b1 2e 08 be 5d 0f 5f bc
       -0.08273537 0.10777278 -0.13299061 -0.013614503
0000d0 91 50 07 bc 92 e1 f2 bd bd 9c 93 3d 5c 14 38 3d
       -0.008258955 -0.118594304 0.0720763 0.04494129
0000e0 af 95 12 be 83 7c e8 3b 4a b3 6a 3d ff 0c 68 3c
       -0.14314912 0.007094921 0.05729989 0.014163255
0000f0 44 3f fe bd dd ca 1c be 0e 22 3b bd 61 1c 48 3c
       -0.12414411 -0.15311761 -0.045686774 0.012213797
000100 25 73 2d 3d 8b e1 94 be 6f fe b6 be aa 49 68 3d
       0.04234614 -0.29078326 -0.35740992 0.056710877
000110 30 a5 cb 3d ee 91 01 bd f0 c1 87 bb b4 e8 0d be
       0.099436164 -0.03163331 -0.004142992 -0.138583
000120 72 80 c3 bd 4f d2 9c bb f7 ee ae be 8e 2b 3a be
       -0.095459834 -0.004785813 -0.3416669 -0.18180677
000130 12 25 d1 3d e7 f1 d7 3d 49 e4 e6 3c 7d d1 c7 3c
       0.10212149 0.10544186 0.028185027 0.024391884
000140 d8 98 47 be 6e b5 07 3d b0 97 25 be 60 0b 63 bd
       -0.19491899 0.03313201 -0.16171145 -0.05543077
000150 0c 92 b6 3d c6 8d ca 3c b7 e1 9e be a3 bc 94 bb
       0.08914575 0.024725806 -0.31031582 -0.004539089
000160 3f a8 45 bd ce 3f 85 be f1 74 a5 bd b4 c7 88 3e
       -0.048256155 -0.26025242 -0.080789454 0.2671486
000170 6d eb bf 3d 3c 47 f7 bd a1 3a 05 bd d7 2f 66 bd
       0.09371076 -0.12074134 -0.032526616 -0.056197967
000180 59 94 ae be 04 cc a3 bd 04 16 91 3e d7 f5 a1 be
       -0.34097555 -0.07997897 0.2833711 -0.31632873
000190 9f c8 57 3e f9 4a 8f 3c 2c 66 50 3c a9 40 43 bb
       0.21072625 0.017491804 0.012719672 -0.002979318
0001a0 b9 1c 2d be bd 8b 44 bd 9c 07 9e bc a3 8f 2a be
       -0.16905488 -0.047984827 -0.019290738 -0.16656356
0001b0 4b 34 61 3d 79 e0 12 3d 10 0b 66 3e d7 51 ad bc
       0.05498151 0.035858605 0.22465158 -0.021157188
0001c0 d7 c2 08 be 92 da a4 3c c1 a7 3c 3d 65 49 1e 3e
       -0.13355576 0.020123754 0.04605842 0.15457685
0001d0 5a 37 df 3d 85 7e df bd de 57 8a 3d d1 7a 85 bd
       0.10899229 -0.109128036 0.067550406 -0.06517566
0001e0 1c fd 4d 3c cd 3e 8c 3d 0e ed c5 3d 84 f5 2e be
       0.012572553 0.06847916 0.09664355 -0.17085844
0001f0 0d 7e 75 be ea 2c 5a be 9a 34 66 be e2 0d dc bd
       -0.23973866 -0.21306196 -0.22481003 -0.107448354
000200 b9 f6 eb 3c 66 98 a2 bd ba d2 9e 3d a3 b6 13 bd
       0.02880417 -0.07939224 0.07755037 -0.036062848
000210 94 ca d6 bd 41 38 ba 3d eb b7 42 3e 8b a2 42 be
       -0.104878575 0.09092761 0.19015472 -0.19007318
000220 75 b8 d2 bd 21 67 99 bd ea d3 88 bd 56 66 ee 3d
       -0.10289089 -0.074903734 -0.066810444 0.11640613
000230 35 da 3b be d6 ba 5c be e5 ae 91 3c c3 9d ff 3d
       -0.18344958 -0.21555647 0.017783592 0.124812625
000240 49 4e cf 3d bf 20 03 3d a2 e4 b2 bd 79 83 db bd
       0.101223536 0.03201365 -0.087350145 -0.10718436
000250 09 ba d1 3d 29 88 d2 3d 60 2f 2d 3c 54 0f d4 bd
       0.102405615 0.10279877 0.010570377 -0.10354486
000260 63 f5 b8 bc 2d 58 11 3e a5 e8 98 bd fd e2 a5 bc
       -0.022577947 0.14193793 -0.074662484 -0.020249838
000270 04 ff d7 3b f8 d9 e0 3d e2 eb 51 bd a3 82 a9 3c
       0.0065916795 0.10979074 -0.051250346 0.020692175
000280 9f 47 27 3c 9f 50 f3 bd 17 79 77 3c 9b d1 4f 3c
       0.010209947 -0.11880612 0.015104554 0.012684251
000290 e4 a2 98 be 32 0e 0a 3e 17 fa ac 3d 7c 43 2e 3d
       -0.29811776 0.13481978 0.08446138 0.042544827
0002a0 c1 15 23 3e 7b 27 94 3c e9 ac cd 3d 95 ba 19 bd
       0.15926267 0.018085232 0.100427456 -0.037531454
0002b0 1f 4d 9b 3d fe 46 9a bd 0d fb 51 bd 07 de 21 bc
       0.07583069 -0.07533072 -0.05126481 -0.009879596
0002c0 1d 39 9c bd 5f 92 cc 3b fc 99 0f 3d 8c c2 86 3d
       -0.07628081 0.0062430347 0.03505896 0.065800756
0002d0 6f 5a 45 be d6 cf 87 bd a2 a8 a5 bd ca 6c e7 3d
       -0.19272779 -0.066314384 -0.08088805 0.11300047
0002e0 99 da e0 bd 59 e3 1e bc d2 84 7d be 02 a4 be 3b
       -0.10979194 -0.009697759 -0.24757698 0.005817891
0002f0 7c 9b 5a 3c 53 9d 25 bd 56 d4 e3 3c 41 b0 be 3d
       0.013342734 -0.04043324 0.02781121 0.093109615
000300 71 4b aa 3d ce 80 c3 bc b0 52 02 3e 28 fe 20 be
       0.083151706 -0.02386513 0.12726855 -0.15721953
000310 b3 49 9b 3d e5 d2 a4 bb 29 a4 6b bd 4a a3 25 be
       0.075824164 -0.0050300234 -0.057529602 -0.16175571
000320 f2 cb a5 bc 32 a8 28 be 28 0d 13 3d b1 7b 0f bd
       -0.02023885 -0.16470411 0.03590122 -0.03503007
000330 09 0a 21 bd c9 61 3c 3c 7b 8b 58 3d 08 d3 a0 3d
       -0.03931621 0.011497923 0.052867394 0.07852751
000340 92 14 28 be 58 49 d2 3b 28 f1 c2 3d d2 bc 8a bd
       -0.16414097 0.0064174347 0.09518653 -0.06774296
000350 cf 8c 9c 3d 1e eb a8 bd 1a c4 e9 bd e5 32 e6 3d
       0.076440446 -0.0824797 -0.114143565 0.11240176
000360 72 78 08 3c 0c d9 5a be 2d f5 69 3d 1b f3 68 bd
       0.008329498 -0.2137186 0.057118583 -0.05687247
000370 1b d1 5a be ed 52 f8 bc e9 12 97 bc 43 04 5f bd
       -0.2136883 -0.03031298 -0.018441634 -0.054447424
000380 61 85 a1 bd 90 b4 0e 3b 0a 6d 5a bd 5a e9 db 3c
       -0.07886768 0.0021775104 -0.053326644 0.02684467
000390 4b f8 25 be cb 3f d8 bd af dd af bd d7 35 02 be
       -0.16207998 -0.105590425 -0.08587205 -0.12715851
0003a0 22 66 5e bb e4 6a a7 3c b9 aa 8f bd b2 19 52 3e
       -0.0033935388 0.020436712 -0.07014985 0.20517614
0003b0 b4 a4 c7 bd 46 95 e8 3c 56 51 a1 bd ca e7 78 3d
       -0.097482115 0.028391492 -0.07876842 0.060767926
0003c0 e3 6d 43 bd 33 54 3d be 4a ab 48 bd 52 a5 dd 3c
       -0.047712218 -0.1848915 -0.04899148 0.02705637
0003d0 65 69 1a be 2c 5f eb 3d ee d0 1f 3b f2 83 bf 3c
       -0.15079267 0.11492762 0.0024386006 0.023378346
0003e0 48 d7 31 3d 03 38 e4 bd 8b 06 a3 3d f1 11 aa 3c
       0.0434182 -0.11143496 0.07960232 0.020760508
0003f0 9f 42 05 3e 59 70 d1 bb 3c cf 08 be 21 70 48 be
       0.13013695 -0.0063915667 -0.13360304 -0.19574024

network_body._body_endoder.seq_layers.2.bias f4 [128]
000000 d9 0c ed bc 96 63 18 bd 10 63 b3 bc d4 d1 9e 3c
       -0.02893679 -0.037204348 -0.021897823 0.019387163
000010 56 39 41 3c 8e 35 75 3c 58 88 81 bc dc d5 02 3d
       0.011793455 0.014966382 -0.015812084 0.031942233
000020 f9 a9 bf bb dc 17 a0 3c dc 10 65 b9 ae bf 09 bc
       -0.0058491197 0.019542627 -0.00021845422 -0.008407516
000030 5f cc d7 3c 2e d5 58 ba e6 6e 8b 3d ec 4d 91 bb
       0.026342569 -0.00082715123 0.068082616 -0.004434338
000040 6b a0 11 bc ca f6 60 bd c2 bc a0 3b c5 b1 a7 3b
       -0.008888344 -0.054922856 0.004905314 0.0051176273
000050 9e f5 55 3c f2 98 84 3c da 87 e4 bb 00 e6 53 3d
       0.013059048 0.016186211 -0.0069742026 0.051733017
000060 34 7b 2a ba 6a f7 02 ba 8c 64 ed bc 5a c1 4f bc
       -0.0006503344 -0.0004995974 -0.028978609 -0.012680376
000070 80 73 45 3c c3 9d 67 3b 4d ab 0c bc fe 21 fa bb
       0.012051463 0.0035341836 -0.008585763 -0.0076334467
000080 30 a3 41 bc 99 e7 a8 3c 02 57 b9 3c 81 fe 43 bd
       -0.011818692 0.020618247 0.022624496 -0.047850136
000090 c2 2f d5 b8 c0 f4 cc 3b da 7c f0 3c e5 8f 65 bd
       -0.00010165527 0.0062547624 0.029356409 -0.05604543
0000a0 5c 82 94 3c 82 34 ab bc b8 c6 c0 bb 54 6b 9e bc
       0.018128566 -0.020899061 -0.005883064 -0.019338287
0000b0 2c c7 e2 bb 8a c0 4c bd 42 a0 c8 3b 56 66 72 3d
       -0.006920716 -0.049988307 0.00612262 0.059179626
0000c0 2b 5c 93 bc 17 a1 6f bc d4 4c f3 3c 3c 7f 33 3c
       -0.017988285 -0.014625809 0.02969972 0.010955628
0000d0 84 da 9b 3c 29 70 dc 3c 6e fb fd 3c fb 1f ed 3c
       0.019025095 0.02690895 0.03100368 0.028945914
0000e0 c3 36 7c 3d e8 ff 56 bc 03 28 b0 3c 32 20 65 3b
       0.061575662 -0.013122536 0.021503454 0.0034961817
0000f0 fd 33 d8 bc 90 2a 64 3d 1a 7c ae bb 56 98 07 3d
       -0.026391977 0.055704653 -0.0053248527 0.033104263
000100 d7 b4 41 bc bf c5 79 3b 34 e0 bd 3c b1 ba 31 bd
       -0.011822901 0.003811225 0.023178197 -0.043390933
000110 5a 70 2c bd 17 77 78 3d d7 29 7d 3a 70 ad 09 bd
       -0.042099334 0.060660448 0.00096574187 -0.03361267
000120 ea 12 a6 bb 6a d4 af bc 22 e3 23 3d 6f 68 64 3c
       -0.0050681727 -0.021463592 0.040011533 0.0139409145
000130 8b df 6a 3d 7c c3 c0 bc 03 f1 ee 3c 1c 18 53 3b
       0.057342093 -0.023530714 0.029167658 0.0032210415
000140 99 a7 39 3c b9 2b 25 3d 25 8b 38 3c 6c 6e 5e 3d
       0.011331462 0.0403249 0.011263643 0.054304525
000150 85 a6 d8 bc 27 60 1a 3c d5 70 05 bd 73 ff ad 3c
       -0.02644659 0.009422339 -0.032578308 0.021239972
000160 9c fa 75 bd f1 f1 83 3d 06 d5 cd bc 9a 07 c5 3b
       -0.060053453 0.06442631 -0.025125992 0.006012869
000170 fa 8e b8 3c d1 8a c4 3b 7e e8 77 bc dc 25 25 bd
       0.022529114 0.0059979935 -0.015131114 -0.04031931
000180 60 1d 3c 3d b2 f3 50 3d f0 3f 40 3c 13 fa 7b bb
       0.04592645 0.051013656 0.011733994 -0.0038448616
000190 b5 ed 72 3d 57 1f 3a 3d af 6e ad bc 66 9f 50 bd
       0.059308726 0.045440044 -0.021170942 -0.050933264
0001a0 0e 37 e4 3c 29 c9 04 3d 62 6b ae 3c f8 da f1 bc
       0.027858283 0.032418404 0.021291438 -0.029523358
0001b0 c1 76 cd 3c 75 7e 95 bc 83 b0 f1 39 b0 0a a8 bb
       0.02508104 -0.018248776 0.00046098614 -0.005128227
0001c0 da 62 dd 3c 91 32 dd bb 62 d7 14 bd fe 18 e5 bc
       0.027024675 -0.0067504128 -0.036338218 -0.027966019
0001d0 b9 04 9b 3c c5 ab 00 bc 12 93 92 bc a1 b0 58 bc
       0.01892315 -0.007853453 -0.017892394 -0.013225705
0001e0 80 6b b5 38 5b c7 23 3d db 52 cb 3c 2e b9 24 bd
       8.650776e-05 0.039985042 0.024819782 -0.040215664
0001f0 a6 f2 7d 3d 11 a5 44 bc 88 74 19 bd 86 ce f9 bc
       0.061998986 -0.0120022455 -0.03746465 -0.030493986

action_model._continuous_distribution.log_sigma f4 [1, 2]
000000 42 04 79 bd d0 db 92 be
       -0.060795076 -0.2868333

action_model._continuous_distribution.mu.weight f4 [2, 128]
000000 c1 25 da bd e1 85 7f bc 75 af 2d 3d ce 88 5a 3d
       -0.10651732 -0.015595884 0.042403657 0.053353123
000010 4e 72 4d bd aa 8b 1f be 45 43 a4 bd b3 42 b5 bd
       -0.050157838 -0.15580621 -0.08020643 -0.088506125
000020 08 51 28 3c 25 e8 1d 3e 4e 7f e5 3b f9 f1 23 bd
       0.010273226 0.15420587 0.0070037013 -0.040025685
000030 fe 43 4a bd fd e9 ea 3d 4d c6 07 be ae 74 7b bd
       -0.04938125 0.11470411 -0.1325924 -0.06139057
000040 05 a3 cd 3c c6 f5 9c 3c 8b 3d 4b bd f9 11 23 bd
       0.025102148 0.019160163 -0.04961924 -0.039812062
000050 cb 56 d4 bd 77 e1 cc 3d ec 9d 08 3d fd 8a ca bd
       -0.10368117 0.100039415 0.03335373 -0.09889791
000060 32 a9 ea 3c 56 2c 87 bc c1 20 19 bc bf 19 fc bd
       0.028645132 -0.016500633 -0.009346188 -0.12309598
000070 55 73 11 be 3b d5 66 bd c3 ac 0f 3e b8 9e ba bc
       -0.14204152 -0.056355696 0.14030747 -0.022780761
000080 ad 64 e3 3d de 20 e3 3c 70 38 e9 3d 20 f7 95 3c
       0.11103187 0.027725633 0.11387718 0.018306315
000090 51 23 85 3d dc 90 6f 3d 68 8f 64 bd eb 49 7f bd
       0.06500877 0.058487758 -0.055800825 -0.062326353
0000a0 fa 5c 84 3c 6f db af 3d 5c 15 f4 3d d7 c9 81 3d
       0.016157616 0.085867755 0.119181365 0.06337326
0000b0 98 a1 1b bd 78 42 fd bb 8c 06 84 bd 9a 7d de bd
       -0.037995905 -0.007728871 -0.06446561 -0.108638
0000c0 2a 73 b3 3d 5d 20 05 3e 5d 31 c9 bd 22 2d ac bd
       0.087622 0.13000627 -0.098238684 -0.08407046
0000d0 54 16 aa bd 39 c1 a8 bd b6 6e c6 bd a3 fc 20 be
       -0.0830504 -0.08239979 -0.09689085 -0.15721373
0000e0 b0 b4 a9 bd a6 ba 07 3e f0 71 38 bc 8b 68 7b 3c
       -0.082864165 0.13254794 -0.011257634 0.015344749
0000f0 3a 1c 33 3d 72 80 08 be 75 3f 95 3d b3 1d 2d bd
       0.04372809 -0.13330248 0.07287494 -0.04226465
000100 9e 91 e9 3d b8 1d bd bd f2 3a 17 3c f4 39 41 3d
       0.114047274 -0.09234184 0.009230362 0.04717441
000110 42 45 a1 3d e2 d8 e1 bd f6 18 3a bd 22 10 4a bd
       0.07874538 -0.11027695 -0.04543396 -0.04933179
000120 9e a5 d8 bd bc 39 2f 3d ec a5 c3 bd 06 1d 13 3e
       -0.10578464 0.04277967 -0.095531315 0.1436654
000130 9e ec 02 be a6 41 ac 3d bc e3 fa bd d8 f5 34 3e
       -0.12785575 0.08410959 -0.12250468 0.17671907
000140 a1 2a fd 3d 98 cf b8 bc c3 ed e5 bd 8d 95 1a be
       0.123616464 -0.022559926 -0.1122699 -0.15096112
000150 f2 7a 08 3d 9c 00 53 3d bf 9f c5 3d e8 52 15 3e
       0.033320375 0.051514253 0.0964961 0.14582407
000160 93 1b 59 bc d3 b4 d9 bd 5d 98 0c bc 50 8b 22 be
       -0.013251203 -0.106301926 -0.008581248 -0.15873456
000170 63 34 a7 bd 48 42 4f bd 58 de 06 3d e1 8f db b9
       -0.08164289 -0.05060032 0.032926887 -0.00041878133
000180 00 0b 16 be dd 75 13 be 12 3f 0a 3d a2 26 f8 3c
       -0.14652634 -0.1440043 0.033751555 0.030291859
000190 92 12 14 be cc 3f ef bd 98 ad 5a 3b e2 ec d0 3d
       -0.14460209 -0.1168209 0.003336763 0.10201432
0001a0 27 9e cd bd e8 2f d3 bb 02 03 80 bd 2e 5e 6e 3c
       -0.10039931 -0.00644492 -0.06250574 0.014548821
0001b0 69 6f 53 bd ac fc 53 3b 74 1e 2a bc 35 44 8e bc
       -0.05161992 0.003234665 -0.010383237 -0.017366508
0001c0 77 eb 37 bc 98 a4 c7 bd 97 f8 99 3d 0f 90 ca bb
       -0.011225573 -0.09748191 0.07518118 -0.006181724
0001d0 c4 7d a9 bd 61 0e 69 bd 67 e5 80 3d 49 ce c0 3c
       -0.08275941 -0.05689848 0.06293755 0.023535864
0001e0 d8 fa 22 3e 82 19 d3 bd ae e8 15 be c1 2e b8 bc
       0.15916002 -0.103075996 -0.14639542 -0.022483231
0001f0 a1 9c b5 bc dc aa c9 bc 77 0e 5a 3d 42 d6 13 3d
       -0.022169413 -0.024617605 0.05323645 0.036093004
000200 1e 41 6d 3d 74 1d 82 3c 79 29 87 bd 2e 1b d0 3c
       0.05792343 0.015883185 -0.06599707 0.025403585
000210 52 18 91 bc a1 f6 c1 3d b5 cd 59 3d d0 81 8f 3d
       -0.017711792 0.09470869 0.053174693 0.07007182
000220 d7 4e 9f 3c d8 97 33 3e 9f 69 cb bd ca f7 d3 3d
       0.019446773 0.17538393 -0.09932255 0.103499964
000230 ac 59 91 bd 22 28 4a bd 1f 2d 93 bd 48 9c 4e 3e
       -0.07097182 -0.04935468 -0.071863405 0.20176804
000240 22 ce b9 3d 9d f6 2a bd ee e1 55 3e 80 79 14 3d
       0.0907252 -0.041739095 0.20886967 0.036248684
000250 90 12 b3 3d 02 ae 0c 3e c6 80 1a 3e 52 87 55 bd
       0.08743775 0.13738254 0.15088186 -0.052131005
000260 8d 54 80 3c 84 4c b7 bc 47 16 a8 3d 70 d4 20 3e
       0.015665317 -0.022375353 0.08207374 0.15706038
000270 e0 81 2c 3d 48 09 3c bc d9 de 80 3b 16 d8 16 3e
       0.042116046 -0.011476822 0.0039328155 0.14730868
000280 89 47 32 3d 8a 7e f6 bd 62 37 59 bd ba 4f 80 bc
       0.043525252 -0.12035854 -0.053031333 -0.015663017
000290 b2 f3 84 3c 13 f2 04 be 27 c3 2b 3e 8c fa b9 3b
       0.016229484 -0.12982969 0.16773663 0.0056756195
0002a0 03 3d 08 be 55 b0 3f 3d 58 0a 9e 3d 1b ed a6 3d
       -0.13304524 0.046799023 0.07716817 0.08150693
0002b0 ee 01 32 3e 75 41 7b 3a 1f be 74 3c 30 64 ba bd
       0.17383549 0.0009584644 0.0149379065 -0.091011405
0002c0 7a 2c ad bd 7d d6 ce 3c 23 ae ee 3c 1e ae 22 3d
       -0.08455749 0.02524876 0.02913577 0.039716832
0002d0 06 d7 b1 3d a0 e0 80 3e 9a d9 4d bd 1b 8f ab 3d
       0.086835906 0.25171375 -0.05025635 0.083769046
0002e0 82 d6 45 bd be 77 4f 3d 02 d3 bb 3b 3b cb 00 be
       -0.048300274 0.050651304 0.005731941 -0.12577526
0002f0 cf a0 51 bb fd e6 1d 3c 9f a3 f2 bd 9d b6 dd 3d
       -0.0031986719 0.009637591 -0.118476145 0.10825846
000300 82 b4 26 bd bc 7b f7 3d 0d 2a e2 3d 18 6c 09 bd
       -0.04069949 0.12084147 0.11043177 -0.03355035
000310 db 3d 36 bd 5e bd ac bb 3a 76 64 bb a4 68 f2 3b
       -0.044492584 -0.0052715978 -0.0034860508 0.007397728
000320 b6 2b 86 3d b3 4d ad bd b5 80 2e bd ce c8 95 bd
       0.06551306 -0.084620856 -0.042603213 -0.07313691
000330 a5 f8 b0 b9 1e e7 0e bd ce d0 2e 3d 8e 85 87 bd
       -0.0003375459 -0.03488838 0.0426796 -0.066172704
000340 33 5e ca bd ab 84 b7 bc fc 3a 89 3d b3 d6 8b bd
       -0.09881248 -0.022402128 0.067007035 -0.0682806
000350 05 39 31 bd 98 c5 0f be df f6 c8 bc 2c e5 63 bd
       -0.04326727 -0.1404022 -0.02453178 -0.055638477
000360 3d 98 17 3c 68 ff ed bd 21 bd 0e bd de 2e a2 3d
       0.009252605 -0.116209805 -0.034848336 0.079190955
000370 41 10 55 3d 2f 1f 06 3c 70 75 d1 3c 5a 53 49 3c
       0.052017454 0.008186146 0.025568694 0.012287939
000380 b6 11 d2 bc 14 28 1c 3d 42 ec 83 3d ce 55 06 3e
       -0.02564321 0.03812416 0.06441547 0.1311867
000390 e0 79 1b bd a8 e0 34 bc 1e 84 88 3d 0b 54 f5 3c
       -0.037958026 -0.01103989 0.06665824 0.029947301
0003a0 97 b0 dc 3c f4 58 5b bc ff 62 4c 3d f4 91 03 3d
       0.026939673 -0.013387907 0.049899098 0.032121614
0003b0 39 26 f3 3d 6b 4d a6 3c 50 0b 44 bb 43 f7 05 3e
       0.11872525 0.020300588 -0.002991397 0.13082604
0003c0 ba 44 1f 3e 22 cd 28 3d e1 41 88 bd 73 80 1e ba
       0.15553561 0.041211255 -0.066531904 -0.0006046362
0003d0 87 d8 be bc 04 59 40 3d 5d 19 06 bd 75 fc 4f 3d
       -0.023296608 0.046959892 -0.032739032 0.05077787
0003e0 5c 12 00 bb 6c 9e fa 39 2e 6f 86 3d f4 c8 d1 3a
       -0.0019542193 0.0004780175 0.065641746 0.0016005323
0003f0 7a 26 d1 bc 2b 0a 35 3c 9d 6d 83 3d 82 83 de bc
       -0.025531042 0.0110497875 0.064173914 -0.027162317

action_model._continuous_distribution.mu.bias f4 [2]
000000 0d f2 30 bd 8e bf 11 bd
       -0.043199588 -0.03558307

action_model._discrete_distribution.branches.0.weight f4 [1, 128]
000000 07 9b 52 ba 45 ad 82 bb c5 5b fa bb 43 57 86 bb
       -0.0008033965 -0.0039879405 -0.0076403343 -0.004099758
000010 42 83 a5 3b fe 2d 0b 3b 14 71 8f 39 ff 54 1e bc
       0.0050510475 0.002123713 0.00027359335 -0.009663819
000020 42 4a 2f 3c 47 1d b9 3b 51 b0 20 bb 88 66 3d 3c
       0.010698857 0.005649242 -0.0024519155 0.01156009
000030 5d 2e 17 bb 00 3d 32 bc e3 8b 5f 3a fb ab 4b 3b
       -0.0023068406 -0.010878801 0.00085276196 0.003107785
000040 c4 f7 23 bc a7 ad 25 ba 57 5a 49 3c eb b4 39 3c
       -0.010007802 -0.00063201267 0.012289605 0.011334638
000050 e3 45 f2 39 9a a2 74 3c 05 9a 06 bc 17 09 4b 3c
       0.00046209907 0.014931345 -0.008215432 0.012392304
000060 1e 46 3c 3b 4e 3e 45 bb 93 f5 f0 39 a8 66 7e 3b
       0.0028728317 -0.003009695 0.00045959334 0.0038818512
000070 7d 1f 62 bc 8e e8 32 bb c3 1f 08 3c 8b 0d 06 bb
       -0.013801453 -0.0027299258 0.008308354 -0.002045485
000080 27 a9 7b b9 4a 59 c3 3b 1b 6d 97 bb af 31 ee 3b
       -0.0002400024 0.005961572 -0.0046211607 0.0072691063
000090 6f 80 9d 3b 70 0c 73 3b 12 f2 bf 3b 8e b9 14 3c
       0.0048065702 0.003708627 0.0058577145 0.009077443
0000a0 c3 a0 1f bc 9f f0 67 3b a5 fd b6 bb 25 24 0f 3b
       -0.009742918 0.0035391224 -0.005584436 0.0021841612
0000b0 b0 2e c7 bb e8 8c bc b9 fa b2 23 bc 10 60 49 3b
       -0.0060785636 -0.00035963138 -0.009991402 0.0030727424
0000c0 17 c2 b6 3c a0 5f 6a 3a 15 a4 ee 39 8b 44 53 3c
       0.022309346 0.0008940641 0.00045517148 0.01289476
0000d0 e7 97 14 3c 37 34 42 3c 6f 4e 72 bb d2 9d f2 ba
       0.0090694195 0.011853269 -0.003697302 -0.0018510169
0000e0 67 35 d5 bb 12 af 30 3c 9f bb 7b ba 77 fe 19 bc
       -0.00650661 0.0107839275 -0.0009602848 -0.009399048
0000f0 47 f4 08 bc b9 3c 08 3c db e1 bb 3b 32 ed 67 bb
       -0.0083590215 0.008315259 0.005733711 -0.0035389182
000100 ff 93 58 3a 85 ea e7 bb 83 60 89 bb e1 47 19 bc
       0.0008261799 -0.0070775175 -0.0041924133 -0.009355516
000110 95 2b 87 3a 35 bd 13 bb 1b 87 09 bc 70 66 d7 3c
       0.0010312671 -0.0022543196 -0.008394028 0.026293963
000120 d3 33 5e 3c 97 33 fe bb 63 b5 9d ba fb 85 20 bc
       0.013562161 -0.007757615 -0.0012032207 -0.009797568
000130 48 9a 1c bc ff e0 5d ba 21 5d a7 3b 9b 7f 6c 3c
       -0.009558268 -0.0008464008 0.0051075374 0.01443472
000140 ac fa 15 bb e8 b5 7e 3b cc 91 33 3b 27 fb 69 bb
       -0.0022885008 0.0038865749 0.0027400134 -0.0035702677
000150 88 4a 5f bb da 79 4f bb b5 ac fd ba 0d da 67 39
       -0.0034071524 -0.0031658323 -0.0019353839 0.00022111107
000160 5b aa bf 3b 07 e6 4b 3c 44 cd 28 ba 2b 20 a5 3b
       0.0058491654 0.0124449795 -0.00064392784 0.005039235
000170 a2 f4 a1 bb 4d 06 e5 bb 4e 9e 9a 3b c6 44 82 bb
       -0.0049424926 -0.0069892765 0.0047185784 -0.0039754836
000180 08 b8 33 3c db b1 17 bc 14 eb 84 3b 23 36 c5 bb
       0.010969169 -0.009258713 0.004056344 -0.0060184165
000190 4b da f0 ba aa 5b 1b 3c 84 07 31 bb d2 19 14 3b
       -0.0018375603 0.009482304 -0.0027012536 0.0022598398
0001a0 0e f8 93 ba 2f 55 94 bc c6 8d 90 3c 32 f1 26 39
       -0.0011289136 -0.018107025 0.017645728 0.00015920846
0001b0 c8 ea 1a bc 00 ee 75 3b 97 80 af bc 82 78 1e bb
       -0.00945539 0.0037525892 -0.021423621 -0.0024180715
0001c0 be 43 90 bb 6d e4 72 bc 7c da 96 3a ac 09 3e b8
       -0.0044026067 -0.014824969 0.0011509205 -4.5308538e-05
0001d0 23 42 ac bc 0d 7e fd ba 0f de 13 b9 61 1a 3d bc
       -0.02102763 -0.0019339934 -0.00014101736 -0.011541934
0001e0 40 4b 3d bc c2 32 5f 3b 98 a0 ce bb f4 2d b4 39
       -0.0115535855 0.0034057354 -0.0063057654 0.00034366513
0001f0 42 b0 e2 3b d8 8c c7 3b 29 05 29 3c 79 12 2a 3c
       0.006917984 0.006089788 0.010316172 0.010380381

exp_avg f4 [128, 17]
000000 92 71 95 3b 4b 79 91 3b 23 6f 87 3b 5b 0a 87 3b
       0.004560658 0.004439508 0.0041331216 0.0041211075
000010 64 c0 62 3b ea b8 74 3b 76 e6 81 3b 96 2e 81 3b
       0.0034599537 0.0037341663 0.0039642407 0.003942321
000020 86 af 9e 3a c5 9d 11 3b 86 e0 93 3b 9a fc 8c 3b
       0.0012106753 0.0022219282 0.0045128493 0.0043025734
000030 93 eb 92 39 e0 54 64 3a 80 f7 4d bc 58 84 0d 3b
       0.00028022807 0.0008710157 -0.012571216 0.0021593776
000040 18 ee 7c 3c 91 8b 1a 3b b8 20 12 3b c8 cd bc 3a
       0.015437625 0.0023581723 0.0022297334 0.0014404589
000050 ac 02 c6 3a 84 54 27 3a be c1 9f 3a b0 8d 02 3b
       0.0015106997 0.0006383138 0.0012188477 0.0019920878
000060 11 f4 f6 3a bc 37 91 bb 06 b0 0f bb 60 1b 39 3b
       0.0018841048 -0.004431693 -0.0021924987 0.0028245077
000070 de 58 1c 3b 4b 31 f5 ba ad 99 97 ba 0f 62 9f bc
       0.002385668 -0.0018706707 -0.0011566185 -0.019455938
000080 a4 a4 98 3a bb 1d 92 3c 2f 95 5a ba e3 69 5e ba
       0.0011645746 0.017836442 -0.000833827 -0.0008484406
000090 22 ff ad ba f7 43 94 ba 07 cf 9e ba 65 54 8c ba
       -0.0013274888 -0.0011311759 -0.0012116142 -0.0010706304
0000a0 f9 34 36 ba 01 10 51 ba da 8f 5f bb c0 5a 2e bb
       -0.00069506426 -0.0007975102 -0.0034112842 -0.0026604384
0000b0 d6 1c cf b9 a5 16 30 ba 3d f6 78 bb ca 93 5a bb
       -0.000395036 -0.00067172415 -0.0037988566 -0.003335225
0000c0 25 ca 60 bc 61 6c ad b9 71 ec 48 3c 3c c1 e4 3b
       -0.01372007 -0.0003307788 0.012263403 0.006981043
0000d0 8b 68 e2 3b 16 2e d4 3b 56 7c d2 3b 0f 3e df 3b
       0.006909435 0.0064752204 0.0064235134 0.006812818
0000e0 01 26 dc 3b 73 7f bd 3b 3d ff bf 3b 9c e5 d0 3b
       0.0067183976 0.0057830154 0.005859284 0.006375028
0000f0 04 16 d0 3b 6f 90 be 3b 17 00 c0 3b 45 46 cf 3b
       0.0063502807 0.0058155577 0.0058593857 0.0063255155
000100 2a 21 d0 3b ed aa 7a 3c c5 3d 4a 3b f5 ca 14 3c
       0.0063516097 0.015299541 0.0030859571 0.009081592
000110 ed e2 cf 3a d4 eb b4 3a 39 20 8c 39 cc da 13 3a
       0.0015860476 0.0013803192 0.0002672689 0.0005640208
000120 c3 39 7e 3a 11 f0 82 3a 83 a5 f4 39 c4 93 0e 3a
       0.0009697938 0.0009989758 0.00046662622 0.0005438889
000130 3c 12 91 3a f9 d6 91 3a af 59 34 3a 68 4e 33 3a
       0.0011068056 0.0011126689 0.0006879819 0.00068399915
000140 f5 a3 55 3a 3d 2e 5b 3a 84 ba a7 ba 1a 3d 05 3a
       0.00081497367 0.0008361077 -0.0012796675 0.0005082652
000150 41 8d 5f 37 b2 0a 95 bb 1f 50 92 bb cb 0b 80 bb
       1.3324724e-05 -0.004548394 -0.0044651176 -0.003907656
000160 0b f3 91 bb e4 4d 8b bb 81 80 89 bb f3 d3 83 bb
       -0.004454022 -0.0042512286 -0.004196227 -0.004023069
000170 98 70 86 bb f4 34 a5 bb 0b 3c 9c bb 82 b1 7f bb
       -0.0041027777 -0.005041713 -0.0047679 -0.0039015715
000180 8a 0b 81 bb fa 5b 41 bb 63 ec 53 bb 09 54 36 bc
       -0.003938143 -0.0029504285 -0.0032336942 -0.011128434
000190 50 c4 02 bb 77 86 5f bc e9 d2 e5 3a 4c dd e7 3a
       -0.0019953437 -0.013642899 0.001753417 0.0017689853
0001a0 24 14 5d 3b 8d ae 2d 3b 0a af 66 3b 61 e0 2c 3b
       0.0033733929 0.0026501745 0.0035199546 0.0026378857
0001b0 28 cf a2 3a ce 81 ba 3a da 6e 61 3c 48 34 20 3c
       0.0012421357 0.0014229359 0.013759339 0.00977809
0001c0 61 ac 1b b9 29 d8 2c 3a fe 85 6d 3b 7c 46 54 3b
       -0.00014846168 0.00065934897 0.0036243196 0.0032390645
0001d0 d4 f4 ff 3c f1 64 0b 3a fe a6 7c bc f6 b8 05 3c
       0.031244673 0.00053174706 -0.015420673 0.008161774
0001e0 0b 85 00 3c 68 10 d6 3b c5 91 fa 3b 35 30 ff 3b
       0.00784422 0.0065327175 0.0076467716 0.007787729
0001f0 f6 d7 fb 3b f5 21 eb 3b 1c fc f0 3b 35 03 b0 3b
       0.0076856567 0.007175679 0.0073542725 0.005371476
000200 2f 7c bd 3b 49 be eb 3b 38 43 eb 3b b3 91 61 3b
       0.005782626 0.0071943146 0.007179644 0.003441912
000210 96 82 8b 3b fb 7e dd 3b f2 b6 66 3b 57 03 cf 3c
       0.0042575104 0.006759522 0.0035204259 0.025270147
000220 fe 02 d6 3a a7 4d d4 3a 15 44 cb 3a 8b f1 d6 3a
       0.0016327796 0.0016197459 0.0015507961 0.001639889
000230 83 4e 14 3b a4 d6 fb 3a 9f 5c 82 3a f9 92 8a 3a
       0.0022629804 0.0019213748 0.0009945816 0.0010572366
000240 d1 3c b9 3b 71 b3 8a 3b 8a 76 2d 3a 66 ae 5b 3a
       0.005653002 0.004232817 0.000661709 0.00083801744
000250 15 fc c5 3a 75 d3 c0 3a 9e 38 83 3c 70 c7 23 3a
       0.0015105034 0.0014711457 0.016018208 0.0006247675
000260 ee c4 c3 ba e7 6c 5a 3b 5e 1e 56 3b 17 dd 38 3b
       -0.0014936009 0.003332907 0.003267191 0.0028207952
000270 95 6b 38 3b 00 3a 41 3b 78 47 44 3b 81 5c 0e 3b
       0.0028140296 0.0029484034 0.0029949825 0.0021722617
000280 c3 c4 18 3b 5b 42 27 3b e3 2b 33 3b 05 25 36 3b
       0.0023310638 0.0025521729 0.002733939 0.0027793061
000290 0a e6 36 3b db 13 35 3b 1a b9 33 3b 57 ee 78 bb
       0.002790811 0.0027630243 0.0027423562 -0.0037983858
0002a0 13 76 c8 3a 4a 31 b2 b9 28 7e b3 ba 99 71 bc ba
       0.0015293978 -0.0003398753 -0.0013694214 -0.0014377116
0002b0 7e 26 87 ba b4 c1 9d ba eb bc eb ba 77 5f e4 ba
       -0.0010311154 -0.0012035877 -0.0017985379 -0.001742347
0002c0 0f 01 3e ba 49 cf 7e ba 08 94 ef ba c6 7e e1 ba
       -0.00072480825 -0.0009720219 -0.001827837 -0.0017203919
0002d0 b2 c3 97 ba 40 76 a7 ba ef 9f e4 ba 7a 5d e4 ba
       -0.0011578707 -0.001277633 -0.0017442683 -0.0017422878
0002e0 8d 04 08 3b 4b 5f 54 ba 67 3a f3 3a 0b c3 04 bc
       0.0020754666 -0.0008101358 0.0018556834 -0.0081031425
0002f0 02 fa 01 bc bf a0 12 bc b7 68 01 bc 2c 1d e4 bb
       -0.007933142 -0.008949458 -0.007898501 -0.0069614854
000300 38 a4 e1 bb 5d e3 db bb 37 0d dc bb f9 85 00 bc
       -0.0068860315 -0.0067104534 -0.0067154425 -0.007844442
000310 2a a0 f6 bb 0f 49 d6 bb 13 65 da bb e4 1c da bb
       -0.0075264173 -0.006539471 -0.006664881 -0.006656276
000320 46 32 db bb 78 e0 2d bc 35 72 5e bb 1c 87 5b bc
       -0.0066893427 -0.0106126 -0.0033942584 -0.013398912
000330 d2 8c f5 b9 32 c5 f3 b9 7a 2c 50 ba bd 6f 19 ba
       -0.0004683496 -0.00046495494 -0.0007941198 -0.0005853137
000340 88 fd d2 b9 0d fa d1 b9 51 7a ee b9 53 79 01 ba
       -0.00040243217 -0.0004004989 -0.0004548603 -0.0004939038
000350 a3 a1 0a ba 75 27 03 ba 28 c8 08 ba 72 10 11 ba
       -0.0005288368 -0.0005003133 -0.0005217814 -0.00055337616
000360 0d 47 57 ba 7b f6 4a ba 96 e6 0f bb ec 4f 5f b9
       -0.00082121865 -0.0007742417 -0.0021957508 -0.0002129671
000370 0a e0 8a 38 c5 1d 3b ba b6 7c 3f ba a5 be 1a ba
       6.622083e-05 -0.000713792 -0.0007304655 -0.0005903042
000380 c5 73 73 ba fa 01 01 bb c9 5b c5 ba 48 d5 5c ba
       -0.00092869654 -0.0019685016 -0.0015057261 -0.00084241154
000390 72 82 5d ba 67 fa 91 bb 38 83 46 bb 82 ce 0a ba
       -0.0008449919 -0.004454899 -0.0030290615 -0.0005295054
0003a0 10 57 21 ba 0c 77 d9 3a af c3 aa 3a c3 f1 39 bb
       -0.0006154636 0.0016591265 0.0013028289 -0.002837286
0003b0 c8 83 cd b9 00 11 90 bb 36 6d 8e 3b 73 92 8b 3b
       -0.00039198832 -0.004396558 0.004346515 0.0042594015
0003c0 ab 0b a1 3b 93 ff 98 3b 4e c8 ab 3b b4 21 9c 3b
       0.004914721 0.0046691387 0.005242384 0.00476476
0003d0 ae c4 74 3b 3c 36 82 3b db 4c 11 3c f0 3f eb 3b
       0.0037348676 0.0039737504 0.008868421 0.007179253
0003e0 0b 22 65 3b 78 f7 80 3b 66 a4 81 3b 4a 4f 85 3b
       0.0034962918 0.0039357506 0.0039563654 0.00406829
0003f0 f4 88 14 3c d6 a7 fe 3a ee 39 3b bc 25 41 30 ba
       0.009065855 0.0019428681 -0.011427386 -0.00067235745

exp_avg_sq f4 [128, 17]
000000 51 82 8b 39 2f 26 8c 39 26 d2 88 39 42 45 89 39
       0.0002660924 0.0002673133 0.00026096514 0.00026182277
000010 6a 09 87 39 66 69 88 39 fa 99 4f 39 0a 11 56 39
       0.0002575622 0.0002601847 0.00019798419 0.00020414978
000020 be 2c 60 39 a5 5c 69 39 35 3f 09 39 e7 c4 1a 39
       0.00021378972 0.00022255124 0.00013088885 0.00014759936
000030 a2 83 46 39 45 13 51 39 b4 9d 93 3a a3 65 98 38
       0.00018931789 0.00019938972 0.0011262209 7.266856e-05
000040 4e ef d6 3a 15 3e 2a 3a 5c fc 2a 3a fc e5 28 3a
       0.0016398223 0.00064942363 0.000652259 0.0006442962
000050 96 60 29 3a d0 af 1f 3a b7 d2 21 3a b3 67 fe 39
       0.0006461231 0.0006091567 0.00061730616 0.00048523917
000060 88 97 03 3a 20 f7 01 3a 5f cd 07 3a 69 10 bf 39
       0.00050198333 0.0004957784 0.0005180444 0.00036442585
000070 d3 63 d8 39 95 40 11 3a 86 3c 15 3a af 35 15 3b
       0.00041273105 0.00055409345 0.00056929176 0.0022767594
000080 12 53 41 39 f1 95 88 3b 44 e7 5c 39 15 c9 5d 39
       0.0001843686 0.004168265 0.00021066988 0.00021151111
000090 43 f5 51 39 0d cd 53 39 35 60 58 39 3f fe 59 39
       0.0002002316 0.00020198915 0.00020635205 0.00020789447
0000a0 2a 55 36 39 18 a6 3a 39 c5 3c 31 39 dd c6 37 39
       0.00017388599 0.00017800217 0.00016902674 0.00017526322
0000b0 bc 31 10 39 ed b4 1c 39 e8 67 26 39 a4 ad 2e 39
       0.00013751438 0.0001494472 0.00015869702 0.0001665862
0000c0 59 d8 7b 3a 69 7f 72 38 02 41 8d 3a 7c 9b 62 39
       0.00096071284 5.7815956e-05 0.001077682 0.00021610962
0000d0 67 1d 65 39 e1 86 5c 39 74 da 5e 39 7c 74 5c 39
       0.00021850095 0.00021031081 0.0002125295 0.00021024229
0000e0 b2 3c 5f 39 33 4d 30 39 f4 3d 41 39 df ee 5c 39
       0.00021289548 0.00016813427 0.00018428994 0.00021069821
0000f0 2c b6 5e 39 8e f5 44 39 12 02 4a 39 83 8a 50 39
       0.00021239434 0.00018783493 0.00019264992 0.00019888025
000100 68 8c 55 39 42 93 f1 3a af a7 76 38 b6 d0 c4 3a
       0.00020365568 0.0018430727 5.8807138e-05 0.0015015814
000110 0c b2 7a 37 63 86 7f 37 ff d1 69 37 34 89 70 37
       1.4942616e-05 1.5230474e-05 1.3936776e-05 1.433706e-05
000120 71 dc 62 37 26 d7 6c 37 1a b5 61 37 c2 3f 6e 37
       1.3521975e-05 1.4116789e-05 1.3453211e-05 1.420075e-05
000130 dd ff 73 37 40 83 80 37 85 7b 8e 37 9e 0a 93 37
       1.45435015e-05 1.5319907e-05 1.6985237e-05 1.752871e-05
000140 1b c1 91 37 4e da 94 37 a6 30 19 39 4f 84 13 37
       1.7375269e-05 1.774463e-05 0.0001460934 8.792688e-06
000150 a3 ec 89 38 49 2d 1c 39 35 56 1d 39 6a ea 06 39
       6.576746e-05 0.0001489419 0.00015004801 0.00012866562
000160 2c 1d 0b 39 5b 33 23 39 5d d2 23 39 e6 39 c0 38
       0.0001326694 0.00015564023 0.00015623258 9.166058e-05
000170 c0 73 de 38 64 40 21 39 e2 f6 21 39 a6 72 f2 38
       0.00010607345 0.00015378144 0.00015446128 0.00011560814
000180 b0 6b fc 38 b9 bc 1f 39 d9 5b 21 39 fc e5 6f 3a
       0.00012036355 0.00015233726 0.00015388372 0.0009151397
000190 e4 51 34 38 e6 35 c5 3a 9e c5 f8 3a e4 0a fa 3a
       4.299161e-05 0.001504597 0.0018979793 0.0019076732
0001a0 9b 0a ec 3a 5f 96 ee 3a 1a 0b ec 3a 61 cc ee 3a
       0.0018008532 0.0018202773 0.001800868 0.0018218869
0001b0 86 2a c5 3a 1b d9 cb 3a 28 61 aa 3a 2b 75 b7 3a
       0.001504258 0.0015552373 0.0012998926 0.0013996711
0001c0 8c 16 89 3a 8b 15 9c 3a 4a 48 e5 3a 56 6a e9 3a
       0.001045899 0.0011908276 0.0017492857 0.001780818
0001d0 ad b5 cf 3b 25 94 0b 3a 17 23 47 3c 39 e6 02 3a
       0.006338796 0.00053245045 0.012154362 0.00049934123
0001e0 c5 49 05 3a 9f 9b 07 3a 49 0c 09 3a 6b 28 0c 3a
       0.000508454 0.00051730307 0.0005227966 0.0005346599
0001f0 15 b5 0c 3a 91 97 e7 39 9e 2b fc 39 a3 15 08 3a
       0.00053675595 0.0004417268 0.00048097683 0.00051912124
000200 14 36 09 3a 8d 0a 0c 3a 3c 47 0d 3a 4b 3c ed 39
       0.00052341935 0.00053421484 0.0005389338 0.00045249084
000210 f0 a4 f6 39 47 d1 66 3b 9d 0e 1d 39 4a 2c a9 3b
       0.00047043664 0.0035219954 0.0001497813 0.0051627504
000220 16 90 93 39 b9 7d 94 39 06 e3 92 39 02 31 94 39
       0.00028145377 0.0002832243 0.00028016436 0.00028265273
000230 9a 16 8d 39 d6 a2 8e 39 98 38 85 39 03 7e 88 39
       0.00026910455 0.00027205673 0.00025409902 0.00026033827
000240 15 49 5c 39 10 94 69 39 52 f6 5e 39 6b be 6d 39
       0.0002100806 0.00022275769 0.00021263331 0.00022673018
000250 9d 44 90 39 4e 2a 92 39 28 20 cf 3a a7 29 a7 38
       0.0002751694 0.0002787881 0.001580243 7.970939e-05
000260 b3 a1 c5 3a 18 bd 7b 38 23 0b 7d 38 9a 5f 69 38
       0.0015078097 6.001917e-05 6.0330272e-05 5.5640565e-05
000270 ec d0 6b 38 0a 2f 80 38 49 66 80 38 a2 87 20 38
       5.622294e-05 6.112277e-05 6.122568e-05 3.827329e-05
000280 79 7a 29 38 d4 c4 7a 38 2f 5d 7b 38 aa fe 1a 38
       4.04068e-05 5.9787955e-05 5.9929847e-05 3.6953636e-05
000290 ad 1c 25 38 f7 f1 79 38 76 bc 7b 38 19 44 53 39
       3.9365772e-05 5.9591574e-05 6.001858e-05 0.00020147896
0002a0 fe 48 87 37 49 15 89 39 c5 9b 0e 38 5f c7 10 38
       1.6127244e-05 0.00026146535 3.400051e-05 3.4517954e-05
0002b0 15 6b 09 38 13 b1 0c 38 16 13 10 38 e9 9e 11 38
       3.2763073e-05 3.3543514e-05 3.435005e-05 3.471869e-05
0002c0 cf 3e c7 37 28 ae da 37 96 57 0e 38 62 ac 10 38
       2.3751896e-05 2.6068723e-05 3.393701e-05 3.449282e-05
0002d0 ed f6 ef 37 13 54 f8 37 50 c5 14 38 25 be 15 38
       2.8606004e-05 2.9603054e-05 3.546971e-05 3.5701454e-05
0002e0 25 3b 72 39 37 4e 25 37 75 88 59 39 57 55 8e 39
       0.00023100952 9.852977e-06 0.00020745567 0.00027147934
0002f0 70 73 90 39 46 79 78 39 11 fd 80 39 98 8a 92 39
       0.00027551828 0.00023696301 0.00024602612 0.0002795055
000300 61 27 94 39 6a a8 87 39 a5 95 8b 39 2b 6d 97 39
       0.000282581 0.00025874685 0.0002662364 0.000288823
000310 73 f5 99 39 e8 cb 90 39 b6 c7 93 39 29 fc 9c 39
       0.00029365308 0.00027617742 0.0002818682 0.00029942513
000320 66 9d 9e 39 2c 30 97 3a d2 57 be 38 2b a9 1a 3b
       0.0003025338 0.0011534742 9.076264e-05 0.0023599367
000330 da 5e 06 37 5d 2b 09 37 0c 57 f2 36 94 40 f5 36
       8.009107e-06 8.175933e-06 7.2222956e-06 7.309087e-06
000340 ba 18 19 37 97 0d 1b 37 61 40 d9 36 76 38 e4 36
       9.125268e-06 9.241884e-06 6.4745986e-06 6.8015024e-06
000350 cd 67 12 37 7d 85 14 37 10 05 0d 37 70 32 13 37
       8.726446e-06 8.852568e-06 8.405434e-06 8.773626e-06
000360 03 98 10 37 c9 75 13 37 91 41 26 38 74 f9 82 36
       8.618462e-06 8.789307e-06 3.9638548e-05 3.903342e-06
000370 0f f7 15 39 fa d7 5a 39 4a d0 5b 39 bb 32 63 39
       0.00014301784 0.00020870558 0.00020963061 0.00021667306
000380 75 c5 64 39 ff e8 29 39 73 b4 30 39 89 77 49 39
       0.00021817333 0.00016203894 0.0001685189 0.00019213384
000390 30 3f 4c 39 4b 5b 04 39 62 b4 0f 39 fd 42 14 39
       0.00019478495 0.0001262251 0.0001370474 0.00014139335
0003a0 a6 5f 1d 39 b3 83 2e 39 b3 5f 32 39 96 ba 23 3a
       0.00015008319 0.00016642995 0.00017011054 0.000624576
0003b0 35 39 88 38 06 21 bf 3a 05 18 ab 39 68 61 ac 39
       6.495641e-05 0.0014581985 0.00032633558 0.0003287897
0003c0 a0 ec a5 39 b4 e0 a7 39 bc 40 a3 39 1e f3 a5 39
       0.00031647552 0.0003202014 0.00031138014 0.0003165239
0003d0 3b 83 a1 39 f1 b5 a3 39 32 7b 6c 39 ee 93 80 39
       0.00030806087 0.0003122534 0.00022552608 0.0002452428
0003e0 25 73 89 39 c9 98 8f 39 0e e0 9b 39 d3 e2 9e 39
       0.00026216466 0.0002738892 0.00029730838 0.00030305106
0003f0 f9 9a 8a 3a 45 c5 c2 38 d0 0c 89 3a 0e 58 87 39
       0.001057475 9.287385e-05 0.0010456089 0.00025814812
