results/CubeAgentJumper1/CubeAgentRay.onnx (onnx, 80046 bytes, 8 tensors)

action_model._continuous_distribution.log_sigma f4 [1, 2]
0.0076201186 0.0066206846
00000000: 30b2 f93b 54f2 d83b

action_model._continuous_distribution.mu.bias f4 [2]
0.0027396486 -0.0014175839
00000000: ad8b 333b 39ce b9ba

action_model._continuous_distribution.mu.weight f4 [2, 128]
-0.0014297791 -0.03499567 -0.0017318459 -0.0045902715 -0.018146355 -0.0014659626 -0.013277489 -0.0032610244
-0.020210803 0.0094255125 0.016644077 -0.0057956222 -0.0048344927 -0.013577541 -0.011249976 -0.016206002
0.008924543 0.018698785 0.0116868885 -0.004001229 -0.00077672885 -0.007988614 -0.028776431 -0.0054875957
0.022445383 0.004248215 0.012155389 -0.002735946 0.0021398924 -0.01921587 0.0009295313 -0.027010037
0.0053715603 0.00048467796 -0.0025270095 0.012932477 0.01170631 -0.031636026 1.5675705e-05 0.003795433
-0.01798435 0.015577771 -0.0029539273 0.01036399 -0.027538912 -0.011374642 0.008773374 0.0010591018
0.0009553454 0.040142767 0.010951878 0.00040726154 -0.007464591 -0.025944818 -0.017920973 0.003166869
-0.026981873 -0.0038485208 0.027760128 0.010973902 0.0040976917 0.029553877 -0.011358662 -0.0032677217
0.011231961 0.004343922 -0.0019226308 0.00263569 -0.0009835843 0.005009889 0.0067582624 0.003806145
-0.0021636812 0.0053048977 -0.025131566 -0.0005267262 0.006159236 0.01275787 -0.008972249 -0.0106401695
-0.006495105 -0.006840501 -0.0034770598 0.0021301622 0.0065924823 0.0061966223 0.008474415 -0.016322045
0.00347865 -0.010101861 0.008463347 0.016348418 0.0014334504 0.0003094658 0.0017114858 -0.0085550025
-0.02874952 0.021926139 0.03963544 0.018109234 -0.0024709848 -0.033841826 0.00078538235 0.03986968
-0.0069358987 0.0049702125 0.0006998544 0.00045245315 -0.0047889478 0.009090246 -0.005184083 0.0067088907
-0.0047998903 0.036435284 0.004021368 0.009576116 0.014476608 -0.009603657 0.010734391 -0.01263425
-0.01263273 -0.0015191637 -0.009660002 -0.008985005 -0.004658734 0.007963264 -0.0066376803 0.00153253
-0.001602419 0.0138084795 -0.04451866 0.0077320975 0.007062005 0.023734845 -0.020131538 -0.029112272
0.008111855 -0.009347958 0.010094117 0.027337732 0.006267186 -0.005847974 0.00031658448 0.0047341986
-0.012793285 0.0044131693 0.00046818765 -0.0012386525 -0.0005695131 -0.009116516 -0.009852311 0.017083893
0.009732098 -0.0012817796 0.0021450648 -0.0066697462 -0.0008270817 0.03741085 -0.004319217 -0.012425265
0.0011735591 0.009746624 0.0021885734 -0.0059047844 -0.0034648161 0.030415123 0.005928045 -0.013293761
-0.038254175 0.015524442 -0.00350532 0.00152452 -0.019323114 -0.0237309 0.0048273373 -0.0010729261
-0.0009190154 0.012879967 -0.0348477 0.003335334 0.00458355 -0.015928837 0.005210017 -0.00022986729
0.021336462 -0.02735762 0.024428621 0.0044810604 -0.018804014 0.010169651 -0.0019944492 -0.0058853584
-0.0007101702 0.0009790167 0.0007862096 -0.008371006 8.557156e-06 0.018710313 0.001979534 3.1452073e-05
0.008092541 -0.0019598182 -0.015320645 0.0011857421 -0.007038419 0.01639224 -0.0030871285 4.2734875e-05
-0.002802337 -0.007884192 -0.005496474 -0.0021237133 0.017598223 0.00083176995 -0.01734171 0.0138272345
-0.0005912526 0.0052264794 -0.01531415 -0.01354903 0.0029500176 -0.011445408 0.0045675095 0.003086278
0.0064530107 -0.024306647 -0.009613156 0.023400068 -0.00044969673 -0.015667342 0.0002913692 -0.005086561
0.010658332 -0.005298012 0.00701963 -0.0017708844 0.0013269455 -0.008237626 0.000803871 0.0024920092
0.0003107162 0.003123569 -0.00054871675 -0.00039379197 -0.017828723 -0.01732468 -0.0040245876 0.0012959477
-0.0108006075 -0.009732544 -0.0035444968 -0.024291977 -0.008277834 -0.011934354 -0.01962803 -0.0009928162
00000000: 6d67 bbba 9f57 0fbd 1bff e2ba fd69 96bb
00000010: aaa7 94bc 8b25 c0ba d389 59bc e9b6 55bb
00000020: 2091 a5bc 776d 1a3c 2959 883c 34e9 bdbb
00000030: aa6a 9ebb 5674 5ebc d251 38bc 73c2 84bc
00000040: 3f38 123c 322e 993c 5d7a 3f3c be1c 83bb
00000050: 649d 4bba ade2 02bc 8dbc ebbc 4ad1 b3bb
00000060: 61df b73c 9c34 8b3b 6627 473c 8f4d 33bb
00000070: 703d 0c3b 9a6a 9dbc caab 733a 2744 ddbc
00000080: ea03 b03b 601c fe39 2f9c 25bb bde2 533c
00000090: d3cb 3f3c c794 01bd 527f 8337 cdbc 783b
000000a0: ea53 93bc e839 7f3c ad96 41bb bacd 293c
000000b0: 4999 e1bc b55c 3abc 33be 0f3c 8fd1 8a3a
000000c0: 2570 7a3a be6c 243d 816f 333c b885 d539
000000d0: 8799 f4bb 3a8a d4bc 01cf 92bc 3f8b 4f3b
000000e0: 1709 ddbc 7737 7cbb 3569 e33c e2cb 333c
000000f0: ee45 863b f91a f23c ae19 3abc 4627 56bb
00000100: 4206 383c 7557 8e3b c900 fcba 8abb 2c3b
00000110: 9deb 80ba ff29 a43b 6a74 dd3b 8470 793b
00000120: 8ccc 0dbb b5d4 ad3b b7e0 cdbc ff13 0aba
00000130: 6bd3 c93b 6306 513c 5700 13bc 1b54 2ebc
00000140: e4d4 d4bb 4826 e0bb 62df 63bb 319a 0b3b
00000150: c005 d83b 090d cb3b 46d8 0a3c cfb5 85bc
00000160: 10fa 633b 4782 25bc daa9 0a3c 1eed 853c
00000170: 9de2 bb3a cc3f a239 ef53 e03a 482a 0cbc
00000180: 1d84 ebbc 729e b33c c558 223d d159 943c
00000190: 3ff0 21bb ba9d 0abd 1ee2 4d3a 644e 233d
000001a0: 8946 e3bb 2add a23b 6f76 373a 3c37 ed39
000001b0: 9bec 9cbb 41ef 143c 3ddf a9bb 41d6 db3b
000001c0: 6648 9dbb 2a3d 153d aec5 833b 24e5 1c3c
000001d0: 4b2f 6d3c a858 1dbc 4ddf 2f3c e3ff 4ebc
000001e0: 83f9 4ebc ad1e c7ba fc44 1ebc d835 13bc
000001f0: 4ba8 98bb 5a78 023c e680 d9bb 2cdf c83a
00000200: 4208 d2ba f63c 623c 3359 36bd 895d fd3b
00000210: 6468 e73b 946f c23c e5ea a4bc dc7c eebc
00000220: 96e7 043c 2d28 19bc cc61 253c 61f3 df3c
00000230: f75c cd3b 5da0 bfbb 40fb a539 5621 9b3b
00000240: ed9a 51bc 599c 903b 1577 f539 485a a2ba
00000250: 614b 15ba 715d 15bc 966b 21bc 85f3 8b3c
00000260: 6173 1f3c 6301 a8ba 3794 0c3b e38d dabb
00000270: 83d0 58ba 1f3c 193d 3888 8dbb 5793 4bbc
00000280: 1cd2 993a 4eb0 1f3c 2b6e 0f3b ec7c c1bb
00000290: f811 63bb 2329 f93c 0c40 c23b 13ce 59bc
000002a0: 69b0 1cbd 3b5a 7e3c 83b9 65bb 67d2 c73a
000002b0: 824b 9ebc 4e67 c2bc a42e 9e3b 6da1 8cba
000002c0: 14ea 70ba 7f06 533c 76bc 0ebd 9e95 5a3b
000002d0: 9b31 963b 317d 82bc cab8 aa3b 8808 71b9
000002e0: cec9 ae3c 161d e0bc 881e c83c dcd5 923b
000002f0: e00a 9abc 9c9e 263c 4eb5 02bb f7d9 c0bb
00000300: b72a 3aba 5952 803a a219 4e3a 8b26 09bc
00000310: b590 0f37 5f46 993c 12bb 013b 68eb 0338
00000320: 9496 043c 4b70 00bb 7103 7bbc e76a 9b3a
00000330: 8aa2 e6bb 0549 863c 6c51 4abb 393e 3338
00000340: 6aa7 37bb b32c 01bc c41b b4bb ff2d 0bbb
00000350: 262a 903c 230b 5a3a 3410 8ebc a08b 623c
00000360: 4afe 1aba e342 ab3b 33e8 7abc c0fc 5dbc
00000370: 1555 413b 8585 3bbc 0cab 953b 2743 4a3b
00000380: c773 d33b bc1e c7bc 8080 1dbc 80b1 bf3c
00000390: 46c5 ebb9 cc58 80bc e9c2 9839 2bad a6bb
000003a0: 49a0 2e3c f29a adbb ed04 e63b 051d e8ba
000003b0: e7ec ad3a 1cf7 06bc dfba 523a fa50 233b
000003c0: 9fe7 a239 cbb4 4c3b c2d7 0fba dd75 ceb9
000003d0: 8b0d 92bc 7dec 8dbc b0e0 83bb cadc a93a
000003e0: 08f5 30bc 4075 1fbc ca4a 68bb f8ff c6bc
000003f0: c19f 07bc 4f88 43bc f6ca a0bc 6221 82ba

action_model._discrete_distribution.branches.0.weight f4 [1, 128]
0.005163872 -0.0027943985 -0.00017119563 -0.010086972 0.008148991 0.009415247 -0.0014368832 -0.022707252
0.003766022 0.0019917372 0.016103057 -0.01655635 0.0062421015 -0.015539306 -0.0016964676 0.01779076
0.0022180919 -0.008795767 -0.0065925643 -0.0154958395 -0.0099046845 -0.00873147 0.000619093 -0.015537845
-0.010445157 0.00012710916 0.008506682 0.012156279 0.010194677 -0.0024705962 0.0014785057 0.007150527
0.008718135 0.0019896377 -0.005178967 0.004241241 0.006249975 -0.0012428253 0.0025017895 -0.00077019376
-0.022070846 0.014477539 -0.0024198934 -0.0017915448 -0.007895564 -0.010805495 0.005774979 0.0056003635
-0.00020406957 0.001106921 -0.0013872929 0.0106644 0.003365372 0.0064037754 0.02357664 0.0019793303
0.007885418 0.012367497 -0.003988316 -0.004758615 -0.014537553 0.0017203063 -0.0016338626 -0.019699233
0.00031204603 0.0011002973 0.006541785 -0.00236675 0.009110374 0.0054163532 -0.014341615 0.010713985
0.01725497 -0.020030316 0.0005715261 0.014612615 0.007802962 0.0029995148 -0.0028026595 0.0050141136
0.0055370154 -0.012194437 -0.009504558 8.122266e-05 0.007717617 0.012007242 0.0076598497 -0.0030534773
-0.008941176 0.001476691 -0.004023732 0.014803807 0.011520672 0.00034543005 -0.011201309 -0.0007380173
-0.00020381354 0.0057056965 0.016407976 -0.003973314 0.010227259 0.006636725 0.016388368 -0.0029623576
-0.018202117 -0.009629228 -0.0066872286 0.0047763395 -0.003861047 0.00847068 -0.0031307116 0.011707219
-0.016858125 0.00017132143 -0.013225505 -0.003023587 0.012752609 0.008821979 -0.014646697 -0.010048878
0.007761461 -0.0059849257 -0.013783127 -0.0014754272 -0.002633413 -0.0015435856 -0.000424517 -0.0023580694
00000000: b335 a93b 3a22 37bb fa82 33b9 d443 25bc
00000010: 5883 053c 6842 1a3c cd55 bcba 8f04 babc
00000020: 5dcf 763b ce87 023b 8fea 833c 2fa1 87bc
00000030: 8b8a cc3b 9398 7ebc 025c deba eebd 913c
00000040: 685d 113b 1f1c 10bc 7006 d8bb 43e2 7dbc
00000050: 4247 22bc 710e 0fbc a14a 223a 7292 7ebc
00000060: 2a22 2bbc 9b48 0539 9c5f 0b3c 212b 473c
00000070: 9307 273c bae9 21bb 6bca c13a f84e ea3b
00000080: 82d6 0e3c 9564 023b 53b4 a9bb 1cfa 8a3b
00000090: 97cc cc3b 4ce6 a2ba 10f5 233b d4e6 49ba
000000a0: ebcd b4bc 3333 6d3c 1397 1ebb 45d2 eaba
000000b0: 655c 01bc 8809 31bc 093c bd3b 4183 b73b
000000c0: 82fb 55b9 1b16 913a d3d5 b5ba bcb9 2e3c
000000d0: 938d 5c3b c3d6 d13b cc23 c13c a7b7 013b
000000e0: d731 013c 0ba1 4a3c 6bb0 82bb 28ee 9bbb
000000f0: eb2e 6ebc e77b e13a 5527 d6ba 4960 a1bc
00000100: 1c9a a339 da37 903a 785c d63b 7a1b 1bbb
00000110: ae43 153c aa7b b13b 18f9 6abc b689 2f3c
00000120: 4b5a 8d3c 9e16 a4bc 78d2 153a c069 6f3c
00000130: fdaf ff3b 8293 443b d3ac 37bb 6f4d a43b
00000140: da6f b53b 2dcb 47bc 01b9 1bbc 1556 aa38
00000150: 10e4 fc3b 06ba 443c 7aff fa3b d91c 48bb
00000160: 037e 12bc 878d c13a 83d9 83bb ab8b 723c
00000170: 33c1 3c3c d61a b539 b285 37bc 8177 41ba
00000180: c8b6 55b9 daf6 ba3b 056a 863c 9332 82bb
00000190: 3c90 273c e278 d93b e640 863c 1d24 42bb
000001a0: 9b1c 95bc e9c3 1dbc 8a20 dbbb d782 9c3b
000001b0: 9f09 7dbb 9bc8 0a3c a02c 4dbb a3cf 3f3c
000001c0: 0d1a 8abc bfa4 3339 caaf 58bc 5f27 46bb
000001d0: 52f0 503c 108a 103c b3f8 6fbc 0da4 24bc
000001e0: db53 fe3b 321d c4bb a0d2 61bc 1f63 c1ba
000001f0: 5795 2cbb 2352 caba b591 deb9 d789 1abb

network_body._body_endoder.seq_layers.0.bias f4 [128]
-0.009387626 -0.01178813 -0.0051565273 0.008586536 0.005646388 -0.013396294 -0.00433956 -0.006624177
0.0027239365 -0.0054025194 -0.0063295118 -0.02210195 0.011445686 0.006497304 0.011317239 -0.01159783
-0.007905174 -0.010278653 -0.0045520677 -0.01580861 -0.010885092 0.002659993 0.0038445364 0.009838978
0.000532595 0.0014295853 -0.0057800626 0.0034049305 0.006557876 -0.020496028 -0.007929955 -0.0113097085
-0.0093740495 -0.004162707 0.0039476706 -0.008599322 -0.012023513 -0.0012156852 0.0071970266 -0.0043495498
-0.0022020375 -0.002707859 -0.023981916 -0.006117029 0.0019711168 0.0013827719 0.004177225 0.004997804
-0.004801874 -0.0015594747 0.00020916449 -0.0069649443 -0.0027263446 -0.009603812 -0.003995355 -0.011099243
0.009856461 0.0004115206 -2.7346114e-05 0.0003336202 -0.0022027113 0.0023819283 0.0028662938 -0.012028309
-0.008077349 -0.01775898 -0.0065022483 -0.017250232 0.003042033 -0.0027525532 0.0068145324 -0.007645962
-0.0058474513 -0.013314671 0.002136199 0.003845816 -0.0069570392 0.01862465 -0.01092039 0.004975926
-5.747941e-05 -0.00407737 -0.006504176 0.010720928 -0.0101415 0.010272721 -0.009869958 3.4068304e-05
-0.0024775655 -0.0014657899 -0.009874402 -0.004418562 0.013440675 0.003399975 -0.0037311746 8.0194965e-05
0.0012793959 -0.0042520342 -0.032776877 -0.0027912639 0.0118377255 -0.010227975 0.0065056314 -0.012762308
-0.007602153 -0.0017782581 -0.019147787 0.006220451 -0.0008168923 -0.0026223457 0.0031630865 4.234745e-06
0.00097554893 0.023834817 -0.0077194804 -0.0033153638 0.0066729593 -0.007557201 -0.00050550356 -0.008550595
-0.0067045726 0.008047536 -0.014168474 -0.020648086 -0.0025703022 -0.0050150324 -0.0024876292 0.002308229
00000000: 8fce 19bc 0023 41bc 16f8 a8bb 8bae 0c3c
00000010: 5605 b93b 217c 5bbc de32 8ebb a00f d9bb
00000020: 1284 323b 9e07 b1bb cb67 cfbb 260f b5bc
00000030: b086 3b3c 56e7 d43b f16b 393c d304 3ebc
00000040: b484 01bc cc67 28bc 8329 95bb 0f81 81bc
00000050: 6357 32bc 4753 2e3b 9ef4 7b3b aa33 213c
00000060: d89d 0b3a ec60 bb3a ae66 bdbb 4125 5f3b
00000070: 73e3 d63b 49e7 a7bc a4ec 01bc 5b4c 39bc
00000080: 9d95 19bc 5167 88bb 765b 813b 2ce4 0cbc
00000090: 45fe 44bc a057 9fba 09d5 eb3b ab86 8ebb
000000a0: 0f50 10bb 5676 31bb b975 c4bc 5c71 c8bb
000000b0: da2d 013b 203e b53a 1ae1 883b 9ec4 a33b
000000c0: 0a59 9dbb 4a67 ccba 2a53 5b39 303a e4bb
000000d0: 79ac 32bb 4f59 1dbc 78eb 82bb 99d9 35bc
000000e0: fe7c 213c 5cc1 d739 5565 e5b7 bfe9 ae39
000000f0: 5d5b 10bb 201a 1c3b 6ed8 3b3b 6212 45bc
00000100: db56 04bc 487b 91bc d010 d5bb 5c50 8dbc
00000110: d85c 473b 2e64 34bb 714c df3b fa8a fabb
00000120: fa9b bfbb c725 5abc 79ff 0b3b 160a 7c3b
00000130: e0f7 e3bb b992 983c 6feb 32bc 180d a33b
00000140: 0c16 71b8 759b 85bb fc20 d5bb d5a6 2f3c
00000150: 8928 26bc ea4e 283c 9bb5 21bc 90e4 0e38
00000160: a75e 22bb bf1f c0ba 3ec8 21bc 96c9 90bb
00000170: 4736 5c3c 1dd2 5e3b b986 74bb 582e a838
00000180: 67b1 a73a a654 8bbb 0c41 06bd a3ed 36bb
00000190: 05f3 413c 3d93 27bc 312d d53b 0019 51bc
000001a0: 7b1b f9bb 7114 e9ba d2db 9cbc edd4 cb3b
000001b0: b724 56ba a9db 2bbb c94b 4f3b 2f18 8e36
000001c0: fbbb 7f3a 3c41 c33c b2f3 fcbb 9346 59bb
000001d0: d7a8 da3b 66a2 f7bb c583 04ba cb17 0cbc
000001e0: 08b2 dbbb d0d9 033c e322 68bc 2d26 a9bc
000001f0: 8472 28bb 2455 a4bb 7e07 23bb a845 173b

network_body._body_endoder.seq_layers.0.weight f4 [128, 17]
0.19163714 0.05952618 -0.4093733 0.06595957 0.27879623 -0.10901193 0.4727596 0.43962884
-0.21951343 0.06728463 0.4532819 -0.11303443 -0.3636496 -0.038223136 0.10507344 0.23705861
0.14537612 -0.038794354 0.09308466 -0.23881832 -0.00822349 0.061014175 -0.16942292 0.012883197
-0.18039076 -0.36634558 -0.28675586 0.9749955 -0.003407658 0.27026102 0.23915371 0.10275673
0.04017082 -0.33144712 0.16050091 -0.3766709 0.6438341 0.19009216 -0.31662494 -0.20901106
-0.22991508 0.5709802 -0.22139885 -0.14426301 -0.47372 -0.4534025 -0.10594745 0.07811503
-0.020398762 -0.39966905 -0.12426781 0.005025624 -0.35923615 -0.39131495 0.08152939 0.08900448
0.23658648 -0.03239335 -0.07251353 0.08172297 0.10254676 0.28239477 -0.3054524 -0.49928316
-0.36185113 0.1535012 -0.35152265 -0.006044415 -0.1397935 0.38838056 0.39712894 -0.056832917
0.35264707 -0.3382724 0.059599884 -0.23215166 0.020748485 -0.009199195 0.109251685 -0.37099704
-0.4064881 -0.027699303 0.20631973 -0.03489422 0.23247369 0.07077182 0.07164313 0.111877896
0.38261357 0.12845093 0.25195724 -0.080783814 0.64358866 0.19260743 -0.021382248 0.36120173
0.17400044 0.43168297 -0.26826987 -0.40779552 0.17334095 0.54130435 -0.04046515 0.002892843
-0.5249369 -0.13837473 0.189423 0.3876604 -0.08259393 -0.1007789 -0.3281487 0.2849464
0.16476977 0.12248403 -0.0024474873 0.48948443 -0.4079017 0.18273927 -0.17851551 0.08585832
-0.30452114 -0.12844701 0.33058232 0.07434397 -0.07063423 0.047349036 0.14929913 0.23785765
-0.07008991 -0.030366808 -0.29784793 0.2561045 -0.035796683 -0.014782627 -0.010306738 0.3071225
0.06899993 0.35651225 0.120823845 -0.19953568 -0.27500477 0.08332475 -0.23059544 -0.33721197
-0.025959214 -0.11747815 0.1790841 0.19118765 0.04743861 -0.08872175 -0.26680148 -0.101736866
0.4405384 0.29758897 0.12159326 -0.11216354 -0.118823335 -0.3005153 -0.013920078 -0.37791735
0.026588656 0.05428808 -0.19223414 -0.19564259 0.12609543 0.55316246 0.17810264 -0.19982882
-0.12546052 -0.12781698 -0.026024163 -0.09994392 -0.17275006 -0.21646631 -0.08232029 -0.01766509
-0.15264499 0.09196978 0.16140202 0.034930065 0.0715329 0.37346438 0.08425021 0.08435509
0.004624127 -0.33525783 0.08339384 0.27642253 -0.05257084 0.037311144 0.05141809 -0.32518733
0.25995177 0.2598054 -0.090029284 -0.16939479 0.08253862 -0.20718366 -0.023720955 0.22920059
0.22776763 -0.05859722 -0.25867066 -0.30042616 -0.13683458 -0.23818627 0.2401764 -0.3028881
-0.09161602 0.2993428 -0.13344721 0.06699143 0.009874884 -0.10233278 -0.22639962 -0.05318129
-0.24211226 0.15344523 -0.29030308 -0.020194406 -0.15399891 0.11980334 0.21958561 0.11446284
0.0040250802 -0.32186356 -0.1290609 -0.41312292 -0.53052115 -0.18434258 -0.3270068 -0.19629125
-0.45189744 -0.09402344 -0.04818494 -0.12994926 -0.2320837 -0.07341734 0.12186189 -0.077946335
0.41027877 -0.14886609 0.05599609 -0.009467127 0.28712368 -0.17073357 -0.16320461 0.23722234
-0.3185477 -0.48061743 0.03919661 0.16477524 0.07281002 -0.060615737 -0.008691427 0.22613998
00000000: 873c 443e b9d1 733d 6199 d1be d015 873d
00000010: 61be 8e3e a641 dfbd 8c0d f23e 0817 e13e
00000020: 21c8 60be 86cc 893d 9114 e83e 987e e7bd
00000030: 4830 babe dd8f 1cbd be30 d73d 7ebf 723e
00000040: 7add 143e d4e6 1ebd 2ca3 be3d ca8c 74be
00000050: d1bb 06bc 00ea 793d 347d 2dbe 0b14 533c
00000060: 5bb8 38be a691 bbbe aad1 92be 4e99 793f
00000070: 0453 5fbb a75f 8a3e b6e4 743e 1f72 d23d
00000080: 288a 243d 70b3 a9be 5a5a 243e 02db c0be
00000090: 50d2 243f 85a7 423e aa1c a2be ff06 56be
000000a0: dc6e 6bbe c22b 123f 61b6 62be afb9 13be
000000b0: 6e8b f2be 5f24 e8be fafa d8bd c6fa 9f3d
000000c0: 4e1b a7bc 6ca1 ccbe 1f80 febd fdad a43b
000000d0: cded b7be 6f5a c8be e1f8 a63d fb47 b63d
000000e0: ba43 723e e4ae 04bd f981 94bd 5f5e a73d
000000f0: 0904 d23d 0c96 903e 4264 9cbe 0ba2 ffbe
00000100: 8d44 b9be 6b2f 1d3e c7fa b3be 3a10 c6bb
00000110: 0726 0fbe d1d9 c63e 7c54 cb3e a2c9 68bd
00000120: 288e b43e 0a32 adbe 021f 743d 2ab9 6dbe
00000130: baf8 a93c 38b8 16bc 59bf df3d 53f3 bdbe
00000140: 351f d0be a6e9 e2bc 7b45 533e 3eed 0ebd
00000150: 950d 6e3e d1f0 903d a2b9 923d 3d20 e53d
00000160: ede5 c33e a488 033e 8a00 813e fc71 a5bd
00000170: 3ac2 243f e23a 453e d329 afbc 6fef b83e
00000180: 2c2d 323e 8d05 dd3e ab5a 89be 93ca d0be
00000190: 4a80 313e ec92 0a3f c9be 25bd da95 3d3b
000001a0: 4462 06bf 1bb2 0dbe 1af8 413e 6d7b c63e
000001b0: 0227 a9bd 2b65 cebd 1b03 a8be 7fe4 913e
000001c0: 68b9 283e e8d8 fa3d 0666 20bb b49d fa3e
000001d0: 7ed8 d0be 0120 3b3e c5cc 36be 7dd6 af3d
000001e0: 32ea 9bbe 9d87 03be 1642 a93e a741 983d
000001f0: aea8 90bd 10f1 413d dfe1 183e f590 733e
00000200: 4c8b 8fbd d0c3 f8bc 867f 98be 2120 833e
00000210: 8b9f 12bd d532 72bc 98dd 28bc 293f 9d3e
00000220: d64f 8d3d c688 b63e 7e72 f73d 1553 4cbe
00000230: 6dcd 8cbe 2ba6 aa3d 3621 6cbe 0ca7 acbe
00000240: 6ba8 d4bc 6298 f0bd d361 373e b2c6 433e
00000250: fd4e 423d c0b3 b5bd 349a 88be 6b5b d0bd
00000260: 408e e13e 955d 983e e305 f93d 00b6 e5bd
00000270: a659 f3bd 24dd 99be 0a11 64bc 627e c1be
00000280: 74d0 d93c 2e5d 5e3d 07d9 44be 8856 48be
00000290: 291f 013e 0e9c 0d3f 8a60 363e ed9f 4cbe
000002a0: b978 00be 74e2 02be a030 d5bc 66af ccbd
000002b0: 64e5 30be 58a9 5dbe 8a97 a8bd 61b6 90bc
000002c0: f84e 1cbe a75a bc3d 9246 253e d412 0f3d
000002d0: d77f 923d b936 bf3e 608b ac3d 5dc2 ac3d
000002e0: fd85 973b eaa6 abbe 64ca aa3d 4187 8d3e
000002f0: 8554 57bd 92d3 183d c69b 523d f47e a6be
00000300: 6618 853e 3705 853e 4661 b8bd d475 2dbe
00000310: 020a a93d f427 54be 7352 c2bc 8fb3 6a3e
00000320: eb3b 693e a303 70bd 7b70 84be 75d1 99be
00000330: 5d1e 0cbe 1ae7 73be cdf0 753e 2614 9bbe
00000340: 2ea1 bbbd 7643 993e 63a6 08be ce32 893d
00000350: 44ca 213c d993 d1bd 4dd5 67be a0d4 59bd
00000360: 47ec 77be bf20 1d3e 9ba2 94be bd6e a5bc
00000370: e4b1 1dbe 745b f53d 0ddb 603e 7e6b ea3d
00000380: d2e4 833b 4dcb a4be 8a28 04be d984 d3be
00000390: 3cd0 07bf 4dc4 3cbe 6f6d a7be 9300 49be
000003a0: 1a5f e7be 5c8f c0bd 925d 45bd 6b11 05be
000003b0: 59a7 6dbe d55b 96bd ba92 f93d 54a2 9fbd
000003c0: 0f10 d23e 5a70 18be 285c 653d 021c 1bbc
000003d0: e001 933e c8d4 2ebe 1c1f 27be 6aea 723e
000003e0: af18 a3be 7d13 f6be a08c 203d d7ba 283e
000003f0: 6b1d 953d 3548 78bd 7d66 0ebc 3d91 673e

network_body._body_endoder.seq_layers.2.bias f4 [128]
0.01654994 0.00024246378 -0.0024420265 0.0069290167 -0.0025742473 0.0004764298 0.000101105805 -0.0029810846
-0.001395405 -0.005832187 -0.0051851626 0.006430068 0.013565571 -0.008731148 -0.007920113 0.007966786
-0.0005183513 3.8981205e-05 -0.007173923 0.003545328 0.017199403 -0.007913062 -0.001448753 0.0015270239
-0.004359554 0.0009267195 -0.0015885797 -0.009786936 -0.008726368 -0.002326052 -0.0055091796 -0.0011253511
-0.005000658 0.0023564338 -0.0005733512 -0.003895495 -0.007701162 -0.005266245 -0.001421707 -0.005338626
-0.00446066 -0.0010885567 -4.0456347e-05 -0.0075942697 -0.006605561 -0.0008515824 -0.007246006 -0.0069897906
-0.0022911946 -0.00040198804 -0.0016025971 0.0070688343 -0.010367954 -0.00231847 -0.0035302527 0.0040532397
-0.0024401695 0.00057532394 -0.0025012337 -0.0055459742 -0.0032110345 -0.005130658 -0.007286644 -0.0025634498
-0.00182945 -0.0026462073 0.011381432 -0.0068618595 -0.010598043 -0.004624616 0.0009848857 -0.0077404496
0.0024495039 -0.001232328 -0.0016064341 0.0030691272 0.007870343 0.00037860803 -0.0047993385 0.0012063548
-0.0020400577 -0.0039727245 0.0031602778 -0.0070826537 0.0048255967 0.0016736041 0.0018375388 -0.0019058262
-0.0073201964 -0.009447792 -0.00043235428 -0.001403039 0.00095049053 0.0040141665 -0.018053478 0.008600114
-0.0012140499 -0.00089064613 -0.0025310405 0.000671187 0.009543765 -0.00258255 -0.0076798378 -0.00095206295
-0.0073585226 -0.004304943 0.0020438887 -0.0057467353 -0.0017162502 0.005048621 -0.009934117 0.0027486333
-0.013605842 -0.001483182 0.007509111 -0.009736278 -0.0006848719 0.0005695264 0.0045790887 0.0022600582
-0.007780906 0.0033843273 0.004162608 -0.003384799 0.0006592054 -0.0019836535 0.0023040313 -0.010101296
00000000: bd93 873c e03d 7e39 680a 20bb ce0c e33b
00000010: b4b4 28bb 53c9 f939 c408 d438 4d5e 43bb
00000020: 06e6 b6ba ee1b bfbb 4ce8 a9bb 52b3 d23b
00000030: 2142 5e3c 170d 0fbc 5dc3 01bc 1f87 023c
00000040: f8e1 07ba c07f 2338 3a13 ebbb bc58 683b
00000050: c3e5 8c3c caa5 01bc 16e4 bdba 6b26 c83a
00000060: 97da 8ebb 18ef 723a e437 d0ba 6359 20bc
00000070: 0af9 0ebc ad70 18bb 5986 b4bb 8480 93ba
00000080: 8fdc a3bb 666e 1a3b f34c 16ba 904b 7fbb
00000090: 075a fcbb 7790 acbb 9258 baba a4ef aebb
000000a0: ba2a 92bb e7ad 8eba acaf 29b8 5ad9 f8bb
000000b0: 7673 d8bb ba3c 5fba e76f edbb 9d0a e5bb
000000c0: de27 16bb ecc1 d2b9 3c0e d2ba aea1 e73b
000000d0: 5ade 29bc 79f1 17bb d05b 67bb 0ad1 843b
000000e0: 40eb 1fbb 56d1 163a bdeb 23bb 01bb b5bb
000000f0: 3870 52bb 141f a8bb cdc4 eebb 8dff 27bb
00000100: 28ca efba fe6b 2dbb 3079 3a3c 73d9 e0bb
00000110: 6aa3 2dbc 178a 97bb 4817 813a 99a3 fdbb
00000120: db87 203b 1186 a1ba fc8e d2ba 6923 493b
00000130: 9cf2 003c e97f c639 c543 9dbb 8d1e 9e3a
00000140: 7db2 05bb a12d 82bb aa1c 4f3b 9b15 e8bb
00000150: 0a20 9e3b d65c db3a 92d9 f03a eacc f9ba
00000160: 42de efbb e9ca 1abc 9cad e2b9 2de6 b7ba
00000170: 572a 793a 4589 833b e3e4 93bc 7ee7 0c3c
00000180: c120 9fba 407a 69ba d0df 25bb 99f2 2f3a
00000190: 745d 1c3c 0040 29bb 26a7 fbbb dd93 79ba
000001a0: c31f f1bb 7b10 8dbb c3f2 053b 1c4f bcbb
000001b0: cdf3 e0ba e76e a53b b5c2 22bc 6a22 343b
000001c0: 0aeb 5ebc 5467 c2ba fd0e f63b e984 1fbc
000001d0: fa88 33ba 454c 153a 2e0c 963b 7c1d 143b
000001e0: f8f6 febb 97cb 5d3b 7d66 883b 81d3 5dbb
000001f0: 87ce 2c3a 2f00 02bb 3bff 163b e87f 25bc

network_body._body_endoder.seq_layers.2.weight f4 [128, 128]
0.08296438 0.10012059 0.033344798 -0.11117176 0.15301408 -0.2653293 -0.041874558 0.088227734
-0.04131906 0.027504237 0.10957683 0.13519795 0.10374654 -0.014882896 -0.06817403 0.1480508
-0.10559019 -0.0075882957 -0.037261367 0.04675604 0.13818027 0.009863436 0.11236306 -0.023468018
-0.06155409 0.044725887 -0.033302087 -0.014033219 -0.06755705 0.018985597 0.00849505 0.07751704
0.107119806 0.04647588 0.0020996197 0.043053716 0.15537502 0.023146989 0.06255872 -0.044726916
-0.002820163 -0.20455936 -0.19376893 -0.08429095 0.014647401 0.031454217 0.070887685 -0.00724628
0.090027146 0.009616338 0.18007073 0.1097462 -0.08153551 0.05921777 -0.024668433 0.1574092
-0.12431092 0.05663281 -0.060880143 -0.093458146 0.1596683 -0.044163134 -0.026451815 0.07343778
-0.06293959 0.04655448 -0.008529634 -0.040711947 -0.15216808 -0.032237124 -0.033567395 0.04602871
0.07973203 -0.01737952 -0.06282607 0.04517348 -0.036188766 -0.005997678 0.19660412 -0.08783268
0.038543172 0.0168966 -0.060403764 -0.07970241 0.004130458 -0.08761296 -0.045892462 -0.022136938
0.054506175 -0.019556671 -0.06063891 0.013179475 -0.000985972 -0.0793951 -0.0460694 -0.17339297
-0.07163146 0.09054986 0.05192428 0.024279755 0.007411456 0.1981878 -0.098969914 -0.037208293
-0.05579337 -0.06761278 -0.17719594 0.011804841 -0.10518823 0.04213392 -0.026684996 -0.09205177
-0.122986265 -0.031117056 0.011308572 -0.115621366 0.08347725 -0.05195211 0.0027189802 -0.020699838
-0.14455883 -0.06592138 -0.053845316 -0.055585895 -0.15757063 -0.042067952 0.10685495 -0.0066908314
-0.115545034 -0.0031861844 0.14434811 0.11224418 -0.1405518 -0.04167443 -0.04138762 -0.25359467
0.2154394 0.052453108 -0.056152392 -0.15405047 -0.036182895 0.08133843 0.07646421 -0.087464124
0.026174158 0.030292578 -0.1207816 -0.11402402 0.056326315 -0.010966288 0.031640362 0.008548106
0.010861191 0.060093645 -0.1644865 -0.03949909 0.057318192 0.016449995 -0.08907819 -0.13715401
-0.0061209677 0.00901859 -0.07568682 -0.12816791 0.008036248 -0.14950784 -0.065519735 0.12701118
0.12793747 0.070856266 0.15752596 -0.09792991 0.09395246 0.19141707 -0.12164387 -0.07658108
0.059228003 0.067786664 0.19603068 0.13107686 0.024253566 0.14398202 0.0066467593 -0.0892922
-0.0017918597 0.029512199 -0.24202588 0.0975249 0.17099203 -0.08101993 -0.101215914 -0.08520349
-0.08464284 -0.020300664 -0.14490764 -0.04783107 -0.022720559 -0.09147957 -0.03998056 -0.052100103
0.095635794 0.082562 -0.11957952 -0.12940003 0.019079344 0.0106402645 -0.03622521 -0.054736458
-0.11692408 0.04243888 0.0703123 0.02166804 -0.15262106 -0.0847863 0.09193055 -0.0773926
0.042638585 0.09090774 -0.20673496 -0.14063562 -0.053387508 -0.07456991 0.1569039 0.033179548
-0.07290307 0.12780972 -0.061900094 -0.028423717 0.109594725 0.036577035 0.02467881 -0.010476213
0.14129503 0.12983556 -0.15763615 -0.039931465 0.094606556 0.0052721435 -0.042758137 0.070433185
-0.015173536 -0.1416092 -0.0784698 0.013927161 -0.039496377 0.042482823 -0.06047431 -0.010605801
0.18080658 0.22315267 0.08021825 -0.020850986 -0.028281873 0.022610828 0.09489522 -0.07682573
00000000: 3be9 a93d 060c cd3d 8e94 083d 05ae e3bd
00000010: b9af 1c3e 3ed9 87be a884 2bbd beb0 b43d
00000020: 2d3e 29bd 9150 e13c d169 e03d 5571 0a3e
00000030: 1179 d43d 64d7 73bc d39e 8bbd a19a 173e
00000040: ab3f d8bd 3da7 f8bb 609f 18bd 4383 3f3d
00000050: 217f 0d3e 409a 213c 9b1e e63d 0040 c0bc
00000060: 2420 7cbd 7e32 373d c567 08bd 96eb 65bc
00000070: 5a5b 8abd af87 9b3c d22e 0b3c 41c1 9e3d
00000080: a161 db3d 7e5d 3e3d c699 093b 1859 303d
00000090: a11a 1f3e c19e bd3c c91e 803d 9233 37bd
000000a0: 7cd2 38bb 0278 51be 5d6b 46be bca0 acbd
000000b0: a7fb 6f3c 23d6 003d 902d 913d 3472 edbb
000000c0: 2760 b83d d88d 1d3c 7664 383e 9ec2 e03d
000000d0: 17fc a6bd 558e 723d 7415 cabc e12f 213e
000000e0: b996 febd cef7 673d 755d 79bd fc66 bfbd
000000f0: 1680 233e 67e4 34bd 7ab1 d8bc 8c66 963d
00000100: 79e6 80bd e9af 3e3d e1bf 0bbc 92c1 26bd
00000110: f3d1 1bbe 130b 04bd f77d 09bd 9a88 3c3d
00000120: 8c4a a33d 7f5f 8ebc f4aa 80bd d407 393d
00000130: ac3a 14bd 2b88 c4bb 9752 493e 9fe1 b3bd
00000140: 72df 1d3d bd6a 8a3c f069 77bd 043b a3bd
00000150: cb58 873b 6c6e b3bd bcf9 3bbd 8658 b5bc
00000160: de41 5f3d 5035 a0bc 8160 78bd baee 573c
00000170: bb3b 81ba e699 a2bd 44b3 3cbd ed8d 31be
00000180: 84b3 92bd 3472 b93d 8eae 543d 56e6 c63c
00000190: cddb f23b bef1 4a3e bdb0 cabd b967 18bd
000001a0: 9787 64bd 9278 8abd da72 35be 1869 413c
000001b0: ed6c d7bd 9e94 2c3d 7e9a dabc a385 bcbd
000001c0: 39e0 fbbd 32e9 febc 9747 393c e5ca ecbd
000001d0: 1ff6 aa3d bccb 54bd eb30 323b b592 a9bc
000001e0: 3b07 14be ca01 87bd e88c 5cbd 09ae 63bd
000001f0: 325a 21be 724f 2cbd c5d6 da3d c33e dbbb
00000200: e0a2 ecbd 4ecf 50bb fecf 133e 47e0 e53d
00000210: d0ec 0fbe cfb2 2abd 1186 29bd 29d7 81be
00000220: 259c 5c3e 12d9 563d 0d00 66bd 68bf 1dbe
00000230: 8434 14bd c394 a63d 4599 9c3d 6420 b3bd
00000240: 306b d63c 2428 f83c 585c f7bd 6d85 e9bd
00000250: 6cb6 663d f2ab 33bc 5399 013d 5b0d 0c3c
00000260: 23f3 313c c124 763d 266f 28be ccc9 21bd
00000270: 7bc6 6a3d 24c2 863c a06e b6bd 1a72 0cbe
00000280: 6692 c8bb b5c2 133c b101 9bbd 733e 03be
00000290: 78aa 033c 9518 19be 362f 86bd 380f 023e
000002a0: 0a02 033e 171d 913d 7c4e 213e 7a8f c8bd
000002b0: 266a c03d d602 443e 6c20 f9bd 8bd6 9cbd
000002c0: 1099 723d bcd3 8a3d 44bc 483e 0339 063e
000002d0: 6aaf c63c 0670 133e 0fcd d93b d4de b6bd
000002e0: d6dc eaba 91c3 f13c a2d5 77be 23bb c73d
000002f0: 8918 2f3e c7ed a5bd 4a4a cfbd 2b7f aebd
00000300: 3a59 adbd 944d a6bc ab62 14be 83ea 43bd
00000310: 7720 babc a459 bbbd a8c2 23bd eb66 55bd
00000320: b3dc c33d 4416 a93d 1be6 f4bd 7181 04be
00000330: 494c 9c3c 8154 2e3c e360 14bd 5633 60bd
00000340: e475 efbd 64d4 2d3d e5ff 8f3d 2c81 b13c
00000350: b248 1cbe 71a4 adbd 1646 bc3d 0380 9ebd
00000360: cca5 2e3d d62d ba3d 54b2 53be c902 10be
00000370: dcac 5abd 1cb8 98bd 6aab 203e 47e7 073d
00000380: 344e 95bd 8de0 023e f48a 7dbd dbd8 e8bc
00000390: 3373 e03d cdd1 153d 372b ca3c 6ca4 2bbc
000003a0: a5af 103e 9df3 043e 5f6b 21be 2d8f 23bd
000003b0: 15c1 c13d f2c1 ac3b 2823 2fbd 463f 903d
000003c0: 6c9a 78bc 0102 11be c6b4 a0bd bf2e 643c
000003d0: f4c6 21bd 7802 2e3d e9b3 77bd f4c3 2dbc
000003e0: 5c25 393e 2282 643e 7749 a43d b0cf aabc
000003f0: 63af e7bc 583a b93c 6d58 c23d cf56 9dbd
