results/CubeAgentZoneRay-View-150/CubeAgentZoneRay/checkpoint.pt (torch, 476943 bytes, 39 tensors)

network_body._body_endoder.seq_layers.0.weight f4 [128, 17]
000000 f6 21 7e be ab c3 9d bd a7 89 f0 3d 51 ba 2f 3e
       -0.24817643 -0.07703336 0.11745005 0.17160918
000010 27 9a 26 3e 9f a7 13 bf 56 c2 06 be 4e e9 87 bc
       0.16269742 -0.57677644 -0.13160071 -0.01659074
000020 2c 6a 47 3e 27 65 56 3e 1f 80 34 bd e3 07 21 be
       0.19474095 0.20937024 -0.0440675 -0.15725665
000030 63 e1 43 bd 34 40 77 be 68 de 15 bc 8d d4 0c 3e
       -0.047822367 -0.24145585 -0.009147264 0.13752957
000040 28 e1 4b 3e 48 2e 79 bd 90 db 55 be 90 f4 00 bf
       0.19910109 -0.060835153 -0.20884538 -0.5037317
000050 b0 0e d8 3e d5 ad 1b bf 2d 5a d6 be e0 28 b6 be
       0.42198706 -0.6081212 -0.41865674 -0.3557806
000060 90 77 b6 be 80 dc 49 3e af 58 2b 3e 34 ae 61 3e
       -0.35638094 0.1971302 0.16733049 0.2203911
000070 54 ed ee 3e 84 63 ae ba 8a bd 49 3d 41 30 2a be
       0.46665442 -0.0013304804 0.049253024 -0.1661997
000080 04 ef 72 3e 0a f2 4b 3e ba 50 b4 3e dd bf 98 3d
       0.2372399 0.1991655 0.3521784 0.0745847
000090 1c 02 8b 3e ac dc 88 be d4 5f 05 3e a0 d1 b3 3e
       0.27150047 -0.2673086 0.13024837 0.3512087
0000a0 d9 7f 87 be 7b 46 58 39 3f db 90 3d 11 bb d5 3e
       -0.26464728 0.00020625621 0.07073068 0.41744283
0000b0 52 3a b5 3d a1 95 9a bd 9a b0 21 bd 5f 4a cd be
       0.08849014 -0.07548071 -0.03947506 -0.40095803
0000c0 8e ad 73 3e 13 e6 9e be 2f 06 c7 be 90 a2 3b 3f
       0.23796675 -0.31034908 -0.38871905 0.73294926
0000d0 5a 2e 0e bf 1a 9f c8 bc 3c 0a 1e be 5d 56 89 3e
       -0.55539477 -0.024489928 -0.15433592 0.26823702
0000e0 1a 41 a6 3e 0e 96 f0 3e d6 66 f0 be 43 11 bc 3e
       0.32471544 0.46989483 -0.46953458 0.3673192
0000f0 d1 fd 5e 3e 9a 81 0e be 3b 86 5c 3e 6f ad d6 be
       0.21776511 -0.13916627 0.2153558 -0.41929194
000100 22 64 9c bd 2a 0e 86 3d 0b ea da ba b5 b4 d4 bb
       -0.07636286 0.0654567 -0.001670183 -0.0064912685
000110 14 81 07 3f 9e 1e 8c 3e 2e b2 75 bd f8 81 68 3e
       0.5293133 0.2736711 -0.05998438 0.22705829
000120 b4 80 81 be 0c b1 f7 3d 4d be 69 3d e4 dc 93 3e
       -0.25293505 0.12094316 0.05706625 0.28879464
000130 0b 49 31 bf ee 3e 63 be d3 d3 9e 3e 71 09 04 bf
       -0.6925208 -0.22191975 0.31020984 -0.51576906
000140 a0 de c2 3e 31 e6 fc bd 66 c8 6f bd 75 85 f7 bd
       0.38060474 -0.12348593 -0.058540724 -0.12086002
000150 e6 94 8a be ed 38 d1 3c 6f b7 7d 3e 51 f2 1d bc
       -0.27066725 0.02553984 0.24777006 -0.009640292
000160 3a e9 58 be 65 07 b3 3e f4 08 d9 3d f4 2b 53 bd
       -0.21182719 0.3496658 0.10597411 -0.05155559
000170 ac 8a e1 be 18 d0 9f 3d 20 bd 25 3e e7 9b e0 3d
       -0.4405111 0.078033626 0.16185427 0.10967236
000180 19 92 81 3e 70 8c 4c 3e 1e 41 82 be 47 53 19 be
       0.25306776 0.19975448 -0.25440305 -0.14973174
000190 d8 60 c1 be ee b9 37 be 07 49 b9 be 3c 12 e8 bd
       -0.37769198 -0.1794202 -0.36188528 -0.11331603
0001a0 62 b6 6e be 81 90 1a 3e d8 73 61 3d c4 32 22 be
       -0.23311761 0.15094186 0.055042118 -0.15839678
0001b0 dc fa 0d 3e 4c 1a 33 bf f5 4b e2 3c e4 4e 1c bd
       0.13865227 -0.69962 0.02762411 -0.038161173
0001c0 ad 1d a1 be 97 d6 75 3e 16 d4 94 be c3 8f 33 bb
       -0.31467953 0.24007641 -0.2906806 -0.002739892
0001d0 36 0c 9a be 5a 7f b9 3d 81 23 18 be 8e ba 13 bd
       -0.3008744 0.090574935 -0.14857294 -0.036066584
0001e0 f9 25 2b be 87 b6 c7 3d a7 50 6a be ef c4 07 3e
       -0.16713704 0.09751611 -0.22882329 0.13258718
0001f0 ad 88 ef bd e2 81 4b 3e 6e 0d de 3d 95 ab a2 be
       -0.11695991 0.19873765 0.10842405 -0.31771532
000200 60 5e 04 bd ea b4 3f be 56 ba 32 3d eb 4a a0 bd
       -0.032316566 -0.18721357 0.043634735 -0.078267895
000210 e5 49 e2 3e a0 34 77 be d6 d9 11 3d fe f0 26 3d
       0.44197002 -0.24141169 0.035608135 0.04075717
000220 c9 0d d4 3e ec 7c 7d 3e d2 ce b9 be 14 76 ed 3c
       0.41416767 0.24754685 -0.36290604 0.028986968
000230 01 1a 0c 3e c0 e5 9f 3d 02 05 23 3e 44 d0 03 3d
       0.13681795 0.07807493 0.15919879 0.03218104
000240 35 2e 0b 3f f9 f0 b3 3e 35 3d a5 bd b4 f5 b6 3e
       0.5436738 0.35144785 -0.08068315 0.35734332
000250 d7 fa 07 bd ec f7 df be 50 95 98 be c0 29 a3 bd
       -0.033198204 -0.43743837 -0.29801416 -0.079669476
000260 8a 8e 52 be f2 cb b2 3e 08 e9 a1 be 4d 74 70 be
       -0.20562187 0.34921223 -0.316231 -0.23481865
000270 f2 3d b2 3d 4a 26 de be 11 9d 4a be 5c 89 51 3c
       0.087032214 -0.43388587 -0.19786479 0.012789097
000280 ee 05 80 3e e0 9b 11 bd 1b 49 b1 be b2 b6 c8 3d
       0.25004524 -0.035549045 -0.34626088 0.09800471
000290 00 84 3e 3e 6e 21 2d 3e 82 8d bd 39 d2 cc 9d 3d
       0.18605042 0.16907284 0.0003615432 0.07705082
0002a0 b5 8d 9f be 38 d8 9a 3e de 3e a1 be 22 d6 18 3e
       -0.311628 0.30243087 -0.31493276 0.14925435
0002b0 42 71 2f be 19 3c 38 3e 8e 89 01 bc 0b 8e 29 3f
       -0.17133048 0.17991675 -0.007906331 0.66232365
0002c0 52 70 4c be 8b 49 74 3d eb e1 af bd 1f ef 84 be
       -0.19964722 0.05964045 -0.08588012 -0.25963685
0002d0 2c 67 61 be 27 cd 08 bf 79 8c 69 3e 97 b0 90 be
       -0.22012013 -0.5343804 0.22807492 -0.28259727
0002e0 58 07 b2 3d 27 1b 84 3e fd ad 83 3e 5e 35 a8 bd
       0.08692807 0.25801966 0.2571868 -0.08213304
0002f0 cc e9 28 3e 69 b5 0f 3e 2a fd 8a 3d b9 2c cb be
       0.16495436 0.14034046 0.067865685 -0.39682558
000300 0d db 9a 3e e8 93 9a 3b 0d fb 99 be 2c dd f1 bd
       0.30245247 0.004717339 -0.3007435 -0.11809763
000310 d8 f8 92 bd 84 ae 54 3e d6 ec 29 bf e2 09 46 3e
       -0.071763694 0.20769697 -0.6637701 0.19339707
000320 b0 56 b7 bc 5f 0e 2e be 13 0b 82 be 38 3d 8d 3e
       -0.022380203 -0.1699767 -0.25399074 0.2758577
000330 80 88 61 be f4 5c e9 bd 90 b2 51 be ae 3e 92 3e
       -0.22024727 -0.113946825 -0.20478272 0.28563446
000340 b6 29 11 bc ad 05 19 3e 2d b8 ea bd cd ad a8 bd
       -0.008860042 0.14943571 -0.1146091 -0.08236275
000350 03 18 ad 3d 3c d5 0b bf ae a5 9e 3e 33 46 eb be
       0.084518455 -0.54622245 0.3098578 -0.45951995
000360 04 a6 3f be b1 76 a4 3e 36 64 83 3d e0 e5 d9 bc
       -0.18715674 0.32121804 0.06415598 -0.02659887
000370 0a 60 29 3e b3 50 c8 3d 43 c4 a0 be b7 18 a4 3e
       0.16540542 0.09781017 -0.31399736 0.32050106
000380 e0 01 e3 3e 8f 12 95 bd db 18 62 3e 17 13 fd bd
       0.44337368 -0.072789304 0.22079794 -0.12357157
000390 cd 0b d8 be b1 f3 f5 be db 71 0d 3e f7 91 90 3e
       -0.42196503 -0.48037484 0.13812964 0.28236362
0003a0 41 1e da bc 0f 19 67 3e d2 f7 4a 3d 01 dc ae bd
       -0.026625754 0.22568153 0.049552746 -0.08538056
0003b0 7d 5f 39 be d1 a8 27 bc d3 cc 9e bb 2c f0 c3 bd
       -0.18102832 -0.01023312 -0.0048461943 -0.095672935
0003c0 ef 98 96 3d 7b 45 f5 be 79 1a 5c 3e 8e 7c a8 3c
       0.073533885 -0.47904572 0.21494474 0.020567205
0003d0 64 05 8e 3d 32 45 b4 3e 08 ce 0f 3e 04 7d 83 be
       0.06934622 0.35209042 0.14043438 -0.25681317
0003e0 27 aa 37 3e 53 a3 65 b8 73 2d c3 3e 7b 9f c4 3b
       0.17936002 -5.4749962e-05 0.38120613 0.006000457
0003f0 98 3e 1e 3d a5 b9 a6 3e 12 45 e5 bd 3c 7f a3 be
       0.038633913 0.3256351 -0.11194815 -0.3193301

network_body._body_endoder.seq_layers.0.bias f4 [128]
000000 3a 79 05 bd 56 83 1c 3c 34 0e 09 bd 1d 01 82 3d
       -0.032586314 0.009552797 -0.03346081 0.063478686
000010 5e eb c2 3d 50 ef 76 bd ac 26 92 bd 9a b6 3d bb
       0.09517549 -0.06028682 -0.07136282 -0.002894795
000020 0e 79 10 3d ab 80 66 bd 9b db 08 bd 71 0a 02 3d
       0.035271697 -0.05627505 -0.033412557 0.03174824
000030 86 74 44 b8 48 13 8d 3d e0 24 f5 bc 28 e3 b7 3d
       -4.6838562e-05 0.06888443 -0.02992481 0.089788735
000040 f7 61 f7 bb 9b 8f 89 3d 52 12 1a bc b9 5c 75 bd
       -0.00754952 0.06716844 -0.009403782 -0.05990288
000050 2a e5 42 3d ad 30 5b bd c1 47 b9 bd 50 82 93 3c
       0.04758183 -0.053513218 -0.09046889 0.018006474
000060 62 9e 8c 3d 4a f8 72 bc f9 b1 76 bc 49 ca a5 bd
       0.068661466 -0.014829705 -0.01505708 -0.080952235
000070 0d 23 49 3c 6f 29 56 3c 45 7f 16 bc b5 63 01 3d
       0.012276423 0.013071402 -0.009185617 0.03158923
000080 99 90 44 bd 9a e7 9f 3d eb b4 17 3c fc a2 60 3d
       -0.04798946 0.07807846 0.009259443 0.054842934
000090 78 8b df bc 10 03 d1 3a 4e e7 21 3d 9b 38 4d bd
       -0.027288184 0.0015946347 0.03952723 -0.05010281
0000a0 0c 8b 91 3c 7f 4a 1a 3e c6 9f db bb 1b ba f0 3c
       0.017766498 0.1506748 -0.006702396 0.029385617
0000b0 cd 01 81 bd 43 f6 3f 3d 9e f2 15 3d a8 39 69 3d
       -0.062991716 0.046865713 0.03660833 0.05693975
0000c0 e0 e8 e8 3a 81 71 8c bc 85 c8 89 bc b8 2b c0 bd
       0.0017769597 -0.017143967 -0.016819248 -0.09383339
0000d0 2a a5 d1 bc 4b 74 6c 3c d0 3c 85 bd 84 fc 11 bb
       -0.025591452 0.014432023 -0.0650574 -0.0022275755
0000e0 64 86 45 3d 02 b5 8c bc 88 fb 29 bd 98 e7 9a 3c
       0.048223868 -0.017176155 -0.041499645 0.01890926
0000f0 a4 1c 36 bd 12 df a8 bc 18 c9 5a bd 27 75 76 bd
       -0.044460908 -0.02061418 -0.053414434 -0.06017032
000100 ca 4f 49 bd c5 32 34 bd 3e 4c 23 3d d0 da 0a bd
       -0.04914836 -0.04399373 0.039867632 -0.033900082
000110 12 ee 17 3d cb 1e a7 bd ff 64 2f 3d 45 a9 3d bd
       0.037092276 -0.0816017 0.042820927 -0.046304006
000120 9c 8c 9c 3d ab bf 60 bb 8f c6 3a 3d 0b 57 42 3d
       0.076440066 -0.003429393 0.045599516 0.047446292
000130 02 63 63 3c e5 6f 44 3d d8 4c b9 3d b9 25 58 3c
       0.013878586 0.047958273 0.0904786 0.0131925875
000140 92 bd a2 bd 0d 75 c6 bd 3c 4e a2 3d 98 f8 c5 bd
       -0.07946314 -0.096902944 0.07925078 -0.09666556
000150 06 d2 0c 3d ca 98 61 3d c8 51 11 bd 09 38 95 3d
       0.03437998 0.05507735 -0.035478383 0.072860785
000160 08 07 4e 3a 57 f3 56 3d 12 e6 ec bb 72 4b a0 bd
       0.0007859324 0.05247816 -0.007229575 -0.0782689
000170 fd 3a d0 bb a7 6b d1 bc 53 24 89 3c 5f c2 de bd
       -0.006354688 -0.025564028 0.016740954 -0.10876917
000180 c4 09 9c 3d 9a 04 e3 3c 9c 2e 15 3d 75 eb fc bb
       0.0761905 0.027712155 0.036421403 -0.0077184984
000190 62 28 3f bd 62 01 29 bc 81 e3 c0 bc 79 5b 77 ba
       -0.04666937 -0.010315271 -0.023545982 -0.0009435933
0001a0 df 82 fe bb 41 96 c3 bb 48 c8 4c bd b2 3f 4c 3b
       -0.007767066 -0.0059688394 -0.04999569 0.0031165895
0001b0 87 ff 43 3d 63 81 cb 3d fb 53 7c 3d cf 7f e6 3c
       0.04785111 0.09936788 0.061603528 0.028137116
0001c0 0e 0e e0 3c 99 e7 0f bc f2 58 c0 3d 09 14 a7 3b
       0.027350452 -0.0087832445 0.09391965 0.005098824
0001d0 91 2d d9 bc 19 9a 51 3d 2e 15 21 3c 28 95 5b 3d
       -0.026510986 0.05117235 0.00983171 0.053609043
0001e0 77 a1 69 bd 12 5c 1b bd 04 7f 9b bc e8 d3 52 bd
       -0.05703875 -0.037929602 -0.018981464 -0.05147162
0001f0 f5 01 3a 3d 12 b1 b1 ba 14 4c 1a 3d d5 bf c0 bc
       0.045412023 -0.0013556799 0.03767021 -0.023528973

network_body._body_endoder.seq_layers.2.weight f4 [128, 128]
000000 95 7c 2a 3e f5 2e 16 bd 26 87 cd bc f6 80 9f 3d
       0.16649087 -0.036665875 -0.025088858 0.07788269
000010 cc 62 a0 bc a2 3d 4d 3d 73 77 f0 bc 13 45 f3 bc
       -0.01957836 0.050107606 -0.029353833 -0.029696023
000020 2b d2 14 3d 4d 31 30 bd 92 94 9c 3d 9e 00 9b 3d
       0.036333244 -0.043015767 0.07645525 0.07568477
000030 71 bd a8 3d 6e 2a 29 be d7 e3 2f bd f5 18 23 be
       0.08239258 -0.16520092 -0.042941894 -0.15927489
000040 f8 d4 aa 3d 17 cc cc 3c 1a d2 3b bd 4a 93 02 bd
       0.08341402 0.024999661 -0.045854665 -0.031878747
000050 6c da d4 3c 6f e1 64 3c 34 e5 18 bd 27 55 e4 bd
       0.025983058 0.013969763 -0.03732796 -0.11149054
000060 10 9e 9a 3d 71 1e 40 3c be df 35 3e 77 d8 28 bd
       0.07549679 0.011726008 0.17761132 -0.041222062
000070 9f 8d cd 3c 82 f3 24 3d fa 0c 88 bc 7d e8 07 be
       0.025091944 0.04027129 -0.01660775 -0.13272281
000080 3e 91 ae bd f4 28 3d be 91 ac b9 bd d5 a6 9d bd
       -0.085237965 -0.18472654 -0.090661176 -0.07697836
000090 29 28 0b 3e a6 f3 c8 3d 48 26 b6 bd ad 05 19 bd
       0.13589539 0.09812097 -0.0889402 -0.03735893
0000a0 98 86 1b bd d5 35 cd bd f5 e9 6e 3d 67 a2 b1 3d
       -0.037970155 -0.10020033 0.058328588 0.08673554
0000b0 cc 73 29 be 93 11 2f be 27 d7 28 3d b6 07 c4 bd
       -0.16548079 -0.17096548 0.04122081 -0.09571783
0000c0 c1 67 9b 3b bf fb eb b9 5d 5f 8e be 9a cf 2e bd
       0.004742593 -0.00045010258 -0.2780713 -0.042678453
0000d0 54 38 ab bd 5e f5 d2 bd fe 5c c7 3d e6 5c 6f bc
       -0.08360353 -0.10300706 0.09734534 -0.014609551
0000e0 70 6a 91 bd 60 55 b9 3c a0 14 74 3c 79 f0 6a bc
       -0.071003795 0.022623718 0.0148974955 -0.01433956
0000f0 19 13 76 3d d0 b2 53 3e c4 20 bd 3c 7e 4f 58 bd
       0.060076807 0.2067368 0.023086913 -0.052810185
000100 c4 c4 a0 bd 54 24 b9 bd 01 3e 22 3e 07 31 19 bc
       -0.0785003 -0.09040132 0.15843965 -0.009350068
000110 a5 be ee 3c 78 5a f4 bb e9 09 35 be 6b 15 05 bd
       0.02914364 -0.007457074 -0.17679562 -0.03249113
000120 33 43 9e bd b7 f7 91 bd 2b 65 44 3c 0a 11 90 bd
       -0.07727661 -0.07127326 0.011987011 -0.070345
000130 3e e2 fd 3d 2c 9b 0e 3e ae c9 d3 bd 9d 26 12 bb
       0.12396668 0.13926381 -0.10341202 -0.0022300847
000140 a7 f9 2b 3a 93 e7 33 bd c2 97 4a be eb 0e 11 3e
       0.00065603334 -0.04392202 -0.19784454 0.14165847
000150 26 4d f9 bb c3 77 80 be 9d 5d 66 3d a2 91 c9 bd
       -0.0076080738 -0.2509137 0.05624162 -0.098422304
000160 b2 4f 8b bc 12 77 3c 3c 0d 32 99 3d 51 85 05 be
       -0.017005775 0.011502998 0.074802496 -0.13039137
000170 bb 48 51 bd 25 74 3c 3e 20 82 17 3e 62 ee b0 bd
       -0.05109475 0.1840368 0.14795732 -0.08639218
000180 b3 15 3d be 4c c4 8b bd 31 b5 67 bd e0 90 a4 3b
       -0.18465309 -0.0682455 -0.056569282 0.0050221533
000190 68 76 b2 3d d2 67 fe 3c 82 35 30 bd cd fa b9 3d
       0.087139904 0.031055365 -0.04301978 0.090810396
0001a0 76 12 47 bd b3 8d 7d bd e2 f1 af 3d 0d c6 d1 3d
       -0.04860159 -0.061902713 0.08591057 0.10242853
0001b0 19 f2 40 bd 31 07 40 bd 6e 70 2a bc 20 99 22 be
       -0.047105882 -0.04688186 -0.010402782 -0.15878725
0001c0 db 28 0b bd ff 0d d6 bd f0 7a 26 be 2f 62 cd 3d
       -0.03397451 -0.10451888 -0.16257834 0.10028493
0001d0 bf 04 8f 3d 24 65 86 bd 46 7e 9b bd 7c 81 35 3d
       0.06983327 -0.0656226 -0.07592444 0.04431294
0001e0 84 8b 3e bc 91 9d 81 3e d3 88 a7 3c 35 e7 c4 3d
       -0.011629943 0.25315526 0.020450985 0.09614412
0001f0 6d c9 9b bd f2 9f 7c bd e0 2f 8b 3c fd 89 ec 3d
       -0.07606778 -0.061675973 0.016990602 0.11549757
000200 54 90 05 3e 56 70 33 3d e0 22 01 be 94 2f da bc
       0.13043338 0.043808304 -0.1261096 -0.026634015
000210 7e 8f 2a 3d f8 d9 74 bd 32 d4 86 3b 0c 2d 34 bd
       0.04164075 -0.059778184 0.004114651 -0.043988273
000220 3a 54 40 be c1 85 e7 ba 53 fc 37 3d 57 0b 47 3d
       -0.1878213 -0.0017663763 0.04491837 0.0485948
000230 1c b5 26 3e 90 66 b9 bd 1a b9 80 be 09 72 ca 3c
       0.16280025 -0.09052765 -0.2514122 0.02471258
000240 93 f9 91 3d 6f 2b ce bd 3a e8 c8 bd 0f e0 af bd
       0.07127681 -0.10066878 -0.09809919 -0.08587658
000250 b6 ff 3b be e4 55 65 bd cc 54 f4 bd 51 4f fc bd
       -0.18359265 -0.055990115 -0.11930236 -0.12319816
000260 3f a0 a0 bd d2 3e 66 3d 93 e4 29 bc 5e 94 12 3e
       -0.078430645 0.056212254 -0.010369438 0.1431441
000270 af 04 26 bd a9 33 76 3d 17 38 61 bc d6 9b f8 bc
       -0.04053181 0.06010786 -0.013746283 -0.030347746
000280 36 90 8f bc 7a 65 4b be 25 9b 1d 3d 8f 95 86 be
       -0.01752482 -0.19862929 0.038478035 -0.2628598
000290 d3 ad 1f 3e 19 86 01 3d 63 25 41 3d d8 e8 cd 3b
       0.15593652 0.031622026 0.047154795 0.0062838607
0002a0 50 46 3f be dd fd 01 be 3f 87 87 be 63 02 cb 3c
       -0.18679166 -0.12694497 -0.26470372 0.024781412
0002b0 12 06 38 3e 99 58 8b bd 1c ea 25 be 39 9c 54 bd
       0.17971066 -0.06804008 -0.16202587 -0.051906798
0002c0 79 46 42 bd bb 36 30 3d 09 ff 55 3e 88 2f fb bc
       -0.04743049 0.043020945 0.2089807 -0.030662313
0002d0 a7 7a 13 be b5 57 80 3a 34 c7 4d bd 28 ca c4 3d
       -0.14402257 0.0009791764 -0.050238803 0.09608871
0002e0 1e 98 e7 3d 1b b4 6a bc 81 fc 45 3d e9 c3 d4 bd
       0.11308311 -0.014325167 0.04833651 -0.103889294
0002f0 12 5a ea bd 27 bb 48 3c ba f3 62 be 28 07 50 bd
       -0.11442961 0.012251652 -0.22163287 -0.050788075
000300 74 b9 86 3e 7d ed 44 3d 1e 65 67 bd 31 d7 75 be
       0.26313365 0.04807805 -0.056492917 -0.2400787
000310 9e d5 74 be 34 df ac 3d 75 e2 ac 3d 78 0b 71 3e
       -0.23909613 0.0844101 0.08441631 0.23539531
000320 4f cf 25 be d1 14 01 be 1c 07 b5 bd 18 8c 8f bd
       -0.16192363 -0.12605597 -0.08839247 -0.07009143
000330 3e 32 cf bd d2 93 33 3d a0 17 21 bd 91 c0 e5 3d
       -0.10117005 0.043842144 -0.03932917 0.1121837
000340 e6 a6 2c 3d cf f3 31 3e 5e 6e cf bd aa 11 4d 3d
       0.042151354 0.17378162 -0.10128473 0.050065674
000350 24 a8 81 be b6 04 ec bd 39 57 7a bd 9e 8b f6 3c
       -0.25323594 -0.11524336 -0.06111834 0.030095872
000360 2e f8 a7 3e 7f 87 3e be 44 0a f8 bd 58 95 4f 3d
       0.32806534 -0.18606375 -0.12111333 0.050679535
000370 fc dc fa 3d 13 f1 c8 bd 32 97 8b bd b3 0e dd 3b
       0.12249181 -0.09811606 -0.068159476 0.006746137
000380 23 5b 3c be 4b 62 26 be 80 05 e0 3d 75 b6 66 bc
       -0.18394141 -0.16248433 0.10938549 -0.014081587
000390 a0 11 5a 3c 4d 24 73 3e cc 5a f7 3d fe 2a 86 be
       0.013309866 0.23744316 0.12077865 -0.26204675
0003a0 bd de a8 bc e0 5e bb bd df 5b 1a be 1a 7e 43 3e
       -0.020614022 -0.09148955 -0.15074109 0.19091073
0003b0 b2 4e 9e 3b 73 1f 5e 3d 3f a9 fe 3b 15 7d 3d be
       0.0048311586 0.05422921 0.0077716406 -0.18504746
0003c0 2e 10 b2 3d 1f 79 42 3a 0b 33 9c bd 8e 5b 61 bd
       0.08694492 0.0007418561 -0.07626923 -0.055018954
0003d0 15 a7 23 3e c7 6e c5 bd 2e 5c 83 be 67 65 49 bd
       0.15981705 -0.0964027 -0.25656265 -0.04916897
0003e0 34 ce 88 bd 83 8e 02 be b3 13 8a 3c 45 b0 0a be
       -0.06679955 -0.12749676 0.016855096 -0.13543804
0003f0 80 bd 91 3d f4 38 f3 bc 57 aa 38 bd 0e 58 8f bd
       0.071162224 -0.029690243 -0.045084324 -0.06999217

network_body._body_endoder.seq_layers.2.bias f4 [128]
000000 ef 28 58 bd a4 a7 89 bc fe aa 5f bd dc 2c 75 bc
       -0.052773412 -0.01680357 -0.05460643 -0.014964309
000010 06 be 95 bc 0c e5 88 bd b2 dd 27 3d 56 86 68 3c
       -0.018279087 -0.06684312 0.04098291 0.014192184
000020 2f ca 47 3b e0 0c b7 bb 0f 79 b5 3c 49 af 2f 3d
       0.00304855 -0.0055862516 0.022152452 0.042891774
000030 a8 73 25 bd 78 81 4e 3d 5f e4 1b bd e6 40 f5 3d
       -0.0403935 0.05041644 -0.03805959 0.11975269
000040 3e e1 de bb f1 70 15 bb d5 e6 e3 3c 0b b5 3e 3d
       -0.0068017533 -0.0022802914 0.02782003 0.046559375
000050 78 35 e2 3c 58 da 54 3d e4 ca 2c 3c f8 8c aa ba
       0.027613387 0.05196604 0.01054642 -0.0013011983
000060 5a 23 70 3c 51 7e 84 3d 52 15 10 bd 08 f2 91 3c
       0.014656866 0.064694054 -0.035176583 0.017815605
000070 45 da 3b bd 66 93 a9 3d 63 9f 46 bc 6d ba 50 3a
       -0.045862455 0.08280067 -0.012122962 0.000796235
000080 6e 5e a6 3c 54 91 a4 bc 67 76 0d bc 90 6a 25 3b
       0.0203087 -0.02008883 -0.008634186 0.0025240518
000090 8f 4b c2 3b 98 73 98 3d e1 d3 8a bb 7d a9 f3 bc
       0.0059294174 0.07443923 -0.0042366837 -0.029743904
0000a0 45 e6 bc 3c f5 ff 04 3d 4f d7 49 3d 85 e9 ab bc
       0.02305902 0.032470662 0.0492776 -0.020985374
0000b0 fd 81 30 3c 95 25 da 3b 5d 42 31 3b 64 b8 bb 3d
       0.010773179 0.006657312 0.0027047612 0.09166029
0000c0 e4 68 34 bd 11 8b cb bc f1 05 cf 3c 22 28 f6 3c
       -0.044045344 -0.024846585 0.025271388 0.030048434
0000d0 6c 60 94 bc 04 07 d9 bb c5 fc 05 3c 50 7e fd bc
       -0.018112384 -0.006623151 0.008177941 -0.03094402
0000e0 25 31 91 3b cb e9 50 bd 50 24 08 3d bb 90 b6 3d
       0.0044309073 -0.051004212 0.033237755 0.08914324
0000f0 e4 6c 22 3d d8 9e 9f bc fe 42 51 3d dc c1 ea 3c
       0.039654627 -0.019484922 0.05108928 0.028656892
000100 c8 81 8b 3d 0f 47 a7 3d eb 5c 7c 3d e4 f2 28 bd
       0.06811863 0.0816785 0.06161205 -0.041247264
000110 9f eb b3 3d 49 05 43 bd 6d 90 21 3c df b0 b4 3c
       0.087851755 -0.047612462 0.009861094 0.022056995
000120 ec 79 ba 3c 62 e5 c1 3d 62 a2 cd 3c ec 13 ba bb
       0.022763215 0.094675794 0.025101844 -0.0056786444
000130 30 c7 82 39 6c 18 8f bb cc 3e 47 bd 19 06 32 3a
       0.00024943938 -0.004366925 -0.048643872 0.000679107
000140 65 8d b6 3c 51 a1 3b bd 95 3a f8 3b 87 4c ca 3d
       0.022284219 -0.04580814 0.007575343 0.09877878
000150 94 bd 2a 3c b8 97 c1 3c 07 7d 06 bb 39 0c f6 3c
       0.0104211755 0.023631915 -0.00205213 0.030035125
000160 a8 d0 30 bc b0 8e c1 bc 08 c8 64 3d 13 f1 ad 3c
       -0.010791935 -0.023627609 0.055854827 0.021233117
000170 2d c4 c5 3c 73 0a 9f bc 81 6d fa bc be 7e 1f 3d
       0.024141395 -0.019414162 -0.030569794 0.03893923
000180 67 b6 8a bb e2 83 09 bd 0d 2b cc 3a a2 8d 03 bd
       -0.00423317 -0.03357304 0.0015576795 -0.032117493
000190 65 c3 6b bc 28 3f 75 bc cd e6 ac 3b 9c b8 db bc
       -0.014389847 -0.014968671 0.005276537 -0.026821427
0001a0 90 dc 76 3d 71 d5 bd 3c 9a b3 1e bd 25 88 b1 3d
       0.06026894 0.023173066 -0.0387455 0.08668546
0001b0 07 7a 06 3d 86 c2 d2 3c e0 1e d5 bc 60 00 b9 bc
       0.032831218 0.025727522 -0.026015699 -0.022583187
0001c0 fe a8 60 3d ba 8e d7 bc 6a da 0a 3c c2 44 5d 3c
       0.054848664 -0.026313175 0.0084749255 0.013505163
0001d0 9b b3 65 3c 63 fc 53 3d 50 4a bf 3c b6 0b 0c 3b
       0.014019872 0.051754367 0.023350865 0.0021369285
0001e0 32 58 9e bc 38 fb 32 3d 01 07 e4 3c 58 42 5b bb
       -0.019329164 0.043696612 0.027835371 -0.0033456292
0001f0 78 ea 38 3d ad db 9b 3c ea 3a 38 3b be 7b 85 bd
       0.04514548 0.019025648 0.0028111287 -0.065177426

action_model._continuous_distribution.log_sigma f4 [1, 2]
000000 11 8f 1a bc fc 1f 9d be
       -0.009433524 -0.30688465

action_model._continuous_distribution.mu.weight f4 [2, 128]
000000 03 8e ca 3c 92 45 ac bd f0 1a c0 3c 6f b9 8a 3c
       0.02472592 -0.08411707 0.023450345 0.016934125
000010 37 01 8a bd bc d4 27 3c 90 ca 1e be 6e 92 a8 bd
       -0.06738513 0.010243591 -0.15506959 -0.08231054
000020 5e 08 8c ba b9 99 77 bd 17 e3 a0 bd af 7b 2e be
       -0.0010683646 -0.060449336 -0.07855814 -0.17039369
000030 9c dd 78 3c 47 7c 26 be ea ba b4 3d 65 6d 21 be
       0.015189555 -0.16258346 0.088247135 -0.15764387
000040 b6 81 55 3d dd 4e 82 3c 5c d1 16 bd 55 2c 4e bd
       0.052125655 0.015906746 -0.036820754 -0.050335247
000050 80 a0 0e 3d b6 26 0c be 92 63 b0 bd 2d 2d 95 3d
       0.034821033 -0.13686642 -0.086127415 0.07284007
000060 2f 6e ca bd 57 bb 22 be ee 39 c9 3d 8f 12 19 bd
       -0.09884297 -0.15891777 0.09825502 -0.037371214
000070 d1 b3 27 3d f7 20 4d be 81 e9 f2 3d 2a a7 6e 3d
       0.04094297 -0.20032106 0.118609436 0.05826489
000080 77 23 15 be 93 2d a9 3d 72 27 65 3c cc 26 88 3b
       -0.1456431 0.08260646 0.013986455 0.0041550156
000090 06 52 cc 3d d9 c7 25 be a7 69 ed bc ad 74 d8 3d
       0.09976582 -0.16189517 -0.028981043 0.10569129
0000a0 97 5a 1b 3c e8 94 23 3e a2 7f cb bd 95 e7 82 3d
       0.0094820475 0.15974772 -0.099364534 0.06391827
0000b0 5b c5 e1 3d d1 31 3b 3e 4f 42 67 bc 4b f7 16 be
       0.11023971 0.18280722 -0.01411493 -0.14742772
0000c0 c3 72 c3 3d 0e 6e b7 3d 32 35 a6 bd bd 5c 7e bd
       0.095433734 0.08956538 -0.08115615 -0.06210016
0000d0 a8 82 86 bd 24 54 46 3d ed c4 8d ba 76 3d 19 bd
       -0.065678895 0.048420087 -0.0010816135 -0.03741213
0000e0 7e dd 01 bc f8 ec a1 bd a8 67 33 3d f4 51 15 be
       -0.007926343 -0.07906526 0.043800026 -0.14582044
0000f0 4e 14 c4 bd 74 6c a7 3c 0f 91 ce 3b 81 2f 1b 3e
       -0.09574185 0.020437457 0.0063039134 0.1515484
000100 c4 cf 26 be ed 21 62 be 7f ca 15 be 82 6b 3f 3d
       -0.16290194 -0.22083254 -0.14628027 0.046733387
000110 a9 bf 1b be a0 30 cb 3c c1 23 6b 3d a2 56 39 bd
       -0.15209831 0.02480346 0.057407144 -0.045248635
000120 79 68 15 be 5e 73 66 be fe 84 dc bd 81 4e 68 bd
       -0.14590634 -0.22504947 -0.10767554 -0.056715492
000130 98 d5 17 3d 9b ae b8 bd 31 ba 27 3d 9d 0e f7 3d
       0.037068933 -0.09017678 0.04094905 0.12063334
000140 96 4d 4c bd 25 a8 a2 3d 74 98 29 bd e5 7e 1b be
       -0.04987868 0.07942227 -0.041405156 -0.15185125
000150 dd 7b b8 bc f2 b6 ae bd 29 6d 84 3d 3a 7a f3 bd
       -0.02252 -0.08530988 0.06466133 -0.11888547
000160 64 08 0c 3e 6b d1 9d bd d3 f6 1f be 42 49 24 bd
       0.13675076 -0.07705959 -0.156215 -0.040108927
000170 f0 c2 26 3d ca f9 f5 3c 27 ba ef 3d fa 18 c5 bb
       0.04071325 0.030026335 0.117054276 -0.0060149403
000180 12 03 e4 bc 4d e5 63 bd 70 09 d0 bd f3 c8 d3 3c
       -0.027833495 -0.0556386 -0.1015805 0.025852656
000190 6a 5b 1c bd b0 64 fb 3d ba 85 0c 3c 01 8b 60 bb
       -0.038173117 0.12275064 0.008576805 -0.003426254
0001a0 01 e2 2d be ea 87 46 bd a1 fe 9a 3d f5 ac 34 be
       -0.16980745 -0.04846946 0.07568098 -0.17644103
0001b0 17 53 02 be 89 f5 62 bd 8f 9e fd 3d d6 5e 91 3c
       -0.12727009 -0.05540994 0.12383758 0.017745417
0001c0 f4 26 5a bc c9 a4 a0 bd 0d 88 a8 bc c3 0e 9d bd
       -0.013314951 -0.0784393 -0.020572687 -0.07668831
0001d0 d7 a7 aa bd 89 7f 3b be 7c b2 e4 3d c6 74 97 bd
       -0.08332794 -0.1831037 0.11166856 -0.0739532
0001e0 d8 59 18 bd 06 52 1b be 9b fd 72 bc 70 1a ba 3c
       -0.037195057 -0.15168008 -0.014830972 0.022717685
0001f0 b6 f2 53 be 6e d3 6a bd 15 e3 17 3e 46 40 51 3c
       -0.20698056 -0.05733054 0.14832719 0.012771672
000200 5a 8e cd 3b 82 69 c8 3d 40 34 27 bb ac b6 30 bc
       0.006273073 0.09785749 -0.002551332 -0.01078574
000210 ce 7b 39 3d e4 2c e2 3c 95 ca 95 bd 15 be 0d 3d
       0.045284085 0.027609296 -0.0731403 0.034605104
000220 88 3e 3e bd 7c 5d 96 bd 3a 33 b0 bc 70 05 77 3b
       -0.046446353 -0.073420495 -0.021508802 0.003769245
000230 7a a0 a6 ba 9c 9a 73 bb 55 f8 13 3d b7 52 d8 bc
       -0.0012712621 -0.0037171012 0.0361255 -0.026406629
000240 22 cb 6a 3d c8 55 e8 bc 32 ec 41 bd 42 d6 01 bd
       0.05732263 -0.028361216 -0.047344394 -0.031698473
000250 2c c0 29 be 2c c5 9c bc b1 25 2f bd bf b4 8a bd
       -0.16577214 -0.019136988 -0.042760555 -0.06772756
000260 a2 13 a3 3d 3c 8d 85 bd fe 3a e7 3c f7 cc 0a be
       0.07962729 -0.06521079 0.028226372 -0.1355475
000270 1b 44 08 3d cf c5 1a bd 39 ee 48 bd 10 0a 4a 3d
       0.033268075 -0.0377863 -0.04905531 0.049326003
000280 84 79 aa 3c 20 22 30 3d 02 42 ca 3c c8 05 30 3d
       0.020809896 0.043001294 0.024689678 0.042974263
000290 34 98 77 bc 61 e7 7f 3c 4b 90 04 3d d0 98 07 3c
       -0.015111972 0.01561913 0.03236417 0.008276179
0002a0 3c 26 2e be bd 7e 0a 3c d0 69 50 be a4 83 e4 3b
       -0.17006773 0.008453068 -0.20352864 0.0069737006
0002b0 0c ba ec bd 94 cd 11 39 0f 8a c9 bd 71 9e 85 bd
       -0.11558923 0.00013904861 -0.09840786 -0.06524361
0002c0 59 ac 02 3d 59 31 3c 3d 9f d9 b6 bc 62 a0 96 3d
       0.031902645 0.0459455 -0.022320567 0.07354809
0002d0 0c 98 7c 3d 5c e1 d1 bd 8a 26 e4 bb 73 76 b8 3d
       0.06166844 -0.10248062 -0.006962602 0.090069674
0002e0 21 69 36 3c e1 04 9b 3d 00 d5 39 be cb 6f 9e bd
       0.011133463 0.0756929 -0.1814766 -0.077361666
0002f0 33 31 c1 bd 1c 59 5a bd 38 75 6c be 4a b1 c6 bd
       -0.09433212 -0.053307638 -0.2309159 -0.09701784
000300 d0 12 27 bd c8 f6 d6 3c db fa 87 bd 15 b6 70 bd
       -0.040789425 0.026240721 -0.06639644 -0.058767397
000310 5c 9a 2d bd 31 99 31 bb 7e a2 17 be 08 a3 46 3c
       -0.042383537 -0.0027099366 -0.1480808 0.012123831
000320 ed 46 65 3d b8 32 8d bd dc 34 95 3d 25 4b 67 3c
       0.055975843 -0.068944395 0.07285473 0.014117037
000330 37 bf 14 be 50 57 fa 3d 1d 30 de bb aa 4a b1 3c
       -0.14526068 0.12223685 -0.006780638 0.021642048
000340 e7 ae 4a bd 3c 18 40 3d b1 59 41 bd 71 eb 96 bd
       -0.049483206 0.04689811 -0.047204677 -0.07369126
000350 e6 ec 93 3d 5c 8e 1e bd b5 5b 34 bc 65 c5 bc 3c
       0.07222919 -0.038709983 -0.011008193 0.023043344
000360 96 82 21 3d 47 79 2e bc 30 3a 6c bd ad fa 24 be
       0.039431177 -0.010649032 -0.05767268 -0.1611125
000370 78 ad 20 be a3 71 2b 3d 7e d2 a3 3d c4 5b 35 bc
       -0.15691173 0.04185642 0.079991326 -0.011069242
000380 f5 77 97 3c 16 c3 f4 3d ea f0 50 bd 5b 8d 75 3c
       0.018489817 0.11951272 -0.051011004 0.014987315
000390 38 39 80 ba 27 96 41 b9 9f 34 d3 3d a7 f0 8d 3d
       -0.0009782678 -0.0001846185 0.10312771 0.069306664
0003a0 d1 20 6d bd 67 42 3f bd 48 30 aa bc a7 7b 20 bb
       -0.057892624 -0.046694186 -0.020774975 -0.0024487765
0003b0 ed 53 ed bc 89 a2 3f bd 93 16 26 bc f8 f1 a0 3c
       -0.028970683 -0.046785865 -0.010137218 0.01964663
0003c0 b6 fb d2 bc 72 cb 05 3e 8a 8a 45 3c 72 a7 06 3b
       -0.02575479 0.1306589 0.012056956 0.0020546583
0003d0 41 43 86 3c 2d ce 2f bd 15 e2 87 3d 11 34 7c bc
       0.016389491 -0.042921234 0.066349186 -0.015393273
0003e0 8c b2 f0 3d 54 c1 52 bc 0d 30 2d bb 12 f1 05 be
       0.11752805 -0.012863476 -0.0026426346 -0.13080242
0003f0 4f da 9b bd 52 da ac 3d 92 bf 07 3d 2f 9f 02 3d
       -0.076099984 0.08440079 0.03314168 0.03189009

action_model._continuous_distribution.mu.bias f4 [2]
000000 09 2a 0b bd eb d2 95 bc
       -0.033975635 -0.01828905

action_model._discrete_distribution.branches.0.weight f4 [1, 128]
000000 cd 71 aa bb 48 9f d6 ba d8 0f e7 bb d3 89 aa bb
       -0.0052015544 -0.0016374374 -0.0070514493 -0.005204418
000010 f1 28 4b 3c fb 76 ac 3c a7 77 ef bb df d2 54 3c
       0.012399898 0.021052828 -0.007307965 0.012989729
000020 9d 8b d8 3a f2 ef f5 ba af be 10 3b f5 84 76 3c
       0.00165211 -0.0018763526 0.0022086313 0.015046348
000030 4f 3a 31 3b a3 ae 75 3b 93 68 4e 3c d9 dc 25 bc
       0.0027042811 0.0037488125 0.012598175 -0.010123455
000040 5f a9 42 bc 8d 8d 8d bb 99 4b 16 bc e1 f4 c8 ba
       -0.0118812015 -0.0043198527 -0.009173297 -0.0015331769
000050 8a 54 54 3a a5 a4 79 3c 1c b6 3f 3b af ad 4c 3b
       0.00080997555 0.015237008 0.0029252833 0.0031231453
000060 ff e3 4c bb 70 9b a7 bb b7 7d 04 3c 02 3a 70 3b
       -0.0031263826 -0.005114965 0.008086613 0.003665567
000070 50 8e 92 3b a9 74 89 3c 26 c7 0c 3c 00 27 cd 3a
       0.0044725314 0.01677926 0.008592403 0.0015651882
000080 72 2a 8b 3c 83 03 da bb 4a 83 ab 3b 20 e3 e2 b9
       0.016988013 -0.0066532507 0.0052341567 -0.000432753
000090 34 42 4a 3b da 95 05 bc 67 76 45 3c 29 14 17 bc
       0.0030862214 -0.008153403 0.012052155 -0.009221115
0000a0 a1 05 06 3c ff 92 3b 3c 13 c8 a5 3b 97 ec f0 3a
       0.008180053 0.011448621 0.005059251 0.0018381056
0000b0 4a 24 96 bb 3b de ea 3b 0b fe 5d bb 7b 5c d5 3c
       -0.0045819627 0.007167605 -0.0033873345 0.026045075
0000c0 1d 4e 4b ba ab 1a 12 3b 6c 6f 9a 3b db d9 03 bc
       -0.0007755475 0.0022293727 0.0047129896 -0.008047546
0000d0 d0 49 f4 3b 25 2d 09 bc 28 26 dd 3b 8d c8 43 bb
       0.007455088 -0.00837258 0.0067489333 -0.0029874176
0000e0 7f 96 15 3c c3 be aa 3b 57 76 59 39 65 a5 39 bb
       0.009130119 0.005210729 0.00020738818 -0.0028327343
0000f0 7b d6 be 39 70 e3 98 3b d5 c8 fc bb 72 ca 04 3c
       0.00036399424 0.0046657845 -0.0077143707 0.008104907
000100 17 4f 3e bc 8e 49 39 3a 7f 1f f6 bb 71 b9 04 3c
       -0.011615536 0.00070681504 -0.007511079 0.008100853
000110 b3 ce bc 3b e7 71 2f bb f9 ba 07 bc fa e2 21 3b
       0.005761945 -0.0026770772 -0.008284324 0.002470194
000120 7e 52 48 3c 50 5c cf 3b 82 88 99 bb f1 04 9f 3b
       0.012226699 0.006328143 -0.0046854625 0.004852884
000130 2c 40 3c bc e7 73 a0 bc 52 0c 82 3c 1a 15 70 bc
       -0.011489909 -0.019586517 0.015875015 -0.0146534685
000140 a7 63 f1 3c 20 46 91 3a 86 64 2d 3a 6f 95 19 bc
       0.029466463 0.0011083521 0.00066144054 -0.009374007
000150 0b c2 e7 3c 7f 83 e3 3b 09 ff 2a bb 35 6e cc 3b
       0.02829077 0.006943166 -0.0026091954 0.0062387236
000160 fb 2c 31 3c 1b 1e 38 3b 24 2b ad bb 9e c8 0b 3b
       0.010813947 0.0028094116 -0.005284684 0.0021329294
000170 89 78 84 3b df bf 1a b8 69 c2 a0 3b 56 04 9c bb
       0.004042689 -3.6895155e-05 0.004905988 -0.004761259
000180 17 f2 0f bb e7 5f d2 bb 42 e7 dc 3b b7 7e 63 bc
       -0.0021964365 -0.006420124 0.0067414353 -0.013885192
000190 35 32 04 ba 77 ab 84 bb ac 64 86 bb 9f a8 aa bb
       -0.0005042882 -0.0040487605 -0.0041013565 -0.0052080895
0001a0 90 50 de 3b e9 ca 03 3b f7 0d 94 bb 6e 9a a3 bb
       0.006784506 0.0020109958 -0.0045182663 -0.0049927747
0001b0 e9 9f 02 3b a2 41 35 3c d2 51 12 bc 77 18 82 bb
       0.001993174 0.011063011 -0.00893064 -0.0039702016
0001c0 cb 79 c5 bb 1a a7 e5 ba 8b 4f 31 bc f8 65 e1 3c
       -0.0060264817 -0.0017521114 -0.010822187 0.027514443
0001d0 a1 77 1a 3c 1b c4 1b 3c f8 cd dc bb a3 cf b8 bb
       0.009427936 0.009507204 -0.0067384206 -0.0056399866
0001e0 c8 7a ba 39 25 48 ac bc 69 7b 81 bc 38 f1 75 bc
       0.00035568164 -0.021030495 -0.015805917 -0.015011124
0001f0 47 52 10 bc 77 6a 95 ba 3b 0c 2b bb f5 07 d8 3b
       -0.008808679 -0.0011399527 -0.002609982 0.0065927454

exp_avg f4 [128, 17]
000000 0f 8a c7 3a 70 5c f0 3a e5 fd 83 3a 4b 61 ba 3a
       0.001522364 0.0018338095 0.0010070173 0.0014219669
000010 1e f7 fe 3a 6a ea 0b 3b cf 61 3c 3b bd 1a 3d 3b
       0.0019452309 0.0021349438 0.0028744822 0.0028855049
000020 a3 05 30 3b 4d f9 30 3b b2 5b aa 3a 7e 23 de 3a
       0.0026858828 0.0027004064 0.0012997298 0.0016947833
000030 34 58 29 3b e6 c3 2f 3b 69 8e ac 3b ad 54 db 3a
       0.0025839927 0.0026819645 0.005266 0.0016733609
000040 7e e3 8c 3b 35 fc 6e 3b e8 22 82 3b 80 d7 43 3b
       0.00429958 0.0036466245 0.0039714463 0.0029883087
000050 01 d4 78 3b 24 e6 c3 3b aa 84 e6 3b 5b e2 89 3b
       0.003796816 0.0059783626 0.0070348578 0.004207892
000060 a4 9b 92 3b 94 53 09 3c 41 79 0a 3c 47 e3 d2 3b
       0.00447412 0.008381743 0.008451761 0.006435785
000070 5b ce df 3b 0c 0b 07 3c 33 9a 08 3c e6 90 39 3c
       0.0068300194 0.00824238 0.008337545 0.01132605
000080 1e 2d 91 3b 90 48 c2 3c 6a 9b d4 3b 75 ab da 3b
       0.004430427 0.023716241 0.0064882534 0.0066732713
000090 27 97 e3 3b f1 8d e5 3b 99 b0 e9 3b 2d 99 ed 3b
       0.006945509 0.007005446 0.007131648 0.007250926
0000a0 79 b2 f3 3b 61 61 f2 3b 0c 3f d9 3b 00 65 d2 3b
       0.007437047 0.0073968624 0.00662983 0.0064207315
0000b0 5c 2f 00 3c fa f1 ff 3b 79 a6 c5 3b ca e3 cf 3b
       0.007823791 0.0078108283 0.006031808 0.0063442932
0000c0 87 5f 7a 3c 04 95 7e 3b 97 c9 ee 3b cf 3a 71 3c
       0.015281565 0.0038846144 0.007287215 0.014723494
0000d0 9a 6e 5f 3c 88 2a 4d 3c fc af 3e 3c d8 db 66 3c
       0.013637209 0.012522347 0.011638638 0.014090501
0000e0 08 b4 5d 3c 93 d1 38 3c 22 8c 34 3c ae 5d 0b 3c
       0.013531692 0.011280435 0.011019738 0.008506222
0000f0 04 96 01 3c 25 94 82 3c 78 a6 6f 3c 5a 05 ef 3b
       0.007909302 0.015939781 0.014627092 0.007294339
000100 ad bd f0 3b f5 88 97 bb 27 a7 94 3b 83 eb 9e 3b
       0.00734683 -0.004624481 0.0045365277 0.0048498525
000110 d4 ff 02 bc 3e 63 02 bc f7 fb e4 bb 8f fa e8 bb
       -0.0079955645 -0.0079582315 -0.0069880444 -0.007109947
000120 69 fd ef bb 09 84 f6 bb 62 bf 0d bc 96 73 0a bc
       -0.00732391 -0.007523064 -0.008651586 -0.008450409
000130 ee 9c e5 bb da 2b da bb ad 88 01 bc 02 0f 01 bc
       -0.007007233 -0.0066580595 -0.007906121 -0.007877113
000140 4d aa bb bb 05 51 c0 bb 1b 8a 0b bc d0 d4 81 bb
       -0.0057270885 -0.0058690333 -0.008516814 -0.003962137
000150 98 1b 6f bc b0 5e 85 3a 32 3a 97 3a 2e fa ff 3a
       -0.014593981 0.0010175314 0.0011537729 0.0019529515
000160 da d7 fd 3a 22 42 cb 3a 3e 0e db 3a 70 65 cb 3a
       0.0019366697 0.001550738 0.0016712619 0.0015517902
000170 08 5b cd 3a f0 8d a0 3a 8c a4 aa 3a c1 9b 04 3b
       0.0015667388 0.0012249332 0.001301901 0.0020234438
000180 70 7c 04 3b c9 c9 93 3a 7d f2 ab 3a 6d 3e 09 3c
       0.0020215772 0.0011275347 0.0013118532 0.0083767
000190 79 0c 8b 3a 43 cb 60 3b 54 db 29 ba c5 62 1d ba
       0.0010608576 0.003430084 -0.0006479521 -0.00060037925
0001a0 e3 67 86 b9 59 cd 9b b9 02 48 ad b9 ea 19 b4 b9
       -0.00025635873 -0.000297169 -0.0003305078 -0.00034351583
0001b0 c1 98 ff b9 dd 22 e8 b9 50 4a 4c b9 94 10 45 b9
       -0.000487512 -0.00044276463 -0.0001948264 -0.0001879356
0001c0 e7 4f af b9 7f c2 b6 b9 7f 2d 5a b9 9a de 60 b9
       -0.00033438133 -0.00034858656 -0.00020807049 -0.0002144523
0001d0 2e c3 22 bb 49 3a 61 b9 b2 e7 0f bb 2a c6 49 bb
       -0.0024835574 -0.00021479385 -0.002195817 -0.003078828
0001e0 05 f5 33 bb 74 96 d5 ba ab e9 c8 ba 2a 0f 2c bb
       -0.0027459275 -0.0016295449 -0.0015328428 -0.0026254156
0001f0 81 a5 2d bb 60 78 e5 ba cc 56 e6 ba 05 bd dc ba
       -0.0026496353 -0.0017507188 -0.0017573475 -0.0016841
000200 aa fa dd ba a1 60 43 bb ed 16 38 bb a6 d9 a5 ba
       -0.0016935666 -0.0029812234 -0.0028089837 -0.0012653365
000210 6b 1e b3 ba d7 82 01 39 fa 90 8e ba cc 85 d6 bb
       -0.0013665681 0.0001235114 -0.0010876947 -0.0065467115
000220 86 a8 78 3c c0 c0 6c 3c 02 d2 62 3c 06 53 58 3c
       0.015176898 0.014450252 0.013844015 0.013203388
000230 d2 e3 6a 3c 3a 04 71 3c 74 64 66 3c 6a 91 63 3c
       0.014336543 0.01471048 0.014062036 0.01388965
000240 b2 28 43 3c e9 03 46 3c ca 8c 86 3c 37 d0 81 3c
       0.011911558 0.012085893 0.016424555 0.015846355
000250 e8 db 3e 3c 7e e6 41 3c ec fb 05 3c 72 2e e2 3b
       0.011649109 0.011834739 0.008177739 0.0069025094
000260 3e 0d a5 3c d6 d7 2c 3b 0f 83 3c 3b 8c 2d f8 3a
       0.020147916 0.0026373765 0.002876464 0.0018934472
000270 e9 0c 22 3b 1f cd 6b 3b 10 89 7d 3b 2a ee 7f 3b
       0.0024726933 0.0035980416 0.0038686432 0.003905187
000280 62 b6 81 3b f0 95 90 3b f4 03 91 3b 8b c7 4d 3b
       0.0039585093 0.004412405 0.00442552 0.0031399454
000290 8e ad 67 3b 0e 40 8e 3b 2a 6c 91 3b 9a b2 02 3c
       0.003535125 0.004341132 0.004437943 0.007977152
0002a0 c6 fa 26 3b d9 d5 26 3c 4b 43 57 bb b8 8f 3d bb
       0.0025479062 0.010182821 -0.0032846506 -0.0028924774
0002b0 c9 91 0b bb 99 f2 f4 ba 46 62 60 bb da 61 78 bb
       -0.0021296612 -0.0018688022 -0.0034238263 -0.003790012
0002c0 42 3d c7 ba 0e da cd ba d2 21 44 bb e1 2c 32 bb
       -0.0015200751 -0.0015705244 -0.0029927385 -0.0027187394
0002d0 a0 08 90 bb a0 03 86 bb ad 60 01 bb 2f 9e 07 bb
       -0.0043955594 -0.0040897876 -0.001974146 -0.002069365
0002e0 3c d9 41 3b 36 43 9d ba 95 77 42 bc 72 43 8c 37
       0.0029578945 -0.001199818 -0.011869331 1.6720707e-05
0002f0 fc 54 5b 3a ae 22 21 39 f9 0d 9c 3a 7d a0 1e 3b
       0.00083668507 0.00015367076 0.001190602 0.0024204545
000300 b7 91 18 3b 51 91 e6 3a 58 89 f3 3a f4 05 09 3b
       0.0023280212 0.0017590915 0.001858036 0.002090809
000310 0b 19 18 3b b3 5c 2e 3a 25 b7 98 3a a8 dc 2c 3b
       0.0023208286 0.00066513865 0.0011651261 0.0026376639
000320 9b ef 38 3b 92 7b 23 3c fb 09 00 3b 1b e0 bf 3b
       0.0028218988 0.009978192 0.0019537199 0.005855573
000330 42 b2 cb b8 74 4d 9a 38 f1 ef 12 39 a4 bd 97 39
       -9.7129974e-05 7.357719e-05 0.0001401303 0.00028942258
000340 d5 4c 77 b9 ef 48 7a b9 e1 cd 44 3a c5 61 3e 3a
       -0.00023584378 -0.00023869028 0.0007507485 0.00072624936
000350 3c 45 77 b9 c5 23 39 b9 d9 dd e5 b9 65 12 9b b9
       -0.00023581547 -0.000176563 -0.00043843573 -0.0002957761
000360 09 22 4d b9 d0 03 03 b9 20 78 a7 3a 1d a8 33 39
       -0.00019563003 -0.00012494554 0.0012776889 0.00017133397
000370 d7 1a 0d bb 33 c6 3c bb 06 f0 1e bb 9b dc ed ba
       -0.002153089 -0.002880466 -0.0024251952 -0.0018147411
000380 d7 06 d3 ba bb 01 eb ba e1 45 af ba bf 40 56 bb
       -0.0016100061 -0.0017929593 -0.0013372266 -0.00326924
000390 49 fc 46 bb bf 54 75 ba 22 98 15 ba 26 55 19 bb
       -0.0030362776 -0.00093586365 -0.00057065685 -0.00233967
0003a0 ce eb 0c bb c1 b0 af b9 0d c5 8c b9 28 78 1c 3b
       -0.0021502855 -0.00033510293 -0.00026849695 0.002387533
0003b0 49 d2 d0 b9 b3 03 f7 3b d4 07 3f bb ae b7 5e bb
       -0.00039829526 0.007538283 -0.0029148953 -0.0033983993
0003c0 7f ce 54 bb d5 6e 7e bb b2 39 aa bb c2 c8 b3 bb
       -0.0032471714 -0.0038823385 -0.005194866 -0.0054865787
0003d0 e7 05 a6 bb e5 b3 aa bb 07 f9 c8 bb 9c d0 c7 bb
       -0.0050666216 -0.0052094334 -0.006133202 -0.006097866
0003e0 c7 75 a6 bb b4 75 b1 bb 95 94 c3 bb 66 2d c9 bb
       -0.005079958 -0.0054156426 -0.00596864 -0.006139445
0003f0 3f d6 13 bc c5 d7 61 bb 87 0e 28 bc 5b 0e 53 bc
       -0.009023248 -0.0034460884 -0.01025737 -0.012881841

exp_avg_sq f4 [128, 17]
000000 a7 88 f7 38 58 cd fe 38 94 1e 0f 39 db 4a 11 39
       0.00011803331 0.00012149912 0.00013648934 0.00013856163
000010 3c 3c 06 39 80 3a 09 39 1e 5a 13 39 b7 90 14 39
       0.00012801675 0.00013087131 0.00014052584 0.0001416829
000020 c1 01 16 39 95 15 18 39 1a 28 11 39 eb ff 12 39
       0.00014305768 0.0001450389 0.00013843217 0.00014018982
000030 ff 06 14 39 f0 f2 14 39 ed e7 e9 39 3f e5 a4 38
       0.00014116986 0.00014204881 0.0004461402 7.86283e-05
000040 c8 4c 31 3b a6 62 ae 39 e8 30 b5 39 c1 75 bc 39
       0.0027053822 0.00033261365 0.00034559448 0.00035945888
000050 77 1c c3 39 10 b7 c0 39 fd c0 cb 39 dd 88 bd 39
       0.00037214506 0.00036757486 0.00038862965 0.0003615086
000060 cd 54 c4 39 44 21 f6 39 70 5e fc 39 66 77 02 3a
       0.00037447215 0.0004694556 0.00048135547 0.0004976898
000070 76 a6 03 3a c1 7b fe 39 2d 1f 00 3a a7 dd da 3a
       0.0005022058 0.0004853886 0.0004887458 0.0016698138
000080 e9 45 4f 3b 5b fe df 3b 71 12 95 39 e4 ee 97 39
       0.0031627363 0.0068357415 0.00028433235 0.00028978952
000090 06 87 8f 39 88 e8 91 39 3f a9 9d 39 d7 08 a0 39
       0.00027375686 0.00027829804 0.00030071472 0.00030524164
0000a0 2b 79 88 39 9e a9 8c 39 ec 41 85 39 b7 0c 8f 39
       0.0002603022 0.00026829256 0.00025416852 0.0002728456
0000b0 58 5f 99 39 51 00 9b 39 6b 11 99 39 06 dc 9a 39
       0.0002925347 0.0002956414 0.00029195411 0.000295371
0000c0 87 bf b5 3a 72 cd 68 3a 19 87 09 3b 01 32 3d 3b
       0.0013866284 0.00088807114 0.0020985065 0.0028868916
0000d0 8e f5 3d 3b 2c 9b 26 3b 3e 81 29 3b 96 78 4b 3b
       0.0028985473 0.002542208 0.0025864388 0.0031047217
0000e0 2e 9c 4d 3b 93 f7 35 3b 3e 77 37 3b a3 96 3e 3b
       0.0031373608 0.0027765974 0.0027994658 0.0029081486
0000f0 56 45 43 3b d9 5d 3d 3b 9f 27 3f 3b c7 35 47 3b
       0.0029795966 0.002889505 0.0029167903 0.0030397044
000100 30 d1 47 3b 82 f0 7a 3c d0 d8 4b 3c 38 b5 26 3d
       0.0030489676 0.015316131 0.012441829 0.040700167
000110 cf 32 56 3a 19 4b 56 3a ab fa 3e 3a 8d 32 42 3a
       0.0008171023 0.00081746426 0.0007285277 0.00074080453
000120 02 9a 43 3a cb d5 46 3a 81 e2 34 3a 13 4e 3a 3a
       0.00074616086 0.0007584958 0.0006900207 0.0007106971
000130 86 8f 08 3a 3f 92 17 3a a7 3b 42 3a 72 80 45 3a
       0.0005209375 0.0005781985 0.00074094016 0.00075340935
000140 7d 19 48 3a 5c 10 4a 3a ac d6 ab 3b 61 2b 14 3c
       0.00076331926 0.0007708126 0.0052440967 0.009043545
000150 f5 01 60 3c d6 d9 8c 38 fb ff 8f 38 36 5e 74 38
       0.013672342 6.716295e-05 6.8664514e-05 5.8261874e-05
000160 50 06 7c 38 e7 7f 97 38 00 92 99 38 6c 8e 89 38
       6.008736e-05 7.224065e-05 7.322803e-05 6.559197e-05
000170 0b f4 8b 38 5b b2 93 38 21 08 97 38 63 38 9b 38
       6.673493e-05 7.0427275e-05 7.201755e-05 7.401479e-05
000180 ac 26 9c 38 9e 58 97 38 ed 0d 9a 38 5c 66 6e 39
       7.445863e-05 7.216747e-05 7.345886e-05 0.0002273558
000190 67 39 bb 37 f3 f9 21 39 1a 76 d4 36 7a cd db 36
       2.2318867e-05 0.0001544727 6.331841e-06 6.550629e-06
0001a0 83 fd d7 36 5c 57 e0 36 d1 b3 14 37 8a 1a 15 37
       6.437012e-06 6.68589e-06 8.863354e-06 8.887271e-06
0001b0 f4 91 f0 36 c2 42 f8 36 53 71 f4 36 dc 9f 02 37
       7.1695486e-06 7.3987476e-06 7.2849593e-06 7.785824e-06
0001c0 0d 18 0f 37 5e 98 12 37 92 aa 10 37 24 de 11 37
       8.529064e-06 8.737754e-06 8.622783e-06 8.694395e-06
0001d0 56 2c b5 38 36 61 e0 39 4e 5c f2 39 c7 0c 0a 39
       8.639011e-05 0.00042797037 0.0004622661 0.00013165465
0001e0 37 e8 0b 39 89 9b 05 39 bb bf 07 39 ea f6 17 39
       0.0001334258 0.0001274181 0.00012946028 0.00014492465
0001f0 65 41 19 39 ae e1 0e 39 f7 c6 10 39 de a1 db 38
       0.00014615578 0.00013626248 0.0001380703 0.00010472884
000200 da 86 f1 38 49 8a 15 39 f1 55 18 39 60 69 1f 39
       0.000115168936 0.00014261263 0.00014527865 0.00015202677
000210 d6 39 1f 39 c5 db 72 3a 50 1b 68 3a 92 e9 02 3b
       0.00015184967 0.00092643156 0.00088541675 0.0019975645
000220 b2 3f f8 3a 3f 0b f9 3a df b5 d3 3a 68 2b d8 3a
       0.0018939881 0.0019000544 0.0016152224 0.0016492428
000230 68 9e fc 3a f2 1b ff 3a 01 a0 e6 3a a5 d1 e9 3a
       0.0019273283 0.0019463284 0.0017595292 0.0017838968
000240 6b b4 f7 3a f9 bd fb 3a c3 60 f3 3a b4 91 f5 3a
       0.0018898373 0.0019206397 0.0018568266 0.001873544
000250 71 ea fd 3a d0 5d fd 3a d2 94 fc 3b 12 76 29 3c
       0.0019372237 0.0019330326 0.0077081705 0.010343092
000260 4c ad f2 3c 30 b5 17 39 53 9f 1a 39 8e ed 1d 39
       0.02962365 0.0001446798 0.00014745937 0.00015061183
000270 aa 63 21 39 fb a4 17 39 c2 01 1d 39 9f 21 30 39
       0.00015391284 0.00014461942 0.00014973342 0.00016797193
000280 f7 9e 31 39 62 a1 2d 39 75 60 30 39 f3 a8 33 39
       0.00016939254 0.00016558685 0.00016820601 0.00017133709
000290 9e 24 35 39 41 a7 32 39 64 71 33 39 2b 00 04 3a
       0.00017275146 0.0001703771 0.00017113012 0.00050354254
0002a0 2b 22 3e 38 42 aa 2b 3b 68 15 03 3a ee 9f 05 3a
       4.533135e-05 0.002619401 0.0005000443 0.0005097379
0002b0 7c fa f5 39 47 4e fa 39 54 81 13 3a 97 fd 14 3a
       0.00046916667 0.00047742037 0.00056268764 0.000568354
0002c0 2f 52 dd 39 13 e7 e1 39 64 f4 f8 39 cb a5 00 3a
       0.00042213636 0.00043087508 0.0004748433 0.00049075176
0002d0 94 5a e3 39 04 c5 e9 39 50 82 06 3a eb ba 06 3a
       0.000433643 0.0004458801 0.00051311124 0.0005139547
0002e0 6e 07 ff 3a 9c e2 6c 3a fb 5b 27 3c c8 99 69 3a
       0.001945717 0.0009036453 0.010214801 0.000891116
0002f0 86 43 6c 3a fa fa 63 3a 61 76 68 3a 9c 14 72 3a
       0.00090127473 0.0008696761 0.00088677375 0.00092346384
000300 b7 60 77 3a 6a 1e 6b 3a a7 7f 6d 3a d2 e5 83 3a
       0.0009436714 0.00089690706 0.0009059854 0.0010062999
000310 a5 d1 83 3a 4f 2c 6b 3a 89 9e 6d 3a ca 97 7c 3a
       0.0010056986 0.0008971141 0.0009064456 0.00096356554
000320 15 44 7d 3a dd 37 35 3b 3b d1 88 39 40 5f 82 3c
       0.0009661329 0.0027651705 0.0002609583 0.01591456
000330 0b fc 0c 38 85 ab 0e 38 a7 54 01 38 da 3e 04 38
       3.3613334e-05 3.401518e-05 3.0834835e-05 3.1529788e-05
000340 9c 3f 24 38 5a bf 24 38 a6 61 fc 37 62 70 01 38
       3.9159888e-05 3.9278857e-05 3.0086212e-05 3.086066e-05
000350 c6 62 1f 38 5f 7e 20 38 97 39 11 38 0e 35 12 38
       3.8000544e-05 3.8264665e-05 3.462433e-05 3.4858524e-05
000360 ac 8d 1d 38 1e f0 1d 38 14 f1 16 39 fd 74 35 37
       3.756366e-05 3.7655343e-05 0.00014394923 1.0815679e-05
000370 7e 90 28 3a 4a e0 52 3a f6 45 55 3a 9f 2f 50 3a
       0.00064302224 0.0008044286 0.000813573 0.00079416664
000380 ec 91 51 3a 8c ca 60 3a 18 d5 63 3a 99 a3 3e 3a
       0.00079944613 0.0008575104 0.0008691116 0.0007272303
000390 a1 e3 41 3a 08 4c 46 3a ed b4 4f 3a 24 8e 56 3a
       0.0007396285 0.000756443 0.00079233834 0.0008184633
0003a0 67 aa 58 3a a3 b3 5e 3a bb 69 61 3a 04 28 56 3b
       0.0008265138 0.0008495396 0.0008598824 0.003267766
0003b0 40 1b 8a 39 e9 d8 a4 3b b3 db 30 39 e5 29 36 39
       0.00026341714 0.0050307405 0.00016866512 0.0001737248
0003c0 0f 87 31 39 98 86 37 39 63 f2 56 39 b6 98 5a 39
       0.00016930349 0.0001750238 0.00020498926 0.0002084699
0003d0 d5 6c 52 39 67 ed 54 39 4d 47 54 39 ab c2 5a 39
       0.00020067704 0.00020306335 0.00020244457 0.0002086262
0003e0 ad 9b 5e 39 41 5c 60 39 48 e3 65 39 cb 21 67 39
       0.00021229564 0.00021396672 0.0002192381 0.00022042466
0003f0 fe 81 43 3a ce 51 ef 38 c3 9a 14 3b b6 78 46 3a
       0.000745803 0.000114116454 0.0022675253 0.0007571088
